docs/smld/lightning_logs/version_106/checkpoints/epoch=49-step=4900.ckpt (torch, 345995 bytes, 18 tensors)

model.layers.0.weight f4 [164, 3]
00000000: 1581 5abe 18b1 eebe ab1b b03d 35ce 0abe
00000010: 67fd e43c 329b 0dbf 053f 9d3e f001 f2be
00000020: a588 26be e417 c53e 4d53 fabc e3a7 0a3f
00000030: abac 213d 03a3 ee3d 595d 82bd 03c5 9dbe
00000040: c350 98be cf3d 1a3c 99e5 b43e e144 adbe
00000050: 50f4 2bb8 d228 d4be 67b5 a2be b8b8 08bf
00000060: 89dc 323e b74d d93e 4fab f9be bee9 d1bc
00000070: 6c59 873c 0342 46be 5955 873e 9c7b 1b3d
00000080: f356 3dbe e9ae 99bc 72ad 8dbb 5fca 803e
00000090: 1ab3 7a3e 5686 d3be 6692 e43e 1d23 babe
000000a0: 429e ec3d a2d6 ab3e a679 63be 546b aa3e
000000b0: 601c c93e 076f 5abd ae6f cbbe b360 d5bb
000000c0: bd71 dd3e 34a9 bdbe 5cb6 eb3e eb94 3fbe
000000d0: ebe3 9c3d 30b5 843d d482 a0bd 1781 39be
000000e0: 6c25 783e 301c 093f f7e9 fd3e bd71 983e
000000f0: e89b ecbe d5c8 af3e ab65 053f 8cc1 e43d
00000100: 5b13 babe 20c6 d1bd 15f1 d4be c16d 033e
00000110: 5565 44be 5835 2ebe 0244 08bb 5a46 d4bd
00000120: ec6f 0cbf d0a3 c3be 3ff0 16bf a8cf a7bd
00000130: a22b 943e c81f 8c3d 3ec4 113e 3b1f a3be
00000140: ba24 b83d f5cb 03bf 9d36 633e 8416 f73e
00000150: d1d1 80bd b712 fabe 0104 06bf 82e0 7dbd
00000160: 9bdd e6be 667e 8ebe c306 5ebe 7474 5f3e
00000170: 5942 073f e391 c0bc 0857 d2bc 5805 f13e
00000180: ccb9 25be ec66 b93d d4b8 a8be 1e3e 0cbe
00000190: fee8 9f3e 0034 e9be 50fa 9a3e 02c3 a43e
000001a0: 3c46 88bd 4db9 593e 654c 17bc e461 f93e
000001b0: a851 8a3e 1dee 123e ce76 d63e 4c51 80be
000001c0: 3e60 f43e a292 51be 5280 32be a1d9 d4be
000001d0: 7617 e4be 572f f33e 7018 7abe b794 983e
000001e0: 34cb 173d 9bb2 18be 1953 cf3e 7dfd 71be
000001f0: ee33 d2be c300 823d 0cb2 f4be ae9f b9be
00000200: ad1a e8bc 16b4 ea3e 64a0 98be e8ea fb3d
00000210: c0d6 d13d 4bd1 d6bc e144 cfbd 2844 06bf
00000220: bde9 723e c65d eabe 9837 b7bd 0aca 96be
00000230: 7b99 583e 28e3 91be 9b65 563e 7be0 0ebf
00000240: 97ac 6f3d 292b 87be 1c51 e7bd 68a3 e63c
00000250: a75a 073e 2f49 edbd 3ab5 f93e f093 f7be
00000260: 68b7 433d 3cf6 af3e a2f7 ad3e 7afb 003f
00000270: a872 d23e dae4 b93d cc93 c43e 8a4a ce3e
00000280: 1893 bc3e 58c4 853e 39c0 083f 4f72 a4be
00000290: ab63 82be 5da7 f83d db7a 913e 45cf 42be
000002a0: 79e3 88bc f85a babe 58a1 9f3e 261d 2e3e
000002b0: d742 a1bd a8dc c73c de42 9b3e 1d21 983e
000002c0: f746 3b3e 834f 2cbe 9880 a63e c764 8a3e
000002d0: de3d ecbe 4290 af3e 8806 35bd 084f ea3e
000002e0: 881a 083f 4ca2 2b3e 4f59 72be 196f d8be
000002f0: dacc f6be 8f8c 543c 30a3 9cbe ccc9 813d
00000300: 317f 0b3f 31af 0f3e 5f02 013f df52 483c
00000310: 6c32 d8be 1542 5d3e 89f4 a43e 2b97 02bf
00000320: 9230 603e 12ea f93d 5576 d13e 570b 0cbf
00000330: 9304 033d 9cd2 e83e 4119 eebd cbae c7be
00000340: 9e76 afbe f146 d63e f58a c8be e7e9 493e
00000350: 3cdd 1cbf 3fcf aabe c6f1 44be 48a4 05bd
00000360: 087b 72bd 5e3a 113d 2e58 083f d199 d53e
00000370: 1b04 123e 780d 86be 1cf4 99be c17a bbbe
00000380: 7bc6 e7be e914 c63e c458 08bf 50d5 a13e
00000390: fb3a b23e 826d 64be 0a75 d0be cee3 b13e
000003a0: c68e bfbe b580 1f3e 4a1d fd3e 3b88 bb3e
000003b0: 2c7d dfbd 5045 f73d 7846 44bd f540 09bf
000003c0: e236 cdbe 59fa d9be 7e6e 263e d49e 3b3e
000003d0: 335d 9abe b7c2 9a3e 9cdc 57be 0cf2 30be
000003e0: 06b3 16be 86e9 023f ae70 a4be b068 f3be
000003f0: 6c11 273e 9c6e 43be 83c6 dc3e 3e2f 443e
-0.21338303 -0.46619487 0.08599027 -0.13555224 0.027952863 -0.55314934 0.30712143 -0.47267103
-0.16263063 0.3849479 -0.030557299 0.54162425 0.03947131 0.11652186 -0.06365461 -0.3081437
-0.29749116 0.00941415 0.3533142 -0.33841613 -4.099711e-05 -0.41437393 -0.31779024 -0.5340686
0.1746694 0.42442104 -0.4876351 -0.025624152 0.016522132 -0.19361119 0.26432303 0.03795968
-0.184902 -0.018760161 -0.004323655 0.25154397 0.24482384 -0.41313428 0.44642943 -0.36354914
0.11553623 0.3356219 -0.22214374 0.3328501 0.3927946 -0.05332854 -0.39733642 -0.0065117716
0.43250838 -0.37043154 0.46037567 -0.18709151 0.076606594 0.06479871 -0.078374535 -0.1811565
0.24233025 0.53558636 0.49592564 0.29774275 -0.46212697 0.3433291 0.5210826 0.11169729
-0.36342892 -0.102428675 -0.4159018 0.12834837 -0.1917928 -0.17012537 -0.002079249 -0.10364981
-0.5485828 -0.38210917 -0.58960336 -0.08193904 0.2893954 0.06841999 0.14235017 -0.31859764
0.0899138 -0.5148309 0.22188802 0.48259366 -0.06290019 -0.48842403 -0.5234986 -0.061981685
-0.45090947 -0.2783081 -0.21682267 0.21821767 0.52835613 -0.023507064 -0.025676265 0.4707439
-0.16184157 0.09052834 -0.32953513 -0.13695571 0.31232446 -0.45547485 0.30269098 0.3218003
-0.06654021 0.21262093 -0.0092345225 0.48707497 0.27015424 0.14348646 0.41887516 -0.25062025
0.47729677 -0.20466092 -0.17431763 -0.41572288 -0.4454915 0.47497055 -0.24423385 0.2980096
0.037059024 -0.14911883 0.40493086 -0.23631854 -0.41055244 0.063478015 -0.4779209 -0.36254638
-0.028333033 0.4584052 -0.29809868 0.12300664 0.102460384 -0.026222846 -0.101205595 -0.5244775
0.23721977 -0.45774668 -0.089461505 -0.2945102 0.21152298 -0.2849362 0.20937197 -0.5581128
0.058514204 -0.26400116 -0.11294767 0.02815409 0.13218175 -0.11586224 0.48771077 -0.48355055
0.04778233 0.3436755 0.3397799 0.5038372 0.411031 0.09076853 0.3839401 0.40291244
0.36830974 0.2612636 0.5341831 -0.3211846 -0.25466666 0.12141297 0.28414044 -0.1902438
-0.01671003 -0.3639753 0.31177783 0.17003307 -0.07874077 0.02439721 0.30324453 0.29712763
0.1828879 -0.16827206 0.32519984 0.27030012 -0.4614095 0.34289747 -0.04419568 0.4576342
0.53165483 0.1676113 -0.23666881 -0.4227226 -0.48203164 0.012972965 -0.30593252 0.06337318
0.54490954 0.14031674 0.50394243 0.012226789 -0.4222597 0.2160724 0.32217816 -0.51011914
0.21893528 0.122028485 0.40910593 -0.54704803 0.031986784 0.45473182 -0.116259106 -0.39000544
-0.34270185 0.41851 -0.39168516 0.19718133 -0.61275077 -0.3336124 -0.19232854 -0.032627374
-0.059199363 0.035456054 0.5325955 0.41718915 0.14259379 -0.2618215 -0.30069053 -0.3661709
-0.45268616 0.38687828 -0.53260446 0.31608057 0.34810624 -0.22307399 -0.40714294 0.34744114
-0.37413615 0.15576442 0.49436408 0.36627373 -0.109125465 0.12073767 -0.047918767 -0.5361474
-0.40080935 -0.42573813 0.16253087 0.18322307 -0.3014923 0.3022668 -0.2108025 -0.17279834
-0.1471673 0.5113758 -0.32117218 -0.47540808 0.1631524 -0.19085163 0.43120202 0.19158646

model.layers.0.bias f4 [164]
00000000: c550 02bf fe68 7d3e ab4d 953e 6ff4 cabd
00000010: b855 803e 24c8 453e 16c8 b9be 21a1 c73e
00000020: 3a14 03bf 1eb4 dabe 357b 62bf 5886 6bbf
00000030: 0732 d4be 3d06 163f 7e55 acbe 385c 5ebd
00000040: 86de 8e3e bf5a 78bf c113 3ebf 5dec 8b3e
00000050: 2ad5 073e 31d5 27bf a68e 743f f0c3 24be
00000060: a515 40bf 0a97 5bbf 1072 b53e f65b 343d
00000070: 5bd7 233d e820 65be 8dcb 85be bd15 6fbf
00000080: 060d ab3f a8ee 2b3f 6b58 93be 52be adbd
00000090: 7a77 52be 35f8 1a3f 2237 60bf 976b f1be
000000a0: 88da 8abe 389e 233e fb57 74be 7246 c0be
000000b0: 5b45 653f 89b2 94be e730 91be 695f ae3e
000000c0: 3efc 21bf 050e 013f 5bd7 0c3e f77d 5bbf
000000d0: 684f a73e 9f11 efbc b690 01bf 015a 08bf
000000e0: e167 aabe 3756 0f3e e5cf 1fbf 59d0 9c3e
000000f0: f83c 25bf f57e 963d 21ac 493f 00e3 2fbe
00000100: c0e4 1e3e 748e d3be 90f7 4f3f ce7b fb3e
00000110: 7079 463f a449 1cbf 3702 09bf a538 de3e
00000120: 9b59 053f 9ebc a4bd e92a 5bbd 291b 6abe
00000130: 63bd 0b3f 1d24 953e 0782 21be 111c d9be
00000140: 5978 07bf 8ee0 303f c5fd de3e c775 01bf
00000150: e7f8 18bf 72a5 f83e 8359 4abf fa6e 033f
00000160: 147d df3e 5715 773e ca75 c63d 85a6 76bf
00000170: 9141 02bf 4247 bb3e df18 79be 9142 b53e
00000180: cd64 c23e ac91 4cbf deee 13bf 2a4c e0be
00000190: a4df 2e3f c3ca 943e b347 833e d224 31be
000001a0: bb45 a33d 5ca3 cd3e ea4b f4be 1304 1bbf
000001b0: e9c9 a2be e9bb 54bf 952e 2b3f 6a07 62bf
000001c0: bee3 a8be 8525 8abf dc3f 47be e030 85bf
000001d0: 4442 5bbf 478b 873c 9498 703e 5a2a 1f3f
000001e0: 1fa9 f73e ba2d 2b3f 990d 1e3f 48dc 133f
000001f0: 859d 12bf 69bd d23e aaa1 d1bd 63cd 0bbe
00000200: ffe2 ee3e 528d 863f 2afa 3fbf c47a 183e
00000210: d7b4 243f f840 dbbe 2d02 683f 9140 613f
00000220: 5094 dcbe 5877 66be 6e24 38be ff15 393f
00000230: d77c 4abf 3b68 dc3e 5688 32be f02f 02bf
00000240: 99e0 383f 9f9b 8e3b f62b e53e d759 ebbc
00000250: e048 84bd 948d c0be 97e6 dd3d 8cc3 f8be
00000260: 37d5 93be 32ff 433f d13f 503f 1770 3a3d
00000270: 6440 203f 4b52 df3d 91b6 0a3f 7e8a f3be
00000280: 7675 5a3e 0593 213d 956b 4f3f beba 27bc
-0.50904495 0.24747083 0.29160818 -0.09909903 0.25065398 0.19314629 -0.36285466 0.3899012
-0.5120274 -0.42715544 -0.8846925 -0.9200187 -0.41444418 0.5860327 -0.33658975 -0.054287165
0.27904147 -0.9701347 -0.7424889 0.27328768 0.1326491 -0.6555968 0.95530164 -0.16090369
-0.75033027 -0.8577734 0.35438585 0.044033013 0.0400003 -0.22375834 -0.2613186 -0.93392545
1.336335 0.67161036 -0.28778395 -0.08483566 -0.20553389 0.60534984 -0.87584126 -0.47152397
-0.2711985 0.15978324 -0.23861687 -0.37553746 0.89558953 -0.29042462 -0.28357622 0.34057167
-0.63275516 0.5041202 0.13754027 -0.8573908 0.3267777 -0.029183207 -0.50611436 -0.53262335
-0.33282378 0.13997732 -0.62426597 0.30627707 -0.64546156 0.07348434 0.7877827 -0.17176437
0.15516949 -0.4131962 0.81237125 0.49117893 0.7752905 -0.61049867 -0.53519005 0.4340259
0.5208985 -0.080437884 -0.05350772 -0.22861923 0.54585856 0.29129115 -0.15772258 -0.42404225
-0.5291801 0.69092643 0.43552986 -0.5057034 -0.59754795 0.48563725 -0.79042834 0.5134121
0.43650115 0.24129234 0.09690435 -0.9634784 -0.50881296 0.36577803 -0.24325894 0.3540235
0.3796753 -0.7990978 -0.5778636 -0.4380811 0.6831 0.29060945 0.2564064 -0.17299202
0.079722844 0.40163696 -0.47714168 -0.6055309 -0.3179467 -0.8309923 0.66867954 -0.8829256
-0.32986253 -1.07927 -0.19457954 -1.040554 -0.8564799 0.016545905 0.23495704 0.62174
0.48371217 0.6686665 0.617395 0.57758 -0.57271606 0.41160133 -0.10235913 -0.13652568
0.4665756 1.0511878 -0.74991095 0.14890581 0.6433844 -0.42823005 0.9062832 0.87989146
-0.43081903 -0.22506464 -0.17982647 0.7229919 -0.7909674 0.43048272 -0.1743482 -0.50854397
0.7221771 0.0043520476 0.44760102 -0.028729362 -0.06459212 -0.37608016 0.10834997 -0.4858669
-0.28873608 0.7656127 0.81347376 0.045517053 0.6259825 0.10904368 0.54184824 -0.475666
0.2133387 0.03944685 0.8102353 -0.010237394

model.layers.2.weight f4 [164, 164]
00000000: a5f2 1dbc d344 97bc 5ab2 eaba cc81 9ebd
00000010: 0beb a5bd 3848 bdbc 1e10 683c 76ad b9bd
00000020: fc7c 033d 59b2 43bd 45df bebb e192 dd3c
00000030: 9190 633d 82ee 03bc d83c 5d3c 17a5 8f3d
00000040: cbf8 1d3c 62da 03bc ca93 cebd a7ef f93c
00000050: 8663 22bd 4f31 bd3c 09ac 68bd 5ddc a3bd
00000060: 1d35 833c 16db 7b3d fc5d 5b3c c1f9 77bd
00000070: c37f a33b 8a97 16bd 70e3 b1bc abd4 513d
00000080: ccad 88be 4b9b 8a3d c959 a1bd 6200 83bd
00000090: d1a9 b2bd 2588 50bc d7a7 94bd ba0f 89bd
000000a0: e1e7 57bd 973f dbbc 2552 2dbd ae79 933d
000000b0: c0e4 b7bc ff35 22bc bbdd 563d 0fe9 c8bc
000000c0: f2f8 d0bd 6cc3 3ebd 5388 f43b 65cd 10bd
000000d0: 38d7 57bd 32b4 c83c 2121 f0bc 911a 5ebd
000000e0: 1ff8 413d b346 6a3a 1569 91bd da6c 6e3d
000000f0: 7a0e 1b3a e750 dbbb c4fb 96bc d8a2 5d3c
00000100: 253a 703d 5013 1dbb bdc8 a1bd e281 5c3d
00000110: 202b 74bd 0841 303c 856c efbc 6051 1abd
00000120: 4a69 95bd 1c56 1d3b 9577 453d c999 4c3d
00000130: a112 8ebd c1f0 423d 39a1 4e3d f75b 53bd
00000140: 0265 e43b e3b4 a73c 1ad6 2cbd b329 90bd
00000150: c7b4 34bd 1eb7 8cbd 208d 86bd 7143 79bd
00000160: e6f6 61bb d172 abbc 69bb 813d fad5 aabc
00000170: 3ebd a1bd fd55 89bd cac1 833d a1d6 123d
00000180: bace 2d3d 1158 a3bc 2333 453d 6b12 bfbc
00000190: 116e 74bd 9a69 0c3d 0d35 753d bc1b 2a3c
000001a0: d70a db3c 940c 273d 6b6c 18bc dc26 003b
000001b0: 8076 8ebc c187 2c3d f935 283d 2ec0 8abd
000001c0: 601f 8f3c aea1 6fbb 25f9 e13b 06ee 92bd
000001d0: 0bc8 493d f71a a53c 1135 06bd 7931 0ebd
000001e0: 1d19 d53c c303 7b3d 0e40 643d d0e9 49bb
000001f0: fbc1 b2bd 99e9 3fbd 2a55 873c 0e13 fd3a
00000200: 969e 153d b3bb d5bc d145 94bd 6257 80bd
00000210: 2cc9 a2bd cbf5 ae3c 2d9b 0abd 361f 803d
00000220: 5bea eebc 4e9a 18bd 3ce0 113c fbdb 51bd
00000230: f0c5 663c 57a7 003d 200c 35bd 4323 a93b
00000240: 8f33 76bd 625f 453d ade2 fd3c 251a 883d
00000250: 2201 8cbd d9df 1e3d 7998 a3bb 0aba ee3c
00000260: b045 89bd 1417 9cbd 862d 193c 0960 003d
00000270: e8b8 383d bfd2 63bd f22c 09bd 0db4 4a3d
00000280: 2857 84bd 9ebd 55bd 5078 913d 598d abbd
00000290: 36e6 75bd b5b4 e4bc 119e 2a3d ab45 59bd
000002a0: 7c46 a53c 3eef 0f3d e341 863d c126 973d
000002b0: afc9 213d 04c6 7bbd 701d d63b 80aa fb3b
000002c0: 646d 1f3c 5dbe 12bd 7352 6bbd b2df 0e3d
000002d0: 85fd 05bb da65 403c 2e6d e8bc 05c3 1e3c
000002e0: e688 4d3d a906 85bd b226 98bd ce95 95bd
000002f0: bc6f fc3c ff9b 47bc f47e 7fbd f1f3 4a3d
00000300: 3ae7 c83b 3b18 2f3d be3b 03ba 0c15 643d
00000310: abe0 dc3d 76f2 ec3c cb5a 7c3b 7fef 7c3d
00000320: 3b8a 333d e0e5 333d 346c 90bd 8c6b 8e3c
00000330: d122 8f3d a312 703d c47e 92bd 1bef 8e3d
00000340: 42d6 19bc 0bc3 3dbd c5aa 613c 3ac0 95bc
00000350: dc43 803d d48a 843d 8643 0cbd 293d 1cbd
00000360: a6d8 ab3c 424c 41bd 297a 233d d889 483b
00000370: 98db 1d3d 6b07 83bd 71be f8bc cd57 e63c
00000380: 7bf0 b43c 6bc8 41bd e46a 203d 141d 963c
00000390: 5cd7 193d ea12 893d 6d3c 9dbd 2ea9 2bbd
000003a0: b2b4 263d 2aa0 37bc de4d 86bd ef89 1abc
000003b0: b725 8e3c 5ccd cabc e404 8abd 851d 1bbd
000003c0: 7e39 f33c dae4 5cbd f182 2f3b b283 953c
000003d0: 802b 2cbc f5fc 94bd e436 6b3d 61a2 abbc
000003e0: 08bc 1f3c a0d3 50bd 3b3b 55bd aea6 a2bc
000003f0: d823 d53c 302d 0f3d af3d 60bd cd80 28bd
-0.0096403705 -0.018465435 -0.0017905936 -0.077396005 -0.081014715 -0.023105726 0.014163999 -0.09066288
0.032101616 -0.047777507 -0.0058249556 0.027047576 0.05555779 -0.00805247 0.013503276 0.0701391
0.009641836 -0.008047672 -0.10086782 0.030509783 -0.039645694 0.023094801 -0.05680469 -0.08001015
0.016016537 0.061488234 0.013389107 -0.06054092 0.0049895956 -0.036765613 -0.021714896 0.051228207
-0.26695096 0.06767901 -0.07878453 -0.063965574 -0.08723796 -0.012727772 -0.072585754 -0.06692453
-0.05271137 -0.02676372 -0.042314667 0.07200943 -0.022447944 -0.009900569 0.052457552 -0.024525193
-0.102037326 -0.046573088 0.00746254 -0.03535213 -0.052695483 0.024499986 -0.029312672 -0.054224554
0.047355767 0.00089369266 -0.07100121 0.058209278 0.0005914938 -0.006692994 -0.018430598 0.0135275945
0.0586492 -0.002396781 -0.07899616 0.053834803 -0.05961144 0.010757692 -0.02922655 -0.03767526
-0.07295473 0.0024007624 0.048209745 0.04995135 -0.06937147 0.047592882 0.050446723 -0.051601376
0.006970049 0.020471996 -0.04219637 -0.070392035 -0.044117715 -0.06870864 -0.06569886 -0.060855333
-0.0034479438 -0.020928772 0.06334574 -0.020853985 -0.07897423 -0.06705854 0.06433447 0.035849217
0.042433478 -0.019939454 0.04814447 -0.023324212 -0.05967528 0.034280397 0.059865046 0.010382589
0.026738567 0.04078348 -0.009303193 0.0019554412 -0.01739049 0.042121653 0.041067097 -0.067749366
0.017471015 -0.0036564874 0.0068961554 -0.071743056 0.04926304 0.02015446 -0.03276545 -0.03471515
0.026012952 0.061282884 0.05572515 -0.003080953 -0.08728405 -0.046853635 0.016520102 0.0019308047
0.036528192 -0.026090479 -0.07239879 -0.06266667 -0.07948527 0.021357438 -0.033839393 0.06255953
-0.029164484 -0.03725653 0.008903559 -0.05123518 0.014085278 0.031409588 -0.044201016 0.005161674
-0.060107764 0.048186667 0.030991876 0.06645612 -0.068361536 0.038787697 -0.0049925414 0.029141445
-0.06702745 -0.07621589 0.009349233 0.031341586 0.045098215 -0.055620905 -0.03349013 0.049488116
-0.06461936 -0.052182786 0.07103026 -0.08376569 -0.060034 -0.0279182 0.04165465 -0.053044956
0.020175211 0.03514027 0.06555536 0.073804386 0.03949898 -0.06146814 0.006534271 0.0076802373
0.009730671 -0.035826076 -0.057451677 0.0348813 -0.00204453 0.011743033 -0.028372373 0.009690051
0.050179385 -0.06495411 -0.074292555 -0.073039636 0.030814998 -0.012183188 -0.06237693 0.049549047
0.00613108 0.042747717 -0.00050061557 0.055684134 0.107850395 0.028924208 0.0038506265 0.06175184
0.043833 0.043920398 -0.07051888 0.017385267 0.069890626 0.058611523 -0.07153085 0.069791995
-0.009389462 -0.046328586 0.013773625 -0.018280137 0.06262943 0.06471792 -0.034244083 -0.038144264
0.02097733 -0.047191866 0.039911423 0.003059974 0.0385395 -0.06397899 -0.030364247 0.028118039
0.022087326 -0.047310274 0.03916444 0.018324412 0.0375589 0.06693061 -0.07677541 -0.04190939
0.04069967 -0.01120762 -0.06557821 -0.0094323 0.017351968 -0.024756126 -0.06739214 -0.03786995
0.0296905 -0.053929187 0.0026780928 0.018251274 -0.010508418 -0.0727481 0.057425395 -0.020951452
0.00974942 -0.05098307 -0.05205844 -0.01985487 0.026018068 0.034955204 -0.054746326 -0.04113846

model.layers.2.bias f4 [164]
00000000: 8f98 1e3d 8c55 8ebd 269f 82bd c812 1d3d
00000010: c4eb d1bd 54d3 7f3c 15ed f13e 430a 84bd
00000020: 76c4 39bd ff7a 7d3d c7ba 6dbd 5a64 43be
00000030: d882 433e b415 0cbd 9d9c 4abd 0bc2 343b
00000040: 5447 9ebc 9031 9b3d f4a5 e0bc 904a 97bd
00000050: d2c9 703e 4783 463d 459c d3bd 346d 593b
00000060: 1193 013d f58d f63c 2a8d 92bd 5389 09be
00000070: 8458 a0be 09bb 1e3c b6a6 54bd 39bb e2bc
00000080: fd87 503d c83f 7cbd 5bb8 a5bd 7d75 3abd
00000090: 21aa 413c d79f 133d 38f5 7ebd 8e00 463d
000000a0: dadd febc 633d 9dbd 0b31 61bd 128e 373d
000000b0: cb1d 7a3c 3560 c33c 86c1 e8bc c6cf 373d
000000c0: 5b44 b7bc b25e 4ebd a0b2 40be b2a4 91bd
000000d0: 529f 443e 6947 5d3d d9d4 843d 47cb 5bbd
000000e0: 0dcb 343d dcc9 263d 86a1 013d b779 8d3d
000000f0: 9574 8d3c 9115 cebd 6609 373e 5719 9e3d
00000100: 0bea b6bd 0699 2fbe a819 07be 7d22 933d
00000110: 07ca 1cbc 85f9 853d 3a94 07bd d2f5 66ba
00000120: 1b3f 573d 88a3 1d3d 5196 ff3b 4b33 9b3c
00000130: e7e2 243e 4f39 a5bd 524e 88be 8ea8 b8bd
00000140: a191 72bd 1c81 843d 7cec 02bc 5485 113e
00000150: 4230 d4be 182f 21bd 0f6c 853b 5691 483e
00000160: a15b 0fbd 0dde e0bd bad1 3bbc b4ff 67bd
00000170: a925 9ebd c753 0ebe ecb7 d1bc 12b8 373e
00000180: eaa8 51bd 8f06 c8bc 771a babd 2822 5f3d
00000190: a24f 413e 599c 383d 6dd8 88bc d71e 123d
000001a0: b768 88bd ef9f 2f3f 9566 cd3c 1dfc e83d
000001b0: e70c a53c 8750 cc3c 516a 8c3d 2d90 47be
000001c0: 0030 0fbe f632 5e3e 02ce 0abb aa73 69be
000001d0: 10f9 23bd 190b 2cbd 069d 49bd 060b 8cbd
000001e0: 8061 0fbf ad6b 923b 8f24 803d 86c4 aa3d
000001f0: 7862 a83e 68cd f63d dda0 2a3d 3797 a13d
00000200: 0b02 e5bd af7b 5b3e 806d fbbc 1f8f 0a3e
00000210: ed77 673d 1cec de3b db18 5c3e 9f99 9bbd
00000220: b58b 6b3d 2fd9 26be cd6c 783c b05d eabd
00000230: d1de 093d c40d ecbc 03b8 6bbd be24 993d
00000240: 453d bdbd 87b6 e13e 22c0 fbbc 0d3c 0f3d
00000250: 28b9 943c c5a4 5fbd 32ae a5bd adad 9bbd
00000260: 0849 173d 38d5 013d 485d 12be a7a1 0e3e
00000270: 3d64 5dbe 1f92 5d3b 78d8 fcbc a15f ed3d
00000280: 85f1 2cbd 9f7f 40bc fed7 493e e3a0 093c
0.03871971 -0.069499105 -0.063780114 0.03834799 -0.10250047 0.015614349 0.47251192 -0.0644727
-0.045353375 0.061884876 -0.058039453 -0.1908125 0.19092882 -0.034200385 -0.049465764 0.002758148
-0.019321121 0.07577813 -0.027422883 -0.073872685 0.23514488 0.04846504 -0.103325404 0.0033176662
0.031634394 0.030096987 -0.07155831 -0.13431291 -0.31317532 0.009688147 -0.0519168 -0.027677165
0.05091094 -0.061584264 -0.08091804 -0.0455222 0.011820347 0.036041107 -0.062245578 0.048340373
-0.031111646 -0.07677724 -0.05497841 0.044813223 0.015265892 0.023849586 -0.028412592 0.044875883
-0.022371462 -0.050383277 -0.1881814 -0.07111491 0.19201401 0.05402318 0.0648591 -0.053660657
0.044138957 0.04071985 0.03164818 0.06907981 0.017267505 -0.10062707 0.17874679 0.07719677
-0.08931359 -0.17148218 -0.13193381 0.071843125 -0.009569651 0.06541733 -0.033100344 -0.0008810434
0.052550416 0.038486034 0.0077999015 0.018945357 0.16102181 -0.08067571 -0.26622254 -0.09016524
-0.059220914 0.06469938 -0.007990953 0.14211017 -0.41443068 -0.039351553 0.0040717195 0.19586691
-0.034999494 -0.10979853 -0.011463577 -0.056640342 -0.07722027 -0.13899146 -0.025600396 0.17941311
-0.05118648 -0.02441719 -0.09087079 0.054475933 0.18878034 0.04507098 -0.016704762 0.035673942
-0.06660598 0.68603414 0.025073329 0.11376212 0.020147754 0.024940742 0.06856216 -0.19488592
-0.13983154 0.21699128 -0.002117992 -0.22798029 -0.040032446 -0.04200277 -0.049222015 -0.0683804
-0.5600815 0.0044684024 0.06256973 0.08338265 0.32887626 0.12050897 0.041657317 0.0789017
-0.1118203 0.214339 -0.030691862 0.13531159 0.056510855 0.006803049 0.21493857 -0.0759766
0.057506282 -0.16293786 0.015162659 -0.11443651 0.03365976 -0.028815158 -0.057548534 0.07477711
-0.09240202 0.4408457 -0.030731265 0.03496938 0.018154696 -0.054600496 -0.08089866 -0.076014854
0.036934882 0.031697482 -0.14293396 0.13928853 -0.21620269 0.0033809019 -0.03086494 0.115905054
-0.04222252 -0.011749177 0.197113 0.008400175

model.layers.4.weight f4 [2, 164]
00000000: e421 29bb 8eb2 7a3c 2c78 5cbd 24ac a9bc
00000010: f9fb 2d3d ede6 3b3d 2fed 5abf 68d1 6f3b
00000020: 469a 513c cf9b d43c 4512 813d 6e21 adbc
00000030: 48cf 56bd bc53 3cbd eb07 223d f8a3 2bbd
00000040: 2173 29ba fe21 e33c fd00 afbc 46b2 563c
00000050: 7320 a2bc 997d e5bc dc71 723d db3d 8e3d
00000060: 01a5 37bd 9b18 0bbb 25a5 bc3b 1d0e ffbc
00000070: 664d 9ebc 9037 adbc 6a14 29bd e76f 0a3d
00000080: a0cb f4bc d2c5 cabb 0e5e b7bc 1968 36bc
00000090: bf04 3ebc 6933 263a 7b36 c93c d864 da3c
000000a0: 78e2 7e3c 4e22 17bd 49a9 0aba 13f3 8c3d
000000b0: 0426 e5bc c109 d63b 83cb e33b 24c3 1a3b
000000c0: 804c 103d cb90 19bc f53e d4bc 8452 d23c
000000d0: c89d 953d 0fc9 bf3c c26b bcbc a7dc 663c
000000e0: 7414 31bc b285 1d3d e6bf 863c 817d 03bc
000000f0: 11e0 163c 65a0 40bc a26a 0b3d 9dc1 94bc
00000100: 5be2 583b 80de e8bc d0f1 ddbc d5d3 98bc
00000110: 9e7b 3a3d 3b14 813c 64c8 423a f9fe f53b
00000120: c0ae 76bb bd24 72bc f09e 5fbb 7b3b 79bb
00000130: eb29 7ebc a6c6 b53a 62bb 623b 5b29 c0b9
00000140: cb03 c7bc d153 86bd af26 393c 2001 023d
00000150: 6d76 4fbd 3ed7 4cbd 3d32 8e3c 9f31 c43c
00000160: 8a0e 8d3d c0aa edbc 1c31 4bbd 11f2 ee3c
00000170: 0ca2 6bbb e507 a3bc a688 0f3d 5076 dd3b
00000180: b78a 43b9 8095 cc3c 44de 00bc af0b 5abd
00000190: 78ac 7ebb fefe 463c 1725 243c e6ff 3e3d
000001a0: 589c d6bb e740 793e d375 9b3c ecb1 c8bc
000001b0: c2d5 073d 8e90 9439 285d 183b 4fee 513b
000001c0: 82ef ed3c 6e6c 663d 7ad8 a0bb 15df ee3c
000001d0: ee96 0f3b c572 d9bc 2b37 4bb9 9017 a3bd
000001e0: 574b bdbd bc0c bcbc 04f3 d2bc 154a 84bc
000001f0: f6dc cb3d 7596 96bb 960d 99bd 8ccb da3c
00000200: fa84 ea3c 04f5 283d 4819 7c3d b8c8 183c
00000210: e45f 2abc fef3 8cbb a3a0 00bd 7986 833d
00000220: 8d5a a03c 72f9 243d 035f 0f3d 2eff 1dbd
00000230: 0209 f93c cf30 9c3c 7469 523b 3ef7 d13c
00000240: 6681 c03c db75 b93e 35f7 703b 5361 1e3d
00000250: 7232 2f3d ebad 873c 7f92 403c dfae 27bd
00000260: 7a39 c13c 6269 31bc 976a 66bb 37dc 46bd
00000270: 4317 83bd be15 ebbc 1cf4 5e3b ed3d b9bc
00000280: ea59 67bc d22e 25bc c9bb b4bc 1e69 363b
00000290: 272b 223c fe65 4f3c 8ee4 7d3d cf8c 84bc
000002a0: 1485 da3c c30f 143d bd5f 323e 94c7 323c
000002b0: 9e24 02bc 238b 5fbc 2596 9e3c 8703 8ebb
000002c0: cd53 b63c fb7c e83c 8f69 d9bc 9e8c 42bd
000002d0: f79b 21bd 3924 2fbd 5329 af3a 6547 8d3c
000002e0: d3f6 be3b 42c1 363d b2c6 813d 405f d9bc
000002f0: a9e4 303d 1adc 073c 5aae 903d 3736 0d3d
00000300: ea32 453d 96a3 cd3c f725 093c 14fe 023d
00000310: 016b 4bbc 7243 06bb f334 5f3c f07c 783c
00000320: 510d 143d 7c7e dfbc 2de0 e53c 5df1 8e3c
00000330: a974 89bb 7d09 1e3d e81b 7639 024b a7bc
00000340: eea7 fdbc 7b17 cabc 1643 17bd 841b 24bb
00000350: 8acf 2bbd 64c6 87bd 551a 8f3d 221a 62bb
00000360: 176c cbbc 32c8 80bd 00f2 5c3b a605 44bd
00000370: fa1a da3c a272 063d 1df7 193c 9238 77ba
00000380: 7ec0 0dbd 6d5a e3bb 4521 4dbd 9965 1cbd
00000390: 7208 9cbb 75b1 343d 2f0c 393d f34b f7bc
000003a0: 4412 8a3d b2e4 123b a827 893c b683 283b
000003b0: c85b 533b e33d c9bc 6c67 2cbc ad85 57bc
000003c0: af81 f8bb 24a8 713b b287 e13b 1468 ecbb
000003d0: 9b65 09bc 2e11 4dbd a836 1a3d b7e2 61bd
000003e0: 6974 69bd 7249 0d3d d842 05bc 0fac 67bc
000003f0: 9b0a 7d3d 06d8 933b 5f5c 8cbb 689b 253d
-0.0025807554 0.01530136 -0.053825542 -0.020711966 0.042476628 0.045874525 -0.85518163 0.0036593322
0.012793129 0.025953202 0.06302313 -0.021134105 -0.052443773 -0.045978293 0.039558332 -0.04190442
-0.0006463994 0.02772617 -0.021362776 0.013104027 -0.019790864 -0.028013991 0.059190616 0.06945392
-0.044835094 -0.0021224383 0.0057569914 -0.03113466 -0.019324016 -0.021144658 -0.041279234 0.033798125
-0.029882252 -0.006188133 -0.022383716 -0.011133217 -0.011597811 0.0006340058 0.024562111 0.026659414
0.015556924 -0.03689795 -0.00052895077 0.068823 -0.027972229 0.0065319245 0.0069517507 0.0023614848
0.035229206 -0.0093729 -0.025908927 0.025674112 0.07305485 0.023411302 -0.023000602 0.014090694
-0.010808099 0.03845758 0.016448926 -0.008025528 0.009208695 -0.011756991 0.03403724 -0.018158728
0.0033093903 -0.028426409 -0.027092844 -0.018655697 0.045528047 0.015756717 0.0007430373 0.0075072017
-0.003764078 -0.014779267 -0.0034121834 -0.0038029838 -0.015512924 0.0013868406 0.0034596552 -0.00036651906
-0.0242938 -0.065589555 0.011300727 0.031739354 -0.05065005 -0.05000996 0.01735794 0.023949442
0.06887539 -0.029012084 -0.04960738 0.02916816 -0.0035954742 -0.019901225 0.035042427 0.0067584887
-0.00018648324 0.02497363 -0.007865492 -0.0532338 -0.0038860124 0.012145756 0.0100186085 0.046630763
-0.0065493993 0.24341165 0.018977081 -0.024498902 0.03316284 0.0002833646 0.0023248885 0.0032032912
0.02904487 0.05625575 -0.0049086185 0.029159108 0.002191003 -0.026543984 -0.0001938014 -0.079634786
-0.092428856 -0.022955291 -0.025750645 -0.016148606 0.09954254 -0.0045955726 -0.074732944 0.026708387
0.028627861 0.04124929 0.061547548 0.009325199 -0.010398839 -0.004301547 -0.031403195 0.06422133
0.019574428 0.040276952 0.03500272 -0.038573436 0.030399803 0.019066243 0.0032106312 0.02563059
0.023499202 0.3622273 0.003676844 0.038667034 0.042772718 0.016562423 0.011753677 -0.040938254
0.023586977 -0.010828348 -0.0035158747 -0.048549857 -0.06400921 -0.02869689 0.0034020012 -0.022612536
-0.014120558 -0.010081964 -0.0220622 0.002783365 0.009897984 0.012658594 0.061985545 -0.016180424
0.026674785 0.036147844 0.17419334 0.010911841 -0.0079433005 -0.013644013 0.019358704 -0.0043339166
0.022256756 0.028379908 -0.026539592 -0.047497384 -0.03945538 -0.042759154 0.0013363756 0.017245958
0.0058277636 0.0446179 0.06336726 -0.026534677 0.043186817 0.008292222 0.07064505 0.03447553
0.04814426 0.025102418 0.008370868 0.03198059 -0.012415648 -0.0020486978 0.013623464 0.015166506
0.036145512 -0.027281992 0.028060997 0.017449075 -0.004194815 0.038583267 0.00023470784 -0.020421509
-0.030963864 -0.0246694 -0.036929213 -0.0025040815 -0.04194597 -0.06629637 0.06987444 -0.003450044
-0.024831815 -0.06288184 0.003371358 -0.04785695 0.026624192 0.032824166 0.009397295 -0.0009430732
-0.034607403 -0.00693827 -0.050080556 -0.03818283 -0.004761749 0.04411455 0.045177635 -0.030187583
0.06741765 0.0022414145 0.016742542 0.0025713271 0.003225075 -0.024565643 -0.010522705 -0.013154429
-0.007583819 0.0036873901 0.006882631 -0.0072145555 -0.008386041 -0.050065212 0.03764978 -0.055147853
-0.056995783 0.03449387 -0.008133613 -0.014140143 0.061777692 0.004511836 -0.0042834724 0.04043141

model.layers.4.bias f4 [2]
00000000: 1b5d c0bc 28dd a23c
-0.023481896 0.019880846

exp_avg f4 [164, 3]
00000000: 1af6 7dba 84c3 7d39 0c4e e539 d485 ad3a
00000010: c0a7 c437 0e01 98b9 ea62 0b3a 22b7 253a
00000020: a0a7 7a37 98d9 123a 03bb 20ba ad32 683a
00000030: 281d a7b8 53c3 633a 3b3c 8639 e56d 0b3b
00000040: 982d d438 5cf8 b8b9 58b7 2338 d3c9 9539
00000050: 5534 30ba ba30 1e3b c680 583a c830 a2ba
00000060: 4f38 9c39 2a20 75ba 86dc 26b9 98d0 1482
00000070: 37ba 1f02 0000 0000 cfa9 98ba 8ef4 0cbb
00000080: 926c d1ba 924b fcbb 19b8 5fbb 128a 6b3b
00000090: e8fa d837 69df fdba 2b76 403a 78d5 e43a
000000a0: eafb 7bba f8c9 e3ba 68e2 07ba 7c11 0b38
000000b0: f68e f739 60f6 b7ba e8fa 99b9 230f 1739
000000c0: 8251 36ba 48c3 37ba b8f3 12b9 a542 a0bc
000000d0: ea74 ebbb 1639 943c 1d3e a2bb 78e1 bcba
000000e0: 04e3 993a 4f2f 6ab9 3a5d bc3a 47c9 823a
000000f0: 9212 eab9 91e9 0a3a 753b b03a 4a38 1eba
00000100: ba28 9eb9 1d2d a1b9 5b8a 6d3b cb56 883a
00000110: 984f d6ba 2876 2638 313e 3bba 346e 8e39
00000120: 2645 64bb 93ae c1ba 33e1 d93a d79c 7dba
00000130: ecd5 b6b8 72d2 f339 0b74 093a c202 1d38
00000140: 149f 5939 208e 2bb9 e0a7 ba3a 0063 973a
00000150: e9f7 53ba fc3b e7b9 2ec6 be39 ae3e 54b8
00000160: 3cb7 753a c80b 1cba db7c 1fbb fbb4 fcb9
00000170: 5244 1339 b411 83bb fdb8 66ba abc7 f33a
00000180: b2b3 853c fb77 893b 4f7d 8bbb afdf 133b
00000190: ae2e 4a3a 8371 cdb9 fe5d 4d38 94a2 1039
000001a0: cea1 0d39 a43a 6238 e95f 99ba f405 4bba
000001b0: d75a 1ab9 80c3 ebb5 720e 2db9 0d20 683a
000001c0: 0835 823a 2d84 ea39 aa21 d2ba bc43 16bb
000001d0: c864 ba3a 2287 0fb9 05c3 2cba 5f84 15ba
000001e0: 62dd 16ba 0fe8 863a dc44 51ba 8250 bd3a
000001f0: 49fe 413a a0b0 93ba 1edf 07ba be02 6cba
00000200: 903c 8c3a c2c4 0139 efc0 8139 2001 c4b9
00000210: 9e26 813a a02e 5a3b 680c a43a 90ea 60ba
00000220: 70e3 cfba d875 c8b9 ac66 20ba efe0 25b9
00000230: f461 c4b8 fa28 683b 34a1 23ba eb62 adba
00000240: 2921 a9ba c17e d4ba 253a 283a 6a93 9c37
00000250: dc50 e13a 64a1 603a ae93 a538 fa3b eb38
00000260: 4010 10b8 60c2 feb9 84fb 1ab9 6663 7eba
00000270: d4e2 c7b7 6ae6 3039 b4a5 b838 20dc 7fb8
00000280: 0835 0239 c4a1 20b8 b81b f0b8 5a40 b1b8
00000290: 839f 4639 08d5 6839 2bd8 89ba afdb 5cb9
000002a0: bca4 2dba 8f97 d2b9 50dd 6db8 b05a 4e3a
000002b0: 01a9 e6b9 c390 783a 5903 a939 869f 1d39
000002c0: 3071 723a 930c faba fe54 aa39 39a0 cc3a
000002d0: fd9a 39bb fa2f 37ba 44d9 d33a 30e3 bfb9
000002e0: 6347 32ba f85c cab9 24ae 243b 90f3 3b3b
000002f0: 202d 15bb 9b67 13ba bb9a efba 5f25 493a
00000300: ccf1 1cba e4b6 03b8 5033 67b7 c028 7238
00000310: fcad f4b9 a996 6f3a 0606 82b9 5298 8738
00000320: 941c 04ba 409b 9737 855b 8e3a 081b 8139
00000330: 605b 1d3b 7063 6ab9 1474 9dba 264a 42bb
00000340: b87e cbba 7ae9 253a 8c5f 2eba 481e f0b9
00000350: 572a 3039 28f5 4a3b f867 bd3a 22cc c0ba
00000360: d46c 9a3a fe37 343a d0f1 2bba c86a 3f38
00000370: ad9e f0b9 749f 1638 2ce0 e3b9 da86 96b8
00000380: e5b7 9538 748b 9cb9 62df 1f3a 4405 f5b8
00000390: b047 14ba b2ea 9e3a 74aa 3bba efb4 3339
000003a0: ba01 593a f6e3 a9b9 4123 87ba fa5c 6a39
000003b0: 92d3 72b9 3434 85b9 cd45 6b38 909c 22b8
000003c0: 6c5a 6cba 86f3 dc38 6a29 1db9 bae6 4639
000003d0: c432 a839 0f35 7839 50c1 7a3b ca9f b3b9
000003e0: 9a5a 70ba c8fe 66b8 30d7 18b9 7e3e 17b9
000003f0: 6e91 d1ba 5603 61ba 75ef c73a 5ed8 703a
-0.0009687856 0.00024200795 0.00043736433 0.0013238736 2.3443135e-05 -0.00028992485 0.00053171685 0.00063215394
1.4940189e-05 0.0005601882 -0.00061313825 0.0008857649 -7.968611e-05 0.00086884684 0.00025603347 0.002127522
0.0001011744 -0.00035280257 3.903298e-05 0.00028569865 -0.0006721665 0.002413793 0.0008258935 -0.0012374157
0.00029796592 -0.0009350801 -0.00015913145 -1.0933186e-37 1.1734916e-37 0.0 -0.0011647287 -0.002150807
-0.0015977791 -0.0076994384 -0.003413683 0.003594045 2.5866044e-05 -0.001936895 0.0007341827 0.0017458638
-0.0009612428 -0.0017378917 -0.00051835785 3.3156466e-05 0.00047218025 -0.0014035217 -0.00029369374 0.00014406121
-0.00069548946 -0.0007009995 -0.00014014437 -0.019563029 -0.007185568 0.018093627 -0.004951252 -0.0014410457
0.001174063 -0.00022333603 0.0014371045 0.0009978198 -0.00044645794 0.00052990863 0.0013445454 -0.00060356094
-0.00030166452 -0.00030741925 0.0036245796 0.0010401843 -0.0016350625 3.9687526e-05 -0.0007142751 0.00027166458
-0.0034831255 -0.0014776759 0.0016622901 -0.0009674555 -8.718282e-05 0.00046505366 0.0005243427 3.7434285e-05
0.00020753994 -0.00016360776 0.0014240704 0.001154989 -0.0008085953 -0.00044104445 0.0003638728 -5.0603114e-05
0.00093733124 -0.0005952683 -0.0024335894 -0.00048200027 0.00014044464 -0.003999913 -0.0008801369 0.0018598934
0.016321037 0.004195211 -0.0042568813 0.0022563746 0.00077126443 -0.0003918522 4.8963346e-05 0.00013793475
0.00013507085 5.3937212e-05 -0.0011701557 -0.00077447225 -0.00014720425 -1.7565762e-06 -0.00016503947 0.00088548736
0.0009934017 0.00044730437 -0.0016031761 -0.0022928556 0.0014220709 -0.00013687884 -0.00065903395 -0.0005703624
-0.00057550345 0.0010292548 -0.0007982978 0.0014443549 0.0007400257 -0.0011267848 -0.00051830884 -0.0009003094
0.0010699201 0.00012375697 0.00024748544 -0.0003738487 0.0009853428 0.003329195 0.0012515904 -0.00085798744
-0.0015860628 -0.00038234773 -0.0006118815 -0.0001581942 -9.3642535e-05 0.0035424815 -0.00062419777 -0.0013228332
-0.0012903559 -0.0016212092 0.00064173556 1.8665294e-05 0.0017190236 0.0008568971 7.8953206e-05 0.00011216845
-3.434741e-05 -0.00048591476 -0.00014780281 -0.00097041426 -2.3828274e-05 0.00016870504 8.804668e-05 -6.1001745e-05
0.00012417522 -3.829763e-05 -0.00011449255 -8.452004e-05 0.00018942174 0.00022204604 -0.0010516694 -0.00021062673
-0.00066239736 -0.0004016724 -5.6711317e-05 0.000787179 -0.00043994936 0.00094820204 0.00032236686 0.00015032114
0.00092484336 -0.0019077234 0.0003248825 0.0015611715 -0.002832114 -0.0006988045 0.0016162773 -0.00036599627
-0.00068007986 -0.0003859771 0.002512821 0.002867911 -0.0022762492 -0.00056230434 -0.0018280366 0.000767311
-0.0005986958 -3.1403164e-05 -1.378062e-05 5.7735248e-05 -0.00046668935 0.00091395766 -0.0002480002 6.4656735e-05
-0.0005039659 1.8072897e-05 0.0010861015 0.00024624937 0.0024010763 -0.00022353022 -0.0012012743 -0.0029646247
-0.0015525436 0.0006329041 -0.0006651811 -0.00045798928 0.00016800441 0.0030968878 0.0014450541 -0.0014709274
0.0011781701 0.00068747986 -0.0006559165 4.5637396e-05 -0.0004589459 3.591129e-05 -0.00043463835 -7.1776754e-05
7.139127e-05 -0.0002985854 0.0006098655 -0.00011683491 -0.0005656434 0.0012124388 -0.00071588834 0.00017138173
0.00082781503 -0.00032404036 -0.0010310189 0.00022350615 -0.00023157735 -0.0002540663 5.6093373e-05 -3.876962e-05
-0.00090161595 0.00010535777 -0.00014988115 0.00018968704 0.0003208128 0.00023670889 0.0038262196 -0.00034260593
-0.0009168774 -5.5073557e-05 -0.00014576013 -0.00014423762 -0.0015988776 -0.0008583566 0.0015253859 0.00091875147

exp_avg_sq f4 [164, 3]
00000000: b646 9237 ac65 6d37 17c4 f136 b014 1437
00000010: 730f ec35 2e81 1835 3327 0438 62a0 5a38
00000020: 3fbc e337 a9de 4939 6d02 e638 4de7 0739
00000030: 6d8d 2539 da6a 6a38 eef5 5b38 adc7 2938
00000040: 2660 1d38 c31c eb37 4626 8d37 51c6 3137
00000050: a6ba 3837 a33c 4238 c91b b138 82f6 ca37
00000060: 24b6 d937 cb98 f238 ddbb cf37 80fc ab25
00000070: f097 5225 0000 0000 822e 003b 2073 fb39
00000080: d1ac f039 7add 973a 3818 7f3a 49d6 d639
00000090: 6211 f038 d9c6 9d38 4aea 9538 9e4e 8139
000000a0: 4fe6 7339 2761 4639 23f2 8238 4780 7538
000000b0: ab6d 4c38 0863 d437 05d2 5037 277a 4a37
000000c0: 7a83 3c39 aa62 0139 78b8 e338 7270 2e3b
000000d0: 1044 2f3b e4f4 f43a eb4a 6539 7e58 2839
000000e0: 88c9 0c39 fea1 ba38 abcc 5539 6ae0 ba38
000000f0: a465 9238 af10 8639 c6fb 0c39 dc9f 2238
00000100: 796e 2138 9608 8537 3df4 3739 9562 9139
00000110: a652 c938 ae01 3337 1e63 1c37 788f d436
00000120: 7ddc 8638 e3b9 cf37 e6d7 ae37 d3bd ce38
00000130: 3c52 3b39 0c44 8638 81b2 1538 2080 8f37
00000140: 12a0 8737 3ac6 ad38 4b70 3139 088b c138
00000150: c6df e937 aa4a 0339 e6ca 1d38 8ae2 5537
00000160: 7b67 cf37 013f 2137 0d61 5939 e923 d639
00000170: 9d5c 2739 1d15 063a 59f4 9239 65c8 3239
00000180: 151f eb3b 977b 8a3b 4cf3 233b 5eda dd38
00000190: 0e9a dc39 674e dc38 236d 6d37 039e f538
000001a0: d5dd e837 c85a 2538 a718 b538 844c 3e38
000001b0: e9e6 9638 9ef4 2938 d52b db37 dd0c 3338
000001c0: dfb5 a638 65ae 1e38 0e64 fd37 e55d a038
000001d0: 47da a737 5137 5e39 3e65 5538 912b b438
000001e0: b40a 2539 c5a7 8538 6eda a438 cfef e237
000001f0: 7114 1538 4721 c637 4cba 9e38 d9ac 3638
00000200: 8b83 3838 8524 2937 7edf dd36 193a c336
00000210: f30c 113b 02d8 533a cd17 473a fa66 cb38
00000220: e19a 3038 a4ba 2038 e998 a537 73da ff36
00000230: f059 2737 d436 e538 0f4c a238 234b 0a38
00000240: bdce ad38 5429 2b39 f68e 8138 ca96 d138
00000250: acf6 b339 a955 e638 6934 d437 fe9a b737
00000260: 7664 7737 5e67 0439 1334 f638 e8a9 6538
00000270: 3665 a138 0e4b 7838 2297 5238 3825 f938
00000280: ae3a 5538 6039 4a38 e708 8237 229a 3137
00000290: 4651 0b37 f68d db38 88be 0a39 76b7 5238
000002a0: 3029 7638 32d9 4238 6272 2c38 d745 4139
000002b0: d0b7 9938 686d cd38 dfb0 a037 9e6e 0038
000002c0: 1e4d 9837 0f65 5538 e536 1b38 aa0d 6d38
000002d0: 65ae f838 7789 8238 5f6f 8638 a860 5138
000002e0: 99e5 bc38 2052 4938 114d f838 1198 6539
000002f0: cd58 8b38 f222 3c38 a97f 9638 0d80 0138
00000300: e404 0339 595d 3939 85df 0539 2b86 3d38
00000310: 6222 5a38 042f c137 f313 f737 661b 3538
00000320: d149 3138 b170 e237 2713 ba38 efb9 b137
00000330: c9c6 2538 6266 9838 8b2e 0938 ded3 cd38
00000340: ff53 2e39 69ab cc38 b847 a037 6dc1 8737
00000350: 929a c736 71de 2439 52ec 5939 4054 f938
00000360: d691 5339 7b29 3539 c2e8 3939 15d3 8638
00000370: 486c ff37 3ea1 ef37 7de5 3a37 2bbe ef37
00000380: c7f3 0e37 6f79 d038 580b a538 13ff a538
00000390: ed24 823a 71c6 bb39 e793 a439 021c 2c38
000003a0: 6f1d 9e38 f90c e037 01cc 6739 1717 9e38
000003b0: bead ba38 c063 6d36 e1d7 8a35 d853 6334
000003c0: 29a6 bd38 6448 8b38 f81f 9438 9b56 7b38
000003d0: 0512 0138 17b7 e237 6f8d 5b39 3153 9638
000003e0: a911 b938 6478 2f38 1669 5737 e883 3337
000003f0: 23f5 f439 7a83 5139 1e09 5d39 8fcf e538
1.7437484e-05 1.4149973e-05 7.2051876e-06 8.826304e-06 1.7587867e-06 5.6812394e-07 3.150776e-05 5.212462e-05
2.7148168e-05 0.00019251801 0.000109677065 0.0001296077 0.00015788311 5.588946e-05 5.244271e-05 4.0478702e-05
3.7521262e-05 2.8027576e-05 1.6826332e-05 1.0596196e-05 1.1010712e-05 4.6309677e-05 8.445193e-05 2.4195066e-05
2.5953232e-05 0.00011567919 2.4763804e-05 2.9834872e-16 1.8266075e-16 0.0 0.001955897 0.00047960225
0.00045905125 0.0011586391 0.0009731087 0.00040976916 0.000114473296 7.523382e-05 7.1485134e-05 0.00024663372
0.00023260083 0.00018918944 6.2439845e-05 5.853202e-05 4.8739526e-05 2.5318484e-05 1.2446665e-05 1.2068579e-05
0.00017978056 0.00012339154 0.000108585635 0.0026617316 0.002674345 0.0018688706 0.00021867051 0.00016054694
0.00013426517 8.8993445e-05 0.00020389508 8.9109715e-05 6.9807546e-05 0.00025570902 0.00013445233 3.877269e-05
3.8488277e-05 1.5858834e-05 0.00017543226 0.00027730005 9.599821e-05 1.06696225e-05 9.321402e-06 6.3347943e-06
6.430687e-05 2.4762883e-05 2.0842952e-05 9.858203e-05 0.00017864344 6.402293e-05 3.5690613e-05 1.7106591e-05
1.6167793e-05 8.2862054e-05 0.00016921868 9.228854e-05 2.7879967e-05 0.00012520948 3.762068e-05 1.2748535e-05
2.472451e-05 9.611017e-06 0.00020730887 0.00040844016 0.00015960862 0.00051148405 0.00028029343 0.00017050056
0.007175336 0.004226159 0.0025016842 0.00010578775 0.0004207645 0.00010505021 1.4151711e-05 0.00011711942
2.7759854e-05 3.9423612e-05 8.6353444e-05 4.537079e-05 7.195568e-05 4.0520557e-05 2.6127245e-05 4.2688906e-05
7.949373e-05 3.7832553e-05 3.0206542e-05 7.646884e-05 2.0009595e-05 0.00021192177 5.0877446e-05 8.591184e-05
0.00015739613 6.373184e-05 7.860815e-05 2.7052969e-05 3.5543406e-05 2.3618935e-05 7.5687276e-05 4.355316e-05
4.3991527e-05 1.0081688e-05 6.612331e-06 5.8182163e-06 0.0022132962 0.0008081199 0.0007594794 9.698975e-05
4.2105912e-05 3.8320795e-05 1.9740737e-05 7.625023e-06 9.974916e-06 0.000109297835 7.738929e-05 3.297174e-05
8.287791e-05 0.00016323227 6.177828e-05 9.993983e-05 0.00034325325 0.0001098321 2.5296775e-05 2.1887474e-05
1.4745738e-05 0.00012627008 0.00011739894 5.4756092e-05 7.69593e-05 5.9197708e-05 5.0208655e-05 0.00011880178
5.0837807e-05 4.8213988e-05 1.5501353e-05 1.0585909e-05 8.303969e-06 0.00010469176 0.00013231684 5.0238763e-05
5.868933e-05 4.6455483e-05 4.1114523e-05 0.00018431932 7.329846e-05 9.79554e-05 1.9155848e-05 3.06206e-05
1.8155723e-05 5.0877275e-05 3.7006004e-05 5.651793e-05 0.00011858045 6.224488e-05 6.4103624e-05 4.99195e-05
9.0073045e-05 4.799862e-05 0.00011839916 0.00021895791 6.644577e-05 4.485524e-05 7.176336e-05 3.0875253e-05
0.00012494955 0.0001767775 0.00012767136 4.5186065e-05 5.200727e-05 2.3029286e-05 2.9453984e-05 4.317928e-05
4.2268835e-05 2.6993775e-05 8.8727385e-05 2.1186626e-05 3.95242e-05 7.266995e-05 3.2706692e-05 9.814625e-05
0.00016625224 9.759406e-05 1.9106883e-05 1.6183325e-05 5.9486565e-06 0.00015723125 0.00020782769 0.00011888938
0.00020176856 0.00017276958 0.00017729684 6.428935e-05 3.0448791e-05 2.8566104e-05 1.1139896e-05 2.8579574e-05
8.520618e-06 9.940832e-05 7.869926e-05 7.9153244e-05 0.0009929218 0.0003581527 0.00031390713 4.103408e-05
7.5395095e-05 2.6708922e-05 0.00022105874 7.538328e-05 8.901533e-05 3.5373814e-06 1.034463e-06 2.1171525e-07
9.043172e-05 6.64152e-05 7.0631446e-05 5.992372e-05 3.077278e-05 2.7026557e-05 0.00020938156 7.168053e-05
8.824777e-05 4.1835374e-05 1.2839466e-05 1.0699943e-05 0.00046721948 0.00019980772 0.00021079599 0.00010958232

exp_avg f4 [164]
00000000: 21c8 4b38 ffc1 37b8 25f3 fdb7 3dda 0339
00000010: f8fb 5fb7 42c8 b3b8 1297 b6b8 aeda 59b9
00000020: 886d 8438 0623 1b02 6242 00b9 6a5c 533a
00000030: 0e3f dd38 80e3 97b9 e28f fe38 eaa5 b637
00000040: dec3 44b8 faf9 4f3b a245 9839 5455 5738
00000050: e237 1539 d04e d236 343f 9eb9 9cb6 2538
00000060: 7efc b139 81d2 2839 4096 c2b7 84bd 0e39
00000070: b6db 8338 4541 eab8 1dcd d438 82e3 f839
00000080: 70c0 afba 234e f8b8 b597 5e38 7cdc 41b8
00000090: 0e3d 2ab8 f4a4 16b8 5c0c 8d39 520b bcb7
000000a0: 445a 39b8 6152 65b9 8793 2639 dc0a f7b7
000000b0: f063 c1b9 204e 5a37 21cf 1437 e604 59b9
000000c0: b338 fa38 5093 24b7 58f7 56b6 707c 07b7
000000d0: 10ec 35b8 e7cf bc37 fd6a 9938 25a8 8038
000000e0: dc0e f0b7 ccc4 9e38 d786 4e39 1ab6 3539
000000f0: ee35 8b39 3d97 3cb8 8396 bcb9 37bc cf38
00000100: 4094 b934 39bf 2c39 b941 2ab9 9577 dbb7
00000110: 8ced 59b9 5aee 0c39 abe2 d638 beab 82b9
00000120: 7642 0bb9 d62e 6837 ce31 e737 8441 7837
00000130: 1955 0cb9 beb6 bab8 08c6 04b8 7842 8db7
00000140: 0034 bd34 6073 86b7 2220 81b9 901a 13b7
00000150: 55c0 9939 93e7 18b8 2f86 5439 4fb7 29b7
00000160: 378d 67b9 8430 b737 97b7 80b8 3a68 a538
00000170: a27c 9639 0994 93b8 f410 4ab8 a00c 5bb7
00000180: 8469 2eb9 447b d33a e953 1739 8562 2938
00000190: 8a0f 2db9 dc2d 0239 6044 1d38 5ce8 9136
000001a0: c41b b437 03f1 7139 72c6 a338 eea4 3d39
000001b0: 8821 4538 c043 d7b7 249b 69b9 5057 cdb7
000001c0: 47d1 8938 88ba 0839 ca2f 67b8 6a49 d238
000001d0: ebee f7b7 6228 15b9 becf 9138 e849 43b9
000001e0: 2705 8fb9 f6df 48b9 673f 38b8 9d4b 64b8
000001f0: 5498 b2b8 cb2b 5839 5838 29b6 04f8 12b7
00000200: ca2a cdb8 b5d4 e3b9 c602 6339 ffaf 9bb9
00000210: ca0c 53b9 2727 3739 e408 b337 c09a 52b9
00000220: 91a7 c338 5cce 6c38 d8f5 c038 71d1 7038
00000230: 6457 4a39 3dfc 98b8 ff71 0838 47af 1639
00000240: 0d4f 0438 c210 8f38 f01b 54b8 44e0 1739
00000250: 4eec 01b8 c1e0 5138 2856 e937 8a34 4bb8
00000260: c5f6 9939 b795 fbb8 c201 efb9 cc4f 57b8
00000270: 5853 6ab7 5a46 d438 3d86 15b9 6060 3738
00000280: f1c1 2438 68c6 28b8 1866 2aba f0b2 2b38
4.8585356e-05 -4.3811273e-05 -3.0273173e-05 0.00012574434 -1.3350502e-05 -8.572686e-05 -8.706575e-05 -0.00020776197
6.314652e-05 1.1397653e-37 -0.00012231761 0.0008062782 0.00010549846 -0.00028970465 0.00012138464 2.177335e-05
-4.6912457e-05 0.003173469 0.0002904358 5.1339463e-05 0.00014230565 6.2676627e-06 -0.00030183198 3.9509134e-05
0.00033948192 0.00016100147 -2.3196568e-05 0.00013612775 6.287491e-05 -0.00011170147 0.00010147153 0.00047471753
-0.0013408791 -0.000118401156 5.3070213e-05 -4.6220128e-05 -4.058802e-05 -3.591641e-05 0.00026902824 -2.2416618e-05
-4.4191504e-05 -0.0002186983 0.00015885952 -2.9449751e-05 -0.00036886288 1.30120025e-05 8.869713e-06 -0.00020696557
0.0001193149 -9.809461e-06 -3.2032458e-06 -8.0756e-06 -4.3373613e-05 2.2508159e-05 7.315537e-05 6.134835e-05
-2.8617149e-05 7.5706834e-05 0.00019695923 0.00017329343 0.00026552327 -4.4963544e-05 -0.00035970294 9.905587e-05
3.45668e-07 0.00016474434 -0.00016236947 -2.616252e-05 -0.00020783226 0.00013440233 0.000102465354 -0.0002492349
-0.00013280832 1.3839182e-05 2.7560538e-05 1.4797206e-05 -0.00013383142 -8.9032095e-05 -3.1655683e-05 -1.6839462e-05
3.5241828e-07 -1.602777e-05 -0.00024628738 -8.768067e-06 0.00029325733 -3.6455294e-05 0.00020267883 -1.0115865e-05
-0.00022082483 2.1837892e-05 -6.137712e-05 7.887227e-05 0.00028703088 -7.03708e-05 -4.817634e-05 -1.3056357e-05
-0.00016633241 0.0016134758 0.00014431741 4.0384493e-05 -0.00016504354 0.0001241485 3.7495396e-05 4.348387e-06
2.1470601e-05 0.00023073335 7.809409e-05 0.00018085886 4.699969e-05 -2.5661546e-05 -0.00022278406 -2.4478562e-05
6.57165e-05 0.00013039459 -5.51192e-05 0.00010027255 -2.955595e-05 -0.00014224791 6.952834e-05 -0.00018624181
-0.00027278924 -0.00019156918 -4.3928067e-05 -5.4429856e-05 -8.516075e-05 0.0002061568 -2.5215759e-06 -8.760024e-06
-9.783132e-05 -0.00043455293 0.0002164944 -0.0002969503 -0.00020127292 0.00017466825 2.1342603e-05 -0.0002008481
9.329536e-05 5.645897e-05 9.2010654e-05 5.7415516e-05 0.00019296777 -7.294908e-05 3.2531094e-05 0.0001437041
3.1544874e-05 6.821893e-05 -5.0570758e-05 0.00014484028 -3.0976073e-05 5.00388e-05 2.7815884e-05 -4.8447902e-05
0.00029366292 -0.00011996499 -0.00045586942 -5.133431e-05 -1.3966892e-05 0.00010122052 -0.00014259755 4.3720356e-05
3.928127e-05 -4.02391e-05 -0.00065001985 4.0936226e-05

exp_avg_sq f4 [164]
00000000: 4a05 df33 eba1 5133 0d0e cb34 0d34 f135
00000010: e4ed 4635 5920 d334 017c 4634 022c b134
00000020: 6f00 c334 cacf b022 93e1 d336 8612 ce36
00000030: 7379 8635 e156 3436 05ac 5535 6283 4a34
00000040: 716b d035 10f6 2538 0917 1636 1ea2 a935
00000050: 3903 0036 5f0c 8334 c00c cc35 355d fe33
00000060: d81f f934 af6b 8b35 dd50 8534 cddf aa35
00000070: 9bc6 0d35 076c 1f34 611a 1336 999e 2736
00000080: ec55 3038 e3b5 bd35 af4a d034 7798 3635
00000090: c401 c434 1205 2035 5913 a734 753a a135
000000a0: 71e3 a035 4796 d934 e08f 3035 cd58 ce33
000000b0: 7b60 4737 3cfb 8535 7afe 2434 066e f834
000000c0: 43e3 6635 c9af e935 0ffc 6034 f7e3 5d35
000000d0: c130 3d35 423a 3835 7e40 3734 fafc 4435
000000e0: 0386 2335 284f b935 1626 aa34 0791 5e35
000000f0: 4432 8a35 45a9 3735 c873 7635 5bf0 ed34
00000100: 1e18 f235 6a1f b534 4b53 3635 1beb 9d34
00000110: 0dea 0c35 edb6 d235 c3a9 5034 e6dd de35
00000120: 1071 2736 63c5 da34 c72c 0034 4c5c 9835
00000130: 9b66 9236 ceb9 de34 dbae a735 459a 5e31
00000140: 22de 8235 9739 e434 dc08 ac35 577e 2134
00000150: 2448 4a36 f273 2335 4f27 4035 31ce dd34
00000160: e336 9f34 300b 8634 2c5a 8634 3249 9235
00000170: 41ec 0336 18e1 bc35 5738 c034 23e4 9b35
00000180: c640 3e35 d953 4637 b468 1436 97ff 5034
00000190: 8d04 d935 73bc 6235 6a8a 9b34 bf09 6235
000001a0: e828 1734 130d ea35 4775 ee34 e1c8 5735
000001b0: e5b5 7235 e468 0536 304d 8235 3ac9 6a36
000001c0: 1912 3634 8655 5d35 7c10 3335 bca8 9036
000001d0: 5c96 c635 6bc9 db35 052b b635 1b3d a835
000001e0: 7507 0236 0e13 0e36 0ac5 8f35 6dc7 d034
000001f0: 0d20 b135 d54f 2435 8ef1 6733 8d59 b133
00000200: 2b25 b834 fa7d 8836 066c d936 8334 3b35
00000210: 429f 6f34 0e2e 2035 a8c4 2536 963f ad35
00000220: 0211 4c35 52b2 6134 e789 0235 64f5 1c36
00000230: c09d ad35 3ac8 dd34 8181 9934 4ed7 4634
00000240: 62aa 2135 444c fc35 dbe6 c234 fcd2 3735
00000250: dec9 5b35 74c4 c134 6560 1c36 7e11 2b34
00000260: d348 4036 86f0 8133 1b53 5336 7603 d335
00000270: ce43 e935 1b69 c735 5992 e934 8275 9635
00000280: bf8a 8934 01e6 c935 a206 1436 0ba0 5c34
1.0385209e-07 4.8808868e-08 3.782192e-07 1.7971048e-06 7.4106924e-07 3.932535e-07 1.84853e-07 3.300084e-07
3.6321896e-07 4.79249e-18 6.3145503e-06 6.141435e-06 1.0019124e-06 2.687266e-06 7.9599005e-07 1.8860513e-07
1.5528477e-06 3.956823e-05 2.236515e-06 1.2638664e-06 1.9075362e-06 2.4409653e-07 1.5202895e-06 1.1844751e-07
4.6403034e-07 1.0387647e-06 2.4832016e-07 1.2731122e-06 5.28156e-07 1.4847329e-07 2.1920061e-06 2.4977255e-06
4.204169e-05 1.4134533e-06 3.8797359e-07 6.802215e-07 3.650913e-07 5.9612023e-07 3.112025e-07 1.2012448e-06
1.1987123e-06 4.052874e-07 6.5774475e-07 9.608775e-08 1.1883788e-05 9.982391e-07 1.5366268e-07 4.6273652e-07
8.6012386e-07 1.7411013e-06 2.0953324e-07 8.266065e-07 7.0478933e-07 6.863012e-07 1.7066665e-07 7.338382e-07
6.0917245e-07 1.3806612e-06 3.169268e-07 8.291249e-07 1.029643e-06 6.841913e-07 9.1810625e-07 4.4319572e-07
1.8037424e-06 3.3736734e-07 6.792149e-07 2.941459e-07 5.2494653e-07 1.5699458e-06 1.9433269e-07 1.660487e-06
2.495075e-06 4.0749282e-07 1.1937219e-07 1.1351744e-06 4.363084e-06 4.1485913e-07 1.2493359e-06 3.2392944e-09
9.750404e-07 4.2510212e-07 1.2817577e-06 1.5040256e-07 3.0142337e-06 6.0890955e-07 7.1582775e-07 4.1314482e-07
2.9655993e-07 2.4967585e-07 2.5025054e-07 1.089915e-06 1.965804e-06 1.4072602e-06 3.580378e-07 1.1614796e-06
7.0874773e-07 1.1821242e-05 2.2114664e-06 1.9464493e-07 1.6169084e-06 8.446579e-07 2.897171e-07 8.4205743e-07
1.4077852e-07 1.7438164e-06 4.4416285e-07 8.038606e-07 9.0416717e-07 1.9879599e-06 9.708219e-07 3.4985846e-06
1.6956655e-07 8.245337e-07 6.6706684e-07 4.3111777e-06 1.479591e-06 1.6375392e-06 1.3572577e-06 1.253476e-06
1.937585e-06 2.117074e-06 1.0711676e-06 3.888812e-07 1.3196856e-06 6.121093e-07 5.400357e-08 8.258494e-08
3.4299714e-07 4.0677814e-06 6.4796795e-06 6.9739343e-07 2.2316547e-07 5.9671663e-07 2.4701385e-06 1.290801e-06
7.602067e-07 2.101963e-07 4.862945e-07 2.3388648e-06 1.2935416e-06 4.1310142e-07 2.8592697e-07 1.8518514e-07
6.0225113e-07 1.8797659e-06 3.6303285e-07 6.8479835e-07 8.1877613e-07 3.609199e-07 2.330192e-06 1.593198e-07
2.8652619e-06 6.0507816e-08 3.1489824e-06 1.5721732e-06 1.7379587e-06 1.4857245e-06 4.3506114e-07 1.121007e-06
2.561919e-07 1.5042607e-06 2.205758e-06 2.054732e-07
