docs/smld/lightning_logs/version_44/checkpoints/epoch=29-step=2940.ckpt (torch, 345931 bytes, 18 tensors)

ms.layers.0.weight f4 [164, 3]
0	0xbd6b0457	-0.057377186
1	0x3e6dac31	0.23210217
2	0xbe42f687	-0.19039355
3	0xbd56ebec	-0.052471086
4	0x3f0fea54	0.5621693
5	0x3e92a0e6	0.2863838
6	0x3eca65bb	0.3953074
7	0xbe2271a9	-0.1586367
8	0x3e1981ca	0.14990917
9	0x3ed41f95	0.41430345
10	0xbecb612d	-0.39722577
11	0xbefa8d4c	-0.48935926
12	0xbe39d44e	-0.18147394
13	0xbf06a914	-0.5260174
14	0xbed934cb	-0.4242309
15	0xbe2ee886	-0.17080888
16	0x3e3452ed	0.17609759
17	0x3eba3476	0.3636815
18	0xbe8ff980	-0.2812004
19	0x3f0f5fc8	0.56005526
20	0xbeb6cd06	-0.35703295
21	0xbef55403	-0.47915658
22	0xbf0b4368	-0.5439973
23	0x3ef0b2f4	0.4701153
24	0xbef1d916	-0.47235936
25	0x3e156b19	0.14591636
26	0xbf121fb9	-0.57079655
27	0x3e4a7005	0.19769295
28	0xbdd8b926	-0.10582189
29	0xbe4a78c2	-0.19772628
30	0xbd9e251c	-0.07721922
31	0x3e57a584	0.21059233
32	0xbe862a6f	-0.2620425
33	0xbe3f3d4a	-0.18675724
34	0x3f05f303	0.5232393
35	0x3e62329e	0.22089621
36	0x3dacba8d	0.08434019
37	0xbe576354	-0.21033984
38	0xbecb4c0e	-0.39706463
39	0xbe84121a	-0.2579506
40	0x3e507839	0.20358361
41	0xbed3a6a3	-0.4133807
42	0x3ee09b3c	0.43868434
43	0xbd89ea77	-0.06734174
44	0x3ece3ccb	0.40280756
45	0x3e0f2d7f	0.13982199
46	0xbef3d6a6	-0.476247
47	0x3d322e09	0.043500934
48	0xbe30dec8	-0.17272484
49	0xbe0bc824	-0.13650566
50	0xbef975d8	-0.4872272
51	0xbef5c95c	-0.48005188
52	0x3f0ef694	0.55845
53	0xbde1ed1e	-0.11031555
54	0x3ecd0102	0.4003983
55	0x3d30deab	0.043181103
56	0xbe5a3907	-0.21310817
57	0xbf0b9ed2	-0.54539216
58	0x3b992798	0.0046739094
59	0xbec6417e	-0.38721842
60	0xbedcbae2	-0.4311133
61	0x3eae8c5d	0.34091464
62	0xbd412e48	-0.047163278
63	0x3ebd72de	0.370017
64	0x3de3fa2b	0.111317
65	0x3ec78872	0.38971287
66	0x3da00944	0.07814267
67	0x3eb08bbb	0.34481606
68	0x3d4eaa8d	0.05045562
69	0x3eb63f1b	0.3559502
70	0xbe5b5603	-0.2141953
71	0x3d85a831	0.065262206
72	0xbef3fdfb	-0.4765471
73	0xbee3c23e	-0.44484133
74	0xbd926ad3	-0.07149281
75	0x3e930af8	0.28719306
76	0x3d783a34	0.06060238
77	0xbe49a379	-0.19691266
78	0xbe264db3	-0.16240577
79	0x3ea0f1a9	0.31434372
80	0xbdaa58bc	-0.08317706
81	0x3e85629a	0.2605179
82	0xbe1cb54d	-0.15303536
83	0x3ec46680	0.3835945
84	0xbeba76b7	-0.36418697
85	0x3dfe787a	0.12425323
86	0xbcdcff0e	-0.026977088
87	0xbe9f9be4	-0.31173623
88	0xbdf7a81c	-0.12092611
89	0x3efb0ac4	0.4903165
90	0x3e91b536	0.28458565
91	0x3eaa79ae	0.3329596
92	0x3f007cc7	0.50190395
93	0x3e5c2db4	0.2150181
94	0x3e20bcab	0.15696971
95	0xbe0575ea	-0.13033262
96	0xbefa5e00	-0.4889984
97	0x3eb9cda5	0.36289707
98	0x3f0312b0	0.5120039
99	0xbe31a56d	-0.17348261
100	0xbe4b3a6f	-0.1984651
101	0xbf0ff8d3	-0.5623905
102	0xbec1c0fb	-0.37842545
103	0xbec72e30	-0.38902426
104	0xbef0e68e	-0.470509
105	0x3eab900a	0.3350833
106	0xbe914717	-0.2837455
107	0xbdd3cfdf	-0.10342383
108	0xbec93ef9	-0.39305857
109	0xbdf1f6b0	-0.1181463
110	0xbe0af18f	-0.1356871
111	0x3d8c828b	0.068608366
112	0xbe2d13bc	-0.1690206
113	0x3eb9318d	0.36170617
114	0xbd03f50f	-0.032216128
115	0xbed0d507	-0.40787527
116	0x3e044660	0.12917471
117	0xbede6414	-0.4343573
118	0x3ecb2fb6	0.39684838
119	0xbedb27b2	-0.42803723
120	0x3ee222a4	0.44167054
121	0x3e5f8c09	0.21830763
122	0x3eece80b	0.46270785
123	0x39e894a7	0.00044361243
124	0xbe5ad36c	-0.21369714
125	0x3e881b39	0.2658327
126	0xbee0350f	-0.4379048
127	0xbe9bf9c6	-0.30464
128	0x3e4c9c30	0.19981456
129	0x3e24d9af	0.16098665
130	0xbf09d7aa	-0.538447
131	0xbe84aaf8	-0.2591169
132	0x3c2aeaa5	0.01043192
133	0x3dd23913	0.10264792
134	0xbeb1d527	-0.34732935
135	0xbe0431ef	-0.12909673
136	0x3e9d437a	0.30715543
137	0xbe6c71e5	-0.23090322
138	0x3e765700	0.24056625
139	0xbd4d7c4d	-0.05016737
140	0xbf04d6e2	-0.51890385
141	0x3ef50088	0.47851968
142	0x3e6e105d	0.2324843
143	0x3efc21e3	0.49244604
144	0xbec813ed	-0.39077702
145	0xbee7b7a9	-0.4525731
146	0x3e823c53	0.2543665
147	0x3eadb22c	0.33924997
148	0x3e0707a3	0.13186507
149	0xbe90d4e1	-0.28287414
150	0x3ed9261a	0.42411882
151	0x3e4a5c2a	0.1976172
152	0x3eac0558	0.33597827
153	0x3edf72ad	0.43642178
154	0x3e29e138	0.1658982
155	0x3e818633	0.25297698
156	0xbf090099	-0.53516537
157	0x3e9a2e92	0.30113655
158	0x3dc03678	0.09385389
159	0xbeb28a47	-0.34871122
160	0x3de99447	0.11405235
161	0x3eef90a6	0.46790045
162	0x3e6c71a3	0.23090224
163	0x3e7aecbd	0.24504371
164	0xbe8e9791	-0.2785001
165	0xbe805ccf	-0.25070807
166	0xbf06089b	-0.5235688
167	0xbf0d6232	-0.5522796
168	0xbc28b3ab	-0.010296742
169	0xbde8f95a	-0.11375685
170	0x3efc0e6a	0.49229747
171	0xbdf43726	-0.11924581
172	0xbe9dc63b	-0.308153
173	0xbe97e390	-0.29665804
174	0x3c8df150	0.01732698
175	0xbedbbc13	-0.42916927
176	0x3e08d888	0.1336385
177	0xbda2ac2b	-0.07942995
178	0xbea15bfe	-0.31515497
179	0x3e8d6e50	0.27623224
180	0xbeba4bbb	-0.36385903
181	0x3ec880d1	0.3916078
182	0xbeb6d553	-0.35709628
183	0xbd762b6e	-0.06010001
184	0x3eedd59f	0.46452042
185	0x3e82b7dc	0.255309
186	0xbf07470f	-0.528428
187	0xbeaf676e	-0.34258598
188	0x3d21609f	0.039398786
189	0x3ee26c8a	0.44223434
190	0x3d2f7b30	0.04284209
191	0x3f058d02	0.52168286
192	0x3d5e87c1	0.054328684
193	0xbef940c8	-0.48682237
194	0x3e6f4e57	0.23369728
195	0x3dfcdfa9	0.12347347
196	0x3d9af8ff	0.075670235
197	0xbea49efd	-0.32152548
198	0x3e8fb20b	0.28065524
199	0xbf0817a3	-0.53161067
200	0xbd8b9393	-0.06815257
201	0xbeb70634	-0.3574692
202	0xbe02cae4	-0.12772709
203	0xbc9cabbd	-0.01912486
204	0xbea77d4a	-0.32712775
205	0x3e9a6a71	0.30159333
206	0xbda040ed	-0.078248836
207	0x3ed90648	0.42387605
208	0xbecff969	-0.40619972
209	0x3e0fb1fc	0.1403274
210	0x3dcf421c	0.10120031
211	0x3d49289b	0.04911099
212	0x3d718278	0.058962315
213	0x3e490cc9	0.19633783
214	0xbee13a51	-0.43989804
215	0x3d1b74ab	0.03795306
216	0xbcc33eb0	-0.023833603
217	0xbe69713c	-0.22797102
218	0xbee3c6ae	-0.44487518
219	0x3e9f9a3b	0.31172356
220	0xbef5fd01	-0.4804459
221	0xbed47e1f	-0.41502473
222	0xbe4d0378	-0.20020854
223	0xbca68673	-0.020327782
224	0xbf200348	-0.62505007
225	0xbe5a624a	-0.21326557
226	0xbea9721d	-0.33094874
227	0xbeb58f21	-0.3546076
228	0xbb668af2	-0.0035178033
229	0x3e10dbf3	0.14146404
230	0xbebc4639	-0.36772326
231	0x3ef6ddad	0.48216
232	0xbe355267	-0.17707215
233	0x3ea711da	0.32630807
234	0xbe60e41e	-0.2196202
235	0xbef5d119	-0.4801109
236	0x3e91dcfc	0.2848891
237	0x3d1cbfbd	0.038268793
238	0x3eb4dc2a	0.35324222
239	0xbe76241a	-0.24037209
240	0x3ee3670a	0.4441455
241	0x3ec8c810	0.39215136
242	0xbefe3dea	-0.49656612
243	0xbeac7e5e	-0.3369016
244	0xbcdc4834	-0.026889898
245	0x3dd603b2	0.104499236
246	0xbed4ba32	-0.41548306
247	0xbf0cae0e	-0.54953086
248	0xbda51638	-0.080608785
249	0xbdf60495	-0.12012593
250	0x3ec8a3ba	0.39187413
251	0x3ed39676	0.4132573
252	0xbea3031c	-0.3183831
253	0xbce306fc	-0.027713291
254	0xbe558d68	-0.20854723
255	0x3ebcebe5	0.36898723

ms.layers.0.bias f4 [164]
0	0x3e860e82	0.26182944
1	0x3e6386e3	0.22219424
2	0x3e9bdca8	0.30441785
3	0x3edb4020	0.4282236
4	0x3b614165	0.0034371254
5	0xbed4ab5e	-0.41536993
6	0xbeb07b25	-0.34468952
7	0x3c0ef47d	0.008725283
8	0xbca122ba	-0.01966988
9	0x3e947be6	0.29000777
10	0xbe30661b	-0.1722645
11	0xbeee7504	-0.4657365
12	0xbe89dd9e	-0.26926893
13	0xbe61340f	-0.21992515
14	0xbe437e0a	-0.19091049
15	0xbf0a7273	-0.54080886
16	0x3d20000b	0.03906254
17	0x3ec92df3	0.3929287
18	0xbeafbcab	-0.3432363
19	0xbee60467	-0.44925234
20	0x3ea476ed	0.32121983
21	0xbf181b35	-0.59416515
22	0xbeaf57e1	-0.34246734
23	0xbe978105	-0.29590622
24	0xbe816b20	-0.25277042
25	0xbf187c80	-0.5956497
26	0xbe76ca5e	-0.24100634
27	0xbea3cdd7	-0.3199298
28	0xbee1d424	-0.44107163
29	0xbddff023	-0.10934474
30	0xbe6871fb	-0.2269973
31	0xbee8936d	-0.45424977
32	0x3ec7dcc3	0.39035615
33	0x3e019114	0.12652999
34	0xbe9d4aa4	-0.3072101
35	0x3ebaa52d	0.36454144
36	0x3e69cd0d	0.22832127
37	0x3e87db2d	0.26534405
38	0xbe3113f2	-0.17292765
39	0xbae59d10	-0.0017518122
40	0x3ea86371	0.32888368
41	0x3ef5e3e5	0.48025432
42	0x3ed7afcb	0.42126307
43	0xbe480b5a	-0.1953558
44	0xbf054c94	-0.52069974
45	0xbf234a39	-0.6378513
46	0xbe9132ed	-0.28359166
47	0xbd8e7281	-0.06955434
48	0x3e57cf6e	0.21075222
49	0x3ef25759	0.47332266
50	0x3e79cb4e	0.24393961
51	0xbe165c18	-0.14683568
52	0x3eb63a89	0.35591534
53	0xbe7f2f74	-0.24920446
54	0xbe9ed0ef	-0.3101878
55	0xbe61b3ac	-0.22041196
56	0x3e360780	0.17776299
57	0xbe0de3bd	-0.13856407
58	0xbe73210d	-0.23743077
59	0x3ec16fc3	0.3778058
60	0xbee10a22	-0.43953043
61	0xbd9f24f1	-0.07770718
62	0xbe2555e4	-0.16146046
63	0x3ee3f0cf	0.4451966
64	0xbadedfc6	-0.0017003946
65	0x3c76738e	0.015042199
66	0x3f0755df	0.52865404
67	0x3efba8a0	0.49152088
68	0x3f011f4b	0.50438374
69	0x3eb58196	0.3545043
70	0x3e84caf6	0.25936097
71	0x3eb7030e	0.35744518
72	0x3e3cdcd2	0.18443611
73	0x3e7a85d4	0.24465114
74	0x3bc063a1	0.0058712517
75	0xbe78a89e	-0.24283072
76	0xbf193c83	-0.5985796
77	0xbe822470	-0.25418425
78	0xbebebbbb	-0.37252602
79	0x3efa3f52	0.48876435
80	0xbd269daa	-0.040677704
81	0x3edcf93c	0.431589
82	0xbe86d8fb	-0.26337418
83	0xbf100861	-0.56262785
84	0xbda2a996	-0.07942502
85	0xbebf11cd	-0.37318268
86	0x3eb13d5c	0.34617126
87	0xbe4f2a55	-0.20230992
88	0xbe491d9a	-0.19640198
89	0xbeebd8ff	-0.46063992
90	0xbee516f6	-0.4474408
91	0xbf1a9f6c	-0.6039951
92	0xbe7f615b	-0.24939482
93	0x3e886854	0.26642096
94	0xbe5fc59e	-0.21852729
95	0x3e176601	0.14785005
96	0xbed81e7c	-0.42210758
97	0xbb3e8c19	-0.0029075204
98	0x3e3c4e30	0.18389201
99	0x3debad8d	0.115077116
100	0xbedd2e06	-0.43199176
101	0xbeeb9cd1	-0.4601808
102	0xbeef8a6d	-0.46785298
103	0xbec78ea5	-0.38976017
104	0xbef00e7e	-0.46886057
105	0x3e8dcc51	0.27694944
106	0x3d7a0f85	0.061049957
107	0x3dd2f2df	0.1030023
108	0xbe67d1b4	-0.22638589
109	0xbe5e34fc	-0.216999
110	0xbebc4d4e	-0.3677773
111	0xbebc3c12	-0.3676458
112	0x3e9fc131	0.3120208
113	0x3e69dfa4	0.22839218
114	0xbeadb925	-0.33930317
115	0x3eede876	0.46466416
116	0xbedd6e15	-0.43248048
117	0xbf04555d	-0.51692754
118	0x3ef50239	0.47853258
119	0x3e78ddb5	0.24303325
120	0xbeeaa442	-0.45828444
121	0xbe74d76b	-0.239103
122	0x3d7d9a85	0.06191494
123	0x3e9f91fe	0.3116607
124	0x3ebc6693	0.36797008
125	0x3ee279b9	0.44233492
126	0x3eebff6f	0.46093318
127	0xbe1a9b2e	-0.15098259
128	0xbf223bfe	-0.6337279
129	0x3eb9a12f	0.36255786
130	0xbee44006	-0.44580096
131	0x3d829d27	0.06377631
132	0xbeb1df86	-0.34740847
133	0xbf19bfcc	-0.60058284
134	0xbea17ee0	-0.3154211
135	0xbd8c2492	-0.06842913
136	0xbf088cec	-0.5334003
137	0x3e74e2bd	0.23914619
138	0x3cfd59f7	0.030926688
139	0xbcbae64f	-0.022814898
140	0xbe39dcb8	-0.18150604
141	0x3e92e4ac	0.28690088
142	0xbdb2cff0	-0.08731067
143	0x3ede52f9	0.43422678
144	0x3e161a5b	0.14658491
145	0xbe872a1f	-0.26399323
146	0x3ec57a71	0.38569978
147	0x3e6fb9a9	0.23410667
148	0xbe1e0d1a	-0.15434685
149	0x3f02f0bb	0.51148576
150	0x3c8cff6d	0.01721164
151	0xbc2912d8	-0.010319434
152	0x3e2c2bdd	0.16813608
153	0xbead4884	-0.33844388
154	0xbe5f031e	-0.21778533
155	0xbf0c909e	-0.5490817
156	0x3e8e0c07	0.2774355
157	0xbbc19870	-0.0059080645
158	0x3f03fc71	0.5155707
159	0xbf080854	-0.5313771
160	0x3ea0f905	0.31439987
161	0x3f068881	0.5255204
162	0x3def6e7a	0.116909936
163	0x3ed77ebb	0.42088875

ms.layers.2.weight f4 [164, 164]
0	0x3bf1db9d	0.0073809163
1	0x3d32294a	0.043496408
2	0x3d0dae9c	0.03459035
3	0x3dc87d49	0.09789521
4	0x3d1c8d88	0.038220912
5	0x3be78e23	0.0070665046
6	0xbd8ec72f	-0.06971585
7	0x3d971a58	0.073780715
8	0x3d96778e	0.07347022
9	0x3dba767e	0.09104632
10	0x3bd964c3	0.006634326
11	0xbd083735	-0.033255775
12	0x3d460a9c	0.04834996
13	0x3dc6c281	0.097050674
14	0x3d17c4a4	0.037052765
15	0x3d54a3cd	0.051914025
16	0x3d96b747	0.07359176
17	0xbda62578	-0.08112615
18	0xbb16ae96	-0.0022992245
19	0x3d81c73e	0.063368306
20	0x3d166e72	0.036726423
21	0x3c972a23	0.01845271
22	0x3d885f17	0.06658762
23	0x3c9d4703	0.0191989
24	0x3cbeb600	0.023280144
25	0x3d3055cd	0.043050576
26	0x3ca6ea50	0.0203754
27	0x3ddca983	0.10774519
28	0x3d741278	0.059587926
29	0x3d3a3d5a	0.045468666
30	0x3d3149da	0.04328332
31	0x3cec51c5	0.028847585
32	0xbd23e7a4	-0.04001583
33	0x3d85a6a4	0.06525925
34	0xbd940692	-0.07227816
35	0xbc818169	-0.015808778
36	0x3ceedcff	0.029158114
37	0x3d86366a	0.065533474
38	0xbb344c7d	-0.002751141
39	0xbda442bd	-0.08020542
40	0x3d378024	0.04479994
41	0x3d91dba9	0.07121975
42	0xbacfb2b5	-0.0015846106
43	0x3e0b0104	0.13574606
44	0x3e0ed058	0.13946664
45	0x3d1c1d11	0.038113657
46	0x3d79d46b	0.060993593
47	0x3ce5aac2	0.028035525
48	0x3d796229	0.06088463
49	0x3cdadd39	0.026716815
50	0xbb725c30	-0.0036981218
51	0x3d9d24fa	0.07673068
52	0x3b3b673e	0.0028595473
53	0xbd8f7166	-0.07004051
54	0x3d3aeac2	0.04563404
55	0xbd7f7ef9	-0.06237695
56	0x3c7ebe4c	0.0155483
57	0xbcb4ed82	-0.022085909
58	0x3cffbd63	0.031218236
59	0x3d35227f	0.04422235
60	0x3d71b2aa	0.059008278
61	0xbd1c4f9b	-0.038161855
62	0x3d1b63c3	0.037936937
63	0x3d90d385	0.07071594
64	0xbd02dfa4	-0.03195156
65	0xbd46641e	-0.048435323
66	0x3d2b624f	0.0418418
67	0x3c2389e4	0.009981606
68	0x3cff3034	0.031150915
69	0x3ddd80d1	0.108155854
70	0xbd45722c	-0.048204586
71	0x3de5afcc	0.11215171
72	0xbd8af729	-0.06785423
73	0x3d4d2087	0.05007985
74	0x3d790fa4	0.06080593
75	0x3c4bb6ed	0.01243375
76	0x3d72c4f8	0.059269875
77	0xbd9f85ed	-0.07789216
78	0x3c399b69	0.011328557
79	0x3c4dddd8	0.012565099
80	0x3da4330a	0.080175474
81	0x3cba7d6d	0.022764886
82	0xbd87b187	-0.066256575
83	0x3d23a694	0.039953783
84	0xbd85468e	-0.06507598
85	0x3d7fbbbb	0.062434893
86	0xbd97e7eb	-0.07417282
87	0xbd41a259	-0.047273967
88	0x3d1db306	0.03850081
89	0x3c7ed7a6	0.015554344
90	0x3d9a9af2	0.07549085
91	0xbd0f88c6	-0.035042547
92	0x3d8ff03f	0.07028245
93	0xbc9e49ec	-0.019322358
94	0xbc1d1340	-0.009587109
95	0x3cc51813	0.024059331
96	0x3cd30e60	0.02576369
97	0x3d7ffbcf	0.062496003
98	0xbcc39763	-0.023875898
99	0x3c53245f	0.0128870895
100	0xbcd138d7	-0.025539799
101	0xbdc928d2	-0.09822239
102	0xbc7d19c2	-0.015448036
103	0xbd090194	-0.03344877
104	0x3c76b383	0.015057447
105	0xbd59c8ee	-0.053170137
106	0x3d8ec2a5	0.06970719
107	0xbcaf7d38	-0.021422014
108	0xbaf4cede	-0.0018677374
109	0x3c0b747f	0.008511662
110	0x3d2ee3af	0.042697605
111	0x3e148933	0.14505462
112	0xbcd758a6	-0.026287388
113	0x3e0ca3e6	0.13734397
114	0x3d244187	0.040101554
115	0xbd54eda2	-0.051984437
116	0x3d56fa73	0.05248494
117	0xbcd08ec3	-0.0254587
118	0x3d348959	0.044076297
119	0xb988e626	-0.00026111415
120	0x3daa8a35	0.08327142
121	0x3d9b74ee	0.07590662
122	0x3d8f629a	0.07001229
123	0xbcd74a63	-0.026280588
124	0xbd91f8fb	-0.071275674
125	0xbb81353b	-0.003943113
126	0xbd7c5c76	-0.061611615
127	0x3d22206d	0.039581705
128	0xbd191a37	-0.037378516
129	0x3dc3b7d9	0.095565505
130	0x3d440d93	0.047864508
131	0xbc3f1a3a	-0.011663968
132	0x3d6c9d08	0.057766944
133	0xbcb5f92e	-0.022213545
134	0x3baa6e16	0.0052011115
135	0xbc211d48	-0.009833641
136	0xbcae63c4	-0.021287806
137	0x3d94b582	0.07261182
138	0x3d736878	0.0594258
139	0xbd784e59	-0.060621593
140	0x3dc3f007	0.09567266
141	0x3dabb2a8	0.08383685
142	0x3c6a3b2e	0.014296336
143	0x3c9125d2	0.01771823
144	0xbcf0c3da	-0.029390264
145	0xbd09b675	-0.03362127
146	0x3bd15a87	0.0063889655
147	0xbca40cd5	-0.02002565
148	0xbd1274b2	-0.03575582
149	0x3dab6d56	0.083704636
150	0x3d34d257	0.04414591
151	0xbb597164	-0.0033179158
152	0x3dbcac49	0.09212548
153	0x3d2cde6b	0.0422043
154	0x3ca7703c	0.02043926
155	0xbe18a555	-0.14906819
156	0x3daa7264	0.083225995
157	0x3da14c09	0.07875831
158	0xbd414223	-0.047182214
159	0x3db88db6	0.09011404
160	0x3de62a9e	0.11238597
161	0x3d11fdd0	0.035642445
162	0x3d54abcc	0.05192165
163	0x3cf89935	0.030346492
164	0xbd7e4175	-0.062074143
165	0xbd3353ec	-0.043781206
166	0xbbdefaeb	-0.006804814
167	0xbd7f19cf	-0.062280472
168	0x3cf30caa	0.029669125
169	0xbd8e8c40	-0.06960344
170	0x3d97a01b	0.074035846
171	0xbd698a80	-0.05701685
172	0x3cbe2e50	0.023215443
173	0x3d838425	0.06421689
174	0xbcfdf1ac	-0.030999027
175	0x3d43e9ac	0.04783027
176	0x3af3172f	0.0018546338
177	0xbd6c394e	-0.057671838
178	0x3b0258b6	0.0019889302
179	0xbcade6c2	-0.021228198
180	0xbd7c08ca	-0.06153182
181	0xbd9f7dd3	-0.07787671
182	0xbc33a6e9	-0.010965087
183	0xbd61309e	-0.054978006
184	0x3d21b288	0.0394769
185	0x3c9b3593	0.018946445
186	0xbcdbcae4	-0.026830144
187	0xbc0370e3	-0.00802252
188	0xbceabf5a	-0.028655697
189	0x3d126bb4	0.035747245
190	0xbc371ab2	-0.011175798
191	0x3b77d6ff	0.0037817357
192	0x3d3aa380	0.045566082
193	0x3d953c88	0.07286936
194	0x3d88d042	0.06680347
195	0x3c9eea9a	0.019398976
196	0xbd708dbf	-0.05872893
197	0xbd120802	-0.035652168
198	0x3d32c97e	0.04364919
199	0xbcb00077	-0.021484597
200	0x3d3a1495	0.045429785
201	0x3d954c53	0.07289948
202	0x3d959028	0.07302886
203	0xbd1df89a	-0.038567163
204	0x3ca57ef5	0.02020214
205	0x3d315c91	0.04330117
206	0xbd7d03e3	-0.061771285
207	0xbcda9c0d	-0.026685739
208	0x3d94a8d5	0.07258765
209	0x3a8fe964	0.001097959
210	0xbb756995	-0.0037446965
211	0x3b536a05	0.0032259237
212	0x3d3ca827	0.0460588
213	0x3cb22b6d	0.021749223
214	0xbd32643a	-0.043552615
215	0xbc999ba8	-0.01875098
216	0xbc030535	-0.007996847
217	0x3cb1cbc0	0.0217036
218	0xbbd57ece	-0.0065153604
219	0xbd3c5e5e	-0.045988433
220	0xbd922919	-0.07136745
221	0xbd57ed19	-0.05271635
222	0x3d34375a	0.0439981
223	0x3ca69317	0.02033381
224	0xbcfd81f3	-0.030945754
225	0x3cfbb85c	0.030727558
226	0xbd6a35f3	-0.057180356
227	0xbd655458	-0.05598864
228	0xbd2ba9f3	-0.041910123
229	0xbd8da67c	-0.0691652
230	0x3d603f93	0.05474813
231	0x3c0d9dd4	0.008643586
232	0xbbb095fb	-0.005388973
233	0x3bf1566b	0.007365038
234	0xbc2e9fb0	-0.01065819
235	0x3d8a9145	0.06765989
236	0xbce3f119	-0.027824925
237	0x3d3f0b81	0.04664183
238	0x3d05d189	0.03267053
239	0xbcf174bd	-0.02947461
240	0xbc925eee	-0.017867532
241	0xbd54157f	-0.051778313
242	0xbd297f6d	-0.04138129
243	0xbd829625	-0.06376294
244	0x3cf65887	0.03007151
245	0xbb3d5e0e	-0.0028895172
246	0x3d6a4a3b	0.057199698
247	0xbd4f58e3	-0.05062188
248	0x3d7d181a	0.061790563
249	0xbd1aec45	-0.03782298
250	0x3d69101e	0.056900136
251	0xbbd88122	-0.0066071907
252	0xbb1f29e4	-0.0024286443
253	0x3d617b3b	0.055049162
254	0x3cfbc062	0.030731384
255	0x3cb3af80	0.02193427

ms.layers.2.bias f4 [164]
0	0x3cee3513	0.029078042
1	0x3d69f0d8	0.057114452
2	0xbd59f8c3	-0.053215753
3	0x3cf0d261	0.029397191
4	0xbd85df69	-0.06536753
5	0xbd6e7ed6	-0.05822643
6	0x3d00a314	0.031405523
7	0xbc18df0f	-0.009330525
8	0xbd22e764	-0.039771453
9	0x3d8a1a21	0.06743265
10	0xbc1ab743	-0.009443107
11	0xbd770efe	-0.060317032
12	0x3d6c7908	0.057732612
13	0xbcad3626	-0.021143984
14	0xbdc4e53d	-0.09614036
15	0xbd3b4aa6	-0.045725487
16	0xbcda329d	-0.026635462
17	0xbd9b0ed1	-0.075711854
18	0x3b8ad0e6	0.0042363284
19	0xbc94c899	-0.018162059
20	0x3d883c0a	0.066520765
21	0xbd916581	-0.070994385
22	0xbc6b15ae	-0.014348431
23	0x3c014653	0.007890302
24	0xbc2ada3b	-0.010428007
25	0xbd2b9927	-0.041894104
26	0x3bf5b88c	0.0074988063
27	0xbd381048	-0.044937402
28	0x3c5d6e93	0.0135151325
29	0xbc13f73e	-0.009031115
30	0x3cbcfa58	0.023068592
31	0xbd8b4276	-0.06799786
32	0x3cb823b9	0.022477971
33	0xbc9a94e9	-0.018869834
34	0xbdab0ee5	-0.0835245
35	0x3d47cf54	0.048781708
36	0xbdaa9cc0	-0.08330679
37	0xbdd9fdce	-0.106441125
38	0x3cb3cc38	0.021947965
39	0xbd9bc09a	-0.07605095
40	0x3d346bc3	0.044048082
41	0xbd66c459	-0.056339595
42	0xbc2292f9	-0.009922736
43	0x3d819ee8	0.06329137
44	0xbd7c6fb8	-0.06162998
45	0xbcc10d84	-0.023566015
46	0x3ca6db95	0.020368377
47	0xbd4dcf46	-0.0502465
48	0xbd9ee2ff	-0.0775814
49	0xbd808628	-0.06275588
50	0xbd4e0253	-0.050295185
51	0xbd24abd2	-0.040202923
52	0xbdd1e62b	-0.10248979
53	0xbb73b598	-0.0037187096
54	0x3d0e5531	0.034749214
55	0xbc2e61b7	-0.010643414
56	0xbcfe53f6	-0.031045895
57	0x3d83cb49	0.06435258
58	0xbcc52c6b	-0.024069032
59	0x3d8f32d7	0.06992119
60	0xbc242509	-0.0100185955
61	0xbd81a0a5	-0.06329469
62	0x3cb1f454	0.02172295
63	0x3cbb8201	0.02288914
64	0xbc0aa78c	-0.008462798
65	0x3d8757d5	0.066085495
66	0xbd788d75	-0.06068178
67	0x3c2bee28	0.010493793
68	0xbde55cc6	-0.11199336
69	0xbdb0d626	-0.086345956
70	0xbd89da8b	-0.06731137
71	0xbd54bee9	-0.05193988
72	0x3d44d10a	0.048050918
73	0x3cd21ea6	0.02564938
74	0xbc8690c2	-0.016426448
75	0xbcef3212	-0.02919868
76	0xbce45213	-0.027871167
77	0xbd319b91	-0.04336125
78	0xbd844b17	-0.06459635
79	0x3d2301f2	0.039796777
80	0x3cda6d97	0.026663585
81	0xbcac4cbb	-0.021032682
82	0x3d693a0f	0.056940135
83	0x3da6fc94	0.08153644
84	0xbdac90a4	-0.084260255
85	0xbc0a9b56	-0.008459887
86	0x3d7be274	0.06149526
87	0xbd87cc6c	-0.06630787
88	0x3d40650e	0.046971373
89	0x3cca6124	0.024704523
90	0xbce1d830	-0.027568907
91	0xbc1a2647	-0.00940854
92	0xbd76a30f	-0.0602141
93	0x3d85da62	0.06535794
94	0x3bb81796	0.005618046
95	0x3d27ed60	0.040997863
96	0xbd680c5e	-0.05665242
97	0x3c02594e	0.007955862
98	0xbd257954	-0.04039891
99	0xbd3cb379	-0.046069596
100	0x3d87ff43	0.06640484
101	0xbc254b83	-0.010088804
102	0xbcc32baf	-0.02382454
103	0xbd352464	-0.044224158
104	0x3d80aa49	0.06282479
105	0x3d198eec	0.037489817
106	0xbc984611	-0.018588098
107	0xbccd1ffe	-0.02503967
108	0x3d956dfe	0.0729637
109	0xbd6f3f0b	-0.05840973
110	0x3d67977c	0.05654095
111	0x3ce11cc6	0.02747954
112	0xbda581e7	-0.080814175
113	0x3cb3039d	0.021852309
114	0xbd7926e1	-0.060828093
115	0xbcc2a495	-0.02376012
116	0xbcdf4fa7	-0.02725966
117	0x3d4f6238	0.050630778
118	0xbbc32d70	-0.0059563443
119	0xbd40e66c	-0.047094747
120	0xbcb76040	-0.022384763
121	0x3cf1665b	0.029467752
122	0xbcb7b5a2	-0.022425476
123	0xbc309242	-0.010777058
124	0x3d8deaa5	0.069295205
125	0x3c0fff1d	0.008788851
126	0x3d3c9271	0.046038095
127	0x3dbb74bd	0.091531254
128	0x3d9fb1c8	0.07797581
129	0x3d6f0850	0.058357537
130	0xbcc77a83	-0.02435041
131	0xbd7cfc88	-0.06176427
132	0x3cc102ee	0.023560967
133	0xbc9be310	-0.01902917
134	0x3d8f45e9	0.06995756
135	0x3ccdd6da	0.025126863
136	0xbd9cdfce	-0.07659875
137	0xbd1080cf	-0.03527909
138	0x3d63ef26	0.05564799
139	0x3d40667e	0.046972744
140	0x3be95187	0.0071203145
141	0xbda413b5	-0.08011571
142	0xbd4aa9c7	-0.04947832
143	0x3d0536c2	0.032522924
144	0x3d8fd9c3	0.070239566
145	0xbbf18e0e	-0.0073716706
146	0x3cc3edd3	0.023917114
147	0x3c529905	0.0128538655
148	0x3d3e52a5	0.046465535
149	0x3ca1f5fe	0.019770619
150	0x3d6f79ba	0.058465697
151	0x3c74a1f1	0.014931188
152	0xbd0aa8df	-0.033852454
153	0x3d6a6766	0.057227515
154	0x3b221244	0.0024730125
155	0x3d85592f	0.06511151
156	0x3d5fae12	0.054609366
157	0x3d2e806a	0.042602934
158	0x3c92411c	0.017853312
159	0xbd37e359	-0.04489455
160	0x3cab7ff0	0.020935029
161	0x3cfea00f	0.031082181
162	0x3d6c0736	0.057624064
163	0xbd20b1e6	-0.039232157

ms.layers.4.weight f4 [2, 164]
0	0x3d713c69	0.058895502
1	0xbd92e173	-0.07171907
2	0x3d341502	0.043965347
3	0x3d3f014c	0.046632096
4	0x3d6335b6	0.055471145
5	0x3cd5a52d	0.026079739
6	0x3ccfbf16	0.025359672
7	0xbccfde97	-0.025374694
8	0x3c773190	0.0150875
9	0x3cdedab5	0.027203897
10	0x39961574	0.00028626213
11	0x3d1d2591	0.038365904
12	0xbd2127dc	-0.039344653
13	0x3d7f7c06	0.062374137
14	0xbc9a40eb	-0.018829783
15	0xbbab10c4	-0.0052205045
16	0xbd0cc788	-0.034369975
17	0xbac43c75	-0.0014971631
18	0xbdb38d24	-0.08767155
19	0x3d6544ec	0.055973932
20	0x3d376a2f	0.044779
21	0xbd33f26b	-0.04393236
22	0x3d0ba100	0.03408909
23	0xbb090e9f	-0.0020913256
24	0x3d6d31d5	0.05790885
25	0x3cc6b813	0.024257695
26	0x3c7a1588	0.0152639225
27	0x3c3a03a3	0.011353406
28	0x3cd305a3	0.025759524
29	0x3b4294e0	0.0029690787
30	0x3cdec2f9	0.02719258
31	0xbd5ca8d4	-0.053871945
32	0x3d9cbcbf	0.07653188
33	0x3d58d1d1	0.05293447
34	0x3d77513f	0.060380217
35	0xbcdb2900	-0.026752949
36	0xbc81fe23	-0.015868252
37	0x3d1faa13	0.038980555
38	0xbdf83c65	-0.12120894
39	0xbcf695f4	-0.0301008
40	0xbcc20a09	-0.023686426
41	0x3d535b4b	0.051600736
42	0xbd84be6e	-0.06481634
43	0x3cc8c1e9	0.024506526
44	0xbd7b6233	-0.061372947
45	0x3be28493	0.0069127767
46	0x3c9690cc	0.018379591
47	0x3d7189c3	0.05896927
48	0xbd89e4be	-0.06733082
49	0x3d726d34	0.059186175
50	0x3cc696bf	0.024241803
51	0xbaba68d9	-0.0014221921
52	0xbd40c0fc	-0.047059044
53	0xbcae41e2	-0.02127165
54	0x3d8fa847	0.07014518
55	0x3c517a17	0.012785456
56	0xbb091259	-0.0020915477
57	0x3cc6ffd3	0.024291908
58	0xbd862ac3	-0.06551125
59	0x3c89f87c	0.01684212
60	0xbd234bcc	-0.039867207
61	0x3cea9d59	0.028639482
62	0xbd5a5fb1	-0.053313915
63	0xbd375147	-0.044755246
64	0xbcc09e3e	-0.023512956
65	0x3d29d64b	0.04146413
66	0xbd075a28	-0.033044964
67	0x3d83c466	0.064339444
68	0xbc167f31	-0.009185598
69	0xbd1efde3	-0.038816344
70	0xbcdf0978	-0.027226195
71	0x3bb86b1a	0.005628002
72	0xbc3623af	-0.011116906
73	0xbbcffe16	-0.006347428
74	0x3d480e86	0.048841976
75	0xbd6c454c	-0.057683274
76	0x3d84c8b1	0.06483591
77	0x3da6882c	0.081314415
78	0xbd263956	-0.040582024
79	0x3d0dfd2f	0.034665283
80	0xbd6be1f6	-0.05758854
81	0xbcaae8e0	-0.020862997
82	0xbbc5f686	-0.006041351
83	0xbbd654df	-0.006540879
84	0xbd2fecc6	-0.042950414
85	0x3d63f08c	0.055649325
86	0xbc33f694	-0.010984082
87	0x3d6c9697	0.0577608
88	0x3d3b6f1e	0.045760266
89	0xbd7a84c7	-0.061161783
90	0x3d065905	0.03279974
91	0x3c990da2	0.018683258
92	0x3cdf92a3	0.027291602
93	0xbd2d471b	-0.04230414
94	0x3d15d011	0.03657538
95	0xbd5a5c9d	-0.05331098
96	0xbcc0e2f8	-0.023545727
97	0x3cb6cf8a	0.02231576
98	0x3d8b81b1	0.06811846
99	0x3d2049eb	0.039132994
100	0xbd6d3d28	-0.05791965
101	0x3bfa748a	0.007643287
102	0x3d86d206	0.065830275
103	0x3d091e54	0.03347619
104	0xba6f8078	-0.000913627
105	0x3d117b69	0.035518084
106	0x3d9d2f0a	0.076749876
107	0x3bdf853b	0.006821302
108	0x3d6a1840	0.057152033
109	0x3aafc836	0.0013411108
110	0x3d7c2a60	0.06156385
111	0x3d74a1f0	0.059724748
112	0x3daf9f57	0.085753135
113	0x3cd30d7a	0.025763262
114	0x3d1a3845	0.03765132
115	0x3d16522a	0.03669945
116	0x3ca315d8	0.019907877
117	0xbc616c21	-0.01375869
118	0x3da320f5	0.079652704
119	0x3c9fbef3	0.019500231
120	0xbc5c0418	-0.01342871
121	0xbd77861f	-0.060430642
122	0x3d75fb59	0.060054157
123	0x3d45035a	0.0480989
124	0xbb763d35	-0.0037573103
125	0x3da13549	0.078714915
126	0x3d5ec68c	0.054388568
127	0x3db521a3	0.08844306
128	0x3cfd86ee	0.030948129
129	0x3c99169c	0.018687539
130	0xbce7e9b5	-0.028309682
131	0xbc110576	-0.0088514
132	0xbc547214	-0.0129666515
133	0x3d6ee960	0.058328032
134	0xbd9846d4	-0.074353844
135	0xbd0e3be4	-0.034725085
136	0x3c938848	0.01800932
137	0x3d549e7c	0.051908955
138	0xbd576248	-0.052583963
139	0x3d9985ad	0.074962
140	0x3c612ba0	0.013743311
141	0xbd82532b	-0.06363519
142	0xbd412d5d	-0.047162402
143	0xbc1683a6	-0.009186661
144	0xbd0cec2d	-0.034404922
145	0x3d2ff88d	0.042961646
146	0x3bb6c44c	0.0055775996
147	0x3d2c37fd	0.042045582
148	0xbd7c8d63	-0.061658274
149	0xbc7452fb	-0.014912362
150	0xbd627efd	-0.055296887
151	0x3cbc16f5	0.022960166
152	0x3d6a4758	0.057196945
153	0x3c6b8d00	0.014376879
154	0xbc9b0832	-0.018924806
155	0xbacf69be	-0.001582436
156	0x3d0ada44	0.03389956
157	0xbd0502c6	-0.032473348
158	0xbd36f979	-0.04467151
159	0xbc342997	-0.010996244
160	0x3c3aac94	0.011393685
161	0xbd607376	-0.054797612
162	0x3ccd2814	0.025043525
163	0x3d1c1436	0.038105212
164	0xbdf5b164	-0.11996725
165	0x3d980d4b	0.074244104
166	0x3d3bc808	0.04584506
167	0xba38076a	-0.0007020148
168	0x3d0d6dd1	0.034528557
169	0xbc0b73d8	-0.008511506
170	0xbdb50a47	-0.08839851
171	0xb9caa5c6	-0.00038651953
172	0x3ccd4fa8	0.025062397
173	0x3d977d9d	0.07397006
174	0x3d4ba92f	0.049721893
175	0xbbe06a28	-0.0068485923
176	0xbd4f944e	-0.050678544
177	0x3d648104	0.0557871
178	0xbd9f0321	-0.07764269
179	0xbd9d8839	-0.07691998
180	0x3ca9e095	0.020736972
181	0x3d8c5bc6	0.06853442
182	0x3c8a2ac8	0.016866103
183	0xbd0db281	-0.034594063
184	0xbd64f3b6	-0.055896483
185	0x3d1e73c9	0.03868464
186	0xbc9b0b00	-0.018926144
187	0xbd1667bc	-0.036720023
188	0x3d2e29ba	0.042520262
189	0x3bcb1670	0.006197743
190	0xbbbfce24	-0.0058534313
191	0xbd3883dc	-0.045047626
192	0xbd1030a4	-0.035202637
193	0x3c08a75a	0.008340681
194	0xbd8bf6f2	-0.068342105
195	0x3c8b99a7	0.01704104
196	0x3c58426e	0.013199432
197	0xbd952dac	-0.07284102
198	0x3d73e779	0.05954692
199	0x3d6dc754	0.058051422
200	0x3c83b9b5	0.016079763
201	0x3b973237	0.0046141404
202	0xbc922792	-0.017841134
203	0xbbb8689c	-0.005627705
204	0xbd952c4f	-0.07283842
205	0x3c2b075a	0.0104387645
206	0x3d7bebf2	0.06150431
207	0x3d6cf9a9	0.057855282
208	0xbbfb81c7	-0.007675383
209	0xbd427621	-0.047475938
210	0xbdab67c8	-0.08369404
211	0xbbcb8460	-0.0062108487
212	0xbd43a0fe	-0.047760956
213	0x3d74cede	0.059767596
214	0x3c3b1c7d	0.011420366
215	0x3d6bd661	0.057577495
216	0x3cd085b7	0.025454385
217	0xbcdb203c	-0.026748769
218	0x3cdb56c7	0.026774777
219	0x3d909e0a	0.070613936
220	0x3d3addbc	0.04562162
221	0x3d09ef28	0.033675343
222	0xbd2680f8	-0.040650338
223	0x3d59fcb6	0.05321952
224	0x3c0aadd3	0.0084642945
225	0xbd09f6ec	-0.03368275
226	0xbbce101f	-0.006288543
227	0xbd3fedc5	-0.046857614
228	0xbc38e342	-0.011284651
229	0x3d858777	0.065199785
230	0xbd5c8093	-0.053833555
231	0x3d646415	0.05575951
232	0xbd1f00aa	-0.038818993
233	0xbd1e94b4	-0.038716033
234	0xbcb1d6d1	-0.021708878
235	0x3cb93e22	0.022612635
236	0xbd4fa284	-0.050692096
237	0xbd7799af	-0.0604493
238	0xbd813a19	-0.063099094
239	0x3c5d3281	0.013500811
240	0x3d08758b	0.033315223
241	0x3d625daf	0.055265125
242	0x3d8f04b9	0.06983323
243	0x3cdcae9d	0.02693873
244	0x3cf1c31f	0.029511986
245	0x3d6d23d3	0.057895493
246	0xbd581641	-0.052755598
247	0x3d7d5b6c	0.061854765
248	0x3ca253eb	0.019815406
249	0xbdb271b7	-0.08713096
250	0x3c9a00ca	0.018799204
251	0xbd483bdb	-0.048885208
252	0x3c875491	0.016519817
253	0xbb42bd9a	-0.0029715062
254	0x3d83c6e0	0.06434417
255	0xba83b92b	-0.0010049691

ms.layers.4.bias f4 [2]
0	0x3d25d1d4	0.04048331
1	0x3b54e992	0.0032487852

exp_avg f4 [164, 3]
0	0xc3b23dea	-356.4837
1	0xc3961096	-300.12958
2	0x4079eb3e	3.904983
3	0xc3fe9ca6	-509.22382
4	0xc4e1b092	-1805.5178
5	0x412b37b8	10.701103
6	0xc218faeb	-38.245037
7	0xc2cdafec	-102.8436
8	0x3f04adf2	0.5182792
9	0xc3150976	-149.03696
10	0xc34122b6	-193.13559
11	0x40d83860	6.7568817
12	0xc0f2a951	-7.5831685
13	0xc1e60ef8	-28.757309
14	0x408d87fd	4.42285
15	0xc4207f2e	-641.9872
16	0xc4661e4e	-920.4735
17	0x3e36befe	0.17846295
18	0xc2781599	-62.02109
19	0x43803292	256.39508
20	0x3cdd9032	0.027046297
21	0xc3306dc6	-176.4288
22	0x421e2fc5	39.54665
23	0xbe4675ce	-0.19380876
24	0xc439aa26	-742.65857
25	0xc416f0b7	-603.76117
26	0xc09ddd2c	-4.9332485
27	0xc36c97b1	-236.59254
28	0xc3e303a0	-454.02832
29	0x413ac69b	11.673488
30	0x42c73ca4	99.61844
31	0xc4817e9c	-1035.9565
32	0x40d0a81a	6.52052
33	0xc25de688	-55.47513
34	0xc4b87937	-1475.788
35	0x40f2a4a8	7.5825996
36	0x40da9d68	6.8317146
37	0xc24b5dc5	-50.84157
38	0x402916dd	2.6420205
39	0xc42633db	-664.81024
40	0xc3bdeda2	-379.8565
41	0x410a71cb	8.6527815
42	0xc1e0845c	-28.064629
43	0x43cab89f	405.44235
44	0x41101f73	9.007678
45	0x42a0823c	80.254364
46	0xc31b2fa7	-155.18614
47	0xc01aea6c	-2.420558
48	0xc39cbbcb	-313.46713
49	0x420ddafe	35.46386
50	0xc09deff8	-4.935543
51	0xc19b6ef0	-19.429169
52	0x43c329c0	390.32617
53	0xc08f643d	-4.480986
54	0xc38066ff	-256.80466
55	0xc3fd5b35	-506.71255
56	0x4188bb88	17.091568
57	0xc3d572e4	-426.89758
58	0xc20bff74	-34.999466
59	0x3ec0bbad	0.37643185
60	0xc4183ad2	-608.91907
61	0xc3f28692	-485.05133
62	0x406b6583	3.6780708
63	0xc34b6be2	-203.42142
64	0xc376abc8	-246.67102
65	0x404b6bba	3.17845
66	0xc3ba3730	-372.43115
67	0xc4be7090	-1523.5176
68	0x412c4ebb	10.769221
69	0xc3467f21	-198.4966
70	0xc387dff8	-271.74976
71	0x40e08595	7.0163064
72	0xc3612de9	-225.17934
73	0x421ee13c	39.719955
74	0x4106c73b	8.42364
75	0xc3cfa363	-415.27646
76	0xc4802b7c	-1025.3589
77	0x418e740e	17.806667
78	0xc468b76c	-930.86597
79	0xc426278a	-664.6178
80	0x4195bbc1	18.716677
81	0xc2d49b10	-106.30286
82	0xc37823d7	-248.14
83	0x408ca34f	4.394935
84	0xc41bf1f6	-623.78064
85	0xc484dee2	-1062.9651
86	0x4147bd3f	12.483703
87	0xc16d0be2	-14.815401
88	0x41985ee2	19.04633
89	0x40401236	3.0011115
90	0xc3c8a534	-401.29065
91	0xc48cc76f	-1126.2323
92	0x415db960	13.857758
93	0xc3d9dc25	-435.71988
94	0xc4b46388	-1443.1104
95	0x416f9979	14.974969
96	0xc165ccd6	-14.362509
97	0x42e62b72	115.084854
98	0x403c676c	2.9438124
99	0xc2983bd4	-76.11685
100	0x4259aeee	54.42083
101	0x3ec9aab5	0.39388052
102	0xc355309a	-213.18985
103	0xc13e4dc8	-11.89399
104	0xc10c437e	-8.766478
105	0xc1dace1a	-27.350636
106	0xc31155b3	-145.33476
107	0x3efaceb8	0.4898584
108	0xc3432c04	-195.17194
109	0xc15b34b0	-13.700363
110	0x3fafab6e	1.3724191
111	0xbfaa7b46	-1.331887
112	0xc115bcf6	-9.358633
113	0xc017b192	-2.370213
114	0xc22dbdf3	-43.435497
115	0xc1ed2714	-29.644081
116	0x3f9f648e	1.2452562
117	0x42e4ce73	114.40322
118	0x440c0cbe	560.1991
119	0xc11a8444	-9.657291
120	0xc3128af1	-146.54274
121	0x42a47fb7	82.24944
122	0x416d325d	14.824796
123	0x40b26403	5.5747085
124	0xc29f8171	-79.752815
125	0x40aae3b9	5.340298
126	0xc35ee00f	-222.87523
127	0x429c7fd8	78.249695
128	0xc11a11f6	-9.629385
129	0x42122a08	36.541046
130	0xc371c08e	-241.75217
131	0x40b28ce5	5.579699
132	0xc4864785	-1074.235
133	0xc570b42f	-3851.2615
134	0x422ad457	42.707363
135	0x419cb13c	19.58654
136	0xc3ef58e8	-478.69458
137	0x4031f4fc	2.7805777
138	0xc36b6cb5	-235.42464
139	0xc39406f2	-296.05426
140	0x4188cfd8	17.101486
141	0xc3078c1e	-135.54733
142	0xc21fcb58	-39.948578
143	0x40032b1e	2.0495067
144	0xc3c0fe8c	-385.98865
145	0x42606b62	56.104866
146	0xbf9a8072	-1.2070448
147	0xc3ae7b5b	-348.9637
148	0xc41ba2e8	-622.5454
149	0x41ef59dc	29.918877
150	0xc32b0371	-171.01344
151	0xc2ed2641	-118.574715
152	0x418e9082	17.82056
153	0xc34f2adc	-207.16742
154	0xc39c1d54	-312.22913
155	0x418d438f	17.657988
156	0xc3db4936	-438.57196
157	0xc321adbb	-161.67863
158	0xc032be60	-2.7928696
159	0x42602bbc	56.04271
160	0x443d3b33	756.925
161	0xc16d30c2	-14.824404
162	0xc3c0e375	-385.777
163	0xc485f1d6	-1071.5574
164	0x4149dbe3	12.616183
165	0xc0fe0b6e	-7.938895
166	0xc1d5e9c5	-26.739145
167	0xc10fe5a7	-8.993567
168	0xc210cc2d	-36.19939
169	0x42bc020c	94.004
170	0x409cf79e	4.9052267
171	0x421975f7	38.3652
172	0xc1cde135	-25.734964
173	0xbfe57827	-1.7927293
174	0x40812056	4.0351973
175	0x421d64b3	39.34834
176	0xc0a008e0	-5.0010834
177	0x41b6c220	22.844788
178	0xc2ebbdb6	-117.87053
179	0x404ed82c	3.231944
180	0xc3b45478	-360.6599
181	0xc3bff199	-383.88748
182	0x4061da0e	3.528934
183	0x420880b0	34.12567
184	0xc4a8105c	-1344.5112
185	0x4101a0fc	8.101803
186	0xc32e4826	-174.28183
187	0x424c0b94	51.011307
188	0xbfd3770a	-1.6520703
189	0xc314c129	-148.75453
190	0xc3a6162a	-332.17316
191	0x4075c78b	3.8403041
192	0x416c382e	14.763716
193	0xc25f2be1	-55.79285
194	0x4047e901	3.1235964
195	0xc3b87058	-368.8777
196	0xc4922553	-1169.1664
197	0x41db1040	27.382935
198	0xc214e586	-37.224144
199	0xc2d3ccbf	-105.899895
200	0x4107b4a5	8.481603
201	0xc419c965	-615.1468
202	0x422b6eb8	42.858124
203	0xbee343a7	-0.44387552
204	0xc418dbd2	-611.4347
205	0xc421fd5c	-647.95874
206	0xbe76e431	-0.24110486
207	0xc304fad3	-132.97978
208	0xc33af24c	-186.94647
209	0x403a8c4e	2.9148135
210	0xc32c235b	-172.1381
211	0xc3a5e125	-331.75894
212	0x415acaa8	13.674477
213	0xc1010277	-8.063102
214	0xc27118f0	-60.274353
215	0x40f2a830	7.5830307
216	0xc1243e61	-10.265229
217	0x425eeff3	55.734325
218	0xc03ce065	-2.951196
219	0xc249318f	-50.298397
220	0xc181d59c	-16.229301
221	0x40e99a2b	7.3000693
222	0xc3fe9849	-509.18973
223	0x42c3b293	97.84878
224	0x408ac7b8	4.3368797
225	0xc3aa31db	-340.3895
226	0x424e010a	51.501015
227	0xc06dc650	-3.715229
228	0xc374ba9c	-244.72894
229	0xc45c43e5	-881.06085
230	0x40ef0658	7.4695244
231	0x4209f4a7	34.48892
232	0x4383c2dc	263.52234
233	0x4082cc94	4.087473
234	0xc15845c4	-13.517033
235	0xc21412d4	-37.018387
236	0x3fc008b6	1.5002658
237	0xc47bc646	-1007.098
238	0xc5155bd8	-2389.7402
239	0x41ae8c0e	21.818386
240	0xc400e06b	-515.50653
241	0xc4da789a	-1747.7688
242	0x42004cd4	32.075027
243	0xc1270a6a	-10.4400425
244	0xc16e840a	-14.907236
245	0x3ff4d99e	1.9128911
246	0xc3834bdd	-262.59268
247	0xc10a2930	-8.635056
248	0x405942f3	3.3947113
249	0xc2060444	-33.504166
250	0xc420b169	-642.77203
251	0x403cf133	2.9522216
252	0xc3036f27	-131.43419
253	0x41637300	14.215576
254	0x40b32038	5.597683
255	0xc1a0eb52	-20.114902

exp_avg_sq f4 [164, 3]
0	0x56aadc7e	9.393199e+13
1	0x5539a457	1.2757218e+13
2	0x505db3fe	1.4878243e+10
3	0x52817987	2.7804484e+11
4	0x542d2b52	2.9750245e+12
5	0x5209f7ac	1.4814144e+11
6	0x58391ccd	8.141334e+14
7	0x59d33666	7.431379e+15
8	0x5793ec98	3.2528874e+14
9	0x58399c6d	8.16326e+14
10	0x59d3bce5	7.449864e+15
11	0x57945b75	3.2624105e+14
12	0x5a9061aa	2.031989e+16
13	0x5986aa30	4.738096e+15
14	0x56a48ae3	9.045821e+13
15	0x59a5beb0	5.8316293e+15
16	0x582faaad	7.725903e+14
17	0x51459983	5.3042754e+10
18	0x54e18429	7.7486794e+12
19	0x537a4db6	1.0750456e+12
20	0x4ea1a30e	1.3559089e+09
21	0x5ac6dbf4	2.7986943e+16
22	0x599062ac	5.080111e+15
23	0x565e017b	6.1024485e+13
24	0x5a306b28	1.2414354e+16
25	0x58bab46a	1.6422723e+15
26	0x4d11e02b	1.5296171e+08
27	0x588c876c	1.2361061e+15
28	0x5a20f03b	1.1325033e+16
29	0x57dfed66	4.9242142e+14
30	0x5180352a	6.883097e+10
31	0x53678bf1	9.944853e+11
32	0x509895ed	2.0479699e+10
33	0x5229d068	1.8233649e+11
34	0x53c98f8c	1.7313935e+12
35	0x51a3c42c	8.792136e+10
36	0x5827a050	7.372279e+14
37	0x59bf1f30	6.7245014e+15
38	0x578608b5	2.947439e+14
39	0x59152a03	2.6241227e+15
40	0x579e0a21	3.4753268e+14
41	0x5003d9a6	8.848316e+09
42	0x51674d2c	6.208951e+10
43	0x524c6072	2.1944785e+11
44	0x4ebf8229	1.6064892e+09
45	0x5838b617	8.1236884e+14
46	0x59d30f34	7.425992e+15
47	0x57937266	3.242391e+14
48	0x5a43d62c	1.3780776e+16
49	0x594c67c8	3.5959377e+15
50	0x568e8ce3	7.836788e+13
51	0x58129dc5	6.4482525e+14
52	0x569b9146	8.552412e+13
53	0x4ec86788	1.6811141e+09
54	0x51894c9f	7.3712e+10
55	0x531a9f00	6.6409254e+11
56	0x4d917583	3.050497e+08
57	0x5816861c	6.6201096e+14
58	0x5900f2e3	2.2684909e+15
59	0x56acdedf	9.503661e+13
60	0x5a095e88	9.666503e+15
61	0x589170c8	1.2793086e+15
62	0x50d95aeb	2.9172914e+10
63	0x523a7fea	2.0025249e+11
64	0x53a3f932	1.408521e+12
65	0x50ccb299	2.7474053e+10
66	0x52b770b3	3.939349e+11
67	0x5408f31a	2.3527765e+12
68	0x51e9f741	1.2560945e+11
69	0x58796937	1.09692116e+15
70	0x5a0eb344	1.0041638e+16
71	0x57c6e309	4.3735682e+14
72	0x595118bd	3.678467e+15
73	0x58b6d339	1.6081465e+15
74	0x56334db4	4.928658e+13
75	0x523c4bbf	2.0218117e+11
76	0x532b08bb	7.345859e+11
77	0x4ce08551	1.17713544e+08
78	0x5a614afc	1.5853579e+16
79	0x58ee7892	2.0976129e+15
80	0x501c5680	1.0491658e+10
81	0x583dcf4f	8.347923e+14
82	0x59d931b6	7.641841e+15
83	0x57975ca9	3.3284846e+14
84	0x590de46f	2.496196e+15
85	0x57968067	3.3095646e+14
86	0x50b1194a	2.3769797e+10
87	0x5aac9920	2.429103e+16
88	0x594f08e4	3.6421935e+15
89	0x558b1477	1.9115002e+13
90	0x5288b2b0	2.935567e+11
91	0x542b8654	2.9467722e+12
92	0x519da031	8.462468e+10
93	0x5298c22c	3.2804635e+11
94	0x540aac94	2.3824035e+12
95	0x51ab5e42	9.20026e+10
96	0x586c6b56	1.039783e+15
97	0x56fa765c	1.3769313e+14
98	0x5020a940	1.0781786e+10
99	0x58716bf4	1.0617838e+15
100	0x5793047e	3.23295e+14
101	0x54ecfeb8	8.143086e+12
102	0x5a92e93e	2.06759e+16
103	0x59ccb2a9	7.202167e+15
104	0x5731d159	1.955127e+14
105	0x58074c77	5.9504994e+14
106	0x599a568d	5.430289e+15
107	0x575846e5	2.37799e+14
108	0x5973ac85	4.2867567e+15
109	0x59191acb	2.6934457e+15
110	0x56a9cecf	9.335285e+13
111	0x58533295	9.288568e+14
112	0x59f112bf	8.48201e+15
113	0x57a8bd43	3.7106165e+14
114	0x5b0c8270	3.9549914e+16
115	0x59fa8d7d	8.815539e+15
116	0x57100038	1.5833061e+14
117	0x58945f4b	1.305096e+15
118	0x571d2285	1.7277159e+14
119	0x4f37b748	3.082242e+09
120	0x51a9ae3f	9.1096605e+10
121	0x52f251ee	5.2037832e+11
122	0x50535ad1	1.4183777e+10
123	0x5906d795	2.3721676e+15
124	0x59198bc8	2.7012102e+15
125	0x56bf51bf	1.0517891e+14
126	0x57c7cf1e	4.3938475e+14
127	0x59035fc7	2.3111581e+15
128	0x56b289b6	9.815227e+13
129	0x58b2de2a	1.573338e+15
130	0x5a4c7804	1.4388213e+16
131	0x580ebc0b	6.2775316e+14
132	0x50bda9a9	2.5456101e+10
133	0x54181d71	2.613316e+12
134	0x4db38a2e	3.7652218e+08
135	0x50b91527	2.484137e+10
136	0x529e2e4e	3.3969085e+11
137	0x50891dbf	1.8403424e+10
138	0x51d96a84	1.1672437e+11
139	0x52caeec9	4.3579477e+11
140	0x4cb2b90f	9.3702264e+07
141	0x521f308e	1.709286e+11
142	0x536caa10	1.01646546e+12
143	0x50c98222	2.704599e+10
144	0x58035403	5.775874e+14
145	0x5903d74e	2.319372e+15
146	0x56b28bf4	9.815708e+13
147	0x523e62f7	2.0442604e+11
148	0x5343ec01	8.414781e+11
149	0x50937c16	1.9795063e+10
150	0x51fe2a72	1.3645423e+11
151	0x53787685	1.0671403e+12
152	0x50d60816	2.8726833e+10
153	0x526ef636	2.5658324e+11
154	0x53c9513f	1.729303e+12
155	0x5184384d	7.098503e+10
156	0x591af7de	2.72623e+15
157	0x57a48297	3.6176157e+14
158	0x505c1087	1.4768283e+10
159	0x5a1d5e60	1.1073834e+16
160	0x58be6cb4	1.6749927e+15
161	0x55084d2d	9.366566e+12
162	0x5287d9ef	2.9173845e+11
163	0x53e28655	1.9458327e+12
164	0x5161316a	6.044979e+10
165	0x5a8baeee	1.965868e+16
166	0x59a57703	5.821778e+15
167	0x57015148	1.421861e+14
168	0x59a8bf98	5.937307e+15
169	0x585d4968	9.732294e+14
170	0x54f3bdf0	8.3749094e+12
171	0x59fbce9d	8.859674e+15
172	0x595823bc	3.8023678e+15
173	0x56d3e570	1.1649119e+14
174	0x5a762a2a	1.7322301e+16
175	0x5950da90	3.6741942e+15
176	0x565f688e	6.141004e+13
177	0x5b137f3d	4.151672e+16
178	0x59fce663	8.898126e+15
179	0x57087028	1.5001529e+14
180	0x5987f4c5	4.783531e+15
181	0x581001dc	6.3335064e+14
182	0x511d7bcc	4.2274177e+10
183	0x51eda291	1.2757933e+11
184	0x5397b29a	1.303073e+12
185	0x51339317	4.820418e+10
186	0x5a7ab933	1.7643093e+16
187	0x5948bbb4	3.531336e+15
188	0x5641a15e	5.3224703e+13
189	0x5186668f	7.215578e+10
190	0x532f140f	7.519558e+11
191	0x50c6c5a9	2.667874e+10
192	0x59cc088a	7.1787855e+15
193	0x59380c97	3.2378274e+15
194	0x56b7ed77	1.0111527e+14
195	0x5253f035	2.2756703e+11
196	0x538529a0	1.143858e+12
197	0x512ce271	4.640834e+10
198	0x5852c473	9.2696474e+14
199	0x59f068da	8.45866e+15
200	0x57a873b5	3.7042982e+14
201	0x598a6e81	4.870631e+15
202	0x59abd458	6.045712e+15
203	0x5756c5a5	2.3614437e+14
204	0x598df3ab	4.994486e+15
205	0x58166c19	6.615641e+14
206	0x504d7d64	1.3790188e+10
207	0x58425978	8.547581e+14
208	0x59ddffed	7.8109204e+15
209	0x579b2fc8	3.4125904e+14
210	0x51adf552	9.339314e+10
211	0x52a4e3fa	3.5409972e+11
212	0x5013c090	9.915482e+09
213	0x5a72690c	1.7058111e+16
214	0x59a3aa73	5.758479e+15
215	0x570d9e0e	1.5570998e+14
216	0x595cab68	3.88206e+15
217	0x57f1cb6b	5.3171195e+14
218	0x51e2bff8	1.2173541e+11
219	0x5801aaf5	5.70285e+14
220	0x5993c652	5.1993596e+15
221	0x574f6564	2.2803438e+14
222	0x57188a43	1.677196e+14
223	0x560ff458	3.9569903e+13
224	0x4c9a5dfc	8.093283e+07
225	0x5a32436c	1.2544169e+16
226	0x597c76a3	4.4413835e+15
227	0x56df313b	1.2270127e+14
228	0x5217fc4a	1.631932e+11
229	0x532a9866	7.3270126e+11
230	0x4aa7e035	5.5009545e+06
231	0x527f98cf	2.7444509e+11
232	0x5399d3cd	1.3213668e+12
233	0x515643b7	5.751619e+10
234	0x5a8c8018	1.9773669e+16
235	0x5987ef6c	4.782796e+15
236	0x56ad5aa9	9.530245e+13
237	0x53427aa3	8.3528116e+11
238	0x54c1c2f0	6.6575936e+12
239	0x52789669	2.6691884e+11
240	0x52a6db74	3.583232e+11
241	0x5429e8a2	2.9190096e+12
242	0x51f5114f	1.3156967e+11
243	0x5ac30033	2.744392e+16
244	0x598b60d4	4.9039357e+15
245	0x564d9368	5.6508247e+13
246	0x5a34247c	1.2676403e+16
247	0x59850aac	4.680988e+15
248	0x56ef66ec	1.3161266e+14
249	0x521c5496	1.678585e+11
250	0x53939414	1.267689e+12
251	0x5151624f	5.6206094e+10
252	0x564e8953	5.67723e+13
253	0x571870e1	1.6761058e+14
254	0x54cf1ca7	7.1163115e+12
255	0x519db081	8.465889e+10

exp_avg f4 [164]
0	0xbfc70a00	-1.5549927
1	0xc30fa742	-143.65335
2	0x3f93d11f	1.1548194
3	0xc11ff971	-9.998399
4	0x40a59820	5.17482
5	0xc2195e54	-38.342117
6	0x4200ecea	32.23136
7	0x418b285f	17.394712
8	0xc062d780	-3.544403
9	0xc0842460	-4.1294403
10	0xc2dcb81c	-110.35959
11	0xc30ca816	-140.65659
12	0x404efee4	3.2343073
13	0x4175cb4c	15.362133
14	0x416671ef	14.402816
15	0x41466df8	12.401848
16	0x4224d6e3	41.20985
17	0x4247c5f8	49.94333
18	0xc250e894	-52.227127
19	0x4278cf39	62.202366
20	0xc04c5800	-3.192871
21	0xc223a4b7	-40.910854
22	0xc3044137	-132.25475
23	0xc121ff4b	-10.124827
24	0x41ec259d	29.518366
25	0xc2dc0432	-110.008194
26	0xc0f03690	-7.5066605
27	0x4018c8cf	2.3872564
28	0xc2470f09	-49.764683
29	0x3d311bc0	0.043239355
30	0xc2d45821	-106.17213
31	0xc300f282	-128.9473
32	0x41408394	12.032124
33	0x413163be	11.086851
34	0x41ff16a3	31.886053
35	0x41068ac1	8.408875
36	0x41de843f	27.814573
37	0xbfc8b669	-1.5680667
38	0x40547344	3.3195353
39	0x421bac30	38.91815
40	0xc0b14315	-5.5394387
41	0x4030bf3f	2.7616727
42	0x41c96972	25.176487
43	0x41960f04	18.757332
44	0xc3a1f003	-323.8751
45	0xc2373f18	-45.811615
46	0xc19fbdcc	-19.967674
47	0x3fca4478	1.5802145
48	0x425f8d59	55.888035
49	0xc2812314	-64.56851
50	0xc186f246	-16.868298
51	0xc1f16f97	-30.179487
52	0x4150ee04	13.058109
53	0x4277bc07	61.93362
54	0xc2c69177	-99.28411
55	0x3fec24ee	1.844877
56	0xc0ab043d	-5.3442674
57	0xbe899a5e	-0.26875585
58	0xc0b0543f	-5.510284
59	0x40cae0d1	6.3399434
60	0xc1364070	-11.390732
61	0xc308acc2	-136.67484
62	0x41b4b272	22.587132
63	0xc201b777	-32.429165
64	0x40b545d0	5.664772
65	0xc2c05fa2	-96.18678
66	0x405977ec	3.3979445
67	0x42af24b7	87.57171
68	0xc1e34f48	-28.413712
69	0xc1285a6f	-10.5220785
70	0xc1fa9a7d	-31.325434
71	0x3fefcd70	1.873457
72	0xc0009198	-2.0088863
73	0xc01a43bc	-2.4103842
74	0x427f2721	63.78821
75	0x42459b1c	49.401474
76	0xc293b3ba	-73.85103
77	0xc1756c03	-15.33887
78	0x408563fa	4.168454
79	0xc328261b	-168.14885
80	0xc31e67e8	-158.40588
81	0x3f8a0c4a	1.0785
82	0x421851f7	38.080044
83	0xc288a216	-68.316574
84	0x4183d832	16.480564
85	0x41985c6a	19.045124
86	0x40b553b3	5.666467
87	0xc0c5c9cb	-6.180883
88	0x40edfe7c	7.437315
89	0xbf54e252	-0.8315784
90	0x428079df	64.23803
91	0xc06ecfc8	-3.731432
92	0xc31a0cda	-154.0502
93	0x412070c0	10.027527
94	0xc1fc264f	-31.518705
95	0xc02c8298	-2.6954708
96	0x3fa6760e	1.3004777
97	0x41401fbb	12.007747
98	0x4098cf68	4.775318
99	0x41afac2b	21.959066
100	0x41c703b3	24.876806
101	0xc1f44088	-30.53151
102	0xc30314f5	-131.08186
103	0x4299664d	76.69981
104	0x41b5b2f7	22.712385
105	0x41e61953	28.762365
106	0xc2baeab5	-93.45841
107	0xc1685e57	-14.523032
108	0xc18ad5cb	-17.354391
109	0xc2eb44e9	-117.63459
110	0xc2a4a8a9	-82.329414
111	0x411376c0	9.216492
112	0x4266c532	57.692574
113	0x40a6d52c	5.213522
114	0x41f4e646	30.612438
115	0xc23ad970	-46.71234
116	0xc2c23d89	-97.120186
117	0xc1889de8	-17.077103
118	0xc1536f8b	-13.214732
119	0x421660d9	37.594578
120	0x408d21ae	4.4103613
121	0x408f2141	4.4728093
122	0x4057b1c7	3.3702257
123	0x4193d59f	18.479307
124	0xc118c464	-9.547947
125	0xc2c09915	-96.29899
126	0xc26ba662	-58.912483
127	0x414754d7	12.458213
128	0xc1806389	-16.048601
129	0xc27c1338	-63.01877
130	0xc163a405	-14.227544
131	0xc038a0d6	-2.8848166
132	0xc34a1f52	-202.12234
133	0xc1c58098	-24.68779
134	0xc357b413	-215.70341
135	0x4119da40	9.615784
136	0x41fd9461	31.69745
137	0xc302be0e	-130.7424
138	0x40f06feb	7.513662
139	0x404a0715	3.1566823
140	0xc287b7fd	-67.85935
141	0xc0126e5d	-2.287986
142	0x43052c47	133.17296
143	0x42218458	40.379242
144	0xc23e686b	-47.60197
145	0xc2b77d0b	-91.744225
146	0xc1010405	-8.063481
147	0xc0341504	-2.8137827
148	0xc2294f90	-42.327698
149	0xc257ece1	-53.981327
150	0xc19b64ae	-19.42416
151	0xc0cb3708	-6.3504677
152	0x4009c45c	2.1526098
153	0xc227506a	-41.82853
154	0xc28afccb	-69.49374
155	0x421821b0	38.032898
156	0xc314167d	-148.08784
157	0xc30e6272	-142.38455
158	0xc2a6b372	-83.35048
159	0xc22fd5ee	-43.958916
160	0x41867108	16.805191
161	0x4207f67c	33.990707
162	0x41dbadc9	27.459856
163	0x3f841caa	1.0321248
