docs/smld/lightning_logs/version_94/checkpoints/epoch=49-step=4900.ckpt (torch, 346059 bytes, 18 tensors)

ms.layers.0.weight f4 [164, 3]
-0.048285794 -0.1378544 0.17473023 -0.5050556 -0.035743453 0.29061756 0.16712172 0.048640687
0.13927199 -0.44382185 -0.3263093 0.48663646 -0.072280176 -0.49759802 -0.6266752 0.21171968
-0.25791866 -0.73415154 -0.02265587 0.18850121 0.14063503 -0.016071724 0.40545318 0.32204485
-0.3285074 0.2956363 0.40160227 -0.10366815 0.0973757 -0.4384103 -0.25996512 0.05963993
-0.57929707 -0.10653378 0.116728105 0.33143476 -0.042419992 0.43332317 -0.4667041 -0.44623485
0.26156425 -0.047281686 -0.40387365 0.49893236 -0.37926757 0.081510864 -0.3147095 0.26170754
-0.33122543 0.50607497 0.17050211 -0.15674981 0.27765462 -0.3107932 0.09473532 0.2705569
-0.49588156 -0.5255794 0.45113564 -0.17027219 -0.06092719 0.24431485 -0.5115044 0.460936
0.1019978 -0.78314507 -0.45429468 -0.3874062 0.08990128 0.15398097 -0.4023463 0.43717363
-0.44035205 -0.0010465475 -0.4334814 0.37602362 0.13180144 0.065917745 0.37944198 -0.42262563
-0.68358994 0.053084437 0.50759125 -0.057408076 0.121677585 0.24788861 0.06207587 0.15017956
0.24833246 -0.493567 0.4255293 -0.13162391 0.5647467 0.3482618 -0.10590718 0.21478042
0.3166158 -0.04294918 -0.5287651 0.18660425 0.0012239866 -0.19664577 -0.35402194 -0.31067488
-0.2942187 0.36588097 0.011133113 -0.45791513 -0.26459292 -0.22285828 -0.24308544 -0.06488675
0.47684076 0.26129553 -0.31302026 -0.40588522 -0.47842976 0.33887896 -0.40019903 0.457197
-0.0051856227 0.53600806 -0.5754393 -0.24551965 0.42514634 0.27992177 0.27210394 -0.46454665
-0.20472878 0.30295807 0.17742416 0.0046048504 0.2711755 -0.38770345 0.12145225 -0.23858458
-0.39749908 0.53269094 0.036785483 -0.3731215 0.16543631 0.42703798 -0.055603784 0.2766142
-0.37309507 0.14651258 -0.23560253 0.31443477 0.2226218 -0.14200567 -0.3867709 -0.19636114
-0.32470974 -0.4943047 0.02088906 -0.3042282 -0.2247558 -0.019819431 -0.7566834 0.29921865
0.43631905 0.07762593 0.30837828 -0.4178673 0.37985176 -0.18953484 0.52699256 -0.42634004
0.035851184 0.17431575 0.58594006 0.10952376 -0.17828181 -0.2195416 -0.08153196 0.17483638
0.95881957 -0.2220324 -0.36199102 -0.46480766 0.02302317 0.048765134 0.70266193 -0.31561095
0.4184869 -0.32733813 0.11811077 0.39203373 0.3744468 -0.16112556 -0.25468335 -0.49142668
0.48850888 -0.30265328 0.2289633 -0.40834823 -0.3376299 -0.33122253 0.4309985 0.5350469
0.30016425 0.3082532 0.5181448 -0.47764456 -0.43222168 -0.29770505 -0.21108814 0.26537743
-0.45424348 -0.23514152 -0.081839785 0.43644655 0.52739656 0.31483346 0.44184557 -0.0946098
-0.48022896 -0.3193564 0.42483592 0.37383056 -0.06393044 0.79415166 0.034727592 0.44290644
0.3953295 -0.02619536 0.05584607 0.30293652 0.079861596 0.33611205 -0.17604476 -0.39440298
-0.25396168 0.4901687 0.046685178 -0.012031974 0.67229867 0.43378845 0.22958896 0.019009056
-0.3394798 0.327812 -0.59700614 0.13699989 -0.2654652 -0.49508923 0.26550117 -0.4855709
0.29637057 -0.091045745 0.09903125 0.4478005 0.12289463 0.012722339 -0.57520974 0.081409134
00000000: 53c7 45bd b429 0dbe 7bec 323e 534b 01bf
00000010: ba67 12bd d3cb 943e f521 2b3e 753b 473d
00000020: 519d 0e3e 9e3c e3be 0312 a7be 6a28 f93e
00000030: a107 94bd 2bc5 febe c96d 20bf 0bcd 583e
00000040: ea0d 84be 5bf1 3bbf ce98 b9bc 7606 413e
00000050: a102 103e d9a8 83bc 8f97 cf3e 10e3 a43e
00000060: 1f32 a8be a45d 973e d09e cd3e f84f d4bd
00000070: e96c c73d 5177 e0be 261a 85be 0049 743d
00000080: d04c 14bf 622e dabd 250f ef3d d1b1 a93e
00000090: 96c0 2dbd 89dc dd3e d7f3 eebe e578 e4be
000000a0: c0eb 853e 71aa 41bd 87c8 cebe 1074 ff3e
000000b0: 5c2f c2be 2bef a63d 9b21 a1be 88fe 853e
000000c0: 6196 a9be 218e 013f 1b98 2e3e 0683 20be
000000d0: bf28 8e3e 4920 9fbe 9704 c23d 6f86 8a3e
000000e0: 30e4 fdbe 5f8c 06bf 40fb e63e d55b 2ebe
000000f0: ca8e 79bd ac2d 7a3e f4f1 02bf ceff eb3e
00000100: 39e4 d03d 327c 48bf 5099 e8be 1b5a c6be
00000110: 2a1e b83d 30ad 1d3e 5600 cebe 39d5 df3e
00000120: d375 e1be 4f2c 89ba 46f1 ddbe 2b86 c03e
00000130: f5f6 063e e2ff 863d 3846 c23e 6362 d8be
00000140: c0ff 2ebf 116f 593d 80f1 013f bb24 6bbd
00000150: 1932 f93d 83d6 7d3e 4443 7e3d acc8 193e
00000160: dd4a 7e3e d0b4 fcbe fade d93e 6bc8 06be
00000170: 3d93 103f 5f4f b23e dde5 d8bd 66ef 5b3e
00000180: 771b a23e 7beb 2fbd 265d 07bf 2f15 3f3e
00000190: 2d6e a03a 825d 49be 5d42 b5be c710 9fbe
000001a0: d5a3 96be c054 bb3e a967 363c da73 eabe
000001b0: b978 87be f634 64be 64eb 78be 58e3 84bd
000001c0: 7924 f43e 87c8 853e 3144 a0be 30d0 cfbe
000001d0: bff4 f4be 8b81 ad3e e3e6 ccbe ba15 ea3e
000001e0: 28ec a9bb d337 093f fd4f 13bf 8169 7bbe
000001f0: c8ac d93e e851 8f3e 3551 8b3e 0fd9 edbe
00000200: 6ca4 51be 521d 9b3e aeae 353e 49e4 963b
00000210: 84d7 8a3e 1181 c6be f5bb f83d 844f 74be
00000220: 0085 cbbe 6f5e 083f 60ac 163d c809 bfbe
00000230: 2368 293e b9a4 da3e cbc0 63bd 60a0 8d3e
00000240: 5106 bfbe 6507 163e ca41 71be 98fd a03e
00000250: f8f6 633e ef69 11be d606 c6be e512 49be
00000260: 5b40 a6be 8115 fdbe 891f ab3c ccc3 9bbe
00000270: 6226 66be 5c5c a2bc 01b6 41bf 3033 993e
00000280: 3665 df3e 58fa 9e3d c2e3 9d3e b4f2 d5be
00000290: ee7b c23e 6c15 42be fce8 063f 3e49 dabe
000002a0: b1d8 123d d47f 323e 2b00 163f fe4d e03d
000002b0: 828f 36be 83cf 60be 3afa a6bd 4f08 333e
000002c0: 3375 753f 765c 63be e356 b9be 45fb edbe
000002d0: 169b bc3c f3bd 473d a7e1 333f c297 a1be
000002e0: ea43 d63e dd98 a7be 0fe4 f13d a5b8 c83e
000002f0: 7eb7 bf3e 19fe 24be db65 82be 479c fbbe
00000300: d61d fa3e 5ff5 9abe 5b75 6a3e 0513 d1be
00000310: d4dd acbe 0096 a9be d6ab dc3e d5f8 083f
00000320: 21af 993e 5dd3 9d3e 23a5 043f d48d f4be
00000330: 294c ddbe cc6c 98be 7d27 58be 8ddf 873e
00000340: 9a92 e8be f0c8 70be 9e9b a7bd ec75 df3e
00000350: 7603 073f da31 a13e 9539 e23e c8c2 c1bd
00000360: 92e0 f5be af82 a3be 1884 d93e b866 bf3e
00000370: f6ed 82bd 864d 4b3f 853e 0e3d a2c4 e23e
00000380: a168 ca3e a797 d6bc d9be 643d 7f1a 9b3e
00000390: 7a8e a33d e116 ac3e 1445 34be 30ef c9be
000003a0: 4407 82be 64f7 fa3e f538 3f3d c221 45bc
000003b0: c41b 2c3f 8519 de3e 5e19 6b3e e1b8 9b3c
000003c0: 4cd0 adbe f9d6 a73e 65d5 18bf b349 0c3e
000003d0: 0eeb 87be 567c fdbe c5ef 873e c09c f8be
000003e0: e2bd 973e 3176 babd e5d0 ca3d 1b46 e53e
000003f0: 2eb0 fb3d 5b71 503c f240 13bf d5b9 a63d

ms.layers.0.bias f4 [164]
0.6088222 -0.7838529 -0.337011 -0.12794371 0.7223465 -0.8482677 -0.40133113 -0.6048014
0.18174173 -0.05172685 0.5421455 0.77980524 0.3556329 -0.057910137 -0.52456766 -0.48470917
0.08064343 0.5009983 0.31828114 0.021522457 -0.12342139 0.35837397 -0.6074064 0.12155733
-0.6704932 0.12150979 0.18123576 -0.28966862 -0.5539105 0.052240018 0.22053486 -0.41669163
-0.1309439 -0.7535992 -0.51288813 0.52007407 0.11445366 0.46501175 -0.24085544 0.31300572
-0.73758 0.583566 -0.15999302 0.075015806 0.3477894 -0.4848439 0.091824405 -0.29287887
-0.13523865 0.41688365 -0.076340854 0.0550416 -0.11167504 -0.21187454 -0.6809727 -0.6317297
0.48770538 -0.55546117 0.17710148 0.6250515 -0.12111182 -0.8417232 0.35194477 0.20959839
-0.578138 0.40041724 0.61421865 0.10878351 0.79069316 -0.58306813 0.1375077 0.2635468
0.24741936 -0.24183346 -0.3630061 0.64030176 0.6252403 -0.3912345 -0.4586459 -0.20915009
-0.16816469 -0.028418709 -0.6773652 -0.6849639 0.38507706 0.7050778 -0.3921176 0.8164487
0.39120975 -0.7003482 -0.04520768 -0.49429983 -0.65378964 0.2752446 0.13103835 -0.053012945
-0.18716644 -0.39608198 0.20719837 0.02386369 0.03273953 -0.15472624 0.7819148 0.045488674
-0.3768096 -0.64875776 -0.120385386 -0.6287573 -0.15348676 -0.06270423 -0.13791649 0.12372211
-0.62027454 0.17296438 0.15526588 -0.10281292 -0.64482176 0.053372875 -0.2516858 -0.23533179
-0.5052418 0.009945354 0.3762812 0.10329766 0.19943234 0.54301316 0.41335696 -0.28954953
0.54984504 -0.019487768 -0.6534811 0.41556448 0.25779805 0.40257052 0.17595898 0.24777938
-0.14913213 -0.12448384 0.72717255 -0.0883249 -0.6713141 -0.32070282 -0.20369749 0.47670197
0.6923429 0.08039844 0.5042357 -0.1629797 -0.26083872 0.15997383 0.06076107 -0.758192
-0.84941924 0.9917601 -0.2153871 0.47898862 -0.07810706 0.7025301 -0.46272606 -0.5541811
-0.47912702 -0.287612 -0.39995363 0.11809744
00000000: c6db 1b3f 95aa 48bf b58c acbe ad03 03be
00000010: b3eb 383f 1228 59bf 467b cdbe 44d4 1abf
00000020: 811a 3a3e 89df 53bd 0cca 0a3f 51a1 473f
00000030: 8415 b63e 2e33 6dbd 114a 06bf cd2b f8be
00000040: 6228 a53d 6d41 003f bff5 a23e dd4f b03c
00000050: 5bc4 fcbd cb7c b73e fc7e 1bbf 0df3 f83d
00000060: 71a5 2bbf 20da f83d de95 393e 724f 94be
00000070: 14cd 0dbf a1f9 553d e4d3 613e 9b58 d5be
00000080: 2816 06be e1eb 40bf a34c 03bf 9323 053f
00000090: ae66 ea3d 0516 ee3e cfa2 76be 4942 a03e
000000a0: 0bd2 3cbf 9564 153f 36d5 23be e3a1 993d
000000b0: 7411 b23e 763d f8be 6f0e bc3d 38f4 95be
000000c0: 007c 0abe c671 d53e 9858 9cbd 4d73 613d
000000d0: e2b5 e4bd a4f5 58be 3a54 2ebf 0ab9 21bf
000000e0: 85b4 f93e b432 0ebf 175a 353e 6003 203f
000000f0: 7909 f8bd 2c7b 57bf 1b32 b43e f6a0 563e
00000100: da00 14bf 7d03 cd3e 6f3d 1d3f e4c9 de3d
00000110: de6a 4a3f f443 15bf d2ce 0c3e 9bef 863e
00000120: 805b 7d3e 31a3 77be efdb b9be d1ea 233f
00000130: c00f 203f e34f c8be a3d3 eabe 712b 56be
00000140: 5d33 2cbe 5ace e8bc ce67 2dbf cb59 2fbf
00000150: d228 c53e fb7f 343f a3c3 c8be c802 513f
00000160: a54c c83e 054a 33bf b02b 39bd de14 fdbe
00000170: c25e 27bf dcec 8c3e eb2e 063e 1a24 59bd
00000180: 8fa8 3fbe 42cb cabe cf2b 543e c97d c33c
00000190: e319 063d 8e70 1ebe 912b 483f 5552 3a3d
000001a0: 30ed c0be fd14 26bf 9d8c f6bd 3df6 20bf
000001b0: a22b 1dbe 136b 80bd fb39 0dbe 0562 fd3d
000001c0: 50ca 1ebf 931d 313e 05fe 1e3e 958f d2bd
000001d0: 0a13 25bf 849d 5a3d f6dc 80be d1fa 70be
000001e0: 8757 01bf d7f1 223c eea7 c03e b98d d33d
000001f0: fe37 4c3e e902 0b3f 86a3 d33e d63f 94be
00000200: a5c2 0c3f d0a4 9fbc 8a4a 27bf dec4 d43e
00000210: 1bfe 833e b91d ce3e 972e 343e e1b9 7d3e
00000220: 18b6 18be 62f1 febd fb27 3a3f afe3 b4bd
00000230: 3edb 2bbf 2933 a4be 1396 50be 4812 f43e
00000240: 623d 313f f0a7 a43d 9715 013f 27e4 26be
00000250: a78c 85be 2ed0 233e 9ae0 783d df18 42bf
00000260: 8a73 59bf fde3 7d3f 708e 5cbe ff3d f53e
00000270: 98f6 9fbd 03d9 333f 6eea ecbe d0de 0dbf
00000280: 2350 f5be e141 93be b9c6 ccbe 12dd f13d

ms.layers.2.weight f4 [164, 164]
-0.045204252 -0.047065943 0.0002861724 -0.02632435 -0.06032778 0.0647522 0.057911046 0.016354447
0.031426977 -0.048738994 -0.027167823 -0.0746963 0.037831556 0.020636313 -0.046839375 0.014731287
-0.049751177 0.0345548 -0.06337495 0.0439389 0.071174115 0.04915242 -0.019680332 0.05724734
0.04814097 0.027410038 -0.04288346 0.019542689 -0.029978603 0.036783352 -0.06664318 0.015809717
-1.9082797e-06 0.07138999 0.040593848 0.019690068 -0.06441802 -0.07233784 -0.012174229 -0.070885085
0.05500189 0.0008942763 -0.07480165 -0.047097918 0.06989604 -0.0665438 -0.00858173 -0.07667803
-0.008198632 0.016145822 0.050504807 -0.033752456 -0.07664278 0.049523354 0.034409758 0.0487275
-0.03752583 -0.016048353 -0.030971717 -0.07094885 0.063687295 -0.068144746 0.008898602 -0.015350903
0.004633443 0.033420503 -0.061476886 -0.07279074 0.058436878 0.004985842 -0.053127483 -0.050299186
-0.02406998 0.03613741 0.037087474 -0.03405136 -0.07646464 0.051998563 0.07470953 0.0028953087
5.578628e-05 0.051612563 -0.028754378 0.07239255 0.07557602 0.06880636 0.04325396 0.07530857
-0.0055851457 -0.023446305 -0.019631214 -0.0027567635 -0.041561022 0.012454886 0.069248326 -0.017403949
-0.0061542583 -0.043222707 0.013473778 0.009997729 -0.04886168 0.04206464 0.0168025 0.022092434
0.024952063 -0.0064259754 -0.0030250843 -0.033571128 0.0017855233 -0.06419688 0.04091807 0.030648196
0.057247464 -0.039488174 0.0045100227 0.019427098 -0.05850763 -0.066336334 -0.058185913 -0.032434165
0.049199995 0.055312786 -0.036678147 0.04862392 0.072533436 -0.077685565 0.04682654 0.013652912
0.018666165 -0.03438552 0.01811644 0.054009184 0.06767024 -0.020129353 0.053836647 0.0131332
-0.04303801 0.068411745 -0.07099942 0.016628256 0.047877517 0.012090939 -0.055590767 0.035319295
-0.044570472 0.02163073 -0.030123325 -0.008397967 -0.050752033 -0.035572607 -0.0043721185 0.058804467
-0.04046576 -0.014698663 -0.069369294 -0.068546854 0.008783194 0.012062028 -0.038039193 -0.04275819
-0.07006028 0.04677937 -0.04318099 0.018348278 0.05958425 -0.023880744 -0.038751576 -0.021143142
-0.028959012 0.0011412185 -0.05750348 -0.08968216 -0.06450769 -0.052017484 0.052754056 0.085240535
-0.055943396 0.072666906 -0.047050208 0.019100761 0.0018972104 0.054262895 0.0702466 0.006302393
-0.06877335 -0.041080255 0.052059263 0.0032266816 -0.03301329 -0.045546006 -0.09019334 -0.092290856
-0.016154487 0.009195836 -0.0006308826 0.023515208 -0.06552626 0.06975193 -0.05168274 -0.06378587
-0.04911437 -0.07648412 -0.05970816 0.009814177 0.028451296 0.034437794 -0.053241055 0.0052750814
-0.047818713 0.0054590474 -0.040222734 0.01562749 -0.020408902 -0.045423165 0.053329494 -0.009438372
0.07962315 -0.009755337 -0.027320962 -0.09065818 0.025441958 -0.0007556907 -0.07825124 -0.027231304
0.041676063 0.054942198 0.058305115 0.040340338 -0.078057736 0.06244152 0.025781872 0.054732215
0.07411408 0.018770337 0.03084899 0.02824536 -0.017318852 0.07598824 -0.03800569 0.10562517
0.02418008 0.028304389 0.021735646 0.02443515 -0.057502307 0.008828997 0.0488478 -0.109259665
0.028811479 0.039248094 -0.06714429 -0.016901841 0.03268437 -0.044841923 0.02687711 -0.084021084
00000000: 1828 39bd 38c8 40bd 6909 9639 2aa6 d7bc
00000010: 431a 77bd cd9c 843d 2234 6d3d c3f9 853c
00000020: 93b9 003d 8aa2 47bd 0e8f debc 60fa 98bd
00000030: 43f5 1a3d 7c0d a93c a5da 3fbd 7f5b 713c
00000040: e4c7 4bbd 5589 0d3d baca 81bd 47f9 333d
00000050: bcc3 913d 0c54 493d a638 a1bc 307c 6a3d
00000060: 772f 453d 048b e03c 91a6 2fbd fd17 a03c
00000070: b095 f5bc 24aa 163d 387c 88bd 6183 813c
00000080: ff0f 00b6 ea34 923d bc45 263d 114d a13c
00000090: 98ed 83bd dd25 94bd 6b76 47bc 332c 91bd
000000a0: a949 613d de6d 6a3a 9c31 99bd bfe9 40bd
000000b0: a825 8f3d 1e48 88bd 629a 0cbc 5f09 9dbd
000000c0: 8e53 06bc 3e44 843c 21de 4e3d 0440 0abd
000000d0: e4f6 9cbd 00d9 4a3d 3ff1 0c3d 7d96 473d
000000e0: afb4 19bd d677 83bc 66b8 fdbc a14d 91bd
000000f0: 7c6e 823d 798f 8bbd 71cb 113c 5b82 7bbc
00000100: 23d4 973b f0e3 083d 30cf 7bbd 5013 95bd
00000110: 825b 6f3d 4660 a33b 349c 59bd 8506 4ebd
00000120: 682e c5bc d204 143d 09e9 173d 7079 0bbd
00000130: 7e99 9cbd 72fc 543d 4f01 993d 38bf 3d3b
00000140: 10fc 6938 b267 533d 4d8e ebbc 8c42 943d
00000150: 9ac7 9a3d 59ea 8c3d 102b 313d 613b 9a3d
00000160: 9903 b7bb 7712 c0bc a4d1 a0bc d1aa 34bb
00000170: e43b 2abd 940f 4c3c 11d2 8d3d ba92 8ebc
00000180: a9a9 c9bb 4b0a 31bd 1fc1 5c3c 84cd 233c
00000190: 2f23 48bd f94b 2c3d 65a5 893c 31fb b43c
000001a0: 4568 cc3c fd90 d2bb 7e40 46bb e181 09bd
000001b0: 3808 ea3a a779 83bd b599 273d ed11 fb3c
000001c0: 517c 6a3d 5abe 21bd d0c8 933b 9425 9f3c
000001d0: b2a5 6fbd 58db 87bd 5a54 6ebd b0d9 04bd
000001e0: ef85 493d a98f 623d d33b 16bd e029 473d
000001f0: 698c 943d 9c19 9fbd 30cd 3f3d 77b0 5f3c
00000200: c9e9 983c d5d7 0cbd ee68 943c bc38 5d3d
00000210: b296 8a3d 50e6 a4bc d183 5c3d a22c 573c
00000220: a048 30bd 751b 8c3d 2568 91bd fb37 883c
00000230: 371b 443d 1319 463c 25b3 63bd f7aa 103d
00000240: 878f 36bd ee32 b13c 31c5 f6bc a097 09bc
00000250: 5de1 4fbd 95b4 11bd fd43 8fbb f4dc 703d
00000260: 6dbf 25bd a9d2 70bc 7d11 8ebd 4b62 8cbd
00000270: 63e7 0f3c d09f 453c fcce 1bbd 3623 2fbd
00000280: c47b 8fbd ba9b 3f3d 8dde 30bd 214f 963c
00000290: 9d0e 743d 8da1 c3bc f9b9 1ebd 6234 adbc
000002a0: 733b edbc f094 953a c588 6bbd 48ab b7bd
000002b0: 9c1c 84bd 4910 55bd a314 583d 9792 ae3d
000002c0: e724 65bd 63d2 943d b8b7 40bd 3379 9c3c
000002d0: d1ab f83a c542 5e3d 73dd 8f3d 4e84 ce3b
000002e0: 0bd9 8cbd c543 28bd 183c 553d bc76 533b
000002f0: f238 07bd 738e 3abd 49b7 b8bd fd02 bdbd
00000300: 6a56 84bc 22aa 163c d161 25ba f7a2 c03c
00000310: a232 86bd 1ada 8e3d 48b1 53bd 2ba2 82bd
00000320: 262c 49bd b5a3 9cbd 8b90 74bd a4cb 203c
00000330: b112 e93c a50e 0d3d 4b13 5abd 97da ac3b
00000340: 8edd 43bd cfe1 b23b 98c0 24bd 3905 803c
00000350: 9230 a7bc a40d 3abd 0770 5a3d 67a3 1abc
00000360: 7611 a33d d9d4 1fbc 36d0 dfbc ffaa b9bd
00000370: a76b d03c 8b19 46ba 3042 a0bd 2f14 dfbc
00000380: 85b4 2a3d 120b 613d 58d1 6e3d e93b 253d
00000390: bcdc 9fbd aec2 7f3d 8134 d33c e32e 603d
000003a0: 1fc9 973d 40c4 993c 05b7 fc3c d062 e73c
000003b0: 44e0 8dbc b99f 9b3d dbab 1bbd 0252 d83d
000003c0: 4e15 c63c 9bde e73c f40e b23c 392c c83c
000003d0: 8a87 6bbd 7fa7 103c a114 483d 88c3 dfbd
000003e0: 0d06 ec3c 9cc2 203d f282 89bd bb75 8abc
000003f0: 0ce0 053d 2aac 37bd 632d dc3c 3f13 acbd

ms.layers.2.bias f4 [164]
-0.025684288 0.13755104 -0.03289679 0.042027645 -0.0332202 -0.0005930583 0.31839177 -0.009166292
-0.06248202 -0.054889426 0.05912848 -0.075397514 -0.010557987 0.09910513 -0.019277174 0.068173595
0.024733309 0.1765325 -0.017264253 0.27726212 -0.014346596 0.046967894 0.049158067 0.044814635
0.046962593 -0.049425464 0.04199915 0.042898834 -0.11156802 0.008657853 0.02385411 0.03070603
0.007257827 0.0018387703 -0.06476849 -0.07218172 -0.02987973 -0.0017392319 -0.043636594 0.005261745
-0.0066351285 0.0792142 0.033570755 0.058976784 -0.09232585 -0.05852736 0.019087043 -0.09440114
0.034212045 0.03286742 0.0025424748 0.03359611 0.04699402 0.046212837 0.035689045 0.0005191201
-0.0013550252 0.03287738 -0.037659377 -0.014007247 -0.034284826 0.064415745 0.04848355 0.19725871
-0.0054862923 0.021528099 -0.018217035 -0.048636045 -0.056155086 0.03568321 0.032999355 0.048643164
-0.082196735 -0.013993796 -0.027900992 0.013266714 -0.073189035 0.06588576 -0.045515783 -0.014894185
0.16054127 0.12087329 0.033414967 0.06422778 -0.092273824 -0.07394765 0.12039215 0.21491945
0.040015005 0.17929956 -0.026732469 -0.0816364 -0.08338809 0.052097842 0.052399594 0.08026658
0.030805029 0.037808966 0.019535052 0.06692793 0.03605694 -0.042663816 0.006947104 -0.0017557917
-0.055549793 0.028537354 0.046762936 -0.07052326 0.03214038 0.08053221 0.005689838 0.009429494
0.045544144 0.017050266 0.024593564 -0.04150056 0.042748965 -0.008552928 0.07694962 -0.026158025
-0.060881454 0.038469728 0.054397073 0.0066906735 0.0051282276 -0.0010474168 -0.031063596 0.006568118
0.07183321 0.41526383 0.11979304 0.0037268463 0.029108755 0.058196347 0.03176873 0.061329942
0.015862731 -0.0046404907 0.06435078 0.038045194 0.102678604 0.04491441 -0.00013091242 0.010063073
-0.019985002 0.017523041 -0.06521947 -0.0723126 -0.04572772 -0.02161984 -0.0066884663 -0.034296162
0.064376965 0.01958148 -0.041481838 -0.014392032 -0.054556478 0.20311552 0.023658533 0.051937677
0.16418248 -0.04237646 0.049604572 0.14756031
00000000: db67 d2bc 2eda 0c3e c9be 06bd 2e25 2c3d
00000010: e811 08bd 7877 1bba 3f04 a33e 372e 16bc
00000020: 26ed 7fbd bcd3 60bd b430 723d 036a 9abd
00000030: 68fb 2cbc a1f7 ca3d 2aeb 9dbc 999e 8b3d
00000040: 829d ca3c f0c4 343e c36d 8dbc 4df5 8d3e
00000050: fc0d 6bbc 6861 403d f859 493d 8d8f 373d
00000060: d95b 403d 5b72 4abd 4d07 2c3d b0b6 2f3d
00000070: c67d e4bd abd9 0d3c b269 c33c 368b fb3c
00000080: 11d3 ed3b e502 f13a 58a5 84bd 02d4 93bd
00000090: 56c6 f4bc f0f6 e3ba 49bc 32bd b76a ac3b
000000a0: 7e6b d9bb 0e3b a23d 7d81 093d a491 713d
000000b0: 5615 bdbd 63ba 6fbd 6e5c 9c3c 6355 c1bd
000000c0: ee21 0c3d fd9f 063d a69f 263b 139c 093d
000000d0: cd7c 403d ac49 3d3d ad2e 123d 8f15 083a
000000e0: 1a9b b1ba 6eaa 063d b840 1abd a77e 65bc
000000f0: 3f6e 0cbd 67ec 833d b096 463d 30fe 493e
00000100: 5bc6 b3bb b25b b03c e43b 95bc 9736 47bd
00000110: e002 66bd 8f28 123d 552a 073d 0e3e 473d
00000120: c356 a8bd 3c46 65bc 9f90 e4bc a25c 593c
00000130: 22e4 95bd 1def 863d c26e 3abd bd06 74bc
00000140: ee64 243e 6a8c f73d 22de 083d db89 833d
00000150: 0ffa bcbd de71 97bd 2990 f63d d813 5c3e
00000160: c6e6 233d 4e9a 373e 0dfe dabc fc30 a7bd
00000170: 60c7 aabd 8c64 553d f5a0 563d ce62 a43d
00000180: d45a fc3c 93dd 1a3d f907 a03c 8311 893d
00000190: 71b0 133d 41c0 2ebd 88a4 e33b 9822 e6ba
000001a0: 2e88 63bd 2bc7 e93c 7e8a 3f3d 806e 90bd
000001b0: a2a5 033d 12ee a43d d271 ba3b 2a7e 1a3c
000001c0: 7f8c 3a3d 00ad 8b3c 7178 c93c 7efc 29bd
000001d0: 8a19 2f3d 9521 0cbc c397 9d3d 5b49 d6bc
000001e0: d55e 79bd 6f92 1d3d 77cf 5e3d 703d db3b
000001f0: b10a a83b 7a49 89ba 1579 febc 5e39 d73b
00000200: 4a1d 933d 769d d43e 0e56 f53d 1b3e 743b
00000210: 7c75 ee3c 4b5f 6e3d ee1f 023d 1b35 7b3d
00000220: 8ff2 813c 420f 98bb 57ca 833d 47d5 1b3d
00000230: 2949 d23d 2cf8 373d 8945 09b9 96df 243c
00000240: 96b7 a3bc 7b8c 8f3c c991 85bd a118 94bd
00000250: fd4c 3bbd 171c b1bc ec2a dbbb 227a 0cbd
00000260: 12d8 833d 5769 a03c dce8 29bd 8fcc 6bbc
00000270: 9d76 5fbd 84fd 4f3e 8acf c13c 9abc 543d
00000280: 741f 283e f092 2dbd 2a2e 4b3d 0d1a 173e

ms.layers.4.weight f4 [2, 164]
0.04844144 0.019957568 0.055499226 0.009976701 0.058250047 -0.000768775 -0.003633299 -0.007848291
-0.020762688 -0.005925768 0.0029643332 0.043513667 0.00707806 -0.01902815 0.007498246 -0.009874304
-0.03246113 -0.076020256 0.00089730707 0.012637136 0.022058664 -0.0343923 -0.026407385 -0.00016849852
-0.032247506 0.030047627 0.013373785 0.03738925 0.008683441 -0.046345983 -0.052934255 -0.06334632
0.011282285 -0.055595823 0.0047780517 -0.0060295817 -0.007491732 0.052406844 0.020021105 0.021656228
-0.012181945 -0.016681874 0.013549529 0.00731966 -0.003617616 -0.025759878 0.011952042 0.0010021965
-0.022876015 0.0491038 0.056670446 0.062757626 -0.020597765 0.012432221 0.05334474 0.038926706
-0.027008355 -0.06302121 0.026182208 -0.011592669 0.07025658 -0.027321717 0.0036737253 -0.034684215
0.024486559 0.012908741 0.04228547 0.056226633 0.022041159 -0.01738229 0.02275472 0.045533087
-0.035664383 -0.00030097345 0.04429095 0.06410048 0.025067883 -0.05786834 -0.017791986 0.0066609904
-0.02946539 -0.028871983 -0.06023825 0.010108783 0.002510333 0.018879086 -0.040003825 -0.08135307
-0.004276677 0.122344136 0.0010318076 0.00922986 0.024347778 0.0027589737 0.053448953 0.009803525
0.0065581095 -0.008409285 0.0013551952 -0.009673685 0.002052972 -0.043315377 -0.018010523 0.017640004
0.03518102 -0.003981192 -0.026774345 -0.049617328 -0.025802122 -0.09400897 0.02455126 -0.07195041
-0.05012062 -0.037989564 0.017725157 -0.023813821 -0.010665302 0.03317455 0.024349805 -0.003778751
0.00045085954 -0.010469053 -0.015198001 0.00087068 -0.013599415 -0.0027192694 0.004544166 -0.007189039
-0.036691103 1.0223703 0.06637952 0.045627173 0.000971354 0.010692039 0.04215684 0.061601855
0.03159625 -0.022827853 0.01684946 -0.027564045 -0.027610337 0.030740878 0.0114023145 -0.029030563
0.00021083877 -0.0057809753 0.06837643 0.017075824 -0.032880105 0.052041598 0.010943157 -0.065408885
-0.0486613 0.0014799995 -0.0343995 0.051020134 0.0141046615 0.02701589 0.045666333 0.0076004816
-0.03625852 -0.069048114 0.022850536 0.033800922 -0.06480518 -0.007927587 -0.022836948 -0.012348871
0.012876738 0.0035530447 0.25565436 -0.01948879 0.03439649 0.002723289 -0.0042671803 -0.04581817
-0.004520718 -0.045724306 0.0024587759 0.0034861749 0.012160262 0.00042208415 0.013982028 -0.44539076
-0.0020449643 0.047944058 0.033835653 0.0008367387 -0.016091283 0.03382598 -0.013686892 0.034389544
-0.004903582 -0.12012919 -0.06296653 -0.020546885 -0.0013878377 0.036518205 -0.00611952 0.01437032
0.020379698 0.05840692 0.0033732683 -0.02559682 0.024318911 0.009259803 0.023537267 -0.0078095854
-0.050068457 0.042812467 0.016237782 0.005618418 -0.017158603 0.03930368 -0.036189556 0.042887904
-0.035536982 -0.05637125 0.009090753 0.03479261 -0.09912268 -0.042506684 0.00956459 -0.014286332
0.06371383 -0.030585013 0.008778463 0.036401585 -0.012185897 -0.00784271 0.018160023 -0.023470875
0.008095638 -0.021236155 0.010575465 0.00044217444 0.047550056 -0.002925525 -0.0020991908 0.046377577
-0.009956057 -0.020764453 -0.020699242 0.005659728 0.04836352 0.018727042 0.009543968 -0.021969661
-0.01140782 0.048789132 0.047297973 -0.00044846453 -0.017622443 -0.032852076 0.0003473298 0.008673966
00000000: 886a 463d 0e7e a33c 2853 633d 5175 233c
00000010: 9a97 6e3d 9e87 49ba a41c 6ebb 1e96 00bc
00000020: 8316 aabc f22c c2bb 4245 423b 633b 323d
00000030: 12ef e73b ece0 9bbc d9b3 f53b d5c7 21bc
00000040: f6f5 04bd 82b0 9bbd 4239 6b3a fd0b 4f3c
00000050: 5fb4 b43c f1de 0cbd 4d54 d8bc faae 30b9
00000060: f615 04bd 7126 f63c b81d 5b3c 7825 193d
00000070: fe44 0e3c 49d5 3dbd 97d1 58bd b7bb 81bd
00000080: 55d9 383c 72b8 63bd 3491 9c3b cc93 c5bb
00000090: 347d f5bb 8fa8 563d 4d03 a43c 6768 b13c
000000a0: c896 47bc 6da8 88bc d8fe 5d3c c2d9 ef3b
000000b0: 8615 6dbb 6106 d3bc 7fd2 433c 225c 833a
000000c0: 7b66 bbbc 1121 493d 451f 683d 1287 803d
000000d0: a5bc a8bc 84b0 4b3c 0480 5a3d 9c71 1f3d
000000e0: a040 ddbc 4411 81bd 127c d63c 2eef 3dbc
000000f0: afe2 8f3d cbd1 dfbc e2c2 703b 0911 0ebd
00000100: 0998 c83c 2f7f 533c 8733 2d3d e64d 663d
00000110: a98f b43c 4e65 8ebc 1b68 ba3c e780 3a3d
00000120: d114 12bd f9cb 9db9 6d6a 353d 1d47 833d
00000130: 295b cd3c 5a07 6dbd 80c0 91bc 7044 da3b
00000140: 6761 f1bc f084 ecbc 62bc 76bd 4f9f 253c
00000150: 6684 243b 50a8 9a3c 0ddb 23bd 709c a6bd
00000160: 5e23 8cbb 908f fa3d b83d 873a d738 173c
00000170: fe74 c73c e6cf 343b 4aed 5a3d f79e 203c
00000180: 69e5 d63b 19c7 09bc cea0 b13a 607e 1ebc
00000190: 288b 063b 776b 31bd ce8a 93bc c581 903c
000001a0: f919 103d a974 82bb df55 dbbc 8a3b 4bbd
000001b0: f95e d3bc c687 c0bd b91f c93c bd5a 93bd
000001c0: 474b 4dbd f29a 1bbd 5934 913c 3415 c3bc
000001d0: 85bd 2ebc 09e2 073d 3e79 c73c eca4 77bb
000001e0: 5861 ec39 6486 2bbc 0901 79bc 593e 643a
000001f0: 15d0 5ebc c535 32bb 3ae7 943b 0892 ebbb
00000200: 6949 16bd 08dd 823f fcf1 873d 8fe3 3a3d
00000210: 77a2 7e3a a92d 2f3c a7ac 2c3d 3a52 7c3d
00000220: 126b 013d 7a01 bbbc e107 8a3c fecd e1bc
00000230: 132f e2bc 4bd4 fb3c c6d0 3a3c 81d1 edbc
00000240: 9a14 5d39 566e bdbb f108 8c3d 99e2 8b3c
00000250: 4aad 06bd 9229 553d ed4a 333c 18f5 85bd
00000260: 1251 47bd 8bfc c13a 7de6 0cbd 7dfa 503d
00000270: 3d17 673c 6e50 dd3c 9f0c 3b3d 760d f93b
00000280: d083 14bd 1969 8dbd 0c31 bb3c d672 0a3d
00000290: 94b8 84bd b6e2 01bc 8d14 bbbc eb52 4abc
000002a0: f4f8 523c 33da 683b 21e5 823e f4a6 9fbc
000002b0: 55e3 0c3d 3579 323b b4d3 8bbb d5ab 3bbd
000002c0: 8822 94bb 6949 3bbd 6a23 213b 4f78 643b
000002d0: d63b 473c 2d4b dd39 e014 653c 420a e4be
000002e0: cf04 06bb fd60 443d 4197 0a3d 9558 5b3a
000002f0: ded1 83bc 1c8d 0a3d fc3e 60bc 0ddc 0c3d
00000300: 3aae a0bb 4b06 f6bd 99f4 80bd f151 a8bc
00000310: 1be8 b5ba 1d94 153d 4186 c8bb 7e71 6b3c
00000320: 53f3 a63c 183c 6f3d 0d12 5d3b 6cb0 d1bc
00000330: 7438 c73c 6eb6 173c 3ad1 c03c 8de7 ffbb
00000340: 9514 4dbd 205c 2f3d 1905 853c b51a b83b
00000350: 3390 8cbc e5fc 203d 803b 14bd 3aab 2f3d
00000360: 3a8f 11bd 8ae5 66bd 62f1 143c b282 0e3d
00000370: d500 cbbd 7d1b 2ebd ccb4 1c3c 3811 6abc
00000380: 667c 823d 6c8d fabc 8bd3 0f3c d419 153d
00000390: 5ba7 47bc b67e 00bc 54c4 943c fe45 c0bc
000003a0: 91a3 043c 72f7 adbc b744 2d3c a6d3 e739
000003b0: d9c3 423d 2aba 3fbb 9492 09bb 6af6 3d3d
000003c0: bb1e 23bc 371a aabc 7591 a9bc 3d75 b93b
000003d0: d418 463d 7469 993c 4e5e 1c3c b8f9 b3bc
000003e0: dde7 3abc 1dd7 473d 85bb 413d e41f ebb9
000003f0: f15c 90bc e68f 06bd d119 b639 401d 0e3c

ms.layers.4.bias f4 [2]
0.020846644 0.03047896
00000000: 95c6 aa3c 03af f93c

exp_avg f4 [164, 3]
0.0007455834 -0.0008758726 0.00017350641 0.00020756107 4.051003e-05 -0.00017999522 -0.0006639517 0.00080255105
-9.09972e-05 0.00013400041 0.00023071741 -8.6689455e-05 0.001021438 -0.0019498199 0.00045194454 -0.0010472167
-0.0007930826 7.2639625e-05 -4.966391e-05 -9.6073476e-05 -3.7237915e-05 -0.00019269904 -0.00035875948 -6.844454e-05
0.00011230429 -0.00026859643 -1.4584912e-05 -0.0009099616 7.1901595e-05 8.283478e-05 -0.0001818206 0.00011891386
0.00019276276 0.0008151803 -0.0010682862 0.00061099604 -2.7065806e-05 0.00035974907 7.965989e-05 5.185874e-05
-0.00030782295 -7.3909296e-06 -1.099049e-05 -0.0006330444 -2.3304383e-05 -0.0011588814 0.0016480589 -0.00045101315
-1.8306877e-05 0.00024473926 3.3642013e-05 6.470467e-05 0.00088566646 6.2568004e-05 0.00016202855 0.00069503416
6.6953915e-05 -6.818621e-05 -0.000110648914 -3.2023778e-05 -7.5645774e-05 0.00011504918 2.7254404e-05 0.0005072309
-0.0005299683 0.00012990735 -1.3055456e-05 0.00038409376 -0.000109096974 -0.00020823904 0.00029813577 -8.347281e-05
-0.00040349085 0.00017089471 7.612484e-05 -0.0005148846 -8.939015e-05 -0.00011384937 0.0005718518 -0.000902654
0.00019044489 -9.749474e-07 -0.0004616248 -6.201684e-05 0.00029639667 -0.0007207426 -0.00011766955 9.023881e-05
0.00048799498 5.2393778e-05 3.05309e-05 7.441249e-05 -0.00017311278 -0.00061487267 0.00067138416 -0.00023153689
-0.00028008246 0.0003038508 -3.1588897e-05 -0.0018556284 0.0017237535 -8.4348874e-05 -3.305018e-05 0.0007458142
-8.5607295e-05 0.00087597826 -0.00014627044 0.00018348244 -5.0071358e-06 -0.00013703792 6.8776776e-06 0.00015155744
0.00054867123 -2.1796553e-05 -2.5004701e-05 5.5395787e-05 -1.9573727e-05 -7.045779e-06 7.703026e-05 -1.5202225e-05
4.659124e-05 -0.00018000767 -5.2626234e-05 3.3407996e-06 -0.00036839762 7.680265e-05 0.00026367547 -0.00013262127
1.5793774e-05 0.00011544758 -3.5975165e-05 4.165191e-05 9.394641e-05 -0.000391083 0.00011296499 -4.7178226e-05
0.0010758011 -0.00028856288 0.00010929214 -5.141728e-05 -1.43387515e-05 -0.00037778568 0.0002467733 -0.00022623947
0.00019172339 -4.320412e-05 -4.4283617e-05 0.00031738364 -3.3817283e-05 4.287074e-05 -4.29526e-05 -0.00030475494
5.4325476e-05 2.3141904e-05 0.0004364968 -7.219528e-05 -0.00019089977 1.256782e-05 3.763866e-05 -0.0001846037
0.00020947815 2.0031404e-05 -0.0010323721 0.0014194092 -0.00034713384 -0.00043764105 -0.000255579 -2.3474964e-05
0.0005593733 -5.760252e-05 -2.085249e-05 -0.00047836476 0.0007883288 -0.00017628381 -0.00032161415 0.0011277726
-0.0008966918 0.0002966977 -0.00118879 0.00036872813 -0.00064441154 0.0005917649 -0.0005249712 -0.00025088884
-0.00036905683 -1.3942197e-05 0.00030959968 -1.10954825e-05 -5.6242083e-05 0.00028700824 -0.0007189298 0.00019728122
-0.00058010005 0.0012005019 -0.00027378506 -0.00016228299 -0.0008669245 0.00023781652 0.00043273423 -0.0001799632
4.0860297e-05 0.0004760347 0.0005526811 0.00011560164 0.00015359225 -0.00089630985 0.0002587056 0.00031368772
0.0003081772 -5.7955098e-05 -0.00010276376 -0.00013001455 -0.00010135765 0.00017052327 6.2326944e-05 4.952826e-05
9.358562e-05 -0.0005686986 0.00016068401 -0.0012247211 0.0018053078 -0.00053265947 9.36444e-05 -0.00064963626
-8.776291e-05 -0.00077941536 -0.0004865644 0.0005856427 1.7544415e-05 0.00061378174 0.0001767927 -0.00023615257
0.00057973195 -0.00012480486 -0.0060024424 0.006899116 -0.0030666804 -0.00023082714 0.00050490274 -5.361463e-05
-0.00028274313 -2.4297944e-05 4.909954e-06 0.00053955667 -0.00042284344 0.00011384023 -0.00045982623 0.0007022669
-0.00026824066 0.0006636629 -0.0009253532 -0.00020193684 0.0017637389 -0.00045294303 0.0003936748 0.0012910463
00000000: 4173 433a d19a 65ba 46ef 3539 c0a4 5939
00000010: 50e9 2938 19bd 3cb9 0b0d 2eba 4a62 523a
00000020: c0d5 beb8 7682 0c39 bcec 7139 0ccd b5b8
00000030: c6e1 853a 1991 ffba f8f2 ec39 c342 89ba
00000040: dfe6 4fba 1a56 9838 384e 50b8 0e7b c9b8
00000050: e82f 1cb8 410f 4ab9 e217 bcb9 e289 8fb8
00000060: e884 eb38 67d2 8cb9 b8b1 74b7 7d8a 6eba
00000070: e0c9 9638 95b7 ad38 18a7 3eb9 6461 f938
00000080: 5c20 4a39 d3b1 553a bd05 8cba 402b 203a
00000090: 600b e3b7 b49c bc39 140f a738 e682 5938
000000a0: 4c63 a1b9 9aff f7b6 cc63 38b7 e4f2 25ba
000000b0: c87d c3b7 9be5 97ba ae03 d83a f675 ecb9
000000c0: b891 99b7 5950 8039 d61a 0d38 0eb2 8738
000000d0: 122c 683a f136 8338 35e6 2939 f432 363a
000000e0: 9c69 8c38 31ff 8eb8 2f0c e8b8 4551 06b8
000000f0: 04a4 9eb8 8f46 f138 63a0 e437 b1f7 043a
00000100: 92ed 0aba bd37 0839 c208 5bb7 3160 c939
00000110: feca e4b8 be5a 5ab9 1b4f 9c39 200e afb8
00000120: a08b d3b9 3332 3339 36a5 9f38 52f9 06ba
00000130: f976 bbb8 6ac2 eeb8 53e8 153a 16a0 6cba
00000140: 29b2 4739 f0da 82b5 3b06 f2b9 0a0f 82b8
00000150: b065 9b39 38f0 3cba 5cc5 f6b8 983e bd38
00000160: 94d9 ff39 64c1 5b38 4e0e 0038 e70d 9c38
00000170: 9c85 35b9 682f 21ba d4ff 2f3a b6c8 72b9
00000180: 08d8 92b9 2a4e 9f39 527e 04b8 8f38 f3ba
00000190: 92ef e13a 75e4 b0b8 5c9f 0ab8 be82 433a
000001a0: 1188 b3b8 e8a1 653a 2c60 19b9 3165 4039
000001b0: f802 a8b6 d6b1 0fb9 cdc6 e636 64eb 1e39
000001c0: b4d4 0f3a bed7 b6b7 30c1 d1b7 c658 6838
000001d0: 4232 a4b7 c86a ecb6 4e8b a138 0f0d 7fb7
000001e0: f76a 4338 71c0 3cb9 fdba 5cb8 8032 6036
000001f0: 7e25 c1b9 1c11 a138 ec3d 8a39 4010 0bb9
00000200: df7c 8437 731c f238 0ae4 16b8 66b3 2e38
00000210: 1805 c538 460a cdb9 9ee7 ec38 3ce1 45b8
00000220: e501 8d3a 414a 97b9 c533 e538 e2a8 57b8
00000230: 7890 70b7 8911 c6b9 5a61 8139 b23a 6db9
00000240: 5b09 4939 1236 35b8 2cbd 39b8 8366 a639
00000250: 08d7 0db8 1bd0 3338 0128 34b8 84c7 9fb9
00000260: 89db 6338 dc20 c237 9cd9 e439 8c67 97b8
00000270: 442c 48b9 60da 5237 34de 1d38 2e92 41b9
00000280: 5da7 5b39 1d09 a837 a950 87ba 780b ba3a
00000290: 84ff b5b9 3073 e5b9 3cff 85b9 1aec c4b7
000002a0: e8a2 123a 3c9a 71b8 62ec aeb7 08cd fab9
000002b0: daa7 4e3a d3d8 38b9 529e a8b9 c5d1 933a
000002c0: f80f 6bba 178e 9b39 2cd1 9bba da51 c139
000002d0: baed 28ba ac20 1b3a 399e 09ba bb89 83b9
000002e0: f87d c1b9 48e9 69b7 c451 a239 bc26 3ab7
000002f0: 7ae5 6bb8 9879 9639 9076 3cba 46dd 4e39
00000300: db11 18ba 295a 9d3a cf8a 8fb9 822a 2ab9
00000310: 5242 63ba 635e 7939 9be0 e239 81b4 3cb9
00000320: 6961 2b38 4c94 f939 cde1 103a 286f f238
00000330: 9b0d 2139 56f6 6aba e1a2 8739 7476 a439
00000340: d892 a139 d014 73b8 e082 d7b8 8454 08b9
00000350: f98f d4b8 7ece 3239 86b5 8238 90bc 4f38
00000360: 6643 c438 b814 15ba 497d 2839 d286 a0ba
00000370: 14a0 ec3a 2ca2 0bba f462 c438 5a4c 2aba
00000380: 5b0d b8b8 ae51 4cba 9119 ffb9 d185 193a
00000390: 582c 9337 32e6 203a 6e61 3939 b99f 77b9
000003a0: 27f9 173a 0dde 02b9 23b0 c4bb fb11 e23b
000003b0: 5cfa 48bb 300a 72b9 735b 043a 45e0 60b8
000003c0: 243d 94b9 70d3 cbb7 2fc0 a436 0971 0d3a
000003d0: 16b1 ddb9 82bd ee38 d514 f1b9 5518 383a
000003e0: a7a2 8cb9 aaf9 2d3a 6793 72ba 02bf 53b9
000003f0: 422d e73a fc78 edb9 2366 ce39 5338 a93a

exp_avg_sq f4 [164, 3]
1.7126016e-05 1.0714431e-05 3.825139e-07 6.8922473e-06 9.026499e-06 3.2725237e-07 1.32353125e-05 5.1639777e-06
1.1126475e-07 1.7085616e-06 1.3214091e-06 5.3751656e-08 1.9337609e-05 3.0198386e-05 6.621317e-07 1.4723568e-05
1.3248855e-05 3.9170342e-07 3.539985e-06 9.6396725e-06 7.1072414e-08 5.670445e-06 5.8092223e-06 8.468613e-08
3.2172131e-06 5.1211346e-06 1.5027989e-07 7.851706e-06 1.6465758e-05 2.0105368e-07 3.4456455e-06 6.4026963e-06
1.6827275e-07 1.791017e-05 2.1108695e-05 1.2096802e-06 1.66558e-05 4.3481785e-05 3.5708052e-07 1.7595585e-06
9.9949475e-06 4.0545896e-08 1.632349e-06 4.3793516e-06 4.9416354e-08 1.2126503e-05 1.3916176e-05 4.3295353e-07
2.0249001e-06 9.204712e-06 5.8850198e-08 5.761249e-06 7.718863e-06 3.6881679e-07 1.250997e-05 8.481875e-06
3.99565e-07 3.2168396e-06 4.5010834e-06 5.652255e-08 3.2934583e-06 7.5147814e-06 5.6096496e-08 2.3211958e-05
7.875251e-06 4.1478887e-07 1.8943327e-06 2.249402e-06 4.528929e-08 6.7933597e-06 4.037806e-06 1.256099e-07
1.8797185e-06 2.754682e-06 4.684523e-08 3.1350537e-06 9.973279e-06 7.856758e-08 4.8691863e-06 5.7910897e-06
2.4575476e-07 1.15374205e-05 1.6115591e-05 1.3994678e-07 2.973726e-05 3.561719e-05 3.4226105e-07 1.2305854e-05
8.032596e-06 2.5041928e-07 3.032302e-06 5.0817807e-06 9.215082e-08 1.0393314e-05 8.826599e-06 5.438769e-07
1.1414489e-05 7.072312e-06 1.0354491e-07 8.0964346e-05 1.881997e-05 8.8272174e-07 4.4147314e-06 4.006321e-06
6.828965e-08 3.340915e-05 1.6170978e-05 3.1267552e-07 3.1327295e-06 4.502356e-06 4.7860595e-08 8.598482e-06
1.9063404e-05 2.1432275e-07 1.9411468e-06 2.398086e-06 3.656626e-08 3.1848747e-06 2.348913e-06 5.400869e-08
2.32287e-06 3.42947e-06 3.3401342e-08 8.48956e-06 1.3364027e-05 1.341011e-07 2.9864595e-06 2.1621288e-06
3.2712084e-08 7.60673e-06 1.1008816e-05 1.0323998e-07 9.267343e-06 6.588072e-06 1.0570556e-07 3.6821814e-06
8.014136e-06 2.0943878e-07 6.1097785e-06 2.7094702e-06 7.374075e-08 1.3630507e-05 7.2189023e-06 4.0156715e-07
2.2429454e-06 5.1496986e-06 2.453676e-08 1.2664618e-05 6.3654866e-06 3.0189307e-07 8.14206e-06 4.628459e-06
9.6575775e-08 2.591539e-06 2.0118152e-06 6.887953e-08 1.0077398e-06 1.7657482e-06 2.9856537e-08 1.1184937e-05
6.519201e-06 1.1191771e-07 1.2390037e-05 1.1288171e-05 5.950323e-07 3.5784167e-06 1.4607544e-05 1.345512e-07
1.3532585e-05 5.772831e-06 1.6962238e-07 2.3509474e-05 1.7796005e-05 3.4117224e-07 3.6321555e-05 2.8834045e-05
2.6555147e-06 2.8655322e-06 9.853219e-06 3.5184942e-07 3.9403447e-05 1.7870228e-05 9.595601e-07 2.2660056e-06
4.37532e-06 5.1348785e-08 4.019066e-06 4.095048e-06 1.4596985e-07 6.286944e-06 8.345352e-06 2.02862e-07
3.0860072e-05 1.2299207e-05 2.530427e-07 3.0337471e-06 5.696298e-06 1.5035432e-07 1.497996e-05 6.4373007e-06
1.03864735e-07 7.376237e-06 6.9418525e-06 1.1042308e-07 2.815737e-06 8.403518e-06 3.2827668e-07 4.412266e-06
2.833904e-06 6.6407225e-08 5.924752e-06 7.3807305e-06 2.1363537e-07 6.605011e-06 3.4042312e-06 5.034399e-08
1.6152528e-06 2.4184528e-06 9.423415e-08 2.3930064e-05 1.409494e-05 7.2587966e-07 4.276057e-06 7.322545e-06
9.221379e-08 5.4829e-05 4.7576512e-05 1.7684113e-06 5.9228437e-06 4.872774e-06 2.7153638e-07 2.682803e-06
7.0129468e-06 1.1115064e-07 0.0006067319 0.00048683718 3.655949e-05 1.013556e-05 6.9902226e-06 8.482586e-08
3.0427905e-06 5.7963275e-06 7.445953e-08 3.5065382e-06 2.3756963e-06 7.5727954e-08 7.0621486e-06 7.065067e-06
3.4662327e-07 1.7632252e-05 1.8345718e-05 4.973627e-07 5.8767866e-05 2.0973892e-05 1.008698e-06 3.2070984e-05
00000000: d7a9 8f37 21c2 3337 4f5c cd34 f443 e736
00000010: 8570 1737 39b1 af34 3c0d 5e37 3b46 ad36
00000020: 71f0 ee33 bb51 e535 455b b135 92dc 6633
00000030: 3337 a237 8a52 fd37 58bd 3135 3e05 7737
00000040: 6647 5e37 4f4b d234 7b90 6d36 14ba 2137
00000050: 79a0 9833 c044 be36 d7ec c236 b1dc b533
00000060: 4de7 5736 36d6 ab36 9f5c 2134 d2ba 0337
00000070: f21f 8a37 37e1 5734 bd3b 6736 bed6 d636
00000080: 76ae 3434 cc3d 9637 9412 b137 4c5c a235
00000090: 0fb8 8b37 3660 3638 c6b4 bf34 f829 ec35
000000a0: f9af 2737 af24 2e33 1617 db35 58f2 9236
000000b0: db3d 5433 ef72 4b37 8579 6937 ae70 e834
000000c0: 85e3 0736 f06d 1a37 7ac2 7c33 c150 c136
000000d0: 4480 0137 cb01 c634 e9e1 5137 604d 0e37
000000e0: cc83 d634 e2e0 5736 0308 9736 33c3 7233
000000f0: 2f05 5d36 7b27 fc36 c0ee 7033 4db7 c237
00000100: f21f 0437 26b0 de34 c740 fe35 6ff4 1636
00000110: 1a84 4233 84f2 e336 7d7c 8736 63df 0634
00000120: a34a fc35 14dd 3836 e032 4933 d063 5236
00000130: e852 2737 fcb8 a833 fe61 a336 1551 c236
00000140: 47f0 8334 d890 4137 f82f 8737 4744 1634
00000150: 4874 f937 ab63 1538 00c0 b734 3e75 4e37
00000160: bdc3 0637 5d71 8634 8d7e 4b36 2a84 aa36
00000170: 73e4 c533 f25e 2e37 f415 1437 f0fe 1135
00000180: db80 3f37 b34e ed36 6b5c de33 67cb a938
00000190: 94df 9d37 2df4 6c35 4122 9436 096e 8636
000001a0: a2a6 9233 cd20 0c38 e9a6 8737 ccdd a734
000001b0: e23b 5236 f212 9736 488f 4d33 3342 1037
000001c0: 59ea 9f37 9720 6634 a644 0236 ceee 2036
000001d0: 070d 1d33 bbbb 5536 05a2 1d36 2ff7 6733
000001e0: 9ae2 1b36 d925 6636 2a75 0f33 626e 0e37
000001f0: 0f36 6037 6efd 0f34 fc6a 4836 1719 1136
00000200: 517f 0c33 503d ff36 81b2 3837 c7b4 dd33
00000210: ef7a 1b37 1c0f dd36 3f00 e333 651b 7736
00000220: 7474 0637 18e2 6034 9902 cd36 58d4 3536
00000230: 685b 9e33 95ae 6437 e639 f236 f896 d734
00000240: 8285 1636 93cb ac36 e8c4 d232 1f7a 5437
00000250: 1d97 d536 de13 a234 e299 0837 294e 9b36
00000260: 1865 cf33 4dea 2d36 b902 0736 ecea 9333
00000270: ad41 8735 a5fe ec35 9c3b 0033 f0a6 3b37
00000280: 83bf da36 6957 f033 cede 4f37 5362 3d37
00000290: 4fba 1f35 bb24 7036 ec12 7537 2779 1034
000002a0: 030a 6337 3eb4 c136 7221 3634 3636 c537
000002b0: a148 9537 5b2a b734 f957 1838 a4e0 f137
000002c0: 6535 3236 784d 4036 414f 2537 d1e5 bc34
000002d0: 2145 2538 06e8 9537 3cca 8035 ae11 1836
000002e0: b6cf 9236 968a 5c33 84db 8636 3268 8936
000002f0: e3bb 1c34 70f4 d236 0403 0c37 48d2 5934
00000300: c06f 0138 b158 4e37 edd9 8734 6197 4b36
00000310: d422 bf36 1571 2134 7052 7b37 feff d736
00000320: 3e0c df33 6581 f736 0fee e836 bb21 ed33
00000330: fef5 3c36 d6fc 0c37 013e b034 140d 9436
00000340: 1a2e 3e36 c29b 8e33 3bcd c636 fea7 f736
00000350: a563 6534 9da0 dd36 3f74 6436 cd39 5833
00000360: aacb d835 b44c 2236 c65d ca33 6cbd c837
00000370: 4e79 6c37 12da 4235 0d7b 8f36 2fb4 f536
00000380: 1107 c633 31f8 6538 e48c 4738 265a ed35
00000390: d7bc c636 cf80 a336 adc7 9134 340a 3436
000003a0: c150 eb36 b6b1 ee33 170d 1f3a 2e3e ff39
000003b0: 7457 1938 e60b 2a37 8e8d ea36 8229 b633
000003c0: be32 4c36 137e c236 8fe6 9f33 de51 6b36
000003d0: 276e 1f36 e29f a233 65f7 ec36 7710 ed36
000003e0: 8a17 ba34 f9e8 9337 21e5 9937 8182 0535
000003f0: 847d 7638 17f1 af37 9962 8735 f583 0638

exp_avg f4 [164]
0.0001377338 -0.000116012954 -4.6836994e-05 -6.4715525e-05 0.00045713066 1.1991433e-05 -1.7776356e-06 -3.98575e-05
-1.0724325e-06 7.848086e-05 0.00017503419 0.000573864 1.9922518e-05 -1.13116885e-05 1.1850116e-06 -0.0004633475
1.1468674e-05 3.3550168e-06 3.958285e-05 -3.751902e-05 3.0965257e-05 9.049772e-05 -0.0001022027 -0.00010995782
0.000111859496 -0.00010374241 0.00022628215 -2.5821733e-05 -4.6007615e-05 6.0163005e-05 -0.00017519311 -0.00022191228
-3.201416e-05 -0.00014371416 -7.426903e-05 0.00014431648 -1.1001057e-05 -5.1161176e-05 2.5299514e-06 -2.2580782e-05
-3.1809184e-05 8.301399e-05 3.9534607e-06 3.1230516e-05 0.00011510588 -0.00030241843 -2.3376211e-05 -0.00021040623
-3.287956e-05 4.429131e-05 7.2878465e-05 -7.432397e-05 3.608416e-05 4.8508387e-05 -0.00038805907 -1.340668e-05
-1.7940734e-05 -0.00025538093 -0.0008884327 0.00039797026 -0.0004509851 3.124487e-05 -4.2721284e-05 0.0001928549
-0.00024267656 0.00022505694 -3.9767074e-06 0.00011670196 0.00025003398 -7.16092e-05 -0.00010588052 4.133073e-05
0.00019618229 -0.00053131365 -6.6707806e-05 0.0006171685 0.00015726215 -0.00013229813 -0.003207148 -3.108824e-05
-1.1097953e-05 0.00011944551 -0.0003132319 -3.963701e-05 0.00030170486 0.0007529492 2.4115046e-05 0.00025723857
-1.24569415e-05 5.3139316e-05 -7.0124224e-05 -0.0002543791 -8.360946e-05 6.59868e-05 8.677562e-05 -0.00022257764
6.2795705e-05 4.4106877e-05 1.0444419e-05 -0.0004221121 0.00015806906 -0.0002728125 0.0004884134 0.00024126063
5.632682e-05 -0.00020766967 -0.0001305827 -0.00013231553 -5.5752134e-05 0.00012187011 -3.553443e-05 -0.0004065647
-8.170275e-05 6.023294e-06 -2.4923891e-05 -6.231838e-05 -1.189566e-05 6.1775645e-05 6.0298302e-05 -3.1180512e-05
-4.2304047e-05 -4.0053583e-05 -1.610764e-05 0.0001651482 -8.877269e-05 7.5562275e-05 0.00016693247 -4.47909e-05
-0.00043885515 -5.11193e-05 -8.921148e-05 1.2337373e-05 1.8757375e-05 -2.6502874e-05 -3.910897e-05 0.00010954721
-6.340942e-05 -0.0005688961 0.00036163052 -0.0001749499 -6.9874375e-05 1.2499633e-05 4.1005336e-05 -6.883011e-05
0.000174882 0.00014574885 -1.3128083e-06 -3.9917817e-05 -7.720445e-05 -0.00011251036 -5.504457e-05 -4.931423e-05
-5.905605e-05 8.7021726e-05 -6.701821e-05 8.070465e-05 4.7135422e-06 0.00064097636 2.4128129e-05 2.8496486e-05
-0.00014329444 -0.00022205105 -9.4222385e-05 -5.6599194e-05
00000000: a36c 1039 fb4b f3b8 d772 44b8 e2b7 87b8
00000010: 0aab ef39 d02e 4937 1897 eeb5 aa2c 27b8
00000020: 80f0 8fb5 1796 a438 6289 3739 5c6f 163a
00000030: 481f a737 55c7 3db7 b00c 9f35 73ed f2b9
00000040: 9469 4037 c026 6136 c305 2638 be5d 1db8
00000050: b1e0 0138 98c9 bd38 a855 d6b8 2899 e6b8
00000060: 1c96 ea38 4890 d9b8 2746 6d39 c09b d8b7
00000070: 4df8 40b8 8957 7c38 0bb4 37b9 20b1 68b9
00000080: f146 06b8 fab1 16b9 e2c0 9bb8 a953 1739
00000090: 2e91 38b7 e595 56b8 3cc8 2936 dc6b bdb7
000000a0: da6a 05b8 cc17 ae38 f8a7 8436 83fd 0238
000000b0: 0065 f138 ea8d 9eb9 0818 c4b7 7ea0 5cb9
000000c0: 29e8 09b8 6fc5 3938 54d6 9838 61de 9bb8
000000d0: 1259 1738 7c75 4b38 6874 cbb9 41ed 60b7
000000e0: 6f7f 96b7 a6e4 85b9 b6e5 68ba aaa6 d039
000000f0: 3272 ecb9 ec0c 0338 a12f 33b8 1839 4a39
00000100: fe76 7eb9 43fd 6b39 a86f 85b6 e3bd f438
00000110: fe16 8339 e62c 96b8 2c0c deb8 895a 2d38
00000120: 48b6 4d39 db47 0bba 7be5 8bb8 7ac9 213a
00000130: bde6 2439 82b9 0ab9 042f 52bb be64 02b8
00000140: 5831 3ab7 d27e fa38 4639 a4b9 ea3f 26b8
00000150: 242e 9e39 9161 453a ab4a ca37 fadd 8639
00000160: 28fe 50b7 e8e1 5e38 a80f 93b8 2f5e 85b9
00000170: 7d57 afb8 6562 8a38 4efb b538 bb63 69b9
00000180: 30b1 8338 66ff 3838 703a 2f37 ed4e ddb9
00000190: 57bf 2539 4608 8fb9 de08 003a e8fa 7c39
000001a0: 7640 6c38 e7c1 59b9 07ed 08b9 2ebe 0ab9
000001b0: 66d7 69b8 8494 ff38 ce0a 15b8 3128 d5b9
000001c0: d457 abb8 b41b ca36 a613 d1b7 edb0 82b8
000001d0: 7893 47b7 8c8d 8138 cfe8 7c38 d2c7 02b8
000001e0: a06f 31b8 35ff 27b8 e51e 87b7 a22b 2d39
000001f0: 7a2b bab8 3077 9e38 980a 2f39 dddd 3bb8
00000200: 2416 e6b9 ee68 56b8 0c17 bbb8 9dfc 4e37
00000210: 2859 9d37 7d52 deb7 f008 24b8 b6bc e538
00000220: acfa 84b8 f921 15ba 3a99 bd39 c272 37b9
00000230: 8589 92b8 84b5 5137 25fd 2b38 e258 90b8
00000240: 8860 3739 29d4 1839 c033 b0b5 6e6d 27b8
00000250: d3e8 a1b8 8af3 ebb8 a8df 66b8 c0d6 4eb8
00000260: f3b2 77b8 6f7f b638 218c 8cb8 fb3f a938
00000270: 0529 9e36 3207 283a c366 ca37 bd0b ef37
00000280: 4f41 16b9 60d6 68b9 4299 c5b8 ec64 6db8

exp_avg_sq f4 [164]
4.5619007e-07 4.331309e-07 1.4635458e-07 6.545826e-08 9.1891707e-07 9.1514954e-07 8.303787e-08 1.1331379e-07
1.9660831e-07 2.3878593e-07 2.2004895e-07 1.718262e-06 4.214285e-07 4.727681e-08 6.3265794e-08 6.184866e-07
6.8708864e-08 4.9025857e-07 5.893792e-07 7.2198496e-08 6.508662e-08 5.935205e-07 5.8749865e-08 1.6594554e-07
6.229164e-08 9.611327e-08 3.4131693e-07 1.705124e-07 4.1681824e-07 3.5354998e-07 1.2294916e-07 7.847643e-07
1.4039367e-07 1.955066e-06 8.5291774e-08 3.9841387e-07 5.5883458e-08 2.6381346e-07 4.3803222e-08 6.927926e-08
4.402613e-08 1.5962722e-07 3.8661156e-08 1.210012e-07 1.3262503e-07 2.89776e-07 8.8088136e-08 5.613665e-07
2.9173076e-08 4.364013e-07 1.17971155e-07 8.7506365e-08 4.063593e-08 1.4129009e-07 8.713826e-07 1.6693164e-07
2.0469932e-07 5.179876e-07 3.7196137e-06 4.9259893e-07 1.3107241e-06 6.632997e-08 1.8479926e-07 2.7485657e-07
3.266496e-07 1.9884733e-07 1.2494428e-07 1.3796057e-07 4.5309574e-07 9.081357e-08 2.869142e-07 6.293213e-08
1.2895498e-07 1.0377092e-06 1.1783692e-07 2.4423027e-06 3.770535e-07 1.4475592e-07 5.105012e-05 1.0597792e-07
8.8490836e-08 9.8788156e-08 5.0393044e-07 6.122539e-07 1.4461623e-06 1.7377636e-06 3.3353857e-08 2.0434036e-06
2.538971e-07 4.7270394e-08 2.0068552e-07 2.7448937e-07 1.0752853e-07 6.4497334e-07 8.317529e-08 1.8498072e-07
7.3224946e-08 4.5914774e-08 1.9563777e-07 8.01804e-07 2.636127e-07 6.651692e-07 8.800896e-07 3.4093614e-07
2.9766616e-08 1.8436174e-07 8.579764e-08 4.881381e-07 9.9045565e-08 8.0094495e-08 6.0901634e-08 1.1520559e-06
4.676828e-07 4.428214e-08 5.6027655e-08 1.1725327e-07 4.3763535e-07 1.143197e-07 5.7976678e-08 2.5277e-08
3.105504e-08 1.1139349e-07 2.2410687e-07 5.651441e-07 1.1414635e-07 3.1288616e-07 2.7398107e-07 7.810897e-08
6.002604e-07 3.2594352e-07 4.0972492e-07 2.7935863e-07 1.3852278e-07 1.04751265e-07 1.5933412e-07 2.7726736e-07
1.15032606e-07 3.031935e-06 1.5563929e-06 1.033929e-07 2.1690072e-07 4.950505e-08 6.459165e-08 8.195402e-08
1.2545895e-06 1.8015919e-07 1.6664376e-07 1.3890724e-07 7.957201e-08 3.3199154e-07 1.7420723e-07 2.9136953e-07
9.570346e-07 1.5440469e-07 2.6019384e-07 2.0343757e-07 6.51181e-08 3.1318152e-06 5.262092e-07 8.09422e-08
2.0421494e-07 1.8252379e-07 3.1230272e-07 1.7819228e-07
00000000: 49ea f434 0f89 e834 a425 1d34 0f92 8c33
00000010: 80ab 7635 99a8 7535 8d52 b233 ea56 f333
00000020: 481b 5334 7d32 8034 9846 6c34 089f e635
00000030: b140 e234 670d 4b33 bddc 8733 1306 2635
00000040: 198d 9333 509a 0335 d535 1e35 8b0b 9b33
00000050: bfc5 8b33 6b52 1f35 2954 7c33 c32e 3234
00000060: 31c5 8533 d466 ce33 3e3e b734 1716 3734
00000070: 10c7 df34 8acf bd34 0204 0434 98a8 5235
00000080: 1ebf 1634 c733 0336 a629 b733 96e5 d534
00000090: 8304 7033 3fa2 8d34 2722 3c33 adc6 9433
000000a0: 3e17 3d33 ff65 2b34 640c 2633 8eec 0134
000000b0: b167 0e34 8392 9b34 f72a bd33 d0b0 1635
000000c0: 4698 fa32 8a4a ea34 5457 fd33 22eb bb33
000000d0: ad87 2e33 86b5 1734 f5e8 6935 d23d 3334
000000e0: 52cb 5b34 d60b 0b35 7a9e 7936 243b 0435
000000f0: 23ec af35 4971 8e33 3c6d 4634 0090 9334
00000100: 615e af34 bd82 5534 6c28 0634 5022 1434
00000110: 0141 f334 4a05 c333 3009 9a34 4e25 8733
00000120: e076 0a34 6b47 8b35 880d fd33 71e6 2336
00000130: d76d ca34 346e 1b34 a61e 5638 fa95 e333
00000140: 5a08 be33 5d25 d433 d645 0735 c559 2435
00000150: c219 c235 1a3d e935 f440 0f33 6821 0936
00000160: 5a4f 8834 5906 4b33 047c 5734 885d 9334
00000170: 6fea e633 3b22 2d35 199e b233 1d9f 4634
00000180: d73f 9d33 d433 4533 8010 5234 8d3b 5735
00000190: a786 8d34 148e 3235 4c3f 6c35 e809 b734
000001a0: 7bb1 ff32 f8f4 4534 c03f b833 9808 0335
000001b0: e0b2 d433 6a00 ac33 07c9 8233 57a0 9a35
000001c0: d615 fb34 ba30 3e33 0fa3 7033 abcc fb33
000001d0: 25f4 ea34 eb7f f533 0802 7933 b620 d932
000001e0: 6161 0533 3837 ef33 07a2 7034 68b4 1735
000001f0: 9f20 f533 bffa a734 ac17 9334 dcbc a733
00000200: 9521 2135 56fd ae34 2af8 db34 c2fa 9534
00000210: dabc 1434 9ef3 e033 6e15 2b34 56db 9434
00000220: d807 f733 3f78 4b36 41e5 d035 d908 de33
00000230: 37e5 6834 619f 5433 a3b5 8a33 b3fe af33
00000240: 5e63 a835 c871 4134 b0ee 3234 8826 1534
00000250: 2de1 aa33 923c b234 b80d 3b34 866d 9c34
00000260: 7573 8035 70ca 2534 c5b0 8b34 7e70 5a34
00000270: 0ed7 8b33 2d2c 5236 d240 0d35 72d2 ad33
00000280: 2d46 5b34 c2fb 4334 8faa a734 1f55 3f34
