docs/smld/lightning_logs/version_0/checkpoints/epoch=29-step=2940.ckpt (torch, 344011 bytes, 18 tensors)

model.layers.0.weight f4 [164, 2]
000000 ee 98 1e be 90 f7 41 3e 7e 0f 7d 3e 00 33 88 be
       -0.15488026 0.18942094 0.24712941 -0.2660141
000010 82 a8 90 be b2 7a 82 3e 03 66 9d 3e ad a1 59 be
       -0.2825356 0.25484234 0.3074189 -0.2125308
000020 11 62 45 bd 7a a6 46 be 20 3d 1e ba b7 02 ce 3d
       -0.048189227 -0.19399443 -0.000603633 0.100591116
000030 c3 04 11 3e 00 eb 21 3e 69 0a ec bc 65 dd 2a 3e
       0.14161973 0.15812302 -0.028813558 0.16686018
000040 88 0c bc 3d 23 a3 bf bd 39 0d 33 bb 65 af 33 37
       0.09182078 -0.09357288 -0.0027321114 1.0710069e-05
000050 f6 ab 0c be 4b 7f 49 3b 76 c3 5d bd ef 5b 30 3c
       -0.13737473 0.0030746039 -0.054141484 0.010764106
000060 2c 5f d6 bd e9 61 a9 be 17 ae 49 3d f1 6f 16 3e
       -0.10467371 -0.33082512 0.04923829 0.1469114
000070 30 83 0a be 07 ac 73 be 4d ac 90 bd 30 a1 38 3e
       -0.13526607 -0.23796092 -0.07064114 0.18030238
000080 e0 cd 54 3e 09 a9 2e 3e 0f 83 7c 3e 12 c5 b8 3d
       0.2078166 0.1705667 0.2465937 0.09021963
000090 e4 f2 89 be 0a 36 a8 3e a9 65 1a 3e cf 58 d1 be
       -0.26943123 0.3285373 0.15077843 -0.40888068
0000a0 6d af 42 3d d0 7c ce 3d b2 86 07 be f2 c1 84 3e
       0.04753058 0.100824 -0.13234976 0.2592922
0000b0 f1 a3 6c 3d 9e a5 50 bd a1 3b b5 bd ec 3a b0 3d
       0.057773534 -0.050939195 -0.08849264 0.086049885
0000c0 50 00 81 be 3c e2 ae be 17 03 f9 3d 7c 5b 3a bd
       -0.2519555 -0.34156978 0.121587925 -0.045497403
0000d0 44 2f 1f be 46 e8 2a be 46 ad ca 3c ab 36 07 be
       -0.15545374 -0.16690168 0.024740826 -0.13204448
0000e0 54 13 37 3e ac ce c6 3d 71 5a 8d bd 2a 49 44 3e
       0.17878467 0.09707388 -0.06902016 0.19168535
0000f0 45 e5 53 be 39 96 8d 3d 13 7a e7 3e 05 63 8a 3d
       -0.20692928 0.06913418 0.45210323 0.06757168
000100 6b de e4 be 3d 6a 76 3d e5 27 27 bc 88 4c 54 bc
       -0.4470094 0.06015991 -0.010202383 -0.0129577
000110 c9 69 bd bd 8f fb 4b 3e 0d 79 a0 bc 14 13 81 be
       -0.092486925 0.1992018 -0.019588972 -0.25209868
000120 90 ac 4a 3e e1 a7 5b 3d 9c 71 c6 b8 1a b0 70 38
       0.1979239 0.0536269 -9.462537e-05 5.7384466e-05
000130 b9 98 76 3e d2 0c 88 bd e4 5e 93 3e da 75 8a be
       0.24081697 -0.0664307 0.28783333 -0.2704304
000140 8e e6 07 be 9c 7e 21 be c6 fd 67 be 14 44 80 be
       -0.13271543 -0.15770954 -0.226554 -0.2505194
000150 98 f5 b5 3c fe b1 00 bd 74 c8 bd be 99 d8 66 be
       0.022211835 -0.031419747 -0.37066996 -0.22543563
000160 1f 80 26 be 9d a9 8c 3e 30 71 90 3a dd 35 30 be
       -0.16259812 0.27473155 0.0011020061 -0.17208047
000170 1e b9 5c 3e 32 bc d0 bd ce fa 09 be 2c 66 3d 3e
       0.21554992 -0.101921454 -0.1347458 0.18496007
000180 44 b7 fc 3d 52 98 dc 3d da 3b 28 3e b5 7b 6d bd
       0.12339643 0.1077124 0.16429082 -0.057979304
000190 ae 8a 14 be 2d 74 f8 3c 5a 0f 46 bd 1a a1 d3 bd
       -0.14506027 0.030328834 -0.048354484 -0.10333462
0001a0 4b b8 a5 3e bd 93 2d be f9 b8 1b be 5d 25 7e 3c
       0.32367167 -0.16950889 -0.1520728 0.015511838
0001b0 af 09 3a 3d 84 10 dd bc 82 02 77 bd bc be 85 3e
       0.04541939 -0.026985414 -0.060305126 0.2612208
0001c0 74 3d 94 be f0 d4 a6 be b7 12 c0 be a1 bd 59 3e
       -0.28953135 -0.32584333 -0.37514278 0.21263744
0001d0 8b f8 2f 3e ef 2b d6 bd 21 3a 5f 3e dd 1a 10 be
       0.17184655 -0.104575984 0.21799518 -0.14072748
0001e0 d6 51 22 3e c9 ae 75 3e 61 42 78 3d a9 b1 fc bc
       0.1585153 0.23992456 0.06061018 -0.030846434
0001f0 4e 69 3c bd 6b 64 0d bc 1a 99 5a bd 91 de 4c 3e
       -0.045998864 -0.008629899 -0.053368665 0.20006777
000200 c2 f8 47 be 7e 77 1e be bd 6a c5 ba 6b 61 04 ba
       -0.19528487 -0.1547527 -0.0015061718 -0.0005049917
000210 d5 05 bd 3c 0c b2 ce be af 98 e3 be f2 c5 3a 3e
       0.02307407 -0.40370214 -0.44452426 0.18239573
000220 b1 a8 df bc 51 76 72 bd fa 55 0c be 86 87 bd be
       -0.027302118 -0.059194867 -0.13704672 -0.3701746
000230 c7 8d b9 3e 0a 18 9c be 3a 6a aa be f3 6f cc bc
       0.3624098 -0.3048709 -0.3328417 -0.024955725
000240 3c 23 eb bd 82 e2 e2 3e b7 2d 82 be 03 8a 02 bf
       -0.1148133 0.44313437 -0.25425503 -0.5099184
000250 98 db 68 3e 9d dd 00 be 92 f6 b3 bd 74 f5 e7 be
       0.22740018 -0.12584539 -0.08787264 -0.45304453
000260 fb 59 5f 3d d6 4d e6 be 30 c5 7f 3e 95 58 50 3e
       0.05452917 -0.4498126 0.24977565 0.20346291
000270 19 6f 96 3e 24 63 6e bd 18 5b a2 bd a0 a5 dc bd
       0.29381636 -0.058200017 -0.07927531 -0.10773778
000280 fc 00 a2 be fd 06 09 3e a6 e6 c3 bd 4f 6f 31 3e
       -0.31641376 0.13381572 -0.09565477 0.17327617
000290 06 3b 7a 3d 36 e2 f1 bd 26 5e 2c be 79 f9 d5 be
       0.061091445 -0.118107244 -0.1683279 -0.41791895
0002a0 d1 6b 88 3d fe d9 22 3e 8c 09 f6 3d 66 92 9f be
       0.06661189 0.1590347 0.1201354 -0.3116638
0002b0 ec 7d 55 bd 62 7f 94 3d 35 f0 53 be 9c 23 d0 3d
       -0.05212204 0.07250859 -0.206971 0.10163042
0002c0 23 5d 39 3d b9 c2 eb be 30 95 a2 bd 31 fe a9 be
       0.045254838 -0.46047 -0.079386115 -0.33201745
0002d0 b0 5c 88 3e 5f 33 f0 bd 6f e8 e9 be 6d 30 e2 3d
       0.26633215 -0.11728548 -0.45685145 0.11044393
0002e0 3e 00 01 be 81 5b 2d 3e 2a f8 37 bb 34 56 16 bc
       -0.12597749 0.16929437 -0.0028071501 -0.009175826
0002f0 61 9b c0 bd a2 d2 45 bd 15 a6 00 be 45 c3 3c be
       -0.09404636 -0.04829658 -0.12563355 -0.18433864
000300 1d e6 76 be cf ed 4a 3c ad 63 3e 3e 22 cd 86 3d
       -0.24111219 0.0123858 0.18592711 0.06582095
000310 e0 5b 1c be a0 62 41 3d 49 70 4b bd fb f7 c8 bd
       -0.15269423 0.047213197 -0.04966763 -0.098129235
000320 b2 31 16 bd de e8 82 be 84 b4 45 be 25 87 44 be
       -0.036668487 -0.2556829 -0.19307142 -0.19192179
000330 e2 fe 65 b9 0f 4a 8f 3c fd 83 c0 3b e7 02 8d be
       -0.00021934093 0.017491369 0.005875109 -0.27541277
000340 f6 dd 70 3e 13 f0 23 3c 70 55 13 3e 13 ec c0 3e
       0.23522171 0.010005969 0.1438806 0.3768011
000350 5b 56 92 be e4 42 2a be d8 dd e8 be 74 db ad be
       -0.2858151 -0.16627079 -0.45481753 -0.33956492
000360 59 64 be be ea 64 92 be e3 bb 82 be 35 c3 22 be
       -0.37185934 -0.28592616 -0.2553397 -0.15894778
000370 fc 0b b0 bd da bd a2 be 89 c7 ee 3d a4 98 fa bd
       -0.08596036 -0.3178547 0.11659152 -0.12236145
000380 48 a1 f6 bc f0 89 0a bd a3 d5 1b 3c f5 d2 5d bd
       -0.030106202 -0.033822954 0.009511384 -0.054156262
000390 25 a3 d8 bd 27 18 d7 bd c3 10 05 3e 24 90 a2 3e
       -0.10577992 -0.105026536 0.12994675 0.31750596
0003a0 62 ab ac b8 e5 3c 9d 39 9b 35 e5 3d e6 c7 37 be
       -8.233522e-05 0.00029990743 0.11191865 -0.17947349
0003b0 0a 6d b1 be c6 b2 e9 bd fa 3b 72 be 34 21 1d 3e
       -0.34653503 -0.114110515 -0.23655692 0.15344697
0003c0 46 a7 ef be 36 8f 7f be 95 d7 3a 3d 46 dc ad 3e
       -0.46807307 -0.24956974 0.04561575 0.33957118
0003d0 ab 97 3d 3e da d0 3d bc 09 2a 4b be 2d b3 73 3e
       0.18514888 -0.011585439 -0.19840254 0.23798819
0003e0 f6 34 96 3c c5 e3 ef bc b3 2d 35 bd bd 0f fa 3d
       0.0183358 -0.029283414 -0.044233035 0.12210033
0003f0 b7 a0 eb bd 60 cf 9c be b5 6e 28 bd f9 1e 35 be
       -0.11505263 -0.30626965 -0.041121203 -0.17687596

model.layers.0.bias f4 [164]
000000 90 31 67 bf 92 07 94 bf 74 77 e8 be ae d2 ef bf
       -0.9031 -1.156481 -0.45403636 -1.8736169
000010 8d e8 96 3d 64 1c 98 3e 0f 36 81 bf cd df 92 bf
       0.07368574 0.2970916 -1.0094622 -1.1474549
000020 db 9d 3a 3f b6 42 1c be d8 b4 2e 3b af 92 35 bd
       0.7289712 -0.15259823 0.0026658084 -0.04432934
000030 bb 97 02 c0 fa 0c 66 3f f4 67 2b bf 41 fc 1c 3b
       -2.040511 0.8986355 -0.66955495 0.0023954066
000040 8f 01 00 c0 29 65 13 c0 be 80 78 bf ea 77 9a bf
       -2.0000951 -2.3030493 -0.97071445 -1.2067845
000050 3c d1 1e 3f 16 58 58 bf 3a 8b 6f 3e 97 63 59 bf
       0.62038016 -0.8450941 0.23392954 -0.8491759
000060 42 26 0f c0 9c c9 10 3f 81 2e f1 3f 56 63 d0 3e
       -2.23671 0.5655763 1.8842317 0.40700787
000070 1e 34 85 be e9 b3 8b bf 2a 28 db 3f 63 bd 7e bf
       -0.26016325 -1.0914279 1.7121632 -0.9950773
000080 ee 51 a8 be 8e 5e 55 bd be db 12 3f 52 00 50 bf
       -0.32875007 -0.052092128 0.5736655 -0.8125049
000090 5a 48 0a 3f fa 36 ab ba 52 fa 02 c0 d7 c0 40 c0
       0.5401665 -0.0013062649 -2.0465283 -3.01177
0000a0 62 b4 fb be 75 65 17 bf 5a 28 61 3d 98 b0 c9 bf
       -0.4916106 -0.59139186 0.054970123 -1.5757017
0000b0 09 de e7 bf ba 1c 13 bf 0c c9 87 3f dc b2 ac bf
       -1.8114635 -0.5746571 1.060823 -1.3492084
0000c0 c2 db bd bf e4 eb 46 3f 32 72 cb bd 53 46 55 3e
       -1.483269 0.7770369 -0.099338904 0.20827608
0000d0 e7 ed 26 bf cd 3f 1e be 1e b3 81 bf 70 56 9c bf
       -0.6520676 -0.15454026 -1.0132787 -1.2213879
0000e0 b3 b1 e3 be e7 7f 5b 3f 5d 8d 39 3f 7b e7 63 bf
       -0.4447151 0.8574204 0.7248133 -0.89025086
0000f0 01 c4 29 c0 5d 94 8f 3f 3b 2a d8 3d 56 25 a5 bf
       -2.6525881 1.1217152 0.1055493 -1.2902019
000100 00 05 d5 3c 52 3a 05 3e d0 e6 b0 bf ba 82 86 bf
       0.02600336 0.13010529 -1.3820438 -1.0508645
000110 25 0d d3 3e ac 1a 58 bf 83 58 e1 bf 18 37 1f 3f
       0.41220966 -0.844157 -1.7605137 0.6219344
000120 a0 99 8f 3f b3 1f a0 bf 97 3d e9 bf 19 8c 9f bf
       1.1218758 -1.2509674 -1.8221921 -1.246463
000130 dd 0f b7 bf fd b1 3f c0 a3 9a 55 bf eb e6 75 3f
       -1.4301716 -2.9952385 -0.8343908 0.9605548
000140 57 f8 a3 bf d4 19 c6 be 26 c1 1b 3f 10 e7 c9 bf
       -1.2810162 -0.3869158 0.60841596 -1.577364
000150 4f 61 79 3f 9a 64 ad bf 90 2f 54 bf 62 bc 79 bf
       0.97414106 -1.3546326 -0.82885075 -0.97553074
000160 d3 4c 92 bf 0f 4e 04 c0 3c b3 0c c0 c3 47 60 bf
       -1.1429695 -2.0672643 -2.1984396 -0.876095
000170 df c6 89 3e 28 9a 87 be dd 50 a0 3e 7d 04 0b 40
       0.2690954 -0.264848 0.31311694 2.172149
000180 67 c3 70 bf 9e a7 b5 bf 5d 6b cd 3d 5a 83 88 3f
       -0.9404816 -1.4191778 0.100302435 1.0665085
000190 76 00 e4 bf 98 c9 13 40 57 90 0f bf d7 2a 8e bf
       -1.7812641 2.3091793 -0.5607962 -1.1106824
0001a0 af 88 03 c0 57 92 7a c0 54 c9 55 3f 74 36 14 c0
       -2.0552175 -3.9151819 0.8351033 -2.3158236
0001b0 dc 51 f7 bf cb 66 ee bf d7 fe fa bf 79 3e 40 3c
       -1.9321856 -1.862512 -1.9609021 0.011733645
0001c0 36 4e fd 3c b6 7b bf 3f b3 33 b2 3f 87 6c c7 bf
       0.030921083 1.4959629 1.3922027 -1.5579995
0001d0 87 ea 0b bd 4a 13 8d bf 2b 8c 8a bf 30 41 98 bf
       -0.03415921 -1.1021512 -1.0824026 -1.1894894
0001e0 5d 25 e1 bd 9b 59 5b c0 c6 86 03 bf 5d 52 84 bf
       -0.109934546 -3.427344 -0.5137752 -1.0337635
0001f0 18 a1 82 be b3 e4 38 bf 72 5c 98 3f 39 fd 98 bf
       -0.2551353 -0.7222397 1.1903212 -1.1952277
000200 7d 4d df bf 4c c4 95 bf 13 ee 4d c0 93 1d 18 bf
       -1.7445523 -1.170053 -3.217656 -0.59420127
000210 aa 80 cc bf 02 ca 2b bf 54 20 41 bf e4 b1 b5 bf
       -1.5976765 -0.67105114 -0.75439954 -1.4194913
000220 67 26 33 3f 83 c0 81 bf 9a cc 6a 3e cc 48 30 c0
       0.6998047 -1.0136875 0.22929612 -2.7544432
000230 77 24 d7 3e a5 c1 e1 bf 0d 1e bd 3c 5f a3 fd bf
       0.42020008 -1.7637221 0.023085618 -1.9815482
000240 7d 03 8e bf cc 62 ec bf 64 0e 20 bf 06 22 78 bf
       -1.1094815 -1.846765 -0.6252196 -0.96926916
000250 33 e9 c4 3b 1d 7c 6e 3e 80 06 26 3f a7 86 9f bf
       0.006009245 0.23289533 0.6485367 -1.2462968
000260 0d ac a5 bf e8 dc a7 be e3 70 23 3f 1f 54 0e bf
       -1.2943131 -0.32785726 0.63844126 -0.5559711
000270 7c e7 d9 be 5f a7 fb 3e f3 3c 8f bf e0 a7 44 3d
       -0.4255942 0.49151132 -1.1190475 0.04801166
000280 47 c5 6e bf 66 84 25 3f 9d 21 da bd 0d 93 52 3f
       -0.9326977 0.6465515 -0.106509425 0.8225563

model.layers.2.weight f4 [164, 164]
000000 9e 0d 89 3d b5 9b 06 bc c7 30 8c 3c 0c c0 47 bd
       0.066920504 -0.008215834 0.017113103 -0.048767135
000010 cf a3 fb bd e4 8c ca 3c 47 ec 77 bd 2f bc d9 bd
       -0.122871034 0.024725385 -0.060528066 -0.10631596
000020 d5 65 cc bd 63 15 9f bb 2d 17 e7 bc 60 b8 c4 bd
       -0.099803604 -0.0048548444 -0.028209293 -0.09605479
000030 b1 66 5f bc fb e8 6b bd d1 ad 02 bc 0e a0 49 bd
       -0.013635323 -0.057595234 -0.007976011 -0.049224906
000040 e7 3e 2d bd 91 b2 76 bd 4f 0a cc bd c7 3b 85 bd
       -0.042296316 -0.060228888 -0.09962904 -0.06505542
000050 11 a5 bd bc 64 87 9f bd 32 18 c3 bd 92 db 1a bc
       -0.023149999 -0.077894956 -0.09526099 -0.009451764
000060 9f 86 bd bd de e2 8c bd ad 7c 00 bd 7b 74 c7 bd
       -0.092541926 -0.06879209 -0.0313689 -0.09739014
000070 c9 5a e9 39 d0 c3 fc bd be 81 03 be 86 d1 0a be
       0.00044508863 -0.12342036 -0.12842461 -0.1355649
000080 29 44 ee bb 08 dd 35 bd d2 c0 ec bd b5 1e 13 bd
       -0.007271309 -0.044400245 -0.11560215 -0.035917956
000090 bf 68 7a bd 0a cb 62 bc 55 1e 41 bd 11 cd ce bd
       -0.06113505 -0.013842354 -0.047148068 -0.10097707
0000a0 1c a0 ed bb d6 1e 0d be fd 64 57 bd 58 44 db bd
       -0.0072517525 -0.13781294 -0.052586544 -0.10706395
0000b0 00 ed 9e bd 62 61 d4 bd ba a1 0c be 89 97 09 bc
       -0.07760048 -0.10370137 -0.13733569 -0.008397945
0000c0 b1 71 25 3c 2b ad 9e bd 6d 6b f0 bd 63 08 3d 3c
       0.010097907 -0.07747873 -0.1173924 0.011537644
0000d0 c0 b1 08 bd 3f eb 22 bb 8b 78 0a bb 91 c7 44 3b
       -0.03337264 -0.0024859456 -0.0021128978 0.0030026177
0000e0 85 a8 91 bd a2 cc d5 bd 02 80 37 3c 6a 38 87 bd
       -0.07112221 -0.10439421 0.011199953 -0.06602557
0000f0 1f 98 9a bd de bb 58 bc d5 8c 28 bd e9 2b c1 bd
       -0.07548546 -0.013228385 -0.041149933 -0.09432203
000100 82 33 f5 bb 87 b3 aa 3c 8c 37 86 bc 1b 67 90 bd
       -0.007482947 0.020837558 -0.016383909 -0.07050916
000110 52 a9 48 bb 09 e6 cd bd e5 fd 07 3c 29 2d d7 bd
       -0.00306185 -0.10053641 0.008300279 -0.105066605
000120 0c be 03 be ff 7a 0a be 03 58 ee bd 61 41 05 be
       -0.12865466 -0.13523482 -0.11637881 -0.13013221
000130 70 f1 f7 bc c2 f5 c1 bd 6e b0 fc bd ac 89 c8 bb
       -0.030266494 -0.09470703 -0.12338339 -0.0061199274
000140 d5 ee b6 bd 36 1c fd bd 2a 8d f4 bd 58 16 34 bc
       -0.08932272 -0.123588964 -0.119409874 -0.010991655
000150 4b 5d e2 bd e1 e2 21 bd 38 10 c4 3c 58 48 0c be
       -0.110529505 -0.03952301 0.023933515 -0.13699472
000160 06 c1 2d bc 35 00 a0 bc b8 46 c2 bd 8e 2e 93 bd
       -0.010605102 -0.019531349 -0.09486145 -0.07186614
000170 b8 a5 4d bd 92 d2 96 bb 7f f4 ea bd 7d 4c 16 bc
       -0.05020687 -0.0046027387 -0.11472415 -0.00917351
000180 0f a9 20 bd 54 60 02 bd 6e 2e 04 bd e0 6b f8 bd
       -0.039223727 -0.031830147 -0.03227084 -0.121299505
000190 80 c7 d7 bd 88 17 a2 bd 5e 3a e2 3c d8 a1 d4 bb
       -0.105360985 -0.079146445 0.027615722 -0.00648902
0001a0 d7 a5 ee bb 8f 6c 96 bd 29 0d 35 bd b8 cd 1a bd
       -0.0072829532 -0.07344925 -0.044202004 -0.037793845
0001b0 7b 4e 25 bc 40 73 fd bd a6 39 8d bd 97 2b 1e bd
       -0.010089512 -0.12375498 -0.06895761 -0.03861579
0001c0 a6 14 87 bc 36 fe bb bd 23 4b 3f bd ed 89 2f 3d
       -0.016489338 -0.09179346 -0.046702515 0.042856146
0001d0 47 91 00 bd eb bf a7 bd 07 12 1b 3b af b5 08 bd
       -0.031388547 -0.08190902 0.0023661868 -0.033376392
0001e0 a0 54 9b bd 26 5e 4d bc 12 bb 95 bb 3f 4e eb bd
       -0.075845 -0.012534654 -0.0045694197 -0.11489534
0001f0 24 72 54 bd a6 84 fb bc dc d9 c6 bc 4b b4 e9 bd
       -0.051866665 -0.0307029 -0.024273805 -0.11411341
000200 9c b8 37 bd 86 60 f2 bd 83 d5 05 bd 6d 4c 0c bc
       -0.04485379 -0.11834817 -0.032674324 -0.008563143
000210 38 88 f5 bd 8a 45 07 be 4f 86 55 bd 61 0c 9b ba
       -0.11988872 -0.13210121 -0.05213004 -0.0011829251
000220 4b d1 05 3d 15 9c 11 bd 62 47 c4 bd ee fb 8d 3c
       0.0326703 -0.035549242 -0.09583928 0.017332043
000230 6c 0c 9f bd 52 69 fb bd 5c 54 42 bd 22 bb e8 bc
       -0.07766041 -0.12275948 -0.047443733 -0.028409544
000240 33 c9 8d bc d2 40 a0 bd 04 e6 09 be 70 ec 2c bd
       -0.017307853 -0.078248635 -0.1346665 -0.042217672
000250 d8 df 06 bc 9d d8 03 be 01 d1 e3 bc ff 1b 55 bd
       -0.008232079 -0.128756 -0.027809622 -0.052028652
000260 79 ea 5c bd 7c 02 68 3c d0 ab 7b bd e6 c3 8e bc
       -0.053934548 0.014160749 -0.06144315 -0.017427396
000270 93 a1 93 3c 05 a7 f8 bd 19 99 c0 3b 59 f4 e5 bd
       0.01802138 -0.121412314 0.0058776257 -0.11228246
000280 5d 5c d8 bd 53 88 03 be b7 f4 a5 bd d9 1e 96 bc
       -0.10564492 -0.12844972 -0.08103316 -0.018325256
000290 bb 5e a9 ba 18 ca bb bd 36 90 ce bc 2d a0 ad bc
       -0.0012921909 -0.09169406 -0.02521525 -0.021194542
0002a0 67 2e 0d be a4 57 8e 3c c1 94 9b 3d 3e 46 b0 bd
       -0.13787232 0.017375775 0.07596732 -0.08607148
0002b0 d6 c0 6b bd 5f c2 fd bd 71 5d a8 bd f9 6f b2 bd
       -0.05755695 -0.12390589 -0.082209475 -0.08712763
0002c0 2b c6 e4 bd cb bc 0a be 8a a1 8a 3c 6b 62 f8 bd
       -0.1117061 -0.13548581 0.016922731 -0.12128147
0002d0 36 c6 cd bd 56 92 27 bd dd 84 02 be 42 c0 db bb
       -0.10047571 -0.04091104 -0.12745996 -0.0067062685
0002e0 7a da a7 bb ae 5d d2 bc 9c 7b 69 bd 31 3e a8 bd
       -0.00512248 -0.025679436 -0.05700265 -0.08214987
0002f0 e6 75 b5 bd d6 6a 0c be 4e 75 86 bd 9a 19 29 bd
       -0.08860378 -0.1371263 -0.06565343 -0.04128418
000300 db 2d be bd a5 31 e4 bc a7 3c 08 bd 38 7c 8f bd
       -0.0928609 -0.027855704 -0.033260968 -0.07006115
000310 eb 1e 8f bd 7a bf 3c 3c 04 3c c7 bd bb 41 c4 bd
       -0.06988319 0.011520261 -0.09728244 -0.095828496
000320 b2 de c6 bd 3e fa e1 bd 17 a2 f0 bd 65 b1 1a bd
       -0.097104445 -0.11034058 -0.11749666 -0.037766833
000330 97 bc df bc 89 02 09 bb a9 1b 16 3c 6f 30 ae bc
       -0.027311606 -0.0020906052 0.009161868 -0.02126333
000340 e7 cc 7d bc d3 6b fb 3b c5 87 1e bd 58 ae 0a 3c
       -0.015490747 0.0076727658 -0.0387037 0.008464418
000350 67 c9 b4 3b 4c 3c 78 3c 0b ae f9 bd c2 5f 03 be
       0.005517173 0.015151095 -0.12191399 -0.12829497
000360 1b ca 25 bd dc ae 20 3b e8 7c fc bd e3 79 a6 3c
       -0.040475946 0.0024518287 -0.123285115 0.020321792
000370 d8 fb b5 bd 1c bc b0 bd a5 28 b2 bb e0 a7 0e bd
       -0.08885926 -0.08629629 -0.005436974 -0.034828067
000380 71 fb f9 3a 2e c9 59 bd 29 14 26 bd 14 6c 78 3c
       0.0019072128 -0.053170376 -0.04054657 0.015162487
000390 e1 a2 b2 bc 1a 18 ae ba 8a 44 a5 bd fb f4 fb bb
       -0.021806182 -0.0013282329 -0.080697134 -0.007689116
0003a0 ce 4b fc bd f0 9e 45 bd 6b b3 9a bd 34 b1 ed bd
       -0.12319146 -0.048247278 -0.075537525 -0.116060644
0003b0 ff d5 9f bc 6d cb a5 bd f5 40 09 be ab 66 7c bb
       -0.019511221 -0.08095441 -0.13403685 -0.0038513343
0003c0 c2 57 8c bd 41 50 de bb 77 14 f6 bd a0 8e d3 bd
       -0.06852676 -0.0067844694 -0.12015622 -0.10329938
0003d0 1d 2d 30 bd df 3a c8 bd 23 cc dc bd 65 17 83 bd
       -0.043011773 -0.09776854 -0.107811235 -0.064009465
0003e0 a7 be cc bd 2b 61 fa bd 75 f7 2c bd 95 de 58 3c
       -0.099973015 -0.122255646 -0.04222818 0.013236661
0003f0 66 82 f0 3a 5d cb c2 bd 56 7f f7 bd d7 2f a9 bd
       0.0018349409 -0.09511445 -0.12084834 -0.08261078

model.layers.2.bias f4 [164]
000000 cc 5c ed bd 44 09 ef bc 0a 6b 83 bd ed 99 c7 bd
       -0.11589965 -0.029179223 -0.064169005 -0.09746156
000010 22 79 d6 bc 33 b2 e5 bd 72 cf 0b 3d 3d 59 db bc
       -0.026180808 -0.112156294 0.034133382 -0.02677595
000020 9a 62 6c bd 3e 67 15 be 7a 9a a5 bd 0f b9 89 3c
       -0.05771122 -0.14590165 -0.08086105 0.016811876
000030 03 11 0c bd 07 1f 45 3a 74 e5 36 3c a4 ef da bc
       -0.03419591 0.0007519577 0.011163104 -0.026725598
000040 c2 99 f0 bd 96 63 0d 3c 40 d5 8f bd b7 4a c6 bd
       -0.11748077 0.0086297 -0.07023096 -0.096822195
000050 65 87 52 bc 22 43 3c ba 2f 99 da bb a5 b7 f5 bd
       -0.012849663 -0.00071816344 -0.006671093 -0.11997918
000060 98 d8 e8 bd 3c 32 ac bd ab e0 b0 bd 1d 42 b4 bd
       -0.11369437 -0.08408019 -0.08636602 -0.088016726
000070 58 44 07 bd f4 9e 05 3d 66 34 89 be 80 46 90 bc
       -0.033024162 0.032622293 -0.2679779 -0.017611742
000080 a6 67 98 bd a8 88 28 bd be 41 84 bd 4e 00 84 bd
       -0.07441644 -0.04114595 -0.06457852 -0.064453706
000090 a7 02 76 bc a4 17 e0 bd 7e 59 e0 bc 27 50 6c bd
       -0.015015281 -0.10942009 -0.027386423 -0.057693627
0000a0 00 c0 54 bd b1 8e df bc 27 49 0b be 4e 43 f2 bd
       -0.051940918 -0.02728972 -0.13602124 -0.118292436
0000b0 4f 0c d2 3b 5f eb 3d bd 72 dc 85 be e5 10 7e bd
       0.0064101587 -0.046367045 -0.2614475 -0.06202783
0000c0 f9 ab 93 bd be 47 eb bb 3f 13 1d bf be 2f 26 bd
       -0.072105356 -0.007180183 -0.6135749 -0.040572874
0000d0 06 fa 42 bd 28 31 ee bd 64 9a c8 bd bc 7c 7b bd
       -0.047601722 -0.116304696 -0.09795073 -0.061398253
0000e0 18 e7 1b bd b7 d8 09 bd 5a e4 43 bd f7 b7 c9 3c
       -0.038062185 -0.03365394 -0.047825195 0.024623854
0000f0 a1 0c 75 bd 1b a0 b6 bd fc dd 94 bb 85 25 e6 bd
       -0.059826497 -0.089172564 -0.004543064 -0.11237625
000100 6d 25 bd bd 21 7c b8 bd 9e 8d 69 be fd 44 4f 3b
       -0.09235654 -0.09008051 -0.22807929 0.0031626814
000110 89 a5 9f bc 5d 1f 7e bd ad da 53 3c 1a 63 ed bd
       -0.019488113 -0.06204163 0.012930554 -0.11591168
000120 d5 c2 b9 3c 1d 86 e5 bc b1 40 e1 bd d4 63 9d bd
       0.022675911 -0.028018052 -0.10998667 -0.07685056
000130 f2 38 66 bd 47 87 e2 bd 1a 8b ad bd 96 d7 6b bf
       -0.05620665 -0.11060958 -0.08473797 -0.92125833
000140 71 ea a7 3c e8 c1 4d bd 8e 26 dc 3c 8e 00 eb bc
       0.020497533 -0.05023375 0.026873853 -0.028686788
000150 28 d0 b7 bd a1 a2 8f bd f6 af a3 be d5 02 05 bd
       -0.089752495 -0.07013441 -0.31970185 -0.032473404
000160 ce 2a 0c be 87 0b fe bd 06 4f 20 bd e2 83 74 3b
       -0.13688204 -0.124045424 -0.039137863 0.0037310054
000170 be 75 a4 bd 5c 55 81 bd e2 24 94 bd 9b 76 8c bd
       -0.0803027 -0.06315109 -0.07233597 -0.0685856
000180 58 40 6a be 70 28 82 be a0 b8 30 3d a6 d6 1d be
       -0.22876108 -0.25421476 0.043144822 -0.15413913
000190 16 f0 4c bb 13 5b ed bd b7 b5 c8 bd b2 aa 00 bc
       -0.0031271032 -0.11589637 -0.09800284 -0.007853197
0001a0 dc aa 22 be 2e 57 9c bd 7b 8d d9 bd 3b 5a b6 bd
       -0.1588549 -0.07633816 -0.106226884 -0.08903929
0001b0 6a be 99 bd 9c 56 e9 bc d9 e0 db bd c8 9b c8 bc
       -0.07507022 -0.028483681 -0.10736246 -0.024488345
0001c0 ac 79 74 be 22 e0 83 3a b0 71 b0 bd e1 40 0c be
       -0.23874539 0.0010061304 -0.08615434 -0.13696624
0001d0 bb 95 fc bc 19 b2 8a bf 30 71 b9 bd e6 d3 66 3c
       -0.030833116 -1.0835601 -0.09054792 0.014088606
0001e0 d8 02 6a bc 6e 10 6e bd 6e 0b 1d bd 11 7b a2 bc
       -0.014282905 -0.058121137 -0.03834098 -0.019834073
0001f0 63 1b f9 3e f3 09 ad bc 7f 62 df bd 9f bd 59 bd
       0.48653707 -0.021122908 -0.109074585 -0.053159352
000200 5c d3 03 be 04 b0 d0 bd 63 b9 d2 bd de ee a7 bb
       -0.12873596 -0.10189822 -0.10289266 -0.0051249107
000210 03 8b c6 3c 00 c7 01 be a4 fc e1 3c 02 aa d3 be
       0.024236208 -0.12673569 0.027586289 -0.41340643
000220 58 2a 39 bd 8c 1a 07 bc b0 bb 7d bd 89 23 72 3c
       -0.045206398 -0.008246075 -0.06194657 0.01477898
000230 08 5d 18 bd cb c4 b5 bd 34 99 e3 bd bc f0 6e bd
       -0.037198097 -0.08875426 -0.111132056 -0.05833505
000240 fd 8b 01 bc 80 f6 d2 3c 8d 7c f8 bd e1 30 9b 3e
       -0.007906911 0.025752306 -0.12133131 0.3031073
000250 d3 45 4e bd f0 52 b1 bc f0 af 15 bd 67 0d 05 be
       -0.05035956 -0.021645993 -0.03654474 -0.12993394
000260 65 09 85 bd a0 bc be bd 7f 02 2d 39 b2 4f db bd
       -0.064959325 -0.09313321 0.00016499496 -0.1070856
000270 b0 45 ed bd bc 77 fa 3c 31 78 a2 be 96 9f 4d 3c
       -0.115855575 0.030574672 -0.31732324 0.012550255
000280 cf ff 10 3c 9a d0 0d 3c a1 cb bd bd 10 d9 5e bd
       0.008850052 0.0086556915 -0.09267355 -0.054406226

model.layers.4.weight f4 [2, 164]
000000 e2 0b 68 3d 23 07 33 bd 27 54 a9 3d 70 51 d4 bc
       0.056651957 -0.043707978 0.08268004 -0.025917739
000010 f5 8a 8b 3d 91 7b c7 3b 47 4f a0 bd 4e 38 4e bc
       0.06813613 0.0060877283 -0.07827621 -0.012586666
000020 43 b8 1e 3b 16 5b a4 3e 30 96 aa bd cd 68 d9 bd
       0.0024218715 0.32100743 -0.08329427 -0.10615692
000030 34 59 7d bb 09 1a 7e b9 43 9e 9f 3c 47 d0 87 3c
       -0.0038657906 -0.00024233026 0.019484645 0.016578807
000040 e5 5a 75 3d 4d 26 9d 3a 2e 94 1e bc ab b8 c8 3c
       0.059901137 0.0011989564 -0.0096788835 0.024502119
000050 89 14 72 bc 9d 12 7e 3d a1 33 e8 3b 8d 47 18 3d
       -0.014775404 0.06202947 0.007086233 0.03717761
000060 f9 bf d4 3c b0 95 80 3d 87 31 1b bc 3e d0 0b 3d
       0.025970446 0.062785506 -0.009472257 0.034134142
000070 63 6b cd 3d de 10 13 bc 20 41 1b be 72 f3 c7 bc
       0.10030248 -0.008976189 -0.15161562 -0.024408076
000080 fa e0 e4 bc 4f 12 d7 bd d8 61 43 3d 6f a2 9b 3d
       -0.027939308 -0.10501539 0.047700733 0.07599341
000090 05 51 ca 3d 94 8d 23 bc 5b 33 73 bd 14 97 d9 bb
       0.098787345 -0.009982485 -0.05937515 -0.0066403244
0000a0 c5 3e ad 3d 1e 55 20 3d a2 8c 4f 3b 8e c3 28 bd
       0.08459238 0.039143674 0.0031669517 -0.04120212
0000b0 8b 89 18 3d 56 9b 93 bd 11 6e 18 bc 82 b9 24 3c
       0.037240546 -0.07207362 -0.009303586 0.010053994
0000c0 4b 11 e9 3d 51 04 fb 3c 8f d8 2b bc ea 95 cf 3d
       0.113802515 0.030641707 -0.010488643 0.10136016
0000d0 b3 38 02 3d 43 73 ad 3c 40 58 c7 3d 28 4b f7 3c
       0.031792354 0.021173125 0.09733629 0.030187204
0000e0 bd e3 16 3a 56 59 dc 3b c3 f8 3f bc 49 c5 86 3d
       0.00057559815 0.006724517 -0.011717024 0.06580598
0000f0 8b b9 e7 3b 62 92 1b bd 4c 51 3f bc 40 33 e5 bc
       0.007071679 -0.0379814 -0.0116770975 -0.02797854
000100 51 06 c5 bb 9d 43 f7 3b 9c 4f 80 be fe 79 5b bb
       -0.006012716 0.007545902 -0.25060737 -0.003348946
000110 18 52 96 3c 2d 7d 3c bb 30 f0 d1 bb 7c af fa bd
       0.018349692 -0.0028761134 -0.0064068064 -0.12240502
000120 e4 e1 6e 3d 13 86 c2 bc a6 e6 b8 3c 3b 0c af 3c
       0.058320895 -0.023745572 0.02257092 0.021368137
000130 da f4 f7 3d c4 93 b0 3b 0b 86 68 3c ce 56 d7 be
       0.121072486 0.005388709 0.014192115 -0.42058414
000140 72 6e 33 3d 3d 12 ec 3c 9b 97 b5 bc 44 26 93 3d
       0.0438065 0.02881729 -0.022167018 0.07185033
000150 c1 42 5d 3c 1e 90 d6 bb 1f f4 8b be b5 ca 40 3d
       0.013504685 -0.006547942 -0.27334687 0.047068316
000160 98 07 0e 3f f7 f6 20 3d 26 de 07 3d 3e bd 94 3d
       0.5548034 0.039298024 0.03317084 0.072626576
000170 0e 9e 42 bd 52 b3 11 3e 0e 48 c9 bc 94 67 f4 3d
       -0.047514014 0.14228562 -0.024570491 0.119338185
000180 7c d8 c2 bd 25 fc d5 bd c7 64 86 bd 31 ea 03 be
       -0.09513947 -0.104484834 -0.065621905 -0.12882306
000190 de 5c 05 bb d4 41 5e 3d b7 79 1c bb ce ec af bd
       -0.0020349543 0.054261997 -0.0023876259 -0.08590089
0001a0 81 f5 e9 bd 7a 76 73 3d bd b7 b4 3d eb d1 94 3d
       -0.11423779 0.05943916 0.08824108 0.07266601
0001b0 3c b2 4c 3c 2f 35 52 bd 79 45 24 bc 2b 45 05 3d
       0.012493666 -0.05132025 -0.010026329 0.032536667
0001c0 d0 da 92 3c 2b e8 6f 3d ca 94 24 bc d5 1d 22 3d
       0.017926604 0.058571022 -0.01004524 0.03957923
0001d0 cd d0 3a bd 25 0a 79 3e c6 c8 2d 3d af 76 19 bc
       -0.045609284 0.24320276 0.0424278 -0.009366675
0001e0 94 4d c0 bc d6 bf b3 3c df e0 24 bd c2 ca aa 3d
       -0.023474492 0.02194206 -0.040253516 0.08339454
0001f0 6a cc b5 3e a4 99 0d 3a ad 90 56 3d 4c 1d 61 bb
       0.35507518 0.00054016174 0.052384067 -0.0034349738
000200 06 42 27 bc d7 bf f1 bc f7 32 ce 3d 92 aa 21 bd
       -0.010208612 -0.029510422 0.100683145 -0.03946931
000210 b0 27 86 3c f9 d9 99 3d 6f 4c a9 bb b4 62 b3 bd
       0.016376346 0.07512278 -0.0051665823 -0.087590605
000220 cb 4b 92 3c de 3c 8d bb 7f 12 48 bc 76 da ac 3d
       0.017858407 -0.0043102344 -0.012211441 0.084401056
000230 58 6c 9c 3d 66 ae 50 3d d9 6b a5 bd bf 6e 1d bd
       0.076378524 0.05094757 -0.08077211 -0.038435694
000240 5d 12 05 3d cd 33 86 bc a6 bb c9 bc a6 1b 4d 3d
       0.032488216 -0.016382122 -0.02462561 0.050075196
000250 30 79 c8 bc d6 0e d9 3d 99 db 37 3c 40 f7 c4 3d
       -0.02447185 0.10598533 0.01122179 0.09617472
000260 ce 7b 3c bc 87 ca d9 bc 8b be 78 3c 22 c7 80 bd
       -0.011504127 -0.02658583 0.015182148 -0.062879816
000270 9e 19 e8 3c e8 73 f2 3b 75 e8 51 3d 37 d1 7a 3e
       0.028332528 0.007399071 0.05124708 0.24493872
000280 16 f3 7f bd 4c 4f 26 3d 99 2d d0 3c 66 8b 91 3b
       -0.062487684 0.040602967 0.025412368 0.0044416664
000290 24 77 4a bd ed 30 56 bd b1 9a a9 3c a0 5a 88 3c
       -0.049430028 -0.052292753 0.020703645 0.016644776
0002a0 12 d4 57 bb 6b 64 47 3d 8d 95 56 bd cc b2 c8 3b
       -0.00329328 0.04867975 -0.052388716 0.00612483
0002b0 db 5c 71 3d 84 f5 be bc 65 b0 19 3c 30 37 1f bc
       0.058926445 -0.02331043 0.009380435 -0.009717748
0002c0 00 d0 b0 3a 42 77 87 bb fb 90 80 3c be e0 f9 bc
       0.0013489723 -0.0041340897 0.015694132 -0.030502673
0002d0 da bd 1f 3d 83 85 3b 3c a3 fb 5f bd 5a 81 5f bc
       0.038999416 0.011445406 -0.05468334 -0.01364168
0002e0 de 54 6b bc 44 e3 0c 3b 3d 86 e3 bb 5a b6 c9 3c
       -0.014363496 0.0021497766 -0.0069434927 0.024623085
0002f0 9c 0e 0b bd 68 b2 d6 bc 31 04 d3 bc cf 91 87 bc
       -0.03394948 -0.026208118 -0.025758835 -0.01654902
000300 39 4f b8 bc 9b 49 90 bc 81 80 39 bc 28 41 90 3b
       -0.022498714 -0.017613223 -0.011322142 0.0044022985
000310 d3 7b fa 3c 7d 3d cd bc 25 4e 0b 3b 74 35 57 bc
       0.030576622 -0.025053734 0.0021256295 -0.013135303
000320 c9 ab 02 bd 01 d8 01 bc e6 4d 75 3c d6 30 4a bb
       -0.03190211 -0.0079250345 0.014972186 -0.0030851862
000330 27 0d 84 bc f7 b1 61 3d 5b ed 0d 3d 72 ec 8b bd
       -0.016119553 0.05510136 0.034650188 -0.06832208
000340 d6 c5 7a bb c4 19 00 bd 85 48 3f 3b 80 f3 24 3d
       -0.0038264892 -0.031274572 0.0029187512 0.040271282
000350 b2 7a 26 3c dc 7a d2 bc 34 80 a1 3e d2 d4 d8 3c
       0.010161089 -0.02569335 0.31543124 0.026468668
000360 83 46 5c bc ed 1f da bc 6d 8f 74 3c 26 27 0e bd
       -0.013444546 -0.026626552 0.0149267735 -0.034705304
000370 3d ea 1b 3d a9 4e 87 bd 8f dc 32 3d 53 a8 2e bc
       0.038065184 -0.066068 0.043667372 -0.010660249
000380 ff 81 ba 3b 22 97 58 3a e1 ae 48 3c ac 32 1a 3d
       0.0056917663 0.00082622666 0.012248726 0.03764598
000390 8b a5 83 3d b2 31 87 bd 34 88 4a 3e 7e 7a 44 bd
       0.06428059 -0.066012755 0.1977852 -0.04796838
0003a0 c1 27 db 3c 94 7d 9e bd 72 05 3b bc d0 2d fe bc
       0.026752355 -0.07738796 -0.0114148725 -0.031027704
0003b0 57 d5 ee 3c 65 7d 7c bd b8 d5 65 bc 1b 24 23 3d
       0.029154463 -0.061643023 -0.014028005 0.039829355
0003c0 13 50 ea 3c a4 48 2f 3a 8e 32 a9 bc 20 42 7d be
       0.028602635 0.00066865445 -0.02065399 -0.24732256
0003d0 68 b5 42 bc 51 fd 0d 3c 5d a3 22 3d af 07 0b bd
       -0.011884071 0.008666352 0.039706577 -0.033942875
0003e0 ad a3 5e bd 2a e1 b8 3b ba 5c 53 be cf f6 de 3a
       -0.054355312 0.005642076 -0.20640841 0.001701081
0003f0 ba 87 b4 3e 84 6b d0 bc 21 73 61 bc a4 48 59 bb
       0.352598 -0.025441892 -0.013760359 -0.003315487

model.layers.4.bias f4 [2]
000000 2d e3 af bf 1b 13 63 bf
       -1.3741204 -0.8870103

exp_avg f4 [164, 2]
000000 70 9b 63 b9 04 77 0d bb cb 78 07 bb 1a 48 76 ba
       -0.00021706312 -0.0021585831 -0.0020671363 -0.0009394899
000010 c5 d5 a9 3a b2 6c 73 3a 73 63 60 bb 62 ba 87 b9
       0.0012957385 0.0009285911 -0.0034238964 -0.00025888073
000020 2c eb bc b8 1c b8 01 3a 6c e3 a8 ba 34 14 ac ba
       -9.008343e-05 0.0004948394 -0.001288516 -0.001312858
000030 1f 15 a4 39 ec 80 b5 3a ad 5a 8e 3b a3 51 e1 3b
       0.00031296254 0.0013847626 0.0043443055 0.006876187
000040 4f ab 2c 3b e8 27 34 3a c9 56 13 82 f8 00 1e 02
       0.0026347225 0.00068724016 -1.082476e-37 1.1608285e-37
000050 fa 49 24 ba 2e ac 6c ba cf bc 1b b9 87 da 1a ba
       -0.0006267127 -0.00090283423 -0.00014852289 -0.0005907197
000060 b8 74 04 3a a2 89 ae ba 06 e2 e3 3b ae 12 ba 3b
       0.0005052793 -0.0013316164 0.0069544343 0.0056784963
000070 b9 9d 3b ba 0d e0 8a ba 07 db 31 bb 5a 2c 9b bb
       -0.00071569864 -0.0010595337 -0.0027138607 -0.0047355117
000080 5a 37 09 3c 9a f3 64 3c 46 b2 ea bb 04 4b 9a ba
       0.008375013 0.013974095 -0.007162365 -0.0011771624
000090 c6 a9 f1 3a 36 6c 6e 3a bc 84 f0 ba 47 14 75 ba
       0.0018437437 0.0009095104 -0.0018350105 -0.000934903
0000a0 b8 9b cf 3b 2a 9b 96 3b f0 06 b4 39 f6 58 80 ba
       0.006335702 0.0045961337 0.00034337444 -0.0009792137
0000b0 79 c3 9f 3a fc 0c d7 3a d6 51 c7 39 fb 73 4c b8
       0.0012188993 0.0016407068 0.0003801721 -4.8745405e-05
0000c0 e1 d3 81 3b 64 3e 98 3a 08 0e 9e 3b 92 cf 85 3b
       0.0039620255 0.0011615274 0.00482345 0.004083582
0000d0 34 dd 42 3b 82 ab 9f ba 98 3d 46 3a ef 21 6e 3a
       0.0029733898 -0.0012181851 0.0007562279 0.0009084036
0000e0 89 f3 ec ba eb 0f 85 ba 50 3b 2a 3b 8e 52 9c 3a
       -0.001807795 -0.0010151839 0.0025975294 0.0011926459
0000f0 54 4d cc 3b 10 4e dd ba 94 23 77 bb 30 a4 07 bb
       0.006234804 -0.0016884226 -0.0037710415 -0.0020697229
000100 4e 23 23 3a 44 92 54 ba 61 77 f6 b8 30 53 32 b7
       0.00062232174 -0.00081089535 -0.0001175243 -1.0628995e-05
000110 0e ad 8d bb d6 b6 06 bb a5 61 09 bb 1a ca 87 ba
       -0.0043236082 -0.0020555756 -0.0020962742 -0.0010359914
000120 71 78 a2 3b d8 28 80 3b 98 13 82 b2 05 db b8 32
       0.0049582054 0.003911119 -1.5142902e-08 2.1520018e-08
000130 fe 89 23 ba db a5 79 ba b0 aa d9 bb 8e ab c7 3b
       -0.0006238519 -0.00095233106 -0.006642662 0.006093449
000140 84 98 d0 b8 1f d5 5f ba 64 b0 64 b9 38 20 c1 ba
       -9.946621e-05 -0.00085385324 -0.00021809485 -0.0014734333
000150 98 f2 39 b8 f4 00 aa 39 5f d6 5b 3b f0 3b 1e 3a
       -4.433337e-05 0.00032425637 0.0033544523 0.0006036153
000160 8c 0f 00 3c c6 76 07 3c a8 f1 85 b9 4e 6a 1d b9
       0.007816207 0.008268064 -0.00025547785 -0.00015012288
000170 f5 60 de 3a 87 79 d0 3a be 28 dd 3a 82 77 b9 3a
       0.0016966151 0.0015905359 0.0016873104 0.0014149996
000180 70 86 7e b7 6f fe 66 3a 1d 9a 55 3b d1 2a 78 3b
       -1.5170881e-05 0.0008811717 0.003259308 0.0037867317
000190 31 ed 88 b9 cf 81 c2 b9 c8 d6 8e 38 f2 c5 06 3a
       -0.00026116663 -0.00037099278 6.811094e-05 0.00051411905
0001a0 0b fc ae 39 c0 2a 5d b8 f4 91 45 39 7e 0d c6 b9
       0.00033375653 -5.273032e-05 0.00018841756 -0.00037775555
0001b0 e3 03 51 1c 86 91 e7 9a 4c eb 9c 3b 79 95 1d 3b
       6.9157323e-22 -9.5774467e-23 0.0047887918 0.0024045391
0001c0 6c 82 38 ba b0 b3 b9 ba b0 bd f9 39 2f ac 09 3b
       -0.00070384773 -0.0014167931 0.0004763431 0.002100717
0001d0 17 78 d0 3a 0b 25 de 3a 4c ec 41 b9 40 a3 bf 36
       0.001590493 0.0016948296 -0.00018493942 5.7112484e-06
0001e0 94 d2 6c 3b ba dd f5 3b d8 5e 6b 3b 82 da b6 3b
       0.0036136257 0.0075032385 0.0035914686 0.0055802474
0001f0 99 69 bd b7 d6 54 63 b9 ba 7e 38 3b a2 0d 46 3b
       -2.2579728e-05 -0.00021680011 0.0028151707 0.0030220528
000200 64 2c cb b9 dc a9 4f ba cc 18 3e 3a 08 76 15 3a
       -0.0003875225 -0.00079217344 0.000725162 0.0005701487
000210 7f eb 40 bb 4a c5 09 bb 4c 79 d3 3a 90 2d 90 37
       -0.0029437242 -0.0021022134 0.0016134172 1.7187354e-05
000220 98 b2 cf b9 7e 39 41 3a bc 10 f7 ba c6 ba 52 ba
       -0.0003961518 0.0007370933 -0.0018849592 -0.00080386957
000230 e5 7d 4b bb 20 05 3c 39 1f 59 d5 ba e0 1a b1 ba
       -0.003105038 0.00017930986 -0.001627717 -0.0013512038
000240 72 3d 57 bc e8 97 3d bc 2e c3 cd ba 2d 8a 99 ba
       -0.013137208 -0.011571862 -0.0015698427 -0.0011714153
000250 00 cc 47 bb 28 a3 b3 3a 60 15 8d bb ef 3f df ba
       -0.0030486584 0.001370524 -0.0043055266 -0.0017032604
000260 4c 28 43 bb 18 dd 11 bb 3c c2 b6 3b 2b d7 15 3c
       -0.0029778657 -0.0022257026 0.0055773538 0.009145538
000270 f0 14 23 39 8d e3 97 3a 50 d6 fd b9 fa 78 6b 3a
       0.00015552691 0.0011588201 -0.00048415596 0.00089825655
000280 f9 3f b9 3b 44 d6 26 3a 4a 1b 14 3a fa c4 70 39
       0.005653378 0.00063643255 0.00056498183 0.00022961563
000290 ff 71 3c 3b ec 64 21 3b 9f 0d cb ba 66 98 f4 ba
       0.002875447 0.0024626805 -0.001549173 -0.0018661141
0002a0 ba 74 f6 3b d2 2e b2 3b 5f 26 46 bb e2 ce e6 ba
       0.007521239 0.0054377103 -0.0030235273 -0.0017609263
0002b0 0f ca 81 39 38 a1 8e 3a 3b 8f a9 3a f4 df 05 3a
       0.00024755343 0.0010881787 0.0012936363 0.0005106919
0002c0 2e 04 27 bb 82 b5 93 ba f0 bd 1d 3b fe 0a b9 b9
       -0.002548467 -0.0011269304 0.002406951 -0.0003529414
0002d0 41 e3 e3 bb be ca 6f 3a 98 05 0f 3b d6 2d 8a ba
       -0.006954581 0.00091473374 0.0021823402 -0.0010542225
0002e0 f6 e7 40 bb 40 1f a3 bb 56 1c 4b 09 87 f7 62 8c
       -0.0029435134 -0.0049780905 2.444856e-33 -1.7484894e-31
0002f0 3e 08 87 ba d0 f7 ee 39 39 ac 3f 3c f2 1a f3 3a
       -0.0010302139 0.00045579532 0.011698776 0.0018547459
000300 eb b6 ed 3a 21 89 89 3a 90 fa 8d b9 fb f0 de 39
       0.0018136179 0.0010493138 -0.000270803 0.00042522684
000310 6e 98 ee b9 f1 a2 14 ba a8 65 c8 39 28 75 21 39
       -0.00045508466 -0.0005670032 0.00038222712 0.000153978
000320 1c c0 23 3a b4 f6 7e ba f8 ef 12 3b ad 07 31 bb
       0.0006246583 -0.00097260927 0.0022420865 -0.0027012632
000330 08 b5 1d 02 c7 7d 16 02 e8 91 3d bb 8a bf ee ba
       1.1586492e-37 1.1056356e-37 -0.0028926078 -0.0018215042
000340 05 93 98 bb 8f bf e2 ba 9c bc 7e 3b 5c bd 60 3c
       -0.004656198 -0.001729952 0.0038869744 0.013717022
000350 f3 7a 11 bb 18 12 25 3a 65 d9 86 3a 53 ec 74 3a
       -0.0022198528 0.00062969467 0.0010288177 0.00093430764
000360 84 d3 af 3a c8 df 8b 3a d6 f3 98 3b dd 8e 8b 3b
       0.0013414477 0.001067155 0.0046677394 0.004258974
000370 b0 1f e6 3a 2e 83 31 ba a6 2b ac 3a 36 48 f6 39
       0.0017557051 -0.00067715615 0.0013135567 0.00046974578
000380 07 fe 8f 37 5e df 96 b9 b8 50 0d 3b ed 4a 63 3b
       1.716522e-05 -0.0002877665 0.0021563005 0.003468211
000390 80 bb 8e 3a b0 34 57 ba 22 ca af 3b ca 62 bf 3b
       0.001088962 -0.000820945 0.0053646723 0.005840634
0003a0 57 e7 d9 90 b5 4a d2 90 04 30 16 bb e0 1a b9 ba
       -8.5947844e-29 -8.29455e-29 -0.0022916803 -0.0014122389
0003b0 ed 1e 45 3a 27 d9 ed b9 ea 38 5d 3b 92 64 d0 3a
       0.0007519562 -0.00045365954 0.0033755847 0.0015899113
0003c0 ce 51 94 ba f9 62 e6 ba 6a 2c 2f 3b 8b bd 52 3c
       -0.0011315884 -0.0017577104 0.0026729354 0.012862573
0003d0 da 36 1c 3a 49 46 de 3a b5 cf 14 3b 03 e8 95 3a
       0.0005959101 0.0016958202 0.002270681 0.0011436943
0003e0 3e e0 25 b9 9b 93 b9 b7 b3 8d 93 3a 41 21 2d 3a
       -0.00015819163 -2.2122453e-05 0.001125744 0.00066043815
0003f0 d0 1c bd 3a ec 9e 3c 3a e8 14 bc 39 32 36 f5 b9
       0.0014428142 0.0007195312 0.0003587373 -0.0004677042

exp_avg_sq f4 [164, 2]
000000 3b 25 21 39 b7 d8 d3 38 dd 78 91 38 ba 8d c3 38
       0.00015368026 0.0001010163 6.936651e-05 9.324723e-05
000010 cd 91 41 38 a6 3e 50 38 e9 29 35 39 de cc 9a 38
       4.6150573e-05 4.964941e-05 0.00017277118 7.381452e-05
000020 e0 45 f4 37 5f 4c aa 37 98 23 be 38 1b 0f 76 38
       2.9119605e-05 2.0301142e-05 9.066536e-05 5.866504e-05
000030 3a c2 22 38 98 bb eb 37 38 c5 37 39 66 99 06 3a
       3.8804697e-05 2.8101538e-05 0.0001752571 0.00051345525
000040 2b 5c 82 39 0f 38 00 3a f4 23 e0 34 d2 6e 26 35
       0.00024864203 0.0004891166 4.174941e-07 6.2001084e-07
000050 14 93 0f 38 54 bf 9e 37 66 ff 82 37 67 ad 92 37
       3.4230834e-05 1.8924162e-05 1.5616137e-05 1.7485303e-05
000060 52 73 9f 38 a0 92 39 39 b1 05 03 3a 92 b1 84 39
       7.603191e-05 0.00017697597 0.00049981015 0.00025309302
000070 f0 85 01 38 e7 e9 89 38 85 59 28 39 cf 79 6f 39
       3.0880736e-05 6.576237e-05 0.00016055077 0.00022838193
000080 3d 8c 97 3a 67 be a7 3a 59 1f 90 3b 44 f5 79 3b
       0.001156218 0.0012797833 0.004398268 0.0038140574
000090 01 6c c7 38 ec ea b2 38 6b 42 09 39 0a 17 3a 39
       9.509177e-05 8.531459e-05 0.00013090081 0.00017746925
0000a0 c2 93 fa 39 83 de 47 39 15 37 0d 39 6e 1c ce 38
       0.00047793804 0.00019061011 0.00013467328 9.828141e-05
0000b0 df 3f 24 38 11 79 13 39 08 03 58 37 e2 22 48 37
       3.916013e-05 0.00014064113 1.2875309e-05 1.1929051e-05
0000c0 28 01 d5 3a 33 43 91 3a 0e 4a 94 39 52 64 1c 3a
       0.0016250955 0.0011082649 0.00028283935 0.00059658766
0000d0 e1 20 48 3b 77 a3 10 3b 5c de 26 38 df 6c 31 38
       0.0030537175 0.002207009 3.9784572e-05 4.2301483e-05
0000e0 48 7c 2a 38 86 a8 d0 37 92 a5 80 38 67 ba 22 39
       4.0646904e-05 2.4874007e-05 6.1343555e-05 0.00015518964
0000f0 8d a0 36 3d 63 50 d7 3c e7 9f b7 39 5f 91 6e 39
       0.044586707 0.026283449 0.00035023617 0.00022751604
000100 45 e3 9b 37 5b 88 97 37 ba a4 2b 37 22 b1 0d 37
       1.858327e-05 1.8064098e-05 1.0230748e-05 8.445497e-06
000110 81 80 72 39 73 e2 2e 39 6b ac 9d 38 f7 9d 82 39
       0.0002312679 0.00016678292 7.518459e-05 0.00024913225
000120 08 66 61 39 6b 18 85 39 69 f7 b1 37 d8 68 2d 37
       0.00021495682 0.0002538593 2.1215254e-05 1.0336014e-05
000130 7d 6e a2 38 d1 34 2a 38 5b 50 5e 3b 8d 1e ef 3a
       7.745342e-05 4.0580348e-05 0.0033922407 0.0018243358
000140 a1 c9 7a 37 a1 77 f3 37 68 ec 2f 38 11 e6 8b 38
       1.4948107e-05 2.9023564e-05 4.1943422e-05 6.67089e-05
000150 f0 cf 69 37 47 58 29 37 3e b8 3c 3a 13 87 d9 39
       1.3936296e-05 1.0093739e-05 0.0007199085 0.00041490103
000160 90 62 ba 3a eb 2a f1 3a 1f 05 99 37 72 14 fd 37
       0.0014220048 0.0018399631 1.8241406e-05 3.016947e-05
000170 fb 16 8e 38 41 ac 84 39 ba 33 16 39 9f c8 0d 39
       6.775368e-05 0.0002530534 0.00014324384 0.00013521545
000180 97 1d 7e 39 78 b8 64 39 37 3e 5b 39 cf 4f db 39
       0.0002423435 0.00021812494 0.00020908644 0.00041830397
000190 df 9c 68 37 38 9d 4e 37 95 97 85 37 48 7e 0c 38
       1.3864802e-05 1.2315162e-05 1.5925421e-05 3.349621e-05
0001a0 59 04 cf 38 8a 21 01 38 47 2a 17 37 64 3c d7 36
       9.871339e-05 3.0787232e-05 9.010145e-06 6.4145297e-06
0001b0 df 1f 05 37 01 d6 4e 36 f7 7a 61 39 6b d6 f5 39
       7.934838e-06 3.0820959e-06 0.0002150348 0.00046889795
0001c0 1b 2d b2 38 8a 41 c1 38 45 33 bf 39 8d e5 3b 39
       8.496103e-05 9.215165e-05 0.00036468558 0.00017919224
0001d0 bf f0 39 38 f2 f0 17 39 a7 4c 48 38 dc 57 f6 37
       4.433165e-05 0.00014490241 4.7755104e-05 2.9366398e-05
0001e0 14 be cf 3a ec b9 67 3b e1 d1 73 3b 9d 51 88 3b
       0.0015849494 0.003535862 0.0037203955 0.0041601197
0001f0 4b 64 f6 36 0c 7d 80 37 8f 04 88 38 f4 78 10 39
       7.343047e-06 1.5317019e-05 6.4858345e-05 0.00013777969
000200 97 95 d7 37 07 86 4d 38 9d 2d 58 38 93 5e c2 37
       2.5699655e-05 4.900063e-05 5.1540894e-05 2.3170642e-05
000210 15 a4 24 39 05 39 15 3a 8f d3 b6 38 1b 9b 22 38
       0.00015701384 0.00056923955 8.717842e-05 3.8768263e-05
000220 dc c6 af 38 76 17 00 39 8c d1 80 38 ce 0f 6c 39
       8.381691e-05 0.00012215771 6.142547e-05 0.00022512602
000230 9d 5e ad 39 d3 c6 25 39 ce 82 9f 38 74 9f d6 38
       0.00033067624 0.00015809694 7.606075e-05 0.00010234016
000240 bf 2f c5 3a dc 93 91 3a a6 c8 bb 38 32 9a 66 39
       0.0015044137 0.0011106688 8.9542285e-05 0.00021991952
000250 bd 05 96 39 2f e0 27 39 c5 30 48 39 87 68 20 3a
       0.00028614505 0.00016009876 0.00019091654 0.00061190914
000260 00 4a 31 39 a5 dd 1f 3a c1 d4 09 3b 1e 40 3b 3b
       0.00016907603 0.0006098396 0.0021031352 0.0028572152
000270 23 9d 26 39 d5 ab d1 38 8d 42 03 3a fe 28 46 3a
       0.00015889532 9.997903e-05 0.000500717 0.0007559209
000280 fd 68 e6 3a b0 5b c1 39 32 69 06 37 5f aa 2a 38
       0.0017578896 0.0003688014 8.011515e-06 4.068983e-05
000290 c9 83 16 39 d8 54 5d 39 0c a1 db 38 b0 cd 6a 39
       0.00014354209 0.00021107809 0.00010472731 0.00022392604
0002a0 74 d3 02 3a f6 96 5f 39 c6 d4 2e 39 72 b9 da 39
       0.00049906154 0.00021323175 0.00016673197 0.00041718368
0002b0 c7 eb 41 37 40 9e dd 37 9b d4 83 38 9c ee a4 37
       1.1558593e-05 2.6418944e-05 6.2861676e-05 1.9661435e-05
0002c0 eb 6d f7 38 68 3d b2 39 5a 5b b0 38 60 3f cd 39
       0.000117983516 0.00033996557 8.4093495e-05 0.00039147865
0002d0 73 75 a0 3a 5d a7 a0 39 62 c8 fe 38 70 92 ce 38
       0.0012242034 0.00030642273 0.00012148988 9.8501216e-05
0002e0 57 a5 8e 39 a4 99 ab 39 f8 46 11 37 8b 08 94 36
       0.00027207538 0.00032730133 8.659197e-06 4.4117382e-06
0002f0 0e 98 70 38 e3 1e cf 38 15 1d 31 3c f8 d3 f1 3b
       5.736207e-05 9.876282e-05 0.010810156 0.007380005
000300 fb f0 a8 38 0f 01 18 38 1e 4a 28 38 0f cc 5c 37
       8.0557504e-05 3.624061e-05 4.012335e-05 1.3160533e-05
000310 b7 0a 4b 38 01 3e 4f 38 ae 32 34 39 cb d6 71 39
       4.840895e-05 4.941039e-05 0.00017185017 0.00023063568
000320 ea 4a 9b 36 10 95 db 37 b7 10 04 3c 3e 4d d0 3b
       4.628081e-06 2.6176247e-05 0.008060626 0.0063568642
000330 da bb 0a 36 f7 94 04 36 fe 55 df 38 ef ed df 39
       2.0672946e-06 1.9756242e-06 0.00010649486 0.0004271115
000340 ab e1 2d 3a 28 b4 27 39 27 1c 26 3a 4a 04 4e 3b
       0.00066330534 0.00015993475 0.00063365925 0.0031435662
000350 01 be 06 39 a6 ca 4b 39 59 5a 08 38 e9 11 20 38
       0.00012850018 0.00019435081 3.250907e-05 3.8163653e-05
000360 5a 65 86 38 2d 90 85 38 59 4e b2 3a 4d 1d 84 3a
       6.408496e-05 6.368789e-05 0.0013603672 0.0010079533
000370 1a bb b0 38 16 d9 dc 38 26 df d4 38 90 11 48 38
       8.4271844e-05 0.00010530853 0.000101505124 4.7700072e-05
000380 4f 6a ef 36 27 6d 6f 37 d3 de 4d 3b ad 87 60 3b
       7.135131e-06 1.4270924e-05 0.003141333 0.0034260557
000390 f6 49 3d 3b 30 95 04 3b 72 27 8f 39 fc 3a ee 39
       0.0028883195 0.0020230524 0.00027304474 0.00045438844
0003a0 00 67 fa 36 7e 99 42 37 7f 0e bd 38 31 a2 2c 39
       7.4625714e-06 1.1599039e-05 9.0149224e-05 0.00016463619
0003b0 27 04 0c 38 52 e1 00 38 77 ab 2e 3a 3c ef 42 39
       3.338247e-05 3.0727424e-05 0.00066631235 0.00018590403
0003c0 55 b0 22 39 c1 12 28 39 6a 19 e5 38 07 fb 80 3a
       0.00015515213 0.00016028715 0.00010924305 0.0009840437
0003d0 d4 b3 e1 38 78 e6 c4 38 fe 80 39 39 bf 21 e3 38
       0.00010762332 9.3889365e-05 0.00017691028 0.00010830489
0003e0 9c 51 4f 37 c8 fc 4f 36 e1 cd e7 37 20 88 23 38
       1.2357163e-05 3.0992542e-06 2.7633216e-05 3.8989005e-05
0003f0 a0 e0 5b 39 9b 41 1a 39 60 2f 83 36 bf ad 67 37
       0.00020969147 0.00014711024 3.9096194e-06 1.3809126e-05

exp_avg f4 [164]
000000 ae 75 2c b9 00 6c 1c b6 00 96 b9 b5 ff 3b 6c b9
       -0.00016447037 -2.3308676e-06 -1.382723e-06 -0.00022529064
000010 27 20 e0 b8 6a fc b5 b8 de 34 01 39 58 66 2d 3a
       -0.00010687141 -8.677768e-05 0.00012322093 0.00066146767
000020 33 f3 11 ba 31 b8 1f 02 1c bf a1 38 90 e9 05 b7
       -0.00055675505 1.1734335e-37 7.712675e-05 -7.981798e-06
000030 71 0f 05 39 bc 05 3d 3a 4c 56 f9 38 25 03 9d b9
       0.00012689621 0.00072106323 0.00011889319 -0.00029947716
000040 da 4e bf 3a 62 c4 08 ba 20 29 25 37 8e fe a1 38
       0.0014595643 -0.00052172516 9.844342e-06 7.724493e-05
000050 38 a6 19 3a a0 c7 25 b8 78 5e 7e b9 d9 ba 83 b7
       0.00058612553 -3.952498e-05 -0.0002425852 -1.5703425e-05
000060 8a 4b 35 b9 44 14 d7 38 28 09 27 38 6f 1c a1 b8
       -0.00017289646 0.00010255774 3.982443e-05 -7.6823744e-05
000070 ce 7d 9a b9 3c ab cd 37 7c 7e 20 3b 8b 52 ae b9
       -0.000294669 2.4517642e-05 0.0024489453 -0.00033249366
000080 8e 61 17 b9 6a c4 2d 37 c8 6f a9 b9 57 81 c2 38
       -0.00014436824 1.0357335e-05 -0.00032317475 9.274732e-05
000090 ec 7f 35 3a db df 08 31 18 81 bd b7 87 58 31 ba
       0.0006923664 1.9917852e-09 -2.259067e-05 -0.0006765206
0000a0 c8 78 9a 38 38 c9 33 39 a4 6e 58 b8 a8 42 5e b9
       7.3657895e-05 0.0001714573 -5.1601455e-05 -0.00021196401
0000b0 c3 85 d5 39 22 df 0a 37 85 41 e5 b9 53 08 bb 38
       0.00040726186 8.277393e-06 -0.000437271 8.9184054e-05
0000c0 2c d3 92 38 6c 82 5e b8 b9 bb 53 38 00 48 e6 b7
       7.001156e-05 -5.305039e-05 5.048115e-05 -2.7451664e-05
0000d0 11 99 50 38 e3 82 9a b8 76 75 f6 1a ed c2 23 39
       4.973362e-05 -7.367672e-05 1.01932984e-22 0.00015617507
0000e0 17 1a 7d 39 2a cf 0e 3a 6c 9b 65 b9 84 c9 93 37
       0.0002413768 0.000544774 -0.00021897041 1.7617604e-05
0000f0 3b e8 21 3a ad 00 83 3a 46 de 03 38 d8 b8 5c 39
       0.00061762676 0.0009994708 3.1439842e-05 0.00021049695
000100 4e f6 09 39 dd 29 c8 38 60 2b 8a 39 34 82 11 b9
       0.00013157094 9.544541e-05 0.00026353728 -0.00013876782
000110 80 16 ce 38 49 2a 98 38 34 28 5e b9 b4 f7 5f 39
       9.8270364e-05 7.255801e-05 -0.00021186547 0.00021359214
000120 a6 2d 78 ba 36 d8 dc 38 3b b4 8d b9 ad 76 8b 39
       -0.00094672514 0.0001053069 -0.00027027898 0.00026600566
000130 5b 80 9d 39 ef cb 68 3a e4 37 e7 38 28 8e 95 37
       0.00030041006 0.0008880486 0.00011025349 1.782838e-05
000140 81 36 0b ba 02 52 94 37 1c d1 8c b9 e9 b5 67 39
       -0.0005310551 1.7681163e-05 -0.0002685868 0.00022097644
000150 c4 7d 3d 3a 98 c8 0e 39 7e 40 d5 38 ae 6d 83 b8
       0.00072285184 0.00013616902 0.00010168644 -6.266996e-05
000160 6c 00 b4 38 1e b8 0c 39 c2 b5 17 ba 36 37 e5 b9
       8.5831474e-05 0.0001342003 -0.0005787277 -0.0004371942
000170 50 3b 92 b9 c2 e1 c7 0a 50 bf 56 38 00 1e 2d 38
       -0.0002789148 1.9247924e-32 5.119975e-05 4.1274354e-05
000180 06 66 8b b9 57 f1 13 38 5b 6d 86 39 20 1f b5 b7
       -0.0002658816 3.5272296e-05 0.00025639948 -2.1591375e-05
000190 97 57 13 39 d2 bb 53 39 b2 8c 10 02 15 e2 1a 39
       0.00014051642 0.00020192497 1.0619827e-37 0.00014770807
0001a0 a8 e1 86 b9 de 82 a0 3a 86 9b 44 39 10 68 fe b8
       -0.000257266 0.0012246033 0.00018749954 -0.00012131047
0001b0 10 38 17 b9 35 8f 18 ba 46 16 d3 38 f2 1c 0b 39
       -0.00014421367 -0.00058196794 0.00010065413 0.00013266856
0001c0 f4 51 04 38 c5 f1 57 3a c9 25 87 b9 bf 3c 45 3a
       3.1547577e-05 0.00082376256 -0.0002577736 0.00075240055
0001d0 4a b0 02 10 e5 f6 6e 38 bc 5f 78 b8 20 d6 73 b8
       2.5773788e-29 5.697356e-05 -5.9216967e-05 -5.8135134e-05
0001e0 ca fb bc 39 e3 61 a2 3a 27 7a 48 39 60 27 d6 b7
       0.00036045752 0.0012388792 0.00019118992 -2.5529123e-05
0001f0 d4 ef ac b6 38 15 62 37 40 16 e1 37 4a 86 85 38
       -5.153919e-06 1.347559e-05 2.6832451e-05 6.3669475e-05
000200 83 90 5d 3a cb fd be b9 f8 0d 96 3a d9 a4 ec b8
       0.0008452015 -0.00036428715 0.0011448255 -0.00011284062
000210 60 ae bf b9 a7 9e 05 1d e0 44 0c b5 f9 32 48 ba
       -0.00036560278 1.7684425e-21 -5.225429e-07 -0.000763699
000220 33 a0 2f ba de c5 1a 39 c9 88 57 39 d0 85 33 b9
       -0.0006699592 0.00014760296 0.00020554954 -0.0001712062
000230 33 2b 02 ba 89 01 47 38 d6 a0 36 39 a2 d1 e5 38
       -0.00049655436 4.7446727e-05 0.00017416789 0.00010958618
000240 1c 2b 30 b8 f8 27 8c b9 e2 81 bf b9 00 5e 3a 38
       -4.200182e-05 -0.0002673266 -0.0003652713 4.44334e-05
000250 a1 2c 96 37 8c b2 e9 b8 ba 3e 50 ba b7 d5 70 39
       1.7902175e-05 -0.00011143563 -0.00079439173 0.00022967799
000260 27 f4 a7 b9 8e f4 a8 36 a2 e9 27 39 3e ae 3e 38
       -0.0003203463 5.03526e-06 0.00016013396 4.5461806e-05
000270 10 97 b4 39 30 5d 8f 38 d8 e2 ab b9 6d f6 c0 38
       0.00034444826 6.836129e-05 -0.00032784673 9.201174e-05
000280 c6 8a f8 37 2c ae 1a ba fe 72 0d 30 28 62 81 39
       2.9628525e-05 -0.00059005874 5.1458915e-10 0.0002467793
