docs/smld/lightning_logs/version_65/checkpoints/epoch=49-step=4900.ckpt (torch, 344011 bytes, 18 tensors)

ms.layers.0.weight f4 [164, 2]
00000000: 47d9 b4bd 846d 55bc 44a2 ddbe 48e4 96be
00000010: e8b7 9c3d 359c 993e fca8 51be 54eb a9be
00000020: f49f 18bf fc6f 01bf 93b9 463e d9d1 1e3e
00000030: f4b4 36be 1220 fa3e e657 ef3d 3d3e 753d
00000040: c22e 68be 55de ddbe 4d88 1fbd 01a0 973d
00000050: 8996 05bf 8057 dcbe d064 23bf 01c1 8a3e
00000060: 66c8 cdbe 27e0 73be 7221 bfbe dc16 ddbe
00000070: 1361 12bd 5746 f1bc 60b3 b3be ccd6 933d
00000080: 8eb0 1ebe 9fdc 903e 0e28 03bf 8d99 c4be
00000090: 19d7 7fbe 1995 fcbe 37fd 3abe 784d b4be
000000a0: 3621 dd3e fc5d ebbe 2385 f23e d401 bb3e
000000b0: 3d28 35bd da16 43bd 025c c9bd b8b2 df3e
000000c0: a3bd 08bf 0e0b 6b3e ca2c ac3e 34cf 023f
000000d0: d74f 35bd 6c76 b2be f2e6 e8be 4e1b 0f3d
000000e0: 2a03 f0be a4db 0bbf 0a94 a23e 413e b9bd
000000f0: efc4 0e3f bb2e d9be 3a1b 3fbe 0b72 a03d
00000100: b446 98bd 7e5a 8e3d 1ba0 e1be abc8 23bf
00000110: 9f5b 8d3e 42a5 0b3e 1461 6bbe aafb e43e
00000120: 10df 323d 48ae 0dbd df44 dd3e b77d 98bd
00000130: f771 9e3d 6032 013f 1ce9 bc3e 24c8 b63e
00000140: 6461 ffbe 84e6 a9be 3f91 f4be f187 d83e
00000150: ca9e 793e aab2 b5be 3a10 eebe 54cd 91bc
00000160: 83ed 1b3e 0933 a03e 4a26 8d3d f770 f93e
00000170: 5a86 17bf 3765 e63e b614 883e 355d 8c3e
00000180: 98a2 0e3f d26d 513e b27a f53e a897 1c3f
00000190: e4cc edbe e237 b93c 7d1c 0a3f 2108 4dbe
000001a0: 4872 11bf 25f4 0b3f 4b0f 843e 6b43 07be
000001b0: 53ba 0ebe 96f0 06bf b15d 733d 3c94 13bf
000001c0: 7993 e53c a4df 9ebe c91c 523e 4150 03be
000001d0: 6ad3 42bd bf17 77bd 9477 fa3d 89e5 013f
000001e0: 3061 b73d 9555 76be ea45 acbe ec0a 84bd
000001f0: 2c78 a9be 3e8b 533e 16f2 2bbe 133b 04bf
00000200: 7127 03bf ea3b 1dbf 1acb 933e 39e5 02bf
00000210: a4d6 3c3b 5654 df3e f7cf f43e 9741 023e
00000220: 7eb2 c1be 7846 cbbe 1b88 eebe c196 013c
00000230: 0447 96bd 5ee3 073e 6fb7 9dbe 8844 4ebe
00000240: 3b5e fe3e 5adc 553e dafd 013e fd2b aa3c
00000250: 139c 323e 284f 023f 9308 513e 64ed f6be
00000260: 5c5f 34bd bd66 04bf 4094 edbe 3c9a 75bd
00000270: 7856 193c 811e bc3d d914 183e 0351 bcbe
00000280: 503a f03e af2a f2be bc45 073f 1dd4 e53d
00000290: 5c2c b73e 508e aa3e 6b1e a7bd d8a7 20bf
000002a0: a207 61be ec5a 8e3e 9aa2 b4be 88d0 ae3e
000002b0: 360e ac3e 8e64 613e e9ef b4be afa7 dcbe
000002c0: 025b f2be 33f2 813b 30f7 13bf 468e 553c
000002d0: fcbf c53d ad91 57bd cb4b 5bbd c414 7cbe
000002e0: 9595 0e3d 2afa b0bd aa52 b73e eaac 5f3e
000002f0: 2287 443e 10f5 803e 06e9 113f d302 6d3e
00000300: e198 d33e 2a08 0c3f 0f74 64be 6e84 c6be
00000310: 724d 00bf 5d42 41be c431 a73e 8801 d83e
00000320: 3632 e8be aef8 0b3f 9b7d 0abc 915b bebe
00000330: 501c 14bf c983 463e d1e2 ae3e 5f96 513c
00000340: 11cf f5bc 1ef8 9abd b5f7 15bf 9bf9 3cbd
00000350: cc11 18bf 9c81 efbe 3bdd 12be cc7f ac3d
00000360: a520 883d a5b5 5bbe c438 06bf 80dd 123f
00000370: bc91 30bd 6ced 97bd 79e0 ccbe 079c b13e
00000380: a6ca 763a 8663 f03e 8d08 5b3e aaf3 d73c
00000390: 28fc 913e 5384 0abe 669b 343e 1a05 253d
000003a0: a39a 38bd aaf4 21bd 81bd 073f 28ec 63bd
000003b0: 60d4 a43e 9119 8fbe d563 ac3d e116 7c3d
000003c0: 0c2d 72be 110c f43e f729 92be 74ec 9c3c
000003d0: 6074 b5bd 1946 153f 269f 0bbe 0b43 abbe
000003e0: f104 17bf 7375 8abe 0f7e 9d3e 7ac5 e9be
000003f0: ccfc dbbe 5653 3a3e 8591 8f3e 9ed9 85be
-0.08830505 -0.013026599 -0.4328786 -0.2947104 0.07652265 0.3000199 -0.20474619 -0.33187354
-0.5961907 -0.505615 0.19406728 0.15509738 -0.17842466 0.48852593 0.11686687 0.05987381
-0.22674087 -0.43333688 -0.038948346 0.07403565 -0.52182823 -0.43035507 -0.638257 0.27100375
-0.40191954 -0.23815976 -0.37330204 -0.43181503 -0.03573711 -0.029452486 -0.3509779 0.07218704
-0.15497038 0.2829332 -0.51232994 -0.383984 -0.24984397 -0.49332502 -0.18260656 -0.35215354
0.431894 -0.45970142 0.473672 0.36524832 -0.044227827 -0.047629215 -0.09832002 0.4369104
-0.5341436 0.22953436 0.3362792 0.51097417 -0.044265594 -0.34855974 -0.45488697 0.03493815
-0.46877414 -0.5463202 0.3175357 -0.09045077 0.55769247 -0.42418465 -0.1866273 0.07834252
-0.074353606 0.06950854 -0.44067463 -0.6397807 0.27608964 0.1363726 -0.22986251 0.44723254
0.04366976 -0.034590036 0.43216607 -0.07445853 0.07736581 0.5046749 0.36896598 0.3569957
-0.4987899 -0.33183682 -0.47767064 0.42291215 0.2437698 -0.35487872 -0.46496755 -0.017798103
0.15227322 0.31288937 0.06892069 0.48718998 -0.5918938 0.44999096 0.265783 0.2741486
0.5571685 0.2045205 0.47945172 0.6116891 -0.46445382 0.022609655 0.5394972 -0.20022632
-0.56815004 0.5466941 0.25792918 -0.13209312 -0.13938265 -0.52710855 0.059415523 -0.5764806
0.028024422 -0.3103 0.20518793 -0.12823583 -0.0475649 -0.06032538 0.12229839 0.5074087
0.08954084 -0.24056084 -0.3364709 -0.06447396 -0.33099496 0.20658585 -0.16791567 -0.5165264
-0.5123206 -0.61419547 0.28865892 -0.51131016 0.002881446 0.4361903 0.47814915 0.12720333
-0.3783149 -0.397022 -0.46588215 0.007909478 -0.07337764 0.13270327 -0.3080401 -0.2014333
0.49681267 0.20884839 0.12694493 0.020772928 0.1744235 0.5090203 0.20413427 -0.4822799
-0.044036254 -0.51719266 -0.46402168 -0.059961542 0.009358995 0.09185506 0.14851703 -0.36780557
0.4691949 -0.4729819 0.5284078 0.11222098 0.3577603 0.333117 -0.08160099 -0.6275611
-0.21975568 0.27803743 -0.35280305 0.34143472 0.33604592 0.22011015 -0.35339287 -0.43096682
-0.47335058 0.00396564 -0.57799053 0.013034409 0.09655759 -0.05262916 -0.05353908 -0.24617296
0.03481062 -0.08641465 0.35805255 0.21843305 0.19192174 0.25186968 0.5699619 0.23145609
0.41327575 0.5469996 -0.22309898 -0.3877291 -0.5011817 -0.18872972 0.32655156 0.42188668
-0.45350808 0.5467633 -0.008452798 -0.37179235 -0.578557 0.1938621 0.34157422 0.012792199
-0.030005964 -0.07566856 -0.58581096 -0.04613648 -0.59402156 -0.46778572 -0.14342205 0.08422813
0.066468515 -0.2145601 -0.5243037 0.5736923 -0.043107733 -0.074183315 -0.4001501 0.34689352
0.0009414352 0.4695093 0.2138998 0.026361305 0.28512692 -0.1352704 0.17637405 0.04028807
-0.045069348 -0.03953997 0.53023535 -0.055645138 0.3219328 -0.27949193 0.08417479 0.061545257
-0.23649997 0.47665456 -0.28547642 0.019155718 -0.088600874 0.58310086 -0.13634929 -0.33449587
-0.58991915 -0.27042732 0.30760238 -0.45658475 -0.42966306 0.18195853 0.2804071 -0.2614259

ms.layers.0.bias f4 [164]
00000000: 164d a83f 3e7d 363f 18fa 25bd ef35 60be
00000010: c653 febe c6a8 333f 1011 293f 059c d13e
00000020: a744 373f dc12 8c3f acf8 023f 1796 15bf
00000030: 5c62 83bd 015e 673f a6b8 2d3f d712 713f
00000040: 62c2 4dbf 8a18 3b3f 47d7 3fbf 5d6c 7bbf
00000050: 9d3c ecbd 569c 283f 42cf 793f 17bc 69bf
00000060: b55f 72be ad2e 11bf c1a0 a53d 5fdb e6be
00000070: 4839 bbbe 6875 7ebf 1c0b 33bf 12e8 113f
00000080: 7d56 b43f 3580 19bf 779a 533f 029b 84bf
00000090: 5dee 163f 87a1 c03e 1f37 84bf 4950 a7bf
000000a0: 2d4d 0bbf 1572 233d 14d2 0fbf 0133 813e
000000b0: 122a 6dbf 465f 28bf 6e7d 4bbf a833 a1be
000000c0: 54ec 5bbf 7a9e 5abf a3a9 a13e 9c2f 9f3e
000000d0: db5c 4c3f 67d9 623f 3854 2fbf 0c3d 9dbf
000000e0: ca09 5b3d 10e2 66bf 96f4 953f fb29 91bf
000000f0: e4e5 863f 5695 873f 3889 2abe 3d1c 253f
00000100: 6dd9 2b3f 4da0 73be a04f 893f fb01 88bf
00000110: a21a 60bf 40f8 13bf 511a 7e3f 7139 82bf
00000120: 4792 753e 887d b4be cda5 963e 25d4 9abf
00000130: 6782 91be 7a65 26bf 7bb5 973f 84ce 93bf
00000140: ea5f 61bd b951 103e 8158 b43e 499c 7cbf
00000150: 8bd3 4bbf 87ac 32bf 3939 80be 8509 1bbf
00000160: 226e 5a3e 0a57 17bf b2e1 253f 3c47 08bf
00000170: 26e9 2d3f ef7d 413f e9ea 7dbf 9fe8 6bbf
00000180: 7a6e 663f 1848 6e3e 2541 883f cad4 81be
00000190: 5ab9 33bf ae26 5cbf a3ae a8be 999d 43bf
000001a0: 452e a43f 9635 54bf 93ae 92bf 38ec 513f
000001b0: cdd8 a73f 86e4 b33e 8bca ac3f 6bb8 923e
000001c0: 1d11 25bd f781 a83e 23a9 353f 26ee 8a3e
000001d0: 2802 663f b9fa 113e f203 d9be 9b08 993f
000001e0: c584 aebe 2075 b9be 73bc 25bf 8d80 873f
000001f0: f5a8 45bf 98ba 64bf 7c92 0e3d ff40 313f
00000200: 93a1 78bf ea70 46bf 3811 483e d747 04bf
00000210: 7f35 7bbf dc9e 593f 5991 ba3e 8c36 5fbf
00000220: 003f 5c3f d16a a93f 4900 4cbf 4d9d 1dbf
00000230: 8adb 253f 0704 ccbd 54a2 90bf 6f5c 823f
00000240: 3189 193f 4bde ba3e 55b9 4ebf bb43 173f
00000250: 1629 f63c 6914 1dbd 22dc 963f 19e7 80bf
00000260: 1ae3 82bf c55c 8b3f 6760 32bf 7784 09bf
00000270: 711d 063f 19de 843f 6eea 27bf 7209 aa3d
00000280: b328 6e3e 1d19 473e afb5 8e3f 464a 48bf
1.3148525 0.71284854 -0.04052171 -0.21895574 -0.4967329 0.701794 0.6604166 0.40939346
0.7158913 1.0943255 0.51160693 -0.58432144 -0.06415245 0.90377814 0.67859876 0.9416937
-0.8037473 0.7308432 -0.7493786 -0.98212224 -0.115349986 0.6586355 0.97581875 -0.9130263
-0.23669322 -0.56711847 0.08087302 -0.45089242 -0.3656714 -0.993979 -0.69938827 0.56994736
1.4088894 -0.59961253 0.8265757 -1.0359805 0.58957464 0.37623236 -1.0329322 -1.3071376
-0.54414636 0.03990372 -0.5617993 0.25234225 -0.9264232 -0.65770376 -0.79488266 -0.31484723
-0.85907483 -0.85398066 0.31574735 0.3109101 0.79829186 0.8861298 -0.6848788 -1.2284255
0.053476132 -0.90188694 1.1715267 -1.1340936 1.0538907 1.0592449 -0.16653907 0.64496213
0.6712864 -0.23791619 1.0727425 -1.0625604 -0.8754064 -0.57800674 0.99258906 -1.017378
0.23981582 -0.35252023 0.2942337 -1.2095991 -0.28419802 -0.6499859 1.1852258 -1.1547399
-0.05502311 0.14093675 0.35223773 -0.9867597 -0.79619664 -0.69794506 -0.25043657 -0.605614
0.21331075 -0.59117186 0.6479751 -0.53233695 0.6793388 0.75582784 -0.9918657 -0.92151827
0.90012324 0.23269689 1.064488 -0.25357658 -0.702047 -0.8599652 -0.32945737 -0.7641235
1.282662 -0.82894266 -1.1459526 0.82001066 1.3113037 0.35135287 1.3499311 0.28656325
-0.040299524 0.32911655 0.7096121 0.27134818 0.8984704 0.142558 -0.42385823 1.1955751
-0.3408567 -0.36222172 -0.64740676 1.0586106 -0.7721093 -0.8934722 0.034807667 0.692398
-0.9712154 -0.77516043 0.19537818 -0.5167212 -0.98128504 0.85008025 0.36439016 -0.87192607
0.8603363 1.3235723 -0.79687935 -0.61568147 0.64788115 -0.09961706 -1.1299539 1.0184458
0.5997496 0.3649772 -0.80751544 0.59087723 0.030048888 -0.038349543 1.1785929 -1.0070525
-1.0225556 1.0887686 -0.6967835 -0.5371775 0.52388674 1.0380279 -0.65592086 0.08302583
0.23257713 0.19443174 1.1149195 -0.7823833

ms.layers.2.weight f4 [164, 164]
00000000: 3bea 823a b6c1 9a3d 4636 69bd af20 0fbc
00000010: b898 8c3d 4403 afbb 1455 1cbd d436 cc3c
00000020: 8ebb 903d 926a 993c 3356 533d c2cf 11bb
00000030: e750 623c 4e4a 09bd 955b ac3c 5258 20bc
00000040: aa12 74bd 8ec2 3a3d 4be3 99bd 84ad 4f3d
00000050: f271 9cbc 32b7 0b3d 33db babc f0d3 29bd
00000060: 67eb 45bd 3cb7 a0bc aedf db3b 069a 813d
00000070: e4b0 8bbd b7f3 2bbc be43 643d 1a32 a63c
00000080: 3cde 853d c23d 70bd 8193 a5bd c4a2 9fbc
00000090: 3dc9 6dbc c716 8abd 60b4 df3c cdd1 903d
000000a0: 6c35 863d a0c3 1a37 f7e1 8cbd a382 99bd
000000b0: 51df 5bbd 3b29 5dbc 1774 3c3d 0b1b 29bd
000000c0: cf56 34bd 3e2b 8b3c 5e53 823d 9680 c2ba
000000d0: a4ff 8e3d 2699 1c3c 9db7 1e3d 4cf2 0f3d
000000e0: ac4b b43c 52df 013d 7641 8c3b ed9c 693d
000000f0: 09ec 6e3d 210d 073c fc67 62bc 97bb 4abd
00000100: b158 213d 37a0 103d d2ab 083d c5b8 213d
00000110: c2dc 2cba 173c 363d b2fc 013d d11c 5abb
00000120: f229 403d 3029 6a3d e609 833d 6259 2b3d
00000130: 2317 96bd 2e61 1e3d 8936 57bd 1cca b1bc
00000140: 0237 f43c 3d9e 28bd 3115 61bd f00c f93c
00000150: 11a8 8c3c 00c4 2937 716f eb3c 6eb9 403b
00000160: 92e0 3b3d f05e 31bd d9ed b6bd e829 07bd
00000170: 9005 4e3d 7747 7bbb 2200 3ebd bb68 383d
00000180: 9a5b 6b3d 2eb5 95bd d830 5bbd b1c1 a63c
00000190: a158 1ebd e671 113b 1ef2 6e3d 8157 45bd
000001a0: 36d0 673d bc4c bdbd f2e2 103d 9f36 60bd
000001b0: a074 a0bd 794a a9bd 2f0e e5bc 69aa 4ebc
000001c0: 9fbc 913c 109e 2dbc 0187 87bc bf08 29bd
000001d0: 7cbc 3b3c c507 ef3b 2e1a 44bd 14fc 0abd
000001e0: 8897 7cbd fb61 9bbd 9f09 84bc 790f 3cbd
000001f0: 67f1 04bd 6079 cdbc 23a7 47bd 8468 5f3d
00000200: 8d1f 563d b5e1 44bd d788 883d 2849 1a3d
00000210: 73f3 1a3d bfb1 a23d 3808 9f3b 7003 91bd
00000220: ad1a a1bd fa8f 443d f82d 4dbd 186f 83bd
00000230: 86fb 31bd 080f e73c 46bf 173d 73ec d93c
00000240: 1969 8cbd 5945 693c 17b9 bf3c 16a4 8dbd
00000250: c288 2ebc 1489 20bd b9c3 053c d122 1d3d
00000260: 3b51 ccbc 4352 803d 7dea 9dbd 8871 443d
00000270: 6708 88bd e50b a03d 4fc5 8a3d 441b d13c
00000280: 171f c6bc 1015 6a3c d1a9 82bd 8964 70bc
00000290: 0420 a6bd b8ca 09bd 447c 7dbc a0f0 4fbd
000002a0: 3297 23bd d068 8c3c d447 2fbc 3d97 a7bc
000002b0: 0fe4 31bd 46bb 643d 4d13 1b3d 1936 80bd
000002c0: 93ee 403c 5a3f 223d 52f9 7fbc 1c3e 9fbb
000002d0: d180 353c 4ad3 17bd 1046 7dbd 28e1 77bd
000002e0: 4514 88bd 8f54 833d 9492 43bd 0593 de3b
000002f0: c32c 4f3d 2b43 2bbd 8130 c2bc 6dd3 8fbd
00000300: 9b81 353c 4f8c 94bd 53f5 943d 06d4 2b3d
00000310: 79c5 d5bb 9636 76bc b436 dbbc fcfb 09bd
00000320: 30df 3f3c 51ae fcbb e4dd 70bd 770b 1ebd
00000330: 3051 d03c 572b a7ba 5e1f 99bd faaa 0c3d
00000340: 08e8 ccbc 9012 8a3d 0284 59bd 42ae 6fbd
00000350: d062 1f3c d26b 58bd a18a 533d b113 173d
00000360: cbbb 7cbd 830b 213d 17a9 223d ce1e 8abd
00000370: e533 04bd 4451 6dbd 7e23 233c d119 203d
00000380: b257 803d bf09 b2bb f77f fdbc 33db 803c
00000390: cafc 48bd 474d 853c 3dbd 72bd c1df e03c
000003a0: 67c5 433d 0a35 beb8 98aa 0c3c cc2d 993c
000003b0: 8b52 f1bc 164d 1cbc 511e 94bd ce50 85bd
000003c0: 86e8 e8bc 1c33 7dbc 2b1d ecbb 4112 56bd
000003d0: 1fef 8d3d e006 3e3d 5015 dbb8 e07a 8fbd
000003e0: 6cda 863d a623 ac3c d267 56bd 0d1e 563d
000003f0: ba0b 0e3d bcac 5c3d b9b3 90bd 07e0 2f3d
0.0009988019 0.07556479 -0.056936525 -0.00873582 0.06865066 -0.0053409655 -0.038167074 0.024928488
0.07067023 0.018727574 0.051595878 -0.0022249077 0.013813234 -0.033518128 0.021039763 -0.009786682
-0.059588112 0.045595698 -0.07514056 0.050702587 -0.019097302 0.034110256 -0.0228096 -0.041461885
-0.0483202 -0.019618623 0.0067100143 0.06328206 -0.068208486 -0.010495118 0.055728666 0.020287562
0.065365285 -0.058652647 -0.08084775 -0.019486792 -0.014513311 -0.06742626 0.02730769 0.07071266
0.06553158 9.224663e-06 -0.06879037 -0.0749562 -0.053679768 -0.0134986 0.04600915 -0.041285556
-0.0440281 0.016988393 0.06363557 -0.0014839347 0.06982353 0.009557998 0.038749326 0.03514318
0.02200874 0.031707115 0.0042802645 0.05703442 0.05833057 0.008242876 -0.013818737 -0.049495306
0.039391223 0.035309043 0.033366986 0.03948285 -0.0006594175 0.0444909 0.03173513 -0.0033281336
0.046915002 0.057168186 0.06398372 0.04183329 -0.07328632 0.038666897 -0.052542243 -0.021702819
0.029811386 -0.041166533 -0.05495185 0.030401677 0.017169984 1.011882e-05 0.028739663 0.00294074
0.045868464 -0.04330343 -0.089320846 -0.03299895 0.050298274 -0.0038342157 -0.046386845 0.045021754
0.057460405 -0.07309948 -0.053513378 0.020356031 -0.03865874 0.0022193133 0.05833637 -0.048179153
0.05659505 -0.092431515 0.035372682 -0.05473959 -0.078347445 -0.08266158 -0.027960865 -0.012613871
0.017790137 -0.010596767 -0.016543867 -0.041268107 0.011458512 0.0072946274 -0.04787653 -0.033931807
-0.06166795 -0.07587048 -0.016117869 -0.045913193 -0.03245678 -0.02508229 -0.04874338 0.054543033
0.052276183 -0.048066813 0.06666725 0.037667423 0.037829828 0.079440586 0.0048532747 -0.07080734
-0.07866416 0.04798887 -0.050092667 -0.06417674 -0.043452762 0.02820541 0.037047647 0.026602006
-0.06855983 0.014237725 0.023403687 -0.069160625 -0.010652723 -0.039193228 0.00816434 0.03836328
-0.024941077 0.0626569 -0.07710741 0.047959834 -0.066422276 0.07814769 0.06775915 0.025525697
-0.024184747 0.014287248 -0.06380046 -0.014672407 -0.08111575 -0.033640593 -0.015471522 -0.050766587
-0.039939113 0.017139822 -0.0106982775 -0.020457858 -0.043430384 0.05584266 0.037860204 -0.06260318
0.0117756305 0.039611198 -0.015623407 -0.004859699 0.0110780755 -0.037066735 -0.061834395 -0.06051746
-0.06644491 0.06412613 -0.04774721 0.0067924284 0.050579797 -0.041812103 -0.02370477 -0.07022748
0.011078264 -0.07253324 0.072733544 0.04195025 -0.0065237847 -0.015027663 -0.026759483 -0.033687577
0.011710927 -0.00771121 -0.05880536 -0.038585152 0.025429338 -0.0012754005 -0.07476686 0.034342743
-0.025012985 0.06741822 -0.053104408 -0.058515795 0.009728149 -0.0528372 0.05164588 0.036884014
-0.06170253 0.03931762 0.039712038 -0.06744157 -0.032276053 -0.05793883 0.0099571925 0.03908712
0.062667266 -0.0054332907 -0.030944807 0.015729522 -0.049069203 0.0162722 -0.059262503 0.027450444
0.04779568 -9.069785e-05 0.008585595 0.018698595 -0.029458305 -0.009539863 -0.07232345 -0.06509553
-0.028431188 -0.01545408 -0.0072056255 -0.052263502 0.06930374 0.046393275 -0.000104467035 -0.070058584
0.065846294 0.021013092 -0.052345105 0.052274752 0.034679152 0.05387567 -0.070655294 0.04293826

ms.layers.2.bias f4 [164]
00000000: b8f3 8fbb f7c9 2abc 8e19 98bd 51e9 8fbd
00000010: 6dc7 abbd 304b 82bd 85d2 1cbd 6e22 f23d
00000020: 7128 edbd bc12 45bb ae68 53bc 8da4 02be
00000030: e5aa 6abb a78e 603d fb22 113e aead 223e
00000040: e7f3 de3c 4ecf 443d 47cf 9bbd 3f4a 083e
00000050: 7123 c63b d3b9 023d 78e5 8e3d 8cde d9bd
00000060: 6a70 843e 15aa 2f3e 6c5a 12bd e157 2abd
00000070: 34ae ddbb 7fde c43c c34e 3dbd 5f20 31be
00000080: cab1 aaba a781 373d 39a1 0b3e e88d 08be
00000090: f36b 23bd 1a13 aebe d26e ccbd 188e 84bd
000000a0: f287 0bbc 1544 e43d 3383 e43c aabc 273d
000000b0: ef68 11bf d32d 95bd aee5 afbc 1ef8 7abe
000000c0: ef96 e93c 5acf 383c 2595 4fbd 7121 20be
000000d0: be22 4f3d e53e f43d 94f8 19be 8486 8ebd
000000e0: b8d0 22bc b91b 0b3e 1da4 bf3b c8a6 5cbd
000000f0: 1c31 333d e46b 0e3e a459 103d 435d 54bb
00000100: a489 773e 66ce f43c 6de3 0fbe c7e4 38bd
00000110: 2bfa 833d 0b46 22bd 450c 643e 7312 493d
00000120: 56ea b63d afe2 2f3d 0c8c 3b3c f642 babe
00000130: bf31 243e 07c1 39bd 888f 943e 7428 603d
00000140: 6877 6ebc 3571 58bd f9ff 3b3e f29b c13d
00000150: 5992 223d 8f1e 64be c81d 86be c770 f93d
00000160: 9d9c f2bd 5eaf a23d 35a4 8dbc d112 763c
00000170: 793a 9e3e 2b99 74bd 47f2 013e 5a8d 0f3d
00000180: 5ad4 c4bd 0c35 9fbc 387c 27bb 4796 823b
00000190: 6d57 a9bd 688c b1be 24b3 4bbd bc54 ae3e
000001a0: 2e32 143e 2dc2 ee3d da29 a6bc e891 8f3c
000001b0: 34ca 14bc 8d42 9c3e 581b 98bd 1394 afbc
000001c0: 2305 2f3e f8e5 333d f531 a93d 213c 623b
000001d0: b769 5a3d d738 57be d89c c6bd 21c9 b2bc
000001e0: b525 0cbc 1096 563d 1580 e63d 01be fb3c
000001f0: d419 a63c 698a d83b 7580 1e3e b254 573d
00000200: f9aa 19be 1074 143c c91f 87bd da0f e9bd
00000210: cf21 89be 1864 cc3d de76 193e 2673 7abd
00000220: 5382 12bd c36e 2cbd 75a1 90be 2f39 83bd
00000230: d975 20bd 7d85 413c c879 ac3c 113f 943e
00000240: 7143 53bd a3c9 023d 3a88 573d 99fe 26bc
00000250: ad32 01bd 925e bb3d a0dc cfbb 46e6 c8be
00000260: 1448 e2bd 461e eabd 8343 423d 448b 743d
00000270: cac4 79bd 433e d3bd 02e3 2c3d 4117 9aba
00000280: b484 833c edab 85bd b7be 063d 1df8 50bc
-0.004393067 -0.010424129 -0.07426749 -0.070269234 -0.08387647 -0.06361997 -0.038286705 0.11822973
-0.11579979 -0.003007098 -0.012903376 -0.12758084 -0.0035807427 0.054823544 0.141735 0.15886566
0.027215911 0.048049264 -0.076078944 0.13309573 0.0060467054 0.031915497 0.069773614 -0.106381506
0.25867015 0.17154725 -0.035730764 -0.041587714 -0.0067651514 0.024031876 -0.04621769 -0.17297505
-0.0013022956 0.04480138 0.1363572 -0.13335383 -0.03989787 -0.33998948 -0.09982075 -0.06472415
-0.008516299 0.11145798 0.027894592 0.04095141 -0.5680074 -0.07284131 -0.021471824 -0.24508712
0.028514354 0.011279905 -0.050679345 -0.15637757 0.050570242 0.11926059 -0.15036231 -0.069592506
-0.009937458 0.13584794 0.0058484212 -0.053869992 0.043748006 0.13908345 0.035241738 -0.003240422
0.241736 0.029883575 -0.140516 -0.045140054 0.064442 -0.03961758 0.22270305 0.04908986
0.08931415 0.04294079 0.011446964 -0.36379212 0.16034602 -0.0453501 0.29015756 0.05472608
-0.014554836 -0.052842338 0.18359365 0.09453572 0.03969035 -0.22277282 -0.26194596 0.12179714
-0.11846278 0.07943605 -0.017290214 0.015019135 0.30903986 -0.059716385 0.12690078 0.035046913
-0.09610815 -0.019434474 -0.0025556218 0.0039851996 -0.08268628 -0.34677434 -0.04973139 0.34049022
0.14472267 0.1165813 -0.020283628 0.017525628 -0.009081412 0.30519524 -0.074270904 -0.021432912
0.17091803 0.043920487 0.08261482 0.0034520703 0.053323474 -0.21017776 -0.09697884 -0.021824421
-0.008553912 0.052389205 0.112548985 0.03073025 0.020275988 0.0066082967 0.1547869 0.052571006
-0.15006627 0.009060875 -0.065978594 -0.113799766 -0.26783606 0.09980029 0.1498675 -0.06114497
-0.035768818 -0.042097818 -0.28248182 -0.06407391 -0.03917489 0.011811611 0.021054164 0.28954366
-0.05157799 0.031930577 0.05262015 -0.010192537 -0.03154247 0.09148897 -0.006343439 -0.39238185
-0.11048904 -0.114315554 0.047427665 0.059703127 -0.06097869 -0.1031461 0.04220868 -0.0011756198
0.016054489 -0.06526933 0.032896724 -0.012754467

ms.layers.4.weight f4 [2, 164]
00000000: 1155 95bc 0518 223c bfb6 8e3d 76de 01bd
00000010: 60a6 6d3b ee24 823c 3caf 13bd cb21 69bd
00000020: 6390 e93b 19fc c1bc e83f 87b9 12b1 873c
00000030: 5e29 093c 8297 533c e223 b7bb b516 adbb
00000040: 3540 2e3d b0cf c4bc a2b5 123c f6da 4fbc
00000050: 4fa9 81bc e570 013c d065 f53c 5e86 d2bc
00000060: 0719 7e3e aab3 483d e378 52bd dbcd 01bd
00000070: 7682 86bb dcca 8c3c 7ed1 20bc d120 a1b8
00000080: 6a8d 893c fa8d 97bc 2451 b3bc 4366 e2bb
00000090: d321 a939 6bac 133e 3a00 9fbc b4ac 323d
000000a0: 58b6 653d 1670 e2bb d11e 34bc 2e79 f73b
000000b0: 8ec9 f8be 7904 84bb 4af9 cfbc 0778 943d
000000c0: a370 d33c f5f1 793b 2a58 3739 a7d7 773d
000000d0: cace d2bc 91a8 c13c d823 833b e1dc 6f3a
000000e0: 02fd 6e3c 0fd9 58bd 32a6 dc3a 4b4c 14bd
000000f0: fc02 15bd 3bea 12bd 5347 e9bc fb26 d83b
00000100: b139 c6bd 3f44 f03c 8f92 143d 5ab2 d43b
00000110: a273 373b 3c91 4bbc 70f8 083e eb82 1fbc
00000120: 0164 74bd cca7 d3bc 1cae 36bd 7da9 e5bc
00000130: d946 d0bd 61ad ed3c cdac b5bb 0ad6 21bd
00000140: 92b1 fd3a e025 fd3c 6f68 65bc 8150 73bd
00000150: 67ad 86bc 5889 573c 5d15 6f3d 1e29 83bc
00000160: b07c 4e3d 0b17 3739 84b4 423c 8479 bbb7
00000170: 7936 b03e 4702 fdbb ec3b 5cbd d930 de3c
00000180: ecfc 063b 883a bc3c 3bbd e9bc 1236 ab3c
00000190: 8102 a2ba a545 cabb 84df dbba 6438 1dbe
000001a0: 9971 93bb dab1 ebbc 0a32 2dbc d3e1 82bd
000001b0: 62ff 0e3d 0ce2 14be ce29 e7b9 e991 5ebc
000001c0: 79cf 13bd 8be4 bd3b 8f6f c4bc 3a6f 9c3c
000001d0: c64d f7bc d1bf c438 fb37 cb3a f6f6 ac3c
000001e0: f361 0a3d 0da4 cc39 530c e5bc 4bfe 9dbc
000001f0: 6163 803c 6a83 a93b bbd2 78bc 699e b3bb
00000200: 53a6 85bb a30a e8bb bd2d 8abd d122 813c
00000210: 0fc5 063e 160d c2bb 8908 6fbd 4507 d3bc
00000220: 702d 103d 1455 183d bca8 083d 2eef c03b
00000230: 4690 21bc bb10 793d 6f79 223d d19d c5bd
00000240: 4a73 b73b c615 a1bb 52c4 67bc b0f5 2cbb
00000250: cec0 353d 3a8c 433c 0dd9 673b 8ca2 1b3e
00000260: 519e 12bc 7f6e fbb9 6ba9 63b9 7f3e 9b3c
00000270: a25d 863c 3bcb 343c c8e0 d33b eafc 0a3c
00000280: 0cb1 a2ba ef71 38bd 4a1c acbd 7f74 f03b
00000290: 6242 983b b2e5 753c 501f 53bc 738f 1abd
000002a0: 0aaa 99bb 8313 1d3c 06e7 6e3c e29d cebd
000002b0: f4f9 3fbc bcff 623c 91c6 24bb 98b4 e53c
000002c0: abc2 883d 18aa 47bb 508b 87be d6e5 d13b
000002d0: 5248 bd3b 6c46 383c f284 073d 14df 2abb
000002e0: 788b 48bc 392d 90bd 7096 1c3c a9ca 25bd
000002f0: fa81 dbbd 484d 1bbe 2cd1 35bd cf52 e43c
00000300: 1a89 b9bb 68ba 4ebb 36dc b03b d241 36bc
00000310: 919e f73c a8f6 b8bc 1bc7 39ba 19ad a5ba
00000320: 1649 8f3a bfff d3bc 2aac b8bc 40d6 823d
00000330: 96f2 84bd 2921 883c ff81 b4bd d30f 833c
00000340: 5db7 1f3c a92b 323b 8056 9b3c 1d39 1a3d
00000350: e474 ed3c bf20 7bbd c8b4 25bb 9c08 81bd
00000360: fd1e 923b affb 26bd 81fb 3cbd cde8 953b
00000370: 9056 183c 788d e83c 4607 ea3b 1981 703d
00000380: 18f1 01bc 3c64 ebbb 6385 80bd 177d 5f3d
00000390: 33b6 a4bd 45ea b9ba 98dc 703c 041a 2ebd
000003a0: 1c0c 9738 ed85 5bbc 861a 69bb 9143 8e3b
000003b0: 913e b1bc eda7 713c 4d58 33bd a757 3abe
000003c0: 394a 1cbd ddf3 86bc 17ce 873e 458b ff3c
000003d0: 7e3a 36b9 3bfe 26bc 7c0d 16bd 30af 58bc
000003e0: 99ba adbc d787 4f3b 1981 133d b8e6 bd3b
000003f0: c45c 663d b85a 9e3a a51c ae3c 6346 edb9
-0.01822904 0.009893422 0.0696845 -0.031706296 0.0036262497 0.01588675 -0.03605579 -0.056916993
0.007127808 -0.02367978 -0.0002579682 0.016563926 0.008371679 0.01291454 -0.0055889944 -0.005282248
0.0425417 -0.024024814 0.008954437 -0.012686482 -0.015827803 0.007900451 0.029955775 -0.025698837
0.24814235 0.048999466 -0.051384818 -0.03169046 -0.0041049076 0.017186575 -0.009815572 -7.683191e-05
0.016791064 -0.018500317 -0.021889277 -0.006909163 0.00032259393 0.14421241 -0.019409288 0.043621734
0.0560821 -0.0069103343 -0.010993675 0.0075522875 -0.48591274 -0.0040288535 -0.025387425 0.07249456
0.025810545 0.0038138602 0.00017485084 0.060508396 -0.02573337 0.023639949 0.0040020756 0.000915004
0.014586689 -0.05294138 0.0016834198 -0.03620557 -0.0363798 -0.03586791 -0.028476393 0.0065964437
-0.096789725 0.029329417 0.03627258 0.0064909877 0.0027992507 -0.012424763 0.13376021 -0.009735803
-0.059665684 -0.025836848 -0.044599637 -0.02803492 -0.10169763 0.029013338 -0.005544281 -0.039510764
0.0019355288 0.03090185 -0.01400195 -0.059402946 -0.016440107 0.013155304 0.058369983 -0.016010817
0.05041188 0.00017460824 0.011883859 -2.2348722e-05 0.3441656 -0.0077212187 -0.053768083 0.027122902
0.002059753 0.022977129 -0.028532615 0.020899806 -0.0012360365 -0.006172853 -0.0016774987 -0.15353543
-0.004499626 -0.02877133 -0.010571012 -0.06390729 0.03491152 -0.14539355 -0.000440909 -0.013584592
-0.036086533 0.0057950667 -0.023978977 0.019096006 -0.030188452 9.381737e-05 0.0015504354 0.021113854
0.033784818 0.0003903214 -0.027959978 -0.019286295 0.015672388 0.0051731365 -0.015186961 -0.0054815304
-0.0040786653 -0.007081346 -0.06747005 0.015763672 0.1316111 -0.00592197 -0.05835775 -0.025760302
0.035199583 0.03719051 0.033364043 0.0058878874 -0.009861058 0.06080697 0.03966659 -0.09649242
0.0055984603 -0.0049159257 -0.0141459275 -0.0026391558 0.044373326 0.011935288 0.0035377175 0.15198725
-0.008948878 -0.00047956777 -0.0002171152 0.018950699 0.01640207 0.011034782 0.006466005 0.008483151
-0.0012412383 -0.04503053 -0.08403833 0.007338106 0.0046465853 0.015008377 -0.012885883 -0.03773446
-0.0046894597 0.0095871715 0.0145814475 -0.100887075 -0.011717308 0.013854917 -0.002514277 0.028040215
0.06677755 -0.0030466374 -0.26473475 0.0064055724 0.0057764435 0.011247259 0.03308577 -0.0026072906
-0.012240283 -0.070398755 0.0095573515 -0.040476475 -0.107181504 -0.15166199 -0.044388935 0.027871517
-0.0056620957 -0.0031544212 0.005397345 -0.011124091 0.030226978 -0.022578552 -0.0007086859 -0.0012640088
0.0010931815 -0.025878785 -0.022543032 0.06388521 -0.06491582 0.016617374 -0.08813857 0.015998757
0.009748307 0.0027186668 0.018962145 0.037652124 0.028986402 -0.061310526 -0.0025284756 -0.0630047
0.0044592605 -0.040767368 -0.04613829 0.004574871 0.009297982 0.02838777 0.0071419803 0.058716867
-0.007931016 -0.0071835797 -0.062754415 0.054562654 -0.08042564 -0.0014184198 0.014701031 -0.04250528
7.2024966e-05 -0.01339863 -0.0035568788 0.0043415506 -0.02163628 0.014749509 -0.043785382 -0.18197499
-0.03815672 -0.016473705 0.26524422 0.031194339 -0.00017378663 -0.010192449 -0.036633953 -0.013225362
-0.02120714 0.003166666 0.03601179 0.005795326 0.056240812 0.001208148 0.021253893 -0.00045256605

ms.layers.4.bias f4 [2]
00000000: 9f62 22bd 1b09 acbc
-0.039644834 -0.021000436

exp_avg f4 [164, 2]
00000000: c2a1 e1bb 1871 29bb 658b 9cb9 d27d 3f3a
00000010: 0652 3db9 702e c838 4939 f4b9 6396 0e39
00000020: fa17 3cba 8876 64b9 87f6 e9b9 4252 f538
00000030: 1c5a ed38 c605 5439 2dfd b1b9 9283 d139
00000040: b009 bcb8 2b85 423a c46c 51bb 287f 993a
00000050: 3cba 59b9 854a dcb9 2ef4 82b9 5698 3b38
00000060: a70f 5db9 a488 9939 5986 053a 788c 17b8
00000070: 8f9d 1bbb eec2 5dbb 78fe 7739 6487 1039
00000080: cdb3 07ba b022 6c37 a289 423a c957 9439
00000090: 0a0e edb8 1816 9eba 7169 fdb9 4274 92ba
000000a0: a7d0 43ba a840 9ab9 9384 1bba a833 3eb8
000000b0: fc91 13bb 4e0d d2ba bb90 943a 26d7 eb3a
000000c0: 4613 d6b9 86f9 c4b9 609a 6f39 c22b 1939
000000d0: 7e47 8339 6340 60b9 ac1a e738 5e18 2f38
000000e0: 1999 eeb9 9528 31b9 e6d6 a63a 6c1c 8b3a
000000f0: c1ba fc39 2075 5db9 b09a 44b7 240e 7cb9
00000100: 0ecb 68bb 2092 4238 a131 21ba e67f e8b9
00000110: 4319 2dba 107a 353a 01a9 83b9 7ce8 bd39
00000120: 2c25 183b 007f 72ba bad2 bab9 af19 8138
00000130: f627 103a 50b3 45b8 baf6 f13a ade8 a23a
00000140: 4ab8 87ba 3408 94b9 309d 05b9 ac76 2b39
00000150: 56bf ce39 80d7 fcb9 6949 93b8 8450 f2b8
00000160: 6079 ad3a 8a56 653a 62a4 a83a 6b2b 9f3a
00000170: c458 26b9 b93e 9e39 083a c9b7 1057 2ab9
00000180: 5c80 683a a84a 1037 d20c e83a 26db a739
00000190: 9aab ea38 8ffc 87b9 2a63 65b9 140b 78b9
000001a0: bc7f 2e38 39b3 ffb9 52d0 81ba c8d9 49b9
000001b0: 851f 12ba 2306 0eba 0661 a9ba 44de 91ba
000001c0: c835 5eb8 5a11 19b9 d261 d33a 00fd 8a39
000001d0: 115f 0aba 9b36 d3ba 2bc5 963a 4cc6 4c3a
000001e0: d136 033a 5e3b 63b9 30c8 cb39 5423 f538
000001f0: 92e5 ddb9 b44e 0ab8 a18c 4f39 a2ee b438
00000200: 9290 133a 20ac 1d37 92f8 413a 60fe 2038
00000210: 3b9b ddba aeae cfba 451c 453b a902 c23a
00000220: 1026 0aba d3fe a4b9 b220 ae38 4842 c939
00000230: 2e00 ffb9 9efb 8ab9 aa4c a0ba 39f7 c0ba
00000240: 080b f8b8 ba58 b339 16c0 163a 1ea3 823a
00000250: e988 6c38 0c1d bf39 8e8f 2dba 6071 9cba
00000260: b704 ceb9 3617 2fba 30aa 6b39 7b1b 5e39
00000270: 009c d3ba cd52 573b d1aa c6ba 2e0a 92ba
00000280: 0148 573a 2bda 8338 fc1b 8eb9 c757 36b9
00000290: d27e 4db9 b815 d937 03fd c139 3c53 60ba
000002a0: fe1a b6b9 9820 993a 811b 8639 2457 9d3a
000002b0: 1418 2639 7ef5 3b39 d1fa 57b9 94f4 82b9
000002c0: 3761 e4b9 fc6a 08ba 22b3 10b9 3663 ef39
000002d0: fe87 023a c261 62ba 8e42 a93a 7022 b4ba
000002e0: 20ba b638 e448 c5b9 2901 d6b9 1c87 04ba
000002f0: e16f c63a 6947 c83a 1db0 8f3a 1aca b239
00000300: 9c2c 83b8 6226 a839 a29d 613a 3a42 eab9
00000310: c0fd 8438 6e48 453a 1c90 3938 c0c1 7fb5
00000320: 6efe 63b9 1426 a939 9b80 57ba 12fc 07ba
00000330: 288d 14ba 911e ffb9 953a d73a 3496 e53a
00000340: 44e3 ebba f6ea e5ba 194a ecb9 2c8e 25b9
00000350: 04ea 60ba 8871 51ba f85a c138 73f9 aa38
00000360: 1e79 97ba cc68 3db9 94e3 053a 790f 063a
00000370: 6f4d a8ba dd8b 62bb 8864 1fb8 2d18 6439
00000380: eab8 f739 4a6e cd39 7c58 6d3a 54e8 8db8
00000390: a457 7938 4b68 2aba 9d28 8739 ea28 b7b9
000003a0: 1945 6ebb 8f72 5ebb 9c00 56b9 fded 1039
000003b0: 1f7e c539 7850 7839 1268 6a3b f01a e3b8
000003c0: e487 8fb8 aa8e a339 1eef 13ba 5162 4a39
000003d0: 20ca 57ba f036 d9b9 0ac3 f03a 8e9c 63b9
000003e0: 8943 46ba 32d1 97b9 3c13 7f39 3ef0 5eba
000003f0: c0c6 dfb8 60b6 b4b7 2fd8 34ba e045 3f36
-0.006885738 -0.0025854763 -0.00029858496 0.00073048205 -0.00018055 9.545393e-05 -0.00046581987 0.00013598199
-0.00071752036 -0.00021787931 -0.000446249 0.00011697832 0.00011317825 0.00020220046 -0.00033948701 0.00039961614
-8.966343e-05 0.0007420356 -0.0031955699 0.0011710869 -0.0002076411 -0.0004201719 -0.0002497746 4.472615e-05
-0.00021082033 0.0002928424 0.0005093567 -3.6132027e-05 -0.0023745035 -0.003383811 0.00023650553 0.00013783347
-0.0005176634 1.40747725e-05 0.00074210216 0.00028294165 -0.000113036556 -0.0012061028 -0.0004833448 -0.0011173564
-0.0007469751 -0.00029421342 -0.0005932536 -4.534764e-05 -0.0022517433 -0.0016025694 0.0011334637 0.0017993196
-0.0004083162 -0.00037569943 0.00022850325 0.00014607518 0.00025039533 -0.0002138629 0.000110199064 4.1745945e-05
-0.00045508964 -0.00016895153 0.001272884 0.0010613329 0.00048204328 -0.00021119835 -1.1718526e-05 -0.0002403786
-0.003552142 4.6389294e-05 -0.0006149058 -0.0004434578 -0.00066031906 0.0006922791 -0.00025112185 0.00036222104
0.0023215516 -0.0009250492 -0.00035633688 6.155983e-05 0.00054991187 -4.7135458e-05 0.0018460371 0.0012428962
-0.0010354605 -0.00028234872 -0.00012742425 0.0001635204 0.00039433938 -0.00048225746 -7.02318e-05 -0.000115544564
0.0013235025 0.0008748552 0.0012866373 0.0012143677 -0.00015864061 0.0003018284 -2.398809e-05 -0.00016244897
0.00088692247 8.600451e-06 0.0017704016 0.00032016 0.00011189953 -0.00025937377 -0.00021876083 -0.0002365525
4.1603795e-05 -0.0004877092 -0.0009904003 -0.00019249984 -0.0005574155 -0.00054177846 -0.0012922592 -0.0011128862
-5.2979012e-05 -0.00014597681 0.0016127175 0.0002650991 -0.0005278448 -0.0016114296 0.0011502852 0.0007811531
0.00050054217 -0.00021670523 0.0003886833 0.00011689091 -0.00042323448 -3.2975062e-05 0.00019793447 8.627518e-05
0.00056291476 9.398005e-06 0.00073994056 3.8383878e-05 -0.0016907224 -0.0015844905 0.0030076664 0.0014801818
-0.0005269954 -0.00031470376 8.3030565e-05 0.0003838709 -0.00048637524 -0.0002650888 -0.0012229879 -0.0014722116
-0.00011827616 0.00034207647 0.0005750669 0.0009966826 5.6394292e-05 0.00036452 -0.00066208176 -0.0011935644
-0.00039294895 -0.0006679179 0.00022474746 0.00021181807 -0.0016144514 0.003285575 -0.0015157108 -0.001114195
0.00082123285 6.287204e-05 -0.000271052 -0.00017389572 -0.00019597568 2.587853e-05 0.00037000337 -0.0008557325
-0.00034733856 0.0011682687 0.00025578964 0.0012004119 0.00015839963 0.00017925163 -0.00020597434 -0.00024977757
-0.0004355998 -0.000520393 -0.00013799642 0.0004565955 0.0004979371 -0.0008635783 0.0012913512 -0.0013743173
8.713105e-05 -0.00037629076 -0.00040818125 -0.0005055533 0.0015139544 0.0015280071 0.001096252 0.00034101383
-6.254876e-05 0.00032072054 0.0008606558 -0.000446813 6.341515e-05 0.00075257465 4.424165e-05 -9.5276846e-07
-0.0002174319 0.00032262562 -0.0008220763 -0.0005187403 -0.0005666786 -0.00048660164 0.0016420657 0.0017516077
-0.0017996808 -0.0017541337 -0.00045068635 -0.0001578859 -0.0008579793 -0.0007989635 9.2199014e-05 8.152695e-05
-0.0011556481 -0.00018063484 0.0005107459 0.0005114 -0.001284046 -0.0034568228 -3.800218e-05 0.0002175278
0.00047249283 0.0003918282 0.0009054018 -6.7666784e-05 5.9447848e-05 -0.0006500526 0.00025779466 -0.00034934963
-0.0036357103 -0.0033942794 -0.00020408857 0.00013821568 0.00037668736 0.000236811 0.0035767597 -0.00010829221
-6.844083e-05 0.00031196076 -0.0005643236 0.00019300847 -0.0008231718 -0.00041430397 0.0018368673 -0.00021706728
-0.0007563164 -0.00028956827 0.0002432586 -0.0008504427 -0.00010670489 -2.1542597e-05 -0.0006898669 2.850189e-06

exp_avg_sq f4 [164, 2]
00000000: 48d2 033a decd 183a f643 0036 fb31 dc36
00000010: a8c6 0136 3ef4 d635 e007 4136 65a9 0236
00000020: b714 b236 4806 8536 2233 ed36 36a3 d836
00000030: 4e56 7a36 7fa2 ba36 f747 0237 b15a a236
00000040: 5ee8 4237 1b9c 5e37 8353 8939 1bc5 c939
00000050: a080 cf35 d5e9 e735 e892 2537 c8fc 4b37
00000060: 4d01 fa35 4cbb 8636 ab10 af36 a2c7 0037
00000070: fe35 fe38 16dc 3d39 9d5f 9936 5ad9 1b37
00000080: e84f 2537 cdeb 8337 6c20 6c36 6fb4 1c36
00000090: 6d89 9437 7942 b537 a433 e137 c682 f237
000000a0: c83e e936 e6f9 1937 f7b4 ec36 a5d2 d636
000000b0: 8025 1a39 86c4 2a39 a5ad cb37 0e80 3238
000000c0: c632 d036 139d 7036 dc2d df36 2033 0537
000000d0: 5e26 ac36 c5dc 9e36 b6da 0d37 e91b ea36
000000e0: 5808 8136 b4b9 6b36 05b5 6f38 05e5 2338
000000f0: 3de9 8436 d74e 8536 fa83 b136 d8a6 2737
00000100: 1e2e 7d39 7e0a 8339 6a6e 5536 66ad 8236
00000110: 4218 6c37 a24f 6937 3605 4437 e5db b537
00000120: 46f4 2239 02d0 4539 fa50 bb35 384c 1236
00000130: aff6 e536 98bc 5537 bbf7 d837 74cf e337
00000140: cebd 1537 5264 e836 2e42 c735 91a8 4d36
00000150: 8460 8c37 f1bb 0f37 8f8f 0836 0803 bc35
00000160: 19ab 9c37 3674 9a37 f0a3 4a37 01c3 6737
00000170: 967d b736 e090 fd36 d1b6 bc36 2b4f 8336
00000180: 676c f736 cbd9 2837 0197 5137 9835 ad37
00000190: c2d4 2636 54ed 4236 5eb3 e436 34bf b436
000001a0: 0940 1c36 c5ef f836 5b2c 9437 95ce 0038
000001b0: 3d86 2a37 530e 9437 eb73 c937 9cc5 b337
000001c0: cdbd a536 3d39 9536 e0ab fc38 f904 d938
000001d0: 50ff 1139 d79e 1739 980b 8237 2754 d937
000001e0: b713 a837 4758 8b37 996e 0237 47cf 5e37
000001f0: 5aeb 0837 7864 7b36 5683 b436 05a3 8336
00000200: eccc a136 718e c036 e37e 6837 d8aa 1337
00000210: b87e fa37 5fa1 0b38 74eb 5238 a925 2538
00000220: c5d2 a136 0c9a 1437 caa8 b436 031e bf36
00000230: b573 b437 bbb2 a737 d9c4 b837 7f2f 8d37
00000240: effe c336 ffb0 9236 d776 c736 79a3 0237
00000250: 8926 5136 9612 9636 6a90 9a37 28f7 a537
00000260: 948e 2137 24b9 8937 93a1 4c36 622b 8336
00000270: 139b 353a 6d2b 5a3a 00e9 3338 5474 1738
00000280: 2b30 2737 f385 d036 128c 8936 f0f9 bf36
00000290: 029b 7137 09df 8037 5b53 8237 4f32 b537
000002a0: d2ce 5737 94f3 d637 1c2f 2637 1dae e437
000002b0: 7cd0 0437 c2b4 1b37 ccca f236 0050 8a37
000002c0: 95fa 3836 04cd b236 cd19 1737 e617 2337
000002d0: 51bc 4737 118a ab37 2788 7f37 1ef7 f437
000002e0: 9328 ca37 68a8 1337 6605 e736 0519 5337
000002f0: b717 0338 b05f 3938 9f94 b437 75fa 9737
00000300: 4d40 1c37 bf15 cd36 93ba a736 7367 0837
00000310: 2897 5b37 9a4a a737 3337 2a36 3532 3136
00000320: 4e01 2237 ff4e a337 b628 7737 3c95 7e37
00000330: 528a 3d37 48e1 d236 1df5 3638 b15f 2c38
00000340: 7d26 0439 2557 d138 d1e0 b537 8c2f 9737
00000350: 6883 8e37 e054 a837 325f 7537 2dc7 8e37
00000360: dae1 0f38 5976 8637 bb99 1c36 8ae7 8d36
00000370: 9e83 fb39 7a7c e039 1139 1d36 d513 3436
00000380: 181d 4636 f8aa 5836 4407 ff36 e33a 4637
00000390: d142 cd36 119b f936 7793 0d37 43f3 1537
000003a0: f409 f439 bd17 163a dba4 fc36 487a b436
000003b0: 5f41 b836 18c8 2936 405b 313a f9ba 3c3a
000003c0: 5090 9536 c90c e636 7daf 2437 43cc 3737
000003d0: 6c99 d936 806d 0c37 d321 7337 016d f536
000003e0: 04da 0937 1047 1337 7d1e 1037 07df 8a37
000003f0: fbfa 1536 7014 9936 2d6a 6f37 3d05 0b37
0.0005028588 0.00058290164 1.9113045e-06 6.5623294e-06 1.933813e-06 1.6015326e-06 2.8763825e-06 1.947011e-06
5.307225e-06 3.96444e-06 7.069103e-06 6.456302e-06 3.730314e-06 5.562149e-06 7.765359e-06 4.838534e-06
1.1617403e-05 1.3268577e-05 0.00026192897 0.00038484563 1.5460137e-06 1.7278895e-06 9.868971e-06 1.2158598e-05
1.862683e-06 4.0153154e-06 5.217347e-06 7.675875e-06 0.00012121721 0.00018106433 4.570886e-06 9.289326e-06
9.853371e-06 1.572622e-05 3.5185612e-06 2.3350838e-06 1.7706969e-05 2.1607835e-05 2.6846137e-05 2.8909544e-05
6.95125e-06 9.177695e-06 7.054415e-06 6.4022192e-06 0.00014700554 0.00016285674 2.4280345e-05 4.2557767e-05
6.204794e-06 3.5854216e-06 6.6512566e-06 7.939321e-06 5.130466e-06 4.734468e-06 8.4551775e-06 6.9769926e-06
3.845471e-06 3.5125822e-06 5.7150628e-05 3.907552e-05 3.961059e-06 3.972887e-06 5.290375e-06 9.992822e-06
0.0002414514 0.00024994084 3.1803743e-06 3.894488e-06 1.4072344e-05 1.3906423e-05 1.1683724e-05 2.1679278e-05
0.00015540523 0.00018864873 1.3956153e-06 2.180006e-06 6.8534496e-06 1.27397e-05 2.5864565e-05 2.7157112e-05
8.925284e-06 6.9258176e-06 1.4845916e-06 3.06455e-06 1.6734244e-05 8.567223e-06 2.0349141e-06 1.4007974e-06
1.8676323e-05 1.8412346e-05 1.2078308e-05 1.3814076e-05 5.468445e-06 7.5568532e-06 5.6241192e-06 3.9133206e-06
7.3737933e-06 1.0064289e-05 1.2492529e-05 2.0648164e-05 2.485977e-06 2.9046396e-06 6.8158106e-06 5.386677e-06
2.3283085e-06 7.418889e-06 1.766363e-05 3.0709973e-05 1.0164044e-05 1.7649645e-05 2.4015046e-05 2.1430482e-05
4.939479e-06 4.4472094e-06 0.000120483106 0.000103482926 0.00013923389 0.00014459655 1.5502606e-05 2.5907602e-05
2.0036341e-05 1.6611199e-05 7.774354e-06 1.3280492e-05 8.161029e-06 3.7460395e-06 5.3797075e-06 3.923082e-06
4.82203e-06 5.7386283e-06 1.3857821e-05 8.80166e-06 2.986133e-05 3.329047e-05 5.0287184e-05 3.937414e-05
4.8227107e-06 8.857354e-06 5.3840677e-06 5.6957374e-06 2.1511552e-05 1.999118e-05 2.2026174e-05 1.6830627e-05
5.841131e-06 4.371744e-06 5.944497e-06 7.786665e-06 3.1165857e-06 4.472512e-06 1.8425479e-05 1.9784624e-05
9.629544e-06 1.6417885e-05 3.0492417e-06 3.9091547e-06 0.000692771 0.0008322511 4.2893924e-05 3.6109544e-05
9.965191e-06 6.214477e-06 4.0992245e-06 5.72134e-06 1.440081e-05 1.5362648e-05 1.5536023e-05 2.1600308e-05
1.2863153e-05 2.5624213e-05 9.9053395e-06 2.7260796e-05 7.916355e-06 9.280806e-06 7.2357707e-06 1.6488135e-05
2.7563995e-06 5.3286803e-06 9.006309e-06 9.721121e-06 1.190517e-05 2.044908e-05 1.5230885e-05 2.920214e-05
2.409917e-05 8.801093e-06 6.884965e-06 1.2582405e-05 3.125492e-05 4.4196553e-05 2.152688e-05 1.811723e-05
9.313296e-06 6.1120077e-06 4.998708e-06 8.130318e-06 1.3088611e-05 1.994269e-05 2.5364104e-06 2.640428e-06
9.656256e-06 1.94679e-05 1.4731826e-05 1.5174326e-05 1.1297483e-05 6.284714e-06 4.362046e-05 4.1097115e-05
0.00012602839 9.9821285e-05 2.168157e-05 1.8022743e-05 1.698891e-05 2.0066684e-05 1.4625302e-05 1.7020468e-05
3.4304197e-05 1.6029155e-05 2.3335294e-06 4.229082e-06 0.00047972513 0.00042817352 2.342804e-06 2.6833634e-06
2.9521234e-06 3.2286025e-06 7.600438e-06 1.181543e-05 6.1172545e-06 7.4388304e-06 8.438589e-06 8.937731e-06
0.00046546722 0.0005725583 7.529377e-06 5.3786534e-06 5.4912375e-06 2.5299432e-06 0.00067656115 0.0007199492
4.457346e-06 6.8560225e-06 9.816021e-06 1.0955208e-05 6.4849646e-06 8.370145e-06 1.4491804e-05 7.3142587e-06
8.216597e-06 8.778428e-06 8.590167e-06 1.6554737e-05 2.234882e-06 4.5621346e-06 1.4270231e-05 8.286265e-06

exp_avg f4 [164]
00000000: 9392 beba d2fb 99b8 b630 8fb7 00af ad33
00000010: 46a1 7f38 cd2e b9b8 70a3 c0b4 e48c a6b8
00000020: 064a 15b9 0e7f 67ba 3fc2 0538 c9c0 7138
00000030: ca58 50b8 fec7 11b8 e144 09ba 059c dc37
00000040: 300a 3d38 966a acb8 ac9f 5439 01d5 fb38
00000050: 2cd3 a9b7 36f4 0bb9 ec9b 47ba 00a5 a039
00000060: 2ffa 2838 9c07 b0b6 a8c3 5338 e029 f4b5
00000070: 2cbb 1f38 735d 8639 59a5 1e39 cec7 83b8
00000080: 40d5 9bba f46f 1539 48e4 0537 e0e0 e738
00000090: 11ab e3b9 380c e2b7 818c ac37 cc87 9239
000000a0: 1c7b 0739 983f 1938 eb49 0539 7814 0138
000000b0: 04db 1439 9f40 4039 08bf 9a38 ad6c 59b8
000000c0: 2f0e 1139 34ef 4139 8477 beb6 023d 8a38
000000d0: b181 89b8 3809 adb9 6e60 e438 9ead eb38
000000e0: 422b 9137 88c6 b739 a282 1cba 4877 0539
000000f0: 26a8 dcb8 2fdb 4e38 aaeb 2c38 1c1b 21b7
00000100: b742 52b8 7865 c638 3ef1 2ab9 6621 e339
00000110: 88b3 5638 0e61 45b7 319b bab9 d971 6d39
00000120: 87be 8ab8 826c 1739 daf1 1bb7 7c8e ab38
00000130: 025a 0a39 d846 53b8 afc4 cbba 8ce0 c937
00000140: 207f 9038 9303 1ab9 8834 9eb6 027e c538
00000150: 0a3b 7339 79f1 2f39 be16 7d37 ccab 0437
00000160: bee8 9638 cce1 0e38 2d0c 8637 c8bc 4139
00000170: 76d1 6ab9 20bc 6d37 bf4c 5539 012c f438
00000180: dfe7 0c38 95d7 b338 3f01 26b9 dc23 8a38
00000190: 3adc c238 6655 ca37 d82b 6738 29cc 9239
000001a0: b244 1cba 3a3c 7638 4c8d 3339 e551 ffb8
000001b0: 4ecf 86b9 eaf5 1338 22d8 9bba ed6e e237
000001c0: d527 5638 7e11 5e39 5830 31b8 3481 0939
000001d0: b041 a6ba 6c63 b638 291c c738 247f 7eba
000001e0: ad14 ba38 702e 5438 8404 3538 82ef bdb8
000001f0: 467c 0c39 4a6e 3939 1026 97b4 bb66 14b9
00000200: 96f8 6f38 cd91 8439 b8cf 0fb8 e776 fa38
00000210: b0b3 fd37 5171 c7b8 912f abb7 c440 9539
00000220: d39f 00b9 0afc 6fba 6f1a 7539 e844 8939
00000230: 2039 a438 3ca0 6c38 0ce6 d837 36a0 efb8
00000240: f045 a8b7 d75a aa38 363b 9b38 5707 af37
00000250: de79 63b5 1a4b 0638 a2f6 38ba 3948 cc38
00000260: ca4f 4038 a8d4 80b7 d602 c738 b430 3139
00000270: 17c6 a8b8 d2c2 ccb9 5c57 f138 aeef 97b8
00000280: 0b43 cab7 4613 ff37 392c c0b9 db75 5a39
-0.0014539532 -7.342514e-05 -1.7069611e-05 8.0877726e-08 6.0946935e-05 -8.830205e-05 -3.5881703e-07 -7.94174e-05
-0.00014237323 -0.00088308833 3.1890577e-05 5.7638423e-05 -4.9673756e-05 -3.475695e-05 -0.0005236399 2.6298696e-05
4.50706e-05 -8.221452e-05 0.00020277378 0.00012008288 -2.0244705e-05 -0.00013347049 -0.0007614482 0.00030640513
4.0287323e-05 -5.2460946e-06 5.048854e-05 -1.8191604e-06 3.808287e-05 0.00025628097 0.00015129651 -6.283783e-05
-0.0011889115 0.00014251453 7.980569e-06 0.000110568246 -0.00043424268 -2.694699e-05 2.0569425e-05 0.00027948467
0.00012920465 3.653727e-05 0.00012711405 3.077506e-05 0.0001419597 0.0001833462 7.3788746e-05 -5.1838044e-05
0.00013833561 0.00018495024 -5.6763547e-06 6.5917164e-05 -6.556826e-05 -0.00033004 0.000108898486 0.00011238012
1.730549e-05 0.00035052397 -0.00059703935 0.00012728304 -0.000105217376 4.9318358e-05 4.1227475e-05 -9.60266e-06
-5.0130035e-05 9.460276e-05 -0.00016302333 0.00043321698 5.1188777e-05 -1.1764712e-05 -0.0003559231 0.00022644493
-6.615841e-05 0.00014440904 -9.29503e-06 8.180455e-05 0.00013194236 -5.03723e-05 -0.0015546287 2.406563e-05
6.890134e-05 -0.00014687916 -4.7148824e-06 9.417163e-05 0.0002319628 0.00016779256 1.508527e-05 7.907813e-06
7.195909e-05 3.4065728e-05 1.5979715e-05 0.00018476241 -0.0002239401 1.4170102e-05 0.00020341853 0.00011643023
3.3594548e-05 8.5755404e-05 -0.00015831458 6.587032e-05 9.291661e-05 2.4120043e-05 5.5115524e-05 0.000279994
-0.0005961164 5.870706e-05 0.00017123407 -0.000121746016 -0.00025712926 3.5276556e-05 -0.0011889974 2.6992953e-05
5.1058672e-05 0.00021178086 -4.2245112e-05 0.0001311347 -0.0012684371 8.696955e-05 9.494305e-05 -0.00097082765
8.873022e-05 5.0587987e-05 4.315797e-05 -9.056834e-05 0.00013397736 0.00017684061 -2.8153636e-07 -0.0001415265
5.7213554e-05 0.00025285632 -3.428731e-05 0.00011943076 3.0243624e-05 -9.510166e-05 -2.0406938e-05 0.0002846775
-0.0001226657 -0.0009154683 0.00023374868 0.00026182015 7.83077e-05 5.6416015e-05 2.585633e-05 -0.0001142625
-2.0059728e-05 8.123152e-05 7.402005e-05 2.0865044e-05 -8.474143e-07 3.2018033e-05 -0.0007055794 9.7409305e-05
4.5850677e-05 -1.5357815e-05 9.489588e-05 0.00016898179 -8.0477614e-05 -0.00039055065 0.000115080475 -7.244885e-05
-2.4111496e-05 3.0407344e-05 -0.00036654042 0.00020834005

exp_avg_sq f4 [164]
00000000: bd52 1937 fb1a e033 bc04 3e33 fa0a 7633
00000010: bc09 9933 9897 2034 6dfd cf33 e76c 3e34
00000020: 1753 8734 131e b636 ca1b d332 a14f 6234
00000030: 3dcb c833 75e7 0034 fd41 f635 9086 4734
00000040: e96e 9c34 906c 8f33 7f70 d534 dbec 1635
00000050: 095f 1a34 2bb1 8734 05d3 3736 445c 1935
00000060: bd46 dc33 8a78 1234 ed60 1e34 7403 0e34
00000070: b658 a633 164a 3f35 7583 c433 e655 dc33
00000080: cd2a df36 28a6 a333 b601 8934 fa4f b234
00000090: 8f97 3436 d8aa 1033 6031 8334 a578 1635
000000a0: 15d4 5234 c41f 5133 fc25 6734 d01b 1533
000000b0: cd51 a734 011c 5b34 f60b 2334 d8f6 4134
000000c0: 192b 7c34 fdb5 ff34 e093 4433 a978 4134
000000d0: 2e85 a433 ab16 1c35 c3f6 9b34 08d3 c034
000000e0: b25f 9a33 904a f035 753a 1636 f93a 0635
000000f0: c48c ae34 848c 8734 9a0b 0434 0f9d dc33
00000100: a299 b333 08b6 8234 caa5 bd34 2c8f 8235
00000110: b927 2334 4549 b233 147c 0435 72dc df34
00000120: a2a7 1134 7231 2c34 d3af 0334 75a9 bb34
00000130: 8110 7034 36aa ca33 083a 6137 cfba 3035
00000140: 58cf f933 ef2d 6f34 417e 5134 52f9 8134
00000150: b2d5 9d34 d65c b934 da57 0e34 3580 8034
00000160: f1e0 2434 a65a 6534 8e04 a634 103d cd34
00000170: db76 8e34 f731 7c34 ac5e 7635 4943 aa34
00000180: 0a50 1a34 d77c c333 b6e4 d534 0e2a 3933
00000190: e602 3434 49d1 9a34 ff88 4934 2cf9 1135
000001a0: 2546 0536 18af de34 2fa5 c734 2d2a 9234
000001b0: 706b df34 51a9 8633 8d6b da36 8ff9 9233
000001c0: efee 8c33 d715 6334 7e74 0434 8cc4 6f34
000001d0: c2e2 e936 5e8f 2934 bf47 e433 3091 5637
000001e0: 851a 9233 383a 8834 c54e 1234 8d9a 8834
000001f0: 17ed 4234 cc4c 9934 e869 cb33 0f06 5534
00000200: 6629 9e34 f85b 9e34 e08c 4834 ef85 9633
00000210: b403 1034 d207 ae33 120b b533 c7e1 3735
00000220: fbd5 9534 cf66 ad36 86d1 0835 60ff af34
00000230: 22a0 3f34 fab8 fa33 fd9a 7234 c9e6 9f34
00000240: 161d 3634 2326 f533 d825 5334 2132 cf33
00000250: e105 4f33 9da5 9933 d663 1f36 955d 6434
00000260: 5dd9 c133 3016 af34 9195 3c33 ee71 c234
00000270: 4c54 7333 137a 3e35 5ed7 ee33 a9a2 5034
00000280: 0d70 a633 fb53 c133 503b b435 6dae 0435
9.138775e-06 1.04357206e-07 4.4242128e-08 5.728632e-08 7.1263884e-08 1.495631e-07 9.6852865e-08 1.7734747e-07
2.5206165e-07 5.427524e-06 2.457627e-08 2.1076859e-07 9.3501946e-08 1.2005133e-07 1.8347633e-06 1.8582273e-07
2.9137962e-07 6.678704e-08 3.9756193e-07 5.6224025e-07 1.4376941e-07 2.5274616e-07 2.7391955e-06 5.7131206e-07
1.02574155e-07 1.3641161e-07 1.4750158e-07 1.3226037e-07 7.746114e-08 7.1260854e-07 9.150873e-08 1.0260173e-07
6.6509006e-06 7.6205026e-08 2.5519483e-07 3.3213274e-07 2.6910309e-06 3.3682994e-08 2.4436576e-07 5.6054915e-07
1.9634929e-07 4.8690495e-08 2.152737e-07 3.471706e-08 3.1165692e-07 2.0406152e-07 1.518491e-07 1.8064327e-07
2.3485008e-07 4.7629865e-07 4.5769298e-08 1.8018422e-07 7.6610704e-08 5.8147515e-07 2.9050543e-07 3.5916332e-07
7.188591e-08 1.7903094e-06 2.2385768e-06 5.0004707e-07 3.2512446e-07 2.5247948e-07 1.2297679e-07 1.0273117e-07
8.363283e-08 2.4346832e-07 3.532462e-07 9.727423e-07 1.5195009e-07 8.3020986e-08 4.935439e-07 4.1697382e-07
1.3565162e-07 1.6036736e-07 1.226429e-07 3.495476e-07 2.2357746e-07 9.437319e-08 1.34245565e-05 6.583695e-07
1.1632682e-07 2.227532e-07 1.9510573e-07 2.4209527e-07 2.9399013e-07 3.4526482e-07 1.3256741e-07 2.393514e-07
1.5355523e-07 2.1360265e-07 3.0923223e-07 3.8228654e-07 2.653604e-07 2.3487506e-07 9.1779907e-07 3.1713924e-07
1.4371486e-07 9.103103e-08 3.984075e-07 4.3111918e-08 1.6764861e-07 2.883701e-07 1.8769423e-07 5.43793e-07
1.9859374e-06 4.147812e-07 3.7186825e-07 2.7225306e-07 4.1615158e-07 6.27066e-08 6.509427e-06 6.844049e-08
6.56272e-08 2.1148968e-07 1.2335838e-07 2.2330113e-07 6.970339e-06 1.5791508e-07 1.0630128e-07 1.2789198e-05
6.803479e-08 2.5374334e-07 1.3625966e-07 2.5444425e-07 1.8153911e-07 2.8554348e-07 9.4721884e-08 1.9839375e-07
2.9459915e-07 2.949671e-07 1.8677702e-07 7.009282e-08 1.3412392e-07 8.103929e-08 8.430483e-08 6.850136e-07
2.7909104e-07 5.1677703e-06 5.0968845e-07 3.27821e-07 1.7846517e-07 1.1675179e-07 2.2594391e-07 2.9783976e-07
1.6960652e-07 1.14156386e-07 1.9664674e-07 9.648307e-08 4.820129e-08 7.1547426e-08 2.3750958e-06 2.12682e-07
9.026801e-08 3.2612434e-07 4.390819e-08 3.621821e-07 5.6654514e-08 7.0958157e-07 1.1121914e-07 1.9430685e-07
7.750359e-08 9.002539e-08 1.3428307e-06 4.9427655e-07
