docs/smld/lightning_logs/version_64/checkpoints/epoch=49-step=4900.ckpt (torch, 345931 bytes, 18 tensors)

ms.layers.0.weight f4 [164, 3]
0	0xbe86532a	-0.26235324
1	0x3e59b088	0.21258748
2	0xbe9c5d71	-0.3054004
3	0x3e08eef8	0.1337241
4	0xbe2f8369	-0.17139973
5	0xbe7221c7	-0.23645698
6	0xbe4a44f9	-0.19752873
7	0xbef7cbd4	-0.48397696
8	0xbf155ef1	-0.58347994
9	0x3e68e4d2	0.22743538
10	0x3eb93913	0.36176357
11	0xbe993b71	-0.29928163
12	0x3e9b587b	0.30340943
13	0xbdc021d7	-0.093814544
14	0xbe1aa589	-0.15102209
15	0x3ea42536	0.3205964
16	0xbeda196b	-0.42597517
17	0x3e1ceac0	0.15323925
18	0x3d20d45b	0.039265018
19	0xbeeeb3a3	-0.46621427
20	0xbe877fe4	-0.2646476
21	0x3e9105c2	0.28324705
22	0x3ef6bc55	0.4819056
23	0xbe9818ce	-0.29706424
24	0x3f029e61	0.5102292
25	0x3d148154	0.03625615
26	0xbede7745	-0.4345037
27	0x3edc3f52	0.4301706
28	0xbd5188ba	-0.051155783
29	0x3e8530fc	0.26013935
30	0x3e2ddb67	0.16978227
31	0xbed49d39	-0.415262
32	0x3dd787a9	0.10523922
33	0x3e5c8f7e	0.21539113
34	0xbda76528	-0.08173591
35	0x3ebf6566	0.37382048
36	0x3eaa68dc	0.33283126
37	0xbe457f5e	-0.19286868
38	0xbe3e6e1b	-0.1859669
39	0x3ed80227	0.42189142
40	0x3e2270b9	0.15863313
41	0x3dbb1afd	0.09136007
42	0xbea309e7	-0.31843492
43	0xbdd06593	-0.10175624
44	0x3e6564b6	0.224017
45	0x3e5249cf	0.20535968
46	0x3e842686	0.2581064
47	0x3c73678e	0.014856232
48	0x3e9a9334	0.30190432
49	0xbd4207d3	-0.047370743
50	0xbe041a5a	-0.12900677
51	0x3e19bb79	0.15012921
52	0xbe00b733	-0.12569885
53	0x3ea07dd8	0.3134601
54	0xbee12f7e	-0.43981546
55	0x3e30e5ba	0.17275134
56	0x3c454a45	0.012041633
57	0x3e77f2e3	0.24213748
58	0xbe573cf9	-0.21019353
59	0xbe8a7a01	-0.27046207
60	0xbebd9ea7	-0.37035105
61	0xbe53fa72	-0.20701006
62	0xbe402fb2	-0.18768194
63	0x3dc33585	0.095316924
64	0x3d925d32	0.07146682
65	0xbd979b76	-0.07402699
66	0x3c18a48b	0.009316574
67	0xbe988e91	-0.2979627
68	0xbef150b7	-0.47131893
69	0x3eaba9ae	0.33527893
70	0x3ccb3e97	0.024810119
71	0xbe6b9bd6	-0.23008665
72	0xbd41c047	-0.04730251
73	0x3ecfc91f	0.4058313
74	0x3eb4db4f	0.3532357
75	0xbe393a6b	-0.18088691
76	0x3d4394d6	0.047749363
77	0xbea3092e	-0.3184294
78	0xbed23125	-0.4105312
79	0xbe8313f7	-0.2560117
80	0x3dfcfa9f	0.1235249
81	0xbe46af3c	-0.19402784
82	0xbe51f427	-0.20503293
83	0x3e7b0b5e	0.24516055
84	0x3e6e8c81	0.23295785
85	0xbdf963b3	-0.12177219
86	0x3c3f1d2e	0.011664672
87	0x3dc95ce8	0.098321736
88	0xbe19bab9	-0.15012635
89	0x3d0ad842	0.033897646
90	0x3e71c443	0.23610024
91	0x3e3546a8	0.17702734
92	0x3e7dd001	0.24786378
93	0x3e99dd5f	0.30051705
94	0x3eb25f38	0.3483827
95	0xbeda8afe	-0.42684168
96	0x3e67c748	0.22634614
97	0x3e5437a2	0.20724347
98	0xbc16f0b1	-0.009212659
99	0x3b986691	0.0046508987
100	0xbe95877f	-0.29204938
101	0xbee282db	-0.4424046
102	0x3d51f01d	0.05125438
103	0xbc8847ba	-0.016635764
104	0x3ebd3965	0.3695785
105	0xbd97082e	-0.07374607
106	0xbc51c5da	-0.012803519
107	0x3ec870d9	0.39148596
108	0xbe837f78	-0.25683188
109	0xbe0c9f8a	-0.13732734
110	0xbe14efe9	-0.14544643
111	0x3f01dc86	0.5072712
112	0x3d97dde7	0.074153714
113	0x3c961bd3	0.018323814
114	0xbda9ab81	-0.08284665
115	0x3ebba5f6	0.36650056
116	0x3cc47f01	0.023986341
117	0xbd8c8faf	-0.06863343
118	0x3dc86c38	0.09786266
119	0x3e5f934b	0.21833532
120	0x3f0092c8	0.5022397
121	0xbda7192e	-0.081590995
122	0x3dd99d94	0.10625759
123	0xbe87c0e9	-0.26514366
124	0xbe00e959	-0.12589015
125	0xbea65479	-0.32486323
126	0xbe567e46	-0.20946607
127	0xbe82a1c3	-0.2551404
128	0xbe97ff7a	-0.296871
129	0x3e6acf47	0.22930633
130	0x3e692b22	0.2277036
131	0x3eb69199	0.35657957
132	0xbd1dd825	-0.03853621
133	0xbefc7096	-0.49304646
134	0xbedb5839	-0.42840746
135	0x3d86ff45	0.065916575
136	0x3d8f753f	0.07004785
137	0x3e1ebc2c	0.1550147
138	0xbea5ade5	-0.32359233
139	0x3e845cd9	0.25852087
140	0xbd13cabd	-0.03608202
141	0xbd8a4dab	-0.06753095
142	0xbeab3262	-0.33436877
143	0xbe7898f0	-0.24277091
144	0xbdc21fac	-0.09478697
145	0x3e59b124	0.2125898
146	0x3c217357	0.009854159
147	0x3cdc275b	0.026874235
148	0xbed61c3e	-0.41818422
149	0x3d7cf754	0.061759308
150	0xbef39634	-0.47575533
151	0xbdf0d93e	-0.11760186
152	0xbe20ecd1	-0.15715338
153	0x3e379cf2	0.17930964
154	0x3d833f26	0.06408529
155	0xbd8a4aec	-0.067525715
156	0xbed377d8	-0.4130237
157	0x3e9a09c6	0.30085582
158	0xbdb29dec	-0.087215275
159	0xbe1a6dc9	-0.15080942
160	0xbdbe80a1	-0.09301878
161	0x3e1c4db7	0.15264021
162	0xbeb7e3f2	-0.35916096
163	0x3e68256e	0.22670528
164	0x3eb75bd4	0.35812247
165	0xbeb2a137	-0.34888622
166	0x3e941bea	0.28927547
167	0x3e5fd27a	0.21857634
168	0x3bb868b2	0.005627715
169	0xbda75153	-0.08169808
170	0x3d140058	0.03613314
171	0xbe9c92e6	-0.30580825
172	0xbed8ba20	-0.42329502
173	0x3ed47503	0.41495523
174	0xbcbf87b1	-0.023380132
175	0x3efb8c40	0.4913044
176	0xbeec018e	-0.46094936
177	0x3ed1d2a2	0.40981013
178	0xbe941ee8	-0.2892983
179	0x3d95ab0a	0.07308014
180	0x3e8cfdd3	0.27537403
181	0x3ed253fd	0.41079703
182	0xbe205a9e	-0.15659568
183	0x3e46bf5e	0.19408938
184	0x3ea18247	0.31544706
185	0x3ea0a270	0.3137393
186	0x3bae8282	0.0053256163
187	0x3c932c06	0.017965328
188	0xbf0529f7	-0.5201716
189	0x3e9663e5	0.29373088
190	0x3e999071	0.29993013
191	0x3ae3b65a	0.0017373071
192	0xbea1f329	-0.3163083
193	0x3ecf8e52	0.4053827
194	0xbe236626	-0.15956935
195	0x3e45ad79	0.19304456
196	0x3eee224b	0.46510538
197	0xbe4b726e	-0.1986787
198	0xbe5a8ceb	-0.21342818
199	0x3bc7f512	0.0061022127
200	0xbf09a409	-0.5376592
201	0x3cf0e1af	0.02940449
202	0xbea736f1	-0.32659104
203	0xbee5f3b8	-0.44912505
204	0xbf05b468	-0.52228403
205	0xbe94805c	-0.2900418
206	0xbeb89bbe	-0.36056322
207	0x3e403435	0.18769915
208	0x3e3e6b4c	0.18595618
209	0xbe383403	-0.17988591
210	0xbef7d857	-0.48407242
211	0x3ef10eee	0.47081703
212	0xbf19050e	-0.5977334
213	0x3ecb4ede	0.39708608
214	0xbd4a8899	-0.049446676
215	0xbf104723	-0.56358546
216	0xbf1013e1	-0.5628033
217	0x3ed3cf83	0.41369256
218	0xbed19fda	-0.4094227
219	0xbedbcb18	-0.42928386
220	0x3e3c2628	0.1837393
221	0x3e6c8a52	0.2309964
222	0xbe65f24d	-0.22455712
223	0x3d16bb60	0.03679979
224	0x3d3077db	0.043083053
225	0x3ec6480a	0.38726836
226	0xbe818670	-0.2529788
227	0x3e4f4f54	0.20245105
228	0xbeb610ea	-0.3555978
229	0x3ecf1c30	0.40451193
230	0xbdcc5a5c	-0.09978172
231	0x3ed7bd38	0.4213655
232	0x3c8df58e	0.017329004
233	0x3eb858a2	0.3600512
234	0xbeff6b31	-0.49886468
235	0xbed405d1	-0.41410688
236	0xbea5e30e	-0.3239979
237	0xbe3d1659	-0.18465556
238	0xbe5fb5f3	-0.21846752
239	0x3ef7b512	0.48380333
240	0x3e994415	0.29934755
241	0xbeb250eb	-0.3482736
242	0x3da17042	0.078827396
243	0xbee8498a	-0.45368606
244	0xbe770794	-0.24123985
245	0x3f0d91b6	0.5530046
246	0x3ee0bd8f	0.43894622
247	0x3e9cff25	0.3066341
248	0x3dfc01d6	0.12305038
249	0x3e40602f	0.18786691
250	0x3f08e2b6	0.53470933
251	0xbd8d0fce	-0.0688778
252	0x3ddb234b	0.10700091
253	0x3ed3c0d6	0.4135806
254	0xbedd6315	-0.43239656
255	0xbeba4b35	-0.36385503

ms.layers.0.bias f4 [164]
0	0xbecc1724	-0.39861405
1	0x3f2940dd	0.661146
2	0xbf08dfe3	-0.53466624
3	0xbf040635	-0.5157197
4	0x3e99f22f	0.30067584
5	0x3d815905	0.06315807
6	0xbeaed331	-0.341455
7	0x3f03a701	0.514267
8	0xbf597cbe	-0.84955966
9	0x3ec00eb6	0.37511224
10	0x3d9a4263	0.075321935
11	0xbea1d68e	-0.31609005
12	0x3ed8be4b	0.42332682
13	0xbe19d9eb	-0.15024535
14	0xbe961ea5	-0.29320255
15	0xbd96d4f2	-0.07364835
16	0xbf6340f1	-0.8877097
17	0x3d7ce0f5	0.061737973
18	0xbf04aec5	-0.5182918
19	0xbeb2a8b6	-0.3489434
20	0xbf29b8f2	-0.6629783
21	0x3f79c6bb	0.97568864
22	0x3e803573	0.2504078
23	0x3dabd6ff	0.083906166
24	0x3ecf163c	0.4044665
25	0x3f819b79	1.0125571
26	0x3f033959	0.5125938
27	0xbf40c6b0	-0.75303173
28	0x3db83673	0.0899476
29	0x3db40223	0.0878947
30	0x3f423e63	0.75876445
31	0x3e48148f	0.19539092
32	0x3e33cd97	0.17558895
33	0x3f1de358	0.61675024
34	0x3eb6e872	0.35724217
35	0xbf494829	-0.7862573
36	0x3e8747a2	0.2642184
37	0xbeabdc50	-0.33566523
38	0xbecab8f3	-0.3959423
39	0xbf64b49f	-0.89338106
40	0xbf0464b1	-0.5171614
41	0xbf850a67	-1.03938
42	0xbf1d4693	-0.6143581
43	0x3df4fbfe	0.11962126
44	0x3f23e388	0.6401906
45	0xbef7c8e7	-0.48395464
46	0x3e11d739	0.14242257
47	0x3f06fe48	0.5273175
48	0x3f1c31df	0.610136
49	0xbecc98d6	-0.39960355
50	0xbe3c5a5f	-0.18393849
51	0xbf0c487f	-0.5479812
52	0xbf48b646	-0.7840313
53	0xbf46a83b	-0.7760045
54	0xbf3913f6	-0.7229608
55	0xbf13b458	-0.5769706
56	0x3f2924c6	0.66071737
57	0x3e979659	0.29606894
58	0x3e5ec11f	0.21753357
59	0xbf4c6135	-0.79835826
60	0xbd9c7bcc	-0.076408
61	0x3ebc4203	0.36769113
62	0xbe97f431	-0.2967849
63	0x3f109604	0.56478906
64	0x3ecb56a2	0.39714533
65	0x3eba0d15	0.36338106
66	0xbf199184	-0.59987664
67	0xbf85eb18	-1.046237
68	0x3f09fc38	0.5390048
69	0xbe960d89	-0.29307202
70	0xbf54c3ba	-0.83111155
71	0xbe660952	-0.22464493
72	0x3d39e3e8	0.045383364
73	0xbf1a7367	-0.6033234
74	0x3f0ddc77	0.5541453
75	0x3ecc3caa	0.39890033
76	0x3e103630	0.14083171
77	0x3f1b723b	0.60721177
78	0xbcea282c	-0.028583609
79	0x3e08611a	0.13318291
80	0x3d363989	0.044488464
81	0xbf207e31	-0.6269255
82	0xbebe35d6	-0.3715045
83	0xbf1c4b6a	-0.6105257
84	0xbf4ca3fc	-0.7993772
85	0x3cb6720b	0.022271177
86	0x3dbcd0d0	0.09219515
87	0xbe875467	-0.2643158
88	0xbf36b7fa	-0.71374476
89	0x3e9867ca	0.29766685
90	0x3f0e6772	0.55626595
91	0x3dc22660	0.09479976
92	0x3e22fc49	0.15916552
93	0xbc0c073e	-0.008546649
94	0xbec521b9	-0.3850229
95	0xbef3d8ce	-0.47626346
96	0xbe0e3b7e	-0.13889882
97	0xbeced7bc	-0.40398967
98	0xbbde67a8	-0.006787259
99	0xbca88ea1	-0.020575823
100	0xbf1aa249	-0.6040388
101	0xbcebc190	-0.028778821
102	0xbcc5f8ef	-0.024166552
103	0x3ebb1852	0.36541992
104	0x3ec354f8	0.38150764
105	0xbec55b28	-0.3854611
106	0x3e06e610	0.131737
107	0xbed37763	-0.41302022
108	0x3ef596dd	0.47966662
109	0xbf237a46	-0.6385845
110	0x3ebe2364	0.37136376
111	0xbddc7772	-0.1076497
112	0x3f55cae6	0.83512723
113	0x3ef26314	0.47341216
114	0x3e5bf3ad	0.21479674
115	0xbf0868c0	-0.53284836
116	0x3ecbae4e	0.3978142
117	0x3e77a49e	0.2418389
118	0x3eaeac3a	0.34115773
119	0x3e9bba00	0.30415344
120	0x3d38f8f4	0.045159295
121	0x3ea60a77	0.3242986
122	0xbf090dfa	-0.5353695
123	0xbeebddd2	-0.46067673
124	0xbea8e285	-0.3298532
125	0xbee7202a	-0.45141727
126	0xbd2c1458	-0.04201159
127	0x3f3997c3	0.72497195
128	0xbf3fce40	-0.7492409
129	0x3d6164f8	0.055027932
130	0x3e1ed692	0.1551154
131	0x3f39bbe5	0.7255233
132	0xbe89d05d	-0.2691678
133	0xbde66226	-0.11249189
134	0x3f317c4c	0.69330287
135	0x3f33b652	0.70200074
136	0x3e9f4654	0.31108344
137	0x3ec693e1	0.38784698
138	0x3ed2b52a	0.41153842
139	0xbecb09bb	-0.3965586
140	0x3f90646b	1.1280645
141	0xbe126f11	-0.14300181
142	0xbe98e343	-0.29860887
143	0xbf477933	-0.7791931
144	0xbf198ae0	-0.5997753
145	0x3ecccd97	0.40000603
146	0xbf09415f	-0.53615373
147	0xbe83859e	-0.2568788
148	0xbf45dd5d	-0.772909
149	0xbf3d7d81	-0.7401963
150	0xbf0427ea	-0.51623404
151	0xbead135a	-0.33803827
152	0x3e9d8f18	0.30773234
153	0x3dd94456	0.10608737
154	0x3c5a1905	0.013311629
155	0x3ef76877	0.48321888
156	0x3d8e54e5	0.06949786
157	0x3e849723	0.25896558
158	0xbebfe4f5	-0.37479368
159	0x3d0976a8	0.033560425
160	0x3e304e34	0.17217332
161	0x3ef81d5b	0.48459896
162	0x3e959628	0.29216123
163	0xbf4dbdf3	-0.80367965

ms.layers.2.weight f4 [164, 164]
0	0xbd40575d	-0.046958316
1	0xbdfd34dc	-0.12363598
2	0xbafef955	-0.0019452969
3	0x3d635b7e	0.055507176
4	0x3d28d90d	0.04122262
5	0x3d7558da	0.05989919
6	0x3d24a070	0.040192068
7	0xbd9ff977	-0.078112535
8	0x3d53675b	0.05161224
9	0x3d6db643	0.058035146
10	0xbc8ff2e1	-0.017571868
11	0x3d23d4fa	0.039998032
12	0xbd81f93d	-0.063463666
13	0x3c8a050b	0.016848108
14	0xbbe6b3d1	-0.0070404788
15	0x3d68117d	0.056657303
16	0x3d808583	0.06275465
17	0xbcc1501b	-0.023597768
18	0xbd0951ae	-0.03352516
19	0xbc4de9ec	-0.012567978
20	0xbd34950d	-0.04408746
21	0xbbe48686	-0.0069740443
22	0x3d34282f	0.043983635
23	0xbcd655e2	-0.026163999
24	0x3c8547a0	0.016269505
25	0x3d418b30	0.04725188
26	0xbd8485bf	-0.064708225
27	0xbca26ff0	-0.019828767
28	0xbd9086a5	-0.070569314
29	0xbc8d91a7	-0.017281367
30	0xbd5405a2	-0.051763184
31	0x3d3104b9	0.043217395
32	0x3b951f1f	0.004550829
33	0x3b9f9a8c	0.0048707183
34	0xbd4b21fa	-0.04959295
35	0x39981fb6	0.00029015326
36	0xbc1ab3e7	-0.009442306
37	0xbd45bb8b	-0.048274558
38	0xbd6a4b62	-0.057200797
39	0xbde591a0	-0.112094164
40	0xbd310d56	-0.04322561
41	0x3d7b9c64	0.061428443
42	0x3c972e52	0.018454704
43	0x3c885cf8	0.016645893
44	0x3d1c2a10	0.03812605
45	0x3ca673eb	0.020318946
46	0x3b2171c2	0.0024634455
47	0x3b8ebe9e	0.0043562194
48	0x3d8098ae	0.06279121
49	0x3d82fd19	0.06395931
50	0xbcb6f521	-0.022333683
51	0x3d575efe	0.052580826
52	0xbce46818	-0.027881667
53	0x3d16927b	0.03676079
54	0xbda37cdd	-0.079828
55	0x3d1365d7	0.035985794
56	0xbd9874b7	-0.074441366
57	0x3d07c08f	0.033142623
58	0x3d830950	0.063982606
59	0x3c974d84	0.01846958
60	0x3ca504c3	0.020143872
61	0x3d8291f2	0.06375493
62	0xbcf3e937	-0.029774291
63	0x3d09ff1d	0.03369056
64	0xbc866f54	-0.016410507
65	0x3d066f90	0.032821238
66	0xbb21862c	-0.0024646623
67	0x3e1c4ee1	0.15264465
68	0x3b25e397	0.0025312656
69	0x3d145c45	0.036220808
70	0xbdb4f661	-0.088360555
71	0x3d23706e	0.039902143
72	0x3d820457	0.06348484
73	0xbbac54b8	-0.0052591227
74	0x3dc8d665	0.098065175
75	0xbc0584f5	-0.008149375
76	0xbcc86247	-0.024460925
77	0x3cbc7c31	0.023008438
78	0x3d31fe39	0.043455336
79	0xbd7d28ea	-0.061806597
80	0xbd580381	-0.052737717
81	0xbcbfb889	-0.023403423
82	0xbd09746f	-0.033558305
83	0x3c7b32fd	0.015331981
84	0xbcdc3f54	-0.026885666
85	0x3d8e15c7	0.069377474
86	0x3cdc2e00	0.026877403
87	0x3cb8d928	0.022564486
88	0xbdb25f33	-0.08709564
89	0x3d750ad9	0.0598248
90	0xbd0070ba	-0.031357504
91	0xbd2116c7	-0.039328363
92	0xbc575ecf	-0.013145163
93	0xbd997d11	-0.07494558
94	0x3caa2d78	0.020773634
95	0xbc693150	-0.014232948
96	0xbbd7ef59	-0.0065898118
97	0x3b3e5453	0.002904196
98	0x3cf23446	0.029565942
99	0xbcacca9e	-0.02109271
100	0xbd341293	-0.043963026
101	0xbd198680	-0.037481785
102	0xbd9031ed	-0.070407726
103	0xbc0b2044	-0.008491579
104	0xbcb7d7d1	-0.022441776
105	0xbbc3f111	-0.005979665
106	0x3d2a547d	0.04158448
107	0xbb70a9e7	-0.0036722363
108	0xbcae9f96	-0.02131633
109	0xbd27f99f	-0.04100954
110	0x3cfca606	0.030840885
111	0x3d0ac3cc	0.033878133
112	0x3d140223	0.03613485
113	0x3d3b7abd	0.04577135
114	0x3cb92a49	0.022603171
115	0x3cc3a1c9	0.023880856
116	0x3cd3f772	0.025874827
117	0xbca5a142	-0.020218495
118	0xb9261619	-0.00015839226
119	0x3dbfeb28	0.09371024
120	0x3cdf2882	0.027240995
121	0xbd54a9a1	-0.051919583
122	0xbd6dd3c0	-0.05806327
123	0xbcd8e78b	-0.026477596
124	0xbd55f25c	-0.052233085
125	0xbd82ba55	-0.06383196
126	0xbc506174	-0.012718547
127	0x3c681304	0.01416469
128	0xbd7e267e	-0.062048428
129	0x3d8774bd	0.06614063
130	0xbd4a8419	-0.049442384
131	0xbc69565c	-0.014241781
132	0x3d810d3e	0.06301354
133	0x3d30ba52	0.04314644
134	0x3c67375a	0.014112318
135	0x3d068f39	0.03285143
136	0x3d568b4b	0.052378934
137	0x3d34ed6f	0.044171747
138	0xbd38433e	-0.044986002
139	0x3bd5a20f	0.006519563
140	0xbe34bcb9	-0.17650117
141	0x3c9ae922	0.018909995
142	0x3bd06d32	0.0063606733
143	0x3ca0b6e1	0.019618453
144	0xbd99d3b5	-0.07511083
145	0xbd814a33	-0.063129805
146	0x3cfd8178	0.030945525
147	0x3cd10e1f	0.025519429
148	0x3dc4b130	0.09604108
149	0xbce20903	-0.027592188
150	0xbb91bac9	-0.0044473154
151	0x3d9f24a2	0.07770659
152	0x3c8096fa	0.015696991
153	0x3d1de264	0.03854598
154	0x3d4fb79c	0.050712213
155	0xbd71c47a	-0.059025265
156	0xbd4e51fb	-0.05037115
157	0xbcceeb3c	-0.025258653
158	0xbb4bd41f	-0.0031101776
159	0xbd868470	-0.06568229
160	0xbd7c4aa6	-0.061594628
161	0xbd052302	-0.03250409
162	0x3dad40cd	0.084596254
163	0xbbf69165	-0.0075246566
164	0x3d680596	0.056645952
165	0x3d982636	0.07429163
166	0x3d2fb90b	0.04290108
167	0xbd777a29	-0.060419235
168	0xbb84de6e	-0.004054836
169	0x3d38d70e	0.045126967
170	0xbcc025df	-0.023455558
171	0xbd0f126d	-0.03492968
172	0xba324e65	-0.0006801843
173	0x3d55602a	0.052093662
174	0x3cc192a6	0.023629498
175	0xbb00e2aa	-0.0019666352
176	0xbd5b2891	-0.053505484
177	0xbd22c1b8	-0.039735526
178	0x3d765ec4	0.06014897
179	0x3cfd87ff	0.030948637
180	0x3cdf8108	0.027283207
181	0xbdac1e1e	-0.08404182
182	0x3d7ba30f	0.0614348
183	0xbd9cc372	-0.07654466
184	0x3c68aefe	0.014201878
185	0xbd15b7e4	-0.036552325
186	0x3b59d16a	0.0033236393
187	0xbc8f999d	-0.017529303
188	0xbaaa3aa4	-0.0012987447
189	0xbc8d61df	-0.017258583
190	0x3d02d5ff	0.031942364
191	0xbd8aae72	-0.06771554
192	0x3d0dbe32	0.034605213
193	0xbc15e47f	-0.009148716
194	0xbd600ef8	-0.054701775
195	0x3cb89b50	0.022534996
196	0x3d32bdfa	0.043638207
197	0xbd0e81f0	-0.034791887
198	0xbd0f629c	-0.03500615
199	0x3cfa5269	0.030556874
200	0x3d3667df	0.044532653
201	0x3d8fe236	0.07025568
202	0x3cef2655	0.029193083
203	0xbbecc15d	-0.007225199
204	0x3d16a49a	0.03677807
205	0x3d59736f	0.0530886
206	0xbb55ed6c	-0.0032642735
207	0x3d57aa34	0.052652553
208	0xbc32f640	-0.010922968
209	0xbd471b50	-0.04861003
210	0xbd20f058	-0.03929171
211	0xbd46040d	-0.048343707
212	0x3d86700a	0.065643385
213	0x3b3cd63d	0.002881422
214	0x3d86ab9e	0.06575702
215	0xbda2caee	-0.07948862
216	0xbc2e5756	-0.01064094
217	0x3cdd4690	0.027011186
218	0x3cf66169	0.030075746
219	0xbd90952b	-0.070597015
220	0xbd81344f	-0.06308805
221	0xbcb7a7b8	-0.022418842
222	0x3d545216	0.051836096
223	0xbcb131fa	-0.021630276
224	0x3b1325b7	0.00224529
225	0x3d811812	0.06303419
226	0xbc0be361	-0.008538098
227	0xbd765caf	-0.060146984
228	0xbd9aa48b	-0.07550915
229	0x3cdae21b	0.026719144
230	0xbd110aaa	-0.03541056
231	0x3d964f15	0.073393025
232	0xbd3ff8a4	-0.04686798
233	0xbd7568b5	-0.05991431
234	0xbd9a2e56	-0.07528369
235	0x3b7875a7	0.0037911923
236	0xbd5701f5	-0.0524921
237	0x3d0d5c13	0.034511637
238	0x3d63c936	0.05561181
239	0xbb3d94ad	-0.002892773
240	0xbd74e3d9	-0.059787605
241	0xbd9a0397	-0.07520216
242	0x3d568753	0.05237515
243	0xbce4d080	-0.027931452
244	0x3d5690d7	0.052384224
245	0xbd2e33a8	-0.042529732
246	0xbd283d44	-0.041074052
247	0x3d17342f	0.036915
248	0xbcefb3c6	-0.029260527
249	0x3d2b1558	0.0417684
250	0xbd4363f0	-0.04770273
251	0x3d4ad765	0.049521822
252	0x3d451877	0.048119035
253	0xbce516f6	-0.02796505
254	0x3d0a4e2a	0.03376595
255	0x3d2aeb73	0.041728448

ms.layers.2.bias f4 [164]
0	0xbd1bc7d6	-0.038032375
1	0xbc9e48ef	-0.019321887
2	0xbd183260	-0.037157416
3	0xbd917c58	-0.07103795
4	0x3e3b43b0	0.1828754
5	0x3dfc71a3	0.12326362
6	0x3e599df9	0.21251668
7	0xbd80ed99	-0.06295318
8	0xbd6ce0f4	-0.05783172
9	0x3d3e6c04	0.04648973
10	0xbd8b864b	-0.06812724
11	0x3e41b73a	0.18917552
12	0x3d976739	0.07392735
13	0xbccb06f1	-0.024783583
14	0xbba532c8	-0.005041454
15	0xbd8eabb2	-0.06966342
16	0xbccafde9	-0.024779277
17	0xbb27810f	-0.0025559103
18	0xbdf230aa	-0.11825688
19	0x3bf3bd1c	0.007438315
20	0xbc33cc79	-0.010974043
21	0x3dac56c2	0.08414985
22	0x3c13e93b	0.009027774
23	0xbc79fe38	-0.015258364
24	0xbe08707c	-0.1332416
25	0xbd766eef	-0.06016439
26	0x3e7b25fc	0.24526209
27	0x3d8ceda6	0.06881265
28	0xbe855e20	-0.26048374
29	0xbe2033d1	-0.15644766
30	0x3b912d70	0.0044304654
31	0x3e279eb8	0.1636914
32	0xbeae9fdc	-0.34106338
33	0x3ceb2fea	0.02870937
34	0xbc3fad37	-0.0116990125
35	0xbdbd0889	-0.092301436
36	0x3dd95092	0.10611071
37	0x3d01903e	0.0316317
38	0x3d92190d	0.07133684
39	0xbbe26d37	-0.006909992
40	0x3e4e1fc8	0.20129311
41	0x3e13192a	0.14365068
42	0xbe4fda06	-0.20298013
43	0xbdc68916	-0.09694116
44	0xbe74f5d1	-0.23921897
45	0xbe42c5e1	-0.19020797
46	0x3ded504f	0.11587583
47	0x3cc724b6	0.024309497
48	0xbe09a818	-0.13443029
49	0x3c9b394b	0.018948218
50	0x3d1fc429	0.039005432
51	0x3d3b966c	0.04579775
52	0x3e1d273b	0.15346996
53	0xbcc365d7	-0.023852272
54	0xbd569dd1	-0.0523966
55	0x3ce53177	0.027977688
56	0x3ce2f7f4	0.027706124
57	0x3e120299	0.14258803
58	0xbdae2e4b	-0.085049234
59	0xbd0c7b96	-0.03429755
60	0x3d8a3c2f	0.0674976
61	0x3d8c4e16	0.06850831
62	0xbc3e0423	-0.011597666
63	0x3d49d2ee	0.049273424
64	0xbd610010	-0.0549317
65	0xbd88be14	-0.066768795
66	0x3d82e913	0.06392112
67	0x3c0f660f	0.00875236
68	0x3beda8b9	0.0072527793
69	0xbbcdc057	-0.006279032
70	0xbd762601	-0.060094837
71	0xbd2ed85e	-0.042686813
72	0xbd8ece54	-0.06972948
73	0xbda6fb92	-0.08153452
74	0xba127075	-0.00055862154
75	0x3d8d6e66	0.069058225
76	0x3d865a99	0.06560249
77	0x3e078402	0.1323395
78	0x39aee2fe	0.0003335699
79	0x3d35bc13	0.044368815
80	0x3b980e5a	0.0046403827
81	0x3ee165dd	0.44023028
82	0xbcaafec4	-0.020873435
83	0x3de022b0	0.10944116
84	0xbd604802	-0.054756172
85	0xbd45cfa3	-0.04829372
86	0x3cdddb7a	0.027082194
87	0xbcadcbf3	-0.021215415
88	0x3c91f693	0.017817771
89	0xbd648d90	-0.055799067
90	0xbd4000a6	-0.04687562
91	0xbce3451e	-0.027742919
92	0x3d268e46	0.040663026
93	0x3de00270	0.10937965
94	0x3c323766	0.010877466
95	0x3b46a3c8	0.0030310024
96	0xbd915d48	-0.0709787
97	0xbd2ed1d5	-0.04268058
98	0xbdf0e3de	-0.11762212
99	0x3d28f25d	0.04124676
100	0x3d51c105	0.05120947
101	0xbd4f4935	-0.050606925
102	0x3e26b221	0.16278888
103	0x3cdea80f	0.027179746
104	0x3db74252	0.089481965
105	0xbd266833	-0.040626716
106	0x3d94c68d	0.07264433
107	0xbce1a26b	-0.027543267
108	0x3c548965	0.0129722105
109	0xbe79b8a8	-0.24386847
110	0x3e82b48c	0.2552837
111	0x3c5d551f	0.013509064
112	0xbd08138a	-0.03322176
113	0xbd7a06b3	-0.061041545
114	0xbd7b3218	-0.06132707
115	0xbd6d37c5	-0.057914514
116	0x3e991b57	0.2990367
117	0xbe3ed3e2	-0.18635514
118	0x3c815699	0.015788363
119	0x3dcf5ec7	0.10125499
120	0xbd014a5b	-0.03156505
121	0xbe09b3e3	-0.13447528
122	0xbd1e1f9b	-0.03860436
123	0x3d176582	0.03696204
124	0x3d155a03	0.036462795
125	0x3cf0339d	0.029321486
126	0x3c897a0f	0.016781835
127	0xbdf70dd2	-0.12063183
128	0xbdaa327f	-0.083104126
129	0xbc730f63	-0.014835211
130	0xbd571498	-0.052509874
131	0x3c10653d	0.0088132
132	0x3df18091	0.117921
133	0x3b7c2d3b	0.0038479108
134	0xbd79e862	-0.061012633
135	0xbd2566bb	-0.040381175
136	0xbd1dd36b	-0.038531702
137	0xbe26305c	-0.16229385
138	0xbd937e10	-0.07201779
139	0x3dbb1d5c	0.09136459
140	0xbc847f7f	-0.016174076
141	0x3c276cb0	0.010218784
142	0x3c91af14	0.017783679
143	0xbde28fff	-0.11062621
144	0x3d5ec764	0.054389372
145	0x3dd3f292	0.10349001
146	0x3c49c394	0.012314696
147	0xbd666f30	-0.05625838
148	0xbdb4d8da	-0.08830424
149	0x3ce4a1b6	0.027909141
150	0x3de917c5	0.11381487
151	0x3c6a07a4	0.014284048
152	0x3d01f8c2	0.031731375
153	0x3d9c2a5b	0.07625266
154	0x3e2f6d81	0.17131616
155	0x3db9c8bb	0.090714894
156	0xbced0170	-0.02893135
157	0x3cc66453	0.02421776
158	0xbd6b39d3	-0.057428192
159	0x3dcb429b	0.09924813
160	0xbda5cd6b	-0.08095821
161	0xbe39eeaa	-0.1815745
162	0xbda44aa7	-0.08022051
163	0x3c769eb3	0.015052485

ms.layers.4.weight f4 [2, 164]
0	0x3c962fb7	0.0183333
1	0x3aec2843	0.001801737
2	0x3c3d0d10	0.011538759
3	0xbccdb8c2	-0.025112513
4	0x3ce713ee	0.028207745
5	0xbce6d90b	-0.028179666
6	0xbcbbd915	-0.022930661
7	0xbac2a5fa	-0.001485049
8	0x3b5444c6	0.0032389625
9	0xbc49d33d	-0.01231843
10	0x3d15cabb	0.036570292
11	0x3cd4458f	0.025912074
12	0xbd2ecd2c	-0.042676136
13	0xbcfb869e	-0.030703839
14	0xbbbcbba1	-0.005759672
15	0xba0b721d	-0.00053194334
16	0xbc8b1bab	-0.016980967
17	0x3c25299e	0.010080723
18	0xb9e0a69f	-0.00042848752
19	0xbb14c1bd	-0.0022698485
20	0x3ca66d12	0.02031568
21	0x3cb66bf8	0.02226828
22	0xbc2d4255	-0.010574897
23	0xbcb40871	-0.021976681
24	0xbc53a3c3	-0.012917462
25	0x3c7d4039	0.015457206
26	0xbbed00b9	-0.007232752
27	0x3a81a432	0.0009890853
28	0xbd03f72f	-0.032218155
29	0x3cc7336b	0.02431651
30	0x3d3f645e	0.046726577
31	0xbd64877c	-0.05579327
32	0xbd941586	-0.07230668
33	0xbbce1c75	-0.0062900134
34	0xbc2ef8b5	-0.010679414
35	0xbc9d13a7	-0.01917441
36	0xbcdb3ec7	-0.026763333
37	0xbd5d55d6	-0.054036938
38	0x3cba9b86	0.022779237
39	0xbcc8fb66	-0.024533939
40	0x3c76a1b1	0.015053199
41	0x3c13627d	0.008995649
42	0x3c8fb561	0.017542543
43	0xbaa39584	-0.0012480472
44	0x3d7017f5	0.058616597
45	0x3cdad616	0.026713412
46	0xbccc45cb	-0.024935624
47	0x3d55ba62	0.0521797
48	0xbce1a8b3	-0.027546262
49	0x3b98ded0	0.004665233
50	0x3b782540	0.0037864
51	0xbd3c9632	-0.046041675
52	0x3c8743f7	0.0165119
53	0xbd826565	-0.06366996
54	0xbcd1d9d2	-0.02561656
55	0xbd778776	-0.06043192
56	0x3ccec77e	0.02524161
57	0xbbcad11f	-0.00618948
58	0x3ce7777c	0.028255217
59	0xbae1cf22	-0.0017227868
60	0x3a1a4568	0.0005884976
61	0xbba6f8f0	-0.0050955936
62	0x3cc3259f	0.02382165
63	0x3ab578b8	0.0013845181
64	0xbb81f69e	-0.0039661666
65	0xbc79cc02	-0.015246393
66	0x3d3f418e	0.046693377
67	0xbc129ac4	-0.008948032
68	0xbce95022	-0.028480593
69	0x3b460503	0.003021539
70	0x3c451a8c	0.012030255
71	0x3b433718	0.0029787477
72	0xbcc26123	-0.023727959
73	0xbcac6720	-0.021045268
74	0x3b90b516	0.0044161184
75	0xbd02b4ee	-0.03191083
76	0xbba5fc1d	-0.0050654546
77	0x3bb29fac	0.0054511633
78	0xbd5b3b10	-0.053523123
79	0xbc1c13db	-0.009526218
80	0x3d0805fd	0.033208836
81	0x3eca4e7f	0.39513013
82	0xbb20a7a0	-0.0024513975
83	0xbbad56a1	-0.005289868
84	0x39f95907	0.00047559311
85	0x3c850d8a	0.016241807
86	0x3c0d53c4	0.008625928
87	0x3d032ac4	0.032023206
88	0x3c36e8f0	0.011163935
89	0xbcd05356	-0.025430363
90	0xbae55954	-0.0017497935
91	0x3c350786	0.011049157
92	0xbb3003e8	-0.0026857797
93	0x3c1c5194	0.009540934
94	0xbca99133	-0.02069912
95	0xbd35e720	-0.04440987
96	0x3d93a3f4	0.07209006
97	0x3c153834	0.009107638
98	0xbd193ab3	-0.037409496
99	0x3940ce54	0.0001838741
100	0xbce68f15	-0.028144399
101	0xbd081ed8	-0.03323254
102	0xbc8d884d	-0.017276907
103	0x3d075ac6	0.033045553
104	0xbcbbbbd1	-0.022916706
105	0x3d078b7b	0.033092003
106	0x3d1c2ea5	0.03813042
107	0xbc2f86b1	-0.010713265
108	0xbc9a9787	-0.018871082
109	0x3d4ee7d2	0.05051405
110	0x3e23b737	0.1598786
111	0xbd81f68d	-0.06345854
112	0xbbd6f3a7	-0.0065598073
113	0x3c275de1	0.010215254
114	0xbd197759	-0.037467334
115	0x3ce89fe9	0.028396564
116	0x3d08a24e	0.03335791
117	0x3c36c52d	0.011155409
118	0xbb88e196	-0.0041772826
119	0x3d4c45af	0.049871143
120	0xbb62285d	-0.0034508922
121	0x3d30d363	0.043170344
122	0x3c6e022b	0.014526884
123	0x3bacca45	0.005273136
124	0x3d74707c	0.059677586
125	0x3d95ca9c	0.07314035
126	0xbd4a944d	-0.049457837
127	0x3ba718d4	0.0050993953
128	0xbd5e41b7	-0.05426189
129	0x3a728c48	0.0009252471
130	0x3c53f31e	0.012936382
131	0x3ce961c7	0.028489007
132	0x3c93a78d	0.01802423
133	0x3cbbb9f3	0.022915816
134	0xbcbc9c16	-0.023023646
135	0x3a9c4c7b	0.0011924648
136	0xbac0c3f0	-0.0014706831
137	0x3bb2c35d	0.005455418
138	0x3b097673	0.0020975142
139	0xbd27687c	-0.04087113
140	0x3c9585a1	0.018252196
141	0xbcad4e3f	-0.021155475
142	0x3cb51ce5	0.022108505
143	0xbcfd1219	-0.030892419
144	0x3c81187b	0.015758744
145	0x3b13bba3	0.002254226
146	0x3c8b0d69	0.016974168
147	0x3b163bed	0.0022923902
148	0x3b7a22f5	0.0038167809
149	0xba6d8471	-0.0009060568
150	0xbc216c84	-0.009852532
151	0xbd1824d2	-0.03714449
152	0xbcd01ab6	-0.025403362
153	0x3d84363e	0.064556584
154	0xbbf17b07	-0.0073694023
155	0xb938ba83	-0.00017617088
156	0xbcb50da7	-0.022101237
157	0xbb29f44e	-0.002593297
158	0x3c8fecf7	0.017569048
159	0xbc9306fb	-0.017947664
160	0x39f6fc7c	0.00047108892
161	0x3d14fc31	0.03637332
162	0xbb8e45cc	-0.0043418165
163	0x3cc86515	0.024462262
164	0xbd126e72	-0.03574986
165	0xbabb2076	-0.0014276642
166	0x3b6bdfc4	0.003599153
167	0xbd6db1be	-0.058030836
168	0xbd1a25b9	-0.03763363
169	0x3d0902a4	0.033449784
170	0x3c916dc5	0.017752538
171	0xbc034f4f	-0.008014514
172	0xbaa1e9fa	-0.0012353056
173	0xbcf2dc4e	-0.029646065
174	0x3cc3a447	0.023882044
175	0xbc2e21fa	-0.010628218
176	0xbc321901	-0.010870219
177	0xbb61889c	-0.00344137
178	0x3bc39b39	0.0059694317
179	0xbc6ac9ff	-0.014330386
180	0xbcbec20c	-0.023285888
181	0xbbc445c3	-0.0059897616
182	0x3cbabc3c	0.022794835
183	0xbd241d98	-0.040067285
184	0x3c43c824	0.011949573
185	0x3ca6bdf7	0.020354254
186	0x3bdb63b7	0.0066952365
187	0x3c518209	0.01278735
188	0xbbba0656	-0.005677025
189	0x3c3d5b32	0.011557387
190	0x3db54e12	0.08852781
191	0x3b522ac1	0.003206894
192	0x3c2fa2c5	0.01071996
193	0xbcf18e96	-0.029486936
194	0x3d059cd9	0.032620285
195	0xbd10ff2d	-0.035399605
196	0x3cda1ae2	0.026624147
197	0xbbc60048	-0.006042514
198	0x3c102f62	0.008800359
199	0xbbe1f178	-0.0068952404
200	0x3cf9585f	0.030437646
201	0xbd1b4760	-0.037909865
202	0xbd13d76a	-0.036094107
203	0xbd38f97e	-0.04515981
204	0xbc87bad2	-0.016568575
205	0xbc844f6f	-0.016151158
206	0xbb8af207	-0.0042402777
207	0xbb92d7b6	-0.004481281
208	0x3c1869eb	0.009302597
209	0x3ca74890	0.020420343
210	0x3c00c42b	0.00785927
211	0x3d0a48e3	0.033760916
212	0x3cb80d9f	0.022467433
213	0x3d6a77b3	0.05724306
214	0xbcb7c944	-0.022434838
215	0x3cb6622f	0.022263614
216	0x3d3e7ada	0.04650388
217	0xbd2da6db	-0.042395454
218	0xbcfa0cb9	-0.030523645
219	0x3d0435e6	0.032277964
220	0xbceb6ad2	-0.02873746
221	0xbc5e24b5	-0.013558556
222	0xbceb7370	-0.028741568
223	0x3d34b450	0.044117272
224	0xbd638650	-0.055548012
225	0xbb74174b	-0.003724533
226	0x3cc66ad5	0.024220863
227	0x3d0aa6e6	0.033850573
228	0xbbc491d3	-0.005998829
229	0xbd52ee3d	-0.051496733
230	0xbc822216	-0.015885394
231	0x3ce1ade5	0.02754874
232	0xbd9934ee	-0.07480799
233	0xb978c9c3	-0.00023726285
234	0xbd8e4fb0	-0.06948793
235	0xbd587cbd	-0.052853335
236	0xbd3d74f1	-0.046254102
237	0xbd8bbd86	-0.06823258
238	0x3b59ad2e	0.0033214795
239	0x3beae708	0.0071686544
240	0xbd286a15	-0.041116793
241	0xbc21b2fd	-0.009869334
242	0x3d233aa5	0.03985085
243	0xbc06017a	-0.008179063
244	0x3d3a543c	0.04549049
245	0xbe32ec0b	-0.17472856
246	0x3cb3fb22	0.021970335
247	0x3d0d578e	0.034507327
248	0x3b57047e	0.0032809074
249	0x3c587a43	0.013212743
250	0xbc7c5197	-0.015400312
251	0x3ac198fc	0.0014770324
252	0x3bc58ec9	0.006028984
253	0xbd593737	-0.053031173
254	0x3cb47727	0.022029473
255	0x3b6d0fcc	0.0036172746

ms.layers.4.bias f4 [2]
0	0x3d230caf	0.039807018
1	0x3d05e9a2	0.032693513

exp_avg f4 [164, 3]
0	0xb97a4c88	-0.00023870368
1	0xb9cc5118	-0.00038970332
2	0x36ca4f50	6.0293023e-06
3	0xba3b9e7a	-0.0007157099
4	0x3b0097f2	0.0019621816
5	0xbad712c6	-0.0016408793
6	0xb93ba5da	-0.00017895494
7	0xb8776400	-5.898252e-05
8	0x3855876e	5.0909286e-05
9	0x3abe7084	0.0014529382
10	0x3a6b666b	0.00089798
11	0x3a7192e8	0.0009215311
12	0xb9494fc8	-0.00019198575
13	0xba08c392	-0.00052171305
14	0xb87351d0	-5.801191e-05
15	0xba4fd3cc	-0.00079279835
16	0xb8135c28	-3.513336e-05
17	0xb981917c	-0.00024713192
18	0xb8f824d4	-0.00011832421
19	0xb9d38bc5	-0.00040349193
20	0x39ad981b	0.0003311046
21	0xb96146a8	-0.00021483994
22	0xba162352	-0.0005727309
23	0xb9cec3e3	-0.0003943733
24	0x3af15b1e	0.0018413996
25	0x39fdd0f7	0.0004841161
26	0x3aacaa72	0.0013173355
27	0xb99bd132	-0.00029719766
28	0xba500d06	-0.0007936511
29	0xb94ee86c	-0.00019732275
30	0x398f9944	0.00027389277
31	0xb7b24314	-2.125049e-05
32	0x3714f7b0	8.879157e-06
33	0x3a870624	0.0010301513
34	0x3a31e26d	0.0006785754
35	0x3a258155	0.00063135225
36	0xbab47385	-0.0013767338
37	0xb9ada532	-0.0003312021
38	0xba9432c9	-0.0011306639
39	0x3a81266d	0.0009853371
40	0xb9cd0674	-0.00039105455
41	0x39f607e4	0.00046926655
42	0xb9f30e5e	-0.00046359276
43	0xb9b0b433	-0.00033703595
44	0x39bfa06b	0.0003654988
45	0xb9c0a4ce	-0.00036743883
46	0xba28fcb4	-0.0006446347
47	0xba1a449d	-0.0005884858
48	0x3b0ea031	0.0021762962
49	0x39312d79	0.00016896975
50	0x3ad82789	0.0016491275
51	0xba6eb35b	-0.00091057055
52	0x39f3d7f2	0.00046509464
53	0xba071269	-0.00051525846
54	0x3a120ce0	0.00055713765
55	0x3a47cb32	0.0007621526
56	0x39a8bcc8	0.0003218411
57	0x390b7d55	0.00013302763
58	0xb9ae96ef	-0.0003330032
59	0x39405372	0.00018341633
60	0x35775f40	9.215328e-07
61	0x39f134ef	0.0004600654
62	0x3819d7e8	3.667912e-05
63	0xbb5d6229	-0.0033780432
64	0xba8cee91	-0.0010752251
65	0xbbacaf7e	-0.0052699437
66	0xb99a2e63	-0.0002940773
67	0x3a1fecb5	0.0006100641
68	0xb9bafba6	-0.00035664177
69	0xba2843d0	-0.0006418796
70	0xba17437c	-0.0005770249
71	0xba308e4c	-0.0006735071
72	0x37c9faa0	2.4077774e-05
73	0x38467da8	4.7323905e-05
74	0xb9b665c4	-0.00034789566
75	0x3aba6b30	0.0014222618
76	0x3af27a20	0.0018499531
77	0xba390a51	-0.0007058727
78	0xb9778851	-0.00023606537
79	0x3a2292c6	0.00062016805
80	0xba9021a5	-0.0010996355
81	0xb949ba71	-0.00019238309
82	0xba5bfad6	-0.00083915645
83	0x3acf6a55	0.0015824536
84	0x3a995a83	0.0011699948
85	0x3a05a1ba	0.00050976465
86	0x39870de4	0.00025759556
87	0x39c1aa3b	0.0003693866
88	0xb904f7c4	-0.00012680801
89	0x3947e558	0.00019063556
90	0xbabca015	-0.001439097
91	0xb97737db	-0.00023576563
92	0xbabf8434	-0.0014611543
93	0xbaadbf68	-0.0013255896
94	0xba346f0e	-0.00068830035
95	0xba5e5e00	-0.0008482635
96	0xbaa11e04	-0.001229227
97	0xba86b6ac	-0.0010277829
98	0xba813277	-0.0009856959
99	0x3a2ebe46	0.0006665926
100	0x3aea3132	0.0017867445
101	0xba8f2b1e	-0.0010922884
102	0xb9de6bb0	-0.00042423373
103	0x392b496c	0.00016335183
104	0xba48c9ac	-0.0007659446
105	0x3aa07775	0.0012242632
106	0x3a5eae42	0.00084945944
107	0x3b0f05a4	0.002182343
108	0xb7178f5c	-9.03368e-06
109	0x3a07ba67	0.00051776174
110	0xb8e86399	-0.000110811736
111	0x3a92bf94	0.0011196011
112	0x3a17c667	0.0005789757
113	0x39efbe84	0.00045727578
114	0x39bf254a	0.0003645814
115	0x39913536	0.000276962
116	0x3a455845	0.0007528107
117	0x3a5dfce5	0.0008468165
118	0x39dd5fc8	0.00042223767
119	0x3b00c1bc	0.0019646725
120	0x3a8847fe	0.0010397432
121	0x39c1edaa	0.00036988902
122	0x3abe9b51	0.0014542138
123	0xbb052b1c	-0.0020319885
124	0xbac6d768	-0.0015170397
125	0x3a807520	0.0009800531
126	0xba508ba1	-0.00079553766
127	0xb9a0f6e7	-0.00030701535
128	0x39b8f278	0.00035275868
129	0x3a6b2c6b	0.00089711574
130	0xb8720ea2	-5.7710924e-05
131	0x3a0affda	0.0005302407
132	0x3a084e7c	0.00051996834
133	0x3a5dd2fd	0.00084619207
134	0xb9f0584e	-0.0004584216
135	0x3a6dd2e0	0.00090722553
136	0x3a11ada7	0.0005557187
137	0x3afb20c1	0.0019159542
138	0xb93f493e	-0.00018242464
139	0x395f6385	0.00021304011
140	0x399349d0	0.0002809302
141	0x35b21d08	1.3270483e-06
142	0x3a519f62	0.0007996467
143	0xb9d14eda	-0.00039922335
144	0xbb1e3ecd	-0.002414632
145	0xba4dff77	-0.00078581966
146	0xba5db853	-0.00084579474
147	0x39b597cd	0.0003463611
148	0xb9aa9993	-0.00032539348
149	0x39d6f33a	0.0004099848
150	0xb887a330	-6.467698e-05
151	0xb9288703	-0.00016072024
152	0x38144f26	3.5359662e-05
153	0x3ab5d37c	0.0013872231
154	0x3a98ff8e	0.0011672841
155	0x3a689243	0.00088718924
156	0x394fa602	0.00019802901
157	0xb8c173ea	-9.224548e-05
158	0xb9883228	-0.0002597731
159	0xb7509f30	-1.243483e-05
160	0xba09f806	-0.00052630936
161	0x3a2aab4c	0.00065105106
162	0xb8d83c4c	-0.00010310914
163	0xba26dea2	-0.00063655723
164	0x39dd1867	0.00042170586
165	0x380a1784	3.2923665e-05
166	0x394aebf8	0.00019352126
167	0x3a10a0b0	0.00055171084
168	0xba1613a4	-0.00057249726
169	0xb77cc700	-1.5066704e-05
170	0xbb5159aa	-0.0031944313
171	0x3975e3d4	0.00023449893
172	0x3a5f7a82	0.000852503
173	0xba26cee0	-0.0006363224
174	0xb96f19d2	-0.00022802435
175	0xb9aec384	-0.00033333537
176	0xb9215134	-0.00015384407
177	0x3b1048ca	0.0022016042
178	0x3948251c	0.0001908731
179	0x3aef5344	0.0018259068
180	0xba7a15db	-0.000954
181	0xb9fdca8c	-0.0004840683
182	0xb9f3fec0	-0.00046538375
183	0xb68ecd80	-4.255853e-06
184	0xba4569d8	-0.00075307256
185	0xb8023b60	-3.1049713e-05
186	0x021c15eb	1.146736e-37
187	0x021582d3	1.0984336e-37
188	0x00000000	0.0
189	0xba0423db	-0.0005040743
190	0xb9d7e497	-0.00041178308
191	0xba3affa0	-0.0007133428
192	0xb9bfd032	-0.00036585476
193	0xb8aedb6c	-8.337837e-05
194	0xb8165571	-3.584236e-05
195	0xba02d982	-0.00049915176
196	0xb90d0954	-0.00013450283
197	0xb98e7c2b	-0.00027176863
198	0x39b8cf17	0.0003524951
199	0x398814f1	0.00025955544
200	0xb8efa640	-0.000114273746
201	0x3ad37b9c	0.0016134861
202	0x389c6700	7.457845e-05
203	0x384fca88	4.9541268e-05
204	0x398858d2	0.00026006118
205	0xb834dad4	-4.3119144e-05
206	0xb9aee26b	-0.0003335656
207	0x3a564eb5	0.00081751804
208	0x39b81bdb	0.0003511597
209	0x3a139561	0.0005629864
210	0xb9b4a2e5	-0.0003445364
211	0xb929c7b6	-0.00016191494
212	0x3947ad04	0.00019042572
213	0xb851e1cb	-5.003977e-05
214	0xb826aa2e	-3.9735976e-05
215	0xb78d4a18	-1.6843012e-05
216	0xba11fcb3	-0.0005568966
217	0xba22c739	-0.0006209496
218	0x385d7e36	5.280805e-05
219	0x39c507ed	0.00037580673
220	0xb8d14a5d	-9.979748e-05
221	0x39bf1f5a	0.00036453718
222	0x355d6800	8.2480256e-07
223	0xb9994056	-0.00029230368
224	0xbb0efbee	-0.0021817642
225	0x3a2345e1	0.00062283693
226	0x3a2846aa	0.0006419221
227	0xb895cc8c	-7.1429735e-05
228	0x37c7d498	2.3821645e-05
229	0x381a4178	3.6777434e-05
230	0x382e3e8e	4.154309e-05
231	0x39a9d8b2	0.00032395642
232	0x3a02e433	0.0004993111
233	0x37382800	1.0976568e-05
234	0x3944cdbd	0.0001876866
235	0xb99906de	-0.0002918755
236	0x37a50bf8	1.9675106e-05
237	0xb8955ee6	-7.12255e-05
238	0x3a8b7fef	0.0010642986
239	0xb9abe676	-0.00032787368
240	0x3ac03aae	0.0014665925
241	0xb90f94b0	-0.00013692933
242	0x3a99fe34	0.0011748732
243	0xb747f560	-1.1918455e-05
244	0xba880d79	-0.0010379992
245	0x3a9d3cc6	0.0011996261
246	0x3a885af9	0.0010403089
247	0xb72b7a88	-1.0220923e-05
248	0x3a52e48e	0.00080449216
249	0x3b0600dd	0.0020447292
250	0x3a6d38aa	0.0009049276
251	0x3aaa9438	0.0013014143
252	0x3a253a06	0.00063028967
253	0x3a06049b	0.00051123806
254	0x3973a00c	0.00023233908
255	0xb9c0436d	-0.0003667133

exp_avg_sq f4 [164, 3]
0	0x37b62110	2.1711487e-05
1	0x376aa2df	1.3985408e-05
2	0x37194a8d	9.136868e-06
3	0x390f7f35	0.00013684931
4	0x393493fd	0.00017221268
5	0x3891cffa	6.9528774e-05
6	0x3648a43f	2.9897926e-06
7	0x36aaf26d	5.094617e-06
8	0x35e31ff9	1.6922123e-06
9	0x37abe506	2.0491436e-05
10	0x37818f14	1.5444624e-05
11	0x370cbf5e	8.389206e-06
12	0x38517bd8	4.994482e-05
13	0x374ad129	1.2088837e-05
14	0x378fa233	1.7122458e-05
15	0x386a1b2d	5.5815257e-05
16	0x3777b4ca	1.47644405e-05
17	0x37d51151	2.5399642e-05
18	0x37c8c3cd	2.3933035e-05
19	0x3848e4ae	4.789669e-05
20	0x3792f2cc	1.7517617e-05
21	0x378829f1	1.6231994e-05
22	0x38498a7b	4.8051104e-05
23	0x379e6756	1.8883187e-05
24	0x391454c2	0.00014145955
25	0x37b66d24	2.1746913e-05
26	0x381373b5	3.515529e-05
27	0x381a919c	3.685207e-05
28	0x37a86571	2.0074398e-05
29	0x37934083	1.7553806e-05
30	0x3809d12a	3.2858145e-05
31	0x3792833a	1.7465663e-05
32	0x37d38b93	2.5218154e-05
33	0x37d9f529	2.5982577e-05
34	0x37e3efd3	2.7172186e-05
35	0x379dc160	1.8805906e-05
36	0x38265229	3.9654e-05
37	0x385d1818	5.2712945e-05
38	0x37b292e4	2.1287655e-05
39	0x38628516	5.4006545e-05
40	0x37ba67d2	2.2221273e-05
41	0x37fe650d	3.0326215e-05
42	0x37cd13ad	2.4447067e-05
43	0x37512877	1.2466792e-05
44	0x37710e6d	1.4368078e-05
45	0x377a1246	1.4905416e-05
46	0x378121fb	1.5393822e-05
47	0x37049fa6	7.904984e-06
48	0x399a86fa	0.00029473734
49	0x388ee9f7	6.814667e-05
50	0x38b9fc16	8.868442e-05
51	0x389a260e	7.3503805e-05
52	0x383719a2	4.3654472e-05
53	0x3841840c	4.6137764e-05
54	0x38f3a521	0.000116179006
55	0x38e77cc5	0.000110381785
56	0x38a39487	7.800111e-05
57	0x380cc414	3.3561213e-05
58	0x37ef697b	2.8540138e-05
59	0x37870cd2	1.6099224e-05
60	0x38057315	3.181685e-05
61	0x3711fbb4	8.701278e-06
62	0x372ce10d	1.0304398e-05
63	0x39d7e06a	0.00041175197
64	0x3920a377	0.00015319684
65	0x392e42aa	0.00016618767
66	0x372127de	9.60563e-06
67	0x381eb061	3.78344e-05
68	0x370fac85	8.563632e-06
69	0x386f37df	5.7034074e-05
70	0x37afd31f	2.0959937e-05
71	0x379a71ea	1.8411276e-05
72	0x386bc488	5.62114e-05
73	0x3816e5cc	3.5976802e-05
74	0x381dc562	3.7615544e-05
75	0x39a9bfd1	0.00032377106
76	0x388e8fc7	6.797868e-05
77	0x38b2fdb1	8.534955e-05
78	0x381fa138	3.80587e-05
79	0x3831e9fd	4.2418007e-05
80	0x383400ca	4.291608e-05
81	0x384dac52	4.9036295e-05
82	0x386f4b44	5.7052137e-05
83	0x38477815	4.7557132e-05
84	0x39101633	0.0001374118
85	0x38159701	3.5665e-05
86	0x3861ead1	5.386287e-05
87	0x37856670	1.5902537e-05
88	0x37469a2c	1.1837616e-05
89	0x3780a1ae	1.5334077e-05
90	0x3848565a	4.7764137e-05
91	0x3809d442	3.2861026e-05
92	0x37c906c8	2.3964225e-05
93	0x388d0d12	6.7258385e-05
94	0x37b3cf06	2.1434866e-05
95	0x37a7c970	2.0001753e-05
96	0x3813652f	3.5141766e-05
97	0x37f304f1	2.8970158e-05
98	0x3786c4f8	1.6065766e-05
99	0x38200ac0	3.8156984e-05
100	0x392847c8	0.00016048469
101	0x381c62a3	3.728516e-05
102	0x385ca636	5.2606883e-05
103	0x37790d87	1.4844706e-05
104	0x37c07ea3	2.2947153e-05
105	0x3925836a	0.00015784582
106	0x38714e01	5.7531524e-05
107	0x388dd217	6.762536e-05
108	0x3841116e	4.603102e-05
109	0x372d3706	1.0324415e-05
110	0x37ad8830	2.0686624e-05
111	0x38454462	4.7032147e-05
112	0x37d5c0a5	2.5481286e-05
113	0x37c14c26	2.3042852e-05
114	0x382007ca	3.8154227e-05
115	0x385f1e00	5.3195283e-05
116	0x37eaa725	2.7972806e-05
117	0x388ad14e	6.619339e-05
118	0x389119f6	6.9189744e-05
119	0x391ffe2c	0.00015258108
120	0x37a932bc	2.0169995e-05
121	0x376ab557	1.3989708e-05
122	0x37702a9e	1.4315037e-05
123	0x390eb88a	0.00013610921
124	0x3838b256	4.4035107e-05
125	0x38094559	3.272793e-05
126	0x37fdab16	3.0239618e-05
127	0x377bf8f3	1.5018729e-05
128	0x372516fa	9.840116e-06
129	0x38947f58	7.0809096e-05
130	0x37f41f3d	2.9101613e-05
131	0x383f87a7	4.5664285e-05
132	0x37a95563	2.0186131e-05
133	0x3826c9a4	3.9765277e-05
134	0x376e5d96	1.4207695e-05
135	0x3813a234	3.5198595e-05
136	0x382a9001	4.0665273e-05
137	0x37e20b07	2.6946434e-05
138	0x385e214a	5.2959927e-05
139	0x382b218f	4.080083e-05
140	0x37ec2bc5	2.8153774e-05
141	0x37ee7d40	2.8430135e-05
142	0x389e16e3	7.53829e-05
143	0x37d1df95	2.5018855e-05
144	0x39028d90	0.00012450502
145	0x3917b69f	0.00014468514
146	0x38ab96a1	8.181972e-05
147	0x37bc859a	2.247356e-05
148	0x379b2601	1.8495137e-05
149	0x3779dcab	1.4892935e-05
150	0x37d363dc	2.519966e-05
151	0x370f8652	8.554738e-06
152	0x374a6067	1.2062584e-05
153	0x38dd7e6f	0.00010561651
154	0x37c9fb08	2.4077963e-05
155	0x37ee0039	2.8371915e-05
156	0x374b3354	1.2111694e-05
157	0x36b2f478	5.3332733e-06
158	0x369e8b8a	4.7250114e-06
159	0x37f4955d	2.915662e-05
160	0x3831a996	4.2358028e-05
161	0x37a76be1	1.9958186e-05
162	0x3840f608	4.60055e-05
163	0x38345d1c	4.300206e-05
164	0x383bc080	4.4763554e-05
165	0x37f3e40e	2.9074054e-05
166	0x37857717	1.5910291e-05
167	0x37b106b2	2.1103162e-05
168	0x394d4ec7	0.0001957967
169	0x38a677f5	7.9378406e-05
170	0x389e8c39	7.5601456e-05
171	0x38569f49	5.116992e-05
172	0x37c7dca4	2.3825392e-05
173	0x381b9262	3.709121e-05
174	0x37895484	1.6371028e-05
175	0x37ce2fd7	2.457939e-05
176	0x370c934f	8.378948e-06
177	0x38422d4e	4.6295398e-05
178	0x37ce6564	2.4604327e-05
179	0x37989d15	1.8192959e-05
180	0x389bc331	7.427333e-05
181	0x3807cf4e	3.2379576e-05
182	0x37ff3c36	3.0426407e-05
183	0x37dea0f8	2.653942e-05
184	0x376cc8a4	1.4113411e-05
185	0x37848880	1.5799189e-05
186	0x281970d3	8.517671e-15
187	0x285922ba	1.205345e-14
188	0x00000000	0.0
189	0x37dee29e	2.656999e-05
190	0x3852a03c	5.021713e-05
191	0x37ddb941	2.6431519e-05
192	0x36f7bb31	7.3829656e-06
193	0x369929d9	4.564627e-06
194	0x366c7aaf	3.5238152e-06
195	0x3818fd93	3.6475783e-05
196	0x384c568a	4.8717986e-05
197	0x37c72096	2.3737823e-05
198	0x3687a7e0	4.0428567e-06
199	0x3500a15e	4.7918536e-07
200	0x34c57c8c	3.678473e-07
201	0x383ecdaa	4.549107e-05
202	0x39a3f9f8	0.00031276024
203	0x3865779f	5.470926e-05
204	0x380c2180	3.34098e-05
205	0x373728bb	1.0917133e-05
206	0x37472f9b	1.1872408e-05
207	0x37583984	1.2887995e-05
208	0x36bc7e6b	5.6175536e-06
209	0x368912e8	4.085119e-06
210	0x37699ff0	1.3925121e-05
211	0x37f6bbde	2.9412968e-05
212	0x36fb6ea2	7.4932623e-06
213	0x380434b9	3.1520354e-05
214	0x36e2d06d	6.759589e-06
215	0x36daaa6e	6.516747e-06
216	0x388cbcde	6.7108995e-05
217	0x37e7e863	2.764556e-05
218	0x37e3e818	2.7168586e-05
219	0x37513b47	1.2471172e-05
220	0x37572512	1.282363e-05
221	0x37ac72dd	2.0557485e-05
222	0x38895c82	6.5499e-05
223	0x383054df	4.2040712e-05
224	0x38ada207	8.279463e-05
225	0x37f98455	2.9744735e-05
226	0x3791d7a0	1.7385755e-05
227	0x37c37f9c	2.3305234e-05
228	0x372be138	1.0244832e-05
229	0x36f4c552	7.2947378e-06
230	0x36ad8328	5.1710704e-06
231	0x388d8494	6.7480985e-05
232	0x3834c17c	4.309554e-05
233	0x38257097	3.9443923e-05
234	0x372b9c37	1.0228766e-05
235	0x370e97f5	8.49924e-06
236	0x36b05fa0	5.256341e-06
237	0x388f9acc	6.8476045e-05
238	0x385efc31	5.3163796e-05
239	0x382acc6a	4.0721534e-05
240	0x382a3c32	4.058722e-05
241	0x3784eca1	1.5845815e-05
242	0x37a15cde	1.923594e-05
243	0x380a71a0	3.3007585e-05
244	0x3780d713	1.535894e-05
245	0x37ca0d5d	2.40865e-05
246	0x37721998	1.4430283e-05
247	0x37ef3366	2.8514954e-05
248	0x378b0b10	1.6575243e-05
249	0x393d71f0	0.0001806689
250	0x38bff27f	9.152758e-05
251	0x389b8264	7.415263e-05
252	0x37a374ce	1.9485506e-05
253	0x3856bbf2	5.1196614e-05
254	0x375bc7f2	1.3099971e-05
255	0x37a2d8ee	1.941292e-05

exp_avg f4 [164]
0	0x37c986a6	2.4023768e-05
1	0xb990583c	-0.0002753156
2	0x3786b3ac	1.6057711e-05
3	0x391bb106	0.00014847898
4	0xb78a2fd8	-1.6473161e-05
5	0xb7cd9b8c	-2.4510337e-05
6	0x3858e414	5.1710827e-05
7	0xb89364cf	-7.028283e-05
8	0x39519e4c	0.00019990763
9	0xb7cda830	-2.4516223e-05
10	0xb63ca350	-2.8109243e-06
11	0x3907f84c	0.00012967101
12	0xb932ed34	-0.00017063768
13	0x38b7edd2	8.7704175e-05
14	0x385faa77	5.33261e-05
15	0xb86da058	-5.6654535e-05
16	0x3996f11c	0.0002878987
17	0xb895bb14	-7.13972e-05
18	0x38c36952	9.317942e-05
19	0x386898e9	5.545552e-05
20	0x37d8331e	2.577301e-05
21	0xba85deb5	-0.0010213467
22	0xb88f6ea2	-6.839378e-05
23	0xb8e1d493	-0.00010768431
24	0xb885bb0b	-6.376774e-05
25	0xb97d2b35	-0.00024144056
26	0xb9558f33	-0.00020366609
27	0x3999a55e	0.00029305642
28	0x3806b7f6	3.2119417e-05
29	0x362de060	2.5909612e-06
30	0xb98db685	-0.00027029603
31	0xb8f1a685	-0.00011522792
32	0xb91a04e8	-0.00014688412
33	0xb94c6676	-0.00019493126
34	0xb928ebd7	-0.00016109586
35	0x39ea3526	0.00044671557
36	0xb74f1fd5	-1.2345573e-05
37	0x3886d886	6.4299486e-05
38	0x39309279	0.00016839233
39	0x39ef4452	0.00045636535
40	0x397bc1e2	0.00024009452
41	0x39551a88	0.00020323147
42	0x38821f94	6.204765e-05
43	0x3849e4d2	4.813524e-05
44	0xb89ad1b3	-7.382352e-05
45	0x39d20122	0.00040055165
46	0x373c52a0	1.1224911e-05
47	0xb89e44c5	-7.5468364e-05
48	0xb9621fd6	-0.000215649
49	0x38cc01f0	9.727839e-05
50	0x3765de89	1.3701277e-05
51	0x3929129e	0.00016124031
52	0x376dfdb0	1.4185367e-05
53	0x393447e8	0.00017192925
54	0x390185ff	0.00012352316
55	0x390895b2	0.00013025737
56	0xba1ce941	-0.0005985685
57	0xb9090263	-0.00013066227
58	0xb7cad6a0	-2.4180219e-05
59	0x399b8ae0	0.00029667374
60	0xb804cca7	-3.166185e-05
61	0xb7c8367c	-2.386723e-05
62	0x02181bda	1.1175189e-37
63	0xb92d9f2f	-0.00016557866
64	0xb74cdca6	-1.2210721e-05
65	0xb84f2ba6	-4.9393297e-05
66	0xb75ab6e8	-1.3036399e-05
67	0x38e458f6	0.000108884575
68	0xb85f6360	-5.3259893e-05
69	0x38d048be	9.931762e-05
70	0x38918460	6.9387956e-05
71	0x36852ccb	3.9689235e-06
72	0xb60bb1f8	-2.0816206e-06
73	0x38d8bffa	0.00010335441
74	0xb9d02829	-0.00039702773
75	0xb7e93158	-2.7798742e-05
76	0xb71a89ba	-9.211182e-06
77	0xb87513a9	-5.8430862e-05
78	0xb63bc5f0	-2.7980386e-06
79	0xb8a71a87	-7.968122e-05
80	0x392530df	0.00015753832
81	0x3959c56d	0.0002076828
82	0x3932ece9	0.00017063659
83	0x394c1dec	0.00019466103
84	0x38bb149d	8.9206944e-05
85	0xb8c2c186	-9.2866874e-05
86	0xb7c10520	-2.300978e-05
87	0x390ac993	0.00013235798
88	0x38a9354b	8.0684746e-05
89	0xb903a62a	-0.00012555034
90	0xb8dde280	-0.0001058029
91	0x37d90196	2.5869154e-05
92	0xb8d38bb4	-0.00010087286
93	0xb7829270	-1.5565398e-05
94	0x37527174	1.2543391e-05
95	0x390682c6	0.00012827953
96	0x37383298	1.0979034e-05
97	0x36723eea	3.609743e-06
98	0xb5c8fe40	-1.4975158e-06
99	0xb90d1b6e	-0.00013457026
100	0x382f34a2	4.177227e-05
101	0x37dd40f4	2.63755e-05
102	0x3805a9a4	3.186766e-05
103	0xb82ab155	-4.069631e-05
104	0xb8a81c63	-8.016152e-05
105	0x391f8148	0.00015211583
106	0xb8883c53	-6.4962216e-05
107	0x39211702	0.00015362728
108	0xb9a24a66	-0.0003095448
109	0x38f858e2	0.00011842117
110	0xb83e4f3f	-4.5373334e-05
111	0xb78650a2	-1.6011592e-05
112	0xb9734e37	-0.00023203423
113	0xb80e72aa	-3.3962227e-05
114	0xb8b3ad77	-8.5676955e-05
115	0x388669a5	6.409296e-05
116	0xb988d1c4	-0.0002609623
117	0xb9579f02	-0.00020563233
118	0xb7dfcc00	-2.6678666e-05
119	0xb8bb4c51	-8.93107e-05
120	0x371ed522	9.467158e-06
121	0xb83c93fc	-4.4960514e-05
122	0x39b94d54	0.00035343564
123	0x38e94c7c	0.00011124552
124	0x389f54bb	7.597493e-05
125	0x391e1db7	0.00015079124
126	0x3771ef78	1.4420475e-05
127	0xb8e0452c	-0.000106940366
128	0x39a9ff2b	0.00032424307
129	0x37b75489	2.1854665e-05
130	0x37327efe	1.0639194e-05
131	0xba2985a4	-0.00064667524
132	0x386e35ba	5.679366e-05
133	0x3895ff20	7.1523944e-05
134	0xb9d8c221	-0.00041343368
135	0xb90b541a	-0.00013287403
136	0xb8bf9f36	-9.137245e-05
137	0xb9325f6e	-0.00017010953
138	0x339f6c00	7.4236596e-08
139	0x38c1b940	9.237463e-05
140	0xb96c9b9e	-0.00022564686
141	0xb7806bf2	-1.5309055e-05
142	0x337b3638	5.8489803e-08
143	0x398921da	0.00026155898
144	0x392d7707	0.00016542907
145	0xb7db42c8	-2.6137932e-05
146	0x38fa9b1e	0.00011949822
147	0x38fc331a	0.00012025815
148	0x39208061	0.00015306614
149	0x39706687	0.00022926378
150	0x390360ac	0.00012529147
151	0x382e75af	4.1594434e-05
152	0xb8ac1ab1	-8.206571e-05
153	0x3819d1d1	3.667345e-05
154	0x3913568b	0.00014051252
155	0xb8cbc68e	-9.716778e-05
156	0x38a3be11	7.807848e-05
157	0x373fee6f	1.1440002e-05
158	0x37a43770	1.9576139e-05
159	0x38572aea	5.129996e-05
160	0x37809462	1.5327885e-05
161	0xb8b10c08	-8.442259e-05
162	0x34bb2200	3.4856203e-07
163	0x396e00e4	0.0002269778
