docs/smld/lightning_logs/version_1/checkpoints/epoch=49-step=4900.ckpt (torch, 344011 bytes, 18 tensors)

model.layers.0.weight f4 [164, 2]
0.09663592 -0.07598725 0.00915671 0.00027820436 0.027543368 -0.034980826 0.27451918 0.264117
0.041458964 -0.3698323 0.40002832 -0.062406145 0.20244579 -0.41420045 -0.31426167 0.2348244
0.20190205 0.20171478 0.0028933128 0.00033006375 -0.05865104 0.31127593 0.23782393 -0.04891129
-0.30269688 -0.039620973 0.23203374 0.3776801 0.23886104 -0.21251221 -0.15871276 -0.064690225
0.026569396 0.0033673586 -0.19391066 -0.3170399 -0.027277976 -0.15774123 -0.100656904 -0.13789868
-0.12635897 -0.20742367 -0.017948419 0.013045302 0.04794378 0.0037177156 0.27842045 -0.30084172
0.1366633 0.014010893 -0.074112736 -0.15788835 0.24950632 0.40544298 -0.0051603736 -0.0009569157
-0.0021194855 -6.915929e-05 -0.42801276 0.13458034 -0.0875188 -0.2965712 0.0054799058 -0.0037599697
-0.1777759 -0.012011796 0.11097865 0.40955663 0.04034887 -0.3971949 -0.19414859 -0.09750135
-0.12785362 0.22226657 -0.015480896 0.008967236 0.18260601 -0.30004725 0.03290351 -0.40481967
-0.11703181 0.076098785 -0.052779485 0.0194426 0.28448057 0.38154316 0.5422699 -0.04199608
-0.035676222 -0.0013838877 -0.31095403 -0.061164435 -0.028356025 0.009908285 -0.31647423 -0.28840783
-0.21553002 -0.2409719 0.1381654 -0.365663 0.27962115 -0.34363273 0.10942473 0.033392463
-0.002126518 -0.001823065 -0.067080945 0.03371268 -0.10568208 -0.05638198 -0.1317337 -0.012800463
-0.3377765 0.02539207 0.17306042 0.24172324 -0.08740327 -0.1526863 0.05731187 0.1539165
-0.003810981 0.0027150416 0.06493334 -0.20408064 -0.0035946164 -0.00018760837 -0.053537216 -0.3326658
-0.014644119 0.4163235 -0.32571927 -0.23272303 0.046880826 -0.020153593 0.019464785 0.011817397
-0.0013638167 0.0015155382 0.035747457 0.09624462 0.004174404 0.0021464305 0.0011769413 0.0003138086
0.22889788 0.2780434 0.014004517 0.007571168 0.10519763 0.36996728 0.32669976 0.06365722
-0.16048403 -0.09742909 -0.17032655 -0.52845925 -0.08947791 0.011667017 -0.0001491244 -0.01307458
-0.46566465 -0.31639686 0.11058297 -0.0798735 0.083961494 -0.15235333 0.06593276 0.16616821
-0.22863188 -0.1315241 -0.29827052 -0.14246036 -0.1139554 0.25144783 -0.37481397 0.19619414
0.17120264 -0.4702626 0.23109448 5.8672755e-05 -0.11316691 0.020781377 0.19218433 -0.05419505
-0.1765655 -0.020022742 -0.22615156 0.16365443 -0.15744758 0.09144451 0.40901583 -0.29577953
-0.023087006 0.006086768 0.022185644 -0.0824691 -0.17916946 -0.18772589 -0.14977998 0.0069614504
0.04050807 -0.07293825 -0.08289165 0.105800785 -0.26280448 0.26465005 0.22215605 -0.19553484
0.061371826 -0.049761526 0.27842483 0.1047177 -0.15063004 -0.20949565 0.1808718 0.022570835
-0.25324106 0.33133173 -0.2516263 0.19667022 0.34635788 0.08311993 -0.029276803 0.042702537
0.15857013 -0.04811808 0.36953634 -0.23796713 -0.01620262 -0.007026829 0.10550558 0.18271787
0.0310561 -0.09349815 -0.11569176 0.2692769 0.023518562 0.050148025 -0.2941246 -0.11740163
-0.0056778607 0.0018272881 0.476574 0.18623516 0.3368573 -0.3505463 0.16071501 -0.4310398
-0.18230987 -0.011573115 -0.20760214 0.121478625 -0.010073286 0.013677991 0.31630927 0.12502193
00000000: 0ee9 c53d 349f 9bbd 0606 163c f5db 9139
00000010: a1a2 e13c 0e48 0fbd c78d 8c3e 583a 873e
00000020: e0d0 293d a95a bdbe 83d0 cc3e 969d 7fbd
00000030: f34d 4f3e 1512 d4be e8e6 a0be cf75 703e
00000040: 69bf 4e3e 528e 4e3e bc9d 3d3b 680c ad39
00000050: 133c 70bd 8f5f 9f3e 1e88 733e 3457 48bd
00000060: 16fb 9abe 9a49 22bd 419a 6d3e 495f c13e
00000070: fd97 743e cd9c 59be 9985 22be 4f7c 84bd
00000080: 10a8 d93c e7ae 5c3b 8490 46be 0e53 a2be
00000090: 1076 dfbc eb86 21be 3525 cebd 5035 0dbe
000000a0: 3f64 01be df66 54be 9008 93bc f6bb 553c
000000b0: b260 443d eba4 733b 208d 8e3e ed07 9abe
000000c0: 77f1 0b3e f28d 653c 6bc8 97bd 7cad 21be
000000d0: 967e 7f3e 3996 cf3e 5a18 a9bb 87d9 7aba
000000e0: 11e7 0abb 9c09 91b8 7d24 dbbe 6ecf 093e
000000f0: 0e3d b3bd 2ed8 97be c890 b33b d369 76bb
00000100: e30a 36be 20cd 44bc c648 e33d 68b1 d13e
00000110: db44 253d 215d cbbe e3ce 46be caae c7bd
00000120: 0fec 02be d999 633e 96a3 7dbc 50eb 123c
00000130: 12fd 3a3e cb9f 99be d5c5 063d 8644 cfbe
00000140: 60ae efbd aed9 9b3d 4d2f 58bd 1646 9f3c
00000150: 70a7 913e a059 c33e 33d2 0a3f 1504 2cbd
00000160: 3b21 12bd 9163 b5ba 5e35 9fbe 8f87 7abd
00000170: e54a e8bc 5c56 223c e908 a2be 31aa 93be
00000180: e7b3 5cbe 56c1 76be 3b7b 0d3e 2e38 bbbe
00000190: 812a 8f3e a1f0 afbe 131a e03d 89c6 083d
000001a0: 0d5d 0bbb e9f3 eeba bc61 89bd 4f16 0a3d
000001b0: d96f d8bd cbf0 66bd 33e5 06be 08b9 51bc
000001c0: 0bf1 acbe 0803 d03c c036 313e 4c86 773e
000001d0: 7c00 b3bd cc59 1cbe dabf 6a3d 499c 1d3e
000001e0: a7c1 79bb d7ee 313b c5fb 843d 84fa 50be
000001f0: a893 6bbb bdb8 44b9 d749 5bbd 2c53 aabe
00000200: e3ed 6fbc 5b28 d53e adc4 a6be f24e 6ebe
00000210: 1c06 403d 2619 a5bc 9d74 9f3c c19d 413c
00000220: 18c2 b2ba 06a5 c63a ed6b 123d e61b c53d
00000230: 70c9 883b 21ab 0c3b 9943 9a3a ad86 a439
00000240: 3564 6a3e b45b 8e3e 3473 653c 8f17 f83b
00000250: db71 d73d 5a6c bd3e 3145 a73e b75e 823d
00000260: ed55 24be e788 c7bd 156a 2ebe 1b49 07bf
00000270: 3240 b7bd 0427 3f3c 475e 1cb9 c336 56bc
00000280: 996b eebe c5fe a1be 5379 e23d b894 a3bd
00000290: 01f4 ab3d 8302 1cbe c107 873d 0028 2a3e
000002a0: 7a1e 6abe 41ae 06be eab6 98be 21e1 11be
000002b0: 7361 e9bd c5bd 803e 9ee7 bfbe 1ee7 483e
000002c0: bf4f 2f3e 42c6 f0be 08a4 6c3e 6417 7638
000002d0: 0ec4 e7bd b53d aa3c f8cb 443e a1fb 5dbd
000002e0: 96cd 34be bc06 a4bc 4694 67be 0795 273e
000002f0: f039 21be 4247 bb3d 866a d13e 6a70 97be
00000300: f620 bdbc 8373 c73b abbe b53c 8fe5 a8bd
00000310: 3378 37be 373b 40be ec5f 19be e11c e43b
00000320: caeb 253d a660 95bd 19c3 a9bd 15ae d83d
00000330: 4f8e 86be 3680 873e e07c 633e 493a 48be
00000340: 0661 7b3d bed2 4bbd b38d 8e3e 3c76 d63d
00000350: c33e 1abe 0786 56be 7536 393e 79e6 b83c
00000360: d0a8 81be 50a4 a93e 2ad5 80be eb63 493e
00000370: d255 b13e c83a aa3d e8d5 efbc dbe8 2e3d
00000380: 3560 223e 7717 45bd de33 bd3e a8ad 73be
00000390: 5bbb 84bc 5041 e6bb 4f13 d83d 651a 3b3e
000003a0: 5d69 fe3c f57b bfbd cdef ecbd a9de 893e
000003b0: 00aa c03c 0468 4d3d 8097 96be 4470 f0bd
000003c0: 590d babb 9d81 ef3a 8201 f43e 6eb4 3e3e
000003d0: 8f78 ac3e ce7a b3be 7a92 243e 40b1 dcbe
000003e0: 70af 3abe 2a9d 3dbc a895 54be c9c9 f83d
000003f0: 6c0a 25bc a719 603c 4af3 a13e c005 003e

model.layers.0.bias f4 [164]
1.2849406 -0.23208655 0.0771294 -3.0301487 -1.2398862 -2.7304552 -2.9124062 -1.8571409
1.9445391 0.05977733 -1.8506947 -1.0909462 -1.974113 -3.9267602 -1.6465572 0.54519576
-0.07984245 -0.9584742 -0.7002238 1.9185102 -1.3885449 -0.2704494 0.28088766 -2.4786487
-1.1403129 0.5687007 -2.4412613 -0.087925166 -0.04465336 -1.989856 -1.6932204 -0.15560971
-0.12906365 -2.0593975 -2.134986 0.8568399 0.782753 0.025203696 -0.70765465 -1.3250726
0.22841795 -0.056070562 -4.052302 -2.4019022 -0.44451916 -1.9160318 -0.04962451 -2.05805
1.3916117 -2.2743201 -1.3500292 0.562947 -0.057466414 1.9675778 -0.5684694 -0.093532205
-1.1750752 -2.6285555 2.0627763 1.4667921 -0.056982666 -1.2427027 -0.065274976 -1.059726
-2.0818324 -0.6850841 0.021717163 -0.70811945 -0.04626868 0.93219584 -0.13858002 -0.020969208
-2.045547 0.49797347 -2.224189 -1.5188688 -0.49544278 -1.5340102 -0.74800116 -0.23158757
-0.93682957 0.4483788 0.4259386 -1.5481133 -0.9536259 0.5789559 0.8807856 -1.888162
-1.9387592 -1.8598715 -0.8328868 2.3031805 0.44236135 -1.4231924 1.0049165 -1.9752479
-0.32305104 0.17093107 0.48441687 0.3938234 0.09238809 0.3572906 -1.9048008 -0.6632497
-0.07352642 -2.2994149 -1.4000216 -1.5313373 -2.0069292 -1.8055891 -1.7173446 -0.8289579
1.2263494 -1.3660364 -0.22897212 1.705978 0.1701338 -1.8501865 -0.9746054 0.35104915
-0.101984635 -2.3719723 0.39413995 -1.6059047 -0.16078329 -1.3312365 -0.23649275 -1.8144895
-0.27590257 -1.4355229 -2.7679586 -0.18201713 0.9847894 0.99277335 -1.5926325 -0.3208222
-1.4988341 -0.41166693 0.07610473 -1.7783976 -0.8527286 -1.2692533 1.7028059 -2.8683746
-1.5743122 -0.88141924 -1.6300746 -0.8811029 -1.278753 -2.8233812 -1.2998765 -1.7888626
0.8704416 -1.8995259 -0.5633431 -1.4129564 -1.4802736 -1.3236281 -0.36915368 -1.9167856
0.17279164 -1.9983184 -1.9491699 -1.546151
00000000: ef78 a43f 19a8 6dbe 05f6 9d3d f5ed 41c0
00000010: 97b4 9ebf c7bf 2ec0 dd64 3ac0 cbb6 edbf
00000020: a8e6 f83f 13d9 743d 90e3 ecbf 20a4 8bbf
00000030: bcaf fcbf 0a50 7bc0 63c2 d2bf f391 0b3f
00000040: 7084 a3bd 915e 75bf de41 33bf be91 f53f
00000050: d7bb b1bf 5878 8abe 82d0 8f3e 2ea2 1ec0
00000060: c6f5 91bf 5e96 113f a03d 1cc0 1c12 b4bd
00000070: 71e6 36bd 9ab3 febf 72bb d8bf 2758 1fbe
00000080: 4329 04be 2bcd 03c0 9ca3 08c0 dc59 5b3f
00000090: 8062 483f fb77 ce3c db28 35bf fb9b a9bf
000000a0: 65e6 693e 3faa 65bd 75ac 81c0 c4b8 19c0
000000b0: 0498 e3be 8840 f5bf 1243 4bbd 17b7 03c0
000000c0: 5520 b23f 768e 11c0 c2cd acbf 4b1d 103f
000000d0: e761 6bbd 97d9 fb3f 3687 11bf d08d bfbd
000000e0: dd68 96bf 413a 28c0 8704 0440 d8bf bb3f
000000f0: a866 69bd e210 9fbf e3ae 85bd 1aa5 87bf
00000100: be3c 05c0 ac61 2fbf 31e8 b13c 5147 35bf
00000110: 3a84 3dbd 63a4 6e3f ece7 0dbe 9ec7 abbc
00000120: 3eea 02c0 61f6 fe3e 1d59 0ec0 4b6a c2bf
00000130: adaa fdbe 725a c4bf 017d 3fbf 4b25 6dbe
00000140: 10d4 6fbf e891 e53e a014 da3e 9428 c6bf
00000150: d420 74bf 7436 143f 2a7b 613f 4baf f1bf
00000160: 4329 f8bf 4510 eebf 1238 55bf 4f67 1340
00000170: 307d e23e 2b2b b6bf 1ba1 803f ecd4 fcbf
00000180: f266 a5be 8e08 2f3e 7d05 f83e 38a3 c93e
00000190: f835 bd3d cbee b63e 83d0 f3bf bbca 29bf
000001a0: 0595 96bd 9d29 13c0 e833 b3bf dc02 c4bf
000001b0: 8771 00c0 8b1d e7bf f3d1 dbbf 9636 54bf
000001c0: 04f9 9c3f 48da aebf ab77 6abe 7d5d da3f
000001d0: 8e37 2e3e e9d2 ecbf bd7f 79bf b7bc b33e
000001e0: 52dd d0bd 65ce 17c0 b6cc c93e 498e cdbf
000001f0: 60a4 24be f565 aabf 282b 72be 3141 e8bf
00000200: 1a43 8dbe 37bf b7bf 3c26 31c0 b362 3abe
00000210: 281b 7c3f 6526 7e3f 62db cbbf cf42 a4be
00000220: ccd9 bfbf 02c6 d2be ccdc 9b3d 88a2 e3bf
00000230: 6c4c 5abf e476 a2bf 8bf5 d93f 7393 37c0
00000240: 1083 c9bf b1a4 61bf 49a6 d0bf f68f 61bf
00000250: 2eae a3bf 47b2 34c0 5a62 a6bf 73f9 e4bf
00000260: 43d5 5e3f aa23 f3bf 4137 10bf c1db b4bf
00000270: 9b79 bdbf a56c a9bf b601 bdbe 3b59 f5bf
00000280: 4bf0 303e e6c8 ffbf 667e f9bf 47e8 c5bf

model.layers.2.weight f4 [164, 164]
-0.019008435 -0.029118463 -0.04044037 -0.052149944 -0.08243997 -0.06126932 0.044623017 -0.038948875
0.06867457 -0.0011921406 -0.060169283 0.031866055 -0.019017879 -0.10579429 0.085143134 0.049830917
0.020360691 -0.058135077 -0.09129595 -0.024424186 -0.024798233 -0.04977513 -0.064845875 -0.005395451
0.020671122 -0.08836339 -0.0042761196 0.05217605 -0.13059296 -0.012626226 0.03421261 -0.008926315
-0.0957151 -0.101641156 -0.011969556 -0.04458572 -0.043123726 -0.07452576 -0.049404632 -0.10160692
-0.022914816 -0.024834232 0.047434937 0.005282339 -0.015919562 -0.058911063 -0.07881582 -0.101386406
0.014107972 0.035067543 -0.0063106413 0.10566858 -0.01791469 -0.083229 0.012583662 -0.019748647
-0.053586233 -0.12545529 -0.10381248 -0.04834293 -0.069361925 0.038273774 0.0145053705 -0.021139018
0.0048375437 -0.06555911 0.07805349 -0.00068743323 -0.08975265 -0.12852867 -0.14409639 -0.10145871
-0.1232387 -0.03865694 0.012448012 0.0031945745 0.05397673 -0.10290853 -0.033099007 -0.10382144
-0.09502043 0.027372893 0.07416821 0.010197298 0.025275715 -0.03475756 -0.09097655 -0.12122141
0.09429725 -0.10497514 -0.085574925 -0.09846233 -0.05916858 -0.06672201 -0.042922392 0.022562908
-0.1265377 -0.111959554 -0.028812092 0.057798147 0.022855246 -0.06084976 -0.11694145 0.03201664
0.054336112 -0.026827535 -0.010090699 -0.04401777 -0.0466241 -0.16735806 -0.038891643 -0.017391853
0.012245262 0.05132057 -0.0077083064 -0.13018152 0.057479177 -0.10695274 0.010114031 1.3355162e-05
-0.13466704 -0.06552034 -0.037546035 -0.056607053 -0.064134546 -0.07970593 -0.02173945 0.017458232
-0.13154829 -0.064269535 0.06607301 -0.012365389 -0.05970064 -0.12124517 -0.011975231 0.010017908
-0.09176771 0.028230617 -0.06985745 -0.009294479 -0.028701235 -0.098285936 -0.08405243 0.0077871527
-0.12960844 0.08878752 -0.034338146 -0.033041567 -0.10004199 -0.00045047715 -0.029800631 0.003832022
-0.15898816 0.033041917 -0.11858685 -0.004705252 -0.009086644 0.018241856 -0.036159124 -0.0875671
0.0093685705 -0.032762025 -0.023187036 0.0408382 -0.09824729 -0.075765125 -0.0057343766 -0.057519052
-0.032511808 -0.06419591 -0.03601788 -0.06375588 0.054133106 -0.100906044 0.036000825 -0.0448543
0.0041247616 0.031825226 -0.11318877 -0.045921132 -0.096212715 -0.008816273 -0.06959809 0.020145247
0.004159666 0.019036891 -0.045085493 -0.029398711 -0.11240065 -0.088332295 0.012245171 -0.03618275
-0.10675703 -0.034744028 0.027227577 0.0029427512 -0.036262237 -0.019980425 -0.018707281 -0.049418725
-0.049301364 0.018891804 -0.025040986 -0.025823195 -0.080874 -0.042841785 0.0019910298 0.0013254348
-0.1612826 -0.00018568867 -0.031165771 -0.08833021 0.0026762616 -0.08832687 0.0027979922 -0.050405502
-0.08178011 -0.032017205 0.03147341 -0.020968398 0.0034701307 -0.007682295 -0.031845935 -0.011572685
0.016005624 -0.026891619 -0.07536946 -0.101603426 0.011852415 -0.000398346 0.04079046 -0.018274732
-0.05106847 -0.034515467 -0.01857887 -0.064742975 -0.05276341 -0.012853411 -0.08248516 -0.07179246
-0.07418526 -0.019520799 -0.0150226 -0.09930742 0.049541533 -0.060047045 -0.0052828286 -0.090494655
-0.0322093 -0.05863632 -0.006864493 -0.14890783 -0.04930307 -0.036933944 -0.105956346 -0.033921152
00000000: 94b7 9bbc d889 eebc cda4 25bd 2e9b 55bd
00000010: 49d6 a8bd 8af5 7abd a0c6 363d db88 1fbd
00000020: 41a5 8c3d 9a41 9cba 1174 76bd fb85 023d
00000030: 62cb 9bbc adaa d8bd 865f ae3d 811b 4c3d
00000040: 77cb a63c 0c1f 6ebd 5ff9 babd 3b15 c8bc
00000050: aa25 cbbc 02e1 4bbd eacd 84bd 53cc b0bb
00000060: 7c56 a93c ddf7 b4bd b11e 8cbb 8eb6 553d
00000070: 29ba 05be 3bde 4ebc 8622 0c3d ae3f 12bc
00000080: 4706 c4bd 3d29 d0bd f51b 44bc 849f 36bd
00000090: 81a2 30bd f6a0 98bd 835c 4abd 4a17 d0bd
000000a0: dab7 bbbc 2971 cbbc 234b 423d 7917 ad3b
000000b0: be69 82bc ba4c 71bd 306a a1bd ada3 cfbd
000000c0: 2025 673c fca2 0f3d 7fc9 cebb c568 d83d
000000d0: d4c1 92bc f773 aabd b42b 4e3c eac7 a1bc
000000e0: 3d7d 5bbd 5a77 00be a39b d4bd 3c03 46bd
000000f0: a00d 8ebd f6c4 1c3d efa7 6d3c bc2b adbc
00000100: 4284 9e3b db43 86bd 82da 9f3d dd34 34ba
00000110: 3dd0 b7bd 059d 03be 018e 13be 96c9 cfbd
00000120: 9264 fcbd bd56 1ebd bff2 4b3c 115c 513b
00000130: b416 5d3d b5c1 d2bd d392 07bd 56a0 d4bd
00000140: 129a c2bd 1e3d e03c 81e5 973d 9112 273c
00000150: 040f cf3c f15d 0ebd ea51 babd ee42 f8bd
00000160: eb1e c13d 35fd d6bd e841 afbd 9ea6 c9bd
00000170: c15a 72bd 8da5 88bd 64cf 2fbd d9d5 b83c
00000180: 1993 01be 0d4b e5bd 5607 ecbc c0bd 6c3d
00000190: ed3a bb3c 993d 79bd 007f efbd e123 033d
000001a0: 8b8f 5e3d 6bc5 dbbc 7653 25bc fa4b 34bd
000001b0: eaf8 3ebd e95f 2bbe d84c 1fbd 5c79 8ebc
000001c0: 5aa0 483c 8535 523d f695 fcbb 4e4e 05be
000001d0: 496f 6b3d 0a0a dbbd 52b5 253c fc0f 6037
000001e0: 28e6 09be 872f 86bd dfc9 19bd ccdc 67bd
000001f0: f958 83bd dd3c a3bd ee16 b2bc 9104 8f3c
00000200: 98b4 06be bf9f 83bd 4951 873d 3398 4abc
00000210: a988 74bd 634f f8bd c233 44bc 2722 243c
00000220: b6f0 bbbd e543 e73c 6c11 8fbd df47 18bc
00000230: da1e ebbc 234a c9bd ae23 acbd 5f2b ff3b
00000240: 13b8 04be 3bd6 b53d 28a6 0cbd 9856 07bd
00000250: d1e2 ccbd 052e ecb9 7420 f4bc a922 7b3b
00000260: cbcd 22be f656 073d aadd f2bd 842e 9abb
00000270: 26e0 14bc f26f 953c 971b 14bd 6156 b3bd
00000280: a27e 193c 7931 06bd bdf2 bdbc f545 273d
00000290: e035 c9bd bf2a 9bbd 70e7 bbbb 1999 6bbd
000002a0: 1a2b 05bd 2579 83bd 7c87 13bd 7192 82bd
000002b0: adba 5d3d d4a7 cebd 9a75 133d 24b9 37bd
000002c0: 0229 873b 2b5b 023d 84cf e7bd cc17 3cbd
000002d0: 2c0b c5bd 2172 10bc 7289 8ebd a507 a53c
000002e0: cf4d 883b 41f3 9b3c 91ab 38bd 91d5 f0bc
000002f0: 5032 e6bd 90e7 b4bd f89f 483c 5d34 14bd
00000300: 6ea3 dabd c14f 0ebd 5e0c df3c 2cdb 403b
00000310: b687 14bd fdad a3bc 0340 99bc 4a6b 4abd
00000320: 3af0 49bd fcc2 9a3c c122 cdbc 2a8b d3bc
00000330: 45a1 a5bd de7a 2fbd f07b 023b 36ba ad3a
00000340: 4427 25be 6cb5 42b9 5c4f ffbc 78e6 b4bd
00000350: 3864 2f3b b8e4 b4bd 855e 373b 0076 4ebd
00000360: 557c a7bd 7924 03bd 43ea 003d ebc5 abbc
00000370: 226b 633b c3bb fbbb e270 02bd 5c9b 3dbc
00000380: 3a1e 833c d04b dcbc 4e5b 9abd 7515 d0bd
00000390: a230 423c 18d9 d0b9 e613 273d e4b4 95bc
000003a0: 2c2d 51bd 1760 0dbd b732 98bc f797 84bd
000003b0: 721e 58bd 1d97 52bc fbed a8bd ed07 93bd
000003c0: 71ee 97bd 15ea 9fbc 5a21 76bc b061 cbbd
000003d0: 10ec 4a3d e4f3 75bd 941b adbb 4355 b9bd
000003e0: e6ed 03bd a32c 70bd 8aef e0bb 4b7b 18be
000003f0: 04f2 49bd 0c48 17bd a4ff d8bd e8f0 0abd

model.layers.2.bias f4 [164]
-0.13428931 -0.12554815 -0.01765829 -0.1564788 -0.26094383 -0.0051176352 -0.09734338 -0.01718801
0.0074938177 -0.16237864 -0.11310534 -0.06349142 -0.08900507 -0.09005148 -0.16064128 -0.22499911
0.037775714 -0.13780616 -0.078496434 -0.055503856 -0.08135977 -0.05932346 -0.04182282 -0.07395975
-0.012163413 -0.108113885 -0.048774857 -0.02813937 -0.12727489 -0.07301138 -0.0859606 -1.3403406
-0.122866474 -0.37370747 -0.09770131 -0.13518181 0.32122752 -0.0015644227 -0.101849064 -0.6035699
-0.13065945 -0.044096332 -0.33930132 -0.07335319 -0.13755226 -0.091110766 0.062291708 -0.11560095
-0.17892908 -0.20104273 -0.05965248 0.019706994 -0.097230315 0.008435432 -0.050535113 0.03728451
-0.005579984 -0.0655153 -0.1080307 -0.0148503315 -0.059166543 0.008939025 -0.10880155 -0.013178
0.009677976 -0.14979288 -0.07416635 -0.2448176 -0.14109209 0.000397809 -0.05649873 -0.04567224
-0.096374474 -0.10841967 -1.1185179 0.008433327 -0.036976796 -0.011437262 0.0031476216 -0.12702888
-0.0163764 -0.21305376 -0.05561186 -0.07372225 0.01419209 -0.022629907 -0.004700459 -0.322517
-0.09308923 -0.0016823597 -0.0029200434 -0.023037465 -0.027793165 -0.09384909 -0.049227845 -0.02817984
0.47206172 -0.08556742 -0.06287229 -0.0985401 -0.75693935 -0.07171339 -0.07723186 -0.100107074
-0.09741393 -0.053359225 -0.27302566 -0.03754821 -0.033460587 -0.0022092103 -0.11000533 -0.03623616
-0.03571105 -0.08595088 -0.8633188 -0.07730213 0.0047955695 -0.059801433 0.26652446 -0.08063671
0.3184019 -0.05470516 -0.05354798 -0.04889939 0.015542486 -0.18342406 -0.07952373 -0.28549126
-0.029605746 -0.14327624 -0.08305222 -0.15235148 -0.08094715 -0.012392854 -0.06386802 -0.03056055
-0.17473835 0.023611367 -0.08348163 -0.1323389 -0.010313198 -0.36986375 -0.06122319 -0.11037602
-0.15252855 0.0153905805 0.010258509 -0.039367735 -0.00026220814 -0.34180278 0.0040545794 -0.023320628
-0.09566489 0.00051767554 -0.09228279 -0.024178693 -0.0057827975 -0.018376136 -0.017125024 -0.010920719
-0.12967132 -0.059895936 -0.13741486 0.5094563
00000000: 2383 09be b28f 00be 1ea8 90bc fb3b 20be
00000010: 6e9a 85be d6b1 a7bb f75b c7bd dfcd 8cbc
00000020: b38e f53b 9646 26be c6a3 e7bd ca07 82bd
00000030: 4a48 b6bd e96c b8bd 267f 24be 2b66 66be
00000040: b5ba 1a3d 0f1d 0dbe bdc2 a0bd 0358 63bd
00000050: f39f a6bd 28fd 72bd 684e 2bbd 3678 97bd
00000060: 0d49 47bc d06a ddbd 25c8 47bd 8984 e6bc
00000070: 5954 02be fe86 95bd 1c0c b0bd 4890 abbf
00000080: 6ba1 fbbd 9656 bfbe a017 c8bd 1a6d 0abe
00000090: ef77 a43e 510d cdba 3e96 d0bd 8f83 1abf
000000a0: 97cb 05be 5b9e 34bd e7b8 adbe 333a 96bd
000000b0: 80da 0cbe 4898 babd 9725 7f3d 31c0 ecbd
000000c0: 2f39 37be 25de 4dbe 2956 74bd 9070 a13c
000000d0: b020 c7bd c434 0a3c e8fd 4ebd a4b7 183d
000000e0: 4cd8 b6bb e32c 86bd 333f ddbd ce4e 73bc
000000f0: 9e58 72bd fd74 123c 59d3 debd 8ae8 57bc
00000100: 6090 1e3c 4e63 19be 87e4 97bd 77b1 7abe
00000110: 727a 10be 0591 d039 366b 67bd d112 3bbd
00000120: fb5f c5bd 220b debd 982b 8fbf f02b 0a3c
00000130: fb74 17bd 5b63 3bbc 5448 4e3b dc13 02be
00000140: cd27 86bc c42a 5abe 43c9 63bd b1fb 96bd
00000150: f185 683c 5b62 b9bc 4f06 9abb f320 a5be
00000160: 91a5 bebd a082 dcba 335e 3fbb 11b9 bcbc
00000170: 7eae e3bc f433 c0bd 23a3 49bd 68d9 e6bc
00000180: 13b2 f13e f93d afbd 30c3 80bd 64cf c9bd
00000190: c7c6 41bf 78de 92bd bd2b 9ebd f004 cdbd
000001a0: f480 c7bd 348f 5abd 05ca 8bbe 27cc 19bd
000001b0: f80d 09bd 66c8 10bb 794a e1bd 5e6c 14bd
000001c0: c045 12bd 0407 b0bd 7602 5dbf 9450 9ebd
000001d0: 2724 9d3b 59f2 74bd e575 883e dc24 a5bd
000001e0: 9305 a33e 8512 60bd 2055 5bbd ba4a 48bd
000001f0: e9a5 7e3c 84d3 3bbe 56dd a2bd e92b 92be
00000200: c087 f2bc 02b7 12be 4817 aabd 0702 1cbe
00000210: 9fc7 a5bd 660b 4bbc 3dcd 82bd 1e5a fabc
00000220: 9cee 32be a06c c13c 6bf8 aabd d983 07be
00000230: b0f8 28bc c85e bdbe 2bc5 7abd d30c e2bd
00000240: 7230 1cbe c628 7c3c 4e13 283c 1040 21bd
00000250: fb78 89b9 c600 afbe 47dc 843b e70a bfbc
00000260: f4eb c3bd 9eb4 073a c2fe bcbd 6512 c6bc
00000270: 9f7d bdbb 8d89 96bc c749 8cbc d1ec 32bc
00000280: 8fc8 04be 7155 75bd 7bb6 0cbe ba6b 023f

model.layers.4.weight f4 [2, 164]
-0.07268259 -0.024584096 -0.0044404753 -0.11976482 -0.2918952 0.05323966 -0.0070243594 0.008835896
-0.04470067 -0.0104490565 -0.036758427 0.016291803 -0.019842634 -0.06742925 -0.046074957 -0.2809444
0.013613486 -0.021558931 0.03004107 -0.06784207 -0.011518601 -0.001395066 -0.009063093 -0.03155592
0.03630563 0.0059058624 0.012664029 -0.05667366 0.0026265644 0.0011070058 0.023889117 0.29374227
0.005650242 -0.10710712 -0.008609215 0.030496553 0.14788653 -0.006499232 0.04870749 -0.031717725
0.080263674 0.04909894 0.24602015 0.026618816 0.06884393 -0.004371439 0.006045644 -0.024268968
-0.18768062 -0.11230819 0.0068270504 -0.030744294 0.0076584606 0.030906854 0.019887017 -0.019850073
0.0061653927 -0.008802784 -0.010114548 -0.0022667688 0.015765639 -0.013104523 -0.0030710653 -0.01676113
-0.024212044 0.017477041 -0.028441852 -0.21580856 0.013807524 0.05115479 -0.008081699 0.0048368187
-0.0012910378 -0.03127151 -0.13241911 -0.0045680623 -0.02509762 0.02968358 0.0032744475 0.010033539
0.02629521 -0.21132995 -0.017647926 0.05475185 -0.0019644909 0.04250628 -0.031111075 0.18804425
0.020853648 0.008717687 0.034452733 -0.04559852 -0.018497998 0.0052230344 -0.01615201 0.008666419
0.10528073 0.0054992284 -0.026565341 0.010143759 -0.082253054 -0.008082135 -0.038448196 0.04473335
0.037665922 -0.010651003 0.17629638 -0.035024583 -0.034859262 -0.020985367 0.022337353 0.017926455
0.023851754 0.050535027 -0.102111384 0.01381374 0.023113705 0.050730143 -0.09491703 0.021881746
0.36619645 -0.074885815 -0.032439206 -0.006421589 0.023458922 0.00035385706 0.027094997 -0.32080907
-0.01425843 -0.013513067 -0.030163486 -0.037082165 0.011257023 -0.005381845 0.026969776 0.013695494
-0.032188594 -0.023451656 -0.018282367 -0.033547 -0.0061442214 -0.22287756 0.021577217 -0.0113317175
0.041278232 -0.0024892571 0.010646279 -0.005332019 -0.006044227 0.24338089 -0.0009270992 0.023839662
-0.02067866 0.047223005 0.013245824 0.022988254 0.028726688 -0.050871354 0.023298677 0.014867727
-0.02951294 -0.010000485 -0.015995469 -0.42963865 -0.00020805513 0.052101154 0.04000227 0.18051314
-0.2456814 0.015083548 0.001842643 0.014638971 0.037859593 -0.029795595 -0.025827305 0.021236332
-0.0059766504 -0.026697578 0.04918323 0.21732813 0.004399199 0.0060090264 0.025505941 0.05518815
0.023149304 0.00359283 -0.0202093 -0.056103587 0.039695174 0.03430129 -0.024138115 0.04003916
0.02754267 -0.022836633 0.05266153 -0.3107685 0.031444926 -0.0012937697 0.014797084 -0.0040673087
-0.23997404 -0.021458058 0.02618288 0.28493288 -0.031733423 0.059161153 -0.20318754 -0.0451032
0.0020060758 -0.07325009 0.025605692 0.042864583 0.025608478 -0.07987834 -0.062112086 -0.004419795
0.018045396 -0.03384253 0.04808473 -0.011910186 0.02109831 -0.056346945 0.00022843454 0.04761844
0.1145657 -0.028195096 -0.012054703 -0.09729681 -0.005787961 0.051767755 0.007898591 -0.19324371
-0.088781625 0.01650741 -0.031916235 -0.034011368 0.023870341 -0.049242057 -0.14954007 0.034581475
-0.12150195 0.021230755 -0.052458875 0.013011847 -0.096071534 -0.15411402 -0.007759145 -0.029796956
0.0008157941 -0.047171883 -0.029170975 -0.26643997 -0.020988045 -0.043657355 -0.094757944 -0.048992563
00000000: 9cda 94bd 9664 c9bc 6881 91bb 4247 f5bd
00000010: 4a73 95be d411 5a3d 992c e6bb 6fc4 103c
00000020: 0d18 37bd 8532 2bbc 0190 16bd 6376 853c
00000030: 058d a2bc 5918 8abd 18b9 3cbd f2d7 8fbe
00000040: 190b 5f3c 5b9c b0bc b118 f63c c8f0 8abd
00000050: 84b8 3cbc a6da b6ba 5e7d 14bc c840 01bd
00000060: 36b5 143d f785 c13b ca7c 4f3c a422 68bd
00000070: 7022 2c3b f318 913a 1cb3 c33c 6365 963e
00000080: aa25 b93b fa5a dbbd aa0d 0dbc e8d3 f93c
00000090: 916f 173e 82f7 d4bb 8181 473d 72ea 01bd
000000a0: 4861 a43d f81b 493d b5ec 7b3e b40f da3c
000000b0: 0cfe 8c3d 4a3e 8fbb 8a1a c63b b7cf c6bc
000000c0: 592f 40be d601 e6bd 73b5 df3b 75db fbbc
000000d0: d3f3 fa3b 5f30 fd3c 19ea a23c 9f9c a2bc
000000e0: 1007 ca3b 8d39 10bc 7db7 25bc 128e 14bb
000000f0: f126 813c 5ab4 56bc ed43 49bb a34e 89bc
00000100: 5658 c6bc 032c 8f3c e3fe e8bc ebfc 5cbe
00000110: f438 623c af87 513d 1a69 04bc 2d7e 9e3b
00000120: 0a38 a9ba 8e16 00bd e098 07be afaf 95bb
00000130: 8699 cdbc fb2a f33c 1d98 563b b663 243c
00000140: 0d69 d73c e166 58be 6292 90bc 7a43 603d
00000150: b0be 00bb 111b 2e3d a7dc febc ac8e 403e
00000160: 45d5 aa3c a1d4 0e3c 4f1e 0d3d 84c5 3abd
00000170: 1d89 97bc fd25 ab3b 3851 84bc 99fd 0d3c
00000180: 6c9d d73d df32 b43b 8f9f d9bc 0232 263c
00000190: 4a74 a8bd ee6a 04bc db7b 1dbd 513a 373d
000001a0: 9547 1a3d 8b81 2ebc 0a87 343e f075 0fbd
000001b0: 96c8 0ebd 81e9 abbc d3fc b63c 80da 923c
000001c0: c164 c33c d1fd 4e3d c61f d1bd 0653 623c
000001d0: f458 bd3c 69ca 4f3d dc63 c2bd 5941 b33c
000001e0: 1a7e bb3e bc5d 99bd f9de 04bd 316c d2bb
000001f0: ed2c c03c e485 b939 54f6 dd3c 1641 a4be
00000200: 319c 69bc e965 5dbc 6a19 f7bc 78e3 17bd
00000210: 606f 383c 305a b0bb b8ef dc3c 1163 603c
00000220: 30d8 03bd b01d c0bc e7c4 95bc 9468 09bd
00000230: 7755 c9bb 043a 64be b4c2 b03c aba8 39bc
00000240: 5d13 293d ce22 23bb bb6d 2e3c 38b8 aebb
00000250: a70e c6bb d738 793e 9308 73ba 654b c33c
00000260: 4b66 a9bc e96c 413d 0305 593c dd51 bc3c
00000270: 3b54 eb3c 7b5e 50bd dedc be3c c497 733c
00000280: 1fc5 f1bc 13d9 23bc ee08 83bc 99f9 dbbe
00000290: 6029 5ab9 0568 553d 6cd9 233d 70d8 383e
000002a0: e893 7bbe fc20 773c d784 f13a 4bd8 6f3c
000002b0: a912 1b3d e415 f4bc c993 d3bc d1f7 ad3c
000002c0: c7d7 c3bb e1b4 dabc 5b74 493d 448b 5e3e
000002d0: 2827 903b 5ee7 c43b d6f1 d03c f80c 623d
000002e0: 9ca3 bd3c af75 6b3b f98d a5bc e0cc 65bd
000002f0: 6897 223d 827f 0c3d 4cbd c5bc 1a00 243d
00000300: 2aa1 e13c e413 bbbc 9eb3 573d 0d1d 9fbe
00000310: 65cc 003d b593 a9ba 786f 723c 0f47 85bb
00000320: c1bb 75be cfc8 afbc 7b7d d63c b9e2 913e
00000330: e8fa 01bd f752 723d 6510 50be 22be 38bd
00000340: 5e78 033b 2504 96bd 07c3 d13c c692 2f3d
00000350: dfc8 d13c 4197 a3bd 3e69 7ebd edd3 90bb
00000360: f0d3 933c 779e 0abd 7ef4 443d f122 43bc
00000370: 5dd6 ac3c 0ecc 66bd ee87 6f39 8e0b 433d
00000380: 6ca1 ea3d 67f9 e6bc 1781 45bc 8d43 c7bd
00000390: f0a8 bdbb 6d0a 543d 1869 013c aee1 45be
000003a0: 24d3 b5bd 8c3a 873c 99ba 02bd 814f 0bbd
000003b0: bc8b c33c 0ab2 49bd 0821 19be 4ea5 0d3d
000003c0: 04d6 f8bd 1fec ad3c 1edf 56bd a42f 553c
000003d0: 27c1 c4bd 11d0 1dbe 6d40 febb bf18 f4bc
000003e0: 04db 553a 4e37 41bd f8f7 eebc d26a 88be
000003f0: 1fef abbc 0ed2 32bd 7410 c2bd 6dac 48bd

model.layers.4.bias f4 [2]
0.22483735 0.1400388
00000000: c33b 663e 5566 0f3e

exp_avg f4 [164, 2]
0.007913976 -0.010733322 1.1201519e-37 1.0658939e-37 -0.00036815275 0.00014914194 -0.0046163453 0.00091795914
-0.00024443737 -0.00059043977 -0.00017204555 0.0014047337 0.0009482765 0.0028301906 -0.005796711 0.005593236
0.0034763988 -0.008094247 0.0011372732 -0.0011187919 -0.005329894 0.0033487384 -0.0028813672 -0.00038298452
-0.0005971906 0.0010289663 -0.0032048814 -0.0007689123 -0.0021684964 -0.004639473 0.0003595011 0.0030353405
-0.0010925275 0.00028465173 -0.00034610432 -0.00091434084 -0.00057738245 -9.94828e-05 0.022768244 -0.015867654
8.775343e-05 -0.0014473193 -1.0648461e-37 1.0740128e-37 -0.00030923937 -0.00026324982 0.0045834426 -0.0010876535
-0.00069052447 -0.0002159389 -0.0019188863 0.0028118538 0.00031313812 0.0021073068 -1.2689838e-34 -3.6064112e-35
1.1191958e-37 -1.1543918e-37 -0.014301703 0.014514825 2.906585e-06 0.0015029472 1.3942565e-20 5.865021e-22
3.886498e-05 -0.0010968666 -0.0006729188 0.005792105 0.006537936 0.023584899 0.0012130747 0.00092556234
0.0024878522 0.0014908828 -0.0004166226 -0.00018854492 -0.0037543327 0.0031852443 -0.0014258758 -0.0007684316
0.00024622356 0.0003053107 -0.0007863508 8.80828e-05 -0.0020130603 -0.00029922527 -0.0109142875 -0.0026365183
-1.1346852e-21 -2.0883171e-22 -0.00049865013 0.005323788 -0.00054709066 0.000112047455 0.007943138 -0.009561155
-0.004067146 0.0031355023 0.00013449251 0.00056961284 -0.00682362 0.0034781336 -0.0017943229 -0.0012538134
1.1091452e-37 -1.0744703e-37 0.006109893 -0.008065874 -0.000449119 -0.00026500947 -0.00013586864 -0.00022416454
-0.0009959606 0.0023421145 -0.0015512942 -0.00080748217 0.020880025 -0.019120434 0.0025738194 -0.0039118896
-1.0711434e-37 1.1589239e-37 5.6147263e-05 -5.546806e-05 -1.1102173e-37 1.1662771e-37 0.00016821118 -0.001965071
-0.0032297475 0.0043606106 -0.00032110396 -0.0037008089 -0.00079579337 0.00013853415 1.1329887e-37 1.0878451e-37
-1.6413059e-37 3.9393634e-37 0.001978571 -0.0030087314 3.1226586e-30 8.622375e-31 -1.1745597e-37 1.1093129e-37
-3.4265802e-05 0.0006142898 0.00017335234 -0.0018357057 -0.0035625799 0.008705202 -0.0030901688 -0.0008644265
-0.00031727977 -0.0036646375 0.0012850035 -0.003378025 -0.00013611419 -8.743009e-07 -1.9517216e-30 -4.2874473e-30
-0.00023789398 -0.0072600767 -0.0010410226 -0.0010627983 0.00031427914 0.0009514619 -5.6129335e-05 -0.00011062235
-0.00048615996 -0.0012548724 -0.0026226752 0.005584815 0.0037346403 0.0023023782 -0.0044478206 0.00531839
0.00086412625 0.003971347 -0.0020011547 0.0002756781 2.432571e-05 7.9691374e-05 0.017732993 -0.02162158
0.00013756132 0.003778651 -0.0024266955 0.003247014 0.016641034 0.008814538 -0.0022873401 -0.004234958
-1.1193451e-37 1.1141509e-37 -0.0016399513 0.0010255526 -0.003006697 0.0073081288 -5.2484975e-06 0.00077040686
-0.0017539297 0.00041143442 0.001387209 0.0011289688 -0.0083496105 0.006538461 -0.0051496224 0.0012072588
-0.0018805135 0.0001305787 -0.001872071 -0.0010730333 0.00037897614 -0.001742372 -0.0010493328 -0.00043085846
-0.011354902 0.006582224 -0.0037690457 0.0045465496 -0.0011237225 -0.0004980406 1.1262339e-37 1.0899343e-37
-0.0017334907 -0.0011871299 -0.0045929407 -0.0021563722 -1.089843e-37 -1.1598117e-37 0.0023482847 -0.007285503
-0.0012157921 0.00020075717 -0.0005470015 0.0025882707 1.0834692e-37 1.1154766e-37 -0.0023853963 0.0039988747
-1.1281547e-37 1.1012488e-37 -0.00095989107 0.0027242887 -0.0015547497 0.002325133 -0.0020577929 0.0037331772
6.5476226e-05 -0.0015992909 -0.0020181327 0.0028017575 -1.9361452e-29 6.910875e-29 -0.0007301287 0.0014481237
00000000: 9fa9 013c d1da 2fbc 9977 1802 fb14 1102
00000010: a004 c1b9 fc62 1c39 b644 97bb 32a3 703a
00000020: d427 80b9 bec7 1aba 2067 34b9 0b1f b83a
00000030: c295 783a b87a 393b 56f2 bdbb 7747 b73b
00000040: 4bd4 633b bc9d 04bc 8e10 953a 6da4 92ba
00000050: 64a6 aebb 8276 5b3b 52d5 3cbb 50cb c8b9
00000060: c88c 1cba 61de 863a fd08 52bb d590 49ba
00000070: 551d 0ebb b806 98bb 6c7b bc39 90ec 463b
00000080: 2433 8fba 4f3d 9539 5675 b5b9 60b0 6fba
00000090: 7b5b 17ba 6ca1 d0b8 7884 ba3c e2fc 81bc
000000a0: 4408 b838 fab3 bdba 79f0 1082 e22f 1202
000000b0: 6821 a2b9 cb04 8ab9 b430 963b 988f 8eba
000000c0: 5004 35ba a86d 62b9 2483 fbba 1447 383b
000000d0: b02c a439 be1a 0a3b 48ad 2887 edbf 3f86
000000e0: 4856 1802 af20 1d82 b151 6abc 97cf 6d3c
000000f0: c00e 4336 8afe c43a 0eaf 831e 6742 311c
00000100: f402 2338 bcc4 8fba d166 30ba b3cb bd3b
00000110: 2f3c d63b 1e35 c13c 0800 9f3a 70a1 723a
00000120: 3c0b 233b ba69 c33a 246e dab9 24b4 45b9
00000130: 400b 76bb 88bf 503b 74e4 baba 9270 49ba
00000140: 9117 8139 1c12 a039 1c23 4eba 18b9 b838
00000150: 8ced 03bb 56e1 9cb9 d7d1 32bc 70c9 2cbb
00000160: 0278 ab9c 4976 7c9b d8b7 02ba 2c73 ae3b
00000170: a26a 0fba 05fb ea38 ef23 023c 64a6 1cbc
00000180: b245 85bb 007d 4d3b 8f06 0d39 1252 153a
00000190: ac98 dfbb 66f1 633b 7c2f ebba ff56 a4ba
000001a0: 12f8 1602 d33f 1282 7f35 c83b ba26 04bc
000001b0: bb77 ebb9 f8f0 8ab9 f677 0eb9 b60d 6bb9
000001c0: e48a 82ba 297e 193b cc54 cbba 36ad 53ba
000001d0: 960c ab3c 75a2 9cbc 86ad 283b 4f2f 80bb
000001e0: e6cb 1182 9bbe 1d02 aa7f 6b38 60a6 68b8
000001f0: 6d1d 1782 d3be 1e02 d861 3039 6cc8 00bb
00000200: 2caa 53bb 74e3 8e3b d859 a8b9 4589 72bb
00000210: ca9c 50ba 7a43 1139 e536 1a02 df11 1402
00000220: 2a67 5f82 b20c 0603 eaaa 013b 232e 45bb
00000230: 1557 7d0e f2e7 8b0d 6fdf 1f82 eafd 1602
00000240: a0b8 0fb8 4a08 213a eac5 3539 109c f0ba
00000250: 2c7a 69bb 43a0 0e3c 6e84 4abb ae9a 62ba
00000260: 9258 a6b9 6a2a 70bb 906d a83a db61 5dbb
00000270: e0b9 0eb9 80b1 6ab5 ac57 1e8e 66eb ad8e
00000280: 2e73 79b9 f0e5 edbb ec72 88ba 984d 8bba
00000290: d5c5 a439 876b 793a 6a6c 6bb8 ecfd e7b8
000002a0: 49e3 feb9 887a a4ba 30e1 2bbb d300 b73b
000002b0: dec0 743b 7fe3 163b 06bf 91bb e445 ae3b
000002c0: 8886 623a 1322 823b ce25 03bb e388 9039
000002d0: 100f cc37 fb1f a738 c844 913c bd1f b1bc
000002e0: 563e 1039 3ea3 773b 3209 1fbb dbcb 543b
000002f0: c752 883c da6a 103c 33e7 15bb 67c5 8abb
00000300: 7c5b 1882 7ea6 1702 a2f3 d6ba d66b 863a
00000310: 010c 45bb 0779 ef3b 401c b0b6 21f5 493a
00000320: 1de4 e5ba cbb5 d739 03d3 b53a e8f9 933a
00000330: cecc 08bc 9640 d63b 2abe a8bb e23c 9e3a
00000340: 907b f6ba f4eb 0839 4760 f5ba 06a5 8cba
00000350: 51b1 c639 4e60 e4ba c489 89ba d8e4 e1b9
00000360: e909 3abc b2af d73b 1802 77bb 39fb 943b
00000370: df49 93ba f08e 02ba 864b 1902 ab5a 1402
00000380: 4c36 e3ba 7899 9bba 6180 96bb ec51 0dbb
00000390: 7c57 1482 8add 1d82 aee5 193b 3bbb eebb
000003a0: 375b 9fba 5882 5239 a664 0fba fa9f 293b
000003b0: 6479 1302 b0d4 1702 4f54 1cbb fe08 833b
000003c0: 748e 1982 ece4 1502 33a1 7bba fb89 323b
000003d0: bec8 cbba 4261 183b 09dc 06bb 52a8 743b
000003e0: 4850 8938 4c9f d1ba a642 04bb b19d 373b
000003f0: 3459 c48f 2536 af10 1c66 3fba f8ce bd3a

exp_avg_sq f4 [164, 2]
0.004877413 0.004656405 7.692314e-06 3.0635538e-06 4.453025e-05 3.90686e-05 0.0015658201 0.0017835154
0.000293557 0.000582466 0.011955139 0.0023728644 0.0012600919 0.0020907274 0.0005765119 0.00051200826
0.0025685646 0.0017148813 0.00010166793 8.365484e-05 0.00035187104 0.0020026995 0.00016726206 9.630338e-05
0.0006701881 0.00011053591 0.0008190755 0.0014521315 0.0014076474 0.002037512 0.00035393247 0.000802456
1.7127577e-05 1.870859e-05 7.2136536e-05 0.00043661727 1.8527007e-05 5.313391e-05 0.012493386 0.013229346
2.5118445e-05 0.00010906635 4.6362732e-07 6.156759e-07 0.00021686802 0.00020385314 0.00543064 0.007613078
2.4228244e-05 6.173886e-06 0.00050187216 0.0005019504 0.0017147 0.0036916323 4.151694e-05 4.5070337e-05
5.7238353e-06 3.0956e-06 0.0077201617 0.0032170012 2.3846414e-05 0.00016556874 2.5846955e-05 1.5633017e-05
2.1497908e-05 4.2016953e-05 0.0008416805 0.0039312555 0.014622498 0.052404873 0.000771738 0.0018655366
0.0024042379 0.003960701 0.000117996125 0.00011764898 0.00021727287 0.00014076087 0.00030230446 0.0007165642
0.00010149579 0.00025536245 8.775161e-06 2.6883525e-05 0.0008471372 0.0012947856 0.0046078917 0.0010168828
2.2820682e-06 4.008932e-06 0.005128959 0.0019909237 7.167025e-06 2.3620325e-05 0.040024776 0.07150368
0.0011956857 0.0018467624 0.00012441266 0.00029491456 0.0014344589 0.0016170687 0.00045111173 0.0004945774
1.4799262e-05 1.6003834e-05 0.006021137 0.005606257 1.9423e-05 8.008318e-05 2.914308e-05 3.8013564e-05
0.00015124271 9.4841555e-05 0.00039075955 0.0006988437 0.020591592 0.017002927 0.0016648972 0.0012980568
7.850495e-06 8.258423e-06 5.225356e-05 0.00015127321 1.0411986e-05 2.0948459e-05 8.5671236e-05 0.0002480969
0.0003084124 0.0017694563 3.65249e-05 0.00039124847 3.7822134e-05 3.519134e-05 1.1697749e-06 1.1387632e-06
1.2796898e-05 1.2603992e-05 0.0010742737 0.00090648525 2.4763413e-05 1.1108806e-05 1.2542904e-05 5.2499854e-06
0.000619527 0.0009181177 0.00037745494 0.00038703097 0.0016129463 0.0064888336 0.0014948492 0.0005179799
2.322166e-05 0.00014098092 0.00013901977 0.0005889049 5.486379e-06 3.4272246e-06 3.7040787e-05 3.238421e-05
2.728117e-05 0.00049570727 0.00016830985 0.000133623 0.00016810572 0.00014227277 1.8803741e-05 4.939611e-05
1.527971e-05 4.3507065e-05 0.00013474749 0.00040319763 0.0031198373 0.004897819 0.000488029 0.00042801883
0.00179913 0.0024077299 0.0005591544 0.00013346807 3.0010082e-05 1.979502e-05 0.014312847 0.013900031
0.00015539853 0.00045736905 0.00015469175 0.00015746677 0.0011600289 0.0014359222 0.0006298622 0.0015687719
8.300174e-07 1.3571918e-06 0.00024008445 0.00012537486 0.00030204174 0.00052057486 9.198459e-05 0.00031800393
4.715126e-05 4.0826664e-05 0.00030998368 0.0006680504 0.0011000999 0.0017414597 0.00020790355 0.000111556255
3.1891363e-05 3.2367127e-05 0.0012660049 0.00059895637 4.8622232e-06 7.236053e-05 0.00023343854 3.211157e-05
0.0015259864 0.002909251 0.00037047153 0.00044477923 0.00070289534 0.00018147059 9.972565e-09 1.5111135e-07
0.0006801965 0.00090739736 0.00027208467 0.00030781393 3.549093e-06 2.7615832e-05 0.0025551906 0.0018815602
7.831289e-05 7.032104e-05 0.0001453305 0.00070063083 7.479652e-06 9.863238e-06 8.585691e-05 0.00029026915
7.287419e-06 4.6577115e-06 0.001773189 0.00059885613 0.000334752 0.00026204495 0.0009118573 0.0010755752
3.0335414e-05 4.5950976e-05 0.000166812 0.00016356223 7.551872e-07 3.945201e-06 0.00053163385 0.00017435686
00000000: b5d2 9f3b c294 983b 3d0e 0137 7497 4d36
00000010: fec5 3a38 97dd 2338 343c cd3a d9c4 e93a
00000020: 8ee8 9939 a2b0 183a 7ddf 433c 0f82 1b3b
00000030: ab29 a53a 9604 093b 0f21 173a 4b38 063a
00000040: 5d55 283b dec5 e03a 8e36 d538 da6f af38
00000050: 557b b839 b93f 033b 1163 2f39 7cf6 c938
00000060: 90af 2f3a 84cf e738 3ab7 563a 7355 be3a
00000070: cf80 b83a c787 053b 0390 b939 e95b 523a
00000080: 31ad 8f37 64f0 9c37 0248 9738 c7e9 e439
00000090: 726a 9b37 1adc 5e38 0fb1 4c3c e6bf 583c
000000a0: 73b5 d237 8dba e438 74e8 f834 ed44 2535
000000b0: 1167 6339 69c1 5539 83f3 b13b 2177 f93b
000000c0: c23d cb37 4729 cf36 1290 033a 5295 033a
000000d0: c9bf e03a 50ef 713b 7a22 2e38 e809 3d38
000000e0: 5f0f c036 01be 4f36 69f9 fc3b 53d4 523b
000000f0: c909 c837 859c 2d39 ead1 d837 a623 8337
00000100: 6856 b437 5c3b 3038 39a4 5c3a c3d1 803b
00000110: 3493 6f3c 7ea6 563d 764e 4a3a 0585 f43a
00000120: 6b90 1d3b c5c8 813b b074 f738 51ba f638
00000130: bed3 6339 3599 1339 9e7e 9e39 cfd7 3b3a
00000140: 23da d438 2be2 8539 0839 1337 ee83 e137
00000150: 6a12 5e3a ccb5 a93a ccfd 963b ed48 853a
00000160: a225 1936 7784 8636 d410 a83b 287a 023b
00000170: 477c f036 4324 c637 05f1 233d 8570 923d
00000180: 8eb8 9c3a 100f f23a c574 0239 c39e 9a39
00000190: 7404 bc3a d2f3 d33a 3183 ec39 87a6 013a
000001a0: 594a 7837 f93f 8637 f54c c53b b1b4 b73b
000001b0: 93ee a237 54f2 a738 4a78 f437 c170 1f38
000001c0: e896 1e39 ace5 c638 dcde cc39 9b32 373a
000001d0: b3af a83c b949 8b3c ae38 da3a 8f23 aa3a
000001e0: 9fb5 0337 a88d 0a37 d52a 5b38 189f 1e39
000001f0: 24af 2e37 79ba af37 65aa b338 0113 8239
00000200: 69b2 a139 1aed e73a 5032 1938 7b20 cd39
00000210: 35a3 1e38 6a9a 1338 2901 9d35 9bd7 9835
00000220: 42b2 5637 bc75 5337 a5ce 8c3a 32a1 6d3a
00000230: 06bb cf37 f55f 3a37 5d6f 5237 0829 b036
00000240: c167 223a d6ad 703a 25e5 c539 6bea ca39
00000250: 7f69 d33a 48a0 d43b d1ee c33a 0bc9 073a
00000260: 23cc c237 47d4 1339 d6c5 1139 bd60 1a3a
00000270: a317 b836 45ff 6536 3e5c 1b38 48d4 0738
00000280: ded9 e437 5af2 013a 557c 3039 271d 0c39
00000290: 8945 3039 0e2f 1539 babc 9d37 ab2e 4f38
000002a0: ed2c 8037 5b7b 3638 014b 0d39 4564 d339
000002b0: 2f76 4c3b e27d a03b 25de ff39 b767 e039
000002c0: c9d0 eb3a 01cb 1d3b 3794 123a 90f3 0b39
000002d0: 29be fb37 7b0d a637 6e80 6a3c f5bc 633c
000002e0: 7af2 2239 09cb ef39 c034 2239 aa1d 2539
000002f0: 1c0c 983a 8e35 bc3a 561d 253a 409f cd3a
00000300: 5dce 5e35 c128 b635 2ebf 7b39 0f77 0339
00000310: 5b5b 9e39 3077 083a dae7 c038 c4b9 a639
00000320: 48c4 4538 4c3d 2b38 4e85 a239 1a20 2f3a
00000330: 3a31 903a b141 e43a af00 5a39 4ff3 e938
00000340: 17c3 0538 f0c1 0738 13f0 a53a 4803 1d3a
00000350: 2e26 a336 44c0 9738 2ec7 7439 89af 0638
00000360: 9b03 c83a 22a9 3e3b d93b c239 4231 e939
00000370: 8242 383a 2449 3e39 ce53 2b32 2c41 2234
00000380: 374f 323a 68de 6d3a 96a6 8e39 1662 a139
00000390: f42c 6e36 8ca8 e737 fc74 273b af9e f63a
000003a0: ea3b a438 5279 9338 dc63 1839 8aaa 373a
000003b0: b9f9 fa36 497a 2537 140e b438 442f 9839
000003c0: 7486 f436 7049 9c36 5a6a e83a 8efc 1c3a
000003d0: a781 af39 1463 8939 b509 6f3a 51fa 8c3a
000003e0: ce78 fe37 7cbb 4038 41ea 2e39 e781 2b39
000003f0: 12b8 4a35 0561 8436 585d 0b3a 90d3 3639

exp_avg f4 [164]
0.00052650017 1.1545804e-37 -3.7446935e-05 -5.2726566e-05 0.00019295697 0.00025042729 -7.3177216e-05 0.0010102534
0.0002366821 3.3850232e-05 0.00047038717 -0.00047808708 0.00011264821 -1.8714054e-06 0.00018680363 -0.0011822064
-0.0001232471 0.00024693212 -2.1602853e-05 0.0025276064 0.00017908184 1.1179483e-37 7.745393e-05 0.00061585905
-5.7451343e-05 -0.00056033756 0.00036581513 1.8313873e-35 1.0712079e-37 0.0023976981 -0.00011888606 1.0985247e-21
-1.9132664e-05 0.001048864 -0.0019775408 -0.0007683277 -0.00023120732 6.904388e-05 -0.0009532855 8.3710256e-05
0.00014608566 0.00010538175 7.621848e-05 -0.0015568817 9.339001e-23 7.400481e-05 6.6171124e-05 0.00087251235
-0.0013866453 3.9064922e-05 -0.0013430703 0.0003561349 1.104959e-37 -4.5873167e-05 8.009831e-05 -7.6193355e-06
0.00017634923 -9.1423835e-06 0.0023916727 -0.00024546255 1.0873866e-37 5.0674287e-05 1.1051784e-37 0.00034222807
0.0006742777 0.0007654631 -0.000102256185 1.1746295e-37 1.1003521e-37 -0.00028901367 2.6729322e-31 1.0899709e-37
0.00012383466 -0.00017162196 0.0013972509 -0.00034484523 0.0006827278 0.0008253072 1.584972e-05 8.086675e-31
0.0014729868 -8.163372e-06 -8.142932e-05 3.0863484e-05 0.0002174917 -0.00084844994 -0.00034946942 0.0008363493
-0.00037259687 -0.00012695318 1.2727101e-05 -0.00075013837 -0.0007833998 0.0005235994 0.0003788715 5.1647134e-05
1.1159191e-37 -0.00029541441 -0.00060819456 -0.00019846432 -0.00022210284 -4.1414773e-05 0.0012871389 -0.0010810264
-0.0003047504 -8.9719e-05 0.00018664896 -5.0010436e-05 0.001509439 0.00070242124 -9.0018046e-05 1.1627493e-37
0.00045909116 -0.0006716671 1.1574545e-37 -8.9387315e-05 -0.00018489572 0.00025881114 1.1361047e-37 -0.00037500318
1.1230995e-37 0.00018304432 -0.00024103955 -0.0006416457 3.98491e-05 0.00043689963 1.1867791e-29 6.7837595e-05
8.6321625e-16 -0.00088244694 0.00022839308 1.1231703e-37 -0.0005936568 -8.696404e-05 0.0009108903 0.00012010406
0.00059859926 -0.00035708907 -0.00057586236 -0.00018061338 -3.1916097e-05 -3.1342897e-05 -0.00059161766 -0.0011295757
-2.507859e-06 -6.152374e-05 0.0010214922 -0.00022055076 -0.002177394 0.00028196903 -1.2783983e-05 0.00031460932
-0.00016171052 0.00044957857 0.0005346122 -4.3149084e-05 -0.00011790158 0.00060258055 1.0873491e-37 9.131605e-05
-8.300595e-05 -0.0003004014 -1.5424186e-05 0.00021390399
00000000: d404 0a3a 4127 1d02 5710 1db8 b826 5db8
00000010: 7e54 4a39 c84b 8339 b876 99b8 7b6a 843a
00000020: de2d 7839 69fa 0d38 4c9e f639 c3a7 fab9
00000030: 8c3d ec38 002d fbb5 b8e0 4339 44f4 9aba
00000040: e43b 01b9 ab76 8139 c637 b5b7 33a6 253b
00000050: eac7 3b39 d02a 1802 c36e a238 9a71 213a
00000060: e9f7 70b8 9ee3 12ba e0ca bf39 1bbf c205
00000070: 26ce 1102 b322 1d3b 7852 f9b8 1e01 a61c
00000080: 157f a0b7 097a 893a a199 01bb 9969 49ba
00000090: 3e70 72b9 a7cb 9038 e8e5 79ba 9a8d af38
000000a0: 922e 1939 6500 dd38 7cd7 9f38 4810 ccba
000000b0: 9ecd e11a 0833 9b38 5ac5 8a38 50b9 643a
000000c0: 18c0 b5ba a4d9 2338 f609 b0ba 9eb7 ba39
000000d0: 3466 1602 f067 40b8 74fa a738 98a9 ffb6
000000e0: 63ea 3839 3d62 19b7 9cbd 1c3b 6db1 80b9
000000f0: e501 1402 1a8b 5438 d96d 1602 136d b339
00000100: 03c2 303a 5ca9 483a 5f72 d6b8 dde1 1f02
00000110: adc5 1502 c286 97b9 b47b ad0c f15b 1402
00000120: 9dd9 0139 6bf5 33b9 f623 b73a 58cc b4b9
00000130: 16f9 323a 6e59 583a 04f5 8437 bc36 830d
00000140: 3c11 c13a 6af5 08b7 09c5 aab8 6a73 0138
00000150: 7c0e 6439 836a 5eba fe38 b7b9 743e 5b3a
00000160: 1b59 c3b9 bc1e 05b9 7c86 5537 efa4 44ba
00000170: 125d 4dba 2942 093a 46a3 c639 b09f 5838
00000180: 1be4 1702 dae1 9ab9 3f6f 1fba dc1a 50b9
00000190: 47e4 68b9 c6b4 2db8 37b5 a83a 3ab1 8dba
000001a0: e8c6 9fb9 8527 bcb8 33b7 4339 4cc2 51b8
000001b0: 5ed8 c53a b122 383a 12c8 bcb8 e643 1e02
000001c0: 2cb2 f039 d112 30ba 678b 1d02 7375 bbb8
000001d0: 91e0 41b9 0bb1 8739 79a3 1a02 139c c4b9
000001e0: 4ede 1802 96ef 3f39 90bf 7cb9 1d34 28ba
000001f0: a523 2738 ad0f e539 18b5 700f 0844 8e38
00000200: 1ece 7826 0354 67ba cd7c 6f39 c6e0 1802
00000210: a29f 1bba 7760 b6b8 d0c8 6e3a 60e0 fb38
00000220: 51eb 1c3a af37 bbb9 78f5 16ba 0963 3db9
00000230: a6dd 05b8 2e76 03b8 ca16 1bba 450e 94ba
00000240: b14c 28b6 4e06 81b8 97e3 853a a543 67b9
00000250: 9cb2 0ebb 3ed5 9339 ca7a 56b7 26f2 a439
00000260: d690 29b9 6ab5 eb39 3825 0c3a fafa 34b8
00000270: ee41 f7b8 7ff6 1d3a 9600 1402 ee80 bf38
00000280: 7b13 aeb8 327f 9db9 3063 81b7 6a4b 6039

exp_avg_sq f4 [164]
0.00015117385 1.1708215e-07 9.358033e-07 2.185367e-05 1.7603474e-05 9.993993e-05 2.8191756e-05 1.2269125e-05
3.0145526e-05 1.2891772e-06 3.0673258e-05 4.4376998e-06 8.952533e-06 1.3699933e-05 3.026038e-05 2.4900904e-05
8.158836e-07 1.4605171e-05 1.7738517e-06 0.00044005053 1.2385475e-06 1.8629388e-08 3.2250414e-06 0.000108543296
2.873226e-07 2.76525e-05 7.313851e-05 8.9920866e-07 1.13555025e-07 0.00014026513 1.688476e-06 5.790764e-07
7.5674023e-07 7.029102e-05 0.0005756726 4.889655e-05 6.493055e-05 3.084148e-06 1.0895463e-05 2.2814875e-05
4.952735e-06 4.9363723e-07 1.3430439e-05 8.980662e-05 7.941855e-08 7.849646e-05 4.4023182e-07 0.0011553338
8.08266e-05 3.7413306e-06 3.5070192e-05 7.7591e-06 2.4421465e-07 9.24263e-05 2.5470085e-06 8.5258546e-07
2.7961487e-06 6.6317994e-06 0.0004290644 2.087742e-05 1.9943404e-07 1.9040236e-06 4.5392022e-07 8.691432e-06
3.0529347e-05 1.1465961e-05 8.8122715e-07 3.0046117e-08 2.8002628e-07 1.5532243e-05 3.60351e-07 1.6734933e-07
1.476789e-05 6.4319715e-06 0.00010030816 2.1518825e-05 4.5661895e-06 2.0152074e-05 1.103289e-07 1.8502811e-06
1.787231e-05 3.5589012e-06 4.2155825e-06 5.7020566e-07 6.17996e-07 1.0243988e-05 8.871284e-05 1.0267842e-05
4.941888e-05 4.7861763e-06 6.1418064e-07 0.0002346586 1.0276565e-05 3.4244651e-06 2.476594e-05 2.4199604e-05
4.040922e-08 7.83443e-06 2.7493981e-05 6.5637964e-06 1.645979e-06 8.829194e-06 3.1325268e-05 9.859513e-06
1.3245601e-06 1.4954295e-05 6.401951e-07 1.8980185e-06 5.210779e-05 8.996455e-06 7.853665e-06 2.1645545e-09
1.4268294e-05 9.628929e-06 6.7648426e-07 3.3532884e-05 2.5184584e-06 7.900032e-06 1.5979396e-07 5.9260674e-06
8.33341e-08 2.4012174e-05 1.1436697e-05 2.4701714e-05 8.6839384e-07 3.87883e-06 9.036308e-08 6.970875e-06
2.5052435e-07 9.134298e-06 3.3667453e-05 8.056582e-08 2.3754676e-05 1.704529e-05 7.272624e-05 4.2993685e-07
6.2468644e-06 1.3060105e-06 5.7170278e-06 2.1172702e-06 3.8113942e-07 3.590683e-07 0.0001373849 0.000111225025
5.8095077e-07 6.0174636e-07 4.6505338e-05 5.4464476e-06 3.7378093e-05 3.5692625e-05 2.3108632e-07 1.7740223e-05
1.128599e-05 6.8921922e-06 4.301015e-06 4.5711997e-07 1.0768557e-06 7.101841e-06 2.9258993e-08 1.3415136e-05
3.1293341e-06 3.9796014e-05 1.2194016e-06 3.8640765e-06
00000000: 6c84 1e39 986e fb33 ea33 7b35 6652 b737
00000010: 2cab 9337 d796 d138 567d ec37 7ed7 4d37
00000020: 06e1 fc37 cb07 ad35 29a7 0038 8de7 9436
00000030: d632 1637 c4d8 6537 acd7 fd37 49e2 d037
00000040: 1803 5b35 bb08 7537 1515 ee35 95b6 e639
00000050: 2b3c a635 7506 a032 ca6d 5836 bda1 e338
00000060: 5141 9a34 4bf7 e737 f061 9938 2661 7135
00000070: 89db f333 2214 1339 989f e235 d471 1b35
00000080: cb22 4b35 3469 9338 bce8 163a 4516 4d38
00000090: 532b 8838 42f9 4e36 a8cb 3637 9262 bf37
000000a0: ab2f a636 7e82 0435 4c53 6137 9056 bc38
000000b0: cf8c aa33 779e a438 0059 ec34 926e 973a
000000c0: 7381 a938 9213 7b36 5518 1338 152d 0237
000000d0: 9b1c 8334 fed4 c138 46ed 2a36 3add 6435
000000e0: 78a5 3b36 b986 de36 0df4 e039 eb21 af37
000000f0: 0324 5634 c18d ff35 52b2 f334 6bd1 1137
00000100: a30c 0038 ed5d 4037 788d 6c35 0e0c 0133
00000110: 8556 9634 3d4b 8237 4476 c134 a2b0 3334
00000120: 9bc3 7737 37d2 d736 895c d238 5383 b437
00000130: 4537 9936 400c a937 f4ed ec33 2d57 f835
00000140: 7eec 9537 75d5 6e36 9473 8d36 3c10 1935
00000150: 5de4 2535 98dd 2b37 580b ba38 0c44 2c37
00000160: 1e47 4f38 f198 a036 2cde 2435 b00e 7639
00000170: 8369 2c37 ddcf 6536 74c0 cf37 4100 cb37
00000180: 688e 2d33 9f70 0337 e0a2 e637 953e dc36
00000190: 68eb dc35 1921 1437 4063 0338 496a 2537
000001a0: 8ac7 b135 35e4 7a37 dfd9 2b35 6bbf fe35
000001b0: 508e 5a38 7bef 1637 3cc3 0337 3fbf 1431
000001c0: db61 6f37 ef8b 2137 a597 3535 a9a5 0c38
000001d0: c902 2936 618a 0437 d493 2b34 88d8 c636
000001e0: 68f5 b233 c06d c937 3de0 3f37 8736 cf37
000001f0: 921b 6935 e526 8236 a10d c233 5ce7 e936
00000200: ce7f 8634 833f 1937 2736 0d38 8703 ad33
00000210: c744 c737 7bfc 8e37 9a84 9838 12d2 e634
00000220: 289c d136 2e4a af35 e5d4 bf36 6d16 0e36
00000230: 679f cc34 f9c5 c034 fa0e 1039 7b41 e938
00000240: a2f2 1b35 b287 2135 ba0e 4338 a1c0 b636
00000250: 6cc6 1c38 aab4 1538 8620 7834 d7d0 9437
00000260: f558 3d37 7b43 e736 7051 9036 176a f534
00000270: 7b88 9035 5a4c ee36 3555 fb32 9211 6137
00000280: 8d01 5236 a5ea 2638 52aa a335 2aa8 8136
