docs/smld/lightning_logs/version_123/checkpoints/epoch=49-step=4900.ckpt (torch, 407771 bytes, 30 tensors)

model.embedding.0.weight f4 [128, 1]
000000 2c 86 11 bf 84 8b 27 bd 9e 69 4e bf c2 b9 2e 3f
       -0.56845355 -0.040904537 -0.8062991 0.68252194
000010 91 56 37 3f c0 2d c4 3e 55 ab 00 bf 24 14 26 3c
       0.71616465 0.38316154 -0.5026143 0.010136638
000020 0c b3 1c bf a4 56 fc be b6 a9 75 3f 06 f3 68 bf
       -0.61210704 -0.49284852 0.95962083 -0.90995824
000030 ec 42 15 bf c0 e8 10 3f ac 20 a5 be 5d e3 d1 3e
       -0.5830524 0.5660515 -0.3225149 0.40993777
000040 15 b5 40 3f 98 4b 12 bf 61 de 2b 3f aa 2a 48 bf
       0.7527631 -0.57146597 0.671362 -0.781901
000050 40 9e fc be 6a 78 81 3e 98 3f 19 bf b7 07 c4 3e
       -0.49339485 0.2528718 -0.5986266 0.38287136
000060 70 c9 3a 3e 5b 31 39 3f 82 26 62 3f 82 f0 0e 3f
       0.18240905 0.72340935 0.8834001 0.55835736
000070 f7 b9 01 bd 8c 2f e8 be e3 68 24 3f f0 13 e6 3e
       -0.03167149 -0.45348775 0.64222544 0.44937086
000080 96 cf 3f bc ea 5f 71 bf f6 c0 e6 3e 62 ba 52 bf
       -0.011707207 -0.9428698 0.45069093 -0.8231565
000090 cd 3c ad 3d c0 e2 a6 bd 48 e3 5a 3f a8 d0 24 be
       0.084588625 -0.08148718 0.85503054 -0.16095221
0000a0 48 39 69 bf 9c 27 f3 be e8 27 c9 3e 72 6c 4e 3e
       -0.9110303 -0.47491157 0.3928826 0.20158556
0000b0 4c ba 0f bf 5c 3b b3 3e de 1a 5d bf d8 48 ce be
       -0.5614364 0.35006225 -0.8636912 -0.4028995
0000c0 cf f2 13 3f c0 ee 0f 3d 52 10 34 bf ef 32 c8 3e
       0.5779237 0.0351398 -0.703374 0.3910136
0000d0 bc 0b fd be 95 dd 68 3f 6a 35 08 3f 5d 90 4f bf
       -0.49423015 0.9096311 0.53206503 -0.81079656
0000e0 7e de 7c bf aa 06 2f bf 2c 9f fb 3e 11 68 09 3f
       -0.98776996 -0.68369544 0.49144876 0.5367442
0000f0 e8 60 77 be 2d f6 a2 3d 00 3e 61 3d 00 40 4c 3f
       -0.2415806 0.079571106 0.05499077 0.79785156
000100 11 e8 26 3f 64 64 d0 be 5c 16 42 bf 0d 34 0f 3f
       0.65197855 -0.40701592 -0.7581537 0.559388
000110 36 94 30 3f d5 f2 1a 3f 81 5c 42 3f c4 44 69 bf
       0.6897615 0.6052678 0.759224 -0.91120553
000120 82 49 11 bf c7 f3 a9 be c9 f3 42 3d b6 9b 9d 3e
       -0.5675279 -0.331938 0.047595773 0.3078286
000130 13 a9 d9 3e 31 9a 1f 3f d3 6c 03 bf 1d 51 51 3d
       0.42511806 0.6234465 -0.5133793 0.051102746
000140 56 9f 44 3f c6 24 10 3f 2a 80 4a 3e 6d 17 d2 3d
       0.7680563 0.5630611 0.19775453 0.10258374
000150 fe 75 24 3f 36 bd 26 bf 24 73 ff be b0 0c ae bd
       0.6424254 -0.6513246 -0.49892533 -0.08498514
000160 2d cf 4a 3f a0 87 58 be b6 ca 3b bf c4 28 61 be
       0.79222375 -0.21145487 -0.7335619 -0.21988207
000170 80 01 e7 bc 9b ac 52 3f 8f 0a 53 3f 5b e6 50 3f
       -0.028198957 0.82294625 0.82437986 0.81601495
000180 97 54 23 3f 1e 74 6e bf 54 46 2e 3f 2a 3c 86 3e
       0.6380095 -0.9314593 0.6807606 0.26217777
000190 2b c3 f5 3d 6b f1 a1 3e 08 ba 7d 3f fc 7a 43 bf
       0.12000116 0.316295 0.99111986 -0.76359534
0001a0 d2 8d 3f 3f 1a af ab bd 77 a5 fe bd ca 41 3b bf
       0.74825776 -0.08383007 -0.12433904 -0.7314726
0001b0 e2 59 79 3f 62 33 65 3f f8 07 e8 be 43 2a 45 3f
       0.97402775 0.8953153 -0.4531858 0.7701761
0001c0 d0 6d 4e bf c3 89 a9 3e 30 30 94 be a1 35 50 bf
       -0.8063631 0.33112916 -0.28943014 -0.8133183
0001d0 c2 8d 14 3e 2c b9 1d 3f da 57 b4 3d 11 f3 12 bf
       0.14507201 0.61610675 0.08805819 -0.5740214
0001e0 3a b4 c4 3e 5a 61 e5 3e 85 27 71 3f 5b b6 46 3f
       0.38418752 0.44800836 0.94200927 0.77622
0001f0 9d 4c d9 3e 60 15 50 bf 8c 20 02 bf 4a 5f 03 bf
       0.42441264 -0.81282616 -0.5083091 -0.51317275

model.embedding.0.bias f4 [128]
000000 70 c6 74 bf 5b 87 46 3f b3 f7 c7 3e 70 c9 eb 3e
       -0.9561529 0.77550286 0.39056167 0.46052122
000010 c5 3d 08 be 95 fb a4 be 1a 35 2d 3f 32 ee 69 3f
       -0.13304813 -0.32223192 0.6765915 0.9137908
000020 78 05 ed be 12 a6 1c bf 6a d2 ae be 70 8d 6b bf
       -0.46293235 -0.61190903 -0.34144908 -0.9201269
000030 a8 c4 4c be 5d a8 77 bf 30 68 6d be 24 4c 80 3e
       -0.19996893 -0.96741277 -0.23184276 0.2505809
000040 47 ea 37 bf 40 b2 a1 bc 4b 2c 81 3e 10 f1 74 bf
       -0.71841854 -0.019738317 0.25229105 -0.9568033
000050 f2 b4 28 3e 23 ae c3 3e 58 88 65 3f 56 13 35 bf
       0.16475275 0.38218793 0.8966117 -0.7073263
000060 0a 6c 45 3f 39 ee ed be ac 75 c2 3e cf c3 02 bf
       0.7711798 -0.46470812 0.37980402 -0.5108003
000070 86 8b a6 3e a6 4a 32 bf 9d 33 40 bf 8d 16 eb 3d
       0.32528323 -0.69645154 -0.75078756 0.114789106
000080 b5 f8 c4 3e 1f 42 30 3f 83 98 ce be f8 d8 05 bf
       0.38470998 0.6885089 -0.40350732 -0.52284193
000090 9d 8d 35 be 74 0c 56 3c 62 9e 90 be 33 08 14 3e
       -0.17729802 0.0130644925 -0.28245836 0.14456253
0000a0 cc ea 15 bf 29 8f 09 3f 86 df 51 3f 77 f2 84 bd
       -0.58561397 0.5373407 0.81981695 -0.06491559
0000b0 4e 85 2e bf 55 21 d1 3e 6d ce 30 3e 9a fc 1d bf
       -0.68172157 0.40845743 0.17266245 -0.61713564
0000c0 c2 56 9b 3c 36 61 57 bf d8 48 d8 3e 82 ba 69 bf
       0.018962268 -0.8413271 0.42243075 -0.91300213
0000d0 ca c0 28 bf f3 4a 41 bf b2 ac b4 be 4b e4 5a 3f
       -0.6591917 -0.7550499 -0.35288006 0.855046
0000e0 ac 4f 8a be f4 dc 49 bf 8b 4d 2e bf 9c 34 14 3f
       -0.2701391 -0.7885277 -0.6808707 0.57892776
0000f0 17 28 50 3e 68 f4 0c be 02 00 26 bf 56 94 81 bc
       0.20327793 -0.13765109 -0.6484376 -0.015817802
000100 ad 28 50 bf 55 08 b7 3d 41 bf 68 3f 5d b3 75 be
       -0.81312066 0.08937136 0.9091683 -0.23994203
000110 14 ba c2 be 11 5d 28 be 5d d3 28 3f 80 28 62 bd
       -0.3803259 -0.16441752 0.65947515 -0.055214405
000120 7c 2e 22 bf 68 07 bb 3e 41 b9 ed bd 97 14 b0 be
       -0.6335218 0.36529088 -0.116076 -0.3439071
000130 1d 92 e8 be 73 42 32 bf 67 df 48 3f e5 5d f4 3e
       -0.45423976 -0.69632643 0.78465885 0.47727886
000140 be 13 6f bf ce 24 7b be ee 9a ac bd e6 72 ad be
       -0.933895 -0.24525759 -0.08427988 -0.33876723
000150 d6 8a f4 3e a6 dd 6f bf eb 69 1f 3e 34 5c 2d bf
       0.47762173 -0.93697584 0.15567748 -0.67718816
000160 3e 3e 37 bf 00 29 1e 3e a8 41 e3 be 27 9f 07 3f
       -0.7157935 0.15445328 -0.4438603 0.5297722
000170 0a 72 0f bf 8c 73 36 bf b5 f1 2d 3e 32 b4 75 3e
       -0.56033385 -0.7127006 0.16986735 0.2399452
000180 1c e2 c9 bd 44 0f a7 be 38 54 56 3d c0 1b 82 3c
       -0.0985758 -0.32628834 0.05232641 0.015882373
000190 91 17 f1 be 25 34 7b be d7 6f 56 3f 19 d7 5c 3f
       -0.47088292 -0.2453161 0.83764404 0.8626571
0001a0 5a 35 db bd 6d e9 78 3f 1d c7 61 3f 80 03 7d bd
       -0.107035354 0.9723118 0.8819445 -0.061770916
0001b0 d9 06 fe be 1e b8 e9 3c ae 0f 0b 3f 31 7c 8d 3c
       -0.496146 0.028530177 0.543208 0.017271133
0001c0 ab da 2c 3f 43 61 8d 3d 4c 11 0a bf 88 4e 58 3f
       0.6752116 0.06903317 -0.5393264 0.8449483
0001d0 62 75 66 bf 71 7d c3 3e 30 ac 50 3e cf e9 52 3f
       -0.9002286 0.38181642 0.20378184 0.82388014
0001e0 98 4f fd be ef f9 c0 be 40 9f 4a 3f 4c eb e0 be
       -0.49474788 -0.37690684 0.79149246 -0.43929517
0001f0 85 86 4b bf f8 4e e6 be 1e 50 5e bf 97 4e d9 3e
       -0.79502136 -0.44982123 -0.86841 0.42442772

model.embedding.2.weight f4 [16, 128]
000000 76 51 d9 bc 01 e4 6a bd 91 16 a6 3d d0 6b 0b 3b
       -0.026528101 -0.057346348 0.08109773 0.0021273978
000010 a3 71 c0 bc 43 a4 a9 3d dd 78 aa 3c 0e 42 3f bd
       -0.023491686 0.082832836 0.020809585 -0.046693854
000020 df 6b ae bc 8f 17 ac 3d 0d 89 4f bc 1a 0e 81 3d
       -0.021291671 0.08402931 -0.012666953 0.06301518
000030 81 f3 8a bd 6a 8e fc bc 45 04 ae bd 83 80 73 bd
       -0.06784726 -0.030829627 -0.08496908 -0.05944873
000040 8a 06 65 3d 26 3a 8e 3d eb 70 b4 bd d5 d0 19 bb
       0.05591444 0.06944685 -0.088106 -0.002347042
000050 c0 ae bd 3c 34 bf 84 3c 95 7c 89 bd 55 92 8c 3d
       0.023154616 0.016204454 -0.06713215 0.06863848
000060 56 5a a8 3c 29 da a9 bd 33 c7 36 bc c8 7b 68 bd
       0.020550888 -0.08293564 -0.011155891 -0.056758672
000070 71 a3 a9 bd 5b 70 50 bd b8 4e 61 3d d0 e2 1a bd
       -0.08283127 -0.0508884 0.055006713 -0.03781396
000080 0b d7 8e bd b6 65 0b 3d 5b 34 3b bc ee 89 b1 bc
       -0.0697461 0.034032546 -0.011426057 -0.021672215
000090 4d 87 5f 3d 2a 2b 43 bd 15 10 23 bd d2 d4 fc 3c
       0.054572392 -0.047648586 -0.03981026 0.0308632
0000a0 40 2f 8e bd dd f3 68 3c 66 c6 71 bd 41 6e b7 bd
       -0.06942606 0.014218298 -0.059027098 -0.08956576
0000b0 95 b8 12 3c bc 43 a3 bc 8f 16 b4 bd 6a 4e 50 bc
       0.008955141 -0.01992976 -0.08793365 -0.012714008
0000c0 2f 7c cc 3c 62 5f b3 bc 54 5e 97 3d 2d bd 26 bc
       0.02496156 -0.021896068 0.073910385 -0.010176939
0000d0 f9 d7 83 bd 3d 39 79 bd 14 59 a2 bd 24 a7 34 3d
       -0.06437678 -0.060845602 -0.079271466 0.04410471
0000e0 fd bd f0 bc ed 68 ab bb e4 09 bc bc 03 a5 9e 3d
       -0.029387468 -0.005231014 -0.022953935 0.07746317
0000f0 f6 d3 a8 bd f3 42 a5 bd a5 28 12 bd 81 ce 37 3d
       -0.08243553 -0.0806941 -0.035683293 0.04487467
000100 c2 4a cd bc ae 48 62 3d 28 fd ca 3c fc 4e a1 bd
       -0.025060061 0.055245094 0.024778917 -0.07876393
000110 e2 e8 53 bd ca b5 2b bd ea a8 ba bd b1 c8 0e bc
       -0.051735766 -0.041921414 -0.09114249 -0.008714841
000120 ce 08 b3 3d 9b 24 11 3d 83 26 a7 3d 51 80 08 bd
       0.08741914 0.0354353 0.081616424 -0.033325497
000130 13 cd 20 bd 23 cb 01 bd bc 5d d6 3c be e0 a3 bc
       -0.039258074 -0.031687867 0.026167743 -0.020004626
000140 2a 67 47 3b 05 44 62 3d 2e 1e 49 3d ca ff f7 bb
       0.003042648 0.05524065 0.049101047 -0.007568334
000150 bb 5e 0f 3d 4e 64 90 bd 9c 82 94 3d 5a fe 99 bd
       0.03500245 -0.070503816 0.07251474 -0.07519217
000160 5e 92 fd bc 38 3d 80 bd 94 8f 32 bc e8 4b a8 bd
       -0.030953582 -0.062616765 -0.0108984895 -0.08217603
000170 fe 5b 56 bd be ed 46 3c d1 8c 66 bd 1d 65 9f bd
       -0.052333824 0.012141643 -0.056286637 -0.07782958
000180 66 72 86 bd 5d 3c 8f bd 35 c7 d3 3a 24 65 03 bc
       -0.065647885 -0.06993935 0.0016157391 -0.008019719
000190 91 db 1b 3d 35 e4 52 3d c6 e4 a1 3c 74 e6 d6 bc
       0.03805119 0.051487166 0.019762408 -0.026232935
0001a0 da 73 c1 3c ff 7c 8a 3d f0 20 7b bd 47 b3 a3 3d
       0.023614813 0.06762122 -0.06131071 0.07993179
0001b0 72 e7 a5 bc ad 32 61 bd da c5 87 3d 9f 0f 16 3d
       -0.020251963 -0.05497997 0.06629534 0.03663599
0001c0 71 b2 bf bb e9 4d 60 3c f0 cd 5c bb 26 c9 11 3d
       -0.0058501293 0.01369045 -0.0033692084 0.03559222
0001d0 74 b0 97 bd cb 5c 99 3b c9 25 9c 3c 37 7e 9b 3d
       -0.07406703 0.0046802512 0.019060986 0.07592433
0001e0 3f d3 44 bb c8 c8 3b 3d 1a ae 92 bd db 56 48 3d
       -0.003003314 0.045845777 -0.071621135 0.048910957
0001f0 c0 c9 f4 3b d9 c4 2b ba 72 05 72 bd aa a1 42 bd
       0.0074703395 -0.0006552465 -0.059087224 -0.047517456
000200 70 b0 d4 bc 4a aa 87 3d b0 c1 11 bc 54 8a 8c 3d
       -0.025963038 0.06624277 -0.008896276 0.068623215
000210 ee 7c ab bd 25 3d 01 3d c7 70 8d 3d d8 92 8d 3d
       -0.08373438 0.031552453 0.06906276 0.06912774
000220 b5 89 d7 3c 87 26 b7 bc 8d c6 c2 3c 8a 64 64 bc
       0.026310781 -0.022357238 0.023776317 -0.013939986
000230 07 0e 42 3d c5 a7 9a 3d 05 5b 4e 3d 2e 3b c4 bd
       0.04737666 0.07551531 0.05037977 -0.095816
000240 0b 0f 52 3c b1 43 98 3d 9d 14 7a bd bb 7a 9d 3d
       0.012820969 0.07434786 -0.061054815 0.076894246
000250 f2 1e 3c bd d3 06 ef 3c d7 0f 0f 3d 5f 27 59 bd
       -0.04592795 0.029178059 0.034927215 -0.053016063
000260 06 19 9e bb a9 35 6a 3d 5e e1 91 ba 05 71 61 bd
       -0.0048247604 0.05718008 -0.0011129787 -0.055039424
000270 8f 99 03 3d a2 47 ed bc 62 3f fb 3b c4 25 8c 3d
       0.032128867 -0.028964821 0.007667468 0.06843141
000280 22 c0 2a bd 79 d9 e4 3c 5b 7f 5c 3d 50 00 08 3d
       -0.04168714 0.02793573 0.053832393 0.033203423
000290 1b aa 88 3d d8 93 79 bc 79 bc ae bd 50 7d 06 bc
       0.0667307 -0.015233003 -0.08532042 -0.008208588
0002a0 b2 af 81 bd 95 a3 4d bb dd 5b ae bd e0 27 c4 bd
       -0.06332339 -0.003137802 -0.08513615 -0.09577918
0002b0 0c 88 03 bd 67 68 73 3d 8d fd 3d 3d 90 7d ab bd
       -0.032112166 0.059425738 0.046384383 -0.083735585
0002c0 ce 28 3d 3d 22 70 74 3d 27 69 91 bd 5a e7 d8 bc
       0.046181493 0.05967725 -0.07100134 -0.026477505
0002d0 12 4e 63 bc 66 4b ba bd ef fd dd bc 8f 79 8d bd
       -0.013873594 -0.09096412 -0.027098624 -0.06907951
0002e0 6a 37 9d bc b1 b8 5a 3c 8b 47 be bd 4a 8d be bd
       -0.019191463 0.013349698 -0.092909895 -0.093042925
0002f0 e0 74 f4 bb ba 69 15 3d 1f 2e 9b 3d 27 57 57 3d
       -0.0074602216 0.03647778 0.07577156 0.05257335
000300 7e b9 81 3d 9d 8e d9 3c f1 7e b0 bd c3 9e b1 3c
       0.06334208 0.026557261 -0.08617962 0.021682149
000310 ca b2 8d bb 69 26 a9 bd 6c fa 5a bc 14 8d 3b bd
       -0.004324292 -0.08259279 -0.013365369 -0.04578884
000320 c5 7c ac bd 2d d4 8a bd b0 25 87 3d 2a f3 80 3d
       -0.084222354 -0.067787506 0.06598985 0.0629638
000330 fa e9 2b 3d 27 45 8c 3d 97 d5 aa 3d 1e 2a 92 3c
       0.041971184 0.06849127 0.0834152 0.017842349
000340 42 25 8b 3c 51 9b 9c ba 48 a2 81 3d f4 41 42 3d
       0.01698554 -0.0011948143 0.06329781 0.04742618
000350 da 41 53 3d 36 63 5c 3c fb 82 9d bd 27 d2 6a bc
       0.051576473 0.013451388 -0.07690998 -0.014332331
000360 59 6f 69 3c 68 19 04 bd 57 84 bd bc fa a4 91 bd
       0.014247739 -0.03225079 -0.023134394 -0.07111545
000370 0f 2f 45 3d 1e d0 cc bc af db 33 bd f8 ad 8f 3d
       0.04814058 -0.025001582 -0.04391068 0.07015604
000380 1c 6f 1e bb de 3e 82 3d 3e 9a 33 3d cf eb 7e 3d
       -0.0024175113 0.06359647 0.04384827 0.062236603
000390 84 8a ad bd 70 08 51 3d 18 b0 8c bd d9 3e b2 bd
       -0.084736854 0.051033437 -0.06869525 -0.087033935
0003a0 8b c2 94 bd 74 2c 3d 3c 91 1f 83 3d 55 28 34 bb
       -0.072636686 0.011546243 0.06402505 -0.002748986
0003b0 bb 31 8a 3d 1b ad b7 bd 54 88 80 3d 75 57 61 3c
       0.067477666 -0.08968564 0.062760025 0.013753762
0003c0 58 c2 42 3d 94 b9 c8 bc 81 c1 a4 38 49 9e d6 bc
       0.047548622 -0.024502553 7.856172e-05 -0.026198523
0003d0 9a c2 71 3c 17 87 17 bc 5e a3 f7 3b 06 3b 94 3d
       0.014755869 -0.0092485165 0.0075573167 0.0723782
0003e0 24 cd 76 3b ba a5 11 bd b0 39 85 bd 88 8a 99 bd
       0.0037658894 -0.03555844 -0.06505144 -0.07497126
0003f0 61 33 b4 bd af 4a 99 3d 54 62 2f 3d 7a a5 ae 3c
       -0.08798862 0.07484948 0.042818382 0.02131914

model.embedding.2.bias f4 [16]
000000 43 dd 51 bd f4 c4 e8 ba 7f bf a4 bd 6c 92 91 bc
       -0.051236402 -0.0017758892 -0.080443375 -0.017770015
000010 b0 49 a2 bd 93 e6 02 3c 55 3c c5 bc 3a 13 8d bc
       -0.07924211 0.0079895435 -0.02407662 -0.017221082
000020 b0 72 5f bd 00 83 03 bd 68 7f 93 3b d6 9c 94 bd
       -0.054552734 -0.032107353 0.004501272 -0.072564766
000030 2c 19 64 bd 30 72 5e 3c 12 df a0 3d b5 cc 86 3c
       -0.05568807 0.013577029 0.07855047 0.016455034

model.net.layers.0.weight f4 [164, 18]
000000 88 72 19 be ca 8b 4f 3e 05 e5 39 3e cc ec ed bd
       -0.14985096 0.20268169 0.1815377 -0.11617431
000010 e5 fd 85 3d 1b dc 6f be 98 71 18 be 14 f6 42 bd
       0.06542567 -0.23423807 -0.14887083 -0.04759796
000020 17 6c 58 3e 76 73 34 3d 03 d7 a3 3d 53 87 b3 bc
       0.21134983 0.044055425 0.079999946 -0.021915114
000030 bb 85 08 be d4 d6 36 be 77 69 b6 bc b7 17 f3 3d
       -0.13332264 -0.17855388 -0.022267086 0.118697576
000040 a1 1c 2f bd ee c1 a5 3d a5 4e 54 3e bc da 33 be
       -0.042751912 0.0809363 0.20733126 -0.1756391
000050 cc 92 3a be 0a 7f e0 bd fc 89 51 be d9 6b 21 3e
       -0.18220061 -0.10961731 -0.20462793 0.15763797
000060 24 f4 71 bc 50 cd 5b 3c cb aa 45 be 32 ba 2c be
       -0.01476768 0.0134156495 -0.19303434 -0.16867903
000070 00 73 cd 3b ae 0f 7c 3d 70 d0 32 be 32 e4 3e be
       0.0062698126 0.06153839 -0.17462325 -0.18641737
000080 a6 bb ff 3d e2 a1 57 bd 17 df e0 bd 93 0a 1b be
       0.12486963 -0.052644618 -0.10980051 -0.15140752
000090 39 45 0b bd fa b2 c7 bd e8 de 31 be b5 a6 27 be
       -0.034001563 -0.09750934 -0.17370188 -0.16372187
0000a0 10 ff 3d be f2 fc da bd 7f c7 a9 3d 6a 38 87 bd
       -0.1855433 -0.10692777 0.08290004 -0.06602557
0000b0 f3 49 28 3e 73 a0 0f 3e 20 69 df bd f5 4c e4 bd
       0.1643446 0.1402605 -0.10908723 -0.11147491
0000c0 97 ea 42 be a2 2c 51 3e 7b b4 34 be d2 2d 60 be
       -0.19034801 0.20427182 -0.17646973 -0.21892479
0000d0 1a cf 71 be 1c 41 71 3a c5 98 62 be 9e 63 8e bd
       -0.23614159 0.00092031225 -0.2212859 -0.06952594
0000e0 a7 06 d2 bd 72 86 2e 3e 6a b4 2a 3e 78 34 46 be
       -0.10255175 0.17043474 0.16670385 -0.19355953
0000f0 9c eb 60 be 6d 02 0b 3e dd e3 0b 3e 37 ab 4a be
       -0.21964878 0.13575144 0.13661142 -0.19791876
000100 1f 12 ae 3c dc 82 5f be ff 74 ef bd bd 2b 1a be
       0.021248875 -0.21827263 -0.11692237 -0.15055747
000110 7a 74 0b be 61 c6 43 3e 78 b6 06 be 9d 23 58 be
       -0.13618651 0.19118644 -0.13155544 -0.21107335
000120 b5 30 6b 3e 1e da d5 bc a4 6e 3f 3e cc d9 e2 bc
       0.22967799 -0.026104983 0.1869455 -0.027691744
000130 e2 aa 78 3e cf 12 00 3e 70 7a 62 be d8 a8 26 3d
       0.24283937 0.12507175 -0.22117019 0.040688366
000140 d6 cf 94 bd 28 c7 98 bd ce 1b 79 bd 2c a0 57 be
       -0.07266204 -0.07459861 -0.060817532 -0.21057194
000150 d2 57 51 bd ce 74 6c 3e 27 d0 4d be cf a5 6b 3e
       -0.051109143 0.23091432 -0.20098935 0.2301247
000160 db 54 d0 3c 04 1e 3a be b5 44 1a bd dd fe 8e bd
       0.025431087 -0.18175513 -0.03766318 -0.06982205
000170 de 21 24 3d ae 45 39 3e 6a 55 b1 bd d6 a6 6e be
       0.04007136 0.18092987 -0.086588696 -0.2330583
000180 f2 a2 03 3d d3 8e 9d 3d 92 cd 85 bd de ea 2f 3d
       0.03213782 0.07693257 -0.0653335 0.042948596
000190 a7 12 d4 bd 6e 1b 55 be 75 15 04 3e e7 43 44 3e
       -0.1035512 -0.20811245 0.1289881 0.19166528
0001a0 2b aa 6f bc b5 1b 73 be ae 6d 76 be 35 a1 ad 3d
       -0.014627974 -0.23741038 -0.24065277 0.084780134
0001b0 41 8e 24 3d c6 4e aa bd a8 96 2a be 5c d8 e6 bd
       0.040174726 -0.08315806 -0.16659033 -0.11271736
0001c0 93 d0 5b be 77 6c 68 be cc cc 95 3d f3 e7 8d 3d
       -0.21466284 -0.22697626 0.073144525 0.069290064
0001d0 22 c2 21 3e 8b 24 4a be 48 03 25 3e 06 15 15 be
       0.15796712 -0.19740503 0.16114533 -0.14558801
0001e0 98 24 0a 3e 47 aa 5d 3b 6e 06 89 3d e6 bf 15 be
       0.13490522 0.0033823417 0.066906795 -0.14623985
0001f0 4b 43 5d be c0 b4 af 3d 03 8c 1c 3e 08 fc 6b be
       -0.21607701 0.08579397 0.15287785 -0.23045361
000200 5d cf d0 3d e7 7d 99 bd a6 13 01 be ee 51 33 be
       0.101958014 -0.07494717 -0.12605152 -0.17511722
000210 3d 28 98 bc 05 af 21 3e d4 5e 19 3e 39 87 68 3e
       -0.018573875 0.15789421 0.1497758 0.22707833
000220 0a 58 86 bc 14 ab 46 be 8c e4 69 be 59 ef 07 be
       -0.016399402 -0.19401199 -0.2284109 -0.13274898
000230 c8 10 13 3e d7 5f 62 bd 78 7d 48 3e ac e2 0d be
       0.1436187 -0.05526718 0.19579113 -0.13856
000240 c0 5c 6e 3d ea e4 62 3e d7 26 4e bc f1 76 96 3d
       0.058193922 0.22157636 -0.012582502 0.07346905
000250 62 09 09 3e b9 d3 65 3c c1 c9 c7 bd 5a 5a dd bd
       0.13382486 0.014027529 -0.097552784 -0.10808249
000260 0f 67 69 be c5 d6 19 be 9c 56 b9 3d 28 a7 de 3d
       -0.2279322 -0.15023334 0.090497226 0.10871726
000270 20 78 2b 3e ce ba 34 be 20 35 2e 3d 5e 36 5b 3e
       0.16745043 -0.17649385 0.042531133 0.21407458
000280 d1 1d 63 3e da 4a e4 bc d6 a3 ec 3d 59 ab 2d be
       0.22179343 -0.027867723 0.11554687 -0.16959895
000290 ba f9 04 bd 5a 5b 8b bc dd de 2a bb b1 83 83 bd
       -0.03246472 -0.017011333 -0.0026072778 -0.064216025
0002a0 77 d1 1e bd a5 ac 47 3e 1a a0 9c bd 32 9b e9 3c
       -0.03877398 0.19499452 -0.076477244 0.028516386
0002b0 c6 38 a3 3d 8d a2 53 3e 6b 73 40 be 93 f5 6c be
       0.07969813 0.20667477 -0.18794028 -0.23140554
0002c0 c0 91 bb 3d 90 e3 69 bc d3 be 2f 3e 38 72 92 bc
       0.09158659 -0.0142754465 0.17162637 -0.01787673
0002d0 b5 b4 37 be ab 72 51 3e e5 8c 4b 3e 57 28 02 be
       -0.17940028 0.20453899 0.19877966 -0.12710701
0002e0 1a 7c d7 3b ac 9d 8f bc 8f 10 04 3e 99 fc df bc
       0.0065760734 -0.017531238 0.12896942 -0.027342128
0002f0 f8 07 3d 3e 03 90 62 3e a7 3b df 3d 20 59 5f 3e
       0.18460071 0.22125249 0.1090005 0.21811342
000300 cf 33 78 bd a9 da 04 3d 81 34 47 be 88 2d e4 bd
       -0.060596284 0.032435093 -0.19453622 -0.11141497
000310 80 91 ae bd 8c b4 40 3e 94 d9 6f be 4a 4c 29 3e
       -0.08523846 0.18818873 -0.23422843 0.16533008
000320 38 73 77 be fc 70 55 3e 16 c4 57 be 2e ee 94 3d
       -0.24165046 0.20843881 -0.21070895 0.07271992
000330 c9 2e f2 3d b8 19 15 be be 12 33 be 19 2f 59 3e
       0.1182533 -0.14560592 -0.17487618 0.21209373
000340 1b cc c3 3d 1a ca b0 3d 7f a5 b3 bc 8f aa da bd
       0.095604144 0.08632298 -0.0219295 -0.10677063
000350 5b f6 a0 bd b6 38 a4 3d 47 a1 67 3e ee e5 31 3e
       -0.078594886 0.08018629 0.22620116 0.17372867
000360 44 ee 99 bd 20 5b a9 bd f6 18 1c bd 5c 15 5a 3c
       -0.07516149 -0.08269334 -0.038109742 0.0133107565
000370 7a 4c 86 bd b0 34 ea bd 14 56 4e 3e 52 d5 cc 3d
       -0.065575555 -0.114358306 0.20150024 0.10001625
000380 69 ae 83 3d f5 99 e6 3d 0e f0 ff 3c 20 de 2f be
       0.064297505 0.11259834 0.031242397 -0.17174578
000390 79 cc 45 3d b6 fa b3 bd 90 04 0e 3e a0 b8 54 3e
       0.048290703 -0.08788054 0.13868928 0.20773554
0003a0 42 f9 68 3e 24 68 9f 3d a4 2b 3f be d8 cf b0 3c
       0.22751334 0.07783535 -0.18668991 0.021583483
0003b0 ac e8 3c 3e f8 55 83 bd 75 31 09 bd d6 91 15 3e
       0.18448132 -0.064128816 -0.03349443 0.14606413
0003c0 3d ca 98 bc 19 13 b0 bc 26 0d 06 be 48 79 49 3e
       -0.018651122 -0.021493481 -0.13090953 0.19675171
0003d0 eb 87 46 3d 52 02 af bc 18 91 02 bd b5 35 77 bd
       0.048469465 -0.021363411 -0.031876653 -0.060353953
0003e0 8f 2a 03 be b4 84 d2 3d 98 20 c4 bc 3d bc f2 3d
       -0.12809204 0.10279217 -0.023941323 0.1185231
0003f0 9f ea 83 3d 5a 21 f2 bd 0a 0f 24 3d 5c 06 5e be
       0.06441235 -0.118227676 0.040053405 -0.21682113

model.net.layers.0.bias f4 [164]
000000 27 1a fe bd b6 be 01 3e 9c ed 75 bd d0 0c 61 be
       -0.12407332 0.12670407 -0.060041055 -0.21977544
000010 92 cf b5 bc 0c 82 d8 bc 22 ff 72 be 29 4e 71 be
       -0.022193704 -0.026429199 -0.23730138 -0.23564972
000020 89 03 55 3e 46 73 4a be 9b ce 94 3d dc a9 20 3e
       0.2080213 -0.19770536 0.07265969 0.15689796
000030 9a 85 37 3e 4a 12 35 3d 11 95 ce 3c 24 3d 09 be
       0.17922059 0.044206895 0.025217565 -0.1340223
000040 81 5b 23 be 0b 62 01 3d c2 56 f0 bd 29 0f 31 3d
       -0.15952875 0.03158764 -0.11735298 0.04322735
000050 ab 6c d4 bd 7f 72 33 3c 9d 9d 65 3e 69 14 31 be
       -0.10372289 0.010952591 0.22423406 -0.17292942
000060 9e 3c 6b be b1 70 6b be e2 cf 04 be e7 48 2b 3e
       -0.22972342 -0.22992207 -0.12969926 0.16727029
000070 47 58 2e be 34 c0 49 be e5 40 9a 3d a6 f2 00 be
       -0.17025863 -0.19702226 0.07531909 -0.12592563
000080 79 29 2f bd c0 05 02 3e 6f eb 47 bd 6c 80 41 3e
       -0.04276416 0.12697506 -0.04880851 0.18896645
000090 7e dd 3a bd 83 9d c1 bc e3 7a 4a 3e 7e 31 1f 3e
       -0.045621388 -0.023634678 0.1977344 0.15546224
0000a0 c8 f0 9c 3c 7c 35 3a be 5b 07 91 3d 9a 03 61 be
       0.019157782 -0.18184465 0.07081481 -0.2197403
0000b0 1c 3c 35 3e bc d8 ea 3d dc 02 6c 3e 4e fe 2d 3e
       0.17698711 0.1146712 0.23047966 0.16991541
0000c0 b4 79 c0 bd 75 8c 44 3e 59 ae d6 3d 81 2f 54 bd
       -0.09398213 0.19194205 0.10482473 -0.051803116
0000d0 3c b8 09 3e 49 4c 1a bd 37 31 a5 bc 88 cc 1c 3d
       0.13449186 -0.037670407 -0.020165069 0.038280994
0000e0 70 7a a9 3d 95 97 a6 bd b8 18 36 3e 78 0d 68 3e
       0.08275306 -0.08134381 0.17782867 0.22661388
0000f0 7a 33 33 3e 97 80 9a 3d 63 fd a1 3d 4b 0f 0e bc
       0.17500106 0.07544058 0.07909658 -0.008670638
000100 35 a5 a7 3d f7 84 29 3e 9f 7a 5b be 32 ee e3 bd
       0.081858076 0.16554628 -0.21433495 -0.111294165
000110 e0 03 17 3e bc eb 56 3e 8b ac 38 be 90 54 a5 bc
       0.14747572 0.20988363 -0.1803457 -0.020181924
000120 94 7b f1 bd 19 d8 3e 3e 0d a0 44 3e 9e eb 39 3e
       -0.11791149 0.18637122 0.1920168 0.18156287
000130 2c b4 0b 3e ae 7f 38 bd 4a bb a9 bd 70 f7 3e bd
       0.13642949 -0.04504364 -0.08287676 -0.046622694
000140 49 54 5c 3e 22 bd 43 3d fa ce c0 3d 68 45 70 be
       0.21516527 0.047787793 0.09414478 -0.23463976
000150 89 eb f2 3c 96 a8 2a 3d f0 5d 63 bd 37 17 94 bd
       0.029653328 0.041664682 -0.055509508 -0.072309904
000160 38 af fc 3d 8e 59 0f be 42 6a ec 3d b8 78 32 3d
       0.12338108 -0.13999006 0.115437046 0.043572158
000170 86 60 79 bd 20 d7 1b be a6 c4 e4 3d 4a 73 45 3c
       -0.060883068 -0.15218782 0.1117032 0.012051413
000180 58 df 54 be 20 81 56 be fa 0c b7 bd b0 ac 6b 3e
       -0.20788324 -0.20947695 -0.08938022 0.23015094
000190 db 17 4d be 53 de e7 3d f6 c6 68 3e bb 72 68 bd
       -0.20028631 0.11321702 0.22732148 -0.05675004
0001a0 e8 db 62 3d fa d1 29 be af 51 92 3a 04 25 2c 3d
       0.0553855 -0.16584006 0.001116326 0.04202749
0001b0 0d 3c 29 3d ef 15 58 3d 7f b8 9f 3d 53 0a 96 bc
       0.041317035 0.052755293 0.07798862 -0.01831547
0001c0 9c 12 9b 3c 96 af 16 be 7b ba 62 be c9 fd c4 bc
       0.018929772 -0.14715418 -0.22141449 -0.024046795
0001d0 ca 87 46 bc 10 07 30 3d 16 f3 1f 3d 90 cb 3c bd
       -0.012117336 0.042975485 0.039050184 -0.04609257
0001e0 e7 d6 45 3e e6 8e d8 bd 79 d2 bb bd ea b9 cf bc
       0.1932026 -0.10574131 -0.09171004 -0.025357205
0001f0 14 80 5f bc 40 89 5b bd 74 85 ae bc ef 5e 54 be
       -0.013641376 -0.05359769 -0.02130387 -0.2073934
000200 a4 2a de 3d 88 85 27 be 33 df ef 3d 44 bf 43 3e
       0.10847977 -0.16359532 0.11712494 0.19115931
000210 96 25 18 be 21 23 ea ba 05 44 17 3d af bd 5f bd
       -0.14858088 -0.0017863252 0.036930103 -0.054624256
000220 dd b7 68 3e 3a a4 35 3e b9 fd 90 bd 3b 59 61 3e
       0.22726388 0.17738429 -0.07079644 0.22006695
000230 65 ca 86 bd 47 8b 81 3c 6f bc 26 be d7 92 1a 3e
       -0.065815724 0.015813483 -0.16282819 0.15095077
000240 3e 83 53 bd 10 c4 83 3d 1d da 6e bc 73 c4 5e 3e
       -0.051638834 0.0643388 -0.014578369 0.21754627
000250 24 a5 09 3a 47 25 b0 ba 20 7b 09 be cd a5 86 3c
       0.0005250743 -0.0013438844 -0.13425875 0.016436482
000260 b5 7b 00 be ea 66 e0 bd 9c 37 42 be 91 9e ec bb
       -0.1254719 -0.10957129 -0.18966526 -0.007221051
000270 bc 1a 8a 3d 0e 01 30 3d 3f 5a 85 bb e1 8a 1f 3e
       0.067433804 0.042969756 -0.004069596 0.15580322
000280 17 86 00 3e ee c5 b8 3c 9b e2 a1 3b aa 5e 9f bc
       0.12551151 0.022555318 0.0049403436 -0.019454319

model.net.layers.2.weight f4 [164, 164]
000000 9a d9 f2 3c 52 0f b6 3c ab 01 a2 3d 21 8e b3 bc
       0.029644776 0.022224102 0.079104744 -0.021918358
000010 d5 2d 49 bd 64 e2 31 bc 14 1e 49 3d 4c f7 46 bd
       -0.049115974 -0.010857198 0.04910095 -0.048575684
000020 40 3e 03 3d 2b b0 89 3d 29 60 a4 bd 26 d5 aa bd
       0.032041788 0.067230545 -0.080261536 -0.08341436
000030 3b ae 14 3d 05 0e 0b 3d 7e b0 8f bd 35 73 c7 bc
       0.03629897 0.033948917 -0.07016085 -0.024346927
000040 28 9a a4 bd 22 ee af bc be 30 ae bd dd e5 d2 bc
       -0.080372155 -0.021475855 -0.085053906 -0.025744373
000050 f0 fc 6d bd d8 54 60 3c 6d a7 77 3d 6f 8e 22 bd
       -0.058102548 0.013692103 0.060462404 -0.039686617
000060 23 06 71 bd 33 f3 5b bc bc a3 35 3d cb ed ce bd
       -0.058843743 -0.013424682 0.044345602 -0.10103949
000070 52 2c 26 bd de 57 31 bd f8 3f e1 3c 51 a9 8b 3c
       -0.04056961 -0.043296687 0.027496323 0.01704851
000080 2a 29 f9 3c d5 5c 59 bd 71 2a 03 3d 17 22 8b 3b
       0.030415136 -0.053067047 0.032022897 0.004246007
000090 5e 81 b4 bc 29 3e 8a 3c 34 58 1d 3d 5e 81 32 3c
       -0.022034343 0.016875343 0.038414195 0.010895101
0000a0 2d ac 3e bd ce 76 65 3d 3d 41 88 bc b6 0b ca 3c
       -0.04655092 0.056021504 -0.01663267 0.024663787
0000b0 a8 1a 70 3d 59 f8 90 bd 25 b6 a9 bc 86 e3 e2 ba
       0.05861917 -0.070786186 -0.020716736 -0.0017310239
0000c0 36 30 34 bd 7b c6 65 3c 82 2e 01 bc d5 8c 9f 3d
       -0.04399129 0.014024372 -0.0078846235 0.077905335
0000d0 8c 64 87 bd ef ae 83 bc fa 43 0e 3d 76 ab 83 3d
       -0.06610975 -0.016074626 0.034732796 0.06429188
0000e0 88 e8 95 bd dc 12 a5 3d 38 2d 05 bd 49 79 8e bd
       -0.073197424 0.08060238 -0.032513827 -0.06956727
0000f0 e7 5c 92 3c fb c5 25 bd ff 34 78 bd aa 0e 15 bd
       0.017866565 -0.040472012 -0.060597416 -0.036390938
000100 ab 62 81 3d a7 08 b5 ba 32 6d 96 3d ee ed 64 bd
       0.063176475 -0.0013811783 0.07345046 -0.05589097
000110 bc b3 23 bd 1e f8 9b 3d 84 1f 05 3d 24 04 d5 bb
       -0.03996633 0.07615684 0.03250076 -0.0065007377
000120 4e 41 82 bc e6 8e a4 bc 62 f6 69 3d e2 15 1a 3d
       -0.01590028 -0.02008767 0.057119735 0.037618525
000130 16 db 46 bd 0c c4 14 bd cc 1c a4 3d e4 50 b5 bd
       -0.04854878 -0.036319777 0.08013305 -0.08853319
000140 ca e5 96 3d c7 52 cb bd da ec 08 3d e4 35 e2 3c
       0.073680475 -0.09927898 0.033429004 0.027613588
000150 44 84 31 3c cf 92 34 3c 0c 66 72 3d 4f db 20 bd
       0.010834757 0.01102133 0.05917935 -0.03927165
000160 64 b4 75 bd 6b 0d 96 bd 1c 1b d2 3b 4c cd cc 3b
       -0.059986487 -0.07326778 0.006411923 0.006250059
000170 99 5e 8e 3c e8 95 f5 bc dd 14 ac bd cd 73 5d bd
       0.017379092 -0.029978707 -0.08402417 -0.054065514
000180 f6 e9 9c 3d 8d 54 81 ba d2 7a 6b bb 11 08 27 bd
       0.07661812 -0.0009867117 -0.003593136 -0.040779177
000190 1b f2 7a bd c8 0f 55 bd bc d7 23 bd 30 f2 03 bd
       -0.061266046 -0.052017003 -0.040000662 -0.03221339
0001a0 83 fc 8b bc 40 a8 00 3d ac 38 bf 3c 89 d7 6a 3d
       -0.01708818 0.031410456 0.023342453 0.057334457
0001b0 43 17 d1 3c 52 8d 0a bd 60 6d 3c bd e5 82 f1 bb
       0.025523787 -0.03382618 -0.046002746 -0.00737034
0001c0 dd 8c 80 bd 76 da ca bc ef a2 11 3d a6 90 bc 39
       -0.062768675 -0.024762373 0.035555776 0.00035965926
0001d0 fb d0 82 3d 91 52 1b bc 47 f8 d6 bc 2f c3 eb bc
       0.06387516 -0.009480135 -0.026241435 -0.028779594
0001e0 9c 03 b3 3c 2c a5 3c 3c 22 48 62 bc 76 cf 81 bd
       0.021852307 0.011513989 -0.013811143 -0.06338398
0001f0 8e c8 97 3b 04 c6 93 bc 0f 3a 88 3d 64 5a 48 bd
       0.0046320623 -0.018038757 0.06651699 -0.04891433
000200 6d 5c 96 3d ef 3a 87 ba b1 bb 7a 3d 33 6b 9a 3d
       0.073418476 -0.0010317246 0.061214153 0.07539978
000210 51 5b a3 3d c8 de 85 bd a4 08 17 bd b1 ec b7 be
       0.079764016 -0.06536633 -0.036873475 -0.3592277
000220 7d eb d3 3c 44 eb 21 bd 5c 9d 46 3d 7b 5a a8 bd
       0.025869126 -0.039531007 0.048489913 -0.08220383
000230 2d 7f 71 3e af 3a 2c bd 62 c5 d9 3c cd ca a4 bd
       0.2358367 -0.042048153 0.026583377 -0.08046494
000240 af 92 07 3d 5d fd 0b 3c 17 1c 8e 3d 03 73 c9 bb
       0.033098873 0.008544293 0.069389515 -0.0061477437
000250 31 0b a4 3d 4e 15 ef 3c 1d ed c5 bc d0 08 0a bb
       0.08009947 0.029184964 -0.024160916 -0.0021062382
000260 ca ea cb 3c 36 11 8d bd d3 b5 7c bd fa f8 1d bb
       0.02489223 -0.06888048 -0.06169684 -0.00241047
000270 a7 f1 95 3c 19 5a 06 3d cf 86 10 3d 77 a7 3d bd
       0.018303705 0.032800768 0.035284813 -0.046302285
000280 3d 96 54 bd 4c 03 0e bd 50 e1 20 bd 04 be 44 bc
       -0.05190109 -0.034671113 -0.039277375 -0.012008194
000290 b7 fa 18 3c 0a 2c ad bc 90 92 1a 3d e4 c5 69 3d
       0.009337119 -0.021139164 0.03773743 0.05707349
0002a0 3a c9 1f 3d 63 79 00 3b 4c 76 27 bb cc 10 15 bd
       0.039010264 0.0019603602 -0.0025552688 -0.036392972
0002b0 bb c6 87 3c 0f 89 69 3d 1c 49 4c 3d 1b 5b 91 bd
       0.016574254 0.057015475 0.04987441 -0.07097455
0002c0 03 51 98 bb 01 8a db 3b 8b f9 45 bd a5 2e 1e 3d
       -0.004648329 0.006699801 -0.048333686 0.038618702
0002d0 2d b2 6c bd 35 9b e4 3c bb 7d 57 bc f0 ce bf bc
       -0.05778711 0.02790604 -0.013152535 -0.023414105
0002e0 3e db 85 bd 66 34 fe bc b8 57 87 bd 39 02 c6 b8
       -0.06535958 -0.031030845 -0.06608528 -9.44179e-05
0002f0 6c ac 91 bd 46 9e a7 bc 30 6e 8a 3d 4b 02 e1 bc
       -0.07112965 -0.020461213 0.06759298 -0.027466914
000300 98 95 01 bd e8 fa 8e bd 56 86 7b 3d c0 91 18 bd
       -0.031636804 -0.0698145 0.06140741 -0.037248373
000310 82 78 ea 3c dd 42 82 3d fa 07 be bc d7 ec 7b 3d
       0.028621916 0.063604094 -0.023197163 0.061505165
000320 9c 7f 9f bd 06 d7 9c 3c e9 99 7b bd 6d 47 44 bd
       -0.077880114 0.0191455 -0.061426077 -0.04791968
000330 45 4a 44 3c 0e 2b 7d bc 53 e9 25 bb d4 81 a7 bd
       0.011980598 -0.01545216 -0.0025316074 -0.081790596
000340 b0 68 8f 3d cc 1e 82 3d 8d d7 8b bd f2 a2 76 bc
       0.070023894 0.0635353 -0.068282224 -0.015053498
000350 33 22 41 3d 0c 01 b1 3b b5 71 87 bc 74 59 98 bd
       0.047151756 0.005401736 -0.016533712 -0.07438937
000360 8b 3b 37 bc 09 9d 6b bd b7 cc 30 3d e1 e5 09 3d
       -0.01118363 -0.057522807 0.04316398 0.033666495
000370 a3 11 85 3d e6 23 1f bd 88 f9 20 3d d2 cf 23 bc
       0.064975046 -0.038852595 0.03930047 -0.009998279
000380 cc f5 7d 3d b9 9b 43 bd 7f 58 9d bd 5b f8 5e ba
       0.06200199 -0.04775593 -0.07682895 -0.0008505636
000390 ba 45 61 3d e3 80 5e 3d c3 fb 53 3d 26 e5 f4 bc
       0.054998137 0.054322135 0.05175377 -0.029894423
0003a0 7f 92 82 3d 0b 2e 58 bd 17 39 e2 bc 97 30 8e bd
       0.06375598 -0.052778285 -0.027615113 -0.069428615
0003b0 7f 2f 1b bd a9 a6 18 bd 47 c8 b8 3c cb bd 65 bb
       -0.037887093 -0.037268315 0.022556437 -0.0035055752
0003c0 b6 6b e9 3c a5 a2 04 bd b1 5f 13 3c 35 0f 59 3d
       0.028493743 -0.032381672 0.008994983 0.05299302
0003d0 6c 7f 45 bd 0e 2d 7d bd cf 63 48 3d 34 0f 1d 3d
       -0.048217222 -0.061810546 0.04892331 0.038344577
0003e0 77 c6 3d bd 7e 85 9d 3d a7 c7 06 3d c4 fd b9 3c
       -0.04633185 0.07691477 0.032905247 0.022704013
0003f0 5c 7a a4 bc 19 2a ef 3c e1 bc 81 bc a3 07 cc 3c
       -0.020077877 0.029194878 -0.015837135 0.024905985

model.net.layers.2.bias f4 [164]
000000 9a 4d 85 bd 42 9a a7 bd fa 2c 99 3d 27 a2 8a 3d
       -0.06508942 -0.08183719 0.07479282 0.06769209
000010 b6 b7 58 3d cf 8e b2 bb 95 76 0f bc c4 e9 92 3c
       0.052909575 -0.005449153 -0.0087562995 0.017933734
000020 3c f6 5f 3d 6a 73 37 3d 6e fc 8d 3d e4 f5 d5 3b
       0.054678187 0.0447878 0.06932913 0.0065295566
000030 73 f9 a4 3d c2 5d 97 3a 86 c5 04 bd 88 88 96 3d
       0.08055391 0.0011548328 -0.032414936 0.0735026
000040 ec 67 1d bd 22 b3 41 bc e1 5c 99 3d 63 1b 1f 3d
       -0.038429186 -0.011822494 0.07488418 0.038844477
000050 e9 aa a1 3d b4 cc 9b 3d d2 c3 dd bc 50 4c 0c 3c
       0.07893927 0.076074034 -0.027070913 0.008563116
000060 2e 62 03 3c 35 a0 ab 3c b1 67 57 bc 42 24 8d 3d
       0.008019013 0.020950416 -0.013147281 0.06891681
000070 85 39 3b bd bc 53 1a 3c 9a 51 88 3d f7 7d dc bb
       -0.04570915 0.009419378 0.06656189 -0.0067288834
000080 87 a1 86 bb 83 bc 25 3d b5 94 8b 3c 1d 86 6b bc
       -0.004108611 0.040462982 0.017038682 -0.014375237
000090 74 71 29 3d 81 80 fd bc 39 87 7f 3d 61 01 93 bc
       0.041367963 -0.030945064 0.062384818 -0.017944993
0000a0 8f 96 b9 3b b7 77 dd 3c 7c a4 41 3d c2 c0 95 3c
       0.0056637 0.027034624 0.047276005 0.01828039
0000b0 2a 53 f7 3b 58 12 98 3d 10 05 d0 bc b8 51 a9 bd
       0.0075477557 0.07425374 -0.025393039 -0.0826754
0000c0 56 d3 b7 bb 53 df 4c bd d7 84 93 3d 0b 11 c7 bc
       -0.00560991 -0.050017666 0.072030716 -0.024300119
0000d0 f9 49 56 bd a9 c8 aa 3c 47 36 53 3d 88 66 98 3c
       -0.05231664 0.020847635 0.051565435 0.018603578
0000e0 9c a1 53 3d f9 fb 07 3c 52 64 b6 3c 10 fc a8 bd
       0.051667795 0.008299821 0.022264633 -0.08251202
0000f0 6b 6a 4e 3d df f8 35 bc 59 23 97 bc 00 6d 09 3d
       0.050394457 -0.011106699 -0.018449472 0.033551216
000100 f2 5a 47 3d b5 e5 73 3d d8 98 84 3c ff 13 9a bc
       0.048670717 0.059545238 0.016186163 -0.018808363
000110 ca 7c 43 bd 96 70 50 3d c0 59 a6 3c 31 88 c0 bc
       -0.04772643 0.05088862 0.020306468 -0.023502441
000120 d3 df 76 bd 65 b2 d5 3c 20 91 60 3c ba 09 f5 b9
       -0.06027205 0.026086042 0.0137064755 -0.00046737288
000130 a5 b6 8d bd 37 b6 e2 bc cf a8 a1 3c 17 18 2b 3d
       -0.06919602 -0.027674777 0.019733815 0.04177102
000140 11 7d eb 3c 99 43 54 3c 05 e7 c7 3c 06 7a 5e bd
       0.02874616 0.01295557 0.02440215 -0.05431559
000150 f0 a3 13 bd cd 1f d7 3c 83 70 68 bd f6 25 80 bd
       -0.036045015 0.026260281 -0.056747925 -0.062572405
000160 57 09 0d bc 10 45 39 3d e5 8b f9 bb 8c 30 32 bd
       -0.008608184 0.04523188 -0.0076155537 -0.04350333
000170 e5 45 50 3d 3a b8 2d bd b0 1d 74 3d 96 67 92 bd
       0.050847907 -0.04241202 0.059598625 -0.07148664
000180 41 f5 6a bd 0a 56 d2 bb 2d 50 88 bd d0 00 b4 bc
       -0.0573628 -0.006418948 -0.06655917 -0.021973044
000190 04 71 6a 3d 96 e7 ce 3b a6 37 05 3e ef 29 8f bb
       0.057236686 0.0063142283 0.1300951 -0.0043690125
0001a0 9d 5d eb 3c 4d c0 2f bd d8 b2 f9 bc 1f 14 ab bb
       0.028731162 -0.042908 -0.030480787 -0.0052209045
0001b0 00 48 85 bc 74 c7 30 3d f7 fe 60 bc 33 9e b5 39
       -0.016269684 0.043158963 -0.013732663 0.00034640878
0001c0 88 58 b6 3c 9c 21 5b bc dd f7 50 3c 5b e1 69 3d
       0.022259012 -0.013374712 0.012754408 0.05709968
0001d0 e1 a5 0e 3d 26 cf 75 3d 76 42 44 3d 9b 79 ec 3c
       0.034826163 0.060012005 0.047914945 0.02886658
0001e0 a6 b8 4c 3c a1 f1 b5 3c dc 6e 9a 3b 91 7c b0 bc
       0.0124951955 0.022209944 0.0047129225 -0.021543773
0001f0 c9 98 6f 3d bf 2a ad bc bc 34 0a 3d cf 8f c5 3b
       0.058495317 -0.021138547 0.033741698 0.006029106
000200 fe af 97 bd f4 37 9b 3d 00 29 57 3d c1 a4 65 bd
       -0.07406615 0.075790316 0.052529335 -0.056065325
000210 d2 81 cd bc 79 1e 9e bd fb 16 ad bc 8b 59 86 bd
       -0.025086317 -0.07720656 -0.021129122 -0.06560048
000220 2c c2 59 bc 64 f5 ac bc 9b 01 38 bd 9a db 76 bd
       -0.013290923 -0.021113105 -0.044923406 -0.060268022
000230 0a 11 54 3d 3d 12 9a bd 6c 43 8c 3d db 27 5a bd
       0.051774062 -0.0752301 0.06848797 -0.053260665
000240 3e 32 fb bc dc f9 30 bd 0d ca 8b bd d3 ba 63 bc
       -0.030663606 -0.043207034 -0.068256475 -0.013899523
000250 f2 60 6e 3c 71 a4 13 bd 37 07 64 bd e6 1c 99 bb
       0.014549481 -0.036045495 -0.055670943 -0.0046726344
000260 82 10 4d 3d 57 76 d6 3c b3 94 63 3d ae ed 78 bd
       0.05006457 0.026179476 0.055561733 -0.060773544
000270 62 d0 b6 3c 59 0c ad bc 36 c1 3b bd a9 28 89 3d
       0.022316162 -0.021124052 -0.045838557 0.066972084
000280 96 13 df bc 54 1e 1f bb 60 93 19 3c 24 13 80 3d
       -0.027231019 -0.0024279552 0.009373516 0.06253651

model.net.layers.4.weight f4 [2, 164]
000000 55 3d 09 be 04 d1 5e 3d f4 88 96 3c 45 aa 93 3d
       -0.13402303 0.05439855 0.018375851 0.07210211
000010 80 0b f2 bc 6a 55 68 bd bd 0e 7a 3d ac 47 e4 bc
       -0.0295465 -0.056722082 0.06104921 -0.027866207
000020 d3 4e 9e 3d d7 a4 e0 3d 22 55 da bb 7d c2 38 3d
       0.07729878 0.10968941 -0.0066629807 0.045107353
000030 1e c4 53 3d 1a da 61 3d 82 dc 8b 3d 63 1e db bc
       0.051700704 0.05513964 0.06829168 -0.026747888
000040 d6 3e b7 3c d4 97 8d 3c de 40 46 3d a4 8e e4 3c
       0.02236883 0.017284311 0.048401706 0.027900048
000050 9b ff fe bc 27 70 0f 3d fd 8b c8 3d 2b 1e 95 bd
       -0.031127742 0.035019066 0.09792326 -0.07281145
000060 4c 56 a0 3d e7 09 98 3d f3 c6 75 bd 3e 9a 20 3d
       0.0782896 0.07423764 -0.060004186 0.039209597
000070 ce 6a fa 3c b3 5d c7 3c fd ad 42 bd 6a d3 36 be
       0.030568507 0.024336671 -0.04752921 -0.17854086
000080 cb 69 66 bd a5 0b c2 3c 13 90 fa bb 29 17 81 bd
       -0.056253236 0.023687193 -0.0076465695 -0.063032456
000090 19 c2 51 3d 33 d3 20 3d 5d 7c 1d 3d 4e 26 21 bd
       0.051210497 0.039263915 0.03844868 -0.03934317
0000a0 2e 20 64 3d 0c 99 ca bc 5c 33 ec 3c d3 81 ad 3d
       0.05569475 -0.024731182 0.028833084 0.08472028
0000b0 60 ef a5 3d 1e 85 2d bd 18 e9 6d bc 22 2f 04 bd
       0.08102298 -0.04236328 -0.014520906 -0.03227151
0000c0 83 a9 89 3d b4 ad 9c 3d 2b b4 36 bd 4c 02 88 bc
       0.06721785 0.07650319 -0.044605415 -0.016602658
0000d0 0d 34 5b 3d 97 c9 54 bc c9 94 29 bc ef b7 6b bd
       0.053516436 -0.012987516 -0.010350415 -0.05754846
0000e0 8c 14 e1 bc 67 61 98 3e d8 5e dc bc d5 d3 24 3d
       -0.027475618 0.29761812 -0.026900694 0.04024108
0000f0 d5 ef d7 3c 28 8c 6f bc e1 c1 38 bd 1c 4d 6b 3d
       0.026359478 -0.014620818 -0.045106772 0.057446584
000100 69 b4 d7 bc e0 80 63 bc 14 db 4a bd 15 5e 87 3e
       -0.026331143 -0.013885707 -0.049525335 0.26438966
000110 91 fe 82 3c 26 70 0c bc 2f 8a d7 3b 48 2f 51 3c
       0.015990527 -0.00857166 0.006577752 0.01276762
000120 0d 99 00 3d 16 5a 8d 3d 91 d0 8c bd 09 28 9b 3b
       0.03139596 0.06901948 -0.068757184 0.004734997
000130 d4 27 02 3d a6 f3 89 bd 0a 9a cf bc db a1 8c 3d
       0.031776264 -0.067359254 -0.025342006 0.06866809
000140 6d 8b 9b 3d 2a f2 55 bc b1 60 2f 3e 10 55 14 bd
       0.07594953 -0.013058225 0.17126729 -0.036213934
000150 d4 f3 33 3d b7 45 59 3d cb c3 a1 3d 7c 38 da 3e
       0.043933704 0.053045 0.07898673 0.4262122
000160 cc cc 80 3d e1 73 62 3c 5f 04 ac 3d 94 c6 ea 3d
       0.06289062 0.013821573 0.08399271 0.11463657
000170 85 cf da 3c 50 be b5 bc bd 43 09 bc f6 de 6f 3b
       0.026710281 -0.022185475 -0.0083779665 0.00366014
000180 dd af 19 bd f9 98 a1 3c 8c 8b 97 bc 73 1a 7f bd
       -0.037521232 0.019726263 -0.018499158 -0.062281083
000190 a7 e1 1e bc 8a 17 53 bd 81 ae fd 3d 56 d7 1f 3d
       -0.009697354 -0.05153612 0.123867996 0.03902372
0001a0 89 21 41 bd d9 b6 cd 3d 8c 78 60 3d 01 ec 30 bd
       -0.047151122 0.10044641 0.054802462 -0.04319382
0001b0 96 32 41 bd 61 2a dc 3d c4 af 41 3d 8c b1 3b bc
       -0.047167383 0.10750271 0.047286764 -0.011455905
0001c0 3d 7d 77 bd de e1 af 3c 3d 80 f8 39 42 9e 2f bd
       -0.06042217 0.021470007 0.0004739779 -0.042875536
0001d0 10 50 58 3c 12 eb fd bc 46 d0 b3 3c 57 cc 20 bd
       0.013202682 -0.03099588 0.021949898 -0.039257374
0001e0 ac 4d b2 3a d9 2b 41 3d ad 08 aa bb 0a 0e 34 3d
       0.001360347 0.047160957 -0.0051890225 0.0439587
0001f0 59 21 99 bc e0 7e 9b bc 25 af 0b bd 36 b6 7e bd
       -0.01869266 -0.018981397 -0.034102578 -0.06218549
000200 d8 68 95 3d 9c 04 76 3d 07 dc 06 3c 0d b8 a9 3d
       0.07295388 0.06006299 0.00823117 0.08287058
000210 a4 05 15 bd 7a 79 bd 3c c8 d1 b4 3d 2c 41 4c bd
       -0.036382332 0.023129214 0.08829075 -0.04986684
000220 7a 77 83 bd e9 b4 8e 3c d8 6f 2d be 2f d9 df 3c
       -0.06419273 0.017420249 -0.16937196 0.02732524
000230 b0 b0 11 bd c7 29 85 3d 6d 84 c4 3c ce 47 06 3d
       -0.035568893 0.06502109 0.023988927 0.032783322
000240 da 8a 73 bc 5f 2b 82 3d 86 65 8d 3d 92 88 31 be
       -0.014864648 0.06355929 0.0690413 -0.17337254
000250 e2 10 0b 3d 91 e2 2b bd 4b 5e 5b bc d9 6d c7 3c
       0.033951648 -0.041964117 -0.01338918 0.024344372
000260 51 c0 f9 3e c3 45 a3 3c 31 c4 a9 bc 2d 0d a5 3d
       0.48779538 0.019930726 -0.020723434 0.08059154
000270 4d 92 f2 3b b6 84 47 bc 33 37 92 3d 49 c9 73 3d
       0.0074026943 -0.012177637 0.07139435 0.059518132
000280 c0 86 95 3c 2d 49 6b bd 0e c7 61 40 ee 56 ec bc
       0.01825273 -0.057442833 3.5277743 -0.028850045
000290 43 bc 04 bd f1 cd 98 bc 9c 14 46 bd 33 ff 38 38
       -0.032406103 -0.018652888 -0.0483595 4.410669e-05
0002a0 a1 8f 52 3c 91 ee 54 bd d7 d1 14 bd 6c 0e 1b bd
       0.012851627 -0.051985327 -0.03633293 -0.03785555
0002b0 7d 89 a9 bd cd ee 84 bd cd de 4e 3d 76 f4 98 bc
       -0.08278177 -0.0649086 0.050505448 -0.018671256
0002c0 b6 97 a4 bc dd 6d 8c bd c6 9f 6c 3d 56 78 0e bd
       -0.020091873 -0.06856892 0.05776956 -0.03478273
0002d0 b4 8a a2 bc 5f 64 94 3d 93 f0 cf bc 99 d9 a4 bd
       -0.01984153 0.07245707 -0.02538327 -0.08049316
0002e0 93 97 0c bd 56 d6 8d bd b0 02 8b 3c 80 af 84 3d
       -0.03432424 -0.06925647 0.016969055 0.064787865
0002f0 c2 0f c5 bc 64 1b 90 3d 3b c0 52 3d e1 be 52 bd
       -0.024055365 0.07036474 0.051452857 -0.051451568
000300 93 14 8b 3d 00 24 4a bd 21 d6 00 3d b0 91 2b bc
       0.067910336 -0.04935074 0.03145421 -0.010471746
000310 a9 45 37 3c db 97 aa bd c2 09 cd 3c c3 f9 7d 3d
       0.011186042 -0.083297454 0.025029067 0.06200577
000320 fc f6 93 bd 4b 53 57 3d 6a 88 4d 3d 75 c7 9a bc
       -0.07224843 0.05256967 0.050178923 -0.018893937
000330 be 59 8d 3d 2a 56 83 bc 36 55 6c bc 97 ed fe 3b
       0.069018826 -0.016032297 -0.014424613 0.0077797878
000340 d7 9c 89 3d 2d 9d e2 bc 4e 07 6f bc 0b 7e 82 3c
       0.06719368 -0.027662838 -0.014589144 0.015929243
000350 c5 ee 89 3d 87 36 00 bd c9 90 8c bc e2 d8 1f bc
       0.06734995 -0.031302 -0.017158883 -0.009756299
000360 76 11 0c 3d a4 8a 14 bd ae b8 43 3d c1 2b 53 3d
       0.03419634 -0.03626503 0.047783546 0.0515554
000370 a6 7d cf bc 95 25 58 bd f6 1f 80 bd c9 53 4b 3d
       -0.025328469 -0.052770216 -0.06256096 0.04964045
000380 f5 f9 24 3d b2 a5 29 bd 63 d9 d7 bb 58 23 48 3d
       0.04027744 -0.041417785 -0.006587194 0.04886183
000390 cf b1 51 3d da 15 5a 3d 58 90 cc ba 2a de 2f bd
       0.051194962 0.053243496 -0.0015606983 -0.04293648
0003a0 a1 0e 3f 3d b0 c7 97 bd 43 c4 b7 3c cf 65 07 3d
       0.04664481 -0.07411134 0.022432452 0.033056077
0003b0 02 e9 35 3c e6 fe 7f 3d 0b 9b 80 bd 4d 2b ef bc
       0.011102917 0.06249895 -0.06279572 -0.029195452
0003c0 37 89 61 3d 32 f4 73 3d 86 fb 85 3d 36 f3 7c 3c
       0.0550625 0.059559055 0.06542115 0.015438845
0003d0 8b 8b d2 bc 7b c4 05 bd 79 15 1d bd 51 e4 27 bd
       -0.025701305 -0.03265808 -0.038350556 -0.040989224
0003e0 b9 c6 80 3d 1a 86 68 3d 8a 64 63 bd 89 4c 4a 3d
       0.06287903 0.056768514 -0.055515803 0.049389396
0003f0 c5 17 73 bd 07 90 8c bc 8c a8 2f bd 02 71 26 3c
       -0.05934884 -0.017158521 -0.04288535 0.010158779

model.net.layers.4.bias f4 [2]
000000 8a 67 2b 3d cc 25 3d bd
       0.04184679 -0.046178624

exp_avg f4 [128, 1]
000000 00 00 00 00 5c 71 41 3c 00 00 00 00 98 94 12 bc
       0.0 0.011806812 0.0 -0.00894656
000010 2e 53 97 3c 9d 0b 97 bc 32 b0 a4 36 48 af 97 3b
       0.01847228 -0.018438155 4.9080927e-06 0.0046290495
000020 00 00 00 00 00 00 00 00 1d ab 65 bc 00 00 00 00
       0.0 0.0 -0.014017847 0.0
000030 00 00 00 00 21 67 a1 bb 00 00 00 00 06 4d ae bb
       0.0 -0.004925624 0.0 -0.0053192405
000040 60 78 e1 bb 00 00 00 00 b3 18 ad 3c 00 00 00 00
       -0.006880805 0.0 0.021129942 0.0
000050 00 00 00 00 27 2d a8 3c 1a 89 82 b6 58 39 8f bb
       0.0 0.020529343 -3.8902626e-06 -0.0043708496
000060 d4 4f 44 bc 24 fe 32 39 aa ac e6 3b ab 40 54 3c
       -0.011981923 0.00017070078 0.007039626 0.012954871
000070 d9 e0 aa 3c 00 00 00 00 60 85 d3 bc 52 4d 0b bb
       0.020859169 0.0 -0.025820434 -0.0021255803
000080 c7 12 c2 3b 00 00 00 00 8a cb ce bc 00 00 00 00
       0.0059226486 0.0 -0.02524354 0.0
000090 df 8f cf bc 00 00 00 00 0f 7b 51 3c 00 00 00 00
       -0.025337158 0.0 0.012785687 0.0
0000a0 00 00 00 00 38 2c bd 37 5b b5 39 3c 6f 36 a4 3c
       0.0 2.2551147e-05 0.011334742 0.020045487
0000b0 00 00 00 00 a0 70 84 3b 00 00 00 00 00 00 00 00
       0.0 0.0040417463 0.0 0.0
0000c0 1b fe fe 3a 00 00 00 00 00 00 00 00 72 5c 20 ba
       0.0019454391 0.0 0.0 -0.0006117291
0000d0 00 00 00 00 83 a8 34 3c f0 65 c2 bb 58 66 72 b7
       0.0 0.011026504 -0.005932562 -1.4448153e-05
0000e0 00 00 00 00 00 00 00 00 3d 95 3d bc 06 aa b1 3c
       0.0 0.0 -0.011571226 0.021687519
0000f0 00 00 00 00 e9 78 42 3c 00 00 00 00 18 0b 91 bb
       0.0 0.011869648 0.0 -0.0044263713
000100 7a 5c 1c bc 00 00 00 00 fc 4c 1a b7 46 65 ae 3b
       -0.0095435325 0.0 -9.19704e-06 0.0053221313
000110 a3 65 cb 3c 5a 2b 5d 3c ce be 23 ba 00 00 00 00
       0.024828738 0.013499105 -0.00062463887 0.0
000120 00 00 00 00 43 74 08 b8 88 13 62 3b 95 31 14 3c
       0.0 -3.2533204e-05 0.0034496505 0.009045024
000130 fc 4f 91 bc 84 50 93 bb 14 62 77 37 da 23 9f bc
       -0.017738335 -0.004495682 1.4745183e-05 -0.019426275
000140 7a a4 48 bc c8 08 84 bb 42 fc a3 bc 31 9f 38 bc
       -0.0122462455 -0.004029367 -0.020017747 -0.011268423
000150 1e fa 82 bb 00 00 00 00 00 00 00 00 00 00 00 00
       -0.0039971014 0.0 0.0 0.0
000160 75 8d 80 3c 00 00 00 00 00 00 00 00 da b2 c2 39
       0.015692452 0.0 0.0 0.00037135818
000170 00 00 00 00 e1 61 d5 3b b6 8c ef 3c 75 8d 26 3a
       0.0 0.006511912 0.0292419 0.0006353476
000180 e0 97 03 39 00 00 00 00 e7 0d 5f 3c bf 6d 1c bc
       0.00012549711 0.0 0.013614154 -0.00954765
000190 c4 8e bb bc 72 60 5b bb d5 3a a6 bc 8f fd 34 38
       -0.022895224 -0.0033474234 -0.020291725 4.315149e-05
0001a0 41 d0 90 3c e5 39 c8 bb 37 67 d5 3c 00 00 00 00
       0.017677428 -0.006110417 0.026050193 0.0
0001b0 20 b6 dd 3a 86 9f 93 3c 8e f4 a5 37 e0 e1 b1 bb
       0.0016915239 0.018020403 1.9783412e-05 -0.0054285377
0001c0 00 00 00 00 41 05 92 3c 00 00 00 00 bd 8d 17 38
       0.0 0.01782477 0.0 3.613321e-05
0001d0 d6 b1 ee bc 69 70 90 b9 24 41 8e bc 94 0c a6 37
       -0.029137533 -0.00027549572 -0.017365046 1.97946e-05
0001e0 82 b0 ba 3b 96 f8 62 bc 3d 39 4a 3c 2a a7 3f 3b
       0.005697311 -0.013853213 0.012342748 0.0029243925
0001f0 aa c4 92 bc 00 00 00 00 00 00 00 00 00 00 00 00
       -0.017916042 0.0 0.0 0.0
