docs/smld/lightning_logs/version_66/checkpoints/epoch=49-step=4900.ckpt (torch, 617307 bytes, 30 tensors)

t_embed.0.weight f4 [128, 1]
00000000: 325e 04be 7bad dbbe 8a41 f8bd 19fc 38bd
00000010: e4d9 893f 34eb f9bd 8bfa 3c3f 18f6 afbd
00000020: 0709 6c3e f1da 99be 1d72 89bf 5960 e6bd
00000030: f8b1 dd3e 2273 49bd 4f23 aabe 9255 e93e
00000040: 31e6 013f 3cc8 bb3d bcc0 1e3d e3d1 133f
00000050: 677b 693f 020c 3cbc 2cb4 00be 1de4 32be
00000060: 0553 353f 62da 66bf baa7 5b3f 67e9 fd3e
00000070: c352 583e ff77 53bf 505d 2ebf babb db3e
00000080: e358 673f 06fc c6be 3523 88be ca6e d63e
00000090: 3172 08bf 4bb0 e2be bc51 07bf 644b 903e
000000a0: f0a4 95bf 4d93 7e3e a820 61be ad9b 003e
000000b0: 7dd0 1fbf ac11 ea3e 3387 d23e 88a3 62bf
000000c0: a77e 0b3f 6cd1 87bd f528 443f 5707 6e3d
000000d0: 035a 513f 1a4f 163f d862 1dbd e878 06bf
000000e0: 288a 27bf ef76 443f ebab 0a3f 24b9 983e
000000f0: 81ca 19bf 9eee 9abf dc4f 5c3f 2aa9 583f
00000100: 921c b4bd 3239 9bbf bbac 6c3f 0f1a 443f
00000110: 950f 62bf 0ea7 903f 69f2 b4be feb8 a73e
00000120: 3327 b43e a79f be3e 5336 2fbf 9815 4d3d
00000130: d43a 893f 69e3 083f 45d7 7a3f a7c1 12bf
00000140: a9b7 68bf 2d75 0fbf 866f 853e eb4e 073f
00000150: d0e5 f6be 5b7a 253f 359d 75bf 34b4 123e
00000160: fdfb 92be 70c1 66bf a0a2 343f 2077 94bf
00000170: 52c8 81bf 6a05 7fbe 446e 713f 954a 9d3e
00000180: 0e70 f33e e7b4 2a3f 8ef7 9abe 1aaa 083f
00000190: 6271 61bf 7697 44be bdb9 83be 30b1 19bd
000001a0: 867d 563f b6b4 73be 9112 193f bada e43e
000001b0: 399c 1c3f 4342 813e 59b2 a3be 3831 6e3f
000001c0: 7ecc 4d3e 8625 363f c9df 18bf 7b1e ec3e
000001d0: 1efc 09bb d8eb 263f df93 ebbc 68ad a7be
000001e0: 2bca de3e e0fc 2cbe 9be1 a93e 5147 353f
000001f0: 1b19 78bd ba30 003d 9b50 30bf d444 f33e
-0.12926558 -0.42905793 -0.121218756 -0.045162294 1.076962 -0.122030646 0.738198 -0.085918605
0.23050319 -0.30049852 -1.073795 -0.112488456 0.43299842 -0.049182065 -0.33230063 0.45573097
0.5074187 0.09169051 0.038758025 0.57742137 0.9120392 -0.011477472 -0.1256873 -0.17469831
0.708298 -0.90176976 0.85802805 0.49592134 0.21125321 -0.82604975 -0.68111134 0.42916662
0.90370005 -0.38864154 -0.2658936 0.418814 -0.5329924 -0.44275126 -0.5285909 0.28182518
-1.169096 0.24860878 -0.21985114 0.12559386 -0.624275 0.45716608 0.41118774 -0.8853078
0.5449013 -0.06631741 0.76624995 0.05811247 0.8177797 0.5871445 -0.038424343 -0.5252824
-0.65445185 0.7674398 0.54168576 0.2982875 -0.6007462 -1.210407 0.86059356 0.84633124
-0.08794512 -1.212683 0.92451066 0.7660226 -0.88305026 1.1300981 -0.35341194 0.32758325
0.35186157 0.3723118 -0.6844227 0.05006942 1.0721078 0.53472 0.97984725 -0.5732674
-0.90905243 -0.5603817 0.26061648 0.52854794 -0.48222208 0.64639825 -0.95943004 0.14326555
-0.28707877 -0.9013891 0.70560646 -1.1598854 -1.0139258 -0.24904409 0.94308877 0.30720964
0.47546428 0.66682285 -0.30266994 0.53384554 -0.88063633 -0.19198403 -0.25727645 -0.037522495
0.83785284 -0.23799405 0.59793955 0.44698125 0.61175877 0.25245866 -0.31972006 0.9304385
0.20097539 0.71151006 -0.5971647 0.46117005 -0.0021054815 0.6520362 -0.028757034 -0.32749486
0.43513617 -0.16893339 0.33179936 0.70811945 -0.060570817 0.03129647 -0.68872994 0.4751345

t_embed.0.bias f4 [128]
00000000: 6c98 fe3e 5531 1a3f d4c1 8e3e 0734 dfbc
00000010: eecd 44bf 924c af3e fb68 62bf 3375 ef3e
00000020: d762 bb3d a8e3 8bbe d332 573f e1cb ef3d
00000030: d571 2fbf 297b 523f 5372 173d a1d8 fc3e
00000040: b453 203d 393b aebe 3eac 88be 9736 42bf
00000050: 02aa 193f 154e 2c3e 5f7e 21bf b9d8 063f
00000060: cf47 d63e 761c 19bf 4ecb 1a3f c421 afbd
00000070: 12c6 adbd 2f3d 04be 2325 31be a5b0 4c3e
00000080: f5f8 cabe 738d 593f 6743 75be e227 343f
00000090: 15d9 613f 7427 dabc edd3 02bf d819 303f
000000a0: 0e98 4d3f 9217 17bf 157e c63e 5e34 433f
000000b0: d68d 2dbf a0d1 0f3f b453 253f fd8c 06bf
000000c0: 6f2b 903e c7d5 1b3f 44d3 3fbf 6838 c6bd
000000d0: fc4d 613f 5ba6 62bf 8f3a be3a f80d adbc
000000e0: e2c6 423f af7b e9be eca9 af3d ce34 9cbe
000000f0: 4458 5bbd c20b 5b3f b918 cc3e e129 8a3e
00000100: 0bb9 12bb 990a 68bf 9c4e e2be f5d4 023f
00000110: 8ec1 9bbe b975 7ebf 208c 193f 5365 783e
00000120: dd52 703e a57f 073f 9203 b73e e832 38bf
00000130: 9db9 6bbf 08f9 abbe 6840 41bf 1a92 463f
00000140: 82c1 08bf 7956 4c3f 304e 153f c3e8 de3e
00000150: 2a2b 68bf 62a4 053f 887e 523f 76da 1d3f
00000160: 3683 74bf 143d 0fbf 528b 313f cea0 673f
00000170: 427b 073f ec6d 433f 2e6e 49bf 436a cdbe
00000180: 0541 063f 319e 3f3f ec02 4d3f 08e7 253f
00000190: 58d3 17bf 5f2d 303f f9c6 2b3f c955 6a3f
000001a0: e6ea 613f 8221 e83e 5043 ea3e a452 1b3e
000001b0: 7ff6 b43e 2269 a9be 6fc0 453f 0d8c 05bf
000001c0: 330a 3a3c fd02 1b3f b7aa 57be cf5f 83be
000001d0: 709d fabe bf12 2cbf 7019 32bd d41b 7dbd
000001e0: d3e5 35bf b164 1f3f 574a dc3d eece adbe
000001f0: 6b26 d53e c2f7 513e e887 3dbf bb92 233f
0.49725664 0.60231525 0.27882254 -0.027246488 -0.76876724 0.34238106 -0.8844144 0.46769103
0.091497116 -0.27322125 0.84061927 0.11708809 -0.6853307 0.8221918 0.036974262 0.49384025
0.039142326 -0.34029558 -0.2669391 -0.7586455 0.60025036 0.16826661 -0.6308345 0.5267444
0.4185166 -0.5980905 0.6046647 -0.08551362 -0.084850445 -0.12913965 -0.17299323 0.1998926
-0.39643064 0.8498146 -0.23951493 0.70373356 0.88221866 -0.02663014 -0.51104623 0.68789434
0.8031014 -0.5902034 0.38768068 0.7625178 -0.6779455 0.5617924 0.64580846 -0.5255888
0.28158137 0.60873073 -0.7493174 -0.096787274 0.8800962 -0.8853509 0.0014513301 -0.021124825
0.7608472 -0.45602176 0.08577332 -0.30509037 -0.053550974 0.85564816 0.39862612 0.26985076
-0.0022388126 -0.9064117 -0.442006 0.51106197 -0.30421108 -0.9939838 0.5997944 0.24257402
0.2346911 0.52929145 0.3574491 -0.71952677 -0.920801 -0.33588433 -0.754889 0.77566683
-0.5342027 0.79819447 0.5832243 0.43536958 -0.90690863 0.52203953 0.8222432 0.6166147
-0.9551271 -0.5595257 0.6935321 0.90479743 0.5292245 0.763396 -0.78683746 -0.40120134
0.5244296 0.74850756 0.80082583 0.6480565 -0.5930686 0.6881923 0.67100483 0.9153715
0.8824905 0.45338064 0.4575448 0.15168244 0.35344312 -0.33088022 0.77246755 -0.52166826
0.011354971 0.60551435 -0.21061216 -0.25659034 -0.4894824 -0.67216104 -0.04348129 -0.061794117
-0.7105381 0.6226302 0.10756367 -0.33946937 0.41630873 0.20504668 -0.740355 0.6389577

t_embed.2.weight f4 [128, 128]
00000000: 734a 973d 3fe5 a7bc 8c43 893d 4a9b b7bc
00000010: 8d4f fcbd d60b cb3c 9a42 08be ad82 6ebd
00000020: 7ffa 99bd 88f9 c1bd b9a2 adbd 8c9d 42bd
00000030: 4efc 8dbd c529 1bbc 6727 48bd a204 20bd
00000040: 3fed 873d 8299 bfbd ec58 9c3b 2631 4abe
00000050: e309 f03d 90cf bc3d e4d3 17bc 33af 5bbd
00000060: 2db4 d4bc 27b6 ed3d 00c0 f7bc c0db bebd
00000070: d97d 64bd 8ea1 173e e70c adbc 3657 61bd
00000080: 6710 94bd e080 9a3c 0210 04bc 1659 87bd
00000090: 393d 32bd a404 8abd 72b6 79bd 235e 9ebc
000000a0: b0fa 08be 7944 98bb efd2 20bd 6e50 883d
000000b0: 5752 b0bc c812 84bd b578 6abd 6c8e d53d
000000c0: f088 943d 0c81 b03d 7183 11be c93f 96bd
000000d0: b47c 0cbd 29e0 1ebe 7046 8dbd f0e5 4abd
000000e0: a019 033d ecfb 83bc b753 7bbd 9270 3ebc
000000f0: b8c3 80bd fbe4 54be 900f 843d 5306 803d
00000100: dc52 d0bc 1753 c33e 3a25 e3bd e115 7bba
00000110: 84e0 163e 25ae 0ebe e671 1dbd c94d cabb
00000120: 65f5 a53c 81e5 6fbd d827 ec3c 3be7 1abd
00000130: 4f02 4ebe f9f1 963c 3a61 21be ab6c 50bd
00000140: bd82 663e 60ca 2a3d 7c01 103d 4e46 0c3d
00000150: 0611 39bd ac1e cb3d a38b 1ebe 4f36 f4bc
00000160: 243e d53c cbdf f93d 3e2f a83c c20b f1bd
00000170: fda6 eabd 182a 513d 917c b1bd eec8 a1bd
00000180: e8b1 9b3c 9fee 1ebc 1013 833d 2363 bc3b
00000190: 6bf6 3e3e 761b 383c cdc3 5d3d 0fc4 053d
000001a0: 1d88 5f3d 5a87 21bd d80d bd3d 572a febc
000001b0: d747 9d3d 441a c5bd 1e4b 38bd 25ca a0bd
000001c0: 82aa 9abd 7ce2 9e3d 2326 0f3c 679f c4bc
000001d0: 31b8 133d 0427 b8bd 5f49 0aba 5733 393d
000001e0: 2e2b 13bc 0eae 3b3d 5cb4 b33d 51cf 8d3c
000001f0: 293d b43d 7d4f 0dbd cfd8 1e3d 1756 003d
00000200: 0be3 a43d 660c 863d 4d00 a33d 8570 45bd
00000210: 2f24 fe3d 5e83 98bd 49cf 3f3e a0d8 1cbb
00000220: b1cb c13d 2694 efbd 19ca ba3d 6003 6e3d
00000230: 48fd cd3c 04e4 39bd 23d2 3f3d 16e4 7e3c
00000240: d03b 043e 18e0 32bd ee65 61bd 7f9f c83d
00000250: f5c4 7d3d 82bf 723d 0a67 abbd 6a82 3f3d
00000260: 8738 213c a1d3 06bd 4747 da3a 1d7f 743d
00000270: 67ec 6abc 72ab 683d edbb 343d 6166 b23d
00000280: 2d75 cc3d 2404 9d3d 0ee8 893c 2ba4 a7bc
00000290: 20b5 013c 146e f7bc a365 02bc b5d1 b23d
000002a0: 6018 39bc 97d9 5bbd 0741 73bd a5e9 a93d
000002b0: 1b02 72bb 8bfb 713d de6f ef3d 91ae 32bd
000002c0: 35bc ee3d f387 573c e6e0 1c3e 021f 81bd
000002d0: 81aa aa3d 4524 a83d 527a b9bc d878 653c
000002e0: e954 24bb 02be 233e 36f5 bbbc 30e1 a53d
000002f0: ea18 673c 2090 013e 34ad 393d 1f6c 873d
00000300: 5e9c 81bd 102c 00be 4783 fc3d e980 1fbc
00000310: 0c9d 693b b258 463e beff a8bd d7b5 dd3d
00000320: 3399 a0bc 8e65 313d 13c5 30bd 8c29 ddbd
00000330: 0998 583d d9b1 993b 32a8 a73d 712a 9a3d
00000340: 0264 53bb 98bf e63d baa0 13bd ee18 973c
00000350: 3e22 ddbd d484 083e 9b93 883d de4f df3d
00000360: eddf 40bd 53fd 81bd 71da 323d fc0d d33d
00000370: b010 dc3d f6f7 ee3c 399d a93d 9b0b 323e
00000380: 5c9e f33d 6ff7 e53d ea22 59bc 860a 733d
00000390: a55c 7cbd 0e3f ca3d a76f 15bc 2b88 14bd
000003a0: 6c31 043e 898e 39bd 251f 083e d94c cf3d
000003b0: 3ba0 ab3d cf94 5f3d 5c33 a0bc 77da ab3d
000003c0: e828 79bc c955 f73d 98c5 f23a 5b57 8c3d
000003d0: befe 89bd 3756 773d 2315 b2bc ac5e 92bd
000003e0: f5fb 143d 16ed 3dbd 0fc8 1f3d 547f 0d3e
000003f0: 58dc da3d 92ef 9d3c 6947 88bd 6260 d43c
0.07387247 -0.020495055 0.06702337 -0.022412915 -0.123198606 0.024785917 -0.13306656 -0.05823009
-0.075184815 -0.094714224 -0.084783025 -0.04751353 -0.06932889 -0.009470408 -0.048865702 -0.03906692
0.06637048 -0.09355451 0.0047713425 -0.19745311 0.11720636 0.09219277 -0.009266827 -0.05363388
-0.02596482 0.116070084 -0.03024292 -0.09319258 -0.05578408 0.14807722 -0.021124316 -0.05501481
-0.07229691 0.01886028 -0.008060457 -0.06608789 -0.043515418 -0.067391664 -0.06096501 -0.019331997
-0.1337688 -0.0046468345 -0.039263662 0.06655966 -0.021523638 -0.06448895 -0.05724402 0.104275554
0.07252681 0.08618364 -0.14210297 -0.07336385 -0.034298614 -0.15515198 -0.068982005 -0.04953569
0.03200686 -0.016111337 -0.061359134 -0.011623519 -0.062873304 -0.20790474 0.06448281 0.06251206
-0.025430135 0.3814933 -0.11091085 -0.00095781503 0.14734083 -0.13933618 -0.0384387 -0.0061738235
0.020258615 -0.05856848 0.028827593 -0.037818175 -0.20118068 0.018425928 -0.15759745 -0.050884884
0.2251081 0.041696906 0.035157666 0.034246735 -0.04518225 0.099179596 -0.15482955 -0.029811053
0.026030608 0.12200888 0.02053034 -0.11769821 -0.11457632 0.051065534 -0.08666337 -0.078996524
0.01900573 -0.009700446 0.0640012 0.0057491227 0.18648688 0.011237016 0.05414181 0.03265768
0.054573167 -0.039435722 0.09231156 -0.031026049 0.07679718 -0.096241504 -0.044993512 -0.07851056
-0.07552053 0.07758042 0.00873712 -0.02400179 0.03606433 -0.08991817 -0.00052752154 0.045214977
-0.008982463 0.04582029 0.08774635 0.01731077 0.08800728 -0.034499634 0.038780984 0.0313321
0.080511175 0.065453336 0.07959042 -0.04820301 0.12409245 -0.07446931 0.18731417 -0.002393283
0.09462679 -0.11698179 0.09120578 0.058108687 0.025145188 -0.04538347 0.04683126 0.01555731
0.12913442 -0.043670744 -0.05502885 0.097960465 0.06195541 0.059264667 -0.083692625 0.046755232
0.009840137 -0.03291667 0.0016653322 0.059691537 -0.014338589 0.056804128 0.044124532 0.087109335
0.09983287 0.076668054 0.016834285 -0.020464024 0.007916719 -0.030203857 -0.007958802 0.08731405
-0.011297315 -0.053674307 -0.059388187 0.08296517 -0.0036927524 0.05907778 0.11691259 -0.04362351
0.116569914 0.013154971 0.15320167 -0.063047424 0.08333302 0.08210043 -0.022641335 0.014005862
-0.0025075024 0.15990451 -0.022944074 0.08099592 0.014105061 0.12652636 0.045331195 0.06612419
-0.06328653 -0.12516809 0.12329727 -0.009735324 0.0035646586 0.19369772 -0.08251904 0.10825699
-0.019604301 0.04330974 -0.043156695 -0.1079894 0.052879367 0.0046903905 0.081863776 0.07527626
-0.0032255654 0.11267012 -0.036041953 0.018444505 -0.10797547 0.1333192 0.066687785 0.10903905
-0.047088552 -0.06347146 0.043665353 0.10305402 0.107453704 0.029170971 0.08281941 0.1738724
0.11895439 0.11228835 -0.013252953 0.059336208 -0.06161179 0.09875308 -0.009120858 -0.036262672
0.12909478 -0.045301948 0.1329313 0.101220794 0.08380171 0.054585274 -0.01955574 0.08391278
-0.015207507 0.12076909 0.0018522022 0.06852599 -0.06738041 0.060384955 -0.021738594 -0.071469635
0.036373097 -0.04636868 0.03900915 0.13818103 0.106865585 0.019279275 -0.066542454 0.025924865

t_embed.2.bias f4 [128]
00000000: e89f d33c ad17 233c 300d 3d3c b311 ad3c
00000010: e8b9 adbb 00ac 2ebd fef1 3d3d ec48 21bc
00000020: 215a b13d bd93 1d3d 5e89 b13d 5fca 9d3c
00000030: c16a 74bd 1638 1abc 8d4b 303d 0d4f 823d
00000040: 286f 263d 012b 153c cab2 8b3d f765 12bc
00000050: 9b3c 303c 6495 95bd 0110 1cbd 0a0f 003c
00000060: 5fb3 0a3d f6ac 26bd 0bba 83bc 131e 233c
00000070: 67f3 ce3d ba25 fc3b d205 a9bb 52bd 20bd
00000080: f61a 46bc 5e34 1bbd a642 8bbc e64f a73d
00000090: e146 68bd 87b0 3ebd c40d 13bc 2f5a 82bc
000000a0: d7f5 f73c ac09 9f3d fe8a 103d 52f7 ad3d
000000b0: 45aa 3ebc ede2 3fbc 8b29 60bd 91c1 963c
000000c0: 4d4b 1bbd 9d24 aa3d e9dc f8bc 9225 713d
000000d0: 03ab 9abd d78a a5bd 4a17 813c 1cad 97bd
000000e0: 44bb 833d 7ad3 0dbc 4bff 0ebe c176 83bd
000000f0: 2068 953d e463 9bbd 0d41 aa3d a5e1 823d
00000100: fab1 41bd 0e60 a7bb 0a5c 043e cba7 80bd
00000110: cc12 003c 3f89 3ebd 175c a43c b289 eb3c
00000120: 7f80 ae3c 603f 4abd 9011 25bd a4ce b0bd
00000130: 0afb e13d c51c a7bd 664f b1bd 95a7 6d3c
00000140: 7386 a5bb 0e31 633d 1c8b 02be 6683 47bd
00000150: e710 5ebd c959 70bd 8870 bc3d aa99 85bb
00000160: 26ce 10be 1a40 893d 70ee 133b 0062 bd3d
00000170: 84bc 6cbd d06e bebd eff4 383d b2c5 a33d
00000180: d570 9ebd 85e0 e9bc 215d 6fbd e89d 51bb
00000190: 0ce3 b53c 81cc af3d 9946 c53d fd6c 4f3d
000001a0: 3e7f 4abd 48a4 13bb 0da0 cd3c 0c15 6c3d
000001b0: 7a5c 0d3c e450 78bd 7dd2 60bd fcfa 4b3d
000001c0: cd12 f2bc 2127 94bd 1726 1bbd 814c 3b3d
000001d0: d64a 913d d008 1e3d 6d90 a43d 2bb6 a33d
000001e0: 2a96 54bc 8934 a23b 1768 a23d 7a17 95bc
000001f0: 5d74 3bbd 876f 423d ced7 723d ade6 73bd
0.025833085 0.009954375 0.011538789 0.021126604 -0.005301703 -0.0426445 0.04637336 -0.009844046
0.08659769 0.038470972 0.08668779 0.019261537 -0.05967212 -0.009412786 0.0430408 0.06362734
0.04063335 0.009104491 0.06821211 -0.008935443 0.010756637 -0.073038846 -0.0381012 0.007816086
0.033862468 -0.040692292 -0.016079923 0.009955901 0.10105019 0.007694927 -0.0051581645 -0.03924305
-0.012091389 -0.037891738 -0.016999554 0.08169536 -0.05670822 -0.04655507 -0.00897545 -0.015912144
0.030268593 0.07765517 0.035288803 0.08494438 -0.011637275 -0.011711818 -0.05472712 0.018402847
-0.03791361 0.08307765 -0.030378776 0.05887372 -0.07552149 -0.08083122 0.015758175 -0.07406065
0.064322025 -0.008656377 -0.13964574 -0.06419135 0.07295251 -0.07587412 0.08313189 0.063906945
-0.047288872 -0.005107886 0.12925735 -0.06282004 0.0078169815 -0.046517607 0.020063443 0.028752182
0.021301506 -0.049376845 -0.040299952 -0.086331636 0.1103421 -0.08159784 -0.08657722 0.014505287
-0.005051428 0.055466704 -0.12748379 -0.048709296 -0.054215338 -0.058679376 0.09201151 -0.004077156
-0.1414114 0.067016795 0.002257254 0.09247208 -0.05779697 -0.092984796 0.045155462 0.07996692
-0.07736365 -0.028549442 -0.058438424 -0.0031984989 0.022202991 0.08583928 0.09632606 0.05064105
-0.049437754 -0.002252834 0.025100732 0.05763726 0.008628005 -0.06062402 -0.054888237 0.049799904
-0.02954998 -0.07234026 -0.037878122 0.045727257 0.07094352 0.038582623 0.080353595 0.0799373
-0.012975255 0.0049501103 0.0793001 -0.018199671 -0.04576527 0.047469642 0.05928784 -0.05954616

ms.0.weight f4 [128, 130]
00000000: 6937 27bc 90f0 d53e 80e0 90bd e9e5 0cbe
00000010: f646 f03d 48da 523c f64b 7b3b 6a63 283a
00000020: 4c0f 133e 17fe be3d 2b02 f23c 5bd0 1b3d
00000030: ff0d 213b 89dc 863d 0cb1 ac3d c9ca 633c
00000040: 3bda e2bd 8800 bfbd d141 c5bd e411 323d
00000050: b473 263e b66d 433c 4ec5 f0bd c338 5c3d
00000060: 18b8 623d 94c9 973d ff55 f8bd 7027 de3c
00000070: 375f 163e 1d64 883c 8e0d 0ebe bc44 803c
00000080: de23 85bd 5839 0cbd b271 013c 3e7f 89bd
00000090: 2d61 27bd 3bd5 c8ba bd2a 8bbd 8537 adbd
000000a0: 09e6 d43d f749 8c3d 305b 533d 9791 333c
000000b0: 3c33 2ebd 15d6 11bd a542 9dbc 5dbc bfbd
000000c0: f00a 82bd 19b3 48bc 4e21 efbc fe29 70bd
000000d0: 7a66 8bbd 1c4d 7bbd 6aee 0ebe 5dea fcbc
000000e0: 93c1 5ebc e89f 7f3d 9e06 5b3d ae84 7bbd
000000f0: b1df 8fbd a734 86bd 228f b1bd 4ecb 463c
00000100: dd5e dbbd d178 d73d d3de 3c3b 4669 b3bc
00000110: 6da0 98bd b733 773d c461 993c b843 b6bd
00000120: c763 223d 3ebc 183d 7e77 04be 12ec c9ba
00000130: ff81 0fb9 5ccb d73c baba 003c 7e40 65bd
00000140: 927f 99bd 8a28 fd3c 915c 97bd 6ba5 0bbd
00000150: 0562 003e d4a8 fd3d dc20 9ebb a0c8 b3bc
00000160: 2bf2 3abc c056 b939 a23d 443d 690d 91bc
00000170: 1fbe 4a3d 512a dfbd 16bb 0cbd f838 903c
00000180: b100 c3bd b087 103c 34d0 32bd 8df9 babc
00000190: 9b59 60bc 80f7 8dbc 8634 cb3d 6f7a 1bbe
000001a0: 67b6 abbd 6627 dfbc 5964 893d 07f3 aebd
000001b0: 7037 eb3d 6531 493d e248 a73d 9e6f 3a3d
000001c0: 8360 593b bf6b 0d3d bcc8 673c b5ea 5c3d
000001d0: 034a 403d c71c 0a3e 588c ac3d b7c2 f6bb
000001e0: b9f6 393a f4c2 57bc fa66 f7bd fcbe 36bd
000001f0: 976d 9dbd 481e 0c3e 796c ea3c 759d 733c
00000200: ec89 11bd bec7 c93d 43c4 b23d 9a21 b63d
00000210: 41f2 513d a7d5 c6bb 35fb 2e3c 57e7 1abe
00000220: 6a9b 40bd 79ea bdbd 39a1 f73c cda1 513c
00000230: 9042 813d 60cf acbd 1cb1 2ebc 7b9d c9bd
00000240: 539b 903d 0683 e63d 8243 9abd 246d 8bbd
00000250: c5fc 0c3d ab24 7abd 7310 803d ae61 2dbe
00000260: 4d93 02bc 19b6 ccbd 5ed5 5a3d 20bc cbbd
00000270: c9a4 90bd 695e 1f3e 91fa 943d 3b63 503d
00000280: b50d c7bd 35a7 90bd 5518 6b3d a5fb 923d
00000290: c3f5 183d aa08 463d 6262 523c 27ac 94bd
000002a0: 6d53 113e 57b6 5d3d 8dc5 c83d 3dd4 f23c
000002b0: ba02 80bd 2e00 423d 59c9 59bd 8c7c 68bd
000002c0: 0c5f 5f3d 4ca4 9cbd 4d87 d9bd 0fa5 a83d
000002d0: b232 2cbe 0a15 973c f431 9dbd c2b2 d6bd
000002e0: 75c9 1f3c f9a0 38bd ba4e b7bc f8f7 6ebd
000002f0: a9a9 163d 9ee2 7bbd e983 3bbd 3043 f5bc
00000300: 146d 98bd 3da6 03be 983c a83d 6fda 90bd
00000310: 700b 0ebe 4af3 b43c d117 5b3d 6919 243c
00000320: 4780 68bd 89e9 1bbd 19a8 e1bd a7a5 47bc
00000330: 50db 2d3d de0a a03d 45b6 d1bb 977f f4bd
00000340: da3a dcbd 201f 5dbd 7eac 69bd 6ee8 20bd
00000350: 0537 b43d 202e c0bd 3d52 c73c e82d c63d
00000360: 1f42 413d af99 9bbd b410 133e 737c 3d3c
00000370: 9824 ebbd cbc3 98bc 81cc dc3c 42b1 f2ba
00000380: 149c d0bd 2883 edbd 78ad d3bd 0e85 04bc
00000390: bdf7 e1bd 02ff b3bd f37d 07be 91d1 4e3c
000003a0: b668 b73c 9d36 673c f4e8 fc3c 5119 8e3c
000003b0: b1e2 7cbd 81e6 103d c1c3 ea3d 9f6d 9dbd
000003c0: 5440 3fbd 1fcb c0bd afb8 edbd dbda 83bc
000003d0: e14d 293c 001f 0ebe 324e 01be c442 67bd
000003e0: 52df e73d d9e5 04be bee9 823d 20ff a83d
000003f0: b9ef 0a3d e8af 203d 0383 d93c 90d3 523d
-0.010206082 0.41785097 -0.0707407 -0.13759579 0.11732285 0.012869425 0.0038344837 0.0006423505
0.14361304 0.093258075 0.02954205 0.0380405 0.0024574993 0.065850325 0.084322065 0.013903328
-0.110767804 -0.09326273 -0.09631694 0.043474093 0.16255075 0.011928013 -0.11756383 0.05376507
0.055351347 0.07411495 -0.121257775 0.027118415 0.14684759 0.0166493 -0.13872358 0.015657775
-0.06500982 -0.034234375 0.007900642 -0.06713723 -0.04086416 -0.0015322337 -0.06795261 -0.08457855
0.10395438 0.06850045 0.051600635 0.010960004 -0.04252933 -0.035604555 -0.019196818 -0.09362099
-0.063497424 -0.012249731 -0.029190686 -0.058633797 -0.06806655 -0.061352834 -0.13958135 -0.030873472
-0.013595956 0.062408358 0.053473108 -0.06140583 -0.070250876 -0.065530114 -0.086698785 0.012133433
-0.10711453 0.10521091 0.0028819337 -0.021900784 -0.07452474 0.060352053 0.018723376 -0.08899635
0.039645936 0.037288897 -0.12936208 -0.0015405437 -0.0001368597 0.026342086 0.007857019 -0.055969708
-0.07495035 0.03090312 -0.073907025 -0.0340933 0.12537391 0.12385717 -0.0048256945 -0.021946251
-0.011410276 0.00035350583 0.04791034 -0.01770659 0.04949772 -0.10896743 -0.034358107 0.01760529
-0.09521616 0.008821413 -0.04365559 -0.022824073 -0.013693239 -0.017329931 0.099221274 -0.15183423
-0.083844 -0.027240466 0.06708593 -0.085424475 0.11485183 0.049119372 0.08168198 0.045516603
0.0033169098 0.034526583 0.01414698 0.05393477 0.046945583 0.1348754 0.08425206 -0.007530536
0.00070939545 -0.013169039 -0.12080188 -0.04461573 -0.07686918 0.13683426 0.028616177 0.014869084
-0.035531923 0.09852551 0.0872884 0.08893128 0.051256422 -0.00606795 0.01068001 -0.15127312
-0.047023214 -0.09273238 0.030228244 0.012794924 0.06311524 -0.08437991 -0.010662343 -0.0984449
0.07060876 0.112554595 -0.07532407 -0.06807926 0.034420747 -0.061070126 0.062531374 -0.16931793
-0.00796969 -0.0999567 0.05342614 -0.09947991 -0.0706268 0.15563358 0.07274354 0.050875884
-0.09719411 -0.07063142 0.05739625 0.07176904 0.03734375 0.048348106 0.012840839 -0.07259398
0.1419198 0.05412897 0.09803305 0.029642219 -0.0625052 0.047363453 -0.053170536 -0.056759402
0.054534003 -0.07648525 -0.1062151 0.082346074 -0.16816214 0.01844265 -0.076755434 -0.10483314
0.009752621 -0.04507539 -0.022376407 -0.05834195 0.036782894 -0.061495416 -0.045780096 -0.029939264
-0.0744268 -0.12856384 0.08214682 -0.07072913 -0.1387155 0.022088666 0.05348951 0.010015824
-0.05676296 -0.038064513 -0.1101839 -0.012185491 0.04244548 0.07814573 -0.006399902 -0.11938398
-0.107534125 -0.05398476 -0.057049267 -0.039284162 0.08799557 -0.09383798 0.024331206 0.09676725
0.0471822 -0.07597672 0.1436184 0.011565316 -0.11481589 -0.018648049 0.026952984 -0.0018515962
-0.101860195 -0.11597282 -0.10335821 -0.008088363 -0.110335805 -0.08788873 -0.1323164 0.012623207
0.022388797 0.014112142 0.0308728 0.017346056 -0.061739627 0.035376076 0.11463118 -0.07686924
-0.046692207 -0.09413742 -0.11607491 -0.01609557 0.010333509 -0.13879013 -0.12627485 -0.056460157
0.11321892 -0.12978305 0.06392239 0.08251786 0.033920024 0.039230257 0.026551729 0.051471293

ms.0.bias f4 [128]
00000000: 3984 84bd 98ad 10bd 55b0 133e fc8e 523d
00000010: ae8f 763c 8790 0ebe 84e4 9ebd ee28 64ba
00000020: b879 b7bd c0ab 29be f064 01be 048b 5ebe
00000030: c39b d23d 5a11 6d3d eaef cdbb 7787 8bbd
00000040: 51b6 eebc c047 f0bd 0153 ef3d f6d3 52bc
00000050: f692 233d 2227 1fbd 1497 3e3d 439b 413d
00000060: e224 d83d bdb0 49bd df16 633d a915 59bb
00000070: 06b2 abbb 1c92 debd 5034 683a 1e86 b3bd
00000080: da8b 643d 5d1d c6bc a2a9 cbbd 0010 6f3c
00000090: efa9 a93d 0e0b 2cbd cecb f8bd 0a1a 823c
000000a0: a49c 59bd efa7 8fbd 9832 0dbe d56a 9cbd
000000b0: 7183 bdbd b51b 663b 929e 963d 1ba7 ebbc
000000c0: 4314 49ba 3c09 343d 606c 1aba 9a50 8cbd
000000d0: 654d 52be b4b2 223d 9626 63bd 6fec b8bd
000000e0: da11 cebc fcfd 04bd df07 49bd 71d3 c1bd
000000f0: e009 8f3c 0805 c5bd de99 03be 4027 2cbc
00000100: 4fb4 9d3d a6de 0bbd cc35 093c 1cc2 a43d
00000110: 06bf 923d c018 303e cc90 773d 240e 313d
00000120: fcb5 dabd 6251 cbbd adcc 98bd be10 e2bc
00000130: 2173 51bd 8af5 4abe 774c 343d 947f bfbc
00000140: d6a0 23bd 7a25 46bc b408 acbc dadc a23d
00000150: 0766 4b3d 30a3 2f3d 4a8e 4c3d 21f8 6a3c
00000160: 63e1 d3bc 8c5d 303d d048 f2bc 7414 2ebc
00000170: 8c0a c3bd ccfe 9d3d 828b d4bb af2b 11be
00000180: faef cbbd 4822 403d 4649 3d3d 2561 0dbd
00000190: 32a3 913b 534f 04bd 0bd5 e5bd 4fa2 63be
000001a0: 2fd7 1fbd 9bb8 be3c e8ee 3fbc 9289 abbd
000001b0: 704d dcbd 493f dcbd 50ed c6ba cf37 f0bc
000001c0: c155 cfbc 81cd 4dbd 332d 1cbe 6413 183d
000001d0: 554a c03d 9a5c 82bc 850e bf3b a41c cd3c
000001e0: f77c 6a3c 6f65 fabd 3f68 e43c 2aaf 713d
000001f0: a1fc f93b a4be 08bd 0f3e 80bd 7591 60bd
-0.06470532 -0.035321802 0.14422734 0.05140589 0.015048904 -0.1392232 -0.0775843 -0.0008703609
-0.08958763 -0.16569424 -0.12636161 -0.21732718 0.102836154 0.057877876 -0.0062847035 -0.06812947
-0.02913967 -0.11732435 0.116857536 -0.012867918 0.039935075 -0.03885568 0.046530798 0.04726721
0.1055391 -0.049240816 0.055441733 -0.0033124483 -0.005239728 -0.10867712 0.0008857893 -0.08765815
0.055797435 -0.024183923 -0.09944464 0.014591217 0.082843654 -0.04200273 -0.12148248 0.015881557
-0.0531279 -0.07014453 -0.13788831 -0.07637564 -0.09253586 0.003511173 0.07354464 -0.028766206
-0.0007670561 0.04395412 -0.0005890783 -0.06851311 -0.20537336 0.039721206 -0.05545672 -0.09029471
-0.025154997 -0.03246878 -0.049079772 -0.094641574 0.017460763 -0.096201 -0.12851664 -0.010507405
0.07700407 -0.03414788 0.008374643 0.08044836 0.07165341 0.17196941 0.060440823 0.043226376
-0.10679242 -0.09927632 -0.07460914 -0.027595874 -0.051135186 -0.19820228 0.044018235 -0.023376264
-0.039948307 -0.012093896 -0.021000244 0.0795228 0.049657848 0.042880237 0.049940385 0.014341385
-0.025864309 0.043057963 -0.029575735 -0.010624994 -0.09523496 0.07714614 -0.006486357 -0.1417682
-0.09957881 0.046907693 0.046212457 -0.034516472 0.004444503 -0.032302212 -0.11222275 -0.22229885
-0.039023574 0.023281386 -0.0117146745 -0.08375849 -0.107569575 -0.10754258 -0.0015176926 -0.029323487
-0.025309445 -0.050244812 -0.15251617 0.037127867 0.09389178 -0.015913296 0.0058305883 0.025038071
0.0143120205 -0.12226378 0.02788174 0.05900494 0.0076289927 -0.033384934 -0.06261837 -0.05482622

ms.2.weight f4 [128, 128]
00000000: 674a ca3c 5783 ff3c 3e3d ce3c 06cc d63c
00000010: 324f 78bc 56a1 9dbc bdb6 b63d 813a 71bd
00000020: 345d 723c 6f51 22bc 3f6c d83c 1642 a33d
00000030: b80f 31bd 6314 593d 7f93 cebc 7cae 81bd
00000040: 8423 9abd 83be e5bd 97a8 6bbc dec3 aabd
00000050: 2dfa 673d 256b 4bbc 12e4 723c 11c7 73bd
00000060: 87bc 88bd b8e7 123d ef01 70bc b00d abbd
00000070: 080c a23d 04be 633d c003 9a3c 31db 903d
00000080: c843 063d aa34 5d3c c0ce c7bc dfd8 e63c
00000090: 72fb 75bc 52d8 ca3d 75d3 203c 44ee e53d
000000a0: 279a e6bc 5bb0 e4bc 5bdb 743c ba6e 4bbd
000000b0: 131f 913d 8aa8 27bd 5729 77bd 9afa 2dbd
000000c0: 3fcd 42bc 426f 873b 3965 b5bd 3e4c a6bd
000000d0: cee4 6fbd b3dc 1c3d 42de 01bc f56f 5f3b
000000e0: 7b49 8cbd 27e1 c8bd 8c20 bf3d b973 60bc
000000f0: b483 9cbd c6a7 683d bd23 42bd 4d30 c3bd
00000100: 54fd 65bd e6e4 8dbd 8937 fbbc 5fa1 043d
00000110: 7454 76bc b1cd b13c d89c 0bbd 1e2a c5bd
00000120: 1516 f8bc 193e 48bd 4a08 12be c051 c6bd
00000130: fe15 58bc 9992 40bd da3d d73b 680c fabc
00000140: a729 97bd c2cd b93c 9643 443d 9e18 80bb
00000150: b482 98bb c353 0ebc d104 97bd 6986 b5bc
00000160: cf4a 783d fc8d ecbd 23df 6bbc 420c b1bd
00000170: d9f1 54bd 7057 8abd c097 63bd 1452 e7bd
00000180: b703 38bc 19b7 9c3d cf0a 1cbd 56c9 c2bc
00000190: c189 59bd 6a4f 733c bf4f b23d 970e 2abd
000001a0: c68d e23c 07f8 fcbd d41c 76bd 74f4 69bd
000001b0: 567e e7bd 92c1 adbd 3d79 96bb 4d63 79bd
000001c0: 5269 3dbd 9fc5 be3d b679 9abd b91f bebd
000001d0: f1d2 353d cf0b 913c 4c59 67bd 10aa a4bd
000001e0: 4516 673c a1ea 9a3b 9b74 91bd b1fa cd3d
000001f0: 57a8 513d 740e 26bc 75e0 dfbc d85b 923b
00000200: c2e0 99bb db4b 9eb9 0e05 ecbc 75c2 61bd
00000210: ee16 6cbc e1e2 433c 7e1c 8bbc 8578 5dbc
00000220: 2340 63bd 211c 46bd 92d3 823c f5fd 85be
00000230: 4fed 1ebd ef92 bc3c 01d0 88bd 0039 9dbc
00000240: 88e2 b63c 8842 183a 3e65 723d 4e47 a4bd
00000250: 9040 29bd 202b 1bbd ea8c 863c 13ad 4c3d
00000260: 8d71 95bd 2a6c 613c 1619 d73d 94c9 a83c
00000270: a1bc 883d 969a d5bd 0131 b3bc 98ff f6bc
00000280: 17fe 5cbc 71e3 15be e252 f43c c884 f03c
00000290: 3aa2 aabd 1136 403d 5ee1 a53d f365 dfbd
000002a0: 7de4 0f3d 5d39 123d 7152 63bd ac65 8f3d
000002b0: 29e6 48bd c2db 10be 668e 093c 996c 56bd
000002c0: 81bc 133d 9401 96bb 7ea8 01bd 56fc eaba
000002d0: c602 ae3d 7ebf 7f3b 5d6e 423d 194f 85bd
000002e0: fff9 3bbd 30e3 06bb 87a6 1f3d 7032 843d
000002f0: 62aa cc3d beb8 193d d4ce 943b 6bde c9bc
00000300: e6a7 c63d 98c3 343d 9052 d5bc d77b 28bd
00000310: 102b 493d 8afd 19bc 49af 88bb 832c 3ebd
00000320: 5171 053d 1bec 3dbc 7d8e 423d a656 d23c
00000330: c5c5 2e3d 7ca5 063e 5473 883d dd79 373d
00000340: 09b4 03be e078 6f3d 4b91 79bc 9ab3 29bd
00000350: 21db 41bd 9538 d63c d7dd 40bd e2ad d73c
00000360: 9ca7 18be 0e85 07bb 4b19 8fbc 85d9 ff3c
00000370: 805d 3f3d 3fca 8ebd 4db0 eabc 0542 a5bd
00000380: 518e a1bd 44a2 50bd d1e3 3cbb 182a c83d
00000390: 68a3 7a3d 6e12 723c 44e1 a63c 7c25 06bd
000003a0: 1383 8dbc e167 6abd a55f d0bd 534c 173d
000003b0: 9911 30be 7896 b3bc a79e e7bd fdc4 57bd
000003c0: 3fd6 3abd 61e1 fbba b782 ce3c afc3 a23d
000003d0: c248 4b3d 3bcd 4abd fc89 acbc 06c1 c138
000003e0: d974 9ebd 51bb b93d 4b3d 61bc e6bc 57bd
000003f0: 5693 a03d 20fa 673b 2be4 d03b 777b 38bd
0.02469368 0.031190557 0.025175687 0.026220333 -0.0151556 -0.01924197 0.08921573 -0.058893684
0.014792729 -0.009907111 0.026418803 0.07971589 -0.04322788 0.052997958 -0.025216816 -0.063321084
-0.07526305 -0.11217978 -0.014383457 -0.0833814 0.05663507 -0.012415682 0.014824884 -0.059516016
-0.06676584 0.035865515 -0.0146488985 -0.0835222 0.07912451 0.055601135 0.018800616 0.070730574
0.032779485 0.013501326 -0.024390578 0.028179584 -0.0150135625 0.09904541 0.00981604 0.11227086
-0.028149677 -0.027916124 0.014944877 -0.049666144 0.07086005 -0.040932216 -0.06034216 -0.04247532
-0.011889755 0.004133136 -0.08857197 -0.08120011 -0.058567815 0.038296413 -0.007926526 0.0034093831
-0.06849953 -0.098085694 0.0933238 -0.013699465 -0.07642308 0.056800626 -0.047397364 -0.09530697
-0.056149796 -0.069284245 -0.03066613 0.032380458 -0.015034784 0.021704527 -0.034085125 -0.09627174
-0.030283967 -0.048887346 -0.14260975 -0.09683561 -0.013188837 -0.047014806 0.0065686526 -0.030523494
-0.073809914 0.02268112 0.047916017 -0.0039091846 -0.004654253 -0.008686963 -0.073739655 -0.022158818
0.060618218 -0.11550519 -0.014396462 -0.08644916 -0.051988456 -0.06754959 -0.055564642 -0.11294952
-0.011231354 0.076521106 -0.038096245 -0.023777645 -0.053109888 0.014850477 0.087066166 -0.04151782
0.027655493 -0.12351995 -0.060086086 -0.057117894 -0.113033935 -0.08484186 -0.0045920894 -0.060885716
-0.04624302 0.09315037 -0.07542746 -0.09283394 0.044390623 0.017705826 -0.056481645 -0.08040249
0.014104431 0.004727677 -0.07102319 0.10057581 0.051185932 -0.010135282 -0.02732871 0.004466515
-0.0046959827 -0.00030192625 -0.028811004 -0.05511709 -0.014409764 0.011955948 -0.01698136 -0.013517504
-0.055481087 -0.04836667 0.015970025 -0.26170316 -0.038800534 0.023019282 -0.066802986 -0.019192219
0.022324815 0.0005808254 0.059178583 -0.08021413 -0.041321337 -0.037882924 0.016424615 0.049969744
-0.07297049 0.0137586985 0.10502832 0.020603932 0.06676603 -0.104298756 -0.021873953 -0.030151173
-0.013488314 -0.14637543 0.029824678 0.02936019 -0.083317235 0.04692656 0.08099626 -0.10908117
0.035130013 0.035699237 -0.055498544 0.07001814 -0.049047623 -0.14146331 0.008395767 -0.05234966
0.036068443 -0.004577825 -0.031654827 -0.0017927985 0.08496623 0.003902405 0.047468532 -0.06509227
-0.04589271 -0.0020582192 0.038977172 0.06454933 0.099934354 0.0375297 0.0045412574 -0.02464219
0.09699993 0.044131845 -0.026040345 -0.041133728 0.049113333 -0.009398827 -0.0041712862 -0.04642917
0.03257877 -0.011591936 0.04749917 0.025676083 0.042669076 0.13149065 0.06662622 0.044793952
-0.12861647 0.058464885 -0.015232394 -0.041431047 -0.04732812 0.026150027 -0.047086563 0.026328031
-0.14907688 -0.0020678672 -0.017468115 0.031231651 0.046720028 -0.06972169 -0.02864852 -0.08069233
-0.07888473 -0.050936 -0.0028822313 0.09773654 0.061190993 0.014774902 0.020371087 -0.03275059
-0.017274415 -0.057227973 -0.10174493 0.036938023 -0.17194213 -0.021922335 -0.113095574 -0.052678097
-0.045614477 -0.0019216948 0.025208814 0.0794748 0.049629934 -0.04951213 -0.02106189 9.2389106e-05
-0.07737131 0.09068931 -0.013747524 -0.052670382 0.07840602 0.003539689 0.006374856 -0.04503962

ms.2.bias f4 [128]
00000000: 7efa 96bd 5b06 393d cdc5 bf3d 7be5 afbd
00000010: 3c1e 19bd c268 35bc d3d2 203c 1806 3f3d
00000020: a175 9a3d eebc b93c ea53 3bbe baae 66bd
00000030: 3185 8a3d 1520 563d 768c 743d 1d9e f0bd
00000040: 80c5 0e3d 71af debc 883e b1bc 7fd5 f4bc
00000050: 43dd 813d 8954 28bd a2b9 86bd adfc d43c
00000060: 539b c2bc 3ab3 d5bb 0241 1abd 6eb2 b3bd
00000070: be97 d93c 1fb7 f2bd 693a 69bd 70c4 453b
00000080: f066 883c d176 32be ca33 0a3c e2ca f63c
00000090: c6a2 853d 2229 6bbc b5f8 86bd cacd 1fbe
000000a0: 38ed 393c a7f4 efbc 42f6 f73c 2379 953d
000000b0: 33a4 05bd 2682 23bd 9f86 81bd 1a66 6cbd
000000c0: a7f9 e63b 54cf e1bc 95c8 80bc b96b 0a3d
000000d0: 2f02 48bd c0a3 42bc 3881 91bd 31ea aa3c
000000e0: 7a30 88bd c4f2 963d e76a b1bd 5cb0 a5bd
000000f0: b729 043b 4448 b8bd 0678 fd3c 6d3d cabd
00000100: 154a 5cb9 0a14 8f3d fdbd 2fbd 8d06 f03b
00000110: 44e3 3dbd 0868 f9bc 2cc7 803d 61ed a5bd
00000120: d2b9 bebc 5919 843a d22c 8dbd 1ba2 8dbd
00000130: cff3 1abd 5902 413d 4965 393c 96eb efbd
00000140: fc49 88bd 1031 91bc 531d dbbd 36a0 8d3b
00000150: 31e9 ae3d 8817 0b3d 48d8 a9bc 7437 bebd
00000160: fe39 603c 5731 89bd 64ca a7bd 761b 4bbb
00000170: cb99 98bd 8a3e 13bc ffba 883d fd3a 8c3b
00000180: 86e8 9ebd 9571 2bbd d69c 5cbe 412b 8c3d
00000190: d754 f0bd c9e0 49bc 51d7 4ebd 7ff1 223d
000001a0: 3cb4 7bbd 88e9 debb 873f 5bbd d5ae 16bc
000001b0: 41ec 33be e52e 9cbd 0a23 18bd afca 5f3d
000001c0: 08a1 bfbd 099f 64bc 8439 01be 1477 aebd
000001d0: 71e6 e2bd 6990 94bd baba 1b3d 63f7 80bd
000001e0: d5ce e33c d67a cfbd ca8c 88bd 7d2c 0fbd
000001f0: c5e1 99bd 8b71 983d 9986 0a3d 802c d0bc
-0.07371996 0.045172077 0.093638994 -0.08588692 -0.03738235 -0.0110723395 0.009815889 0.04663667
0.07541967 0.022673097 -0.1829373 -0.056318976 0.067636855 0.05227669 0.059704266 -0.11748908
0.03485632 -0.027183266 -0.021636263 -0.02988696 0.063410304 -0.041096244 -0.065783754 0.025999391
-0.023755705 -0.0065216096 -0.037659653 -0.08774267 0.026561614 -0.11851334 -0.05694047 0.00301769
0.016650647 -0.17428137 0.008435199 0.030126039 0.06525187 -0.014353069 -0.06590406 -0.15605846
0.011348061 -0.029291464 0.030268792 0.072984956 -0.032627296 -0.03991904 -0.06324505 -0.05771456
0.007048804 -0.027564682 -0.015720645 0.03379414 -0.048830207 -0.011879861 -0.07104725 0.020863624
-0.06649871 0.073705226 -0.08662968 -0.080902785 0.0020166466 -0.089981586 0.03094102 -0.09874997
-0.00021008433 0.06986244 -0.042905796 0.0073249997 -0.046359316 -0.030445114 0.06287989 -0.08101917
-0.023281965 0.0010078355 -0.068933144 -0.06915685 -0.03783017 0.04712138 0.011315652 -0.11714856
-0.066547364 -0.01772359 -0.106989525 0.004322077 0.085405715 0.033957988 -0.020733014 -0.092879206
0.013685701 -0.06698864 -0.081929 -0.003099171 -0.07451209 -0.008987078 0.06676292 0.004279493
-0.07759194 -0.041856367 -0.21544203 0.068441875 -0.11734932 -0.012321659 -0.05049831 0.03978109
-0.06145118 -0.0068027414 -0.05352738 -0.009196957 -0.17570592 -0.07626132 -0.03714279 0.054636654
-0.09356886 -0.013953933 -0.12619597 -0.08518806 -0.110791095 -0.072541066 0.038019873 -0.06297185
0.027808586 -0.10130851 -0.066674784 -0.034954537 -0.07513765 0.074435316 0.03381977 -0.025411844

ms.4.weight f4 [2, 128]
00000000: 8ee8 463c 4470 503d b03b 353d 424b 5fbd
00000010: 33f2 a13c 330b f7ba 5df9 52bc 553f 043d
00000020: 2b15 3dbd bf72 49bb f3d7 66be dc69 903a
00000030: 5efa 493b 746b f9ba b4a4 e9bb 85c2 a93d
00000040: 49a2 953a 677c 33bd dcef 663c 22fb d53d
00000050: ec8c be3c 9c6f 3dbd bab7 ea3d eb0d 043b
00000060: eaeb 733b 9d6a 483d 7493 dcbc 9f44 983c
00000070: 710a 10ba c17d af3d 7417 4dbe c154 e6bc
00000080: 461e c4bc 2faa 53be 146f 0fbc d829 ac3a
00000090: 3650 183d b898 b7bd 5a82 fb3b 8e64 cbbd
000000a0: fe31 363d 4a16 1b3b a6a8 693d 06a3 c8bb
000000b0: 59e1 7dbc cddc 433e 0e08 513b b952 97bb
000000c0: 8756 b9bc c139 f73a 070a ce3c 5ded de3b
000000d0: 9c5d e33d b72b dc3d 8bbf ff3c 1ac9 3f3d
000000e0: a19f e9bb 95c7 623b b07b 933a 8053 e0bd
000000f0: 71b9 443d 3f2a 04bc bb2a 45bc bb31 8d38
00000100: a8af 8abd ec34 313c 2085 21bb f0fc 91ba
00000110: 3924 843d e944 d4be 0f8f c3bc 8c63 d8ba
00000120: 4311 9e3b 43b3 383c e012 263b cb78 5fba
00000130: b818 703e 37dc 83ba e794 6dba 6547 973c
00000140: 80cc 803b 0d57 4dbc 2043 70bd 8bec 273d
00000150: b336 553c adf0 323c de3a b53a 2342 c6bd
00000160: 8913 d73a f6e1 853d 7a8b 1bbc af4a 143b
00000170: dc49 053c fd1e 793d ffd8 573a 528f 26bd
00000180: 9699 f23c 73dc 42bb 47ca 4fbe 0d24 ffbc
00000190: 2b39 993d 160e 453e 4bd0 5abe 7701 f7ba
000001a0: 089b 60bc f6a9 e0b9 40e0 ffbc 6992 0ebd
000001b0: f489 933d a2ae b1bc 028b 04bb 23e1 b83c
000001c0: fb1c ac3e 35b6 c1bb 9e1e 37bd 1348 46bd
000001d0: 43a0 59bc cbea 12be 408b 47bd 2fb5 a739
000001e0: 0621 0dbc c4d3 6d3c 63dc 513a 3ca2 473d
000001f0: 5041 98bd d6f3 7b3d fe92 bf38 10b2 583c
00000200: a778 003c 498e f1bc f0ed 2dbc 6f29 33bb
00000210: f373 43bb ca74 e6b8 51bf 88b9 b932 88bc
00000220: 682c 063e 538d dc39 c0c3 843e 593f 03bb
00000230: a816 5e38 2fd6 013a 0775 b93b 14fa 97bd
00000240: 6535 323b 0797 e4bd c4a0 11bc 9eda 2ebd
00000250: 07cf 00bc 7a6d 683a 97e0 ddbd 965d 0bbb
00000260: ca26 3fbb fc47 b53c e58f 23be eed0 dfbd
00000270: 0751 61bb 0518 6e3c 3106 83bd 27ae 353d
00000280: cc33 2e3e fd85 07be 7003 debb 728a 1f3b
00000290: 9aa8 f93b 5661 303c 0ba0 a5bd 26bf bb3d
000002a0: bd9d e23b 10ab 2d3a fa29 3f3d 0bd2 44bb
000002b0: 788e c7bc e967 3b3d 50fa 82ba 563b 4d3c
000002c0: 1b68 a9bc e0c7 41b9 c8e8 3ebd 256c cebc
000002d0: 6872 993d e4bd 5a3e d4b6 9a3d 9fde 09bd
000002e0: 63a5 2abd 5cf2 ef3a 7a4f 3339 43f0 5bbd
000002f0: 6d5d 3b3e ccbc 103c d2d8 c43c c369 f1ba
00000300: 18c2 abbd e46a d3bb 7b3b 90bd d8d2 ffba
00000310: 667e a73d 140d 49be de6e 6b3b dd3c d43a
00000320: 123a a63a 7efd 24bc 0dc2 543a a859 433b
00000330: ab69 d53d e0d0 ed36 837d 873b 194d 1bbd
00000340: 85a1 a8ba 62b8 5339 e0a0 15bd 5884 793d
00000350: dc9e 91bb 83cf e9bb eea2 8cba a633 183e
00000360: 58d9 a439 0a11 28bd 611f 91ba be62 b2ba
00000370: 0a99 11bd 2238 6dbd edf5 9939 9205 593d
00000380: 3ee7 423d da07 22bb 08ee 783e 9f19 0fbd
00000390: e8c4 9bbd c1ba 80be daa5 cebb a047 1a3a
000003a0: 8160 60be 728b 0bbb 332b 24bc 168a 003d
000003b0: e9f5 963e c91c 03be c980 13ba 9574 25bc
000003c0: 379d 79bd df3e 653b 3169 d43e 8ff0 0cbd
000003d0: ea6b 01bd 4a0d 3e3e f4b9 d5bc f597 e2ba
000003e0: b22b a23d 6512 2abd d486 963a f673 6dbd
000003f0: a9ff 03bd ee80 86ba 5664 953b 3168 a5bc
0.012140406 0.050888315 0.044246376 -0.05451513 0.01976881 -0.0018847942 -0.012876836 0.03228696
-0.046162765 -0.003073856 -0.22543316 0.0011017877 0.0030819396 -0.0019029216 -0.00713023 0.08289055
0.0011416163 -0.04381981 0.014095273 0.104482904 0.023260556 -0.046249017 0.11460824 0.0020149897
0.0037219473 0.0489298 -0.02692578 0.018587409 -0.000549472 0.085689075 -0.20028478 -0.028116586
-0.023940217 -0.20670389 -0.00875451 0.0013135029 0.03718587 -0.08964676 0.007675451 -0.09931289
0.04448127 0.0023664408 0.0570456 -0.0061229495 -0.015495622 0.19127198 0.003189567 -0.0046180156
-0.022624267 0.0018861816 0.025151266 0.0068031983 0.11101839 0.107505254 0.031219264 0.046822645
-0.007129625 0.0034603823 0.0011252072 -0.10953426 0.048028413 -0.008066713 -0.0120341135 6.732667e-05
-0.06771785 0.01081584 -0.0024646 -0.0011138003 0.064522214 -0.41458824 -0.023871927 -0.001650916
0.004823835 0.011273208 0.002534084 -0.00085247745 0.2344693 -0.0010060136 -0.00090630207 0.01846666
0.0039306283 -0.012532962 -0.058657765 0.04099707 0.01301353 0.010921639 0.0013826748 -0.09680583
0.001640902 0.06537239 -0.009493703 0.0022627523 0.008135285 0.06082057 0.0008233934 -0.040664025
0.029614251 -0.0029733449 -0.20292006 -0.03114512 0.07481607 0.19243655 -0.2136852 -0.0018845041
-0.013708837 -0.0004285124 -0.03123486 -0.034807596 0.07204047 -0.021689717 -0.0020224457 0.022568291
0.3361586 -0.0059116133 -0.044706933 -0.04840858 -0.013282838 -0.14347379 -0.048716784 0.00031987714
-0.00861383 0.014515821 0.00080055575 0.048738703 -0.07434332 0.061511837 9.134969e-05 0.013226047
0.007841266 -0.029486792 -0.010615811 -0.0027337929 -0.002982375 -0.00010989008 -0.00026082483 -0.016625749
0.13102877 0.00042066965 0.25930595 -0.0020026772 5.2950025e-05 0.00049528753 0.0056597027 -0.074207455
0.002719247 -0.11161619 -0.008888427 -0.04268896 -0.007861859 0.0008866411 -0.10833853 -0.0021265498
-0.0029167407 0.022129051 -0.1597286 -0.10928522 -0.0034380571 0.014532094 -0.06397665 0.044355538
0.17011946 -0.13234706 -0.006775312 0.0024343994 0.007618976 0.010765394 -0.080871664 0.09167318
0.0069157765 0.00066249166 0.04667089 -0.0030032422 -0.024359927 0.045753393 -0.0009992812 0.012526354
-0.020679524 -0.00018480374 -0.046608716 -0.025198052 0.074925244 0.213615 0.07554403 -0.033659574
-0.04166163 0.0018306482 0.00017100378 -0.05369593 0.18297358 0.008834075 0.02402917 -0.001841836
-0.0838663 -0.0064519513 -0.07042595 -0.0019517792 0.081784055 -0.19633895 0.0035924236 0.0016192455
0.0012682101 -0.010070203 0.0008116074 0.0029808078 0.10420545 7.0874667e-06 0.004134835 -0.037915323
-0.0012865519 0.00020191216 -0.036530375 0.06091723 -0.0044439863 -0.007135333 -0.0010729709 0.14863452
0.0003144245 -0.041031875 -0.0011071974 -0.001360975 -0.03554634 -0.05791486 0.00029365663 0.052983828
0.04758381 -0.0024723918 0.24309552 -0.034936544 -0.07605916 -0.25142482 -0.006306392 0.0005885307
-0.21911813 -0.0021292833 -0.010020065 0.03138169 0.2948449 -0.1280395 -0.00056267955 -0.010098596
-0.060940947 0.00349801 0.41486505 -0.034409102 -0.031597055 0.18559757 -0.026089646 -0.0017287718
0.079184905 -0.04152145 0.0011484274 -0.057971917 -0.03222624 -0.0010261813 0.00455908 -0.020191284

ms.4.bias f4 [2]
00000000: 8ed5 60bc 6d04 713d
-0.01372279 0.05884211

exp_avg f4 [128, 1]
00000000: 9e52 48b9 6e66 c2b9 055a 72b9 7368 8237
00000010: e6d9 46b9 1fe7 56b9 7251 0ab9 28ae 2eb9
00000020: 574d c1b8 e1a8 4438 a8a8 00b9 a46e ecb8
00000030: 28d5 b3b6 f9ac 85b9 9621 d037 0544 d9b8
00000040: f1ce 0eb9 958f 9c38 7d6d 3f38 7a13 bab8
00000050: a157 a1b8 0151 d1b8 b7da 5338 e65a 8bb9
00000060: b16d 6eb8 a5a6 ba37 bc7b e7b8 ec36 a4b8
00000070: 40f8 45b5 20ef 7c38 8288 f636 6f95 05b9
00000080: fd75 f2b8 2e78 92b9 6c9e 2d38 1538 34b9
00000090: 3331 ddb9 cd81 a837 0f36 ba38 6f73 16b9
000000a0: 9eac f7b7 848f e137 69f3 d1b9 7bc1 18b9
000000b0: 75b2 7538 86e6 33b9 7c96 3fb9 dd92 3838
000000c0: fc3f 2ab8 289e 93b9 004e 10b9 4aa0 c638
000000d0: 8a8c f6b8 6e9c bab8 6911 13b7 b9ad 9538
000000e0: 2af1 93b9 9d07 fab8 99b8 a2b7 a091 5436
000000f0: 599f 0c36 2fca 9cb8 e41a 69b8 f58d aab8
00000100: 3bca ddb7 00e4 75b9 82f0 feb8 c0b2 6eb8
00000110: 090d 3a38 0f23 3ab9 e896 b7b9 bdf4 b3b8
00000120: eb5b e3b8 e0e5 0ab9 2c9c 3eb8 a4f3 d837
00000130: d1c7 45b9 4ad2 89b8 601f 31b9 6d91 8cb9
00000140: acc3 f9b6 97a9 d5b9 4a7e 3db9 7814 7bb8
00000150: 537e b738 87d3 58b8 90e6 00b9 0614 39b9
00000160: 68bc 8e38 b569 e0b7 3e32 c6b8 2073 19b9
00000170: 597c b737 5b33 91b9 35c9 26b9 a51c 7c38
00000180: 13a1 1ab9 92f9 08b9 3cda b8b9 cb2a e7b8
00000190: 28b3 ce37 41a9 b9b9 dc82 78b9 96ce 98b9
000001a0: 661f efb8 b0c6 b9b9 213b c4b8 7c0a b1b8
000001b0: 1c1d a2b8 18e1 9338 e81c c6b9 bb3d fcb8
000001c0: 94c2 9ab8 452a 5ab8 a295 8338 0528 11b8
000001d0: 69a1 5b38 4a22 7ab8 ae9c c337 d242 5a38
000001e0: 584b c936 6eba 8eb9 c6be 98b8 02ad aeb8
000001f0: 1da2 d3b8 676b e6b8 4268 9e38 f85e 0eb9
-0.00019104264 -0.0003707888 -0.00023112453 1.5545846e-05 -0.00018963925 -0.0002049473 -0.00013191046 -0.00016658811
-9.217363e-05 4.6887322e-05 -0.0001226986 -0.00011273965 -5.3594304e-06 -0.00025496611 2.4811172e-05 -0.00010360036
-0.00013619267 7.465404e-05 4.5639918e-05 -8.872799e-05 -7.6934004e-05 -9.980985e-05 5.0510014e-05 -0.0002657987
-5.684578e-05 2.2250528e-05 -0.00011037986 -7.8303594e-05 -7.374947e-07 6.0304184e-05 7.347263e-06 -0.00012739537
-0.00011561436 -0.0002793683 4.1393956e-05 -0.0001718703 -0.0004218906 2.0087604e-05 8.87924e-05 -0.00014348117
-2.9525076e-05 2.688892e-05 -0.0004004494 -0.00014567927 5.8578753e-05 -0.00017156647 -0.00018271239 4.4005796e-05
-4.059075e-05 -0.0002815586 -0.00013761967 9.471232e-05 -0.000117563715 -8.8983084e-05 -8.765936e-06 7.137232e-05
-0.00028217706 -0.00011922347 -1.9397865e-05 3.1675227e-06 2.0954378e-06 -7.476319e-05 -5.5576573e-05 -8.132673e-05
-2.6439424e-05 -0.00023449957 -0.00012156462 -5.6910096e-05 4.4357996e-05 -0.00017751403 -0.00035016914 -8.580971e-05
-0.000108413245 -0.0001324634 -4.5444976e-05 2.586266e-05 -0.00018861821 -6.5718385e-05 -0.00016891723 -0.00026811232
-7.4435575e-06 -0.0004075288 -0.00018071491 -5.9862126e-05 8.74965e-05 -5.1695413e-05 -0.00012292922 -0.00017650434
6.806181e-05 -2.6752105e-05 -9.450734e-05 -0.00014634104 2.1873204e-05 -0.00027694818 -0.00015905949 6.010816e-05
-0.0001474659 -0.00013062943 -0.00035257812 -0.00011022909 2.464054e-05 -0.00035412054 -0.00023699872 -0.00029145618
-0.000114022565 -0.00035433983 -9.357022e-05 -8.4419706e-05 -7.730184e-05 7.051433e-05 -0.0003778704 -0.000120277946
-7.379535e-05 -5.2014617e-05 6.274438e-05 -3.4607965e-05 5.2363994e-05 -5.963658e-05 2.3318771e-05 5.203748e-05
5.999038e-06 -0.00027223252 -7.283459e-05 -8.329192e-05 -0.0001009146 -0.0001098726 7.5534466e-05 -0.00013577554

exp_avg_sq f4 [128, 1]
00000000: d95f 5c35 425c a636 4205 8735 5bf3 6034
00000010: 6a12 ae36 6d2f 4d35 8c9e f636 6c76 2c35
00000020: f21a 3435 3a6e 0f34 39ed 0737 aab1 dd33
00000030: 4fa0 a535 f84d f835 ac65 a832 c4f4 1635
00000040: b2f6 9535 f8b7 0334 ffe7 8833 e1ba cf36
00000050: 5db0 3935 237c 9b34 793b 0434 b2fe ee35
00000060: e24b e934 cd49 fa36 028f 3635 a86d 8735
00000070: bb51 d234 f602 2735 36f2 0d35 9e4a d535
00000080: 42c9 2436 2224 2636 1a06 4534 056f b035
00000090: 51f0 e836 8e28 6232 aab3 6735 f76a 9435
000000a0: de44 1937 2136 6933 06de 2a36 f9ba da35
000000b0: da94 9b35 805e 9635 26e5 b735 bbf4 e136
000000c0: 9406 7135 d74e 0136 e7f0 a136 8306 5034
000000d0: e4be 2235 28de 9336 d994 9333 4b60 0f34
000000e0: 0a0b ce36 40ba 2e36 ecf4 e034 c6ee c335
000000f0: 0926 0933 661c 4a37 601b 0135 2886 6435
00000100: 5d52 9432 26a0 de37 69e3 3836 9daf 5435
00000110: 3240 5936 2092 0837 20d1 5036 962c 1935
00000120: 5bbc 7035 b4ab 8835 bbdb 2235 1065 c632
00000130: d89b 0437 2216 e635 8ba1 c236 c700 4b36
00000140: e649 b336 34af f136 3eaf b235 49b2 0235
00000150: d594 2a35 85b5 6734 dfcd 0237 83a4 c435
00000160: 3efe 0934 289d ab36 3646 1c35 af9c 4837
00000170: aaeb 4736 784f 0c36 958b dd36 1e93 ff35
00000180: cf85 6a35 b055 1c35 b661 1b36 810a 7335
00000190: aa79 bc36 1026 6136 25fb c235 1b56 2936
000001a0: de20 5835 682b 1236 7ec5 5035 4ad3 a735
000001b0: 31ec dd34 dc8b da35 20b3 5936 a672 5f36
000001c0: ebad 2c35 4cac 2c35 0dee 5a35 0507 6635
000001d0: 7936 ae33 c175 5c36 b944 4a34 96c8 e534
000001e0: 5c81 9935 d7ab c035 9cab 4935 3aff bd35
000001f0: 6126 b134 bdc0 2135 43a5 0236 4448 bc35
8.2095863e-07 4.9579257e-06 1.0059814e-06 2.0950158e-07 5.187748e-06 7.6437465e-07 7.3498286e-06 6.424732e-07
6.7094436e-07 1.3358013e-07 8.10186e-06 1.0323431e-07 1.2340114e-06 1.8500132e-06 1.9604009e-08 5.6235535e-07
1.1173163e-06 1.2267253e-07 6.375193e-08 6.1908363e-06 6.9174513e-07 2.896132e-07 1.2315094e-07 1.7806508e-06
4.3454844e-07 7.459172e-06 6.800839e-07 1.0090198e-06 3.9175015e-07 6.2216657e-07 5.2879057e-07 1.5891453e-06
2.4555052e-06 2.475696e-06 1.8349274e-07 1.3145333e-06 6.9421153e-06 1.3164152e-08 8.631565e-07 1.105799e-06
9.135545e-06 5.429877e-08 2.5461209e-06 1.6296682e-06 1.1591721e-06 1.1203374e-06 1.3701253e-06 6.734013e-06
8.978907e-07 1.9268389e-06 4.8262186e-06 1.9373879e-07 6.0627485e-07 4.406804e-06 6.872296e-08 1.3352944e-07
6.1405635e-06 2.6036432e-06 4.1901455e-07 1.4598124e-06 3.193239e-08 1.204675e-05 4.809608e-07 8.513184e-07
1.7266922e-08 2.6539037e-05 2.7550507e-06 7.9231705e-07 3.2372886e-06 8.140254e-06 3.1116142e-06 5.706182e-07
8.968106e-07 1.0182762e-06 6.066945e-07 2.3096192e-08 7.904098e-06 1.7142777e-06 5.8004566e-06 3.024981e-06
5.3432186e-06 7.202756e-06 1.3313036e-06 4.8688213e-07 6.3546514e-07 2.1579588e-07 7.796537e-06 1.4651017e-06
1.2851612e-07 5.1144925e-06 5.82167e-07 1.195741e-05 2.9790485e-06 2.0907883e-06 6.6025627e-06 1.9041797e-06
8.736651e-07 5.823922e-07 2.3153675e-06 9.053984e-07 5.617e-06 3.3549768e-06 1.4527219e-06 2.5233082e-06
8.05141e-07 2.178096e-06 7.777343e-07 1.2503963e-06 4.133631e-07 1.628297e-06 3.2439784e-06 3.3296324e-06
6.4328077e-07 6.432572e-07 8.155774e-07 8.569189e-07 8.112415e-08 3.2851096e-06 1.8837717e-07 4.280052e-07
1.1437037e-06 1.4355127e-06 7.512806e-07 1.4155878e-06 3.2996743e-07 6.0257645e-07 1.9467705e-06 1.4028124e-06
