docs/smld/lightning_logs/version_118/checkpoints/epoch=49-step=4900.ckpt (torch, 344011 bytes, 18 tensors)

net.layers.0.weight f4 [164, 2]
0	0xbe0474da	-0.129352
1	0xbe87d52a	-0.2652982
2	0xbcaf585e	-0.021404441
3	0xbdadfd27	-0.084955506
4	0xbe689a41	-0.22715093
5	0xbf08ab31	-0.5338622
6	0xbf25d48a	-0.64777434
7	0x3f10e5d5	0.56600696
8	0x3da38253	0.07983842
9	0x3d99dc57	0.075127296
10	0xbd1adfdf	-0.037811156
11	0xbe3ca5c3	-0.18422608
12	0x3e0913ec	0.13386506
13	0x3e206c6b	0.15666358
14	0xbef201ee	-0.47267097
15	0x3dd5f374	0.104468256
16	0xbe179e57	-0.14806496
17	0xbe9a71f1	-0.30165055
18	0x3e615e7a	0.22008696
19	0x3de543d4	0.11194578
20	0xbee7ee1d	-0.45298854
21	0xbece4d26	-0.40293235
22	0xbdbd6654	-0.09248033
23	0xbf3e0df2	-0.7424003
24	0xbe9b7513	-0.30362758
25	0x3da455b1	0.08024157
26	0xbf0e10f6	-0.5549463
27	0x3eb105b7	0.34574673
28	0x3d1a8d80	0.0377326
29	0xbf0328cc	-0.51234126
30	0xbee01f1e	-0.4377374
31	0x3edf8514	0.43656218
32	0x3e8731c3	0.26405153
33	0xbe845079	-0.25842646
34	0xbe705315	-0.23469193
35	0x3e520e7d	0.2051334
36	0xbf036abb	-0.5133473
37	0xbf2a17e3	-0.664427
38	0x3e772a63	0.24137263
39	0x3f0c1db6	0.54732835
40	0x3e698884	0.22805983
41	0x3ec60ecd	0.38683167
42	0x3e6b5dd6	0.22985014
43	0x3eb19c43	0.3468953
44	0x3e981abf	0.29707906
45	0x3ed39584	0.4132501
46	0xbae467f3	-0.0017425999
47	0x3f218fc7	0.6311001
48	0xbdd91fba	-0.106017545
49	0xbed60053	-0.41797122
50	0xbeb9efcd	-0.36315766
51	0xbe9eaaa6	-0.3098957
52	0x3e816f18	0.2528007
53	0xbc49fa81	-0.012327791
54	0x3dfb07dd	0.12257359
55	0x3e59186f	0.21200727
56	0xbe684894	-0.22683936
57	0x3d72c3a9	0.059268627
58	0xbec12548	-0.37723756
59	0xbeaf468e	-0.34233516
60	0xbe26aa72	-0.16275957
61	0xbe2d6677	-0.16933618
62	0xbed071b7	-0.40711758
63	0xbee5d780	-0.44890976
64	0xbe2151dd	-0.15753885
65	0xbe1f5a83	-0.15561871
66	0x3ef04048	0.46924043
67	0xbe8a5028	-0.2701428
68	0x3e19a858	0.15005624
69	0xbee3bcd0	-0.4447999
70	0xbc8e35a9	-0.017359572
71	0x3f0dda1f	0.5541095
72	0xbe2b015d	-0.16699739
73	0x3d995a1f	0.07487892
74	0x3e4b3c6d	0.1984727
75	0xbe03952e	-0.12849876
76	0x3e8b696e	0.27228874
77	0x3ebd9cb2	0.37033612
78	0xbed77511	-0.42081502
79	0x3e7ae69a	0.2450203
80	0x3ddea874	0.10871974
81	0x3f0b08a6	0.5431007
82	0xbd546762	-0.051856406
83	0x3eb1d7d3	0.34734973
84	0x3ecddde3	0.4020835
85	0x3f1ead92	0.619836
86	0x3c191dd8	0.009345494
87	0x3ef25180	0.47327805
88	0x3db1442a	0.086555794
89	0xbeba531c	-0.36391532
90	0xbee3d09f	-0.44495103
91	0xbdc2ac8e	-0.095055684
92	0xbec726a6	-0.38896674
93	0x3eb03997	0.34418938
94	0xbe39c286	-0.18140611
95	0x3e028bdc	0.12748665
96	0xbe808e23	-0.25108442
97	0x3e5fb92c	0.21847981
98	0xbedaf574	-0.4276539
99	0xbf06edf2	-0.52706826
100	0xbe69d8c6	-0.22836599
101	0xbe9885ac	-0.29789484
102	0xbc336eea	-0.010951737
103	0xbf029821	-0.5101338
104	0x3eca864f	0.39555594
105	0x3dc443b4	0.09583226
106	0x3e702686	0.23452196
107	0x3f0d0056	0.5507864
108	0xbd45ad6d	-0.048261095
109	0x3e192773	0.14956455
110	0x3daa3f82	0.083128944
111	0x3e9c5188	0.30530953
112	0xbe0e10a4	-0.13873535
113	0x3ed2e9fe	0.41194147
114	0xbf12f9d1	-0.5741244
115	0x3e4d3260	0.20038748
116	0xbe12c787	-0.14333926
117	0xbf1763bd	-0.59136564
118	0x3e9d66c0	0.30742455
119	0x3eabe691	0.33574346
120	0x3e8b6c7a	0.272312
121	0xbe94902d	-0.29016247
122	0xbd8dd847	-0.06926017
123	0xbf0cdac6	-0.5502132
124	0x3e4018c1	0.18759443
125	0x3ea56423	0.3230296
126	0xbe940613	-0.28910884
127	0x3d23d789	0.040000472
128	0xbeb58db7	-0.35459682
129	0xbf04f3e6	-0.5193466
130	0xbd678be8	-0.05652991
131	0xbec89605	-0.39176956
132	0x3e8d0f6f	0.27550837
133	0xbe5eeeab	-0.21770732
134	0x3eabb644	0.33537495
135	0xbdfd35a0	-0.12363744
136	0xbd61a7ab	-0.05509154
137	0x3dc03b39	0.09386296
138	0xbecc9d45	-0.39963737
139	0xbec3e99b	-0.38264164
140	0xbee13efe	-0.43993372
141	0xbe68dc87	-0.22740375
142	0xbe3db2ac	-0.18525189
143	0xbf0821d9	-0.5317665
144	0x3e49c5b5	0.19704325
145	0xbeee5779	-0.4655111
146	0x3ce580ff	0.028015612
147	0xbeaa9787	-0.3331873
148	0x378b7370	1.6623846e-05
149	0xbc46a50a	-0.012124309
150	0x3efd2848	0.49444795
151	0x3eff31b2	0.49842602
152	0x3e2508a5	0.16116579
153	0x3e5bc083	0.21460156
154	0xbe817f76	-0.25292557
155	0x3cda165a	0.026621986
156	0xbecc0947	-0.39850828
157	0xbf059026	-0.5217308
158	0x3eabdfe1	0.33569244
159	0x3eb85066	0.3599884
160	0xbe86bd26	-0.26316184
161	0xbe97ab6b	-0.2962297
162	0xbd6e8b7f	-0.058238503
163	0xbe8f76d1	-0.28020337
164	0x3e8ff43f	0.28116032
165	0xbed0a392	-0.40749794
166	0xbf0ae5e8	-0.5425706
167	0xbe91fceb	-0.28513274
168	0x3e39f73b	0.18160717
169	0xbdaece2a	-0.085354164
170	0x3e85d7e7	0.26141283
171	0xbda515f6	-0.08060829
172	0x3f33d273	0.70242995
173	0x3ec6f9c4	0.3886243
174	0x3ef2e541	0.47440532
175	0xbe916c97	-0.2840316
176	0xbda2dba4	-0.079520494
177	0x3eb8cef3	0.3609539
178	0x3c754a4a	0.014971325
179	0xbccbe6cd	-0.024890328
180	0xbda6da7f	-0.081471436
181	0xbefb58d3	-0.49091205
182	0xbde3bd7b	-0.11120125
183	0x3edf7885	0.43646637
184	0x3f07c37e	0.5303267
185	0x3e30d24c	0.17267722
186	0xbf0161ed	-0.5054005
187	0xbebbdcc6	-0.36691874
188	0x3e9f18ff	0.31073758
189	0xbe56269e	-0.20913169
190	0xbdedbab0	-0.116078734
191	0x3e16dafa	0.1473197
192	0x3ec6166b	0.3868898
193	0x3ecbc5a0	0.39799213
194	0x3ea483a9	0.321317
195	0xbc8f221f	-0.017472325
196	0xbd049696	-0.032370172
197	0xbf255d69	-0.6459566
198	0x3e80c8b2	0.25153118
199	0x3e4f43ce	0.20240709
200	0x3ec82dc6	0.39097422
201	0x3e100eb2	0.14068106
202	0x3ddd3ea2	0.10802962
203	0xbc5b4e25	-0.01338533
204	0x3e099de9	0.13439144
205	0xbf05db7d	-0.5228804
206	0xbd30e387	-0.043185737
207	0x3ea93026	0.33044547
208	0x3ed72d3c	0.420267
209	0x3ca7b16d	0.020470345
210	0x3e80ca50	0.25154352
211	0xbe7db034	-0.24774247
212	0x3e998d7d	0.2999076
213	0x3edc1d6c	0.42991197
214	0x3e46c241	0.1941004
215	0x3f037688	0.5135274
216	0xbee15fef	-0.44018504
217	0x3d22fcf3	0.039792012
218	0xbeb30f59	-0.34972647
219	0x3f1b5490	0.6067591
220	0x3d7d15f0	0.0617885
221	0xbbd2d1e2	-0.0064337114
222	0xbf02ec28	-0.51141596
223	0xbdf7edf4	-0.12105933
224	0x3e777688	0.2416631
225	0xbe72dc6b	-0.23716895
226	0x3ee872b5	0.45400015
227	0x3edf7146	0.43641108
228	0xbeba634b	-0.3640388
229	0x3e402f69	0.18768086
230	0x3ebaae2e	0.36461014
231	0x3eda8765	0.42681423
232	0x3ef3a6a3	0.4758807
233	0x3e638359	0.22218074
234	0x3d521567	0.051289942
235	0xbd71fbf2	-0.059078164
236	0x3edcf7f6	0.4315793
237	0x3d8f39a8	0.06993419
238	0xbe2f00d3	-0.17090158
239	0x3ef1ad84	0.47202694
240	0x3e87b0a7	0.26501963
241	0xbe363efb	-0.17797463
242	0xbf12a615	-0.5728467
243	0x3e1cf76e	0.15328762
244	0xbcc700be	-0.024292346
245	0xbdd3131c	-0.10306379
246	0xbf042c2d	-0.51629907
247	0xbe0beaa2	-0.13663724
248	0xbe3137b1	-0.17306401
249	0x3e94c0dc	0.2905339
250	0x3d8591ab	0.065219246
251	0x3ef86ac3	0.48518953
252	0x3ea26c8a	0.31723434
253	0xbe457083	-0.19281201
254	0x3e5a2479	0.21302976
255	0xbe4f0388	-0.20216191

net.layers.0.bias f4 [164]
0	0x3f0ac8a7	0.5421242
1	0x3f34b50f	0.70588773
2	0x3d842849	0.06452996
3	0xbe85b79f	-0.26116654
4	0x3fb0e923	1.3821148
5	0x3f89a7b8	1.0754309
6	0x3d9c06c6	0.076184794
7	0xbf558bce	-0.8341645
8	0x3f8bb54f	1.0914706
9	0xbf409993	-0.75234336
10	0xbf3c0424	-0.7344382
11	0xbf74b060	-0.95581627
12	0x3e178564	0.14796978
13	0xbfa3ad25	-1.2787215
14	0xbf4e806a	-0.80664694
15	0x3e6370c1	0.22210981
16	0x3f92794a	1.1443264
17	0xbf1ca7c2	-0.6119348
18	0xbf5f4a09	-0.87222344
19	0xbf1f2d95	-0.6217893
20	0xbf02717c	-0.50954413
21	0x3f8c6703	1.0968937
22	0x3f843c85	1.0330969
23	0xbf81bc94	-1.0135674
24	0xbf534011	-0.8251963
25	0x3f5075e3	0.8142988
26	0xbf434123	-0.76271266
27	0xbefe9694	-0.49724257
28	0xbf5702e6	-0.839888
29	0xbee0a0be	-0.43872637
30	0x3f8fdb55	1.123881
31	0xbf5916ce	-0.8480042
32	0x3f8aebb6	1.0853183
33	0x3e36d6ce	0.17855379
34	0xbe6262fe	-0.22108075
35	0xbed2162e	-0.41032547
36	0x3f982d4c	1.1888824
37	0x3f28d685	0.6595233
38	0xbf8ab42a	-1.0836232
39	0xbf78e3f5	-0.97222835
40	0xbf0703cf	-0.52740186
41	0x3f8eb6ec	1.1149573
42	0xbf81e92d	-1.0149285
43	0x3e1d4e59	0.15361919
44	0xbf16cbe5	-0.5890487
45	0xbf9708f0	-1.1799603
46	0xbf54f0c4	-0.8317988
47	0xbf0ebd14	-0.5575726
48	0xbfa80320	-1.3125954
49	0xbf0de08a	-0.55420744
50	0xbf1c5967	-0.6107392
51	0x3f80f77c	1.0075526
52	0xbf8281f2	-1.0195906
53	0xbf1fb74c	-0.62389064
54	0x3dd8b7d7	0.1058194
55	0xbeddb6d5	-0.43303552
56	0xbf5aa606	-0.8540958
57	0x3e7bd22c	0.24591893
58	0xbed52917	-0.41632912
59	0xbf1cd4d6	-0.6126226
60	0xbeda560e	-0.4264378
61	0xbf21c4a0	-0.6319065
62	0xbf24c321	-0.64360243
63	0x3f189f90	0.59618473
64	0xbf293678	-0.6609874
65	0xbd7ac65f	-0.061224338
66	0x3f37720f	0.71658415
67	0x3f7e67e5	0.9937728
68	0x3f77365a	0.9656731
69	0x3f5b8086	0.85742986
70	0xbf21ce6c	-0.632056
71	0xbf4adab1	-0.79239947
72	0xbf012b68	-0.5045686
73	0x3f4273c4	0.75957894
74	0x3f3aa109	0.7290197
75	0x3f6670c6	0.9001583
76	0xbf0e36fb	-0.55552644
77	0x3ea7bc16	0.32760686
78	0xbed00f7d	-0.40636817
79	0x3f07cd68	0.530478
80	0xbf132d46	-0.57490957
81	0xbe1fb7c4	-0.15597445
82	0x3f51d3e8	0.8196397
83	0xbea17244	-0.3153249
84	0xbead85f1	-0.33891252
85	0xbe9b0022	-0.3027354
86	0xbf66ced5	-0.9015935
87	0xbf846b49	-1.0345241
88	0xbf6ab8d6	-0.9168829
89	0x3fbbdfaf	1.4677638
90	0x3f4d8670	0.8028326
91	0x3f5d5441	0.86456686
92	0x3f0e9572	0.55696785
93	0xbec236af	-0.37932345
94	0xbf5ef600	-0.87094116
95	0x3f5a0d8d	0.85176927
96	0xbeb19f30	-0.34691763
97	0xbf6be430	-0.9214506
98	0xbeace2a1	-0.33766654
99	0x3f6f311a	0.934343
100	0x3e38b8bf	0.18039225
101	0x3fb095ef	1.3795756
102	0xbf6c32bd	-0.9226492
103	0x3ec2e250	0.38063288
104	0x3f4fde99	0.8119903
105	0xbf7e02b4	-0.99222875
106	0x3ea70746	0.32622737
107	0xbec29519	-0.38004377
108	0xbe581e90	-0.21105409
109	0xbfa022c7	-1.2510613
110	0x3f354e62	0.7082273
111	0x3e1fc2ec	0.156017
112	0xbf71f4ff	-0.9451446
113	0xbf52fbc3	-0.8241541
114	0x3e705566	0.23470077
115	0xbf2ec640	-0.68271255
116	0x3dc8bc39	0.098015256
117	0x3fa9ef85	1.327622
118	0xbf845edd	-1.034145
119	0x3f482e4e	0.78195655
120	0xbf460c07	-0.773621
121	0xbf36ddb9	-0.7143207
122	0x3f5c2e27	0.8600792
123	0x3f6f92c8	0.93583345
124	0xbf95abcb	-1.1693052
125	0xbf6c8fbb	-0.92406815
126	0xbf1516ae	-0.5823773
127	0xbf097456	-0.5369314
128	0xbea2d6e1	-0.31804565
129	0x3e9760db	0.29566082
130	0xbec729c3	-0.3889905
131	0x3f632f36	0.88743913
132	0xbf358be8	-0.70916605
133	0xbe8d3eb0	-0.2758689
134	0x3f7b806d	0.9824284
135	0x3ec5b3d3	0.38613757
136	0xbf800143	-1.0000385
137	0x3e84acb0	0.25913
138	0xbe5995e2	-0.21248582
139	0x3f039739	0.5140262
140	0x3e7814e1	0.24226715
141	0xbed9f4f6	-0.42569703
142	0xbed685e0	-0.41899014
143	0x3f8a0781	1.078354
144	0xbf150a85	-0.58219177
145	0xbf979c84	-1.184464
146	0x3f7d9588	0.9905629
147	0x3e3eb2aa	0.18622842
148	0xbf0d5290	-0.55204105
149	0x3f503652	0.81332886
150	0xbf745e0a	-0.9545599
151	0xbf3d62be	-0.73978794
152	0x3f3b1adf	0.7308788
153	0xbf8d089d	-1.1018254
154	0x3f3f7eb8	0.7480273
155	0x3e33973c	0.1753816
156	0xbf853cac	-1.040914
157	0x3f9eb9b1	1.2400419
158	0xbf3ac7cd	-0.7296112
159	0xbf4eb2a7	-0.8074135
160	0xbee4f2be	-0.44716448
161	0xbf5e1f10	-0.8676615
162	0x3f348bec	0.70526004
163	0xbeb8b36b	-0.36074385

net.layers.2.weight f4 [164, 164]
0	0x3d6491fc	0.055803284
1	0xbde12394	-0.10993114
2	0xbda9464e	-0.08265363
3	0x3d4c08f7	0.049813237
4	0x397aa2be	0.00023902484
5	0xbc902bd3	-0.017599022
6	0xbc332262	-0.0109334905
7	0xbd8c56e7	-0.06852513
8	0xbaafb81b	-0.0013406308
9	0x3d6f950c	0.05849175
10	0x3cce3822	0.02517325
11	0xbda0724e	-0.07834302
12	0x3d05865b	0.032598834
13	0xbcf70022	-0.03015143
14	0x3c10a2e3	0.008827898
15	0xbdd0fadd	-0.102040984
16	0xbd2779e8	-0.040887743
17	0x3a3ec10b	0.00072766904
18	0xbd59fa77	-0.053217378
19	0xbc845a7f	-0.016156433
20	0xbcc29f23	-0.023757523
21	0x3cdab777	0.026698811
22	0x3c0c96b1	0.0085808495
23	0x3c7ad586	0.015309697
24	0x3d8e680f	0.06953441
25	0xbd2c964a	-0.042135514
26	0x3d9b6009	0.075866766
27	0x3b214d1a	0.0024612607
28	0x3d8bf695	0.06834141
29	0xbda3059d	-0.07960055
30	0x3d195fd7	0.037444916
31	0x3c7d95dc	0.015477624
32	0xbd99d7a0	-0.0751183
33	0x3c84e7ad	0.016223753
34	0xbdc0b829	-0.09410126
35	0x3d582ff5	0.05278011
36	0xbda6f2c7	-0.08151775
37	0xbda114c5	-0.078652896
38	0x3b415065	0.0029497382
39	0x3c13e407	0.009026534
40	0x3cbff7f7	0.023433669
41	0xbd3a3694	-0.045462206
42	0xbcfda3d9	-0.030961918
43	0x3d2503d1	0.040286843
44	0x3ce656d6	0.028117578
45	0x3d8ab69e	0.06773113
46	0xbd7dd3da	-0.061969616
47	0xbc0b186d	-0.00848971
48	0x3d821bfc	0.06352994
49	0xbd39e98c	-0.045388743
50	0xbd1fdb59	-0.039027546
51	0x3c802d8f	0.015646724
52	0x3ce71e06	0.028212558
53	0xbd6fe7b0	-0.058570564
54	0x3b747d45	0.0037306112
55	0xbd0326f2	-0.032019563
56	0xbd41901b	-0.04725657
57	0xbd6bdec2	-0.057585485
58	0xbc28dffc	-0.010307308
59	0xbd450cff	-0.048108097
60	0xbdd0e1aa	-0.10199292
61	0xbd997039	-0.07492108
62	0x3d70ceea	0.05879108
63	0x3d2d43a9	0.042300854
64	0xbd504936	-0.05085107
65	0xbd9af154	-0.07565561
66	0xbd64b41f	-0.05583584
67	0xbbee9ef3	-0.007282132
68	0xbcac683c	-0.021045797
69	0xbd339176	-0.043839894
70	0xbc874e83	-0.01651693
71	0x3c6b148a	0.014348159
72	0xbdbb9da8	-0.0916093
73	0x3d499338	0.049212664
74	0xbd968e1f	-0.07351326
75	0x3bdd90f2	0.0067616636
76	0xbd957d99	-0.072993465
77	0x3d62c23b	0.055361014
78	0x3b951bfd	0.0045504556
79	0xbdac513a	-0.0841393
80	0x3d50bc8f	0.050961073
81	0x3d52226c	0.05130236
82	0xbdd393ab	-0.103309
83	0xbd2dc520	-0.04242432
84	0xbd8027e5	-0.06257609
85	0xbd9b60c1	-0.07586814
86	0x3cbd246a	0.023088653
87	0x3b420768	0.0029606465
88	0xbb8357db	-0.004008276
89	0xbe069f0d	-0.1314661
90	0x3d47a8e8	0.048745066
91	0xbdc1ab9b	-0.09456559
92	0x3d11cbfb	0.03559492
93	0x3d7169c3	0.058938753
94	0xbd79e060	-0.061004996
95	0x3cd4f3f8	0.02599524
96	0x3d6eb094	0.058273867
97	0x3d142d9b	0.036176305
98	0xbda2776d	-0.07932935
99	0xbc92a31c	-0.017900042
100	0x3c7deadf	0.015497892
101	0x3d144fbb	0.03620885
102	0x3bffccf1	0.0078064133
103	0x3d3e66f6	0.04648491
104	0xbd8dbaf1	-0.06920422
105	0xbd00cbc8	-0.03144434
106	0xbda18868	-0.078873456
107	0xbdc07fc6	-0.09399371
108	0xbcab4c0e	-0.02091029
109	0xbd409b41	-0.04702306
110	0x3cf355e0	0.029704034
111	0xbcf2603d	-0.029586906
112	0x3d7825cb	0.060582917
113	0x3d144364	0.03619708
114	0x3d4419b9	0.047876094
115	0x3cebc9ca	0.028782744
116	0xbb83544c	-0.0040078517
117	0xbd193a11	-0.037408892
118	0xbd9853f4	-0.07437888
119	0xbdb8b7c7	-0.09019428
120	0xbd9ccde2	-0.076564565
121	0xbd5c0767	-0.053717997
122	0x3d112982	0.035439976
123	0x3d3d0f09	0.046156917
124	0x3d38c215	0.045106966
125	0xbd78c330	-0.06073302
126	0xbd9f6f39	-0.07784886
127	0x3d3d6a59	0.046244
128	0xbd062ea3	-0.03275932
129	0x3d34d293	0.04414613
130	0x3cf73657	0.030177278
131	0x3cee7e2d	0.0291129
132	0x3ce00735	0.027347187
133	0x3c833911	0.016018422
134	0xbda8cc08	-0.08242041
135	0xbd1b1d40	-0.03786969
136	0x3d1300b2	0.035889335
137	0x3c2ec7cc	0.0106677525
138	0x3c5d2bf9	0.013499253
139	0xbd4687a6	-0.04846921
140	0xbd46ee0d	-0.048566867
141	0xbd035957	-0.032067623
142	0x3d627cd5	0.05529483
143	0x3cd65586	0.026163828
144	0x3d360858	0.04444155
145	0xbb56f513	-0.0032799884
146	0x3d2c1d81	0.042020325
147	0xbca15794	-0.01969508
148	0xbc66870d	-0.014070285
149	0xbcf44a3f	-0.02982056
150	0xbda187f4	-0.07887259
151	0xbd53d21a	-0.05171404
152	0xbdc21b54	-0.09477869
153	0x3d6220fb	0.055207234
154	0xbdbaafb6	-0.091155455
155	0xbd935427	-0.07193785
156	0xbcb40af1	-0.021977874
157	0x3d229a68	0.039698035
158	0xbcd93809	-0.026515977
159	0x3ca7fb8c	0.02050569
160	0xbcbdcb22	-0.02316815
161	0xbd83a707	-0.06428342
162	0x3ca3be25	0.019988129
163	0xbda16978	-0.07881445
164	0x3ca4a2e8	0.020097211
165	0xbd39933e	-0.045306437
166	0xbd204d74	-0.039136365
167	0xbc971267	-0.018441392
168	0x3ca21d3b	0.019789329
169	0xbd1dc339	-0.038516257
170	0xbd3c4301	-0.045962337
171	0xbd153868	-0.036430746
172	0xbda7fc25	-0.0820239
173	0xbbc57cf5	-0.006026859
174	0xbd5ffedc	-0.054686412
175	0xbd9d4f45	-0.07681135
176	0xbd7030ba	-0.05864022
177	0xbbf31793	-0.0074185818
178	0x3c705648	0.014669009
179	0xbc772a4f	-0.015085771
180	0x3cd80a04	0.026371963
181	0xbd8aed42	-0.067835346
182	0xbcf7983e	-0.030223962
183	0xbc536867	-0.012903309
184	0x3cf8cf90	0.030372411
185	0xbc18f265	-0.009335135
186	0x3cd9ed3e	0.026602384
187	0xbd90ea83	-0.070759796
188	0x3d56df45	0.05245902
189	0x3b958087	0.004562441
190	0xbd9d883d	-0.07692001
191	0x3cd66883	0.026172882
192	0xbcc62443	-0.024187213
193	0x3d6942e7	0.05694857
194	0x3d7301b7	0.059327807
195	0xbd0781c4	-0.03308274
196	0xbcbf4778	-0.023349509
197	0x3d2a1631	0.04152507
198	0x3d6c37d1	0.05767042
199	0xbcf94356	-0.030427616
200	0xbca579c3	-0.020199662
201	0x3cb1606f	0.021652428
202	0x3d7c36bf	0.061575647
203	0xbc7f5957	-0.015585265
204	0xbc41decc	-0.011832904
205	0xbd771cda	-0.06033025
206	0xbd809569	-0.06278498
207	0x3d24f058	0.040268272
208	0x3bdc77bb	0.00672814
209	0x3d81450b	0.06311997
210	0x3d8bf8eb	0.06834587
211	0x3d359fb1	0.044341747
212	0xbd821a8b	-0.06352719
213	0xbc580177	-0.013183943
214	0xbda3b604	-0.07993701
215	0xbd6cbbdb	-0.05779634
216	0x3d812d97	0.06307524
217	0x3c55e1ce	0.013054324
218	0xbd9bb931	-0.07603682
219	0xbd1b7833	-0.037956428
220	0x3d8dca24	0.06923321
221	0x3d351771	0.04421181
222	0xbca16dac	-0.019705616
223	0x3d3b8230	0.045778453
224	0x3d6e8277	0.05822989
225	0xbdadea24	-0.084919244
226	0x3ca7d46b	0.020487031
227	0xbd279399	-0.040912244
228	0x3d7850aa	0.060623802
229	0xbd7d2c60	-0.061809897
230	0xbcb6310a	-0.02224018
231	0xbdb10c5b	-0.08644935
232	0xbd01853f	-0.031621214
233	0xbd370b69	-0.044688616
234	0xbc7ae3a5	-0.015313064
235	0x3bad95f7	0.005297418
236	0x3cd58909	0.02606632
237	0xbd3ec38b	-0.046573203
238	0xbd026ee3	-0.03184403
239	0xbd487e05	-0.048948307
240	0x3d4bd249	0.04976109
241	0x3d22f244	0.039781824
242	0xbaf24ec3	-0.0018486608
243	0xbd9ee360	-0.07758212
244	0xbd55f01d	-0.052230943
245	0x3d772f42	0.060347803
246	0xbcd8ad60	-0.02644986
247	0x3d9375b1	0.07200182
248	0xbae76f3c	-0.0017657052
249	0xbd470e45	-0.048597593
250	0xbd03e8dd	-0.032204498
251	0x3cd7fbe7	0.026365234
252	0x3d85d0fe	0.06534003
253	0x3d0b8a22	0.03406728
254	0xbdb2b883	-0.08726599
255	0xbc290ad3	-0.010317522

net.layers.2.bias f4 [164]
0	0xbd757029	-0.059921417
1	0xbd66701b	-0.056259256
2	0x3aa137d5	0.0012299964
3	0xbceb2fda	-0.02870934
4	0xbd33d555	-0.04390462
5	0xbd8ca346	-0.068670794
6	0xbd491472	-0.049091764
7	0x3d6c2752	0.057654686
8	0xbdaf1209	-0.08548362
9	0x3d49495a	0.04914222
10	0x3a779b52	0.0009445447
11	0x3c43d89f	0.011953502
12	0x3d693f57	0.05694517
13	0x3d8ed588	0.069743216
14	0x3d1b6823	0.03794111
15	0xbf27e1ff	-0.6557922
16	0xbd5b29ef	-0.053506788
17	0x3ddc13e2	0.1074598
18	0xbd30da8e	-0.04317718
19	0x3cc37c40	0.023862958
20	0xbca0ec20	-0.019643843
21	0xbddff9b3	-0.10936298
22	0x3daa5f0b	0.08318909
23	0x3efb5fff	0.49096677
24	0xbd6b6dfc	-0.057477936
25	0x3c494799	0.012285137
26	0x3e8396e7	0.25701067
27	0xbdbb1731	-0.09135283
28	0xbd0ed312	-0.03486926
29	0xbd4d70e1	-0.050156478
30	0xbd4ab4f4	-0.049488977
31	0x3f07c7c7	0.5303921
32	0x3c90934b	0.01764836
33	0x3cb1d00c	0.02170565
34	0xbdab413f	-0.08362054
35	0xbb0eb960	-0.0021777973
36	0xbd7cc12a	-0.061707653
37	0x3bcc76e5	0.0062397593
38	0xbd76c142	-0.0602429
39	0xbd8c0680	-0.06837177
40	0xbe335415	-0.17512543
41	0x3cbf0f42	0.023322705
42	0x3cb2213d	0.021744365
43	0xbb88d942	-0.00417629
44	0xbc9ed77d	-0.019389862
45	0x3da57baa	0.08080228
46	0xbd3edb75	-0.04659601
47	0x3d2ec2a7	0.042666104
48	0x3d22e774	0.039771512
49	0xbd5fe3c7	-0.054660585
50	0xbda4e018	-0.08050555
51	0xbc5fd0cf	-0.013660624
52	0x3dc5ae6d	0.0965241
53	0x3c7cf516	0.015439292
54	0x3a85493b	0.0010168919
55	0x3ed12a94	0.40852797
56	0x3eadf280	0.33974075
57	0x3d29d143	0.041459333
58	0x3cb3c49c	0.021944337
59	0x3ef2d0cc	0.47424924
60	0xbdc45035	-0.09585611
61	0xbda49b0d	-0.08037386
62	0x3f061693	0.52378196
63	0x3cc3fbf4	0.023923852
64	0xbd4dbbc0	-0.05022788
65	0xbd911030	-0.07083166
66	0xbd1b221f	-0.037874337
67	0x3d3ad115	0.045609552
68	0x3d2380a7	0.039917614
69	0x3d1f59a6	0.038903855
70	0xbdb55732	-0.08854522
71	0x3d04b597	0.03239974
72	0xbe83f2da	-0.2577122
73	0xbcdef6d6	-0.02721731
74	0xbb4ee4fd	-0.0031569593
75	0x3d0e4960	0.034737945
76	0x3c7948d7	0.01521512
77	0xbd383ef8	-0.044981927
78	0x3c28c903	0.010301831
79	0x3d055a7b	0.032556992
80	0xbd671afe	-0.056422226
81	0xbdad7e85	-0.08471397
82	0x3c915d65	0.01774473
83	0xbd7b8b44	-0.06141211
84	0xbd90e0e7	-0.07074147
85	0xbd00eed3	-0.03147776
86	0xbd64628f	-0.055758055
87	0x3d60d06d	0.05488627
88	0xbd63e812	-0.05564124
89	0x3d2c99dc	0.04213892
90	0xbdb8db5e	-0.09026216
91	0x3ebf9edd	0.3742589
92	0xbc8413b6	-0.01612268
93	0xbd2b5f50	-0.041838944
94	0x3ad94a47	0.0016577923
95	0xbd4f851c	-0.050664052
96	0x3adae202	0.0016699436
97	0xbd0af7e8	-0.033927828
98	0xbd8a763d	-0.067608334
99	0xbc84b621	-0.016200127
100	0xbda5c641	-0.080944546
101	0xbdb6e9be	-0.089313015
102	0xbe38f78a	-0.18063179
103	0x3c38cf9b	0.011279966
104	0x3efc0f95	0.49230638
105	0x3baac170	0.005211048
106	0x3c8e076a	0.01733752
107	0x3ba4445f	0.0050130333
108	0x3d6046d3	0.054755043
109	0x3b6a7816	0.0035777143
110	0xbdebfcef	-0.11522853
111	0x3d69d24a	0.057085313
112	0xbc266d78	-0.010157935
113	0xbb86a010	-0.0041084364
114	0xbd0699d1	-0.032861535
115	0x3daa8267	0.083256535
116	0xbdb06ae8	-0.08614141
117	0xbd9cac17	-0.07650011
118	0xbe9c8721	-0.30571845
119	0xbc3fa3ac	-0.011696737
120	0xbdf3e78c	-0.119093984
121	0xbef2ea7e	-0.47444528
122	0x3c49e96c	0.0123237185
123	0xbcd3566e	-0.025798049
124	0xbcbb426c	-0.02285882
125	0xbdbac73c	-0.09120032
126	0xbca02571	-0.019549103
127	0xbd5e19c2	-0.054223783
128	0xbccaf5a6	-0.024775337
129	0xbd8e8bb8	-0.06960243
130	0xbda29274	-0.0793809
131	0x3d5f2bdb	0.054485183
132	0xbd2acd6c	-0.04169981
133	0xbb596cd2	-0.0033176434
134	0xbd0b83af	-0.03406113
135	0xbda804d7	-0.08204048
136	0xbcc0f264	-0.02355308
137	0x3d87c0dd	0.066285826
138	0xbb92e26a	-0.004482557
139	0x3cf4b219	0.02987008
140	0xbc368eb1	-0.011142419
141	0xbd3dc116	-0.04632672
142	0x3d1f0d78	0.038831204
143	0xbd72c0eb	-0.059266012
144	0x3d64a8e2	0.05582512
145	0x3c0d7d30	0.008635804
146	0x3ee5f5f4	0.4491421
147	0xbbf30d43	-0.0074173524
148	0xbcd2e72f	-0.025745003
149	0xbd7887d3	-0.060676407
150	0xbd8f7fc2	-0.0700679
151	0xbc14d8ce	-0.009084893
152	0xbd70dd69	-0.058804903
153	0xbd6a1cb9	-0.0571563
154	0xbbafc595	-0.00536413
155	0xbec44f63	-0.38341817
156	0xbde530be	-0.111909375
157	0xbd8d90fa	-0.06912418
158	0xbc8affaf	-0.016967623
159	0x3c8ee6f1	0.017444106
160	0xbd2082c5	-0.03918721
161	0xbd16c0b3	-0.036804866
162	0xbd46a458	-0.048496574
163	0xbd37d64c	-0.044882104

net.layers.4.weight f4 [2, 164]
0	0xbc0fab65	-0.008768891
1	0xbd60f31e	-0.054919355
2	0x3d6f78c2	0.058464773
3	0xbd4cd506	-0.050007842
4	0xbbdf180b	-0.006808286
5	0x3d34af1a	0.044112302
6	0x3d81d816	0.06340043
7	0x3d840b9a	0.06447525
8	0x3d3ba4b4	0.04581137
9	0x3be4562b	0.00696828
10	0xbd0dd219	-0.034624193
11	0xbc80377f	-0.015651463
12	0xbc9dac23	-0.01924712
13	0x3ce0f433	0.027460193
14	0xbce6bfec	-0.028167687
15	0x3efc78fb	0.4931105
16	0xbd4082d9	-0.046999786
17	0xbc2a27fc	-0.01038551
18	0x3c002c63	0.007823083
19	0x3cc30c1c	0.023809485
20	0xbd981f07	-0.07427793
21	0xbcc1e5c5	-0.023669133
22	0x3cb2a59c	0.021807484
23	0x3e4a09f9	0.19730367
24	0x3d4a5807	0.049400356
25	0xbc9b6f44	-0.018973954
26	0x3e277860	0.16354513
27	0xbd0ec1a6	-0.034852646
28	0xbcf85879	-0.030315625
29	0x3c5bcb89	0.013415226
30	0x3c809358	0.015695259
31	0x3f38f45d	0.7224787
32	0xbd2250bd	-0.03962778
33	0xbd67de45	-0.056608457
34	0x3c8d1544	0.017222054
35	0xbd2feb6d	-0.04294913
36	0xbd29adc7	-0.041425493
37	0xbcabbe19	-0.020964669
38	0xbc3b8e19	-0.011447453
39	0xbaa234d2	-0.0012375361
40	0x3d028aba	0.03187058
41	0x3c7d7fcb	0.015472363
42	0xbd8ec6b5	-0.06971494
43	0xba9e68e4	-0.0012085703
44	0xbcbddbfa	-0.023176182
45	0x3c2fe36f	0.010735377
46	0x3d482570	0.04886383
47	0x3d850211	0.06494535
48	0x3c4c4340	0.0124672055
49	0x39a86f47	0.00032126365
50	0xbd418d0c	-0.047253653
51	0xbce4975d	-0.027904207
52	0x3cc82242	0.024430398
53	0x3d409442	0.04701639
54	0x3c2b89ee	0.010469897
55	0xbea47bfe	-0.3212585
56	0x3dcc5867	0.09977799
57	0xbc3cb699	-0.011518144
58	0xbcef9d3d	-0.029249782
59	0x3f236bc4	0.6383631
60	0xbb7c859a	-0.0038531781
61	0xbce699e0	-0.028149545
62	0x3edbdc43	0.42941484
63	0xbd139d80	-0.036038876
64	0xbd17479a	-0.03693352
65	0x3d76906d	0.06019633
66	0x3cdd5fb5	0.027023176
67	0xbd66f90b	-0.05638985
68	0xbc3eb70f	-0.011640324
69	0x3a79cbef	0.00095289847
70	0x3d0a5de0	0.033780932
71	0xb975d60c	-0.0002344476
72	0x3da49146	0.08035521
73	0xbce1936c	-0.027536117
74	0x3d15b1f1	0.03654665
75	0x3d69b416	0.05705651
76	0x3c306d65	0.010768269
77	0xbc80b253	-0.015710032
78	0xbc3c560c	-0.011495125
79	0x3cabe227	0.020981861
80	0x3adde325	0.0016928656
81	0xb9ec9865	-0.0004512697
82	0xbd14250f	-0.036168154
83	0xbc75a214	-0.014992256
84	0xbd38d069	-0.04512063
85	0x3b413379	0.0029480143
86	0x3d606dc0	0.054792166
87	0x3ae7bc29	0.0017679977
88	0xbbeb0dac	-0.0071732607
89	0x3d50091c	0.050789937
90	0xbcab9214	-0.020943679
91	0x3ea1d986	0.3161127
92	0x3cfbd9af	0.030743448
93	0xbc2a9c8d	-0.010413301
94	0x3a80adc3	0.000981741
95	0x3ceabb82	0.028653864
96	0xbd71a483	-0.05899478
97	0xbd240600	-0.040044785
98	0x3ce0566c	0.02738496
99	0xbd810adb	-0.06300899
100	0xbd27bf31	-0.04095382
101	0xbcdc3e7a	-0.02688526
102	0x3d088137	0.033326354
103	0xbc9d2a88	-0.01918532
104	0xbea4415c	-0.32081115
105	0xbd5ecd32	-0.05439491
106	0x3cede766	0.029041003
107	0xbb2f5ba8	-0.0026757512
108	0x3cb0ae5e	0.02156752
109	0x3cf8b8d7	0.030361576
110	0x3d08e956	0.03342565
111	0xbc4676a3	-0.012113246
112	0x3cd75ae5	0.02628846
113	0x3bbc2021	0.0057411348
114	0xb96a5303	-0.00022346903
115	0x3cbc630c	0.022996448
116	0xbcb2baf7	-0.021817667
117	0x3c5e0950	0.013552025
118	0x3e2eff1a	0.17089501
119	0x3ac4cc1e	0.0015014445
120	0x3b8efcbd	0.004363625
121	0x3e661d61	0.22472145
122	0x3c5bbb4b	0.013411353
123	0x3cc6f511	0.024286779
124	0xbce88e87	-0.028388275
125	0x3b088d70	0.0020836256
126	0xbc16f0c1	-0.009212674
127	0x3b1b5e30	0.0023707263
128	0x3d3cdf4e	0.046111397
129	0xba2a6dae	-0.0006501329
130	0xb9c6d372	-0.00037923042
131	0x3cf02254	0.029313244
132	0xbc808d12	-0.015692268
133	0xbd7fe310	-0.062472403
134	0xbbce19f5	-0.0062897154
135	0x3d2ed2d5	0.042681534
136	0x3d2d99a8	0.042382866
137	0xbd5ffe80	-0.05468607
138	0x3c4e2005	0.012580876
139	0x3d5e5928	0.054284245
140	0x3c828ec9	0.015937226
141	0xbce91c32	-0.028455827
142	0xbc10633a	-0.00881272
143	0x3c31a053	0.010841447
144	0xbbc77734	-0.006087208
145	0x3c62c274	0.013840307
146	0xbec55693	-0.38542613
147	0x3c04dc46	0.008109158
148	0x3d759c9f	0.05996382
149	0x3d376341	0.04477239
150	0x3c44fd86	0.012023335
151	0x3bd0b0d3	0.0063687353
152	0xbd1e2fff	-0.03861999
153	0x3cb5887b	0.022159806
154	0x3d65e11b	0.05612288
155	0x3e0f9754	0.14022571
156	0x3b1d5183	0.0024004884
157	0x3aa951fa	0.0012918108
158	0xbba9c166	-0.0051805256
159	0x3cc9a283	0.024613624
160	0x372da33f	1.0349612e-05
161	0x3c62b4ba	0.013837034
162	0xba2324a8	-0.0006223419
163	0xbb9ddb20	-0.0048173815
164	0xbcf8b21d	-0.030358369
165	0xbcc02cb5	-0.023458818
166	0xbc7674a1	-0.015042455
167	0x3d5c1e9c	0.05374013
168	0x3bc00c48	0.005860839
169	0x3cd3d539	0.025858508
170	0x3c884172	0.01663277
171	0xbd77a891	-0.06046349
172	0xbb866c41	-0.0041022603
173	0x3d81456f	0.063120715
174	0xbd74e0b1	-0.059784595
175	0xbc3be94f	-0.011469199
176	0xbc97c4ea	-0.018526513
177	0xbd87f54d	-0.06638584
178	0x381ad859	3.691795e-05
179	0xbd6e0331	-0.058108512
180	0xbba5dc4a	-0.005061661
181	0xba6b8e6c	-0.0008985761
182	0x3d7fb639	0.06242964
183	0xbb6a0398	-0.0035707708
184	0xbcc82c11	-0.024435075
185	0x3ca65be6	0.020307492
186	0xbd060f73	-0.032729577
187	0xbf58b059	-0.84644085
188	0x3cedc7ac	0.029025875
189	0x3d1f30f6	0.038865052
190	0xbe23c8ce	-0.1599457
191	0xbd0003f1	-0.03125376
192	0xbcf60d20	-0.030035555
193	0x3b2f1776	0.0026716865
194	0x3d0f17fc	0.034934983
195	0xbe064420	-0.13111925
196	0x3bb9eb08	0.00567377
197	0xbcd909ff	-0.026494024
198	0x3d07100d	0.03297429
199	0x3ceccc2e	0.028905954
200	0xbd3e8d0d	-0.046521235
201	0xbbb6a4ec	-0.0055738594
202	0xbcf0d6bc	-0.029399268
203	0xb9ffd9a7	-0.00048799554
204	0xbc22810d	-0.009918463
205	0x3d4f4a7c	0.050608143
206	0x3d678906	0.05652716
207	0xbbad7214	-0.00529314
208	0x3cfd324f	0.030907778
209	0x3c5b5ca1	0.013388784
210	0x3d320c56	0.043468796
211	0xbc215219	-0.009846234
212	0xbc4e6ad5	-0.012598713
213	0x3af85487	0.001894609
214	0x3d445ab4	0.047938064
215	0xbc7f8c59	-0.015597426
216	0xbbbedfb0	-0.0058250055
217	0xbd804f03	-0.0626507
218	0xbba1ea67	-0.004941273
219	0x3d4b5daf	0.04964989
220	0xbe677cca	-0.22606197
221	0xbc1e9a75	-0.00968038
222	0xbca9fde8	-0.020750955
223	0xbf276cc3	-0.6540033
224	0x3c05e428	0.0081720725
225	0xba9433f3	-0.0011306986
226	0x3f2589a5	0.64663154
227	0xbd18d299	-0.037310217
228	0x3cb4fc5e	0.022092994
229	0xbc86acb5	-0.016439775
230	0x3bb64c2a	0.0055632787
231	0xbd3c5af2	-0.04598517
232	0x3c107471	0.008816824
233	0xbac7be38	-0.0015239185
234	0x3cdec28c	0.027192377
235	0x383dafe4	4.5224922e-05
236	0xbd81d2ab	-0.0633901
237	0xbd7e1d14	-0.06203945
238	0xbc0fe0bc	-0.008781608
239	0x3ca3ef06	0.020011436
240	0xbccd66c5	-0.025073418
241	0x3b0ef42f	0.0021813025
242	0x3cb3e214	0.021958388
243	0xbd9382c6	-0.072026774
244	0x3b9f0094	0.004852364
245	0xbd6cbcb8	-0.057797164
246	0x3d53c0f9	0.051697705
247	0x3d01d917	0.031701174
248	0x3bf61490	0.0075097755
249	0x3b8aa38b	0.0042309216
250	0x3d573905	0.052544612
251	0x3d0c4417	0.034244623
252	0xbb11b950	-0.00222357
253	0x3d00a9c3	0.031411897
254	0xbc6e9a84	-0.014563207
255	0x3eb41397	0.35171196

net.layers.4.bias f4 [2]
0	0xbe6ea2a1	-0.23304226
1	0x3c51d6c6	0.012807554

exp_avg f4 [164, 2]
0	0xb88e4edd	-6.785777e-05
1	0x37774360	1.4738034e-05
2	0xba2bee3b	-0.00065586314
3	0x3a9f094f	0.0012133511
4	0xb873f930	-5.816779e-05
5	0x3786e580	1.6080914e-05
6	0x394fbb76	0.00019810893
7	0xb8cbf4e6	-9.72541e-05
8	0xb9b0e561	-0.00033740237
9	0x3a7636da	0.0009392329
10	0x38413e2e	4.6072695e-05
11	0x38d897b7	0.00010327942
12	0x377cf0e6	1.5076459e-05
13	0x3888a6c3	6.516047e-05
14	0x39a60de8	0.00031672348
15	0xb9893faa	-0.0002617811
16	0x38d533ca	0.00010166278
17	0x378f8840	1.7110375e-05
18	0xb9436002	-0.00018632415
19	0xb999fd6c	-0.00029371248
20	0xb79bca78	-1.8571722e-05
21	0x374943d0	1.1996322e-05
22	0xb8e084cc	-0.00010705888
23	0xb79b3fb8	-1.8507111e-05
24	0xb865a203	-5.474874e-05
25	0x38ce31ad	9.832098e-05
26	0x3a076736	0.0005165221
27	0xb9d49446	-0.00040546263
28	0xb8d334ea	-0.0001007112
29	0x3689e560	4.109621e-06
30	0xb7852d13	-1.5875825e-05
31	0x3922e944	0.00015536422
32	0x397ed6e2	0.00024303378
33	0xb7d5810c	-2.545167e-05
34	0x37e0a9f1	2.6782016e-05
35	0xb9733087	-0.00023192364
36	0x3833305c	4.2721964e-05
37	0xb8036ff0	-3.1337084e-05
38	0x381e629a	3.7761965e-05
39	0xb881ca2b	-6.188856e-05
40	0x379e6522	1.8882161e-05
41	0xb938b3b4	-0.00017614552
42	0xb8802862	-6.1110375e-05
43	0x39491f95	0.00019180619
44	0xb7aa223c	-2.028152e-05
45	0x3970de00	0.00022970885
46	0x395ef1be	0.00021261626
47	0xb9c665d3	-0.00037841368
48	0xb8d5e168	-0.00010198617
49	0x36b7ca40	5.47737e-06
50	0xb96b12aa	-0.000224183
51	0x393a8ce0	0.00017790822
52	0xb9d1f61d	-0.00040046955
53	0x386a2f3c	5.5833938e-05
54	0x37fa9ab3	2.987436e-05
55	0xb96ce59b	-0.00022592249
56	0x3a48c6b2	0.00076590024
57	0xb996b882	-0.00028747699
58	0xb73266e8	-1.06335865e-05
59	0x3570bb00	8.967909e-07
60	0xba059502	-0.0005095751
61	0x39e53323	0.00043716384
62	0x3838f9ec	4.4101776e-05
63	0xb8199bea	-3.662325e-05
64	0xba032aad	-0.00050036126
65	0x3a0e2ff4	0.00054240157
66	0x37c791db	2.3790568e-05
67	0xb77148e8	-1.4381694e-05
68	0xb87812f2	-5.914545e-05
69	0xb817891e	-3.6128906e-05
70	0x380b6cff	3.3241693e-05
71	0xb8aaa52e	-8.136999e-05
72	0xb9a15878	-0.00030774227
73	0x39e53a1c	0.0004372158
74	0x3868ec2a	5.5533055e-05
75	0xb7958255	-1.7822875e-05
76	0xb86e4127	-5.68043e-05
77	0xb994105c	-0.00028240948
78	0x39cbbf41	0.00038861673
79	0xb9b0795e	-0.00033659762
80	0x38d4abb1	0.00010140928
81	0xb9707978	-0.00022933434
82	0xb88491bd	-6.321396e-05
83	0x398f9ecc	0.00027393398
84	0x3823a99a	3.9020182e-05
85	0xb9564dce	-0.00020437615
86	0xb90f132b	-0.00013644683
87	0x38a9a7b2	8.089784e-05
88	0xb9637de7	-0.00021695309
89	0x38a1770a	7.699251e-05
90	0x39ad35d2	0.0003303723
91	0xb9b4a746	-0.00034456904
92	0x383a99d9	4.4489138e-05
93	0xb99725ac	-0.00028829032
94	0x3977046b	0.00023557401
95	0xb980c8c4	-0.00024563645
96	0x3aaed29d	0.0013337914
97	0xbab07d60	-0.0013465099
98	0x3842b354	4.6420217e-05
99	0xb8391384	-4.4125612e-05
100	0x38b949d8	8.835242e-05
101	0xb7bf95a0	-2.2838649e-05
102	0x39327240	0.00017017964
103	0xb7d0d912	-2.4896613e-05
104	0xb99d3a12	-0.0002998864
105	0xb7e4ef90	-2.7291273e-05
106	0x37d55a5a	2.5433652e-05
107	0xb946baad	-0.00018952294
108	0xb81e447a	-3.773391e-05
109	0x3886b7be	6.4238426e-05
110	0x3827b845	3.9987517e-05
111	0xb9174274	-0.00014425238
112	0x399999ea	0.0002929711
113	0xb9d87404	-0.0004128517
114	0xb81f5f8a	-3.799753e-05
115	0x38941f9b	7.063077e-05
116	0x38925490	6.9775735e-05
117	0x37ab71ba	2.0437747e-05
118	0xb78cad94	-1.677013e-05
119	0xb927c02a	-0.00015997948
120	0xb87e104b	-6.0573493e-05
121	0xb8043181	-3.1517357e-05
122	0xb91d35f8	-0.00014992792
123	0x3718de88	9.111718e-06
124	0x37766298	1.4685698e-05
125	0xb8bb601e	-8.934758e-05
126	0xb8d5b8aa	-0.00010191028
127	0x39521492	0.00020034824
128	0x38daece3	0.00010439174
129	0xb71d3240	-9.369629e-06
130	0x38209f0d	3.82951e-05
131	0xb574f740	-9.125688e-07
132	0x39139625	0.00014074946
133	0xb7498f1b	-1.2013853e-05
134	0x39749dd8	0.00023328455
135	0xb650dac0	-3.1121745e-06
136	0xb909a0a5	-0.00013125183
137	0x39effad1	0.00045772505
138	0xb999f303	-0.00029363492
139	0x393ec338	0.00018192537
140	0x384ab1a4	4.8325994e-05
141	0xb8852d72	-6.350399e-05
142	0x37e15198	2.6860085e-05
143	0x37d4e8b0	2.5380723e-05
144	0xb907329f	-0.00012893461
145	0x388550b2	6.356965e-05
146	0x39506a93	0.00019876128
147	0x3809403f	3.272318e-05
148	0xba0c6458	-0.00053555286
149	0x3aa59ab4	0.0012634606
150	0x37b8c9b9	2.2028444e-05
151	0x38305e4f	4.20495e-05
152	0xb831f187	-4.242503e-05
153	0xb90537ed	-0.00012704702
154	0xb88f1651	-6.822928e-05
155	0x384a0f24	4.8174654e-05
156	0x37a0fcc8	1.9191197e-05
157	0xb7f5a64c	-2.9283714e-05
158	0xb80fe34f	-3.4305554e-05
159	0x38ad7311	8.2707156e-05
160	0x389a7fff	7.3671334e-05
161	0xb82d9339	-4.1383526e-05
162	0x3715969a	8.916157e-06
163	0x378d8754	1.6871527e-05
164	0x395b8600	0.00020935386
165	0x3664b230	3.4078366e-06
166	0x38e9ca6a	0.00011148008
167	0xb81ed0de	-3.786466e-05
168	0xb8cb2509	-9.686693e-05
169	0x369beb9e	4.6467894e-06
170	0xb6b05905	-5.255572e-06
171	0xb63cd8ea	-2.8140444e-06
172	0xb8b2c32c	-8.524055e-05
173	0xb8d8522e	-0.0001031499
174	0xb9e661ca	-0.00043941877
175	0xb8a2c784	-7.761925e-05
176	0x39c28e5b	0.00037108627
177	0xb9f86248	-0.0004737547
178	0xba805355	-0.000979046
179	0x3af5a9e4	0.0018742648
180	0x38c9323a	9.593782e-05
181	0xb7224878	-9.672825e-06
182	0xb8a3f36a	-7.817785e-05
183	0x3931469d	0.00016906341
184	0x3923d8da	0.00015625675
185	0xb80087d2	-3.064407e-05
186	0x390168fd	0.0001234151
187	0xb899a8c0	-7.327041e-05
188	0xb9c4b5f9	-0.00037519613
189	0xb6434f00	-2.9103248e-06
190	0xb94d14a8	-0.00019558019
191	0x399f4856	0.00030380738
192	0xb5938f14	-1.0993995e-06
193	0xb91c41e3	-0.00014901864
194	0xb9b189e4	-0.00033862807
195	0x38aa0e0c	8.108848e-05
196	0xb8c17dd6	-9.226396e-05
197	0xb6d2e760	-6.2854233e-06
198	0x38bd3226	9.021563e-05
199	0x3945b347	0.0001885417
200	0x38231d70	3.8889644e-05
201	0xb8f60338	-0.000117307936
202	0xba80a1ec	-0.0009813881
203	0x3ad1304b	0.0015959827
204	0xb9385b49	-0.00017581614
205	0x38792cd6	5.9407983e-05
206	0xb93c9b96	-0.00017987037
207	0x39300bdc	0.00016789086
208	0x389f1f95	7.5875934e-05
209	0x375bc27f	1.3098702e-05
210	0xba26ce50	-0.00063631404
211	0x392191ec	0.00015408517
212	0x37af222d	2.087754e-05
213	0x38c51688	9.397889e-05
214	0x39016a72	0.00012342053
215	0xb9421b94	-0.00018511555
216	0x382b3c04	4.082547e-05
217	0xb88129ae	-6.158963e-05
218	0x39c26e3a	0.0003708469
219	0xb997ee62	-0.00028978573
220	0xb98785b0	-0.00025848811
221	0x3a36f686	0.0006979484
222	0xb978f1e2	-0.00023741231
223	0x38ecc4fe	0.000112900496
224	0xba1f0623	-0.0006066283
225	0x38bdf158	9.057176e-05
226	0xb7db92c4	-2.6175177e-05
227	0xb968d7b8	-0.00022205606
228	0xb6b7ffb0	-5.483591e-06
229	0x38995803	7.312002e-05
230	0x3825507d	3.9414026e-05
231	0xb9270920	-0.0001592976
232	0x38a7f957	8.009624e-05
233	0xb906eefc	-0.00012868264
234	0xba99d546	-0.0011736534
235	0x3aedc556	0.0018140476
236	0xb983b812	-0.0002512341
237	0xb7f5e654	-2.931353e-05
238	0xb94d5166	-0.00019580647
239	0x3944313a	0.00018710355
240	0xb9fb16e0	-0.00047891494
241	0x38f3bf04	0.000116227224
242	0x399a8ddf	0.0002947887
243	0xb9862c61	-0.00025591537
244	0xba4b893e	-0.0007764286
245	0x3abd9d8b	0.0014466507
246	0xb988b952	-0.00026078016
247	0x398ffae1	0.00027462005
248	0x39ecaeca	0.00045143656
249	0xba9b9727	-0.0011870608
250	0x393f3442	0.00018234647
251	0xb9e05e43	-0.0004279484
252	0xb983447a	-0.00025037286
253	0xb8320e44	-4.2451793e-05
254	0xb97d1be5	-0.00024138352
255	0x37686a80	1.3853074e-05

exp_avg_sq f4 [164, 2]
0	0x33f1d835	1.1261765e-07
1	0x334d61fb	4.7819395e-08
2	0x37246dcf	9.800729e-06
3	0x36fc767e	7.5239795e-06
4	0x33fe851f	1.1852011e-07
5	0x32ee049b	2.7708941e-08
6	0x34f34b4a	4.5317057e-07
7	0x345a7345	2.0344767e-07
8	0x3745bafd	1.1785652e-05
9	0x36ae83c3	5.200943e-06
10	0x35d0ea05	1.5565316e-06
11	0x34ddb783	4.129798e-07
12	0x32922771	1.7014573e-08
13	0x327a003e	1.455197e-08
14	0x3593bf4b	1.1008027e-06
15	0x35139e89	5.4992466e-07
16	0x358593da	9.952303e-07
17	0x3482ea13	2.4384698e-07
18	0x36e7b15e	6.9049847e-06
19	0x36952699	4.4450394e-06
20	0x354093a4	7.174042e-07
21	0x344df811	1.9182359e-07
22	0x352abe59	6.360693e-07
23	0x35058793	4.974365e-07
24	0x32a994d5	1.974187e-08
25	0x32ff3588	2.971025e-08
26	0x364d2860	3.0570882e-06
27	0x35ca8683	1.5089321e-06
28	0x351c44bd	5.8214556e-07
29	0x350b97b8	5.2002315e-07
30	0x333b3bc9	4.3593705e-08
31	0x3391c3ef	6.787729e-08
32	0x34ce9c98	3.8484427e-07
33	0x3485a98e	2.4896548e-07
34	0x3525e032	6.1793537e-07
35	0x34b17334	3.305264e-07
36	0x34ebafe9	4.3900152e-07
37	0x344fe4cb	1.9361612e-07
38	0x33aaccc9	7.953492e-08
39	0x3385978f	6.2208635e-08
40	0x342b0a9e	1.5929479e-07
41	0x3470e321	2.2434371e-07
42	0x353e24fb	7.083433e-07
43	0x35005ffa	4.782338e-07
44	0x357178db	8.9955364e-07
45	0x350823b8	5.0715926e-07
46	0x358a5028	1.030513e-06
47	0x3596d494	1.1237739e-06
48	0x3554d26c	7.928236e-07
49	0x352230ab	6.0420524e-07
50	0x34a4ec08	3.0719116e-07
51	0x33fa4442	1.1653948e-07
52	0x368661ed	4.0049113e-06
53	0x35aceb06	1.28834e-06
54	0x33ff315a	1.188334e-07
55	0x34805b87	2.3908453e-07
56	0x36d687fa	6.3935267e-06
57	0x3613031d	2.190652e-06
58	0x34156ec2	1.3917e-07
59	0x3363080b	5.285987e-08
60	0x363e7e66	2.838578e-06
61	0x3596f62e	1.1247519e-06
62	0x359b7d23	1.158482e-06
63	0x34a6d0eb	3.1071917e-07
64	0x367b2638	3.742416e-06
65	0x35d3fadc	1.5793735e-06
66	0x32699c38	1.3597905e-08
67	0x3244cdd2	1.14555e-08
68	0x33e64038	1.0721891e-07
69	0x332ad0b8	3.9771038e-08
70	0x3465bdcb	2.1396333e-07
71	0x33eda222	1.1065664e-07
72	0x360f3fc3	2.1345775e-06
73	0x35b9e5f9	1.3850505e-06
74	0x3336ae88	4.2533912e-08
75	0x332e2431	4.0545448e-08
76	0x353652cb	6.7920763e-07
77	0x3543e4cb	7.29761e-07
78	0x35efdc62	1.7871027e-06
79	0x355a22a0	8.1261715e-07
80	0x34875ab5	2.5211708e-07
81	0x349d0a17	2.925087e-07
82	0x3541a097	7.213179e-07
83	0x34da7702	4.0692254e-07
84	0x342daf1b	1.6175584e-07
85	0x3491554a	2.707041e-07
86	0x33b9165d	8.618802e-08
87	0x33773733	5.7559372e-08
88	0x35127904	5.456534e-07
89	0x34d8afd0	4.0361056e-07
90	0x36150e55	2.2211073e-06
91	0x351333aa	5.483695e-07
92	0x35886698	1.0162648e-06
93	0x3504c989	4.9467104e-07
94	0x3549033a	7.488303e-07
95	0x34da9aef	4.0718393e-07
96	0x37c1920a	2.3075398e-05
97	0x373267dd	1.0633809e-05
98	0x33fca199	1.1764059e-07
99	0x34195434	1.4279868e-07
100	0x352ba0ef	6.3936653e-07
101	0x342aa939	1.5894047e-07
102	0x347adcf4	2.3363447e-07
103	0x33be435c	8.859817e-08
104	0x35eea37d	1.7779963e-06
105	0x3546e668	7.4096033e-07
106	0x3451f9bf	1.9555499e-07
107	0x3424ab32	1.5335971e-07
108	0x32e86563	2.705446e-08
109	0x32e293e3	2.6377114e-08
110	0x34e4f7ae	4.264852e-07
111	0x34ad40ae	3.2270822e-07
112	0x356f333b	8.910899e-07
113	0x353d511d	7.052602e-07
114	0x329e5105	1.8430464e-08
115	0x3376d637	5.7471166e-08
116	0x33f89a25	1.1576439e-07
117	0x334b8b74	4.7391453e-08
118	0x34bb4093	3.4878448e-07
119	0x348876d0	2.5418422e-07
120	0x33b534bb	8.438061e-08
121	0x32a29c4d	1.893036e-08
122	0x34d71060	4.0058785e-07
123	0x346d0e4d	2.2077548e-07
124	0x33ad9e9c	8.084791e-08
125	0x3395fa04	6.983831e-08
126	0x34b18e7e	3.3072496e-07
127	0x34467f17	1.8486422e-07
128	0x34a2f96c	3.035633e-07
129	0x339cc18b	7.299521e-08
130	0x342a647e	1.5869043e-07
131	0x32803c3d	1.4928554e-08
132	0x32f88273	2.8930321e-08
133	0x32e24edc	2.6345724e-08
134	0x34fa708f	4.6648026e-07
135	0x34b0eba1	3.2953997e-07
136	0x3604278e	1.9692557e-06
137	0x35cb2e71	1.5138195e-06
138	0x34c16e4f	3.6029311e-07
139	0x34156ac2	1.3915545e-07
140	0x34caaebb	3.7752565e-07
141	0x33b9b10b	8.646938e-08
142	0x350e7dbe	5.30821e-07
143	0x3502d3cf	4.8736996e-07
144	0x344676e6	1.8483442e-07
145	0x33f8b08a	1.1580512e-07
146	0x3410c6d0	1.3483373e-07
147	0x336558f0	5.3399106e-08
148	0x378ec616	1.701996e-05
149	0x371e321c	9.429201e-06
150	0x33ed2f81	1.10448134e-07
151	0x3428f8b9	1.5736704e-07
152	0x341c6ea7	1.4568887e-07
153	0x34068e8f	1.2531585e-07
154	0x33483fe1	4.6624226e-08
155	0x338f6eb5	6.679094e-08
156	0x3459bbb6	2.0277989e-07
157	0x3354a300	4.9508344e-08
158	0x338ab354	6.4587454e-08
159	0x33da497a	1.01647814e-07
160	0x34e872a3	4.3296777e-07
161	0x33b487fb	8.406638e-08
162	0x33abc08f	7.997834e-08
163	0x3268f36d	1.3559526e-08
164	0x33df978c	1.0411813e-07
165	0x334dc3c4	4.790833e-08
166	0x33daf68c	1.0196263e-07
167	0x3300e2da	3.0008643e-08
168	0x340e5bf6	1.3258236e-07
169	0x335005c5	4.843402e-08
170	0x32ba8d59	2.1717527e-08
171	0x3228d874	9.828103e-09
172	0x34caf73e	3.7805324e-07
173	0x34c7e885	3.723582e-07
174	0x35fa456a	1.8646654e-06
175	0x35587b70	8.0645896e-07
176	0x35c60b3f	1.4755423e-06
177	0x35d38adb	1.5761137e-06
178	0x381dc3dc	3.7614125e-05
179	0x37a4fd80	1.9668369e-05
180	0x34705ae3	2.2384806e-07
181	0x34103a2a	1.3432205e-07
182	0x34c0253a	3.5789873e-07
183	0x34807b5b	2.393161e-07
184	0x34a0fae6	2.9984875e-07
185	0x347a5939	2.3315523e-07
186	0x348a09d9	2.5711668e-07
187	0x3381b069	6.0391194e-08
188	0x3619a462	2.289446e-06
189	0x358ffba3	1.0727566e-06
190	0x35ceb4c6	1.5400808e-06
191	0x3545ea09	7.3728785e-07
192	0x332b636c	3.9904464e-08
193	0x3400b982	1.1988416e-07
194	0x360a39e8	2.0597308e-06
195	0x352de1ba	6.4776e-07
196	0x33f7c88c	1.1538313e-07
197	0x33a6b959	7.763692e-08
198	0x35989b70	1.1370121e-06
199	0x356acf54	8.7473495e-07
200	0x334b01d9	4.72663e-08
201	0x33bd65d6	8.819522e-08
202	0x3803dc54	3.143803e-05
203	0x3766c83a	1.3755687e-05
204	0x34a1f3ba	3.016592e-07
205	0x3473e4c6	2.2714366e-07
206	0x3439a79f	1.7290448e-07
207	0x33d3b5b4	9.858505e-08
208	0x339372d9	6.8661116e-08
209	0x3419b2a8	1.431423e-07
210	0x36bc148e	5.6052295e-06
211	0x3645226e	2.9375328e-06
212	0x3357b692	5.0224635e-08
213	0x337eec92	5.9354143e-08
214	0x33262e77	3.8692146e-08
215	0x3398f8d7	7.123315e-08
216	0x33984e33	7.092276e-08
217	0x335b8ee8	5.1119883e-08
218	0x35e9131e	1.7365417e-06
219	0x3590e4da	1.0795441e-06
220	0x3645c39e	2.9469152e-06
221	0x35ebbeaf	1.7564361e-06
222	0x340dc68f	1.3203883e-07
223	0x33b34887	8.34853e-08
224	0x3708157c	8.111234e-06
225	0x368c8479	4.187747e-06
226	0x34e52b32	4.2686003e-07
227	0x34b0c922	3.2928898e-07
228	0x324ec059	1.2034513e-08
229	0x32fac656	2.9194023e-08
230	0x3482c2c9	2.4356112e-07
231	0x341dfe3e	1.4714257e-07
232	0x338954ad	6.394962e-08
233	0x338957e0	6.395544e-08
234	0x380e6f09	3.3958848e-05
235	0x37944532	1.7675196e-05
236	0x35d6c725	1.6002201e-06
237	0x3533f664	6.704124e-07
238	0x3507e0af	5.0618377e-07
239	0x34558710	1.9886306e-07
240	0x363d1912	2.8177787e-06
241	0x35a9694a	1.2622124e-06
242	0x3588fe95	1.0206883e-06
243	0x35123a3d	5.4473986e-07
244	0x37867af3	1.6031297e-05
245	0x373df59b	1.1322462e-05
246	0x353102bd	6.5941623e-07
247	0x349334d1	2.7419313e-07
248	0x37111f5c	8.649975e-06
249	0x36be84f0	5.677917e-06
250	0x354f3bac	7.7200343e-07
251	0x3580572e	9.562116e-07
252	0x3517400f	5.63451e-07
253	0x348aac05	2.5829664e-07
254	0x352ff136	6.554359e-07
255	0x34a57a84	3.0822787e-07

exp_avg f4 [164]
0	0x373bf9e0	1.1204247e-05
1	0x39245052	0.0001567018
2	0xb7463e17	-1.1816176e-05
3	0xb7b944b7	-2.2085716e-05
4	0x38e766e2	0.00011034102
5	0x37f2abc4	2.8928633e-05
6	0x3782f9b5	1.5613487e-05
7	0xb826d3c2	-3.97747e-05
8	0x3766dfc3	1.3761167e-05
9	0x370cdaa4	8.3955565e-06
10	0x37296a96	1.0098001e-05
11	0x379c1ff0	1.8611521e-05
12	0x37879133	1.6160868e-05
13	0xb8bc322c	-8.973884e-05
14	0xb7773bc8	-1.4736266e-05
15	0x37f07802	2.8666112e-05
16	0x36b156ea	5.285129e-06
17	0xb74e0147	-1.2278854e-05
18	0x366f24f0	3.5635276e-06
19	0xb7223cb5	-9.670087e-06
20	0xb7fbb7bb	-3.0007088e-05
21	0x380f9447	3.423195e-05
22	0x38587174	5.1604075e-05
23	0xb859aba8	-5.18967e-05
24	0xb697a808	-4.519712e-06
25	0x38061c90	3.197469e-05
26	0xb80cbb9e	-3.3553333e-05
27	0xb7eb85ec	-2.8076545e-05
28	0xb8d372f3	-0.00010082675
29	0x3705c2a8	7.97274e-06
30	0x38c646d8	9.4545714e-05
31	0xb63fc190	-2.8573886e-06
32	0x38d3944e	0.00010088888
33	0x362b2a96	2.5505774e-06
34	0x360fccb0	2.1427804e-06
35	0xb7e73419	-2.7561606e-05
36	0x3826b05d	3.9741735e-05
37	0xb5ad5140	-1.2913151e-06
38	0xb8327d83	-4.25554e-05
39	0xb8929f34	-6.9914764e-05
40	0xb8053a65	-3.1764055e-05
41	0x37e58c17	2.7364162e-05
42	0xb7f8fe29	-2.9682256e-05
43	0x37b027ac	2.0999309e-05
44	0xb7910d40	-1.7291517e-05
45	0xb80da922	-3.3774537e-05
46	0xb7b054a5	-2.102025e-05
47	0xb81ed1ce	-3.786553e-05
48	0xb96b9fb2	-0.00022470838
49	0xb6263be0	-2.477078e-06
50	0xb68d6620	-4.2140164e-06
51	0x378c7834	1.6745274e-05
52	0xb8442c3a	-4.677123e-05
53	0xb80b354e	-3.3189826e-05
54	0x371af0ec	9.235209e-06
55	0xb7a70caa	-1.9913849e-05
56	0xb85af186	-5.2200186e-05
57	0x375e2f2a	1.3243212e-05
58	0xb77bf422	-1.5017607e-05
59	0xb73f3118	-1.1395918e-05
60	0x35a8351d	1.2532433e-06
61	0x35b68370	1.359831e-06
62	0xb727b421	-9.995915e-06
63	0x37e5f692	2.7413746e-05
64	0xb5d694a8	-1.5987507e-06
65	0xb70d55c0	-8.42422e-06
66	0x3710ad4a	8.623416e-06
67	0x37de4104	2.6494738e-05
68	0x382af744	4.0761443e-05
69	0x38347147	4.3020842e-05
70	0xb6d842d8	-6.4450833e-06
71	0xb7cb7bd4	-2.4257148e-05
72	0xb70edbca	-8.515033e-06
73	0xb74cfbfe	-1.2218019e-05
74	0x393f0a3b	0.0001821899
75	0x36e33ebf	6.772432e-06
76	0xb7e381ad	-2.7120894e-05
77	0x3787d740	1.6193488e-05
78	0xb686bf3c	-4.015774e-06
79	0x378529e2	1.5874339e-05
80	0xb6441950	-2.922101e-06
81	0xb7814fd2	-1.5415168e-05
82	0x37bf4e2e	2.280538e-05
83	0xb7b98e96	-2.2120115e-05
84	0xb71e50dc	-9.43636e-06
85	0x3500a274	4.7920116e-07
86	0xb76f6907	-1.4269964e-05
87	0xb89ff875	-7.6279895e-05
88	0xb88a2a34	-6.588214e-05
89	0x39960933	0.00028617083
90	0x36a7bee0	4.9992086e-06
91	0x3788959d	1.6282132e-05
92	0x37c83871	2.386814e-05
93	0xb74dc0e4	-1.2263863e-05
94	0xb86efc5f	-5.697866e-05
95	0x3709698a	8.190409e-06
96	0xb7fe3032	-3.0301602e-05
97	0xb83aaf62	-4.4509194e-05
98	0x34a1dd80	3.014975e-07
99	0x387d530f	6.0397255e-05
100	0x372369b7	9.740171e-06
101	0x395114f0	0.00019939593
102	0xb75d09f6	-1.3174946e-05
103	0x37ea248f	2.7911998e-05
104	0x37803bdc	1.5286663e-05
105	0xb8a998be	-8.0869984e-05
106	0x37a8d788	2.0127525e-05
107	0xb7d5bb40	-2.5478774e-05
108	0xb6c3148e	-5.8138457e-06
109	0xb8524391	-5.0130828e-05
110	0x38ace2b0	8.243823e-05
111	0x37f6db2c	2.9427545e-05
112	0xb8bae53c	-8.9118694e-05
113	0xb7c40d58	-2.3371234e-05
114	0x37230838	9.717471e-06
115	0xb7083be1	-8.120173e-06
116	0x37381cd0	1.0973963e-05
117	0x3981b627	0.0002474051
118	0xb808f8df	-3.2656706e-05
119	0x372f9110	1.0464588e-05
120	0xb88f9228	-6.845995e-05
121	0xb8161656	-3.578359e-05
122	0x39639003	0.00021702056
123	0x38084597	3.2489737e-05
124	0xb90c0e6c	-0.00013356813
125	0xb8830f9a	-6.249473e-05
126	0xb807a3bc	-3.2338998e-05
127	0xb7b47997	-2.1514292e-05
128	0xb7e73fda	-2.7567079e-05
129	0x381a1b20	3.6741723e-05
130	0xb6d91040	-6.4689957e-06
131	0x387b4223	5.9904658e-05
132	0xb796744a	-1.7935545e-05
133	0x36ca9f9a	6.038649e-06
134	0x37a8b95e	2.0113479e-05
135	0xb70a58bc	-8.246101e-06
136	0xb7070f1e	-8.050147e-06
137	0x37525fbb	1.2539264e-05
138	0x37092af1	8.175834e-06
139	0x37c02b0e	2.2908232e-05
140	0xb79c14bf	-1.860631e-05
141	0x37750fcb	1.4606815e-05
142	0xb778a47e	-1.4820251e-05
143	0x3722b2fa	9.697624e-06
144	0xb821a666	-3.8540362e-05
145	0xb911f3c9	-0.00013919095
146	0x38246160	3.9191335e-05
147	0x37867350	1.6027741e-05
148	0xb8a87bb3	-8.033905e-05
149	0x386ad1ba	5.598527e-05
150	0x35ae977c	1.3008098e-06
151	0xb7198250	-9.149851e-06
152	0x38924286	6.9742135e-05
153	0xb8083a7c	-3.2479395e-05
154	0x3842498f	4.632171e-05
155	0x35df9f36	1.6661131e-06
156	0xb7431bad	-1.16293495e-05
157	0x392697cb	0.00015887541
158	0xb70d087c	-8.40623e-06
159	0xb7a31338	-1.9440064e-05
160	0xb7b1562b	-2.114017e-05
161	0xb8295c60	-4.037877e-05
162	0x37d17820	2.4970679e-05
163	0x35b930c2	1.3797764e-06
