docs/smld/lightning_logs/version_76/checkpoints/epoch=49-step=4900.ckpt (torch, 344011 bytes, 18 tensors)

ms.layers.0.weight f4 [164, 2]
00000000: 749e 13be eec4 1bbf d469 813e 49d3 923e
00000010: 7522 5cbe 04ca 89be 1079 02be d156 423e
00000020: dd8c 10bf 83bd 2e3e da1e 3fbe efe4 2bbf
00000030: 1ff8 293e e4ab 4fbe 7c3e 5cba 8e9f c93e
00000040: 561d 853e e52e 9ebd 9766 493e bd84 f83e
00000050: 9309 2bbf ab48 a03e 3631 11bf 3c13 ccbe
00000060: 3a09 303e 02a4 ed3d defb 553e 1956 0bbf
00000070: ba7c 903e 2037 a3be 4f04 0abf c905 613e
00000080: df51 ac3d be8b 60bc dc18 243b 13a0 093d
00000090: 5e8d 4fbe 3f24 bfb9 1406 00bf 5089 abbd
000000a0: 00f2 16bf 76d8 b33e 5eb0 a6bd 2e8d 8e3d
000000b0: a198 1fbe a4ca 7e3e 7042 0fbd d01e a1be
000000c0: 9703 69be a276 bd3e 26cc 93bd beb2 e93e
000000d0: cb07 6ebd 8e22 87bd 8784 303e 579c 833e
000000e0: 7062 72be bbb8 20be 62c1 d6be 53a6 593d
000000f0: b32e 77be 3aae f03e fb07 68be 4d90 7abc
00000100: 13cb 0cbf 81b1 fbbd 0eb1 193e c704 0b3f
00000110: b92a 093d b7d0 28bb 3fe1 f13e ce36 eabd
00000120: f7f6 bbbe a468 dbbe ea92 d43d 092c 2abf
00000130: 8a00 7b3e a1de c7be d989 27bf d6ec 2d3e
00000140: fab2 2d3f 365f 9abe fab6 96be 4b6a 113e
00000150: b9a7 1cbf 25e7 89be f15a 6fbe 3098 5e3e
00000160: 42f2 eb3e bc4d b5be aa51 0d3f 623f a03d
00000170: 9a88 ffbe 4597 993e 13e4 c13e 390e b33e
00000180: ccbd ccbe ccb8 6bbe 257d 5b3e eb79 e1be
00000190: f583 2a3f 67f3 683e 7ee7 d43e 6905 633e
000001a0: 74a1 babe 9907 cabe bb55 293c 90eb 5d3d
000001b0: 2523 d63d 6739 833e 13f3 2d3f 7c0a c83e
000001c0: 699b 403e 83ba 813d f332 ff3e 4d66 01bf
000001d0: 5fd6 f7be 8346 ab3e e2b0 7e3e e862 db3d
000001e0: 2e3c 313c 4ad8 933d 098b f03e 2ebf 01bf
000001f0: 2d59 bb3e c883 42be 6469 abbe f787 f5be
00000200: 9fda ac3c 286e e5bd 1c90 c3bd 1b9c 023d
00000210: 3677 b13e c295 ccbe 2736 f3be 5bc0 353e
00000220: 02e4 92be 3304 c8bc c897 b43e 705c 02bf
00000230: 486a 473e 945b 0bbf ef5f 90be e78d f63e
00000240: aae2 6cbd 632b 03bf 16aa dfbe 815a 03bf
00000250: 0ecd 033f 2b3c a33e 8110 b83e acc2 9a3b
00000260: 7fac 5a3e 3006 153f 3384 3dbe 652d 8abd
00000270: 6eed 24bf 0480 eebe e1af 313f 37ba f93e
00000280: d1ba e2be 5528 66be cc26 01be 7029 a1be
00000290: ce73 323e 2529 903e c127 993e b4d9 a13e
000002a0: 11eb 013f 91f1 c43e 05d2 d1be d1d6 abbd
000002b0: 1222 eb3e e5e6 a8be 5e71 a53e c8b9 623b
000002c0: a2bb 9f3d 36aa 823e e589 f5be 5cde cf3e
000002d0: 0e22 e83e a5c7 e63e fd5f 9f3e e33f 43be
000002e0: c36a 87bd 6711 c73e 8de0 973e 140c d03e
000002f0: 9c68 05bf 5e39 19bd aec5 cdbd c66e a23e
00000300: 549e ae3e 2f1d d73e 3aad e1be 7101 a23e
00000310: 73e4 bebe 9002 f2be b2a3 9abe 7499 01bf
00000320: f258 ba3d bb0f 1f3e 53bc 713e b23c 253d
00000330: 6d68 ac3d 3427 9abe 3bd2 b9be 1fc1 dfbe
00000340: d96e 00bf 2faa cfbd 6a83 5fbe 6887 d8be
00000350: bb2c d63b 9667 133f 3066 8f3a 62d0 873e
00000360: 9da6 043e 9836 793d 654a 45be c256 c53e
00000370: b9af 8cbe deba 8a3c 3314 42be 263a 5cbd
00000380: f677 eabe 592f 5dbe 7dc4 25bf b390 03bf
00000390: 3f8e 8a3d 69fa e3be ea2a ab3e 554e 823d
000003a0: cafe b2be 4704 4d3e 6510 58be 8027 6f3d
000003b0: b46d 073f bf53 9bbd fdea 8ebd e977 543b
000003c0: a1bb 893e 598f f73e d0a0 593e d184 f5bc
000003d0: f547 f3be a0d0 81be e491 013e bf06 ad3e
000003e0: 4fbc 103f 2d0a afbe 207f 253e b6fa 17be
000003f0: 9a6c 943e 4074 c5bd 4e0e f5be 4b70 353e
-0.14415914 -0.60847366 0.25276053 0.28676823 -0.2149752 -0.26911938 -0.12741494 0.1897843
-0.5646494 0.1706448 -0.18664113 -0.671462 0.16598557 -0.20280415 -0.0008401645 0.39379543
0.25998944 -0.07723788 0.19668041 0.4853877 -0.66811484 0.3130544 -0.56715715 -0.39858425
0.1719102 0.11603548 0.20896861 -0.5442825 0.2822016 -0.31877995 -0.53912824 0.21974863
0.08414053 -0.013705192 0.0025039231 0.033599924 -0.20268771 -0.00036457364 -0.50009274 -0.083758
-0.5896301 0.35126084 -0.08139108 0.06960522 -0.15585567 0.24881989 -0.03497547 -0.3146882
-0.22755276 0.37004572 -0.072166726 0.45644182 -0.0581129 -0.06598388 0.17238055 0.25705215
-0.23670363 -0.15695469 -0.41944414 0.053137135 -0.24138908 0.47007924 -0.22659294 -0.015293193
-0.54997367 -0.122897156 0.15008947 0.54304165 0.03348801 -0.002575917 0.47242162 -0.114362344
-0.36711857 -0.42853272 0.10379584 -0.6647344 0.24511924 -0.3903704 -0.65444714 0.16984877
0.6785122 -0.30150765 -0.29436475 0.14200704 -0.61193424 -0.26934162 -0.23374535 0.21737742
0.46083266 -0.3541087 0.55202734 0.07824589 -0.49908906 0.29998222 0.3786932 0.3497179
-0.39988554 -0.23019713 0.21434458 -0.4403833 0.666076 0.227491 0.41582865 0.22170033
-0.36451304 -0.39458922 0.010335381 0.054179728 0.10455922 0.25629732 0.67949027 0.390705
0.18809284 0.063344024 0.4984356 -0.50546724 -0.4840574 0.33452234 0.24872163 0.10712224
0.010817571 0.07218988 0.46981075 -0.5068234 0.36591473 -0.18995583 -0.33478844 -0.47955295
0.02110034 -0.11202651 -0.09548971 0.031887155 0.34661263 -0.39958006 -0.47502252 0.17749159
-0.2868958 -0.024416065 0.3527205 -0.509223 0.19474137 -0.5443661 -0.28198192 0.48155138
-0.05783335 -0.5123808 -0.43684453 -0.51309973 0.51484764 0.31881842 0.3595009 0.0047229137
0.21354865 0.58212566 -0.18507461 -0.067469396 -0.6442479 -0.46582043 0.69408995 0.48774883
-0.44283155 -0.22476323 -0.12612456 -0.31476927 0.17426988 0.2815639 0.29913142 0.31611407
0.5074931 0.3846555 -0.40980545 -0.08390582 0.4592443 -0.3298866 0.32313055 0.0034595598
0.0779946 0.25520486 -0.47956768 0.40599334 0.45338482 0.45074192 0.3112792 -0.1906734
-0.0661216 0.38880464 0.29663506 0.40634215 -0.52112746 -0.037408225 -0.1004747 0.31725138
0.3410517 0.42014453 -0.44077474 0.31641725 -0.37283668 -0.4726758 -0.30203015 -0.50624776
0.09098996 0.15533344 0.23606996 0.040341087 0.08418355 -0.30108035 -0.36293206 -0.43702027
-0.5016914 -0.10139882 -0.21827474 -0.42290807 0.006536094 0.57579935 0.0010940488 0.2652617
0.12954183 0.06084308 -0.1926666 0.38542753 -0.27477816 0.016934808 -0.18953018 -0.053766392
-0.45794648 -0.21600093 -0.6475294 -0.5139267 0.067654125 -0.44526985 0.33431178 0.06362597
-0.34960014 0.20021163 -0.21100004 0.05838728 0.5290177 -0.07584333 -0.06978414 0.0032420105
0.26900962 0.48351553 0.21252751 -0.029970558 -0.47515836 -0.2535448 0.12653309 0.3379421
0.56537336 -0.3418745 0.16161776 -0.14841732 0.28989106 -0.096413136 -0.47862476 0.17718618

ms.layers.0.bias f4 [164]
00000000: 0d2f 7fbe d289 9f3f 3a0c 7f3e 7447 06bf
00000010: 0ca0 36bf 0625 82bf 465c 1d3f 7dfd 55bf
00000020: f143 03bf 8760 0f3f 074c 90bf f4d0 5b3f
00000030: 3962 5bbf e06e 8ebe 2fe2 42bf 53ad 703f
00000040: a831 b73f 4bdb 843f 914e 9bbe f8e3 07bf
00000050: eb04 92bf c0ee b2be 1e31 87be f4a8 3fbf
00000060: caa6 4e3f cd80 19bf 00cf 70bd 5c24 76bf
00000070: 2560 783f c4ac 1cbf 7501 36bd 364e 4dbf
00000080: 2161 91bf 2916 603f 706a 043f 109f b03f
00000090: 0e54 4ebf fa3a 84bf 7dac 77be bf28 49bf
000000a0: aaca 9abf 3b56 623f e14b 07bf 2c58 7dbf
000000b0: 1e36 903f 950c 61bc 7cc1 fe3e add5 a2bf
000000c0: 3236 1a3f 0f74 73bf 6f6b b9bf deda 6e3b
000000d0: 46de 4c3f ed0f 803f 12d1 76bf 82e4 c8bf
000000e0: 6a92 913f 3988 683f 4955 bdbe d4d6 9c3f
000000f0: 138b aa3f 6f88 dbbe 469a 8dbf 4d50 82bf
00000100: 4cba 533e 58a0 c03f 3a6b 9cbf 89e9 0abf
00000110: 4b06 823d b4b8 1cbf 31d0 833f f9cb 05be
00000120: 442a 11bf 56c6 df3e 26da 95bd 2cbe a43f
00000130: c581 22bf 618f 38bf 8279 3c3f 0ebf a3bf
00000140: 5e75 743e 9981 923f 6972 96be fc9f 6d3e
00000150: 970d 33bf b815 a73e ddcb a6be bae2 46bf
00000160: b2c7 1ebf 1cac 4fbf 0d8b acbf 9a5c 80bf
00000170: 2742 623f f0bd 99be 920d 5cbe ae7a cabe
00000180: 7436 9abf 7697 53be c58a 50bf c0ef 1a3d
00000190: 64eb 973f 8e16 af3f 9f28 f8be 8fef 763f
000001a0: ef3a 54bf ea6f 2ebf 8a6e 51bf 7911 55bf
000001b0: d294 b33f 368a 703f aeab 1dbf 15ba 5dbf
000001c0: 6779 153f c5ab dbbe d7d4 afbd 753e 243e
000001d0: c0e6 5e3f e418 3e3f 0a0b 973e d28f a2be
000001e0: 179e bbbe 3e11 41bf 911c 52bf 808f 68be
000001f0: 9a06 9cbf 0dde ab3f a533 ad3f 8ea3 183f
00000200: 8379 8bbf 09d8 25bf d662 923f 5c56 df3e
00000210: e3fd ae3f 69de 843f 89f3 84bf 5ef3 3dbf
00000220: 7ff3 4ebf e38d 793e bf60 77bf 66f2 68bf
00000230: b922 4fbf b87f 7cbf 4d50 84bf b0ab 41bf
00000240: 86f1 97bf 68fc d03c ead3 9f3f 3a9b 493f
00000250: 4b12 66bf 6811 73be 1d25 25bf 3818 84bf
00000260: e4a3 913e 2252 36bf 35c0 2dbf 143b 393f
00000270: b660 6d3f 2530 963f 20e6 0fbf 9e34 4cbf
00000280: 5186 4f3f e710 6abf 344a 34bf 8fac 303f
-0.24920292 1.2463934 0.24907008 -0.5245278 -0.7133796 -1.0167549 0.61468923 -0.8358992
-0.51275545 0.56006664 -1.1273202 0.8586571 -0.8569675 -0.27818966 -0.7612638 0.9401447
1.4312029 1.0379423 -0.3033338 -0.5308223 -1.1407751 -0.34947777 -0.2640466 -0.74867177
0.8072325 -0.5996216 -0.05879116 -0.9614923 0.97021705 -0.6120112 -0.044434983 -0.80197465
-1.1357766 0.87533814 0.5172491 1.3798542 -0.8059701 -1.0330498 -0.24186893 -0.785778
-1.2093098 0.8841283 -0.5285016 -0.98962665 1.1266515 -0.01373591 0.49756992 -1.2721459
0.60238945 -0.95098966 -1.4485911 0.0036446373 0.8002666 1.000486 -0.96412766 -1.5694735
1.1372807 0.9083286 -0.3697913 1.225306 1.3323692 -0.42877528 -1.1062706 -1.0180756
0.20676535 1.5048933 -1.2220223 -0.54262596 0.063488565 -0.61219335 1.029791 -0.1306609
-0.5670512 0.43706006 -0.07316999 1.2870536 -0.6347926 -0.7209378 0.73622906 -1.279268
0.23872897 1.14458 -0.29384163 0.2320556 -0.6994261 0.32633758 -0.3257741 -0.7768971
-0.6202346 -0.81121993 -1.3479935 -1.002826 0.8838219 -0.30027723 -0.21489552 -0.39546722
-1.2047868 -0.20663247 -0.81461746 0.0378263 1.186871 1.3678758 -0.4846849 0.9645929
-0.82902426 -0.6813952 -0.81809294 -0.83229786 1.4029791 0.93960893 -0.6159009 -0.86612064
0.5838837 -0.42904487 -0.08585518 0.1603945 0.87070847 0.7425673 0.2950061 -0.3175035
-0.3664405 -0.75416934 -0.8207484 -0.22710991 -1.2189515 1.342714 1.3531386 0.59624565
-1.0896457 -0.6478277 1.1436412 0.43620574 1.367123 1.0380374 -1.0386821 -0.74199474
-0.80840296 0.24370532 -0.96632 -0.9099487 -0.8091236 -0.98632383 -1.0337006 -0.756526
-1.1870582 0.025510982 1.2486546 0.7875248 -0.8987166 -0.23737109 -0.64509755 -1.0319891
0.2844535 -0.71219075 -0.6787141 0.7235577 0.92725694 1.1733443 -0.5621052 -0.7976779
0.81064326 -0.9143204 -0.70425725 0.69013304

ms.layers.2.weight f4 [164, 164]
00000000: 32e2 863a 7b97 57bd 6bc8 abbd e3ea 153d
00000010: b876 793d cbdb 2ebd bc50 67bc f2ab 033d
00000020: 2730 8d3d db48 c8bc 9b86 02bd c778 8dbc
00000030: 9829 8abd 2566 f83b 873e 88bd aede 4b3d
00000040: e0c4 8f3d c43f 5ebc 41f4 17bd 68ce 053c
00000050: ca76 f2bb 56ad b1bd 64da aabc d968 2dbd
00000060: 8666 27bd 42a5 adbc d460 42bd ce2b 123c
00000070: 30f0 d6bc 14d7 883d 5b50 283d 641b c8bc
00000080: db46 29bd 3767 363d d351 99bd 66ce 1d3d
00000090: 36c3 a3bc 059c 2d3c 360f 92bc 8efc d3bb
000000a0: f45a 7b3d 6d8b 9ebd 7870 483d 5a9b 703d
000000b0: f258 c2bc a570 043d 2cea 17bd c7d4 433d
000000c0: b20a edbc bc36 5cbd 5cc2 bb3c 3939 0d3d
000000d0: ee6b 93bd c710 a83b 75fb 37bd 2dc8 9bbd
000000e0: 6f3a be3b 8fa7 35bc fa3e 463d 9de6 3ebd
000000f0: 893f 373d 7a3b 413d 90c9 9bbd ca0e 0d3d
00000100: a6b3 7e3c 383a 5dbd 6a43 48bd 8c3b 2b3d
00000110: 8554 74bd c88d 993d 14d2 593b f6b1 98bd
00000120: e5ca c5bb d8e6 243d 6076 2cbd f34b 553d
00000130: 8d57 82bd 2b59 c13c 98f9 a5bd 66e4 293d
00000140: dafa 43bd 0710 5dbd f3b3 a6bb 8068 4f3d
00000150: e824 88bd 9d63 4f3c 4312 22bc 91f5 c3bc
00000160: 3e75 f53c 1459 ddbc 045a c6bc 3e6b ab3c
00000170: 28e6 6abd c518 53bd 7363 b1bd 901f a0bd
00000180: f636 9bbd 9e3c 7f3d f8ca c03c 1514 95bd
00000190: b21f 693c 1ec5 a3bd 695a 003c 779e 33bd
000001a0: ff76 5b3d 88a6 de3b 7ab7 3ebd 35d4 0ebd
000001b0: bd61 a8bd 8562 0c3d 6efa 623d f035 90bd
000001c0: 7bd3 603d dd6e 7c3d 9917 4ebc 7adb 15bd
000001d0: 815f 1fbd 4cfa 5dbc 5e85 893c 2912 1e3d
000001e0: d6d2 83bd 3ef9 5abd 7cbd 8dbd 94be 96bd
000001f0: aeda 87bd 3ab8 c23c 4a4a e73c 7016 37bc
00000200: c973 12bd de00 683d 4e23 643d da59 b7bd
00000210: 3a78 43bd 035f 8e3c a23f dcbc 1aa0 d6bc
00000220: 2fed 73bd dd22 0b3c 8c6a 05bd 1646 a2bc
00000230: 375e 5abd e456 63bd d24f 07bb 65b4 c7ba
00000240: 60e8 a0bd 490f 51bc 4ed4 5f3d 098a 573c
00000250: 034d 65bd f2d8 cabc 94f3 64bd 90bf 14bb
00000260: e147 20bb b563 673d a10c 33bd b872 6a3d
00000270: cb8c 1a3d 6983 163c 7e62 c7bc 8271 2fbd
00000280: d03e dc3c 08e3 853d 2368 96bd d6c0 11bd
00000290: 657d 95bc bce9 72bc 0a9b 593d 47e0 343d
000002a0: dec4 72bd 5f28 573b be53 0bbd f95c 2d3a
000002b0: 61b4 d93d 7717 a0bd 3055 17bd 28d5 b1bd
000002c0: 7eb7 d03c a3d8 23bd 7dd9 d03d d3e8 0fbe
000002d0: 03a5 35be c158 acbe 9808 303d 8c60 933d
000002e0: e167 3b3d 55e8 473d 7abf bebc 32a9 123e
000002f0: 2d1e bdbd bf59 9bbd aadc 393d 16a4 c6bd
00000300: 65ff 06be 6d8d 3c3d 6592 733d f531 f93d
00000310: a0a8 b13d e1c7 9d3c a99b dbb9 9320 ccbc
00000320: ee5e 8e3d 4c93 283e 251e 31bd 2b25 a0bd
00000330: 52a9 94bc 1324 23bd 3251 cc3d a1e8 b73d
00000340: ab23 cbbc f760 4f3d 1800 b7bd 1dac 0a3d
00000350: f085 31bd e18a 393e 6577 fa3c 3a20 1dbd
00000360: c284 743c d198 46be 129c 0d3b 0721 cb3d
00000370: c1a8 c1bd f23b aabd 8a26 043d 2271 cebd
00000380: 8c02 9cbe 78d1 e5bc 617f b63d 805f 053e
00000390: 5a5a 4dbd 4f36 32be a34c 273e 16ae 0dbe
000003a0: 9c3a 28bd 2ee2 cdbb d899 4b39 7a74 7ebc
000003b0: 8f58 af3c cb41 80bd f248 033d f73e 9cbd
000003c0: 9645 d13b 7939 203e d1b3 b33c 9464 b9ba
000003d0: ac22 31bd 3a39 90bd b237 47bd 7e2d 3ebd
000003e0: 82e5 6f3d 1867 e33c d09c 803d 7436 123d
000003f0: 4b66 8a3c 1413 453c ce4b c4bc 44e8 4c3d
0.00102908 -0.052634697 -0.08387836 0.03660096 0.060904235 -0.04269008 -0.01411837 0.0321464
0.0689395 -0.024448803 -0.03186665 -0.017269505 -0.06746215 0.007580536 -0.06652551 0.04977291
0.07019973 -0.013565008 -0.037098173 0.008166887 -0.0073994147 -0.08675639 -0.02085609 -0.04233632
-0.04086926 -0.021196965 -0.047455624 0.008921577 -0.026237577 0.06681648 0.041092258 -0.024427123
-0.04132734 0.044532027 -0.0748631 0.038526915 -0.019990545 0.01059628 -0.017829519 -0.006469316
0.061366037 -0.07741437 0.048935384 0.058741905 -0.023724053 0.03233399 -0.037088558 0.047810342
-0.028935764 -0.053763136 0.022919826 0.0344784 -0.0719832 0.005128953 -0.044917542 -0.0760654
0.0058053057 -0.011087312 0.048399903 -0.04660665 0.044738326 0.047175862 -0.07606804 0.034437932
0.015545761 -0.0540106 -0.048892416 0.041804835 -0.059650917 0.07497746 0.0033236789 -0.07455818
-0.00603615 0.040259212 -0.04210508 0.052074384 -0.06364355 0.023602089 -0.08104247 0.041477583
-0.047846653 -0.053970363 -0.0050873696 0.05063677 -0.06647664 0.012658027 -0.009892049 -0.023920806
0.029963132 -0.027020015 -0.024212845 0.02092516 -0.0573484 -0.051537294 -0.086615466 -0.0781852
-0.07578842 0.06231367 0.023534283 -0.07279221 0.014228748 -0.079965815 0.007834055 -0.043852296
0.05358028 0.0067947544 -0.046561696 -0.034870345 -0.08221767 0.034273643 0.05541461 -0.07041538
0.054889183 0.061629165 -0.012578868 -0.036586262 -0.03890944 -0.013548445 0.016787227 0.038591538
-0.06436698 -0.053460352 -0.06920907 -0.07360569 -0.06633507 0.023769487 0.028233666 -0.011174783
-0.035754953 0.056641452 0.05569773 -0.08952685 -0.04772208 0.01737929 -0.026885811 -0.02619939
-0.059552368 0.008492199 -0.032572314 -0.01980881 -0.053312507 -0.055502787 -0.0020646942 -0.0015236257
-0.07856822 -0.012759992 0.05464583 0.013155469 -0.055981647 -0.02476165 -0.055896357 -0.0022697188
-0.0024456906 0.056491572 -0.043713216 0.05723831 0.037731927 0.009186604 -0.024338957 -0.04283286
0.02688542 0.065374434 -0.07344081 -0.035584293 -0.01824827 -0.014826234 0.053126372 0.0441592
-0.05926978 0.003283046 -0.03401541 0.000661328 0.10630108 -0.078169756 -0.036946476 -0.086832345
0.02547812 -0.040001523 0.101977326 -0.14053659 -0.17738728 -0.33661464 0.042976946 0.07196149
0.045753364 0.048805553 -0.023284663 0.14322355 -0.09234271 -0.07585477 0.045376457 -0.09699266
-0.13183363 0.04603331 0.059465785 0.12167732 0.08674741 0.019260349 -0.0004188691 -0.024917876
0.069517 0.1646244 -0.04324164 -0.07819589 -0.018147144 -0.039829325 0.09976424 0.08979917
-0.024797281 0.050629582 -0.08935565 0.033855546 -0.043340623 0.18119384 0.03057451 -0.03836081
0.01492423 -0.19394232 0.0021607918 0.09918409 -0.094560154 -0.08312215 0.032263316 -0.10080172
-0.30470693 -0.028053984 0.08911014 0.13024712 -0.050134994 -0.1740353 0.16337828 -0.1383594
-0.04107152 -0.0062830662 0.000194169 -0.0155307 0.021404533 -0.06262549 0.032051988 -0.07629197
0.006386469 0.15646924 0.02193633 -0.0014144354 -0.043245956 -0.07042165 -0.0486371 -0.046430103
0.058568485 0.02775912 0.062799096 0.03569646 0.01689448 0.012028474 -0.023961928 0.050026193

ms.layers.2.bias f4 [164]
00000000: a794 fe3b 701b 70be 43d2 0cbe ec9f 5c3d
00000010: 30e6 c5bc 72f0 e13e 77b3 91be 0090 b2bb
00000020: 10ad 87bd c915 283d cd20 903e be8a 37bd
00000030: 9efa aa3e 2dd8 ae3c 0713 f9be bc69 2d3e
00000040: e7de a4be 8412 5fba 277d d23d a6b0 4f3e
00000050: b895 823c 274c 443c bbae 6cbc 8fd0 d63e
00000060: 3b53 0cbd 4583 78bd b613 11bd 0934 babd
00000070: a2fa 253e 01c2 863e 8f39 253d c68f 3e3c
00000080: fa40 e6bd ed0b a43e 9676 41be 0e18 aabe
00000090: e1f4 d4bb 3318 aabd 5109 5d3e 206e 71bb
000000a0: 444e 6e3d b9ca afbd 987b 04bc 8a37 013e
000000b0: 2cc2 60be 3d3e aebc b925 8bbe c33d cebc
000000c0: 235e 5b3d ba58 d6bd 7532 903d 6d3e ce3d
000000d0: d03b ccbe befb 973d 77ab c4be 33d9 d3bd
000000e0: 44a6 73bd 60bd 32be 1148 9b3e 5d41 b03c
000000f0: a0db 63bd 802d 9a3c bd17 35bd c0ea de3e
00000100: 766b fdbc f502 b2be 264a 0ebd bd18 043f
00000110: ea12 73bc e2fb 69bd 1aa6 b23e 6867 8bbd
00000120: 2641 46bd ccea 73be 16eb 143e dffa a33e
00000130: 6b0e a23c a163 8c3c 6eba c0bc bc45 c93c
00000140: 1336 b53c adb9 123e 4a99 6abe 6f4c dfbe
00000150: 8da7 363d baf7 6b3e 5ba6 bbbc 1d99 f9be
00000160: 023a 4e3e d83f 19bc 5196 093d 32ab b8bd
00000170: 04f6 6d3d 8a09 49bd b664 19bd 68c4 1a3b
00000180: 0905 08be 026b 0fbe 6636 293c 67a5 893e
00000190: 2ff4 083e 6b93 3cbe 75d1 65be 4caa a83c
000001a0: 2faf abbc 94b1 ad3d 8030 d43e 53c7 7c3d
000001b0: 6d7d 413e 7c78 ef3c bee3 16be 1d8d af3e
000001c0: 42f4 c9bd bca4 21bc e523 2f3b b5d2 99be
000001d0: 9635 0bbe c739 1a3e 4f86 efbc c4bb 443e
000001e0: fd8b b93d 4e57 dc3e 32e3 ac3c 0ba8 5dbd
000001f0: d2d8 08bd 17be d93c 8b00 b13e bb3c 1abe
00000200: c929 6abd 0f77 e43d 4067 713e 0f62 383e
00000210: dc70 77be 285d c8be 99f0 8b3d 976a 7bbe
00000220: 9379 353e 5267 8d3e 1e15 213d ac28 98bd
00000230: bc3a 86bd 1855 5cbe ab69 07bd 4fa5 303e
00000240: 4a38 94be d6b1 f9bc 6584 7bbc ed2e 193e
00000250: 7f4a 5fbe 3f3c 493d f6f5 afbe 661e c3be
00000260: f4da c6bd 95ec 2f3e c34c 17be 263c 75be
00000270: 8dba a53d b124 f8bd 34ca cbbc 197c 363e
00000280: df26 88bd 10ab 553c bdcd e03d 69d7 efbb
0.0077691856 -0.23447967 -0.13752083 0.05386345 -0.024157614 0.44128758 -0.28457233 -0.005449295
-0.06624806 0.0410364 0.28150025 -0.04481005 0.3339433 0.021343315 -0.4864733 0.16934866
-0.3220131 -0.0008509534 0.10277777 0.2028223 0.015940532 0.011981047 -0.014445956 0.41955993
-0.034259062 -0.060672063 -0.03541919 -0.09091956 0.1620889 0.26319888 0.040338095 0.011630958
-0.11242862 0.3204035 -0.18892893 -0.33221477 -0.0064989184 -0.08305397 0.21585585 -0.0036839321
0.05818011 -0.08583588 -0.008086108 0.12618843 -0.2194907 -0.021269912 -0.27177218 -0.025175935
0.053556573 -0.10466142 0.07040874 0.100705005 -0.39889383 0.07421063 -0.38412067 -0.10344162
-0.059484735 -0.17455053 0.3032842 0.021515543 -0.055629373 0.018820524 -0.04421209 0.43538475
-0.03093503 -0.3476788 -0.034738682 0.5160025 -0.014836052 -0.05712498 0.3489235 -0.068068326
-0.048401974 -0.23820037 0.14542803 0.32027337 0.019782266 0.01713735 -0.023526397 0.024569385
0.022120511 0.14328642 -0.22910038 -0.43613002 0.044593383 0.23043719 -0.022906473 -0.4874963
0.20139316 -0.0093536 0.03359062 -0.09017028 0.058095947 -0.049081363 -0.03744956 0.0023615602
-0.13283171 -0.14005664 0.010327911 0.26884004 0.13374399 -0.1841561 -0.22443183 0.020589016
-0.020957557 0.08481136 0.41443253 0.061713528 0.18895502 0.029232256 -0.14735314 0.34287348
-0.098610416 -0.009865936 0.0026724276 -0.3004357 -0.1359466 0.15061103 -0.029238848 0.19212252
0.09059904 0.43035358 0.021104429 -0.054115336 -0.0334099 0.0265799 0.34570727 -0.1506223
-0.057168756 0.11155521 0.23574543 0.18006156 -0.24164146 -0.39133573 0.06833 -0.2455238
0.17722158 0.2761789 0.03932678 -0.074296325 -0.065541714 -0.21516836 -0.033059757 0.1725056
-0.28949195 -0.030480307 -0.01535139 0.14959307 -0.21805762 0.04912972 -0.3436734 -0.3810913
-0.09709731 0.17180093 -0.14775376 -0.23948726 0.08092222 -0.12116373 -0.024876691 0.17820777
-0.06648039 0.013041273 0.109767415 -0.00731938

ms.layers.4.weight f4 [2, 164]
00000000: 87eb 223d 0472 22bd 59ef 11be fdc0 9abc
00000010: 1695 21bc 74ca 45bf ba54 2bbe 61e8 ef3c
00000020: 2758 3dbd 30ec 99bd fcfd c83d d989 3a3b
00000030: f3db 433e 5843 79bc 7609 be3d 868d fa3c
00000040: 4a0e 3abe 3870 053c 7aa1 0abc cafd e43d
00000050: 40f7 e6bc 5eea 693d 5efc 733b 2be1 32bf
00000060: 3397 4cba 4a78 35bd 3986 7a3c 0405 853d
00000070: 9ce8 7a3e 0ee6 353e 8340 813d c605 0d3d
00000080: fc29 3cbd 242c be3d 4a73 d2bd 32cc 1abd
00000090: bf5f 52bb 307c 2cbc 4c8a 063e e615 79bd
000000a0: 2137 80bd 99cf 2e3c e5d6 a93c 7393 303d
000000b0: fbce a7bd 5e09 82ba 4212 d0bd acbb 783c
000000c0: bcc7 e2bb 825c 82bc 925a c7bc b30f e33c
000000d0: ff14 e23e 471d 8b3c 1af5 98bd 3160 ed3c
000000e0: ac0f 8c3c 892e 28bd 1b91 8a3e 41fd 65bd
000000f0: d687 30bd 1a46 d53b 0e63 643b f800 b03e
00000100: 745e 6bbc 1b05 26be db6c b63c 6032 cf3e
00000110: 7aa2 1dbd e8ff 2e3d fdc2 edbe 4d57 813c
00000120: b143 393d fc4a 4abe 137b 203d 21af 8bbe
00000130: a1c7 ebbb a4d7 8bbd 4c7d 2cbd ce18 f83b
00000140: f81c 14bd 9efd 31bd 30d9 aeba 65ff 933d
00000150: 0708 5f3d 0393 e63c 56e7 993b 42fc 9f3f
00000160: 72e9 8b3d fa9d 333c 2799 ae3c 3456 9bbc
00000170: 98e0 42bd 9ce6 88bd d1ff 3cbd 8a74 e73b
00000180: 8373 21bd 98ff cebc 7139 ce3b 5423 8dba
00000190: a932 99bd cd82 1fbe e0af 12be 9d58 f5bc
000001a0: 1a34 18ba 659c f63d 665d 97be 7a1b e53c
000001b0: 7738 1c3e f39f 8abd 6db7 a83c 0260 f93d
000001c0: 61a5 183d e94c 27bc dcfe 1fbd ccdd 72be
000001d0: b529 89bc 9931 1f3d ddca 33bd 4170 88bd
000001e0: 92f8 7c3d 96ee 27bf dcf2 28bd 9339 9bbc
000001f0: 1f37 463d 8195 563d ed28 2bbe b41c efbc
00000200: 2aaf a839 b448 29bc 23f7 d23d 3f29 50bd
00000210: c299 d1bd e314 fd3e 0f31 7cbd d78e e6bd
00000220: ece6 a63d 4403 253e ddc4 a6bb 8622 2a3c
00000230: 6b22 843a 250f 8abd 5f8e 12bc 8dfb 363d
00000240: ad70 a13d 1ae2 35bc a363 bc3b 84b7 883e
00000250: 8b7e 89bd 1871 0f3d d8fe 8abe 41fe 61be
00000260: ca33 853c ed27 c33d c9a7 02be 518a 8abe
00000270: 2715 fe3b 4a4b eeb9 334e ae3b 6e8f c53d
00000280: 1329 a43c f643 abbc 6adb 79bc 7b8f eabb
00000290: 3042 70bd 264c a9be 1b41 913d af72 39bc
000002a0: 24c9 c6ba 7082 013f 151d db3d 5a31 1ebc
000002b0: 9318 5d3d 24df 8f3c 1080 a0be a935 0fba
000002c0: 336c a7be 70e3 2e3d a227 47bf bb4e 59be
000002d0: edfa e3bd 55fd 073d c160 8f3c 206a e43e
000002e0: fffc 9b3d 9bde 893d 9fec bb3b 0c5c 16bf
000002f0: 428c 1e3d 8129 b73b 2a7a 213d a2b1 643d
00000300: 7052 b4bc 5703 413e fa97 773b a50f b5bb
00000310: 0039 073c cada c9be 5af1 84bd 8b89 8ebe
00000320: 7571 563b 1eac 6a3b 83b2 90bd cb39 6f3c
00000330: 2c12 adbd 7172 a73c a4f9 203d 294c 7cbd
00000340: b039 1fbe f6e0 713a 08d2 f3bd 5ffc 6a3c
00000350: 8c6f 60bd b767 6d3c 6fd7 a7bc f5eb 303c
00000360: 69bd 5dbf 1ae3 85bc 7ef8 ea3e c48b 263d
00000370: 73c6 983a 6854 4d3c 7892 593e 38ea 2fbd
00000380: 3fa9 0b3c 0e4b 2abb 7791 fcbb e4e0 e73e
00000390: a247 483d 6922 6d3e 1bce 15bd 35f4 cfbe
000003a0: 0643 303d 46ef 1dbd 9b3e 07bf 0d8b db3b
000003b0: 5b2f 913d 8440 b6bd c00a 633d aa3d ccbe
000003c0: 20db 523c 3969 37bd 9972 f03a 41dd f53b
000003d0: 6b4a c0bc a9fd 24bd 6f11 e43d 60d1 053f
000003e0: 471a 42bd e601 42be f8e4 18bd 9410 323f
000003f0: ddb4 543d 148a 6bbc 65dc 5a3d 065f 283b
0.039775398 -0.039659515 -0.1425146 -0.018890852 -0.009862205 -0.77262044 -0.1673154 0.029285612
-0.046226647 -0.07515752 0.09814069 0.0028463511 0.19126873 -0.01521381 0.09279148 0.030585062
-0.18169513 0.008144431 -0.008461351 0.11181219 -0.02819407 0.057108276 0.003722928 -0.6987483
-0.0007804513 -0.04430417 0.01529079 0.06495097 0.24502796 0.1776354 0.06311133 0.034429334
-0.045938477 0.09285763 -0.10275896 -0.037792392 -0.0032100526 -0.0105276555 0.13138694 -0.0608119
-0.06260515 0.010669612 0.020732353 0.04310937 -0.08193775 -0.0009921005 -0.101597324 0.015181463
-0.006920783 -0.015913252 -0.02433518 0.027717447 0.44156644 0.016981734 -0.074686244 0.028976532
0.017097317 -0.041060004 0.27063832 -0.056149725 -0.043098293 0.006508601 0.003484908 0.3437574
-0.014365781 -0.16212885 0.022268703 0.4046812 -0.038485028 0.04272452 -0.46437827 0.015788699
0.04523057 -0.19755167 0.039179873 -0.2728205 -0.0071954285 -0.068282396 -0.04211168 0.0075713163
-0.03616044 -0.04345476 -0.0013339873 0.07226447 0.054451015 0.028146273 0.004696767 1.2498858
0.068316355 0.0109629575 0.021313263 -0.018962003 -0.04757747 -0.0668461 -0.046142403 0.007063453
-0.0394168 -0.025268361 0.0062934686 -0.0010767975 -0.07480366 -0.1557724 -0.14324903 -0.02994948
-0.00058061036 0.12041549 -0.29563445 0.027967203 0.15255915 -0.06768789 0.020595277 0.12176515
0.037267093 -0.010211208 -0.039061412 -0.23717421 -0.01674352 0.03886566 -0.043894637 -0.06662036
0.061760493 -0.6559843 -0.041247234 -0.018948352 0.04839241 0.05238867 -0.1671483 -0.029188491
0.00032173964 -0.010332275 0.10301044 -0.050820585 -0.10234405 0.49429998 -0.061570223 -0.11257713
0.081495136 0.16114527 -0.005089386 0.010384208 0.0010081058 -0.0674117 -0.008945077 0.04467349
0.07882819 -0.01110127 0.0057491823 0.2670251 -0.06713589 0.035019964 -0.27147555 -0.22069646
0.016260047 0.095290996 -0.12759317 -0.27058652 0.0077539864 -0.00045450992 0.0053193807 0.09646498
0.020039117 -0.02090643 -0.015250066 -0.0071582175 -0.05865687 -0.3306591 0.07092496 -0.011318847
-0.0015166146 0.50589657 0.10698906 -0.009655321 0.053978514 0.017562456 -0.31347704 -0.0005463013
-0.32699737 0.04269737 -0.7779485 -0.2122144 -0.11131845 0.03320058 0.01750219 0.44612217
0.076166146 0.06731912 0.0057349945 -0.587342 0.03870798 0.0055896644 0.039423145 0.055833466
-0.022011966 0.1884893 0.0037779794 -0.0055255466 0.008253336 -0.39424735 -0.06491347 -0.27839312
0.0032721434 0.0035808156 -0.070652984 0.014601181 -0.08450732 0.020440312 0.039300576 -0.06159607
-0.1554935 0.0009226942 -0.11905295 0.0143423965 -0.05479388 0.01449006 -0.020488469 0.010798444
-0.8661714 -0.016343642 0.4589271 0.040660635 0.0011655822 0.012532331 0.2124728 -0.042947978
0.008524238 -0.0025984677 -0.0077077704 0.45288765 0.04889644 0.23157658 -0.03657351 -0.40616003
0.04303267 -0.038558267 -0.52829903 0.0066999258 0.070891105 -0.08899024 0.055430174 -0.39890796
0.012869626 -0.044778083 0.00183447 0.007503182 -0.023472985 -0.04028097 0.11136138 0.52272606
-0.04738834 -0.18946037 -0.037327737 0.69556546 0.051930297 -0.014376182 0.05343284 0.0025691404

ms.layers.4.bias f4 [2]
00000000: 941e 0bbd 52b5 6abd
-0.03396471 -0.057301827

exp_avg f4 [164, 2]
00000000: 5e9a a33a 70ee b539 42c4 a73a 0101 593a
00000010: d8b2 71b9 e4a9 0aba c8c4 eb38 6739 ff38
00000020: 42f7 a93a 38f6 2339 5683 e93a a1a2 1f3b
00000030: 48c4 17ba 6df8 e4ba c42e 54bb f08e eaba
00000040: 3a3d a2ba 8793 d4b9 2e42 1cb9 ba32 9f38
00000050: d3d2 093b 1015 b93a 464d b0ba f501 0cba
00000060: 12b9 ebba f963 f6ba 0859 60b9 a24b 6c3a
00000070: 7c9e 44ba e2fb 123b 9ac1 8bba 389c 20ba
00000080: 8faa 9cba a465 68bb 2ed6 113b 988d 2abc
00000090: 14a5 6e39 fb1a ea38 28b1 443a 4434 c1b9
000000a0: 906c 343b 9464 7039 d72a b93b 5d2d a33a
000000b0: 6446 72b8 3866 b239 7657 4b3a a3bb 313b
000000c0: 016b 13ba 275d 05ba 041a b5ba 7fd6 90ba
000000d0: 3c1d bfb7 03cf 2539 6a91 11bb a4b9 cbba
000000e0: 0a15 e7ba 4d06 80ba a62b f63a 8e9d 6d3a
000000f0: a0d9 4db9 cc26 6fba 08c9 933b c1ce 913a
00000100: 3209 083b ee13 d839 6f3f 233a 4c7d ad39
00000110: 0e24 ceb9 786b 43ba 75f4 813a 4663 bbba
00000120: a4b1 453a e474 723a 34f8 b53a 2f21 5a3b
00000130: eac6 ed38 789d 9eb7 0054 b63a 250a ea3a
00000140: 4455 02bb 38b0 50ba 85c4 adba 3f18 d8ba
00000150: 88be 4d3a 3511 273a a805 2e3b 5f7d 793a
00000160: 529e 113b b8ee 8f39 3423 b938 e3ca 833a
00000170: 7d37 52ba 17d5 8eb9 52f3 2eba ec8f 8ab9
00000180: 8651 c1ba 76af 0bba d642 bf39 9d93 a23a
00000190: 8c59 1dbb e657 e7ba 000e db38 4c15 cfb8
000001a0: 9413 fb38 3b0b 03bb ea50 603b 3936 03bb
000001b0: 7e0e 73bb 8bb5 bbba 8909 b9ba 9ae5 11ba
000001c0: 461b a63a c7ba bf38 b916 873a e383 51ba
000001d0: 2b07 783a e9f0 3e3a ef4e c73a d8e6 223a
000001e0: 89fd ce3b 119a 95bb fa3b 1d3a a8df 8838
000001f0: daa4 37bb f6db e83a 4620 a139 7d02 133b
00000200: e974 103a 34bd 81b9 45d7 153b 1a85 03bb
00000210: b798 15ba be63 a13b 4635 883a 331d 9739
00000220: 4077 3fb8 dec6 02ba 4426 49b8 f92b 303a
00000230: a509 d6b9 effb 8fba 7b0d 5138 7766 edb9
00000240: 6a6e 0c3a 98bc 8b3a d176 69b9 4038 14ba
00000250: 6295 b7b9 fdbf 9eba c246 053b 8859 c838
00000260: c649 07ba b745 89ba 9997 a43b 2b2b 883b
00000270: 0b12 3dba 3eee 11ba c1dc 1cbb c6f6 9cba
00000280: 5de7 57ba a34a 533a 76f5 3d3a f280 49bb
00000290: 509a e0b8 5057 d7b8 90d2 2e3a 70c7 3a39
000002a0: 51c2 07ba cae8 00ba c238 eab9 aab9 02ba
000002b0: e284 89ba 4d45 c13a 5231 b3ba 3420 2d3a
000002c0: f6c8 06bb a6fd caba 8492 b23a 6372 8c3a
000002d0: 66a4 97b9 4e7f 67b9 e92c 64bb 96b0 8339
000002e0: eb31 433a 526b 2439 6816 8137 dca0 4cb8
000002f0: 50f3 fd37 8310 59ba 4d99 5f39 9cf9 23b9
00000300: c677 c2ba d094 b3ba 1c34 3139 5876 d037
00000310: 5bff cb3a 6143 a43a 5bc4 0939 3668 1639
00000320: f013 c83a 40de 5f3a b95d 783a 2cdc 2a3a
00000330: c406 2a39 1e21 bb39 f426 7eb9 b09d ebba
00000340: 2c85 cd3a c507 413a 898c 6cb9 ca1a 5f3a
00000350: ec3b 9fba 222d 43ba ce8b 34bb 63cd 76bb
00000360: b8cc c23a 0f92 d3b9 f8ad 0c39 040d 2aba
00000370: a0ce e23a 31f5 153a 1e10 143c e2fb bc3b
00000380: cc32 6bba 683c 9739 cc3e 473a 8d2a a53a
00000390: ae08 fc39 4f3e ab38 730c 72ba 001e 1635
000003a0: 0af8 fdba 2311 c3ba 092e fcba 6e9b 55ba
000003b0: b8a7 90b8 973e b9b9 5d1a b03b b0a3 e63a
000003c0: 1ec2 473a 5b4f 17b9 5ae5 a0bb 58c7 5c39
000003d0: b46c 553a 29e3 bd3a e407 3a3a bccd c338
000003e0: 52f0 fbba da6c d639 185b 8037 7ab5 81bb
000003f0: 01ee 803a 02cf 34bb 0aee 31ba 469d 9cba
0.0012481918 0.0003470066 0.0012799578 0.00082780427 -0.00023050176 -0.0005289598 0.000112423266 0.000121700396
0.0012967365 0.00015636615 0.001781563 0.002435841 -0.0005789441 -0.0017469056 -0.0032376507 -0.0017895382
-0.0012377866 -0.00040545707 -0.00014901973 7.5911594e-05 0.0021030202 0.0014120657 -0.0013450764 -0.0005340868
-0.0017984232 -0.0018798105 -0.00021395471 0.0009013956 -0.00075004227 0.0022427966 -0.0010662556 -0.0006126794
-0.0011952686 -0.0035460973 0.0022252905 -0.010409735 0.00022758945 0.00011163015 0.0007503205 -0.0003685077
0.0027530529 0.00022925652 0.005650859 0.0012449432 -5.7762853e-05 0.00034026965 0.0007756868 0.0027119897
-0.000562355 -0.0005087428 -0.0013816957 -0.0011050253 -2.2782588e-05 0.00015812744 -0.0022211918 -0.0015542996
-0.0017630171 -0.0009767503 0.0018781319 0.000906431 -0.00019631395 -0.00091229076 0.004510049 0.001112424
0.0020757434 0.0004121358 0.0006227409 0.00033090485 -0.00039318245 -0.0007454674 0.0009914773 -0.0014296554
0.0007541424 0.00092489854 0.0013883174 0.003328394 0.00011338091 -1.8908395e-05 0.0013910532 0.0017855807
-0.0019887248 -0.0007960829 -0.001325742 -0.0016486718 0.0007848521 0.00063731085 0.0026553664 0.0009517278
0.002221961 0.00027452945 8.8280445e-05 0.0010054972 -0.00080191327 -0.00027243115 -0.0006673831 -0.0002642864
-0.0014749027 -0.0005328575 0.00036480156 0.0012403611 -0.0024009673 -0.0017650097 0.000104453415 -9.874496e-05
0.000119722594 -0.0019995708 0.0034227916 -0.0020021333 -0.0037087495 -0.0014321072 -0.0014117222 -0.00055655243
0.0012672923 9.14238e-05 0.0010306454 -0.000799237 0.00094615173 0.0007283823 0.0015206019 0.0006214208
0.006316845 -0.0045654853 0.0005998012 6.5266446e-05 -0.0028021843 0.0017765749 0.0003073236 0.0022431903
0.0005510585 -0.00024745765 0.0022863906 -0.0020068348 -0.0005706655 0.0049252203 0.0010391853 0.0002882272
-4.564901e-05 -0.000498874 -4.7957772e-05 0.00067204196 -0.00040824446 -0.0010985116 4.9842038e-05 -0.00045280505
0.0005357029 0.0010661064 -0.00022264874 -0.0005654134 -0.0003501578 -0.001211166 0.0020336364 9.55342e-05
-0.00051608344 -0.0010473047 0.0050229547 0.0041555366 -0.00072124664 -0.0005566812 -0.002393529 -0.00119754
-0.0008236075 0.0008060133 0.00072463544 -0.0030747023 -0.00010709895 -0.00010268262 0.00066689495 0.00017812639
-0.0005178797 -0.0004917501 -0.00044674246 -0.00049867725 -0.0010491873 0.0014745385 -0.0013671315 0.0006604225
-0.002056656 -0.001548697 0.0013623987 0.0010715242 -0.0002892345 -0.00022077301 -0.0034816808 0.00025117834
0.0007446098 0.00015680239 1.5388432e-05 -4.8787202e-05 3.0273251e-05 -0.00082803535 0.00021324046 -0.00015637878
-0.0014836721 -0.0013700966 0.00016899448 2.485064e-05 0.0015563773 0.0012532288 0.00013138486 0.00014343936
0.0015264731 0.0008539893 0.0009474415 0.00065177935 0.00016214984 0.00035692094 -0.00024237839 -0.0017976072
0.0015679947 0.00073635235 -0.00022559067 0.0008510767 -0.0012148595 -0.0007445385 -0.002754915 -0.003765904
0.0014862036 -0.00040353878 0.00013416249 -0.0006486925 0.0017304011 0.00057204353 0.009037046 0.0057673315
-0.0008972108 0.0002884597 0.0007600605 0.0012601182 0.00048071652 8.165521e-05 -0.00092334225 5.592301e-07
-0.001937629 -0.0014882426 -0.0019239794 -0.0008148466 -6.897695e-05 -0.00035332583 0.0053742365 0.001759639
0.0007620173 -0.00014430044 -0.0049101533 0.00021055096 0.0008141503 0.0014487255 0.00070965127 9.3366456e-05
-0.0019221401 0.00040898361 1.5301208e-05 -0.0039584013 0.0009836556 -0.0027589207 -0.0006787485 -0.0011948727

exp_avg_sq f4 [164, 2]
00000000: d76a 9a37 717e 5937 7a66 0739 604e ae38
00000010: 74b8 c436 11be 0737 6646 3838 1b86 4e38
00000020: 578b 2538 47a1 df37 2c55 bc38 c67d 1539
00000030: bbcf 4f38 a2f3 9838 d28a be38 a50b 0c39
00000040: 3a25 9a38 f4b2 1338 54ae 1937 a918 4a37
00000050: a4d5 a138 5d6e 2d38 25d1 3938 66a6 fb37
00000060: 9386 d739 0aab 9639 a8dc 1638 6dce 9f37
00000070: 3845 7139 2e33 7e39 6f09 c937 4077 0e38
00000080: 293c 1f3b 0e9f 243b 0565 4f3c 9820 5f3c
00000090: 7770 8e36 2d35 d936 cbdf 0f37 02ef 9037
000000a0: bc70 0239 8909 bf38 dae7 633a e3ca 093a
000000b0: c2ff a035 50a0 4836 e048 9c38 a8bc 4b39
000000c0: 25aa 7237 9055 2537 e444 4c38 f092 8d38
000000d0: 2315 2336 8d46 f536 1720 3e39 a49b 1b39
000000e0: 0317 ee38 341e 1439 de53 6338 edc0 0538
000000f0: eddd df36 c61f 6537 5fc9 f439 8de0 7239
00000100: aafa c538 b66e d838 ff16 cf37 5c90 f337
00000110: 450c 8939 2202 5939 e417 cc38 bf17 e738
00000120: f00c 6937 6fa8 c237 2f73 1e39 91af 8639
00000130: e14d 1736 b28a f335 d981 6d38 f985 f737
00000140: d092 1139 161e 4038 365e 9b38 cf7c 3739
00000150: 3713 5837 8c77 0238 25b3 8339 b3e3 6f39
00000160: c68a 7739 97da 1439 54b9 9e37 4134 bf37
00000170: 728c 2e37 14e4 2037 51f2 dc38 2fdc 8438
00000180: e929 1638 efa6 0538 52ed a438 59d5 0839
00000190: 13e6 143a bb62 c739 3f0b 8f37 5f72 1a37
000001a0: a830 ea37 860a f237 0ed2 823b cabb 743b
000001b0: e7f4 4f39 f55b f139 e2d2 5039 a4ff 0739
000001c0: 7a6f d738 53d6 0439 de00 5e38 859d ac38
000001d0: 37e8 0f37 5a24 d136 ce85 c538 345d 2039
000001e0: ce6b 1c3c cc71 163c 116a 1937 6948 0537
000001f0: 3065 033a ec9b cc39 1e7b 2338 1d04 ea38
00000200: f881 8a37 3ed1 9336 40fb 2c3b bf43 0d3b
00000210: 5a44 263a e812 593a a0f5 6b37 0023 c936
00000220: 044e 3b36 2b9c 9437 4e8e d337 c813 3238
00000230: b740 b038 fc7e 5938 36b6 ad36 3881 3737
00000240: 6bb7 1c38 e227 3238 f60f 7936 37a8 9036
00000250: 2558 3138 df98 d137 f632 7439 2d27 3b39
00000260: 8adf 9b38 bac5 9338 3011 563a 7d20 373a
00000270: 4ba1 ac37 71c6 ac37 7e67 5039 d81e 5b39
00000280: 0051 c836 9dca 1037 a092 2039 5a0d 6b39
00000290: 0a0b 3138 ffb9 3438 7c47 fb37 b6c5 9f37
000002a0: 6efe 8037 eefb 9537 d95a 1337 bcee 5237
000002b0: aaae d338 ddb6 9c38 13f0 5339 56ad 0a39
000002c0: 7b69 b938 7fdf 8f38 a9b4 f237 ac3d 1a38
000002d0: 1c64 c038 ea1f 4138 79de e739 7231 4739
000002e0: dd11 1b38 9ccc 9a38 bfd3 5c36 b668 2236
000002f0: c760 c836 36bc a237 a6e4 2237 bf90 5537
00000300: 05eb 2639 f9f8 3639 f5b1 5e36 9d66 2137
00000310: 31aa 4838 9099 a837 6d23 7d36 0356 3737
00000320: d223 dc39 03d8 8739 8456 3539 52fa 6639
00000330: 460a 8b37 d50a 1037 3795 0538 163c 8738
00000340: bf96 5f38 c030 3138 ae97 0337 4b93 1937
00000350: f0e7 1b38 6ac7 b738 7707 9f39 8aa9 2b3a
00000360: 3af7 ba3a 3d18 cc3a f44f bf37 de49 0838
00000370: e37b b438 7164 3438 c6b9 343b d583 df3a
00000380: 8791 9137 c1a9 ac37 dc24 c737 612c 4f38
00000390: 09c7 eb36 9cc2 1e36 3f7c a738 0798 5738
000003a0: a1d4 d438 e056 d738 d161 3d38 937c e438
000003b0: 2a25 3c38 59a5 3b38 d2d5 ea39 e4f4 0d39
000003c0: 2cfe f936 6a2b 3e37 0eb8 9d3a ae39 013a
000003d0: 225e 3b38 cf1d bb38 6247 5e37 8b47 9437
000003e0: ac08 1d39 18ec 2139 4816 cc39 fe7d e839
000003f0: cbaa 8839 bb16 ba39 9c24 9337 e3e1 d137
1.8407982e-05 1.2963647e-05 0.00012912779 8.311565e-05 5.8627284e-06 8.09088e-06 4.3934582e-05 4.9239123e-05
3.9468836e-05 2.6658772e-05 8.980403e-05 0.00014256602 4.954611e-05 7.293305e-05 9.085763e-05 0.00013355778
7.350226e-05 3.5214194e-05 9.1601e-06 1.204588e-05 7.716872e-05 4.1349198e-05 4.4302218e-05 2.9999017e-05
0.0004110826 0.00028737664 3.596829e-05 1.9050402e-05 0.00023009337 0.00024242394 2.396546e-05 3.39665e-05
0.0024297333 0.0025119218 0.012658362 0.013618611 4.2450224e-06 6.4732944e-06 8.57557e-06 1.7277434e-05
0.00012439763 9.109366e-05 0.00086939114 0.0005256368 1.1995364e-06 2.9895637e-06 7.452234e-05 0.00019429869
1.4463939e-05 9.854688e-06 4.870155e-05 6.750773e-05 2.4301196e-06 7.309782e-06 0.00018131766 0.00014839933
0.000113530106 0.00014125631 5.4199125e-05 3.1889347e-05 6.6717535e-06 1.36568615e-05 0.0004668934 0.0002316257
9.440382e-05 0.00010320304 2.4687031e-05 2.903508e-05 0.00026139818 0.00020695527 9.731928e-05 0.000110193614
1.38908945e-05 2.3205035e-05 0.00015110963 0.0002568928 2.2546085e-06 1.8145276e-06 5.6626133e-05 2.950708e-05
0.0001388297 4.5804387e-05 7.408524e-05 0.00017498735 1.2879077e-05 3.1105752e-05 0.0002511974 0.00022877641
0.00023607453 0.00014195811 1.8921368e-05 2.2793307e-05 1.0403908e-05 9.589847e-06 0.000105355524 6.335263e-05
3.580182e-05 3.186514e-05 7.864334e-05 0.00013049449 0.00056800357 0.00038029798 1.7052165e-05 9.205744e-06
2.7917631e-05 2.8853548e-05 0.0039923256 0.0037343376 0.00019832292 0.00046035615 0.00019914986 0.00012969837
0.00010272763 0.00012668343 5.2929732e-05 8.2309394e-05 8.577531e-06 6.2329173e-06 9.418615e-05 0.0001529351
0.009547187 0.009182405 9.144206e-06 7.944277e-06 0.00050123315 0.00039026083 3.897689e-05 0.00011158756
1.6511403e-05 4.4053004e-06 0.0026394874 0.0021555272 0.00063425826 0.00082807103 1.4064281e-05 5.9943413e-06
2.7910583e-06 1.7715696e-05 2.5219426e-05 4.245693e-05 8.404388e-05 5.1855095e-05 5.177014e-06 1.0937736e-05
3.736412e-05 4.247565e-05 3.7113182e-06 4.311117e-06 4.228218e-05 2.4985928e-05 0.00023288638 0.00017848304
7.432613e-05 7.046336e-05 0.0008166013 0.0006985737 2.0579106e-05 2.0596404e-05 0.0001987498 0.00020896958
5.969894e-06 8.630243e-06 0.00015313411 0.0002241632 4.221037e-05 4.3088567e-05 2.995482e-05 1.9046343e-05
1.5377267e-05 1.7879498e-05 8.783035e-06 1.257256e-05 0.00010093798 7.4727206e-05 0.00020211963 0.00013225278
8.841135e-05 6.860401e-05 2.8932775e-05 3.6773898e-05 9.17392e-05 4.6044508e-05 0.00044225508 0.00018996539
3.6971516e-05 7.381404e-05 3.2905807e-06 2.420083e-06 5.971731e-06 1.9399547e-05 9.709189e-06 1.2729491e-05
0.00015918545 0.00017449622 3.3184162e-06 9.620239e-06 4.784222e-05 2.0098669e-05 3.7720558e-06 1.0927676e-05
0.00041988358 0.00025910148 0.00017293735 0.00022027761 1.6574875e-05 8.585591e-06 3.1848638e-05 6.4484935e-05
5.3307736e-05 4.224549e-05 7.843524e-06 9.153805e-06 3.717089e-05 8.763264e-05 0.00030332405 0.00065483956
0.0014264353 0.0015571188 2.2806205e-05 3.249372e-05 8.6061445e-05 4.3008888e-05 0.002757655 0.0017052839
1.7353113e-05 2.0583046e-05 2.3739813e-05 4.9393977e-05 7.0267165e-06 2.3657112e-06 7.986323e-05 5.140158e-05
0.00010148553 0.000102681806 4.515221e-05 0.00010895091 4.4857305e-05 4.4738266e-05 0.00044791267 0.00013538037
7.450368e-06 1.1334991e-05 0.0012033002 0.00049295544 4.4671942e-05 8.922407e-05 1.3248851e-05 1.767629e-05
0.00014975917 0.00015442108 0.00038926513 0.0004434436 0.00026067192 0.0003549362 1.7540813e-05 2.5019928e-05

exp_avg f4 [164]
00000000: d012 21b7 e6e8 3939 9c6c df36 a0c1 8eb6
00000010: 2895 2db9 40e8 b1b9 3a0c dd38 8069 9eb9
00000020: 692a 26b9 ad0c 1838 14a4 0cb9 36b5 4839
00000030: 3050 cbb8 4f14 36b8 8e1d 90b9 4095 6638
00000040: 9459 bb3a ee21 403b 5877 acb7 3606 bcb8
00000050: 2aa7 a3b9 216d f0b9 0e71 5338 e040 97b9
00000060: 72a0 9fb7 62eb 15b9 1e66 a0b7 0098 4ab9
00000070: ebda 233a 7ea9 3ab9 8378 c7b8 c779 0aba
00000080: 3465 88b9 2c3b b138 7c43 193a 9da5 2d39
00000090: 7ae4 40b9 473b c8b9 9218 b537 3ec2 6bb8
000000a0: 9274 56b9 80ce 0438 8944 5eb9 74c6 edb8
000000b0: a41a 8c39 30c9 c238 dc03 f137 908a b2b6
000000c0: b3ed d239 e0e3 b2b5 785a 39b9 3906 a0b7
000000d0: 1d2a 5539 6323 e03a ca11 8db9 b043 0fb9
000000e0: e369 8039 59dd 1139 1b0c 8bb8 389a f938
000000f0: baab 193b 9835 3d38 7e3a f6b9 1716 90b9
00000100: 56e5 d937 1954 6e3a ee9e d7b9 994d 03b9
00000110: c129 4db8 f2c3 8cb8 4cde 0a39 75fb 1fb8
00000120: 6c21 a1b8 e2f7 d338 4a21 fdb7 8ad5 c539
00000130: ba23 b0b8 6f52 26ba be76 3339 fe35 feb8
00000140: 0450 6138 aa3d c139 224a 37b8 ec13 9538
00000150: d77d a5b8 5946 ac38 0275 89b9 4eb3 83b8
00000160: 847b 50b9 34fd b4b7 06b8 dbb7 3af5 f6b9
00000170: b334 a838 33f0 a1b6 a225 60b8 61fd 14b8
00000180: eb26 d5b8 126a 1138 6e43 94b9 c5af 28b7
00000190: e411 dd39 4c17 df39 d870 22b7 5ec1 1139
000001a0: fa27 2eb9 e9e5 d7b8 2780 6ab9 6273 0dba
000001b0: 20fd 983a 1b7a 2438 e90c 47b9 dda1 71ba
000001c0: 7e41 1a39 833d 2db9 0818 2a37 e26f 20b9
000001d0: d967 bb38 124d 03b8 807d e8b8 a0a1 39ba
000001e0: 948e 54b7 67c9 01ba 8c28 5fb9 503c 38b7
000001f0: 708f 88b9 9f6c c339 a3da 2e39 4cbc 8bb8
00000200: 2e44 46b7 57e6 01b8 a70a d139 1213 8539
00000210: 222f 8d3a 3fb2 793a d613 05ba 5e24 1fb9
00000220: 6840 ebb9 d8e8 9d37 ed65 cbb8 b07d 2eb8
00000230: 8636 58b9 16ce 49b9 5c38 6ab9 ae19 d5b8
00000240: b828 37b9 7eff bbb7 7cde 863a c0a4 2239
00000250: 7956 0db9 88c9 8eb8 eb09 4bb9 b8a9 b3b7
00000260: d68b 3a38 b398 25b9 6f11 a6b8 3df9 d538
00000270: 07d3 8a39 a018 473b 7c66 8bb9 f882 afb8
00000280: ca99 5b38 e864 dbb9 7434 f5b8 129f 32b8
-9.600728e-06 0.00017729736 6.6585617e-06 -4.2544707e-06 -0.0001655413 -0.0003393311 0.000105403786 -0.00030214712
-0.00015846793 3.625143e-05 -0.00013412564 0.00019140993 -9.6947304e-05 -4.3411095e-05 -0.0002748784 5.4975273e-05
0.0014293664 0.0029317099 -2.0559572e-05 -8.9656955e-05 -0.0003121433 -0.00045857675 5.041161e-05 -0.000288493
-1.902899e-05 -0.00014297434 -1.9121038e-05 -0.00019320846 0.0006250578 -0.00017801483 -9.5115065e-05 -0.00052824285
-0.00026015344 8.451039e-05 0.0005846543 0.00016560261 -0.00018395661 -0.00038191138 2.1588323e-05 -5.620927e-05
-0.00020452056 3.166357e-05 -0.00021197101 -0.000113380054 0.0002672273 9.288115e-05 2.8731236e-05 -5.320944e-06
0.0004023142 -1.3328354e-06 -0.00017676677 -1.9076384e-05 0.00020328951 0.001710039 -0.0002690687 -0.00013662758
0.00024492954 0.00013910736 -6.630291e-05 0.00011901971 0.0023448304 4.5111025e-05 -0.00046964356 -0.00027482279
2.5975209e-05 0.0009091511 -0.00041126407 -0.00012522041 -4.8914695e-05 -6.712218e-05 0.00013243518 -3.814274e-05
-7.6833036e-05 0.00010107436 -3.0175452e-05 0.00037733867 -8.3989886e-05 -0.0006344681 0.00017115005 -0.00012121721
5.37187e-05 0.00036857772 -4.369964e-05 7.1085844e-05 -7.8912526e-05 8.2147024e-05 -0.00026217854 -6.279965e-05
-0.00019882439 -2.1575579e-05 -2.6192527e-05 -0.00047103484 8.02068e-05 -4.826137e-06 -5.344081e-05 -3.5521927e-05
-0.000101638805 3.466948e-05 -0.00028279 -1.0054505e-05 0.00042165734 0.00042551232 -9.682226e-06 0.00013900312
-0.00016608826 -0.00010294823 -0.0002236372 -0.00053959165 0.0011672117 3.9214367e-05 -0.00018982928 -0.000921754
0.00014710982 -0.0001652148 1.0138385e-05 -0.00015300469 8.936198e-05 -3.130461e-05 -0.00011085998 -0.0007081274
-1.2669381e-05 -0.0004950971 -0.00021282042 -1.0981297e-05 -0.0002604681 0.00037274227 0.00016675382 -6.6631095e-05
-1.1817594e-05 -3.0970517e-05 0.00039871523 0.00025381945 0.0010771493 0.0009525157 -0.0005076503 -0.0001517697
-0.0004487068 1.8824285e-05 -9.6987795e-05 -4.160189e-05 -0.00020619677 -0.00019245627 -0.00022336975 -0.00010161415
-0.00017467409 -2.241111e-05 0.0010289694 0.00015510898 -0.00013479021 -6.808626e-05 -0.00019363283 -2.1417494e-05
4.4476088e-05 -0.00015792511 -7.918744e-05 0.00010203056 0.0002647864 0.0030379668 -0.00026588503 -8.369045e-05
5.2356896e-05 -0.00041846116 -0.000116922805 -4.2586653e-05

exp_avg_sq f4 [164]
00000000: d5c8 0a35 9f2b e435 18e6 8234 4c80 7d35
00000010: 1cf3 3f35 9556 1736 1b42 a835 f9c0 0136
00000020: 4189 b035 0c6c 5034 7c85 c035 6ea1 5a35
00000030: 9b0a bc36 05f2 1c35 c8fb 9936 3ee1 0535
00000040: eac6 1838 ac60 3d39 40af fb33 a6e3 9e34
00000050: 3709 2636 deaf 8d37 a967 4c33 5bbf 1d36
00000060: 767e 8e34 6a11 9335 5e25 c333 5589 3b36
00000070: 7ff0 3736 496f 8635 d88d 2434 2423 0337
00000080: 0da9 0d36 47a3 2635 c0fb 4e36 42a7 c535
00000090: d0f7 be34 5bd8 8736 949e 6e33 7bec 8135
000000a0: a204 d235 426b 2936 800b 2635 5382 be36
000000b0: 3f5b 6536 f09a c734 e513 7334 6a5c c835
000000c0: 0df8 5d35 d4d7 2336 408f fb36 0e68 7d34
000000d0: 2f78 2635 62a7 5438 e035 1637 3c9a 2836
000000e0: e3b1 0336 1e1f 9135 b8c2 3634 0078 3236
000000f0: d7cd fe38 0ecf 5f34 c00e 0d37 a7ce ba35
00000100: 5817 fd34 47b0 0c38 81f4 6937 aa34 7d34
00000110: 0dca a234 a321 5d35 0580 ac35 db1b 0f34
00000120: 56a7 5635 3ae6 2334 2810 2635 763d 4836
00000130: 9795 bd35 2570 8537 8e2d f234 120c a636
00000140: 39aa 9434 ec60 7036 d66a b535 2a1b 3935
00000150: d77d d134 a3f3 e534 a82f 0636 190d 3e36
00000160: 22a1 a735 e197 2b35 15e4 b435 7360 b836
00000170: f17b d835 1331 7933 0136 a934 ae22 8434
00000180: 0658 5836 f7ee 5034 0684 4335 abc3 8334
00000190: 5d01 aa36 efe8 6336 2fa8 8734 2a47 6d35
000001a0: 94e6 8a35 a86d 1a34 cb34 0f36 319a 2837
000001b0: 9c54 be37 615d 1635 f5da c335 2456 4a38
000001c0: c710 0235 499c 3a35 f419 8134 6080 b635
000001d0: d340 0b36 d46f bc35 19c9 b635 d411 e436
000001e0: 1527 8d34 ecdf 4c37 a0fa b835 6f8b ec34
000001f0: 5473 3f36 44f8 ff36 56ba a436 39fd fd34
00000200: 33e4 e936 05e1 a135 6fb6 fa35 c9b2 6a35
00000210: 74a1 b037 e375 0a39 1e92 e736 1009 1036
00000220: 9dfa 3636 17c4 b534 209f 4936 0037 8a36
00000230: 7e91 0736 e026 fb35 bfda f335 6159 ac34
00000240: dcf8 ad34 1be4 9333 46ae 8038 4526 4236
00000250: 3721 dc35 5010 b134 ec6b 9635 ae0e 4236
00000260: 3053 a634 5fa8 5635 be78 0735 6517 a435
00000270: 1ca3 1b35 850f 2239 1d80 f035 ebc6 6d36
00000280: 0fe7 ea34 fd4e c736 050a 1934 a21c 6b34
5.1701255e-07 1.7000019e-06 2.4381802e-07 9.443654e-07 7.1506815e-07 2.255115e-06 1.2536215e-06 1.9334823e-06
1.3152968e-06 1.9410817e-07 1.4343964e-06 8.144624e-07 5.6040712e-06 5.8466713e-07 4.5890665e-06 4.987413e-07
3.6424877e-05 0.00018060458 1.1719976e-07 2.959543e-07 2.4741291e-06 1.6890404e-05 4.759173e-08 2.3506207e-06
2.6541574e-07 1.0957422e-06 9.087192e-08 2.794511e-06 2.7409112e-06 1.0016166e-06 1.5325293e-07 7.81639e-06
2.1109038e-06 6.207742e-07 3.084293e-06 1.4726322e-06 3.5570565e-07 4.0485006e-06 5.555792e-08 9.680074e-07
1.5647568e-06 2.5245395e-06 6.1856554e-07 5.677613e-06 3.4176771e-06 3.717937e-07 2.2638376e-07 1.4928057e-06
8.2689877e-07 2.4414521e-06 7.4970594e-06 2.3600316e-07 6.201471e-07 5.0700626e-05 8.9532405e-06 2.5123727e-06
1.9624065e-06 1.0812398e-06 1.7020909e-07 2.6593916e-06 0.000121500045 2.084382e-07 8.407689e-06 1.3918224e-06
4.7141907e-07 3.3542772e-05 1.394481e-05 2.358162e-07 3.0321863e-07 8.2377863e-07 1.2852257e-06 1.3328047e-07
7.996472e-07 1.5264314e-07 6.186333e-07 2.9838097e-06 1.4125134e-06 1.5907057e-05 4.5109158e-07 4.9485907e-06
2.7691001e-07 3.5819203e-06 1.3516644e-06 6.89574e-07 3.9020844e-07 4.2831843e-07 1.9995296e-06 2.831983e-06
1.2489365e-06 6.3923477e-07 1.3477426e-06 5.4948555e-06 1.6129326e-06 5.8019463e-08 3.1517996e-07 2.461215e-07
3.2237745e-06 1.9458444e-07 7.283528e-07 2.454302e-07 5.0665535e-06 3.396122e-06 2.526808e-07 8.839294e-07
1.0348908e-06 1.438226e-07 2.133939e-06 1.0049481e-05 2.2689164e-05 5.601524e-07 1.4592357e-06 4.8240778e-05
4.845319e-07 6.9517824e-07 2.4047006e-07 1.3597419e-06 2.0750347e-06 1.4039638e-06 1.3618584e-06 6.797005e-06
2.6291733e-07 1.2211483e-05 1.378201e-06 4.4059877e-07 2.8528348e-06 7.628494e-06 4.9092732e-06 4.7309166e-07
6.970507e-06 1.2060924e-06 1.8679547e-06 8.743196e-07 2.1056017e-05 0.00013204622 6.9013468e-06 2.1462947e-06
2.726599e-06 3.385655e-07 3.0043957e-06 4.1191233e-06 2.0201255e-06 1.8712271e-06 1.8168574e-06 3.2102528e-07
3.240483e-07 6.886713e-08 6.1359766e-05 2.8930529e-06 1.6400944e-06 3.2980688e-07 1.120728e-06 2.8916797e-06
3.0980436e-07 7.9966225e-07 5.046712e-07 1.2225761e-06 5.7979355e-07 0.00015455305 1.7918679e-06 3.5431538e-06
4.3754014e-07 5.9398576e-06 1.425288e-07 2.1896497e-07
