docs/smld/lightning_logs/version_88/checkpoints/epoch=49-step=4900.ckpt (torch, 617307 bytes, 30 tensors)

t_embed.0.weight f4 [128, 1]
1.0710192 0.13126735 -0.51436937 -0.91434956 -0.38435748 0.6493661 -1.0847981 -1.0170406
-0.12735537 0.9473469 0.9210618 -0.76209444 0.32513243 0.64856356 -0.88954526 -0.027633214
0.35929292 0.38519144 -0.080167174 0.67119795 -0.50464433 -0.30523652 -0.9235718 -0.6834364
0.37950402 0.29060364 0.88706875 -0.49142942 -0.08152732 1.0016974 0.9353525 -0.590014
-0.67176884 -0.9887853 -0.25660384 -0.84125346 0.50960207 0.57144517 0.0064565786 -0.55569863
-0.39061677 -1.0230163 0.2947595 -0.27776232 0.491135 0.14047404 -0.8475056 -0.37233755
0.33425796 -0.8222797 -0.90706235 0.82603604 -0.3458771 0.67354625 0.29059878 0.41256085
-0.2153914 0.7666606 0.11940202 0.7775282 -0.012634174 -0.45070094 -0.3842334 0.6887469
-0.57960117 0.75150865 -0.8134938 0.42293566 -0.071023 -0.21221496 -0.2459716 0.60886943
-0.7337235 -0.019197948 0.20803547 -0.0017105171 -0.2796991 -0.63994026 -0.12340111 0.52929485
0.6657174 0.7871746 0.7880307 0.42685723 -0.0733397 -0.26267684 0.7635987 -0.32259685
0.6758093 -0.045750793 -0.07185297 -0.9709027 -0.87275344 0.0345217 0.3066551 -0.96658957
-0.62387544 0.8278186 0.67721987 0.3227336 0.05663518 -1.0349301 0.0021835417 0.7003682
0.56180966 0.33072042 0.7840178 -0.18266721 0.026890911 0.835462 -0.12212411 0.31457624
-0.45528853 0.077222705 -0.14616185 0.35379696 -0.29918548 0.87659293 0.21886006 0.18633881
0.37966466 0.8436599 0.047427032 -0.034449935 -0.5818025 0.5431464 0.81054014 -0.6134389
00000000: 2817 893f f36a 063e b6ad 03bf d012 6abf
00000010: 81ca c4be db3c 263f aada 8abf 632e 82bf
00000020: 7269 02be 5485 723f b5ca 6b3f 9f18 43bf
00000030: c277 a63e 4308 263f 3db9 63bf 0d5f e2bc
00000040: 3ef5 b73e d037 c53e b02e a4bd a1d3 2b3f
00000050: 5f30 01bf f647 9cbe 346f 6cbf b0f5 2ebf
00000060: 5a4e c23e 00ca 943e f016 633f a39c fbbe
00000070: ccf7 a6bd 9f37 803f 4373 6f3f 280b 17bf
00000080: 0bf9 2bbf 0921 7dbf 9461 83be 635c 57bf
00000090: 4875 023f 3b4a 123f b591 d33b 4442 0ebf
000000a0: ecfe c7be 33f2 82bf b8ea 963e dd36 8ebe
000000b0: 0c76 fb3e 6dd8 0f3e 21f6 58bf 07a3 bebe
000000c0: dc23 ab3e ec80 52bf 3d35 68bf 1977 533f
000000d0: ce16 b1be 876d 2c3f 5dc9 943e 2d3b d33e
000000e0: 908f 5cbe de43 443f 0c89 f43d 170c 473f
000000f0: 91ff 4ebc 46c2 e6be 3dba c4be b851 303f
00000100: be60 14bf df62 403f 2141 50bf 068b d83e
00000110: 8274 91bd e14e 59be fbdf 7bbe dede 1b3f
00000120: 4ed5 3bbf 0445 9dbc 4007 553e 6e33 e0ba
00000130: b834 8fbe 20d3 23bf b9b9 fcbd de7f 073f
00000140: 756c 2a3f 4684 493f 61bc 493f 088d da3e
00000150: 2033 96bd 947d 86be 347b 433f 6a2b a5be
00000160: d701 2d3f 2f65 3bbd a627 93bd 148d 78bf
00000170: c56c 5fbf a066 0d3d e601 9d3e 6a72 77bf
00000180: 4db6 1fbf ebeb 533f 485e 2d3f 573d a53e
00000190: 4afa 673d 9778 84bf c019 0f3b 554b 333f
000001a0: c2d2 0f3f 3054 a93e 64b5 483f 1d0d 3bbe
000001b0: 544a dc3c d6e0 553f 351c fabd 2310 a13e
000001c0: 941b e9be f026 9e3d 74ab 15be e024 b53e
000001d0: d72e 99be 6568 603f da1c 603e 9acf 3e3e
000001e0: 6863 c23e 18fa 573f d942 423d 601b 0dbd
000001f0: 02f1 14bf a40b 0b3f 8f7f 4f3f 550a 1dbf

t_embed.0.bias f4 [128]
-1.0737485 0.102312475 -0.042590328 -0.6342647 0.52749103 0.7648783 0.78954625 -0.6063299
0.032795575 -0.4223024 -0.90547806 0.8968151 -0.3681975 0.63138145 -0.30108047 -0.024535907
-0.15447982 0.7835582 0.112214655 0.35370073 -0.02995059 -0.04043025 -0.85856706 -0.37942755
-0.14345916 -0.938103 0.07748327 -0.17290333 -0.46876952 -1.0332274 -0.3259551 -0.7352813
-0.14947046 -0.55014175 0.5058326 0.87935525 0.046357468 0.1308835 -0.32852277 0.17715602
-0.2243299 -0.70113444 -0.22168231 0.7476228 0.24967526 -0.613049 -0.7452484 0.9761364
0.8016049 0.49133673 0.91738755 0.18480419 -0.9212631 -0.43636245 0.072013825 0.7958872
0.63555557 0.0038181613 0.37732354 0.3061871 0.0028217356 0.474232 0.7866396 0.045879282
0.04603206 -0.67481226 -0.24242146 0.36903188 0.09651773 0.36075264 0.6870051 0.251099
-0.37624702 -0.4632953 0.6516006 -0.000299239 0.60509646 -0.7528995 0.06327334 -0.25017375
-0.5817136 -0.43953392 -0.19881816 -0.7845824 -0.99965036 0.4330372 0.18345612 -0.9914088
-0.08193461 0.024768932 0.62879604 0.61438215 0.72386134 0.61676764 -0.3359482 0.69155675
0.16650108 0.49609655 -0.36417106 0.2934256 -0.0040240833 0.75947267 0.002099619 0.1860571
0.350239 -0.5072805 0.02368278 0.55268574 -0.80095667 -0.4713165 0.5140407 0.111933544
-0.6875075 0.7475833 -0.14811134 0.88289785 0.45431542 0.64329255 0.111914635 0.26377693
-0.59151745 -0.5901175 -0.59751064 -0.8174893 -0.6281675 0.7580809 -0.9379058 -0.5443808
00000000: 9770 89bf 3489 d13d 3273 2ebd 2c5f 22bf
00000010: a709 073f 10cf 433f b41f 4a3f 7038 1bbf
00000020: a754 063d 0538 d8be 69cd 67bf ad95 653f
00000030: 6284 bcbe 37a2 213f 3827 9abe 87ff c8bc
00000040: f52f 1ebe 4597 483f ccd0 e53d 4318 b53e
00000050: f15a f5bc 319a 25bd 0dcb 5bbf 5444 c2be
00000060: f5e6 12be 8527 70bf 8caf 9e3d 920d 31be
00000070: 8f02 f0be cc40 84bf 96e3 a6be 653b 3cbf
00000080: c90e 19be 17d6 0cbf 3f7e 013f 6d1d 613f
00000090: 54e1 3d3d 5306 063e 2334 a8be 6368 353e
000000a0: bdb6 65be 8c7d 33bf b000 63be 3564 3f3f
000000b0: dfaa 7f3e c7f0 1cbf 99c8 3ebf 13e4 793f
000000c0: fb35 4d3f 7d90 fb3e e9d9 6a3f 4f3d 3d3e
000000d0: e6d7 6bbf e66a dfbe fc7b 933d 43bf 4b3f
000000e0: c5b3 223f 1e3a 7a3b 8d30 c13e 8ec4 9c3e
000000f0: deec 383b 89ce f23e 3661 493f eaeb 3b3d
00000100: 1d8c 3c3d 7fc0 2cbf 553d 78be bff1 bc3e
00000110: 16ab c53d 92b4 b83e 91df 2f3f 0c90 803e
00000120: 73a3 c0be 0b35 edbe 4ccf 263f 2ee3 9cb9
00000130: 9ae7 1a3f 06be 40bf 7495 813d c616 80be
00000140: 2feb 14bf 970a e1be fd96 4bbe 64da 48bf
00000150: 16e9 7fbf 0db7 dd3e ecdb 3b3e f8cc 7dbf
00000160: 55cd a7bd 37e8 ca3c c7f8 203f 2648 1d3f
00000170: fa4e 393f 7ce4 1d3f 6701 acbe dd09 313f
00000180: 427f 2a3e 5e00 fe3e a174 babe e13b 963e
00000190: 75dc 83bb cd6c 423f c399 093b c185 3e3e
000001a0: 8752 b33e 23dd 01bf 6402 c23c d07c 0d3f
000001b0: 7f0b 4dbf 6550 f1be 2c98 033f 6a3d e53d
000001c0: 7e00 30bf 9f61 3f3f 80aa 17be 9805 623f
000001d0: 089c e83e d2ae 243f 8033 e53d c50d 873e
000001e0: b06d 17bf f111 17bf 75f6 18bf fb46 51bf
000001f0: 96cf 20bf 9711 423f 981a 70bf 8a5c 0bbf

t_embed.2.weight f4 [128, 128]
-0.019215837 -0.0013088248 -0.04171367 0.019726569 -0.06390685 -0.051504724 -0.05424371 0.051971737
-0.02618086 -0.0411257 0.053208314 0.0025257652 -0.031647693 -0.0316616 0.05508049 -0.06209863
-0.051293995 0.016759051 -0.014641422 -0.04465502 0.01023065 0.02893678 0.05513427 0.110369615
-0.016614283 0.079380244 0.054498356 -0.012649833 0.05998283 -0.12106227 -0.046239045 0.01666257
-0.05361077 0.09003083 0.016391467 -0.076864615 -0.043034617 -0.007865464 0.08338798 -0.07652891
0.06950571 0.105689675 0.05545907 -0.02616896 -0.0047613014 0.06674028 0.07460719 -0.11745384
-0.054552592 -0.09363368 -0.15743777 0.04229327 -0.02702882 -0.026846826 -0.09381706 -0.026412005
-0.11663303 -0.016139818 -0.07251853 -0.017553458 -0.0015542754 -0.020461664 -0.05851361 0.0025439383
-0.056680847 -0.03780256 0.009084337 0.0002420619 0.0063444963 -0.017200913 -0.12171298 0.005582496
0.03200296 -0.004065481 -0.07049869 -0.016926056 0.026737427 0.07905363 0.030387672 0.0822477
0.0513755 -0.08323949 0.04713705 0.105033174 0.10968901 -0.14092334 0.012894806 0.114632316
0.00235042 -0.07635605 0.05175096 -0.06830126 -0.087433025 0.021694401 -0.020987349 0.0025459814
0.034757122 -0.047884546 -0.022931233 0.023803229 -0.023631208 -0.027426876 -0.009859565 0.060390037
-0.06410505 0.016850736 -0.042474255 -0.008208302 0.010199358 0.020433811 0.023642935 -0.050376423
-0.014230674 -0.10227844 -0.0109411515 -0.013906984 -0.07541733 -0.050901283 -0.03661002 -0.065530114
-0.02231215 -0.08034638 0.016951665 0.095418066 0.09104725 -0.07697062 -0.010685741 0.03318205
0.28383473 -0.0155074075 -0.020918714 -0.013815263 -0.08370321 -0.03445215 0.026242629 -0.15665168
-0.06995675 0.07460734 0.18053289 -0.05035579 0.13793862 -0.045632333 0.016237304 -0.005572986
0.11346885 -0.04770011 0.04330646 0.0392796 0.08783237 0.054867834 0.00819377 0.035421383
0.026891483 0.08083922 -0.050606035 -0.0662441 -0.0023124123 0.19775005 -0.022612354 -0.075152
-0.004403694 -0.14909644 0.032959163 0.027954124 0.12638417 0.10534628 -0.016739013 -0.046110936
-0.060753044 -0.09082128 0.01931188 0.06040762 0.11135119 -0.038969923 0.013972942 0.065929316
0.1047507 -0.040180556 0.084933646 0.010279523 -0.0019520943 0.039721858 -0.02925022 0.08579329
-0.034698922 -0.042842712 0.058167633 0.073444195 -0.09889444 0.027062634 0.050290566 0.0271479
0.092279 0.19844644 0.016039483 0.0047702007 -0.08693571 -0.11202652 -0.041831475 -0.04209602
0.05338443 -0.07302846 0.016271835 0.0051332223 -0.09479476 -0.05196748 -0.09578736 0.13561684
0.15377113 0.028511213 0.04766197 0.107022054 -0.004443116 -0.026171528 -0.014337895 0.039265558
0.00892976 -0.10968567 0.07575134 0.09547898 0.1318436 0.0014871813 0.17640653 0.045181986
0.022780199 0.089281246 0.024483709 0.0011772531 -0.042317685 0.09892499 -0.048775036 0.092161395
0.11403065 0.03985569 0.061408024 0.0011744082 -0.049452554 0.10760584 -0.032565158 0.091076195
-0.05643975 -0.07512372 0.014067901 0.029327568 0.012411398 -0.0011791756 -0.037232295 0.018640256
0.16688894 0.18185756 0.04831564 -0.007599284 -0.101463065 -0.00047927594 0.25093612 -0.070360616
00000000: 886a 9dbc df8c abba f4db 2abd 9d99 a13c
00000010: 98e1 82bd 9ef6 52bd a72e 5ebd 51e0 543d
00000020: 3e79 d6bc 6c73 28bd f6f0 593d 4f87 253b
00000030: 03a1 01bd 98af 01bd 149c 613d 225b 7ebd
00000040: a719 52bd 474a 893c 93e2 6fbc 2fe8 36bd
00000050: 759e 273c d30c ed3c 79d4 613d 7709 e23d
00000060: ad1a 88bc 1c92 a23d ab39 5f3d 3f41 4fbc
00000070: 8eb0 753d 7fef f7bd 2765 3dbd f17f 883c
00000080: f796 5bbd 1562 b83d 6647 863c 326b 9dbd
00000090: 1145 30bd 26de 00bc 51c7 aa3d 30bb 9cbd
000000a0: 0259 8e3d d473 d83d 0d29 633d 4960 d6bc
000000b0: b104 9cbb 21af 883d a8cb 983d a48b f0bd
000000c0: 8a72 5fbd 04c3 bfbd 5e37 21be b53b 2d3d
000000d0: 8b6b ddbc e0ed dbbc 2923 c0bd fd5d d8bc
000000e0: 4cdd eebd a737 84bc 9884 94bd 45cc 8fbc
000000f0: d4b8 cbba 389f a7bc f8ab 6fbd 34b8 263b
00000100: 2d2a 68bd dbd6 1abd 79d6 143c ffd1 7d39
00000110: 7ee5 cf3b eee8 8cbc a844 f9bd 5fed b63b
00000120: 8915 033d ba37 85bb 9e61 90bd 83a8 8abc
00000130: 7308 db3c dfe6 a13d 91ef f83c 7b71 a83d
00000140: 1e6f 523d 7779 aabd c812 413d a21b d73d
00000150: a2a4 e03d 354e 10be bd44 533c 59c4 ea3d
00000160: 8109 1a3b 9060 9cbd d1f8 533d 88e1 8bbd
00000170: 1610 b3bd 75b8 b13c a9ed abbc 7bda 263b
00000180: 7c5d 0e3d 9622 44bd 48da bbbc fdfe c23c
00000190: 3c96 c1bc 54ae e0bc 038a 21bc 8b5b 773d
000001a0: 8249 83bd 8e0a 8a3c 7cf9 2dbd 1d7c 06bc
000001b0: 351b 273c cf64 a73c d4ae c13c 8257 4ebd
000001c0: c627 69bc 5c77 d1bd 8442 33bc 1eda 63bc
000001d0: 6774 9abd dd7d 50bd 63f4 15bd a734 86bd
000001e0: f8c7 b6bc a58c a4bd 38de 8a3c 8c6a c33d
000001f0: fb76 ba3d c6a2 9dbd 3f13 2fbc e7e9 073d
00000200: c952 913e c812 7ebc b95d abbc 6a59 62bc
00000210: 976c abbd b31d 0dbd c8fa d63c 4c69 20be
00000220: 7c45 8fbd bccb 983d 9ddd 383e df41 4ebd
00000230: c83f 0d3e f8e8 3abd 1804 853c 989d b6bb
00000240: 5b62 e83d 3161 43bd 1d62 313d a5e3 203d
00000250: 75e1 b33d 18bd 603d 2a3f 063c 0316 113d
00000260: 874b dc3c 088f a53d 4648 4fbd fdaa 87bd
00000270: d78b 17bb fd7e 4a3e 8b3d b9bc 4be9 99bd
00000280: dd4c 90bb bdac 18be 3000 073d 0c00 e53c
00000290: da6a 013e cabf d73d 4120 89bc d2de 3cbd
000002a0: 2fd8 78bd 8200 babd f333 9e3c fb6d 773d
000002b0: 180c e43d ed9e 1fbd c4ee 643c f305 873d
000002c0: 8987 d63d 5e94 24bd b1f1 ad3d 726b 283c
000002d0: 6add ffba 63b3 223d 289e efbc 64b4 af3d
000002e0: 7520 0ebd d77b 2fbd 2f41 6e3d e969 963d
000002f0: 2b89 cabd 75b2 dd3c 7bfd 4d3d 4665 de3c
00000300: c6fc bc3d 8b35 4b3e 3c65 833c 584f 9c3b
00000310: 590b b2bd 296e e5bd 7b57 2bbd e06c 2cbd
00000320: a2a9 5a3d f28f 95bd 834c 853c 9734 a83b
00000330: c123 c2bd dadb 54bd 2a2c c4bd 24df 0a3e
00000340: 2e76 1d3e 5990 e93c 3339 433d 612e db3d
00000350: 8f97 91bb ac65 d6bc 7ee9 6abc ecd4 203d
00000360: 214e 123c e1a2 e0bd 8523 9b3d 7c8a c33d
00000370: 0202 073e 86ed c23a eaa3 343e bf10 393d
00000380: 8a9d ba3c 16d9 b63d 0f92 c83c 0f4e 9a3a
00000390: 4f55 2dbd 2f99 ca3d 55c8 47bd 1dbf bc3d
000003a0: e788 e93d b83f 233d fb86 7b3d 9aee 993a
000003b0: c38e 4abd 7360 dc3d 0b63 05bd 2886 ba3d
000003c0: 5e2d 67bd 77da 99bd 0e7d 663c 5e40 f03c
000003d0: 2d59 4b3c 918e 9aba e480 18bd 73b3 983c
000003e0: efe4 2a3e de38 3a3e 9fe6 453d 6a03 f9bb
000003f0: decb cfbd 5447 fbb9 b37a 803e 3a19 90bd

t_embed.2.bias f4 [128]
-0.026975457 0.016415214 0.07914976 0.009090597 0.05401575 0.062120467 0.08322397 -0.018903812
-0.06524961 -0.08303255 -0.046780486 0.07754704 -0.029756784 0.055889193 0.043362886 0.09460732
0.0083264345 -0.03355369 -0.0064637954 -0.010217209 -0.092646316 0.078462146 0.05109338 -0.06243578
-0.012021216 -0.01040041 0.006491162 0.06004243 0.079947986 0.08805668 -0.07246517 0.057293084
-0.066108376 0.027854627 0.038010515 0.06619786 0.0059255264 -0.06899383 -0.013194976 0.066817775
0.11913252 -0.13398449 0.065131195 0.094110094 0.072266296 0.06384179 0.044860657 -0.08661055
-0.058312748 0.02235049 0.008233515 0.03097755 -0.010619269 -0.033682443 0.11465464 -0.08543491
-0.08795673 0.083666936 0.046515875 -0.03153815 0.017444052 -0.06944896 0.058411904 0.0842428
0.09569759 -0.056058917 -0.023986137 0.051252216 0.025924822 -0.083155885 0.11362147 -0.037976373
0.06118053 -0.013447182 -0.04259533 -0.0149410525 0.07612603 -0.050210822 -0.032431763 -0.013200322
-0.054380875 -0.03196646 -0.084102444 -0.081783 -0.120286144 0.05579431 0.045842543 0.0015183856
0.03722455 -0.009719481 -0.06579431 -0.005166096 0.02756979 0.038453385 -0.06342855 -0.10725691
-0.025519852 -0.04075326 -0.0082985945 -0.020721471 0.063916214 -0.08759449 -0.03481328 0.04430208
-0.073414914 -0.020607457 0.08440099 -0.027773788 0.01724819 -0.012100266 0.07536819 0.04724549
-0.038324557 -0.017622892 -0.04951756 -0.021192681 -0.03489988 -0.055341773 0.08568775 -0.03464833
0.0843922 0.087989 -0.108330965 0.048253667 -0.06360878 -0.0007718323 -0.05862445 -0.024274547
00000000: a2fb dcbc 3379 863c 4519 a23d baf0 143c
00000010: 9e3f 5d3d 0872 7e3d 5471 aa3d 2bdc 9abc
00000020: 96a1 85bd f80c aabd e59c 3fbd fcd0 9e3d
00000030: 80c4 f3bc 11ec 643d 489d 313d 7cc1 c13d
00000040: 996b 083c 986f 09bd 3fce d3bb 1566 27bc
00000050: 5abd bdbd c3b0 a03d 4b47 513d a9bc 7fbd
00000060: a2f4 44bc 7b66 2abc d0b3 d43b 0def 753d
00000070: c5bb a33d 1057 b43d 9e68 94bd 27ac 6a3d
00000080: d463 87bd 632f e43c eab0 1b3d be92 873d
00000090: eb2a c23b a34c 8dbd be2f 58bc c2d7 883d
000000a0: c0fb f33d 3b33 09be 8163 853d cbbc c03d
000000b0: 5a00 943d 7cbf 823d cfbf 373d df60 b1bd
000000c0: 59d9 6ebd 6018 b73c dde5 063c a2c4 fd3c
000000d0: 71fc 2dbc 9af6 09bd 0dd0 ea3d 80f8 aebd
000000e0: a822 b4bd 9259 ab3d 6e87 3e3d 262e 01bd
000000f0: d4e6 8e3c 423b 8ebd 5241 6f3d 7d87 ac3d
00000100: 19fd c33d 099e 65bd 937e c4bc d8ed 513d
00000110: 4b60 d43c a24d aabd 60b2 e83d 1d8d 1bbd
00000120: 6f98 7a3d 9251 5cbc 7178 2ebd 51cb 74bc
00000130: f7e7 9b3d dda9 4dbd 2bd7 04bd 2a46 58bc
00000140: 7bbe 5ebd 43ef 02bd e73d acbd d87d a7bd
00000150: 9558 f6bd 9388 643d 64c5 3b3d 9104 c73a
00000160: c578 183d 753e 1fbc 2bbf 86bd 5b48 a9bb
00000170: 0ada e13c 4c81 1d3d d4e6 81bd 83a9 dbbd
00000180: 020f d1bc e4ec 26bd d4f6 07bc 13c0 a9bc
00000190: 81e6 823d bd64 b3bd 5f98 0ebd 1976 353d
000001a0: 8f5a 96bd f8d0 a8bc 6dda ac3d db85 e3bc
000001b0: 134c 8d3c 3240 46bc a35a 9a3d 7d84 413d
000001c0: 36fa 1cbd e25d 90bc edd2 4abd 469c adbc
000001d0: 2df3 0ebd 0eae 62bd 0f7d af3d 68eb 0dbd
000001e0: d1d5 ac3d 9433 b43d a0dc ddbd a3a5 453d
000001f0: 5245 82bd ca54 4aba 3120 70bd 6adb c6bc

ms.0.weight f4 [128, 130]
-0.02134479 0.008303213 -0.06509501 -0.0029121162 0.079795934 0.12660441 -0.08858552 0.084541574
-0.09336231 0.066652134 -0.0050116978 0.0037817182 -0.05455536 0.109049045 0.07005873 -0.057798434
0.16726954 0.0646907 -0.07632181 0.092640586 0.113207564 0.10037303 0.010188081 0.07557085
-0.04132841 0.016662361 -0.0069406847 -0.044442724 0.000706477 0.09904853 0.12755622 -0.010644448
0.0020320266 -0.0731903 0.0758409 0.018603744 -0.123113595 0.058153365 0.04620198 0.12638432
-0.017585052 0.031615645 0.13857313 -0.006798341 -0.037426542 -0.047635034 0.03684891 0.17736654
-0.054638192 0.07845319 0.15041848 -0.07201645 0.0024897056 0.09783842 0.07947548 0.11323078
0.11068301 0.028632957 -0.11159946 0.06446245 0.06301188 0.06651619 0.1796536 0.009283698
0.043861292 0.1347759 0.069766656 0.0113378195 -0.08635184 -0.13656895 -0.018195594 0.019733164
-0.025630755 -0.0475768 0.04230351 0.02528929 -0.10171459 0.1295737 -0.1211775 0.04797286
-0.0047681057 -0.089393936 -0.025153385 -0.05423591 -0.14314018 0.08938625 0.082699865 -0.040936206
-0.021568023 -0.042389244 0.11793936 -0.03476714 -0.08182236 -0.118640065 -0.0018551802 -0.04971823
0.08857676 0.0888432 0.0025880586 0.0378953 -0.06823255 -0.047286883 -0.022019986 0.0032234695
0.13003536 0.11546809 0.0348049 0.18074805 -0.02795389 0.025115335 -0.019947303 0.06752173
0.021063654 0.0992528 -0.03341901 0.1430458 0.012524087 -0.0691338 -0.0050014365 0.020357095
-0.042664558 0.047292784 0.103095666 0.054842394 0.007397177 0.026398608 -0.044838045 -0.08635476
-0.025397588 -0.042621102 0.06839813 -0.10661393 -0.01117255 -0.019000003 0.047258407 -0.011095921
0.015016124 0.055638548 0.03295524 0.0763525 -0.05718527 0.057710335 0.021704808 0.074191555
0.112374134 0.028110275 0.06782717 -0.011285113 -0.06030789 0.08308485 0.017882256 0.08018767
0.08282052 -0.02725452 0.011990746 0.027793247 0.02616952 -0.04782296 0.013074586 0.06397172
0.09399954 -0.041782618 -0.024887756 0.0028119774 -0.009679304 0.04672102 -0.10207423 -0.008030631
-0.062563755 0.06865272 -0.08904355 -0.049629707 0.09999369 -0.035940554 0.037074987 5.4931563e-05
-0.035325225 0.05880664 0.015440653 0.011945841 0.15250115 -0.08335767 0.039541107 -0.015474029
0.03791558 0.051733863 0.15243064 0.041930567 -0.0898435 0.037623204 0.04600692 0.16894148
0.11089551 -0.024041459 0.0829576 0.0014901063 0.07008125 0.025687963 -0.06405324 -0.016112668
0.0013839023 -0.028518707 -0.027924376 0.009652869 0.006979088 -0.07080597 -0.15364498 0.14871024
0.021451535 -0.0039279405 -0.056002393 -0.07224152 -0.10778495 -0.022671876 -0.081208296 -0.023509834
-0.0017803118 0.053814456 -0.09440087 0.061767448 0.07744841 -0.00044952496 0.017300587 -0.030370995
0.14185694 0.06757633 0.07835376 -0.04004416 -0.10997655 -0.07089919 -0.08075646 -0.042352904
0.05200911 0.014764318 0.052933283 0.12784183 -0.050069276 0.07342254 -0.023382185 -0.00598078
-0.02622005 0.013025868 0.05959755 0.016341316 -0.06109738 0.025154289 0.038754683 -0.021492809
-0.07900923 0.0890061 0.09000928 0.020833436 0.0564204 -0.015728889 -0.12585905 -0.008255811
00000000: 45db aebc 330a 083c 8850 85bd 34d9 3ebb
00000010: 0d6c a33d 96a4 013e 536c b5bd 2224 ad3d
00000020: bd34 bfbd ea80 883d 2b39 a4bb b4d6 773b
00000030: 7175 5fbd 1b55 df3d f47a 8f3d 0dbe 6cbd
00000040: b548 2b3e 8f7c 843d 9c4e 9cbd 59ba bd3d
00000050: 5ed9 e73d 6090 cd3d e9eb 263c e4c4 9a3d
00000060: fb47 29bd 817f 883c af6e e3bb 9309 36bd
00000070: de32 393a f5d9 ca3d 199e 023e 0d66 2ebc
00000080: c02b 053b cce4 95bd 7952 9b3d e166 983c
00000090: fb22 fcbd 3932 6e3d 4a3e 3d3d e46a 013e
000000a0: 870e 90bc 687f 013d 1de6 0d3e 9ec4 debb
000000b0: 934c 19bd f41c 43bd e2ee 163d 939f 353e
000000c0: 4ccc 5fbd 11ac a03d 4d07 1a3e 5c7d 93bd
000000d0: 542a 233b 825f c83d 0ac4 a23d 8ae5 e73d
000000e0: c6ad e23d aa8f ea3c 428e e4bd e404 843d
000000f0: 5f0c 813d a439 883d 1df7 373e a71a 183c
00000100: e6a7 333d b202 0a3e d2e1 8e3d 43c2 393c
00000110: 3cd9 b0bd bbd8 0bbe ed0e 95bc 72a7 a13c
00000120: 97f7 d1bc e4df 42bd 7246 2d3d 7c2b cf3c
00000130: bd4f d0bd f8ae 043e e92b f8bd 317f 443d
00000140: c53d 9cbb 2b14 b7bd 790e cebc 7926 5ebd
00000150: 5793 12be 2310 b73d 8c5e a93d b9ac 27bd
00000160: 6caf b0bc 58a0 2dbd 318a f13d fd67 0ebd
00000170: 7b92 a7bd 90f9 f2bd 8529 f3ba 58a5 4bbd
00000180: bb67 b53d 6cf3 b53d 6b9c 293b 1a38 1b3d
00000190: 82bd 8bbd e4af 41bd 4263 b4bc d840 533b
000001a0: fd27 053e 897a ec3d 958f 0e3d 0416 393e
000001b0: 8eff e4bc adbe cd3c 8768 a3bc d548 8a3d
000001c0: af8d ac3c 0d45 cb3d 5fe2 08bd 997a 123e
000001d0: d431 4d3c 0696 8dbd 17e3 a3bb ecc3 a63c
000001e0: 08c1 2ebd 14b6 413d d223 d33d 6ba2 603d
000001f0: 0564 f23b e541 d83c 19a8 37bd c4da b0bd
00000200: 9a0e d0bc 7793 2ebd 5214 8c3d 6758 dabd
00000210: 120d 37bc e5a5 9bbc 0892 413d aacb 35bc
00000220: 3006 763c 3fe5 633d 13fc 063d b35e 9c3d
00000230: 1a3b 6abd ac61 6c3d 48ce b13c bef1 973d
00000240: 6924 e63d 8547 e63c f9e8 8a3d 32e5 38bc
00000250: 6805 77bd 6428 aa3d cf7d 923c 6f39 a43d
00000260: ce9d a93d df44 dfbc d574 443c aaae e33c
00000270: 7661 d63c 02e2 43bd ca36 563c 9b03 833d
00000280: d582 c03d 4024 2bbd 68e1 cbbc 2749 383b
00000290: f295 1ebc 8a5e 3f3d 4b0c d1bd e892 03bc
000002a0: 6d21 80bd cc99 8c3d 775c b6bd 8548 4bbd
000002b0: 7ec9 cc3d 6736 13bd f1db 173d 5166 6638
000002c0: 2fb1 10bd 3bdf 703d cbfa 7c3c 7db8 433c
000002d0: 4329 1c3e 6db7 aabd dbf5 213d c886 7dbc
000002e0: 5e4d 1b3d e3e6 533d c716 1c3e 63bf 2b3d
000002f0: deff b7bd ca1a 1a3d c171 3c3d fffe 2c3e
00000300: 2f1d e33d 98f2 c4bc ade5 a93d ac4f c33a
00000310: c286 8f3d 906f d23c 582e 83bd b7fe 83bc
00000320: 0e64 b53a 10a0 e9bc a9c1 e4bc 1127 1e3c
00000330: d5b0 e43b b802 91bd 1c55 1dbe 7f47 183e
00000340: 21bb af3c f4b5 80bb c462 65bd 5df3 93bd
00000350: 5bbe dcbd 5fba b9bc 8950 a6bd b297 c0bc
00000360: 5a59 e9ba 8c6c 5c3d 3e55 c1bd ddff 7c3d
00000370: 469d 9e3d 38ae ebb9 f6b9 8d3c 98cc f8bc
00000380: f242 113e 7565 8a3d f077 a03d 5805 24bd
00000390: 633b e1bd 9833 91bd a563 a5bd 3d7a 2dbd
000003a0: 8107 553d 0ae6 713c 92d0 583d f8e8 023e
000003b0: 7115 4dbd 8f5e 963d ff8b bfbc 6bfa c3bb
000003c0: 6ecb d6bc 736a 553c 901c 743d 39de 853c
000003d0: 3f41 7abd 5e10 ce3c 3bbd 1e3d b011 b0bc
000003e0: 97cf a1bd d548 b63d c956 b83d e2aa aa3c
000003f0: 1419 673d dfd9 80bc 32e1 00be 6243 07bc

ms.0.bias f4 [128]
0.026316645 0.09081007 -0.03735197 -0.112816304 -0.06986763 0.04889646 -0.068617 -0.07991788
-0.093463995 -0.11811507 -0.16533463 0.08240736 0.052067798 0.026847573 -0.008516627 -0.054899737
-0.049914625 0.15626648 -0.09145701 -0.14749809 -0.07005371 0.014763065 -0.015780712 -0.026174884
-0.05821355 -0.05930057 0.020612767 -0.12421174 0.032632556 -0.14167401 0.11447007 0.040277205
-0.092923105 0.07932958 -0.038991537 0.014462328 -0.02748076 -0.04290706 -0.07428221 -0.0486246
-0.00503715 -0.1600563 -0.103348784 0.06935689 -0.13375685 -0.10966113 0.14608175 -0.051873654
-0.006782366 0.006592484 -0.1526911 -0.020916231 0.13282956 0.096902944 -0.116508946 -0.055741202
0.10082837 -0.072180875 0.07517621 -0.08757837 -0.030536957 -0.040681273 -0.023592215 0.09616749
-0.08115737 0.075679526 -0.012000915 -0.13011214 -0.026335308 0.05880993 0.043673817 0.058540415
-0.08157929 0.158505 -0.0108252475 -0.08799534 -0.02389331 -0.1593209 -0.11335088 -0.01505141
-0.00931359 -0.09082794 -0.16160984 -0.07555548 -0.0030395754 0.024087109 -0.061787978 0.17203555
-0.15428624 0.053075273 0.020837478 -0.11009001 -0.030101342 0.06892109 -0.06561007 -0.09738237
0.13410088 0.01836422 0.15354103 -0.04833424 -0.06514051 -0.06082889 0.10040129 0.05931419
-0.050452728 -0.18413703 0.12262918 -0.16340403 -0.11653159 -0.14472768 -0.12725121 -0.010895921
0.1530819 0.031927206 -0.09994048 -0.031810142 0.14255339 -0.12655592 0.057588525 0.06248015
0.07143082 -0.0963047 -0.040475383 -0.09803361 0.0045869118 -0.115939565 0.008628662 -0.12396532
00000000: 0196 d73c a1fa b93d 61fe 18bd 3c0c e7bd
00000010: c316 8fbd a847 483d 1287 8cbd fcab a3bd
00000020: 0d6a bfbd 50e6 f1bd 7b4d 29be 31c5 a83d
00000030: 0b45 553d 71ef db3c 5389 0bbc 8cde 60bd
00000040: 4773 4cbd 5204 203e d04d bbbd bd09 17be
00000050: 5278 8fbd c8e0 713c 8d46 81bc b66c d6bc
00000060: 5571 6ebd 28e5 72bd 1bdc a83c ba62 febd
00000070: b7a9 053d fe12 11be 496f ea3d b6f9 243d
00000080: 784e bebd 8c77 a23d 97b5 1fbd 66f3 6c3c
00000090: 551f e1bc 50bf 2fbd 4521 98bd 972a 47bd
000000a0: ad0e a5bb cce5 23be 87a8 d3bd fc0a 8e3d
000000b0: 8ef7 08be 0496 e0bd 7496 153e 7879 54bd
000000c0: 9c3e debb c405 d83b 0e5b 1cbe 8458 abbc
000000d0: 7904 083e 0d75 c63d 3e9c eebd e350 64bd
000000e0: 1b7f ce3d 91d3 93bd fcf5 993d 4a5c b3bd
000000f0: a428 fabc 68a1 26bd 7644 c1bc 76f3 c43d
00000100: d635 a6bd defd 9a3d 7c9f 44bc 1e3c 05be
00000110: 25bd d7bc aee2 703d 51e3 323d 13c8 6f3d
00000120: 0b13 a7bd 224f 223e 615c 31bc e736 b4bd
00000130: e7bb c3bc 0525 23be 8224 e8bd 309a 76bc
00000140: 0798 18bc 0004 babd 0d7d 25be d5bc 9abd
00000150: 9d33 47bb 5452 c53c 6415 7dbd 162a 303e
00000160: 36fd 1dbe 7565 593d 5cb3 aa3c df76 e1bd
00000170: 1797 f6bc 8026 8d3d 935e 86bd 6870 c7bd
00000180: be51 093e 9070 963c dc39 1d3e 20fa 45bd
00000190: 6368 85bd b727 79bd 319f cd3d 70f3 723d
000001a0: 85a7 4ebd 6b8e 3cbe 0225 fb3d 6353 27be
000001b0: 1da8 eebd 7e33 14be 244e 02be ce84 32bc
000001c0: 80c1 1c3e 1ac6 023d 98ad ccbd 5a4b 02bd
000001d0: 84f9 113e e097 01be f2e1 6b3d 30eb 7f3d
000001e0: 524a 923d 663b c5bd 84c9 25bd d8c5 c8bd
000001f0: ce4d 963b b971 edbd 3b5f 0d3c 88e1 fdbd

ms.2.weight f4 [128, 128]
0.018962504 -0.14068937 0.07441476 0.1371485 0.27123466 -0.038758744 -0.008828893 0.39163837
0.3024181 0.15689518 0.34073183 0.10962851 -0.033427037 0.028562477 0.12347748 0.087167315
-0.015145651 -0.06608337 0.31195575 0.30281174 0.0086909365 0.048256833 0.033306476 0.11486641
0.17793858 0.003387469 0.06466272 -0.032374676 -0.17206693 0.05204217 0.0024817863 0.039991397
-0.117528774 0.041703325 0.08344921 0.007025903 0.0566759 0.09371557 -0.3035543 0.006408522
0.04746412 0.35864127 0.03259838 -0.01958825 0.3521801 0.03846231 -0.08547073 -0.060763665
-0.03032051 -0.011018745 0.22925396 0.16648437 -0.059618 0.0529331 0.16487879 0.005076161
-0.26063007 0.15266907 -0.12985495 0.02255387 0.003723083 0.057276975 -0.12299506 -0.25794357
-0.028354883 -0.060603466 -0.05845707 0.15945731 -0.28067815 0.12725677 -0.09902753 -0.18209584
0.05558367 -0.053728603 0.13371837 0.14543971 -0.032744955 0.10780044 0.16331734 0.012283643
0.06003228 -0.09613538 -0.017503932 0.33230126 0.12978262 0.14764424 -0.054371357 0.005010711
-0.03273859 -0.13251491 0.1582308 0.35080537 -0.037165713 -0.019197501 0.1594006 0.051367372
-0.23439738 0.051477622 -0.29504094 0.043469317 0.14103635 0.35903588 -0.0071070613 -0.053164523
0.18966268 0.15038142 -0.02499252 0.24947165 0.05499648 -0.0038736803 0.017373947 -0.12106408
-0.24834916 0.13811135 0.23716487 0.02908446 0.07662736 0.45082206 0.1717187 0.042448584
-0.031862553 0.27229246 0.09400779 0.03249826 0.12898888 0.22916096 -0.21112819 -0.0049186903
-0.017265826 -0.06690822 0.041884106 0.024430215 -0.06946937 -0.0012997503 0.09158058 0.07412084
-0.046793167 -0.16472965 -0.023284225 0.05495869 0.0068744803 -0.046359725 0.045868594 0.027209818
0.01322191 -0.097310916 0.098490976 0.018148284 0.024136871 0.014499897 0.061502833 0.060505338
0.03409414 0.062418032 0.0213762 -0.021738878 -0.04186638 0.07628181 -0.08750585 -0.00084029604
0.032277316 -0.016201278 0.011659688 -0.027404375 -0.065655 -0.070632316 -0.0499394 0.037679024
0.11153544 0.04656731 -0.054644942 0.0010277777 -0.005137098 0.05929139 0.0712854 0.044809252
0.05755177 0.010692341 0.05699803 -0.1038865 0.080335476 0.08045065 -0.047114495 0.021550465
-0.13699757 0.00022849739 0.10763868 -0.06318206 -0.027221706 0.015448606 -0.09369227 -0.040583137
0.05086629 0.0078628035 0.074930675 0.010969434 0.08369707 0.068327785 -0.11958313 -0.09218871
0.03526684 -0.003245876 -0.073309444 -0.051513944 -0.03305548 0.07815503 -0.039897405 0.02208919
-0.122554764 -0.052711703 -0.02378962 -0.0078058173 -0.03169559 -0.08167947 -0.08075305 0.022857282
-0.078612134 -0.0060449224 0.0067985537 0.063207746 -0.00992596 -0.027377944 0.00084083364 -0.09275515
-0.12092469 -0.024105882 -0.07423161 -0.05035413 0.04262439 0.0011638439 0.09668888 -0.058989737
0.019505613 0.06913007 0.078203805 0.0010134965 0.0760373 -0.06747434 0.055644125 0.04021823
-0.1284039 0.010903931 -0.03406392 -0.09848222 -0.02015952 0.10730124 -0.009659138 0.031995468
0.0075191334 -0.05000766 0.025114615 -0.05862303 -0.052745275 -0.03453184 -0.03312997 -0.087033406
00000000: 4157 9b3c e010 10be c466 983d a870 0c3e
00000010: 45df 8a3e 7dc1 1ebd 10a7 10bc d384 c83e
00000020: 8cd6 9a3e 21a9 203e 6774 ae3e ea84 e03d
00000030: caea 08bd dbfb e93c c3e1 fc3d c784 b23d
00000040: 7725 78bc b856 87bd aab8 9f3e 240a 9b3e
00000050: 6e64 0e3c f5a8 453d 5f6c 083d 153f eb3d
00000060: 8835 363e 4d00 5e3b e36d 843d 4f9b 04bd
00000070: 5032 30be 2c2a 553d 77a5 223b 05ce 233d
00000080: edb2 f0bd 1bd1 2a3d 6be7 aa3d 8c39 e63b
00000090: fd24 683d f3ed bf3d 786b 9bbe 94fe d13b
000000a0: bd69 423d d49f b73e e185 053d 8a77 a0bc
000000b0: f350 b43e a88a 1d3d 470b afbd 52e3 78bd
000000c0: b862 f8bc f787 34bc 8dc1 6a3e e17a 2a3e
000000d0: 0132 74bd 61d0 583d fcd5 283e ed55 a63b
000000e0: 4e71 85be 4855 1c3e b2f8 04be e5c2 b83c
000000f0: f8fe 733b 439b 6a3d d6e4 fbbd 2e11 84be
00000100: 8048 e8bc 573b 78bd ae70 6fbd c748 233e
00000110: 0cb5 8fbe 994f 023e f2ce cabd 5577 3abe
00000120: b4ab 633d 8612 5cbd 78ed 083e 26ee 143e
00000130: 931f 06bd 7ac6 dc3d a93c 273e 5541 493c
00000140: 68e4 753d a0e2 c4bd 6864 8fbc 6423 aa3e
00000150: bce5 043e 0d30 173e 80b4 5ebd e430 a43b
00000160: e618 06bd fdb1 07be 4107 223e c39c b33e
00000170: 133b 18bd 1444 9dbc e939 233e 9866 523d
00000180: de05 70be 33da 523d 9b0f 97be e20c 323d
00000190: d56b 103e 8dd3 b73e 5ae2 e8bb 0bc3 59bd
000001a0: ef36 423e 96fd 193e 1dbd ccbc 7f75 7f3e
000001b0: fd43 613d 92dd 7dbb cf53 8e3c 72f0 f7bd
000001c0: 3e4f 7ebe 106d 0d3e 59db 723e 8942 ee3c
000001d0: ceee 9c3d 26d2 e63e 07d7 2f3e 91de 2d3d
000001e0: 4f82 02bd eb69 8b3e 2887 c03d e51c 053d
000001f0: a915 043e 2ca9 6a3e fd31 58be f72c a1bb
00000200: 1071 8dbc 2d07 89bd ab8e 2b3d e021 c83c
00000210: f545 8ebd 625c aaba 998e bb3d abcc 973d
00000220: 31aa 3fbd e4ae 28be 8fbe bebc 5d1c 613d
00000230: 5243 e13b b2e3 3dbd b5e0 3b3d 20e7 de3c
00000240: b6a0 583c f24a c7bd a3b5 c93d b6ab 943c
00000250: b0ba c53c fa90 6d3c 65ea 7b3d 72d4 773d
00000260: 4ca6 0b3d 0daa 7f3d 241d af3c bb15 b2bc
00000270: 157c 2bbd a339 9c3d 4436 b3bd 5047 5cba
00000280: 3835 043d 8bb8 84bc 4708 3f3c 247f e0bc
00000290: 2176 86bd ada7 90bd 428d 4cbd 5255 1a3d
000002a0: b16c e43d 5dbd 3e3d 60d3 5fbd 7fb6 863a
000002b0: 1a55 a8bb 87db 723d 14fe 913d e889 373d
000002c0: 68bb 6b3d ee2e 2f3c c476 693d 72c2 d4bd
000002d0: ed86 a43d 4fc3 a43d 21fb 40bd 9a8a b03c
000002e0: 1749 0cbe cd98 6f39 ab71 dc3d 9965 81bd
000002f0: 0e00 dfbc 261c 7d3c bce1 bfbd 813a 26bd
00000300: 2c59 503d fdd2 003c 4175 993d 24b9 333c
00000310: 5f69 ab3d 70ef 8b3d 00e8 f4bd 6fcd bcbd
00000320: f673 103d c3b8 54bb 4323 96bd 4900 53bd
00000330: 2f65 07bd bf0f a03d 766b 23bd 64f4 b43c
00000340: fefd fabd 3ae8 57bd 73e2 c2bc f1c7 ffbb
00000350: 3cd3 01bd 9147 a7bd db61 a5bd 323f bb3c
00000360: 66ff a0bd 7c14 c6bb 67c6 de3b 1073 813d
00000370: 7ea0 22bc b647 e0bc 646b 5c3a 69f6 bdbd
00000380: 5da7 f7bd b379 c5bc be06 98bd 2240 4ebd
00000390: ea96 2e3d 1f8c 983a d204 c63d 399f 71bd
000003a0: 3cca 9f3c 1194 8d3d 5129 a03d 4dd7 843a
000003b0: 72b9 9b3d fd2f 8abd 18eb 633d dfbb 243d
000003c0: 507c 03be 67a6 323c 9c86 0bbd 0cb1 c9bd
000003d0: 9425 a5bc c1c0 db3d 5c41 1ebc ae0d 033d
000003e0: 1063 f63b d5d4 4cbd 2abd cd3c b41e 70bd
000003f0: 6e0b 58bd 4271 0dbd 4bb3 07bd 923e b2bd

ms.2.bias f4 [128]
0.044098396 -0.06695003 0.019057093 0.036819384 -0.014818682 -0.06441621 0.07182638 0.02342026
-0.029822245 -0.077075206 -0.07207212 -0.03825416 -0.02307954 -0.08112534 -0.039043564 0.0040298183
-0.023715183 -0.15176933 -0.04776468 0.034862798 0.019243022 -0.015814796 -0.021998787 -0.054231636
0.027627682 -0.011329558 -0.05647902 0.0014045845 -0.0018359846 -0.097253956 -0.030033559 -0.016501974
0.048323456 -0.06473121 0.017734371 -0.012678292 -0.058663912 0.006315822 -0.08344563 -0.11103019
-0.0056611015 -0.042214487 0.046392817 -0.09205744 -0.018845417 -0.034399007 -0.032630812 -0.060258273
-0.13561335 0.023088463 -0.03704614 0.065158956 0.0077410364 -0.11982785 0.063348584 -0.0006206727
0.0403554 -0.058572993 -0.0280839 0.06453426 -0.06435064 -0.15069729 -0.02623257 -0.09164201
0.041703522 -0.0043707304 -0.018398413 0.02380327 -0.040887956 0.0183339 -0.04415693 0.07909838
0.026270729 -0.05992256 0.04749271 0.03435095 -0.03562877 -0.17451932 -0.01845873 0.03929674
-0.046234608 0.0052515026 -0.1083533 0.019111697 0.029139783 -0.031827707 0.0112190535 -0.040939517
-0.07598377 -0.023325933 0.016659629 0.012806008 -0.06081832 -0.010129057 -0.048860468 0.06981334
0.031333767 -0.06877268 -0.034404457 -0.0046872743 -0.06778267 -0.0513562 0.07380534 -0.10031108
-0.08072177 -0.031302463 -0.09428291 -0.0058491128 -0.073623925 0.015225799 -0.06068663 0.01690603
-0.018543197 -0.085031524 -0.046710394 0.036378164 -0.035212554 -0.022700556 -0.005481948 0.061309613
0.016479129 -0.026618442 0.029820703 -0.00022011748 0.0704767 0.03310212 -0.074683785 -0.01974069
00000000: 85a0 343d 191d 89bd 9f1d 9c3c eccf 163d
00000010: 0fca 72bc a5ec 83bd b619 933d d8db bf3c
00000020: c84d f4bc 9bd9 9dbd 8c9a 93bd 65b0 1cbd
00000030: 4e11 bdbc 0b25 a6bd 25ec 1fbd 910c 843b
00000040: 5846 c2bc 6b69 1bbe e6a4 43bd 4bcc 0e3d
00000050: 8ba3 9d3c 088e 81bc cd36 b4bc fe21 5ebd
00000060: 7353 e23c 9c9f 39bc 8b56 67bd 091a b83a
00000070: 6ca5 f0ba 152d c7bd f008 f6bc 262f 87bc
00000080: d1ee 453d cc91 84bd ac47 913c 9cb8 4fbc
00000090: 9249 70bd f4f4 ce3b 8be5 aabd cc63 e3bd
000000a0: c380 b9bb 19e9 2cbd 6506 3e3d 9c88 bcbd
000000b0: b461 9abc f9e5 0cbd e3a7 05bd 61d1 76bd
000000c0: 3ade 0abe 0424 bd3c b1bd 17bd 0f72 853d
000000d0: 85a8 fd3b 4e68 f5bd e7bc 813d a4b4 22ba
000000e0: b44b 253d 3cea 6fbd 3510 e6bc 8a2a 843d
000000f0: 45ca 83bd 6450 1abe b0e5 d6bc ceae bbbd
00000100: 50d1 2a3d 5838 8fbb 45b8 96bc 13ff c23c
00000110: 217a 27bd fa30 963c e6dd 34bd 55fe a13d
00000120: b635 d73c 5c71 75bd b787 423d 95b3 0c3d
00000130: 79ef 11bd 31b5 32be c336 97bc 9ef5 203d
00000140: 8060 3dbd cc14 ac3b 56e8 ddbd 2290 9c3c
00000150: 8eb6 ee3c c55d 02bd 1fd0 373c 32b0 27bd
00000160: 619d 9bbd 0716 bfbc c679 883c 4ad0 513c
00000170: a11c 79bd 58f4 25bc ea21 48bd 4cfa 8e3d
00000180: d657 003d b1d8 8cbd b0eb 0cbd b597 99bb
00000190: a4d1 8abd e15a 52bd 4127 973d e56f cdbd
000001a0: 7551 a5bd 0337 00bd 6617 c1bd eaa9 bfbb
000001b0: 24c8 96bd a175 793c 8b92 78bd 847e 8a3c
000001c0: e7e7 97bc 0225 aebd 6653 3fbd 4501 153d
000001d0: 0a3b 10bd 84f6 b9bc eaa1 b3bb ca1f 7b3d
000001e0: 3dff 863c eb0e dabc 8c4a f43c 56cf 66b9
000001f0: 1756 903d 1796 073d d0f3 98bd 3ab7 a1bc

ms.4.weight f4 [2, 128]
0.24007626 -0.047289234 -0.046316292 0.00050005806 0.121993884 0.479628 0.0032784855 0.0026802095
-2.7259724e-05 -0.11317818 0.15030234 0.01020104 -0.033080928 -0.09256574 -0.0045525073 -0.0035335973
0.0097588245 -0.34113118 0.008815184 0.108389474 -0.00019658996 0.0897308 -8.906133e-05 0.020716501
0.002449522 -3.0688847e-05 -0.0052092513 0.00040796696 -0.0018281273 0.088450775 0.09548508 -0.041263375
0.0017519153 0.00028967124 -0.000107312895 0.000704755 0.0026091821 0.0024381618 0.12029461 -0.12405189
-0.0013067338 0.0003382003 0.0024330283 -0.15963994 -7.60982e-05 0.002086862 3.0942996e-05 -0.001963788
-0.17656994 -0.0014238188 -0.0021149917 0.06224368 -0.0056190216 0.054234553 0.0018032168 -0.037666455
0.013076265 -0.17324705 0.14137518 0.011287986 -0.0691387 -0.041484002 -0.0018335863 -0.1877216
-0.0026243438 0.05777956 0.00021789086 0.0025303797 -0.0019300121 -0.0064629037 -0.010245179 0.01643031
0.03018198 -0.104812644 0.17932975 0.06465832 0.012150959 0.04564437 0.2644681 -0.002720136
0.0017623428 0.005416443 0.23554231 -0.00025163885 -0.002632486 0.00038569298 -0.0011259681 0.0021897065
-0.22561844 -0.00076329766 0.033489343 -0.0002183573 -0.0029253664 0.004492152 -0.00224359 0.16632639
-0.0005285359 0.00034945406 0.0014362062 0.0020574941 -0.06268378 0.0037168376 -0.024189275 -0.03133437
-0.037945148 0.0017133418 -0.1426597 -0.0026689963 -0.10345997 0.0013136048 0.00048713843 0.0014697056
-0.030457102 -0.00050525094 0.009230862 -0.07081638 -0.002456571 -0.0050013633 0.00013536171 0.0046963063
-0.0028502091 -0.060489826 -0.0024430684 0.19415943 0.010445147 0.01145408 -0.0053586923 0.0029868062
-0.15323912 0.059450127 -0.056136068 -0.00048618414 -0.05466278 0.05307162 -0.00048370266 0.0024546683
-0.0019480744 -0.028305044 -0.06175766 -0.09873309 -0.020942612 0.16748625 0.0007665407 -0.0018923145
0.006112659 -0.34873065 0.0009810108 -0.20571901 0.02558936 -0.41676596 -0.0019167683 0.1670522
-0.001733558 0.002280612 0.001976598 0.0034084392 0.0012480371 0.25843772 0.08452917 -0.0025423518
-0.0011739201 0.004225802 0.002679535 0.0012848855 -0.0004070385 -0.0021653883 0.13136256 0.080749325
0.0015340131 -0.0016609057 -0.0005327301 0.06656021 0.0012154365 0.0067369654 -0.0010480827 0.020382555
0.10008028 -0.0014690843 -0.00013844128 -0.05041081 0.0024017151 0.09438155 0.0009705583 0.3843965
0.02143993 0.16188696 -0.07189235 0.0047083558 0.0031273342 0.121293366 -4.4574976e-05 0.09275551
-0.0008744764 0.0778195 -6.4069172e-06 -0.00060782494 0.0003410182 -0.0009873448 0.0759986 0.00038583908
0.018102167 0.111251265 0.034903873 -0.12367895 0.00016694044 -0.2942694 0.063391216 0.0009941966
-0.0025664591 0.003156368 0.08266862 0.0015461072 0.0014883608 -0.0016431212 -0.000874334 0.00022197394
0.16165273 -0.0006389888 -0.015451526 -0.00087904173 0.0037697805 -0.005205614 -0.0011310959 -0.012173117
-0.0011663729 0.0015918812 -0.0012887284 -0.0019518279 -0.009379695 -2.3575252e-05 -0.013123742 0.03326567
0.06724719 -0.000651407 -0.115851894 -0.0032433833 -0.31756422 0.0011783831 0.0028994763 0.0023106285
0.03301724 9.701817e-05 0.0065036397 -0.050995838 0.00082525704 -0.29653132 -0.0013838058 0.0036801426
-0.0016231113 -0.030674951 0.00011740418 0.112805545 0.0024844303 0.0012888486 0.008006773 -0.0016675668
00000000: 8dd6 753e 5bb2 41bd 27b6 3dbd 5416 033a
00000010: eed7 f93d cd91 f53e dcdb 563b 74a6 2f3b
00000020: d0ab e4b7 f6c9 e7bd dbe8 193e 4322 273c
00000030: de7f 07bd 1b93 bdbd 332d 95bb ed93 67bb
00000040: 7ae3 1f3c bfa8 aebe 906d 103c 4dfb dd3d
00000050: b723 4eb9 c8c4 b73d 70c6 bab8 a7b5 a93c
00000060: 2988 203b e6b7 00b8 5eb2 aabb 66e4 d539
00000070: c69d efba ae25 b53d ae8d c33d c903 29bd
00000080: 86a0 e53a 04df 9739 2c0d e1b8 4fbf 383a
00000090: d0fe 2a3b 91c9 1f3b 055d f63d eb0e febd
000000a0: b646 abba 7a50 b139 7173 1f3b a778 23be
000000b0: e996 9fb8 bcc3 083b cac8 0138 e5b2 00bb
000000c0: c0ce 34be 6e9f baba ac9b 0abb 3bf3 7e3d
000000d0: c51f b8bb 0d25 5e3d ea59 ec3a 2448 1abd
000000e0: d53d 563c ad67 31be a8c4 103e 3ff1 383c
000000f0: 9798 8dbd 21eb 29bd f254 f0ba 173a 40be
00000100: 2ffd 2bbb 43aa 6c3d a279 6439 bad4 253b
00000110: 76f8 fcba c4c6 d3bb 65db 27bc dc98 863c
00000120: 3340 f73c 03a8 d6bd 38a2 373e 956b 843d
00000130: d114 473c 97f5 3a3d 5d68 873e 4f44 32bb
00000140: 69fe e63a 6b7c b13b 0132 713e 65ee 83b9
00000150: c985 2cbb d636 ca39 3895 93ba 2e81 0f3b
00000160: 8508 67be 0a18 48ba 1f2c 093d d7f6 64b9
00000170: 81b7 3fbb e732 933b 3209 13bb 7751 2a3e
00000180: 728d 0aba ee36 b739 153f bc3a 06d7 063b
00000190: 5b60 80bd 3096 733b 9628 c6bc 7858 00bd
000001a0: 5f6c 1bbd 3692 e03a 6215 12be 54ea 2ebb
000001b0: d2e2 d3bd 432d ac3a 9d66 ff39 23a3 c03a
000001c0: 2c81 f9bc d172 04ba 0b3d 173c 2e08 91bd
000001d0: 6cfe 20bb 7ae2 a3bb e2ef 0d39 79e3 993b
000001e0: 93ca 3abb 2ec4 77bd e31b 20bb bbd1 463e
000001f0: 1f22 2b3c e5a9 3b3c f897 afbb 4bbe 433b
00000200: b7ea 1cbe fa81 733d efee 65bd 88e6 feb9
00000210: 14e6 5fbd a161 593d 7999 fdb9 80de 203b
00000220: 8856 ffba fbdf e7bc 9af5 7cbd 9334 cabd
00000230: d78f abbc 8481 2b3e adf1 483a 8a07 f8ba
00000240: b34c c83b d38c b2be 4395 803a 01a8 52be
00000250: c7a0 d13c 5962 d5be 123c fbba bb0f 2b3e
00000260: 8e38 e3ba 5276 153b d089 013b 1f60 5f3b
00000270: 2d95 a33a f351 843e a11d ad3d 969d 26bb
00000280: 39de 99ba 9978 8a3b 239b 2f3b 9a69 a83a
00000290: c867 d5b9 30e9 0dbb e883 063e e75f a53d
000002a0: f010 c93a bfb2 d9ba e9a6 0bba b850 883d
000002b0: 484f 9f3a c3c1 dc3b d25f 89ba 51f9 a63c
000002c0: e4f6 cc3d 4a8e c0ba 8c2a 11b9 917b 4ebd
000002d0: 1866 1d3b 1d4b c13d 116d 7e3a 9ecf c43e
000002e0: cba2 af3c b2c5 253e 4c3c 93bd 8d48 9a3b
000002f0: f6f3 4c3b a868 f83d 04f6 3ab8 9af6 bd3d
00000300: 1e3d 65ba d45f 9f3d 00fb d6b6 7156 1fba
00000310: b0ca b239 cb69 81ba 27a5 9b3d 724a ca39
00000320: ff4a 943c b4d7 e33d 5df7 0e3d 644b fdbd
00000330: bc0c 2f39 7baa 96be 41d3 813d b44f 823a
00000340: 0a32 28bb 11db 4e3b 2a4e a93d c0a6 ca3a
00000350: 1a15 c33a 005e d7ba 9033 65ba adc1 6839
00000360: 4b88 253e d081 27ba 6628 7dbc 7e6f 66ba
00000370: 6c0e 773b db93 aabb 4841 94ba c171 47bc
00000380: fbe0 98ba aba6 d03a 8dea a8ba 7ad4 ffba
00000390: 4bad 19bc 78c3 c5b7 f704 57bc 9541 083d
000003a0: e5b8 893d 2fc3 2aba c243 edbd f18e 54bb
000003b0: c797 a2be fa73 9a3a 2405 3e3b ea6d 173b
000003c0: 163d 073d 3c76 cb38 7c1c d53b 03e1 50bd
000003d0: 1056 583a f4d2 97be d160 b5ba 8c2e 713b
000003e0: 94be d4ba 094a fbbc e436 f638 9806 e73d
000003f0: d3d1 223b 95ee a83a d72e 033c 4292 daba

ms.4.bias f4 [2]
-0.04334777 0.016435098
00000000: 6e8d 31bd e6a2 863c

exp_avg f4 [128, 1]
4.340621e-05 0.00029651853 3.1650115e-06 -0.0004951505 0.00015810627 0.0002458007 0.00086903776 -0.0007491794
-4.34008e-05 3.1448908e-05 8.343629e-05 0.00061825215 0.00018474771 0.00026860595 -0.00042469084 -4.0949915e-05
0.00012653784 0.00034575918 -5.534935e-05 0.00018755617 9.973106e-05 1.2877023e-05 -0.00045119607 -0.0003467337
0.00011767291 2.6821135e-05 7.610336e-05 -6.0169496e-05 -6.548836e-05 1.36606395e-05 4.0690516e-05 -0.00013504367
-0.00014669294 -0.0007201528 0.00011946664 0.000629209 0.00010075548 0.0001979125 -6.0106402e-05 0.00010546182
-0.00018637764 -0.00077535055 0.00014268502 2.8787432e-05 0.0001625258 -7.157869e-06 -0.00044787696 0.0002194221
0.00031152254 0.0005249282 0.00094351853 6.0314018e-05 -4.6044315e-05 6.530163e-05 0.00020571915 0.0002883558
8.859954e-05 5.0563704e-05 0.00025959528 0.000115245944 -7.121416e-05 0.00019258588 0.00020014263 5.3185424e-05
6.321403e-05 7.130433e-05 -0.00029865056 0.0002089173 -8.3665e-05 -1.909284e-07 3.214083e-05 0.00010248786
-0.0003132133 -3.7839913e-05 0.0002554035 -2.363361e-05 4.014586e-05 -0.00019590741 -4.9700644e-05 0.00012462283
0.00011706908 0.00010197302 5.604964e-05 7.4687356e-05 -2.382706e-05 0.00010712005 0.00013612166 -4.372136e-05
9.444423e-05 -0.00013450903 9.73477e-05 0.0006910893 0.000674939 0.00020000375 0.00018790961 0.00064331514
0.00013268838 0.00010394943 9.673821e-05 0.00019545035 0.000117598094 0.0006794742 -1.127662e-06 0.00011096515
0.00016621157 0.00014031351 7.993545e-05 0.00014283699 -3.0633644e-05 5.0120485e-05 5.6385525e-05 0.00024383844
-0.00013411508 0.00025255792 -0.00013713553 0.00030329375 -3.979207e-05 0.0001362348 0.00019133269 0.0002100026
0.00013570269 8.556912e-05 -1.7579387e-05 -4.713373e-05 -0.00017011465 0.00028354675 0.00012845594 -0.00016634003
00000000: 100f 3638 0b76 9b39 7c66 5436 fdcc 01ba
00000010: 54c9 2539 d0de 8039 23d0 633a 9464 44ba
00000020: 4109 36b8 02e8 0338 84fa ae38 3312 223a
00000030: d6b8 4139 aed3 8c39 0aa9 deb9 a3c1 2bb8
00000040: 3eaf 0439 0347 b539 e926 68b8 baaa 4439
00000050: b526 d138 650a 5837 838e ecb9 cfc9 b5b9
00000060: 2ac7 f638 f3fd e037 ae99 9f38 815e 7cb8
00000070: cc56 89b8 0030 6537 1cab 2a38 829a 0db9
00000080: 96d1 19b9 a3c8 3cba 2a8a fa38 80f1 243a
00000090: b04c d338 bb86 4f39 c21a 7cb8 622b dd38
000000a0: 5e6e 43b9 e540 4bba b89d 1539 8a7c f137
000000b0: b06b 2a39 a02d f0b6 07d1 eab9 ac14 6639
000000c0: d953 a339 569b 093a 7556 773a aff9 7c38
000000d0: b51f 41b8 8cf2 8838 50b6 5739 762e 9739
000000e0: 84ce b938 5d14 5438 4a1a 8839 32b0 f138
000000f0: d058 95b8 e1f0 4939 61dd 5139 6a13 5f38
00000100: c691 8438 3889 9538 3394 9cb9 d010 5b39
00000110: 4e75 afb8 0002 4db4 f4ce 0638 c0ee d638
00000120: c736 a4b9 4cb6 1eb8 ade7 8539 cb40 c6b7
00000130: 4a62 2838 7f6c 4db9 a975 50b8 30ad 0239
00000140: fc82 f538 59da d538 d816 6b38 78a1 9c38
00000150: 39e0 c7b7 a4a5 e038 e1bb 0e39 7461 37b8
00000160: 5c10 c638 fe0a 0db9 2627 cc38 382a 353a
00000170: 64ee 303a 19b8 5139 9a09 4539 26a4 283a
00000180: 4422 0b39 6dff d938 eedf ca38 cef1 4c39
00000190: ff9e f638 be1e 323a 2c5a 97b5 f6b5 e838
000001a0: 1449 2e39 1f21 1339 05a3 a738 83c6 1539
000001b0: a07c 00b8 7638 5238 7f7f 6c38 e2ae 7f39
000001c0: 3ea1 0cb9 c069 8439 0acc 0fb9 6603 9f39
000001d0: 69e6 26b8 40da 0e39 7aa0 4839 2534 5c39
000001e0: 6a4b 0e39 9273 b338 7277 93b7 75b1 45b8
000001f0: ce60 32b9 00a9 9439 21b2 0639 906b 2eb9

exp_avg_sq f4 [128, 1]
3.2947364e-06 1.3039211e-06 6.8391316e-08 6.8660115e-06 4.4319218e-06 1.189111e-06 1.2152166e-05 1.4258807e-05
3.031878e-08 5.3797476e-07 2.0960317e-06 1.28811325e-05 7.53132e-07 1.2668772e-06 4.6829696e-06 5.682045e-09
1.9039778e-07 2.7547774e-06 6.4329834e-07 5.6008656e-07 8.305378e-08 2.0129209e-08 5.687635e-06 4.06222e-06
1.6574757e-07 3.658565e-08 1.7136432e-07 3.356309e-07 4.0907992e-07 2.684601e-06 4.077676e-07 6.8890853e-07
8.092735e-07 1.2425638e-05 1.1360841e-05 1.0015456e-05 2.1685527e-07 3.1262195e-07 1.0511355e-07 2.1776572e-07
1.2239645e-06 1.702955e-05 2.8675814e-07 4.134004e-06 6.1222744e-07 9.17435e-08 6.700891e-06 1.2744779e-05
3.0806177e-06 5.381009e-06 2.312816e-05 1.1118595e-07 3.2688416e-07 6.241596e-07 6.8974634e-07 1.4625739e-06
4.2757024e-06 2.1770579e-07 1.7401369e-06 2.3077234e-07 1.0084112e-07 2.7512424e-06 1.3509782e-05 2.0831772e-07
8.7472905e-08 1.4059527e-06 2.6828286e-06 6.2224063e-07 1.7196032e-06 3.6418576e-06 5.4391903e-06 7.452172e-08
3.4018522e-06 1.7747855e-07 2.0513717e-06 5.6229967e-09 6.86051e-06 2.1636947e-06 7.2638954e-08 3.6509934e-07
1.0153325e-06 6.68325e-07 3.463114e-07 2.2659466e-07 7.567049e-08 5.4246e-06 3.307774e-07 6.356807e-07
2.871074e-07 1.680907e-07 1.0235593e-06 8.620974e-06 1.10356805e-05 2.9194796e-06 6.49542e-07 8.833818e-06
2.3339494e-07 3.5620596e-07 5.185634e-07 7.849941e-07 8.736638e-08 7.867335e-06 1.9128956e-09 2.922096e-07
4.0920875e-07 7.3556674e-07 1.4036291e-07 4.540294e-06 6.605693e-08 6.150224e-07 1.7574962e-06 6.1205765e-07
9.654487e-07 2.4233957e-06 4.1852238e-07 2.5091936e-06 2.3135137e-06 5.234191e-07 5.395287e-07 9.183103e-07
6.0880814e-07 1.1885411e-06 8.4969216e-08 1.7140243e-07 1.4649788e-06 1.2527607e-06 3.1966647e-06 1.3018314e-06
00000000: 241b 5d36 6302 af35 86de 9233 9762 e636
00000010: ebb5 9436 8b99 9f35 28e1 4b37 1c39 6f37
00000020: da37 0233 5869 1035 8da9 0c36 0b1c 5837
00000030: d62a 4a35 9209 aa35 6722 9d36 cc3b c331
00000040: 2570 4c34 b7de 3836 20af 2c35 db58 1635
00000050: 4c5b b233 99e8 ac32 6ad8 be36 344e 8836
00000060: 58f8 3134 5922 1d33 4400 3834 c230 b434
00000070: 849f db34 1829 3436 27eb da34 6fed 3835
00000080: da3c 5935 b577 5037 719a 3e37 0e08 2837
00000090: b9d8 6834 6fd6 a734 c9ba e133 fcd2 6934
000000a0: 1a47 a435 aeda 8e37 bdf3 9934 d3b6 8a36
000000b0: f357 2435 8604 c533 37d8 e036 69d2 5537
000000c0: 9cbc 4e36 848e b436 5803 c237 1fc5 ee33
000000d0: 9e7e af34 ec8b 2735 0227 3935 a84d c435
000000e0: 0178 8f36 83c2 6934 a68e e935 38ca 7734
000000f0: fe8d d833 fca1 3836 12a8 6237 f0ad 5f34
00000100: bdd8 bb33 2bb4 bc35 a50a 3436 0d08 2735
00000110: 1ecd e635 a366 7436 4a82 b636 c008 a033
00000120: 604b 6436 ef90 3e34 4caa 0936 6734 c131
00000130: 5533 e636 fe33 1136 b0fd 9b33 df02 c434
00000140: 8f46 8835 f266 3335 adec b934 de4d 7334
00000150: 4b80 a233 f604 b636 b395 b134 a5a3 2a35
00000160: be23 9a34 6b7c 3434 3b61 8935 cda2 1037
00000170: e325 3937 47ec 4336 305c 2e35 f634 1437
00000180: 1d9b 7a34 933c bf34 6833 0b35 62b8 5235
00000190: 2d9e bb33 f2fd 0337 0474 0331 fbe0 9c34
000001a0: 39b1 db34 c373 4535 aab6 1634 d458 9836
000001b0: 2edb 8d33 0418 2535 1ce3 eb35 484c 2435
000001c0: 9194 8135 9fa1 2236 47b1 e034 9e63 2836
000001d0: dd41 1b36 1681 0c35 21d4 1035 ce81 7635
000001e0: fa6c 2335 f685 9f35 5278 b633 be0a 3834
000001f0: 4aa0 c435 8824 a835 4886 5636 96ba ae35
