docs/smld/lightning_logs/version_116/checkpoints/epoch=49-step=4900.ckpt (torch, 407771 bytes, 30 tensors)

model.embedding.0.weight f4 [128, 1]
00000000: e291 483f 6bf1 e1be a6e8 993e ee72 2f3e
00000010: b816 4f3e 814e 46be 7eee 0abf b7e7 803e
00000020: 848f 143d 488f 6fbf ea5e c23e c7e9 373e
00000030: 9e8b 3dbf b518 8abd 4a01 3fbf 8cab 7bbf
00000040: 4b72 3b3f 8559 eb3e ac12 74bf 38b2 11be
00000050: 7a2b 63bf 40b6 db3e bf3a 9b3e c0d2 f33c
00000060: bd2f 643f 8e38 a4be 82f0 a2bd 40fc bebc
00000070: 5c9b cdbd 50a5 71be b222 27be 3c13 60bf
00000080: f8eb 46bf 7a7b 04bf c336 3c3e 645d 0d3e
00000090: 6aa1 1e3f d22d 49bf d89e 71bf 5add 7cbe
000000a0: 8ccf 67bf ab2f 1e3f 1350 f53e 4ad2 18bf
000000b0: d61e 613f ea4e b73e 0ecd d73e e69d 58bf
000000c0: 62af 38bf f2d7 663e 3833 c1be ee11 7bbf
000000d0: 9ec5 cd3e e4c5 3dbf 7492 3c3e f737 903e
000000e0: 3d3c bebe 04bc cabe bab8 28bf 40c6 9f3e
000000f0: e123 043f 9617 25bf 5ad8 143f 1cbe 3ebf
00000100: dc1e 5ebf 7e68 38bf 16c3 3abf 295c c83e
00000110: 5e45 c83e face abbe 8bdd 40bf 0f42 983d
00000120: 232c f03e 5828 ab3c eaf5 34bf 40b6 5c3e
00000130: 5c85 0dbf 29e8 623f 9014 283f b8bc 04bf
00000140: 78ea 59bf 7245 40be 810b dc3e 6332 243f
00000150: 7faf 5abe 5e0b 493f e80e 22bf 4b1d 2bbf
00000160: 5a68 bb3c 6006 77bd 9010 33be 7d9b 573f
00000170: 8935 243e f288 38bf cdaf 563f 1065 1f3f
00000180: a67c 8c3d 9e4f 1cbf 2776 853e fc85 a5be
00000190: cfba 773e 40cf 6fbd d056 8d3e 80cc 123f
000001a0: 3e35 ff3b 6b63 043e e644 40bf 463d 09bf
000001b0: 5310 2f3f 98ed 8dbe 0de6 8a3e c75d 763f
000001c0: b82a 2ebe b96c 2dbf 9417 cabe ec42 713f
000001d0: 40a8 48be 9511 613f 5ee8 4ebf ac88 42bf
000001e0: 7028 febe 2d84 9e3e c7f6 4f3e 2e11 57bf
000001f0: 7f5e 253f 2340 a7bd daaf 03bf af02 383e
0.783476 -0.441295 0.3006031 0.17133686 0.2022351 -0.19365884 -0.5427016 0.25176784
0.03626968 -0.93578005 0.3796304 0.17960273 -0.74041164 -0.06742994 -0.7461134 -0.98308635
0.7322127 0.45966735 -0.9534099 -0.14228141 -0.88738215 0.42912483 0.30318257 0.02976358
0.8913534 -0.32074398 -0.079560295 -0.023313642 -0.10039398 -0.23598218 -0.16321829 -0.8752935
-0.7770381 -0.5175091 0.18380265 0.13805157 0.6196505 -0.7858554 -0.94383 -0.24693814
-0.90551066 0.61791486 0.47912654 -0.59695876 0.87937677 0.35802394 0.42148632 -0.84615934
-0.7214261 0.22543314 -0.3773439 -0.98074234 0.40189832 -0.7413008 0.18415242 0.28167698
-0.37155333 -0.3959657 -0.6590687 0.3120594 0.51617247 -0.64489114 0.58142626 -0.74508834
-0.8676584 -0.7203444 -0.7295393 0.39132813 0.39115423 -0.33556348 -0.7533805 0.07434475
0.46908674 0.02089326 -0.70687735 0.21553898 -0.55281615 0.886355 0.65656376 -0.5185046
-0.85123396 -0.18776491 0.42977527 0.64139384 -0.21356009 0.7853297 -0.63303995 -0.6684157
0.022876907 -0.060308814 -0.17486787 0.8422163 0.16036047 -0.7208396 0.83862 0.62263584
0.06859712 -0.61058986 0.26066706 -0.32328784 0.24192356 -0.05854726 0.27605295 0.5734329
0.0077883294 0.1292855 -0.7510513 -0.5360912 0.68384284 -0.27720332 0.2712864 0.9623684
-0.17008483 -0.6774402 -0.39471114 0.9424274 -0.19595432 0.87917453 -0.80823314 -0.75989795
-0.49640226 0.30960217 0.20308982 -0.8401059 0.64597315 -0.0816653 -0.51440203 0.17969774

model.embedding.0.bias f4 [128]
00000000: 23e0 143e b97e 193f 9bdb 05bf 50b7 803f
00000010: f3bb 1f3f f57a 683f e82f 6cbf ecfb b83d
00000020: fe06 013f c769 733c a9f0 3ebe c611 5d3f
00000030: d47b 6bbf 0837 643f 14bf 28bf 60e2 8abd
00000040: 1a53 a33e e3e3 d9be baf6 4bbf 2ee0 44bf
00000050: 58c4 cbbe 8887 f0be bdd5 edbe 0e1b 04bf
00000060: deec e73e 4af4 a03f 2174 8b3f f00c fdbd
00000070: db21 833f 5092 eabd 35ce 7e3f a316 c43c
00000080: a4cb b1be c4b3 f6be e769 91bf ec24 1cbf
00000090: 6e99 073f 5ea3 20bf 2fca 4f3e 026e 3e3f
000000a0: ee41 1fbf 527b 00be 3eee 28bf d0fd ca3d
000000b0: e1bb 73bd f510 5fbf 3ce8 683f 308a 7abe
000000c0: d29b 09bf 3224 5dbf 5c3a 0abb 9429 6a3e
000000d0: 11ae 203d 07bd 633f cf8a 01be 6ff2 3abf
000000e0: 9a88 a23f ae42 5cbf 340e 35bf ee3b 783f
000000f0: a4a7 e73c 00f0 5cba 6c7c 003f 20d8 a8be
00000100: fc0a 26bf dc74 af3e 42c6 2abb f197 3f3f
00000110: 05d0 fcbe b789 803f 9ad5 283f 60fd 95be
00000120: e413 8f3d 3735 8a3e 71ea 1a3f 0b0f 28bb
00000130: c256 063f 5bc9 b43d ad2e 3a3f 0ce2 f4be
00000140: 40d4 273d 7a9f 733f 09c9 633d a21b d5bc
00000150: eb2c 8b3f aa52 8bbf 8c9a 943e a220 5f3f
00000160: e3aa 093f 382f 7dbe b8a7 b1be a12b 8fbe
00000170: 02f3 23be 0c6f b4be 0958 5ebf 1b95 3ebf
00000180: d7bd d43e 4c89 77bf dd72 32bf e616 2bbf
00000190: 8a4d 853f 9ea6 39bf a752 debe 969e 41bf
000001a0: b061 8a3f eb42 9ebe 5c93 56bf 3017 90bd
000001b0: 63e5 62bf c6a0 39bf ca11 803e 143b 32bf
000001c0: cc59 79bf 3724 0e3f 9867 bcbe 49c2 44bf
000001d0: 780d 34bf 2841 bebe 7a1a 08bf e64d 14bf
000001e0: fc29 80be d5a9 1ebf a3f4 e93e a086 40bd
000001f0: a867 34bf 586f 533f e0c0 afbe 33c1 883f
0.14538626 0.5995899 -0.52288216 1.0055943 0.6239616 0.9081262 -0.922606 0.09032425
0.50401294 0.014856762 -0.18646492 0.86355245 -0.9198582 0.8914647 -0.6591656 -0.06781459
0.3189934 -0.42556676 -0.7967335 -0.7690457 -0.39798236 -0.46978402 -0.46452132 -0.5160378
0.45297903 1.2574551 1.0894815 -0.12355983 1.0244707 -0.11453688 0.99533397 0.023936575
-0.34725678 -0.48184025 -1.1360444 -0.6099384 0.5296849 -0.6274928 0.2029197 0.7438661
-0.62209976 -0.12547043 -0.6598853 0.09911692 -0.059505347 -0.8713525 0.9097936 -0.24466777
-0.5375339 -0.86383355 -0.0021091914 0.22867423 0.039228503 0.8896031 -0.12650608 -0.73026174
1.2697937 -0.86039245 -0.707248 0.96966445 0.02827818 -0.0008428097 0.5018985 -0.3297739
-0.6486051 0.34268844 -0.0026058112 0.7484122 -0.49377456 1.0042027 0.6595093 -0.29294872
0.06986216 0.26993725 0.6051398 -0.0025643732 0.5247613 0.08827468 0.7272747 -0.4782871
0.0409739 0.95165217 0.055611644 -0.026014153 1.0873083 -1.0884602 0.2902416 0.8715917
0.5377638 -0.24725044 -0.34698272 -0.27962974 -0.16010669 -0.35240972 -0.8685308 -0.74446267
0.41551086 -0.96693873 -0.6970652 -0.66831815 1.0414288 -0.7251986 -0.43422434 -0.7563261
1.0811062 -0.3091043 -0.838186 -0.07035673 -0.88631266 -0.72510946 0.25013572 -0.69621396
-0.97402644 0.5552401 -0.36797786 -0.76858956 -0.7033305 -0.37159085 -0.531654 -0.57931364
-0.25032032 -0.61977893 0.45694456 -0.04700339 -0.70470667 0.8259177 -0.3432684 1.068396

model.embedding.2.weight f4 [16, 128]
00000000: 2524 a13d e740 98bd b96f c33d 5017 57bd
00000010: 60da 99bd 830d cd3d a58c 553d 9522 883d
00000020: 4d08 633c d56a c7bd 79d6 1bbd 42a6 6fbc
00000030: 4e04 853d c6c5 92be c174 9abd e26d e4bc
00000040: 1642 89bb 92c8 793d 7866 5a3d fffa 5ebd
00000050: 8eb5 a1bd 3030 c13d 04c1 aa3d 8cb7 c8bc
00000060: a52e 743a c44f 573d 0d34 92be ff50 c4bb
00000070: 335f 61bf 0425 2c3a bc59 f4b9 57b5 07be
00000080: 8701 6dbd 7fab bd3c c075 5d3e af64 523e
00000090: 7d73 d0bd c919 7d3d 38ce aebd 2899 8b3e
000000a0: 74ff 3b3c 23cb 533d c42b 313d 8a03 18be
000000b0: 7fe2 62bc 74c5 b43d e084 dfbc 6790 fd38
000000c0: 8797 533d 167c ed3c 0a74 6b3d 25e4 06be
000000d0: 74ae 773d a926 b8bd 624d 613b d416 87bc
000000e0: f983 853e 63fa 12bc 8505 27bd 229c 61bd
000000f0: 6766 80bc 2954 36bd 1966 473d eb52 55bc
00000100: cb74 113d c59a c1bd ddda 54bd b98b c4bd
00000110: 2d53 943d 154c ab3d e0a8 00be 7ba0 503c
00000120: 8008 6dbd e818 dbbd 8c2e 0bbe 93d3 a03c
00000130: 1008 b4bc e803 abbd be63 75bd ded9 5d3d
00000140: b5f9 40be cd80 233c 32b6 c43c 53d1 6dbd
00000150: 85c6 8e3d 0530 223d 27ed 38be d1f1 88bd
00000160: f085 cabd f862 b63b 3017 c4bc 865e a5bd
00000170: 3d75 b63d 2a82 90bd faf3 8f3d ddc7 e23c
00000180: e9c4 22bd 042a 973d 0a2e 993d 02f1 903d
00000190: a9ee f6bd 2f85 adbd d196 85bd 6a0a a43d
000001a0: 2804 b4bd 0d8c e43d 082b 553d a95a a93d
000001b0: 62ff 033d 6741 363d 3602 233c 53f4 b23d
000001c0: 2b2d 94bd d939 c0bd c95a 57bd 90e1 6e3d
000001d0: 510e 83bc b56c 04bd f341 203d e7a2 803d
000001e0: d9d0 44bd 9dc8 dd3d 1547 e2bd 56a6 cc3b
000001f0: dcaf 823b 06aa e9be 9fd3 2fbd 32ce d23b
00000200: 4a3e 31bd 75e8 c93c 6d8c 60bd 5cf6 e7bb
00000210: 4efd 4dbc 87c0 95bc f90b a83d 636f 98bd
00000220: 9149 293d cba9 233d 2627 91bd ee05 c0bc
00000230: 17cd 55bd de29 cc3d eb7b 31bd b111 6d3d
00000240: 6925 f5bb 3af7 2abd b4d5 973c fe7b 30bd
00000250: 9513 543d da62 57bc 4277 03bd 6442 c83c
00000260: 7714 613d 31da 4dbd 8cd9 2a3d 66d5 e23c
00000270: 415f 883e aa4d adbd 293c 9a3e 509c e4bc
00000280: bf1f 023d cc98 3ebd 9a63 bcbc 555a 9bbd
00000290: 75e6 6d3d 332e b63b 0992 a4bb 4b61 4cbd
000002a0: 30dc 843a 4ec4 9d3c 3727 aabc f363 ab3d
000002b0: dd22 8fbd 5807 49bd e118 ea3b 4ab6 1a3b
000002c0: c28e 653b 5274 163d 9360 29bc 9680 cabc
000002d0: 3d20 1bbc 6e5c a43d 3e22 babd b641 0dbd
000002e0: f644 a13d 182c 093d 0504 4a3b afc6 b03d
000002f0: f12e a23d 051d 6f3d 1d49 193d 4436 cfbc
00000300: 92df 783d 1303 443d d8ec 303d 9282 a73d
00000310: 91b7 983d 2cb2 50bc f44c 5c3d 4579 323d
00000320: 0a54 a5bc 1fe6 9a3d da5a 81bd 1a7a 3fbd
00000330: 7319 b4bc 7eed e3bb c581 ad3d abb3 a53d
00000340: c16c f13d efdf a73c 3b4a 6b3d db15 0a3d
00000350: 9990 013e 9e6d 34bd f9bc 67bc 291f e83c
00000360: 87ed 893c 611c abbb 83b0 3dbc 8bf6 adbb
00000370: 0e78 8ebc 498c 65bd af55 943c 4c1c cbbc
00000380: cf66 643d 5d85 a3bd cd64 7cbd 215f aa3d
00000390: 776f b33d 55b5 b03d 1d16 68bd 2ad6 5cbd
000003a0: acf3 7c3b 8c9e 5ebd 17bc b33d 2c86 183d
000003b0: f070 53bc b864 f4bc b955 163d 4974 8f3d
000003c0: 8ee0 9abd 221b 2f3d 4bc4 56bd 9224 22bd
000003d0: b6c9 7b3d 66d7 853d 6a86 5bbc 46f3 4fbd
000003e0: 9217 8ebd f8ff 6cbd 1922 3d3d ed22 763d
000003f0: dfbc 3e3d 256e cb3d f86d 9abd 37b6 9b3c
0.07868222 -0.07434254 0.09542794 -0.052512467 -0.07512355 0.10012343 0.052136082 0.06647221
0.0138569595 -0.097371735 -0.038046334 -0.014627041 0.06494962 -0.28666514 -0.075418 -0.027884427
-0.0041887863 0.060982294 0.053320378 -0.054438587 -0.07895957 0.09433019 0.08337596 -0.024501584
0.0009314812 0.052566305 -0.28555337 -0.005991101 -0.8803589 0.0006566795 -0.00046606164 -0.1325277
-0.057862785 0.023153065 0.2162695 0.2054622 -0.10178278 0.06179217 -0.08535427 0.27265286
0.011474479 0.0517074 0.04325463 -0.148451 -0.013847946 0.08826724 -0.02728504 0.00012090877
0.05165818 0.028989833 0.05748371 -0.13172968 0.060469106 -0.08991749 0.00343784 -0.016490377
0.2607725 -0.00897083 -0.04077675 -0.05508054 -0.01567383 -0.044513855 0.048681352 -0.013020257
0.035511773 -0.09453348 -0.051966537 -0.095969625 0.07242427 0.08364121 -0.1256442 0.012733574
-0.057869434 -0.1069811 -0.13591975 0.019632136 -0.0219765 -0.083503544 -0.059909575 0.054162852
-0.18845256 0.009979439 0.024012659 -0.058060955 0.06971458 0.039596576 -0.18059216 -0.06686748
-0.09888828 0.005565997 -0.023936838 -0.080746695 0.0890908 -0.07056077 0.07028957 0.027683193
-0.03973857 0.07381061 0.074794844 0.070772186 -0.120572396 -0.084726684 -0.065229066 0.08009799
-0.08789855 0.11159525 0.05204299 0.08269245 0.032225974 0.044495966 0.009949258 0.087380074
-0.072351776 -0.093860336 -0.052576814 0.058320582 -0.015998038 -0.032330234 0.039125394 0.06281071
-0.048050735 0.108292796 -0.11048714 0.0062454147 0.003988249 -0.4563753 -0.042926427 0.006433272
-0.043272294 0.024646977 -0.05482142 -0.007078929 -0.0125726 -0.01828028 0.082054086 -0.0744312
0.041329924 0.03995685 -0.07087545 -0.023440327 -0.052197542 0.09968923 -0.043331068 0.0578782
-0.0074812663 -0.04173968 0.018534519 -0.043087 0.051776487 -0.013146127 -0.032096155 0.02444572
0.054951157 -0.05025691 0.041711375 0.027689647 0.26635173 -0.08462079 0.30124024 -0.027906567
0.031768557 -0.046532437 -0.022996712 -0.07585589 0.05808111 0.0055597066 -0.0050222916 -0.049897473
0.0010136422 0.019258644 -0.020770652 0.08368673 -0.069890715 -0.04907927 0.007144079 0.0023607188
0.0035027717 0.036732025 -0.0103379665 -0.024719518 -0.009468135 0.08025442 -0.090885624 -0.034486495
0.078744814 0.033489317 0.003082515 0.08631646 0.079191096 0.058377285 0.037423242 -0.02529443
0.06076009 0.047854494 0.04319462 0.08179201 0.074568875 -0.012737792 0.053784326 0.043572683
-0.020181675 0.07563423 -0.06316157 -0.046747304 -0.021984791 -0.0069558015 0.08472017 0.080909096
0.11788321 0.020492522 0.05744384 0.03371225 0.12652816 -0.04404985 -0.014144176 0.02833517
0.016836895 -0.005221889 -0.011577728 -0.005308931 -0.01739123 -0.05604199 0.018107263 -0.024793766
0.05576211 -0.079844214 -0.06161957 0.08318926 0.087614946 0.08628336 -0.056661714 -0.05391518
0.0038597388 -0.05435042 0.0877611 0.03723733 -0.012905344 -0.029833183 0.036702845 0.070046015
-0.07562362 0.042750485 -0.052433293 -0.039585657 0.061471663 0.065352246 -0.013398746 -0.050769113
-0.069380894 -0.0578613 0.046175096 0.0600919 0.04656684 0.09933118 -0.07540506 0.019007785

model.embedding.2.bias f4 [16]
00000000: 964b 10be 7b1d 34bd 918f 84bd 6133 bb3d
00000010: 4cd7 07be b754 cb3d f088 d13d 7186 4abd
00000020: daf4 57bd 32a3 663d a6dc 35be bb2f e4bd
00000030: 8f74 27ba 207d 20be 9b78 1fbd b74d c83d
-0.14091334 -0.043973427 -0.064726956 0.09140659 -0.13265723 0.099282674 0.10231197 -0.04944462
-0.052723743 0.05630798 -0.17759952 -0.11141916 -0.0006387913 -0.15672731 -0.038933378 0.09780448

model.net.layers.0.weight f4 [164, 18]
00000000: 4e95 5a3e a229 42bd 7cf7 50be 700d c23d
00000010: 54a4 23bd 22ec 4ebe c3fc b2bd 953a 0e3e
00000020: 6b09 81bc 33d1 fcbd 86fd 5f3e 53f6 f93d
00000030: 6cd8 4bbe 28b5 eabc a496 47bd 71c5 063e
00000040: 2096 18be 0e58 5bbe afeb c4bd f514 ad3d
00000050: 9b82 1b3d d0aa bb3d a127 cfbd 3111 e73d
00000060: ae09 12be f893 b2bd 9280 f13d a09f fa3d
00000070: 8bda 3dbe 3d8a 4abe 1751 3a3e 349b 563e
00000080: c457 10bd f92e c23d 86bd 46bd 7149 52be
00000090: 1292 80bd eb57 ca3d 8903 2b3e 7fca 74be
000000a0: e1e9 6bbc 37d8 0bbd 5edc 403e 6154 273e
000000b0: bc06 2f3e 87fc bf3c e8fc 1b3e c67b 1cbe
000000c0: 4b8d 533d 54f7 62be 9990 79be 5c37 713d
000000d0: 4ff1 983d 0c75 27bd c277 473e a09e 383e
000000e0: 6270 cfbd 2957 cbba c2c7 2bbe 1d1f 0a3e
000000f0: 9ca3 93bd 94f2 883c 29e0 c73d c422 c13c
00000100: 575d 113d 6404 79be a436 85bd dc62 d03c
00000110: fd25 d43c 9b40 a4bd 9aeb 79be 31ae eb3d
00000120: 6189 35be c11c dbbd 9000 0cbe a166 333e
00000130: 83a9 3d3e 211b 0c3d 4549 50bd ace7 6fbe
00000140: a478 8cbd 5b6a 5abd 2467 c23c 0d1f 27bd
00000150: bd01 a53e 00e7 6f3e 2ed5 4dbe 27e2 0bbe
00000160: 0b75 eabc e453 16bd b26d 733e fb43 f03d
00000170: 8ddd f4bc a930 273e 4547 553e 3f86 90be
00000180: 606e 7a3e 861e 98bb 32bb 763d 9269 e83d
00000190: 3acd 13be b275 22be 28e6 eabd bee4 9bbe
000001a0: 3c1f fe3d c3e2 c73d 9d6e 03be 2b8b f03d
000001b0: 0160 1c3b e44d 96be da42 6abe df72 473e
000001c0: 387c c53d d957 4e3e 4a8a 0d3e bab0 3fbd
000001d0: ce79 46be 75ad 103e af29 af3d 6a05 853b
000001e0: 11d4 0d3c e8e6 8e3d 0940 fe3d eb88 2f3e
000001f0: 1cb5 2dbd 0b88 c23d e54f 293e 81bf 593d
00000200: e79e de3e 09e4 e0bd 7ae6 10be 1609 2d3c
00000210: 5a1c 4d3d a6eb 0d3e 2604 3ebe 8d1f ecbd
00000220: 3d6f 2bbd e751 49bb ad47 4a3e 0461 eb3e
00000230: c32c e9bd da13 b53e 9713 e73d 9d3c de3d
00000240: f619 383e 23e6 553e 3fff 273e 9c42 4bbd
00000250: 2bdc eb3c e453 bc3d 3a8c 38be 1bd6 fdbd
00000260: deba 8e3d 5191 4cbe c9b9 223d aeb3 a63d
00000270: 8f64 b4bc 4a18 383d 352d 293e 5536 873e
00000280: c2bd 44bd 0535 40bd fec1 53bd 875a 13be
00000290: e860 203e 29cc 59be 9776 4e3e 2a17 e5bd
000002a0: d89f 50be 0078 383d 5c6c 5abd c53f 603e
000002b0: 388e 55be 2a86 113e 4bc6 c13e 86ee 013d
000002c0: 96c8 663e 41ee 2d3e 5b4d 0d3e de6c 3bbc
000002d0: 0327 73be 4688 21be 4bca db3d 190c 8ebd
000002e0: c9f3 d7bd eba4 db3c 5cd1 003e 9035 ee3d
000002f0: 4b0b 4a3e ea3b fcbd 8120 a13c 8151 e2bd
00000300: 0d41 2dbe bc45 923d d5d4 c4bc 66c4 603e
00000310: 5bc3 19bb 223d 8bbc 6dc3 c9bd dd29 d23d
00000320: bda3 043f 10fc 79bd 316b 073e 6361 5fbd
00000330: b5a1 3cbe 8e77 d33d 9448 0bbe 045c 403e
00000340: 9cb6 2a3e c685 36bd b0b3 153f d630 d53d
00000350: 4f93 293e 6c75 243e 0c95 03be 5546 b0bd
00000360: 49f4 203e 3566 003e d907 393e 52d2 94bc
00000370: ab21 85bc 4a30 63bd 4bc3 823e 44a9 97bd
00000380: ef33 b53d 5a00 963e afde 36be aa23 1cbd
00000390: e889 9e3e c6b4 d43c 3943 6ebe 6379 d3bd
000003a0: 2ff7 2c3e 799d e0bc 7091 133e ee23 aebe
000003b0: 62fc 613e 3d40 a73c d3e1 833e 7081 50bd
000003c0: 02d8 4e3e cbdc 7cbe b0a2 3dbe e1f8 10be
000003d0: e1d9 a2bc 16d4 febb ba7a da3d e201 533a
000003e0: b69e 80be f4da 493e 712e acbd 151a cf3d
000003f0: 37ee 28be 7014 8bbd e582 e6bd 861b 9cbc
0.21346018 -0.047402985 -0.20406908 0.09475219 -0.039951637 -0.20207265 -0.08739617 0.13889535
-0.015751561 -0.12344589 0.21874055 0.12205186 -0.19906777 -0.028650835 -0.048727646 0.13161255
-0.14901018 -0.21420309 -0.096152656 0.08451263 0.037966352 0.09163439 -0.101149805 0.11282576
-0.14261505 -0.08719629 0.11792101 0.12237477 -0.18540399 -0.19779296 0.18194996 0.20957643
-0.03523995 0.094816156 -0.048520587 -0.20535828 -0.06277861 0.0988005 0.16700567 -0.23905371
-0.014399023 -0.034141745 0.18834063 0.16340782 0.17092413 0.023435844 0.15233195 -0.15281591
0.05164842 -0.2216466 -0.24371566 0.058890685 0.07467901 -0.04088311 0.19479278 0.1802926
-0.10128857 -0.0015513647 -0.1677542 0.13488431 -0.072089404 0.016717233 0.09759552 0.023576148
0.035489406 -0.24318081 -0.065045625 0.025437765 0.02589702 -0.08020135 -0.24406281 0.11507834
-0.17728187 -0.10698844 -0.1367209 0.17519619 0.18521695 0.03420556 -0.050851125 -0.2342822
-0.06858948 -0.053324085 0.023730822 -0.040801097 0.3222789 0.23427963 -0.20100853 -0.13660489
-0.028620264 -0.036701098 0.23772314 0.11731716 -0.0298908 0.16327156 0.20827968 -0.28227422
0.24456167 -0.0046423106 0.060237117 0.11348261 -0.14433756 -0.1586521 -0.1146968 -0.30447954
0.12408301 0.09760048 -0.12835164 0.11745294 0.0023860934 -0.293563 -0.22877064 0.19477414
0.096428335 0.20150699 0.13822284 -0.0467994 -0.19382402 0.14128669 0.085528724 0.0040594833
0.008656518 0.069776356 0.124145575 0.17142074 -0.042409047 0.094986044 0.16534384 0.053161148
0.43480608 -0.10980994 -0.1415042 0.010561248 0.050075866 0.13859424 -0.1855627 -0.11529455
-0.041854132 -0.0030718984 0.19753905 0.45972455 -0.11385491 0.35366708 0.11283033 0.10851405
0.17978653 0.20888571 0.16405962 -0.04962407 0.028791508 0.09195688 -0.18022242 -0.12394353
0.06969236 -0.19977309 0.03972796 0.0813974 -0.022020606 0.04494504 0.16521151 0.2640864
-0.04803253 -0.046925563 -0.051698677 -0.14390002 0.15661967 -0.21269287 0.20162426 -0.11186059
-0.20373476 0.045036316 -0.053325996 0.21899326 -0.20855033 0.14211336 0.37846598 0.031721614
0.22537455 0.16985418 0.1379904 -0.01143953 -0.2374535 -0.1577464 0.10731944 -0.06935901
-0.10544545 0.026812037 0.12579864 0.1163131 0.1973087 -0.12316115 0.01966882 -0.11050702
-0.16919346 0.07142207 -0.024027267 0.2194992 -0.0023462388 -0.016996924 -0.09851728 0.10261891
0.51812345 -0.0610314 0.13224484 -0.054536235 -0.18421061 0.103255376 -0.13601905 0.18785101
0.16671222 -0.04456117 0.58477306 0.10409705 0.165601 0.16060418 -0.12849826 -0.08607165
0.15718187 0.12538989 0.180694 -0.018166695 -0.016251406 -0.055465974 0.25539622 -0.07405332
0.08847796 0.29297143 -0.17858385 -0.03811995 0.3096459 0.025965106 -0.23267831 -0.10325887
0.16891168 -0.027418839 0.14410949 -0.34011787 0.22068933 0.020416373 0.25758228 -0.05090469
0.20199588 -0.24693601 -0.18519092 -0.1415744 -0.019879283 -0.0077767475 0.106679395 0.0008049292
-0.25121087 0.1971243 -0.084072955 0.10112397 -0.16497122 -0.067910075 -0.11255435 -0.019056093

model.net.layers.0.bias f4 [164]
00000000: 0d03 a5bd 3e9f fdbd 62a1 79bd 0a82 a83d
00000010: 4814 80be e80a 7dbe 15d7 fd3d 6b3e 01be
00000020: a122 54bd be1b 1e3e 5100 2dbe 6b3d 9abe
00000030: ee75 4dbe 53e4 88bd 2f79 093c 02e6 46bd
00000040: 5c84 143e c857 5e3e 6f19 1b3e 7d5d a7bd
00000050: 0374 203e 1d49 44be c955 0c3c cac8 103e
00000060: 1d8d 82bd ba79 99be 1b1c e13d 0eb3 61bd
00000070: d075 3abe cfa4 703d ff16 373e 1422 ac3d
00000080: 5167 9c3c fa04 3bbe e961 a9bd a422 80be
00000090: 13e8 61be 6f50 85bd b79f 323e 72ea 92bd
000000a0: 5d2f f53d af86 b83d ce62 4fbd 67d9 abbd
000000b0: 156a 583e ebe4 47be 28e7 bc3d 02eb 1d3e
000000c0: b52e 24be 5528 533e 4dc6 b63c 25bd 483e
000000d0: ee6a 543e 8e82 a3be d695 87bd 373a b13d
000000e0: 1e87 973d cdda 6e3b eb49 103e b9e9 8bbe
000000f0: 7266 adbd 9d42 cf3d b449 c93e 722a 16bc
00000100: a99b 06be b1d1 e83c dc9d 91be 3112 0e3e
00000110: c8f1 ff3d ad64 873d 3720 0e3e 4d17 1d3e
00000120: c77f 91ba 52ac 08be ce35 7f3e d2f1 5a3c
00000130: c92f ddbc 91f8 283e 0361 0dbe da11 0bbe
00000140: 6a4f 313e 389d 0b3e b009 3d3e 8e9a ee3d
00000150: 4944 4bbe cc3b cbbc c782 d6bb 1b58 e6bd
00000160: dd8a 7cbe 3206 473e d89e 743e 7717 603d
00000170: e8a5 fa3d 49f2 bbbd d647 94be ebff 183e
00000180: 6098 0ebe 60d3 0d3c 2d7e 2e3d 4561 1dbe
00000190: d824 4c3e 7be1 35be a4a8 893c fbe1 153e
000001a0: 7f76 68be e6de 3cbe 857b 87be 30b9 7b3e
000001b0: 8c00 62be 356f 64be b0ee 5cbe ffbe 6bbe
000001c0: 7f52 c3be 3d48 8fbd 5a59 0fbe 53c6 913c
000001d0: f42e 0e3d 9456 693e 994d 2abc 606a b7be
000001e0: fa50 0ebe cb4b bcbd b144 fa3c 943a 64be
000001f0: 5432 20be 866b 183e b454 13be 4613 a8bd
00000200: 2dbc 4cbe db37 bbbe 7a6c 863e 28b0 30be
00000210: f254 59bd e861 91be 4aba c23d 6fab a5bd
00000220: 4da0 a23d fba1 863d 695f d13d 9adb 6abe
00000230: de6c 043a 5414 a5bd f067 0abd 7304 31be
00000240: 3494 36be aea2 063e e47d 1dbd 3bc0 28be
00000250: bd57 4ebe 673e 9cbd 02d1 1cbd 4e63 213e
00000260: 2c0f 6bbd e66e 443e c7ac 623e c3ed f83d
00000270: ad92 4f3e 6723 4abe 5b6c d53c e713 3c3e
00000280: 5ee0 453e d8c0 df3d 9136 1f3e f5cf 21be
-0.080572225 -0.12383889 -0.060944922 0.08227928 -0.25015473 -0.24711192 0.12394539 -0.12621467
-0.051790837 0.1544027 -0.16894652 -0.30124983 -0.20064518 -0.066841744 0.008390709 -0.048559196
0.14503616 0.21713173 0.15146421 -0.08172128 0.15669255 -0.19168516 0.008565375 0.14139095
-0.063745715 -0.29975682 0.10991689 -0.0551024 -0.18209004 0.058750924 0.17879866 0.084049374
0.019092234 -0.18263617 -0.08270628 -0.2502643 -0.22061186 -0.06509482 0.17443739 -0.07173623
0.119719245 0.09010064 -0.050631337 -0.083910756 0.21134217 -0.19520919 0.09223777 0.1542168
-0.16033442 0.20620854 0.022311354 0.19603403 0.20743915 -0.31935543 -0.06620376 0.08653682
0.073988184 0.0036446333 0.14090697 -0.27326754 -0.084668055 0.10120127 0.39314044 -0.009165393
-0.13145317 0.028420301 -0.2844075 0.13874127 0.12497288 0.06610999 0.13879476 0.1534092
-0.0011100703 -0.13346985 0.24922869 0.0133633185 -0.027000325 0.1650107 -0.13806538 -0.13581029
0.1731545 0.13634193 0.18460727 0.11650573 -0.19850267 -0.024808787 -0.0065463516 -0.112472735
-0.24662347 0.19435957 0.23888719 0.054709878 0.12238675 -0.091770716 -0.28961056 0.14941375
-0.13925314 0.008656353 0.0426008 -0.15369137 0.1993593 -0.17761795 0.016804047 0.14636986
-0.22701453 -0.18444404 -0.26461425 0.24582362 -0.22070521 -0.22308047 -0.21575427 -0.23022078
-0.38148877 -0.069962 -0.13998929 0.017794764 0.034712747 0.22786933 -0.010394477 -0.35823345
-0.13898078 -0.09194144 0.030550333 -0.22287971 -0.15644199 0.14884767 -0.1438778 -0.08206801
-0.19993658 -0.36566052 0.26254636 -0.17254698 -0.053059526 -0.2839501 0.09508188 -0.08089339
0.07940731 0.06573864 0.10223276 -0.22935334 0.0005051623 -0.08060518 -0.03379053 -0.17286853
-0.17829973 0.13147995 -0.038450137 -0.1647958 -0.20150657 -0.0762909 -0.038285263 0.15760538
-0.057387516 0.1918293 0.22136222 0.121547244 0.20270796 -0.19740067 0.026052644 0.18366967
0.1932387 0.10925454 0.15548159 -0.15801986

model.net.layers.2.weight f4 [164, 164]
00000000: e017 9d3d e08b 09bc 730b 26ba 6f42 90bc
00000010: 54da 87bd e116 44bd e0bd 86bc 9b2f cbbd
00000020: a291 723d f9fd e2bd 56e5 35bd 9ff0 d03c
00000030: d4b8 a3bc 56d8 0dbe 9c93 4dbd 155f a13d
00000040: ba51 733d 13a3 113c 217a 8b3d 167a 30bd
00000050: a988 b53c bdf2 c2bc aac9 973d ac77 913d
00000060: cf23 c83c 4e4c 273c dc8e 103e 0721 ab3c
00000070: 5cca 063d 953f 35bc b267 8bbd 8c3f 8b3d
00000080: 8f78 1c3d dec1 583d 136a f6bb 5afa 0a3d
00000090: 9045 1bbc 07e2 903d 8788 9c3c 607d c7bc
000000a0: af45 4c3b 9b12 ec3d 2df1 cc3a a5a9 103e
000000b0: 8f0d a4bc f40f 18bd 2fcc 49bd f9bb b93c
000000c0: e00b 30bd 995f 59bd fd41 dcbc 8b51 e73b
000000d0: 81a5 133c f52d 88bd 6195 d93b 7882 59be
000000e0: 4951 11bd f378 3e3d 707b 423c b077 293d
000000f0: 9d64 233c df73 b6bd e346 debe d7a7 94bc
00000100: 0b62 99bd 4326 b2bd 8e41 12be 003c 6c3d
00000110: 60e1 b7bb 53d7 0dbc 0bcf 37bd 6f7f 7bbc
00000120: 7a86 bf3d 93eb b73b d353 a53d 9ea1 86bd
00000130: d057 3b3d 39f9 3a3d f68a d1bc 2b7e be3b
00000140: 2b62 193e 40fc c7bd ce0e 303e 1b95 e03b
00000150: 6f32 47be a198 2bbd d5b9 ec3c 714f 37bd
00000160: 58e8 39bd 0e0d da3c c4a5 4ebd 1a16 7dbc
00000170: 4ce6 963d 70a0 453d 37c1 a0bc 76da 2d3c
00000180: 813c 66bd 3a18 bf3d 15ab 1abd be49 f2bc
00000190: 61e9 d73c 1722 1b3c c7bb 8abc 1899 41bd
000001a0: 6ce0 f3bc 3d53 d63d 679a 61bc 497a 81be
000001b0: 574a 4a3c 0833 1cb8 9ee2 38bd e8b7 0d3d
000001c0: 7c21 2ebe f25c 47be fe64 843a 0008 6a3d
000001d0: 9f7d a0bc f21d 0a3e 935d aabd 0c4d 5dbe
000001e0: 7639 4cbd 0f59 dabd 0fba 31bc dd16 9fbd
000001f0: cd1a 65bc cdbc 18bd f28b 68bd 84af 4a3d
00000200: 75ca 27bb 8e30 8fbd a545 2fbd 5ddb d5bc
00000210: dbcd 8ebb d4a6 3abd 3568 eabc dd31 d23d
00000220: 4f53 593d e4da 723d 7299 16bd 6d24 91bc
00000230: 84e6 1b3d 2c73 bd3d fc8b 913d 11ec 82bd
00000240: a017 793c cb46 48bd d607 1b3d 5951 23bd
00000250: 0117 a7bd 0cd2 febc e5d8 4e3d 9d14 9bbd
00000260: 44b1 833c 10c8 c93c 5a4a 3e3d 8780 3f3d
00000270: 6274 ed3b 3b22 883d 0433 19bd b0db 903c
00000280: 0390 9dbc badc 5f3d 9935 96bd 307f 5abd
00000290: def3 a03d e581 b13c 4ef4 ca3b 0a8c 563d
000002a0: 0919 353c eabd 663d 0ea2 3b3d d51b b53c
000002b0: f250 903c c134 c5bc c524 003d c03f a03d
000002c0: eb76 7fbc 9912 e9bc d47a 773d 9f79 023d
000002d0: 8882 673d 37f4 31bd 486a 9fbd 6a4e 8ebc
000002e0: e010 8abd cd0d 34bd 2939 67bd 5cd5 423d
000002f0: 7a99 aabc f80c f63c 3a60 203c 6b4e 96bb
00000300: 96a8 1e3d bb65 c0bc c31d 95bd 9bb2 5fbd
00000310: aa6a 0c3d 563d 463c 84c8 70bc 6fa4 4cbd
00000320: feac 793d 9675 b3bc 625e 853c d9a9 c6bc
00000330: 513f 353d 672e 643c f152 cebc 48d8 b93b
00000340: 07a8 b93c bbee 54bd 01ed 4bbd c773 e8b9
00000350: 2467 073b f001 7dbd c420 99bd a0cd debb
00000360: abd9 5fbd f19b fb3d af10 4f3d 4b68 cabd
00000370: b59e 5cbd 8b20 15bd 040a 01bc 0e46 433d
00000380: f35d 1dbd 79a5 02bc dc8a eebd 03dc e9bc
00000390: 940c e8bc 4003 683c 07cd 8cbd 2129 503d
000003a0: 58c1 6b3d 836b 883c f837 93bb b48e 11bd
000003b0: 8e76 da3c 49ba c33b c38e c0bc aa38 843c
000003c0: 8b18 de3c 26b5 3cbd 5cb6 0a3d 8fc9 c23c
000003d0: 2c22 a13c 3b30 bd3b a88a 6c3d e705 4c3d
000003e0: d78f d3bd d9ba 1abd b773 823d a2e3 98bd
000003f0: 99d3 0f3d 6e51 743d ce9b cc3d 82fc 6a3d
0.076705694 -0.008395165 -0.00063341035 -0.017609803 -0.0663344 -0.04787338 -0.016447961 -0.099211894
0.059220918 -0.11083598 -0.044408165 0.025505362 -0.019985594 -0.13852057 -0.0501896 0.078794636
0.059404112 0.008888978 0.068104036 -0.04308518 0.022159891 -0.023797387 0.07411511 0.07102904
0.024431137 0.010211064 0.14116997 0.020889772 0.03290783 -0.011062522 -0.06806888 0.0679923
0.03820091 0.05291926 -0.0075199693 0.03393016 -0.009477034 0.07074361 0.01910807 -0.024351776
0.0031169464 0.11526986 0.0015635841 0.14127214 -0.020025996 -0.03712459 -0.04926699 0.02267264
-0.042980075 -0.053069685 -0.026886934 0.007059281 0.009011627 -0.066493906 0.006640122 -0.21241176
-0.03547791 0.046502065 0.01187025 0.04137391 0.009972719 -0.089088194 -0.43413457 -0.018146439
-0.07489403 -0.08698704 -0.1428282 0.057674408 -0.0056115836 -0.008657294 -0.044875186 -0.015350207
0.09351821 0.0056127994 0.08072629 -0.06573795 0.04573804 0.045647833 -0.025578957 0.0058133802
0.14978854 -0.0976491 0.17193148 0.0068537123 -0.19452833 -0.041893605 0.028897205 -0.044753496
-0.045387596 0.026617553 -0.050451055 -0.015447164 0.073681444 0.04824871 -0.019623382 0.010611167
-0.056210045 0.09330793 -0.037760813 -0.029576179 0.0263564 0.009468577 -0.016935242 -0.047265142
-0.029770099 0.10465095 -0.013769723 -0.2528861 0.012346826 -3.7240825e-05 -0.045137994 0.034599215
-0.17004961 -0.1946905 0.0010100899 0.057136536 -0.01959115 0.13487986 -0.08318629 -0.21611422
-0.049859487 -0.10661518 -0.0108475825 -0.07768033 -0.013983441 -0.03728943 -0.056774087 0.04948379
-0.0025602852 -0.06991683 -0.042791028 -0.026105577 -0.004358036 -0.045569256 -0.028614143 0.10263417
0.053057965 0.05929078 -0.03676743 -0.017717564 0.038061634 0.09250483 0.07106778 -0.06392682
0.015203387 -0.04889564 0.03784927 -0.0398725 -0.081586845 -0.031106018 0.050499815 -0.07572291
0.016075738 0.02463153 0.046457626 0.046753433 0.00724654 0.06647154 -0.037402168 0.01768288
-0.01923371 0.05465386 -0.07334442 -0.05334395 0.07859014 0.021668384 0.006193674 0.052379645
0.011053332 0.05633346 0.045808844 0.022107998 0.017616723 -0.024073007 0.031285066 0.07824659
-0.015592317 -0.02845125 0.060419872 0.03185427 0.05652097 -0.043445792 -0.077839434 -0.017371375
-0.067415 -0.043958474 -0.056450997 0.047566757 -0.020825136 0.03003548 0.009788567 -0.004586985
0.038734995 -0.023486009 -0.07281067 -0.05461369 0.03428141 0.012099585 -0.014696244 -0.049961504
0.060955994 -0.021906655 0.016280357 -0.024250912 0.044249836 0.013927079 -0.025186034 0.0056715347
0.02266313 -0.051985484 -0.04978657 -0.0004433675 0.0020660842 -0.061769426 -0.07476953 -0.0067994148
-0.054650944 0.12285603 0.05055302 -0.098831736 -0.053862292 -0.03640799 -0.007875923 0.04767423
-0.038419675 -0.007974022 -0.11647579 -0.028547293 -0.02832631 0.014160931 -0.06875043 0.050820474
0.057557434 0.016652828 -0.004492756 -0.035536483 0.02666786 0.0059731347 -0.023505574 0.0161403
0.027111312 -0.046071194 0.033865318 0.023777751 0.019669615 0.005773572 0.05774942 0.049810316
-0.1033017 -0.037775848 0.06369727 -0.074652925 0.035113905 0.05964797 0.09990655 0.057369716

model.net.layers.2.bias f4 [164]
00000000: ffd9 b439 ff1f ea3a 72f5 553d 28e8 b53c
00000010: 2ccf 2d3d c16d 90bb 0bea d43d 2b22 47bd
00000020: fa7e 84bd 531b e0bb 529a 87bd 0889 fabc
00000030: e77d c2bc 5c43 f5bc 5f63 a4bc cdb6 d43c
00000040: ee4c bc3c 96f2 0abc 42e7 813d 9e88 fbbc
00000050: 7e2d 693c c91a abbd 3a9d 403d 5760 8dbd
00000060: f71e 033e d2e6 8b3b 8d4c 80bd ab22 acbc
00000070: e13d 95bd 700f a6ba 2678 0abd 24d4 01bd
00000080: 8875 dabd 00ab 1cbd e7a8 13bd f0c4 f0bc
00000090: 26ed 0d3d f016 8dbd 4ca8 49bd 4df2 c1bc
000000a0: 91ba 893d 30ce 113d b15c 803d ca67 8b3c
000000b0: baed 223d 3d7e a33d 9d29 1bbc aa66 81bc
000000c0: 5473 69bc 9128 b73d 5044 4fbd 7f3b 2c3d
000000d0: 73f5 383c 0a53 0ebe f1f6 063c 240a d2bc
000000e0: e4ad bcbd 14f9 703d 04d8 ec3c 2c91 aa3d
000000f0: 20ba 7abd 3495 4e3d 3564 4ebd a782 30bd
00000100: 17c1 8d3d 26ba 49bd b2cf ed3c 493f 78bd
00000110: 4eea 543d d6cd 66bd e548 5bbd 7a50 8d3d
00000120: ccef 29bd 6b3b 493d cb15 063d fe26 363c
00000130: 6f22 0ebe 4835 833d 28c3 a0bb 2c67 9fbd
00000140: 10d7 5b3d 2028 3ebc 2d98 653c 81bb 623c
00000150: da54 77bd 5499 0ebd 35e3 853d cdad e13c
00000160: bbbf 8a3d 4e24 e73d 2f6b 813d bd61 54bd
00000170: 7bc4 b0bc 7515 353d e7bf 4dbd ac0c 283d
00000180: baa9 d7bd 7812 5d3c a637 9fbd a2d2 253d
00000190: bc03 29bd c293 cdb9 ca7d ca3c a88e 71bd
000001a0: 9185 c73d 281b 60bc 186d a13c af8d 6bbd
000001b0: c56f f53c 2142 43bc b6d3 26bc 534c f63b
000001c0: 4607 9e3c fd2a 0b3e ad74 52b9 4f0b 113c
000001d0: 294f b63b ffef 2abd c0a0 cfbd 12fc ae3d
000001e0: 16d5 023d 4ae8 92bb 3054 84bb 048e 7fbc
000001f0: 8340 9a3d c899 b5bb fe6a e7bc 74c1 e6bc
00000200: 6c43 57bd 3b99 5a3d 3f03 6b3d 363a 053d
00000210: 2cc8 2eba 9789 50bd 552a 14bd c6b4 dc3d
00000220: 81c6 81bd c311 8fbd 2e39 49bb 5e99 a4bc
00000230: 0f13 abbd 349e a8bd 11a9 b83d df0a 603d
00000240: a50e 853d a665 af3d 8bad 203c 6d0e a2bd
00000250: a12d 183d 55d4 ab3c 4268 313d 34d6 90bd
00000260: 6a92 46bd 82e1 24bc 544e 0e3d d211 e63c
00000270: d9b5 88bd c7ce 463d 7af5 6b3d 75f3 0bbe
00000280: 4778 c1bd 7743 b9bd 3c92 8cbd 3aa1 b8bc
0.00034494695 0.0017862319 0.052236028 0.022205427 0.042433903 -0.004407615 0.10396203 -0.04861657
-0.06469531 -0.006839195 -0.06621231 -0.03058292 -0.023741676 -0.029939346 -0.020066915 0.025966072
0.022985902 -0.008480689 0.06342937 -0.030704793 0.014232038 -0.08354718 0.047024943 -0.06903141
0.12804781 0.0042694593 -0.06264601 -0.021012625 -0.07287193 -0.0012669396 -0.03380599 -0.031696454
-0.106669486 -0.038249016 -0.03604975 -0.029390782 0.03464999 -0.068891406 -0.049232766 -0.023675108
0.06725038 0.035597026 0.062676795 0.017017264 0.039777495 0.079830624 -0.009470371 -0.015796024
-0.014248688 0.08943284 -0.050602257 0.042048927 0.011288988 -0.13898864 0.008237586 -0.025639601
-0.092128545 0.05883129 0.028911598 0.083284706 -0.06121266 0.05043526 -0.050388534 -0.04309335
0.069215946 -0.04924979 0.0290297 -0.06060723 0.051981263 -0.056348644 -0.053536315 0.06900115
-0.041488454 0.04912893 0.032735627 0.011117695 -0.13880323 0.06406647 -0.004906077 -0.0778335
0.053671896 -0.011606246 0.014013332 0.01383865 -0.060383655 -0.034814194 0.06537477 0.027548695
0.06774851 0.112862214 0.06319272 -0.051851023 -0.021578064 0.044209916 -0.05023184 0.04102771
-0.1053042 0.013493173 -0.07774286 0.04048408 -0.041263327 -0.00039210735 0.024718184 -0.05897394
0.09742273 -0.01367835 0.01970534 -0.057508167 0.029960522 -0.011917622 -0.010182312 0.007516423
0.019290578 0.13590617 -0.00020070626 0.008852794 0.005563636 -0.041732784 -0.101380825 0.08544172
0.031941496 -0.0044832574 -0.0040383562 -0.015597824 0.07531836 -0.005542014 -0.02824926 -0.028168418
-0.052554533 0.05336879 0.057376143 0.032526217 -0.0006667401 -0.050912466 -0.036173183 0.10776667
-0.0633669 -0.0698581 -0.0030704248 -0.020092662 -0.083532445 -0.082333 0.09016622 0.054697867
0.06496934 0.0856431 0.009807001 -0.07912908 0.03715289 0.020975271 0.04331232 -0.07072106
-0.048479475 -0.010063531 0.03474267 0.02808467 -0.0667531 0.048537042 0.05760715 -0.1366709
-0.09446769 -0.09046071 -0.068638295 -0.022537816

model.net.layers.4.weight f4 [2, 164]
00000000: 680b 18be fddf 02bd 5877 a0bc a7df 90bb
00000010: a57d babc 7c82 68bd def1 6c3d 1c8a d0bb
00000020: 298d cd3c 44cf 76bd 0412 2cbc 1e4c af3d
00000030: 5475 1bbf 14c1 033e 2428 513d 338a 82bc
00000040: ff50 a4b8 9244 2f3d 4c8f 03bb 4aef 8dbd
00000050: 1836 6b3a cdf2 503d 2c8e 4b3d 2b30 823c
00000060: f8aa 26be 9edb d1bc 3cf5 4d3b 3925 b2bd
00000070: c682 423b 4593 813d d70e 5b3d 0321 723d
00000080: 75cd bf3c 3563 3dbc c6e3 a9bd bcb9 a3bd
00000090: 429c d13c d329 d83c f27d 823d 6f4e 82bb
000000a0: fa25 85be ffa1 043c 1deb 34ba 78fb 3e3c
000000b0: 9737 1b3e f5e5 4b3d d59b 573c 4d90 f5bb
000000c0: 0361 81bc dc62 233e 8f52 9c3e 1f5d b13d
000000d0: 0f4d 223b 28b7 943c b6dd 33bc f26a 3a3b
000000e0: 36cd 69bd b61c 833b 94f9 4e3e ef1e b63c
000000f0: f554 613d 3b32 0a3c 6c0b b43d 581c c4bc
00000100: fc42 a5bc 35c0 953c 889e 8fbc 5141 09bd
00000110: 2f91 90bd e152 3bbc e444 5ebc 4861 5b3e
00000120: ff3d 0dbd 4610 19bd c32b a43b 841c 7e3b
00000130: b952 95bd 2bed 213e 67a7 323d a6da 58bd
00000140: 0d99 243c fb61 afbc 312c a5bd b29a 973c
00000150: c144 82bd 2987 43be 4e1f 2fbd 9886 51bc
00000160: 1eeb d5bc c87d 09bf ecc8 2c3d 2b42 223c
00000170: 47fd d43c d70a 7fbd 0bc9 133d e3d2 0f3d
00000180: 69ba 063d d592 46bd bf7a 8c3d 8ecc 943c
00000190: 2917 45bd 741e 603e dd97 b2bb 52ef 2bbc
000001a0: 1bff 1f3f 2025 313d be1e 49be 8f64 bf3a
000001b0: 98ce 003c e8c2 68bd ed29 9e3c 1153 613d
000001c0: b5e0 0fbd 330b 4b3e c1f5 f3bc 220e ff3c
000001d0: 5ff9 c8bd 87f8 d13c 2444 bebc 0ecd 403e
000001e0: 626a 74bd 9d50 31bc ee1a cbbc 7b6e f2be
000001f0: 465f acbd c25a 66bc f698 1dbd 0e7f acbd
00000200: 44a1 933a 04cf c23d 71e8 193c f71c e23a
00000210: 5858 ae38 0877 9e3c fd21 073e b06f ddbe
00000220: 4c34 9fbb 8e1d 64bd 755b d93c bdcd 7dbd
00000230: df94 02bc a973 31bd d5a4 2bbf 8188 373c
00000240: c6fa 063c 3944 90bc fd4a ae3b 62e9 0cbe
00000250: 12e1 89bc 2aa1 62bd 9a51 eabb dd43 d23b
00000260: 4972 eabb f01c 273d 1052 3b3d 610d 3c3d
00000270: a61c 7e3d 1310 a0be 50cf d43c 3d5d 82bc
00000280: f1ac ba3d 7040 7d3d 264e 85bd 8b41 2f3d
00000290: 9f9b 5c3d f812 cd3c 5fc5 a13c c100 253c
000002a0: 4e92 7bbd 689f 1d3d f6d1 0d3d 6f3a a43c
000002b0: 92c2 cabc d12f f0bc 106c abbc 50e3 903d
000002c0: ea47 0fbf 1fcc 923e 1603 1bbe 20f8 98bd
000002d0: 0a5e 1dbd 2328 c13d 34bd 433c 71f8 0b3b
000002e0: 79f1 b3b8 7de6 81bd 568b 853c d7cc 373c
000002f0: b74c 483e 28ef 88bc 8c0c 143d 8da2 f6bd
00000300: d5c1 573c 8c86 82bc d9df 56bd 568c e23b
00000310: 7944 45bd 1106 cfbc a8aa 333b 1d1f 0abe
00000320: eb7c 20bc 571f 27bc 8f05 ea3b df3f 99bc
00000330: 479c d53d 9649 a93a 561d c239 40bc 2ebb
00000340: 9169 323d fcb4 c2bb c645 62bb 6c55 1dbd
00000350: cb71 ac3b 4094 2b3e 250f 773e d955 8b3d
00000360: 0216 dcba c8fd 60bc c847 fcbb 055d f8bb
00000370: 39b0 4a3d fbc7 373d 4b4c 9cbd 321a 58bd
00000380: 6caf 65bd 5c8b 8f3c bf3c b8bc 1889 19be
00000390: 800d 1b3c 8921 743b b0bb 313d 2a1c ab3c
000003a0: 838a 8dbd 4108 49bc 0f66 fdbc ca42 b0be
000003b0: 9628 6f3c 3284 0ebd 2a2f 233c 6955 31bd
000003c0: 8469 fd3c 3898 043e 0018 243d 0b0c 003b
000003d0: 6f69 91bb e281 dd3a 293f 353d d08f 673c
000003e0: c0ec 3c3c 069f f5be cdc6 333d de33 b2bc
000003f0: 1a40 3d3c 53b7 fe3e 6708 c3bc bc12 453d
-0.14848101 -0.031951893 -0.019588158 -0.0044211927 -0.02276499 -0.056765065 0.05784785 -0.00636412
0.025091724 -0.060256258 -0.010502342 0.0855944 -0.60725904 0.12866622 0.05106367 -0.01593504
-7.835216e-05 0.042790003 -0.0020074425 -0.069304064 0.0008972599 0.051012803 0.049696133 0.015892109
-0.16276157 -0.025617417 0.0031426689 -0.08698506 0.0029679998 0.063269176 0.05348095 0.059113514
0.0234134 -0.011559297 -0.082953975 -0.079944104 0.025587205 0.02638713 0.063716784 -0.003976635
-0.26005536 0.0080952635 -0.00069014897 0.0116566345 0.15157925 0.04977985 0.013159712 -0.0074940086
-0.01579333 0.1595568 0.30531737 0.086603396 0.0024765169 0.018153742 -0.010978153 0.0028445092
-0.05708047 0.0040012253 0.20212394 0.022231547 0.055012662 0.008434827 0.08791241 -0.023939297
-0.020173542 0.018280128 -0.017531648 -0.033509556 -0.070589416 -0.011433334 -0.0135662295 0.21423829
-0.034482952 -0.037369035 0.0050100996 0.003877432 -0.07291169 0.15813129 0.04361668 -0.052942894
0.010046256 -0.021409025 -0.080650695 0.018506382 -0.0636077 -0.19094528 -0.042754464 -0.012788437
-0.02611309 -0.5370755 0.0421838 0.009903471 0.025999678 -0.062266197 0.0360804 0.035113227
0.03289262 -0.048479874 0.068593495 0.018163946 -0.04811779 0.21886617 -0.0054502324 -0.01049407
0.62498635 0.043248296 -0.19640633 0.0014602112 0.007861756 -0.056826502 0.019307101 0.05501086
-0.035126407 0.19828491 -0.02978027 0.031134669 -0.09813189 0.025631202 -0.023225851 0.18828222
-0.059671767 -0.010822442 -0.024793115 -0.47349915 -0.084166095 -0.014059724 -0.038475953 -0.08422671
0.0011263271 0.09512141 0.009393797 0.0017251064 8.313422e-05 0.019343868 0.13196559 -0.43249273
-0.004858529 -0.055692248 0.026532868 -0.061963785 -0.007970064 -0.043323193 -0.6704839 0.011201979
0.0082385 -0.017610656 0.005318998 -0.13760903 -0.016830955 -0.05532948 -0.007150841 0.0064167813
-0.007154737 0.04079908 0.045732558 0.045911197 0.06203904 -0.31262264 0.02597776 -0.0159136
0.09115017 0.06182903 -0.06509046 0.042787116 0.05385935 0.025033459 0.019747434 0.0100709805
-0.061418824 0.0384821 0.034624062 0.020047395 -0.024750981 -0.029319676 -0.020925552 0.070746064
-0.5596911 0.28671357 -0.15137896 -0.07469201 -0.03841976 0.094314836 0.011946965 0.00213578
-8.580363e-05 -0.0634279 0.016301792 0.011218271 0.19560514 -0.016715601 0.036144778 -0.12042723
0.013168772 -0.015933298 -0.05245957 0.006913702 -0.048161004 -0.025271447 0.0027414951 -0.13488431
-0.009795408 -0.010200343 0.007141776 -0.018707214 0.10430198 0.0012915607 0.0003702442 -0.0026662499
0.043557707 -0.005941985 -0.0034526451 -0.038411543 0.0052625886 0.16755772 0.24126871 0.068034835
-0.0016791227 -0.013732381 -0.0076989867 -0.007579448 0.049484465 0.04486845 -0.07631739 -0.052759357
-0.0560755 0.017522506 -0.022489903 -0.14993703 0.009463668 0.0037251434 0.043391883 0.020887453
-0.06911185 -0.012270034 -0.030932454 -0.34425956 0.014597079 -0.03479404 0.009959975 -0.043294344
0.030934103 0.12948692 0.04006195 0.0019538428 -0.0044376175 0.001689967 0.044249687 0.014133409
0.011531055 -0.47972888 0.043890763 -0.021753248 0.011550928 0.4974924 -0.023807717 0.04811357

model.net.layers.4.bias f4 [2]
00000000: 6f68 20bd 43ce 19bd
-0.039162096 -0.037550222

exp_avg f4 [128, 1]
00000000: 9a7d 7f3a e45d 0337 1c57 a53a 7e3d 45ba
00000010: b209 e4b9 c083 3f3a 0000 0000 149e aeb9
00000020: cd64 93ba 0000 0000 3021 9f3a 4e24 76ba
00000030: 0000 0000 97d4 86bb 0000 0000 0000 0000
00000040: 77a3 04ba 47da b03a 0000 0000 0000 0000
00000050: 0000 0000 3391 ae3a 3d16 9b3a 0000 0000
00000060: 86d6 0a3a 9ec5 463a 2e7c 6ebb 0000 0000
00000070: 42e5 4abc 0000 0000 60db 3eb9 0000 0000
00000080: 0000 0000 0000 0000 5cf1 313a 6e11 853b
00000090: 29ba 313a 0000 0000 0000 0000 0a6b d938
000000a0: 0000 0000 f767 7e3a b7ec 8539 0000 0000
000000b0: fd6e 6aba ca15 1b3b f10a 68ba 0000 0000
000000c0: 0000 0000 fb33 f73a 0000 0000 0000 0000
000000d0: baae cd39 437d 4337 7483 a039 5cbc 433a
000000e0: fb38 df3a 0000 0000 0000 0000 b8d8 59b8
000000f0: f026 7a3a 0000 0000 8f51 0f3a 0000 0000
00000100: 0000 0000 0000 0000 0000 0000 6c0c 5239
00000110: 49ad 9e3a d3be 3cb9 037a 1202 a61b a63a
00000120: 3fe4 373a 5e82 00ba 28e2 1402 0a0d 84ba
00000130: 51dc 9e06 5543 093a bcb7 7339 0000 0000
00000140: 0000 0000 44e9 e53a c012 133a f8b3 3939
00000150: 7f2b 903b 5e76 993a 0000 0000 e237 ee36
00000160: 0095 d8ba 0000 0000 0000 0000 e61f 3239
00000170: 1273 ac39 0000 0000 f107 5e3a fefd 623a
00000180: e019 37ba 0000 0000 dee5 5e3a 0000 0000
00000190: 50a4 b2ba 0000 0000 90d8 b738 9561 963a
000001a0: 262d ddba 0fef 033a 0000 0000 0000 0000
000001b0: 04ff 3c3a 0000 0000 58cc 88b7 749f 6f3a
000001c0: 0000 0000 d02f 1202 0000 0000 b077 403a
000001d0: 0000 0000 e871 9139 0000 0000 0000 0000
000001e0: 0000 0000 1ca7 aa3a be2e ff38 0000 0000
000001f0: 14d6 6f39 90cf fabb 0000 0000 1b79 68ba
0.0009746194 7.830069e-06 0.0012614462 -0.00075241167 -0.00043494772 0.0007305704 0.0 -0.00033305644
-0.0011245251 0.0 0.0012140628 -0.0009389565 0.0 -0.004114698 0.0 0.0
-0.00050597586 0.0013492786 0.0 0.0 0.0 0.0013318419 0.0011832189 0.0
0.0005296249 0.0007582548 -0.0036389935 0.0 -0.012383761 0.0 -0.00018201536 0.0
0.0 0.0 0.00067879795 0.0040609157 0.0006779754 0.0 0.0 0.00010367304
0.0 0.0009704823 0.00025544103 0.0 -0.000894293 0.002366411 -0.0008851728 0.0
0.0 0.0018860096 0.0 0.0 0.00039230828 1.16520705e-05 0.00030615518 0.00074667274
0.0017030531 0.0 0.0 -5.1938667e-05 0.00095425453 0.0 0.000546717 0.0
0.0 0.0 0.0 0.00020031788 0.0012106086 -0.00018000165 1.0761402e-37 0.0012673035
0.00070149073 -0.0004902239 1.0938226e-37 -0.0010074687 5.975672e-35 0.00052361685 0.00023242732 0.0
0.0 0.0017540832 0.0005610399 0.00017710018 0.0043997164 0.001170825 0.0 7.0994583e-06
-0.0016523898 0.0 0.0 0.00016987286 0.0003289213 0.0 0.00084698113 0.00086590636
-0.00069847517 0.0 0.0008502881 0.0 -0.0013629291 0.0 8.766458e-05 0.0011473174
-0.0016874417 0.0005032876 0.0 0.0 0.0007209631 0.0 -1.6307618e-05 0.0009140887
0.0 1.0740107e-37 0.0 0.00073420536 0.0 0.00027741422 0.0 0.0
0.0 0.0013019773 0.00012168054 0.0 0.00022872566 -0.007654138 0.0 -0.0008868144

exp_avg_sq f4 [128, 1]
00000000: 5003 0c38 2bac c031 b947 4738 cc62 f838
00000010: c9c1 9e38 3ec9 0138 0000 0000 acaf da36
00000020: 394c c238 0000 0000 dd77 fc37 28a9 be38
00000030: 0000 0000 be97 283b 0000 0000 0000 0000
00000040: 5973 1d37 8e2b 8438 0000 0000 0000 0000
00000050: 0000 0000 a1fc ed38 7fd4 f937 0000 0000
00000060: 1cb3 c737 1377 0e38 c853 d43a 0000 0000
00000070: 1f3d f13c 0000 0000 159c 733b 0000 0000
00000080: 0000 0000 0000 0000 1cf3 9d3a 54a0 bf3a
00000090: 8202 3d37 0000 0000 0000 0000 5d5b b635
000000a0: 0000 0000 31da e937 9327 e937 0000 0000
000000b0: e2ff 5637 27e0 3d39 59a0 1539 0000 0000
000000c0: 0000 0000 f1a2 4239 0000 0000 0000 0000
000000d0: a3ed 5237 5c08 0732 0623 5737 3c1c 5d38
000000e0: ecee 6338 0000 0000 0000 0000 c706 c238
000000f0: b550 bd37 0000 0000 4427 2338 0000 0000
00000100: 0000 0000 0000 0000 0000 0000 f6ff 0939
00000110: e295 8838 d52f 7734 9b5b ad2e 64ee 1438
00000120: 099d ea37 3c60 5c39 1de6 102f b082 7e37
00000130: 7f31 8c30 87e1 ad36 41f6 4e39 0000 0000
00000140: 0000 0000 ea83 8039 89e5 7637 079f 2337
00000150: 198b 5e3a cf70 1139 0000 0000 dafc 1d32
00000160: 1541 0b3a 0000 0000 0000 0000 2e49 6737
00000170: def1 9c37 0000 0000 7b4b 8037 7acf 1038
00000180: a333 2439 0000 0000 fb3d d838 0000 0000
00000190: a7ba cf39 0000 0000 aba3 8d36 a04b e438
000001a0: 67f2 7f39 5541 a438 0000 0000 0000 0000
000001b0: f0ff 1037 0000 0000 b982 bb36 eea3 d937
000001c0: 0000 0000 1f15 5f29 0000 0000 107f 6f37
000001d0: 0000 0000 bbe3 c536 0000 0000 0000 0000
000001e0: 0000 0000 b32c 3339 9bb3 8c37 0000 0000
000001f0: e73a bc36 e365 013c 0000 0000 40df 1d39
3.3381686e-05 5.6075087e-09 4.7512094e-05 0.00011843964 7.5701224e-05 3.0943418e-05 0.0 6.517357e-06
9.2648384e-05 0.0 3.0096557e-05 9.091414e-05 0.0 0.002572521 0.0 0.0
9.384786e-06 6.302363e-05 0.0 0.0 0.0 0.000113480965 2.9782064e-05 0.0
2.3806053e-05 3.3966335e-05 0.0016199285 0.0 0.02944809 0.0 0.003717189 0.0
0.0 0.0 0.0012050602 0.0014619925 1.1265862e-05 0.0 0.0 1.3586647e-06
0.0 2.7877368e-05 2.7794193e-05 0.0 1.2814971e-05 0.00018107948 0.00014269481 0.0
0.0 0.00018561982 0.0 0.0 1.25723045e-05 7.859935e-09 1.2823153e-05 5.27168e-05
5.434353e-05 0.0 0.0 9.251903e-05 2.2568138e-05 0.0 3.8898797e-05 0.0
0.0 0.0 0.0 0.00013160691 6.512903e-05 2.3021069e-07 7.8834016e-11 3.550797e-05
2.7968099e-05 0.00021016685 1.3178476e-10 1.5170008e-05 1.0200408e-09 5.1820566e-06 0.00019737428 0.0
0.0 0.00024512346 1.4716185e-05 9.7525835e-06 0.0008489355 0.00013870302 0.0 9.1960946e-09
0.0005312127 0.0 0.0 1.3785711e-05 1.8709277e-05 0.0 1.5293937e-05 3.4525503e-05
0.00015659495 0.0 0.000103112274 0.0 0.00039621184 0.0 4.221181e-06 0.000108859735
0.00024408997 7.8322984e-05 0.0 0.0 8.642659e-06 0.0 5.5882524e-06 2.5944752e-05
0.0 4.9534267e-14 0.0 1.4275094e-05 0.0 5.897569e-06 0.0 0.0
0.0 0.00017087422 1.6772936e-05 0.0 5.6096937e-06 0.007897827 0.0 0.00015055854

exp_avg f4 [128]
00000000: 14c0 4039 007c f434 5585 5c39 b463 98b7
00000010: 844a ce37 e17c d539 0000 0000 0f9e b4b8
00000020: f6f1 bfb8 234e 1a37 209a 8d39 d482 08b9
00000030: 0000 0000 0418 d0b9 0000 0000 0000 0000
00000040: 24b8 cdb8 40c9 7a39 0000 0000 0000 0000
00000050: 0000 0000 f3b4 6e39 6091 7c39 0000 0000
00000060: c4e4 6239 dfaa e439 02bc d0b9 0000 0000
00000070: 2927 80ba 0000 0000 4fad af3a eec9 3636
00000080: 0000 0000 0000 0000 b65b 1138 8933 333a
00000090: e28e 1339 0000 0000 418d 68b8 971c 92b8
000000a0: 0000 0000 be02 7239 2f6a 0038 628e e7b7
000000b0: ba70 47b9 2033 ea39 dc6a bbb8 0000 0000
000000c0: 0000 0000 40a9 b139 ba84 1f02 b6a7 3cb8
000000d0: 016b d638 3ee8 2938 b483 7438 0290 0c39
000000e0: 93a7 443a 0000 0000 0000 0000 b45c 0439
000000f0: 34bd 3339 0000 0000 4c3d 6639 0000 0000
00000100: 0000 0000 83fd 4bb8 d2c4 1002 b65e 7939
00000110: 0aac 7839 8e39 13b9 2128 3bb7 960e 7539
00000120: a000 7439 c09f d238 eb12 a136 fc58 4ab9
00000130: 148c 6eb7 a276 2c39 2e62 7539 0000 0000
00000140: 1d53 eeb7 3c89 603a 8380 3539 fee9 6f38
00000150: 7787 e83a 5e71 4139 00cf 4ab8 e323 da37
00000160: d283 b8b8 0000 0000 0000 0000 b656 9d38
00000170: 284b 7238 0000 0000 4eaa 0f39 99c7 3d39
00000180: fd54 2fb8 0000 0000 ae52 f338 0000 0000
00000190: 9990 c3b8 0000 0000 c8e5 7937 e2c8 4e39
000001a0: 940b 66b9 621e a238 0000 0000 0000 0000
000001b0: 5c78 1239 0000 0000 0635 03b8 0c8a 3539
000001c0: 0000 0000 ee48 80b8 0000 0000 0664 1e39
000001d0: 0000 0000 44f7 fb37 0000 0000 0000 0000
000001e0: 0000 0000 f586 8839 e6e7 a638 0000 0000
000001f0: 465f 4838 a514 57ba 0000 0000 5cfe 97b8
0.00018382102 4.5538764e-07 0.00021030505 -1.816624e-05 2.4591813e-05 0.00040719568 0.0 -8.6125096e-05
-9.1526585e-05 9.197308e-06 0.00027008448 -0.00013018708 0.0 -0.00039690745 0.0 0.0
-9.8094606e-05 0.0002391683 0.0 0.0 0.0 0.00022764858 0.00024086749 0.0
0.00021638261 0.00043614858 -0.00039812928 0.0 -0.0009777296 0.0 0.001340309 2.7237652e-06
0.0 0.0 3.4656106e-05 0.00068359874 0.0001407224 0.0 -5.5444663e-05 -6.967148e-05
0.0 0.0002307994 3.061647e-05 -2.7603648e-05 -0.00019020113 0.0004467005 -8.936759e-05 0.0
0.0 0.00033886172 1.1719566e-37 -4.4978886e-05 0.00010224246 4.0509032e-05 5.829679e-05 0.00013405088
0.0007501777 0.0 0.0 0.00012623036 0.00017141254 0.0 0.00021957344 0.0
0.0 -4.8635073e-05 1.0635934e-37 0.00023781773 0.00023715213 -0.00014040453 -1.1155412e-05 0.00023370454
0.00023269886 0.00010043336 4.8003762e-06 -0.0001929737 -1.421852e-05 0.00016447392 0.00023401596 0.0
-2.8410514e-05 0.00085653714 0.0001730938 5.7199963e-05 0.0017740567 0.00018448147 -4.8353337e-05 2.6004336e-05
-8.798357e-05 0.0 0.0 7.5024946e-05 5.776729e-05 0.0 0.00013700986 0.000180988
-4.1802403e-05 0.0 0.00011602543 0.0 -9.325258e-05 0.0 1.4895057e-05 0.00019720526
-0.00021938822 7.730421e-05 0.0 0.0 0.00013968482 0.0 -3.1282216e-05 0.00017312932
0.0 -6.1171e-05 0.0 0.00015105316 0.0 3.0036674e-05 0.0 0.0
0.0 0.00026040492 7.958691e-05 0.0 4.7772446e-05 -0.00082046754 0.0 -7.247619e-05
