docs/smld/lightning_logs/version_120/checkpoints/epoch=49-step=4900.ckpt (torch, 344011 bytes, 18 tensors)

net.layers.0.weight f4 [164, 2]
-0.2416728 0.2958229 0.5215683 0.02823629 0.48908222 -0.13465166 -0.06925225 -0.6130585
-0.45133245 0.23272066 0.18932909 -0.03224028 -0.2907996 -0.12127522 -0.45435974 -0.5468995
-0.5544285 -0.4627407 -0.4481369 -0.6035208 -0.65999395 -0.09075565 0.54115725 0.22632147
0.37833878 0.38283408 -0.1349802 0.43171513 0.23468019 0.25282684 -0.09741666 0.04075248
0.012942114 -0.26328415 -0.4865139 -0.13562156 0.31925517 -0.19367792 -0.03950707 -0.50345635
-0.18969458 -0.4767182 -0.50409794 -0.55356574 0.5051573 -0.5766919 0.12874265 0.24921155
0.2045563 -0.12254358 0.35101247 -0.42621973 0.62533057 -0.44756874 -0.6108085 0.25526354
0.52316386 0.112211645 0.14861086 0.5359767 0.65038604 -0.107011 0.53657335 -0.16869488
-0.028796423 -0.05073002 -0.56718796 0.18791829 0.145145 0.23170894 -0.5282841 0.19695479
0.24808155 -0.2567126 -0.022552414 -0.26603845 0.3469471 -0.1939835 0.10814724 0.11904506
0.21408992 0.38056087 0.45044586 -0.33981243 0.4285689 -0.6453802 0.42811134 0.38801154
-0.17049615 0.28890464 0.22981673 0.06952429 -0.1658739 -0.087494686 0.47530234 0.576358
0.43828937 0.23912603 0.20663568 0.16341701 0.26468992 -0.5209042 0.6389122 0.56853914
-0.40323436 0.33802035 0.16130705 -0.08559175 0.16180204 -0.14574626 -0.30911675 -0.6625036
0.41418633 0.05464817 -0.32630324 -0.576458 -0.2680535 0.43213102 0.15613209 -0.24405885
0.19505148 0.16994716 0.25631937 -0.5670217 -0.09641668 0.3409774 0.48907992 0.05039861
0.2100148 -0.5413752 -0.4388579 0.44271877 -0.059254516 -0.0077980855 0.5301452 0.18339013
-0.16093528 -0.1738666 -0.39558607 0.5364562 -0.49825498 -0.48323673 -0.5282817 0.059627328
0.46771505 -0.19133714 -0.3681007 -0.062330876 0.23947293 0.445568 -0.5000315 -0.28669178
-0.2694444 -0.13419223 -0.54463315 0.3381761 0.32612073 0.15734372 0.54260623 -0.08438374
-0.6224605 0.5132774 -0.6204734 0.048683204 -0.47536147 0.05976052 0.07088749 -0.2630927
0.57541955 0.10128986 0.4904012 -0.1502953 0.16354822 -0.20109403 -0.2056092 0.45836508
-0.29344207 -0.3540247 -0.57226515 -0.119252615 0.3574788 0.1908157 -0.34403318 -0.27592778
0.35654753 -0.48995924 -0.35787928 -0.042546146 -0.05136911 0.6255306 0.107071765 -0.25263488
-0.17581543 -0.29263029 0.40010318 0.6026914 0.0795273 -0.60603344 -0.25687233 0.3860944
-0.1735081 -0.17065755 0.3429167 0.27140775 -0.10828621 0.14403476 0.11271989 -0.15300527
0.30761543 0.31705412 -0.5608609 -0.12989114 0.53037614 -0.32419556 -0.6007159 0.17440018
-0.6677095 0.5237007 0.17839554 0.33275315 0.27010903 -0.22382872 0.21843484 -0.32002935
0.26068455 0.6074908 -0.3108973 -0.2906618 0.14722554 -0.51366746 -0.65681595 0.4920366
-0.30173954 -0.45435473 -0.5036621 -0.6338853 0.063409574 0.31118038 -0.50351036 -0.3348744
0.045316335 0.55543196 -0.24559738 -0.6503856 0.53954446 0.1629106 -0.17598678 0.07759058
0.36734465 -0.21963328 -0.56195605 0.33116382 0.42804778 0.25048187 0.6202364 -0.6433158
00000000: 1379 77be 1976 973e 8085 053f cb4f e73c
00000010: fc68 fa3e 20e2 09be 20d4 8dbd 67f1 1cbf
00000020: 0c15 e7be 534e 6e3e 7cdf 413e 620e 04bd
00000030: afe3 94be 245f f8bd d7a1 e8be 9b01 0cbf
00000040: 07ef 0dbf 59ec ecbe 3372 e5be 5780 1abf
00000050: 5df5 28bf 19de b9bd 4889 0a3f d1c0 673e
00000060: 9fb5 c13e d402 c43e 4038 0abe c409 dd3e
00000070: 0150 703e 8572 813e 6382 c7bd 13ec 263d
00000080: 290b 543c 2ecd 86be 5a18 f9be 61e0 0abe
00000090: 6a75 a33e 8153 46be 2ad2 21bd 84e2 00bf
000000a0: 4c3f 42be 6814 f4be 900c 01bf 7cb6 0dbf
000000b0: fd51 013f 15a2 13bf 1dd5 033e 5031 7f3e
000000c0: 3577 513e 21f8 fabd e8b7 b33e 7939 dabe
000000d0: aa15 203f bb27 e5be f25d 1cbf e7b1 823e
000000e0: 11ee 053f 38cf e53d 722d 183e c535 093f
000000f0: b37f 263f 9528 dbbd df5c 093f 5abe 2cbe
00000100: 7ae6 ebbc 48ca 4fbd 3b33 11bf a76d 403e
00000110: e4a0 143e 1c45 6d3e a03d 07bf 84ae 493e
00000120: 1709 7e3e d56f 83be d7bf b8bc 3136 88be
00000130: 0da3 b13e 9ca3 46be 4d7c dd3d e5cd f33d
00000140: 633a 5b3e e0d8 c23e d7a0 e63e e5fb adbe
00000150: 626d db3e a337 25bf 6931 db3e 73a9 c63e
00000160: 8b96 2ebe 4feb 933e 1455 6b3e c062 8e3d
00000170: d9da 29be 6a30 b3bd d45a f33e 338c 133f
00000180: 7767 e03e 74dd 743e 4e98 533e ca56 273e
00000190: 7085 873e fa59 05bf c08f 233f c88b 113f
000001a0: bc74 cebe 0111 ad3e ad2d 253e ba4a afbd
000001b0: 6faf 253e 823e 15be 8d44 9ebe d699 29bf
000001c0: 3b10 d43e c2d6 5f3d 3811 a7be c092 13bf
000001d0: 4f3e 89be 4740 dd3e 17e1 1f3e 90ea 79be
000001e0: 93bb 473e a106 2e3e 4b3c 833e 5628 11bf
000001f0: 1c76 c5bd 9794 ae3e af68 fa3e c66e 4e3d
00000200: 1f0e 573e 9197 0abf fcb1 e0be 09ac e23e
00000210: ddb4 72bd 1587 ffbb 99b7 073f 9fca 3b3e
00000220: 38cc 24be 160a 32be 428a cabe 3255 093f
00000230: 471b ffbe ce6a f7be 783d 07bf c93b 743d
00000240: 5978 ef3e e2ed 43be b277 bcbe a94e 7fbd
00000250: 6438 753e 7d21 e43e 1002 00bf 44c9 92be
00000260: 9ef4 89be b069 09be 146d 0bbf 6b25 ad3e
00000270: 4cf9 a63e b61e 213e 3ee8 0a3f 62d1 acbd
00000280: 9259 1fbf 2666 033f 58d7 1ebf 0a68 473d
00000290: 9462 f3be 72c7 743d 762d 913d 16b4 86be
000002a0: b24e 133f 0f71 cf3d de15 fb3e 03e7 19be
000002b0: 2f79 273e 98eb 4dbe 388b 52be d4ae ea3e
000002c0: 0a3e 96be ba42 b5be f87f 12bf b73a f4bd
000002d0: 7607 b73e 3165 433e 1e25 b0be 6846 8dbe
000002e0: 668d b63e f0db fabe f43b b7be de44 2ebd
000002f0: 6a68 52bd c622 203f 7148 db3d 5c59 81be
00000300: f608 34be a3d3 95be 53da cc3e fc49 1a3f
00000310: 36df a23d 0225 1bbf c584 83be 2aae c53e
00000320: 1bac 31be dac0 2ebe c792 af3e f5f5 8a3e
00000330: 29c5 ddbd d97d 133e b0d9 e63d 6aad 1cbe
00000340: c57f 9d3e eb54 a23e 9494 0fbf 2f02 05be
00000350: bbc6 073f f6fc a5be 84c8 19bf f695 323e
00000360: 03ef 2abf 4011 063f 52ad 363e 9f5e aa3e
00000370: bb4b 8a3e 5b33 65be 62ad 5f3e e3da a3be
00000380: 7278 853e 8484 1b3f ee2d 9fbe a0d1 94be
00000390: 4bc2 163e b67f 03bf 1725 28bf 39ec fb3e
000003a0: 9b7d 9abe 2fa1 e8be 00f0 00bf 4f46 22bf
000003b0: e1dc 813d 0953 9f3e 0ee6 00bf a874 abbe
000003c0: 9f9d 393d ca30 0e3f e17d 7bbe ac7f 26bf
000003d0: 961f 0a3f 09d2 263e e135 34be cfe7 9e3d
000003e0: 9914 bc3e 8ce7 60be 5adc 0fbf 4e8e a93e
000003f0: 1429 db3e 293f 803e d0c7 1e3f 58b0 24bf

net.layers.0.bias f4 [164]
-1.0336761 -0.7338472 0.21097209 -0.87537736 -0.3762904 0.9316419 -0.68281054 0.90531874
-1.0043212 -1.1147954 -1.0872189 0.9604275 -1.6729504 0.29515713 1.1466748 1.3043618
-0.03714989 -0.6381827 -0.9620458 -0.25892317 0.9165966 0.93388337 -0.9274798 0.9901692
-0.88912123 1.0692781 -0.9159524 -0.7074219 0.41701007 -1.1507742 -0.8190822 -1.370505
1.010095 -0.7396409 0.6894706 -0.4288935 0.5485943 -0.65899557 -0.9208738 0.907944
-0.98678213 0.16859542 1.3085619 -1.1536766 0.7854297 -0.28089052 0.98279124 -1.5711149
-0.44529518 -1.0938704 -0.74670655 -1.117815 -0.14433031 -0.46588653 0.19710252 -0.87614167
1.2202752 -0.9542963 -0.93234336 -0.8867469 -0.35619044 -0.29888898 -0.9500315 0.63115007
-1.1021644 1.0297806 1.2344016 0.20651361 0.0069657145 0.91698414 -0.72853374 -0.7558955
0.57067025 -0.41470242 -0.78207546 -1.0255635 1.0303091 -1.0773023 -1.5153004 -1.1737999
0.920714 -0.10336935 -0.5637468 -0.73543054 0.83237106 -0.6575971 1.3397747 -0.10716491
-0.7860539 -0.20478347 -1.2167114 0.6312816 -1.278292 -0.84542626 -1.2152562 1.3943042
-0.6448067 -0.8664288 -1.1588597 0.8894314 0.7957534 1.0966295 1.2799597 0.0023782512
0.7997383 0.47632864 0.016418753 0.8261602 -1.037839 0.669023 -1.191115 -1.0824815
0.33008087 -0.6809132 0.20407067 0.9597501 -0.09317593 -0.974024 -1.1007531 -0.87811494
-0.22652707 -1.037589 0.19232959 -0.21011782 -1.2697663 0.42380214 1.029405 0.82260007
-0.3177424 -0.91286737 0.73081213 -0.79237604 0.49261153 0.8545516 -0.98763216 0.8197667
1.399351 0.64250684 -0.82867616 0.5600599 -1.0513124 -0.63108474 0.82467043 -0.82607204
1.230394 0.9550317 -0.5489861 0.34395206 -1.0497969 0.9229674 1.3896254 -1.0062522
1.357677 0.9555161 0.83827037 0.22794676 -1.518268 -0.066802844 1.0919415 -0.69588995
0.6869982 0.18326806 -0.9424195 1.1064328
00000000: 804f 84bf 69dd 3bbf 1109 583e bb18 60bf
00000010: 23a9 c0be 1580 6e3f accc 2ebf f8c2 673f
00000020: 998d 80bf 9eb1 8ebf fd29 8bbf 94de 753f
00000030: 3d23 d6bf d61e 973e 3dc6 923f 54f5 a63f
00000040: 7c2a 18bd f15f 23bf a248 76bf 9491 84be
00000050: 13a6 6a3f fb12 6f3f 516f 6dbf bb7b 7d3f
00000060: 739d 63bf 1bde 883f db7b 6abf 9a19 35bf
00000070: 5882 d53e 924c 93bf 5faf 51bf b56c afbf
00000080: cb4a 813f 1b59 3dbf 2581 303f ee97 dbbe
00000090: ad70 0c3f efb3 28bf 63be 6bbf 056f 683f
000000a0: c19d 7cbf 47a4 2c3e f57e a73f adab 93bf
000000b0: ec11 493f e2d0 8fbe 3598 7b3f 4b1a c9bf
000000c0: bbfd e3be f203 8cbf 2928 3fbf 9014 8fbf
000000d0: 53cb 13be ae88 eebe 3ed5 493e d24a 60bf
000000e0: fa31 9c3f c34c 74bf 0eae 6ebf d801 63bf
000000f0: 985e b6be fa07 99be 4435 73bf 0d93 213f
00000100: b913 8dbf dacf 833f df00 9e3f 4e78 533e
00000110: a640 e43b 79bf 6a3f 3081 3abf 5e82 41bf
00000120: 7217 123f e053 d4be 1936 48bf aa45 83bf
00000130: 2be1 833f 0be5 89bf 5df5 c1bf 133f 96bf
00000140: eab3 6b3f 4fb3 d3bd b651 10bf 2d45 3cbf
00000150: 4516 553f 4958 28bf bd7d ab3f 4779 dbbd
00000160: d43a 49bf c2b2 51be 33bd 9bbf ac9b 213f
00000170: 129f a3bf db6d 58bf 848d 9bbf 8f78 b23f
00000180: 0d12 25bf 47ce 5dbf 8455 94bf c7b1 633f
00000190: 7fb6 4b3f 5b5e 8c3f b8d5 a33f 6fdc 1b3b
000001a0: a6bb 4c3f 59e1 f33e 9f80 863c 3c7f 533f
000001b0: e9d7 84bf 1745 2b3f 7576 98bf c18e 8abf
000001c0: 5c00 a93e 5450 2ebf e7f7 503e 2fb2 753f
000001d0: 06d3 bebd a359 79bf 7ae5 8cbf 24cc 60bf
000001e0: b6f6 67be b7cf 84bf 0cf2 443e 2029 57be
000001f0: b487 a2bf 98fc d83e 8bc3 833f eb95 523f
00000200: 22af a2be adb1 69bf 8116 3b3f 28d9 4abf
00000210: 9437 fc3e e5c3 5a3f 76d5 7cbf 3bdc 513f
00000220: ef1d b33f 547b 243f 1f24 54bf 1660 0f3f
00000230: 6891 86bf c58e 21bf 9a1d 533f 7579 53bf
00000240: 8d7d 9d3f f57c 743f 5a8a 0cbf 7c1a b03e
00000250: bf5f 86bf 9747 6c3f 3fdf b13f dfcc 80bf
00000260: 5cc8 ad3f b49c 743f e398 563f e06a 693e
00000270: 9b56 c2bf eecf 88bd bdc4 8b3f d825 32bf
00000280: 1ddf 2f3f 9faa 3b3e 6842 71bf 979f 8d3f

net.layers.2.weight f4 [164, 164]
-0.08263487 -0.07927634 0.03575686 -0.027590772 0.028918292 -0.3496311 0.037065554 0.013222149
-0.07433341 -0.005097612 -0.04515246 0.0007652461 -0.03578299 -0.01639142 0.059150144 0.026063235
0.07180282 -0.017930958 -0.099127784 0.09917427 0.033414792 0.013474968 -0.10088017 0.0226794
-0.035460714 0.022452012 -0.10410388 0.03175683 -0.21619886 -0.041949343 -0.003053922 0.01376561
0.098534085 0.025032977 -0.028374387 0.039362147 -0.12573394 -0.093550324 0.02611839 0.059304085
0.029488618 -0.10942673 0.06400835 0.035933305 -0.03451939 -0.023248432 0.0433406 -0.029643023
-0.072141655 -0.023298321 -0.009425833 -0.05018272 -0.038853914 -0.13477397 0.023192754 0.01837196
-0.06763525 -0.04493093 -0.07662513 -0.17711188 0.0120095955 0.006222301 0.053879388 -0.19400105
-0.06602701 0.028211309 -0.012181193 -0.05284179 -0.016252635 0.030413399 -0.039830457 -0.056234684
-0.30892307 -0.03471702 0.046526838 -0.06033393 0.050778393 0.022079615 0.21193759 0.03373556
-0.004511879 0.017391732 -0.003125502 0.0631394 -0.25534958 -0.029347673 0.20545818 -0.06520559
-0.053504515 -0.07066084 -0.18933575 0.07086509 -0.06260743 -0.02231994 -0.030327598 0.20476715
0.034283318 0.03151033 -0.08629427 0.035840046 0.13439094 0.05521387 0.020668102 -0.022261025
0.027317245 -0.005247745 -0.21053343 0.06488591 0.047768805 -0.018861594 -0.048438307 -0.18583801
0.059395164 -0.06618916 -0.01820797 0.05246478 0.009191492 -0.07487298 0.0043194275 0.013046241
0.0728507 -0.05857298 -0.18166554 -0.0059899515 -0.05900162 -0.024624532 0.032104906 -0.012342698
-0.068054184 0.0002530943 -0.04967195 -0.049060766 0.05680196 0.0103477705 -0.18821856 0.01667674
-0.6903664 0.054369207 -0.01378971 -0.048423268 0.0004921855 0.00049783924 0.013235225 -0.0039421935
-0.5126194 0.17641836 -0.19917516 -0.054875363 0.02009296 0.15254782 -0.55588675 -0.08025544
-0.53738844 0.07543681 0.05066894 -0.065838754 -0.04472366 0.06938563 0.02288784 -0.052326497
-0.08191809 0.045961034 -0.021071851 0.054422367 0.0667215 -0.012903958 -0.05697362 0.02470413
-0.007850333 -0.06658403 -0.0208839 -0.022516442 0.05846997 -0.016771141 -0.04177684 -0.0018611095
-0.07064839 -0.021935003 -0.053277444 0.06275558 -0.05400982 -0.029339459 0.009467111 0.007413791
-0.07054405 -0.026012924 -0.07273811 0.027561715 -0.020481998 0.007894606 0.040208224 -0.06435935
-0.07039443 -0.07041842 -0.08054691 -0.057056624 0.064176075 -0.000554778 -0.02041155 -0.04176327
-0.050407756 -0.06104147 -0.064572245 -0.011574068 0.043241557 0.020996707 0.014744239 0.015837036
-0.032223035 -0.031505223 -0.055821817 0.038234822 0.05384094 -0.080466345 0.04526877 0.013187446
0.01631199 -0.04304548 0.06656418 -0.082026824 -0.04149448 -0.01943128 -0.01667797 0.038056046
-0.030539028 -0.0052869855 -0.022064047 0.06510082 -0.053399954 0.052230556 0.0041475166 0.016236825
0.04463301 -0.053505775 0.05309142 -0.024529934 0.06315805 -0.06856968 -0.045119163 -0.07449602
0.056451757 0.051357042 0.050269697 -0.033142168 -0.050916854 0.047783833 0.0070563303 0.010465484
0.012487376 0.068726495 0.046498556 0.03800921 0.06108115 -0.052840184 0.06296011 -0.028609572
00000000: 793c a9bd a25b a2bd c975 123d 0b06 e2bc
00000010: 0ee6 ec3c d902 b3be 0dd2 173d b6a1 583c
00000020: 1d3c 98bd de09 a7bb c9f1 38bd cc9a 483a
00000030: 2f91 12bd 4d47 86bc 6c47 723d 9182 d53c
00000040: 5b0d 933d f2e3 92bc 8203 cbbd e11b cb3d
00000050: f3dd 083d 1dc6 5c3c 439a cebd 26ca b93c
00000060: 413f 11bd 48ed b73c 6a34 d5bd 7313 023d
00000070: 3c63 5dbe 13d3 2bbd 4f24 48bb 2789 613c
00000080: 3dcc c93d f511 cd3c 6771 e8bc 343a 213d
00000090: 66c0 00be 5097 bfbd 3cf6 d53c d7e8 723d
000000a0: 1d92 f13c 1f1b e0bd cf16 833d cd2e 133d
000000b0: 3464 0dbd 7f73 bebc ea85 313d edd5 f2bc
000000c0: 01bf 93bd 1fdc bebc cf6e 1abc 658c 4dbd
000000d0: 4825 1fbd 3002 0abe bbfe bd3c cb80 963c
000000e0: 5a84 8abd 7f09 38bd a3ed 9cbd d15c 35be
000000f0: e5c3 443c 72e4 cb3b a2b0 5c3d 36a8 46be
00000100: 2b39 87bd 671b e73c a093 47bc a270 58bd
00000110: 3f24 85bc 8525 f93c 4325 23bd 5756 66bd
00000120: 2a2b 9ebe 6f33 0ebd ed92 3e3d b620 77bd
00000130: 01fd 4f3d 4fe0 b43c 2b06 593e 4c2e 0a3d
00000140: 62d8 93bb 1b79 8e3c 39d5 4cbb 3b4f 813d
00000150: 2ebd 82be 886a f0bc a163 523e 828a 85bd
00000160: 8d27 5bbd a1b6 90bd 3be1 41be b721 913d
00000170: 5338 80bd 4fd8 b6bc 9571 f8bc 7bae 513e
00000180: aa6c 0c3d fa10 013d 0dbb b0bd 03cd 123d
00000190: c79d 093e f027 623d 2750 a93c c15c b6bc
000001a0: 6ac8 df3c 47f5 abbb 1396 57be e7e2 843d
000001b0: 39a9 433d a183 9abc 3f67 46bd 524c 3ebe
000001c0: 5848 733d 2f8e 87bd e128 95bc 4fe5 563d
000001d0: e997 163c 0157 99bd fc89 8d3b e7bf 553c
000001e0: bf32 953d 39ea 6fbd 8806 3abe 5b47 c4bb
000001f0: afab 71bd 63b9 c9bc 6f80 033d 0739 4abc
00000200: fe5f 8bbd beb1 8439 d174 4bbd f1f3 48bd
00000210: 2ca9 683d b289 293c 5ebc 40be a99d 883c
00000220: dabb 30bf 3fb2 5e3d 3cee 61bc 7a57 46bd
00000230: 0306 013a 6d81 023a 8fd8 583c 842d 81bb
00000240: 063b 03bf 04a7 343e 93f4 4bbe fdc4 60bd
00000250: fe99 a43c 7f35 1c3e 984e 0ebf f75c a4bd
00000260: 4a92 09bf 9d7e 9a3d 3c8a 4f3d 78d6 86bd
00000270: 2830 37bd 0e1a 8e3d 487f bb3c 4f54 56bd
00000280: acc4 a7bd a341 3c3d e09e acbc fde9 5e3d
00000290: 48a5 883d 1f6b 53bc 2c5d 69bd 5160 ca3c
000002a0: af9e 00bc 355d 88bd b614 abbc 6774 b8bc
000002b0: 357e 6f3d a263 89bc 311e 2bbd 79f0 f3ba
000002c0: 1ab0 90bd 09b1 b3bc 7339 5abd ff85 803d
000002d0: 6739 5dbd 4e59 f0bc f11b 1b3c 63ef f23b
000002e0: 6679 90bd 0e19 d5bc b8f7 94bd 1bc9 e13c
000002f0: ddc9 a7bc 6158 013c 61b1 243d d6ce 83bd
00000300: f42a 90bd 8837 90bd c7f5 a4bd 35b4 69bd
00000310: bf6e 833d 856e 11ba 1f36 a7bc f60f 2bbd
00000320: 5d78 4ebd 9f06 7abd 743e 84bd 29a1 3dbc
00000330: 0f1e 313d 4901 ac3c d291 713c acbc 813c
00000340: 4dfc 03bd 9f0b 01bd 6ba5 64bd 1e9c 1c3d
00000350: 5188 5c3d 8acb a4bd bf6b 393d 2810 583c
00000360: b9a0 853c 7550 30bd cd52 883d aefd a7bd
00000370: 1ef6 29bd 592e 9fbc 3da0 88bc a8e0 1b3d
00000380: fc2c fabc 733e adbb a9bf b4bc 9453 853d
00000390: e9b9 5abd b5ef 553d e4e7 873b 1703 853c
000003a0: 1ad1 363d df28 5bbd 6476 593d 00f3 c8bc
000003b0: 0259 813d 436e 8cbd dfce 38bd 5f91 98bd
000003c0: f539 673d c35b 523d 99e7 4d3d 15c0 07bd
000003d0: 318e 50bd fbb8 433d ca38 e73b 6c77 2b3c
000003e0: da97 4c3c 7ac0 8c3d 4575 3e3d 8caf 1b3d
000003f0: 3a30 7a3d f36e 58bd 3bf1 803d 9f5e eabc

net.layers.2.bias f4 [164]
0.10877014 -0.040647745 -0.20186114 -0.04715023 0.07375674 0.032202404 -0.053413253 -0.007981093
0.1721856 -0.47577262 -0.04147912 0.2615592 -0.275074 0.11522098 0.22173174 0.01893811
0.18539518 -0.39269277 -0.046688095 0.12848836 0.055749554 -0.0010024866 0.029905058 -0.113874294
-0.030073537 -0.15949777 -0.071945235 0.031919047 -0.033904877 0.25863287 -0.15663324 0.116270155
-0.15770201 -0.21531618 -0.085197 0.22002575 0.048362456 0.32604352 0.0323884 0.016737161
0.02624876 0.13816819 0.048180964 0.05534537 0.383255 -0.0023952553 -0.10708805 -0.01825608
0.24018927 -0.017953254 0.22503635 0.1661684 0.07701358 0.25446516 -0.046267938 0.17123166
-0.058197994 0.15172501 -0.30353165 -0.07217938 -0.03855562 0.23059207 0.021667894 0.21727358
0.1161174 -0.16457616 0.013093066 -0.10584666 -0.21972026 -0.04606306 0.1247611 -0.070208885
0.0052495287 0.08045551 -0.024192581 -0.036116906 -0.19097888 -0.05562112 0.46951932 0.0050214496
-0.07717216 -0.35153845 -0.04380065 -0.010489905 0.5086525 -0.061892223 -0.010768101 -0.43558806
-0.04196718 -0.14626077 -0.24085522 0.031482857 -0.047492865 -0.20608886 -0.01839335 0.054527946
0.093065485 -0.17567046 0.11077825 0.1447247 -0.08174516 0.09254416 -0.1291417 0.040657878
0.0122740995 -0.009776522 -0.033337556 0.035796676 -0.0060133864 0.062573105 -0.07289791 0.12541027
-0.027495222 -0.046799168 0.2745682 0.16805257 -0.29210657 0.06266609 -0.09034039 -0.34299126
-0.13528597 -0.12806623 -0.011176261 0.020941501 -0.034646567 -0.37189472 0.43239802 0.22044481
0.08020343 0.003540887 0.13215563 0.32687172 0.1868537 0.080431685 0.05982156 0.16955487
-0.1639747 0.15461037 -0.098510236 -0.23227146 0.32503286 0.063263014 -0.16945122 0.26419178
0.040500473 -0.10905529 0.14189853 -0.35027334 0.04696751 -0.017926252 0.33235875 -0.4093687
-0.08062671 0.19165964 -0.11910931 0.011278773 0.04646722 -0.06083937 -0.03385307 0.018400224
-0.023219047 -0.006917711 -0.007292403 -0.3542288
00000000: e1c2 de3d 407e 26bd b0b4 4ebe 9920 41bd
00000010: c60d 973d abe6 033d dbc7 5abd 21c3 02bc
00000020: 6c51 303e 7898 f3be 02e6 29bd 16eb 853e
00000030: 80d6 8cbe faf8 eb3d a50d 633e 1824 9b3c
00000040: 3cd8 3d3e 070f c9be 043c 3fbd 7492 033e
00000050: a559 643d de65 83ba 74fb f43c ed36 e9bd
00000060: c75c f6bc 6253 23be 0658 93bd 8cbd 023d
00000070: d7df 0abd 876b 843e 7764 20be 0c1f ee3d
00000080: a37c 21be d87b 5cbe c47b aebd 6e4e 613e
00000090: b617 463d 2def a63e b3a9 043d 5f1c 893c
000000a0: a407 d73c f67b 0d3e 6759 453d d4b1 623d
000000b0: 003a c43e b7f9 1cbb fb50 dbbd c68d 95bc
000000c0: 2df4 753e b412 93bc ee6f 663e 0d28 2a3e
000000d0: 4cb9 9d3d 4249 823e 7383 3dbd 5a57 2f3e
000000e0: 0561 6ebd cd5d 1b3e 8068 9bbe c8d2 93bd
000000f0: 7fec 1dbd 5420 6c3e de80 b13c f77c 5e3e
00000100: f6ce ed3d a786 28be 4d84 563c 22c6 d8bd
00000110: 59fe 60be 9fac 3cbd bf82 ff3d adc9 8fbd
00000120: 3d04 ac3b dcc5 a43d 852f c6bc 52ef 13bd
00000130: f88f 43be f9d2 63bd d664 f03e f98a a43b
00000140: 700c 9ebd d9fc b3be 4f68 33bd dadd 2bbc
00000150: 0d37 023f b382 7dbd b06c 30bc 6605 dfbe
00000160: c7e5 2bbd 62c5 15be c0a2 76be 2bf4 003d
00000170: e187 42bd f508 53be a7ad 96bc b258 5f3d
00000180: 1e99 be3d f5e2 33be b5df e23d b632 143e
00000190: 026a a7bd cb87 bd3d b93d 04be e088 263d
000001a0: 4e19 493c b52d 20bc f68c 08bd 899f 123d
000001b0: f10b c5bb 5426 803d 804b 95bd 8d6b 003e
000001c0: a93d e1bc 7cb0 3fbd 3494 8c3e f915 2c3e
000001d0: fe8e 95be 1457 803d 6204 b9bd 8d9c afbe
000001e0: 6888 0abe cb23 03be a31c 37bc 838d ab3c
000001f0: 8fe9 0dbd fc68 bebe 4663 dd3e 49bc 613e
00000200: b241 a43d 3a0e 683b ce53 073e bb5b a73e
00000210: 9456 3f3e 5eb9 a43d 7407 753d cb9f 2d3e
00000220: fce8 27be 2e52 1e3e bcbf c9bd 92d8 6dbe
00000230: b56a a63e 0a90 813d 9f84 2dbe 2544 873e
00000240: d3e3 253d 6158 dfbd d94d 113e 0757 b3be
00000250: 0161 403d 13da 92bc ed2a aa3e c698 d1be
00000260: 9e1f a5bd 6d42 443e 95ef f3bd 9aca 383c
00000270: 6954 3e3d b432 79bd 84a9 0abd 11bc 963c
00000280: df35 bebc f7ad e2bb 1cf5 eebb 7a5d b5be

net.layers.4.weight f4 [2, 164]
-0.05301547 -0.019874794 0.052396074 0.026083283 -0.077265434 0.0030423051 0.019326085 0.013182318
-0.09385148 -0.64615923 -0.0017073909 -0.05891115 0.03253598 0.0652545 -0.04609071 -0.0055727176
-0.019241352 -0.33810735 -0.017893903 0.005816447 -0.030053755 -0.028976494 -0.030230202 0.0204281
0.027961524 0.020589823 -0.00025625582 0.0026627185 0.0026503261 -0.20161052 0.1071725 0.010727132
0.027470123 0.06198018 -0.031959575 -0.03869324 -0.00041017286 -0.1600923 -0.017372353 0.02803441
0.03677461 -0.008581318 -0.050210413 0.047091745 0.2578477 -0.054664403 -0.018615259 -0.0022070191
-0.1246796 0.052471876 -0.09150453 -0.022233244 -0.03130444 0.28252956 0.07045284 -0.022016574
0.025242295 -0.07653093 0.09755377 0.0150746545 -0.042376667 -0.027648509 0.006762751 0.0012862757
-0.060741547 -0.009595879 0.05200942 -0.02106324 -0.01354917 0.011652282 -0.09272694 0.012305111
-0.061199408 0.08764698 0.017384088 0.012230244 0.0050789947 0.01638511 -0.47967947 -0.022466173
-0.002675019 0.1825665 -0.05663669 0.03197655 -0.68043584 0.021118926 -0.02031553 -0.24589473
-0.046298504 0.009797262 0.036311317 0.055976827 -0.0022308934 0.06393151 -0.06416112 0.004888611
-0.06827937 -0.047962748 0.14134541 0.0634565 -0.018278128 -0.049754433 -0.01146744 0.010596878
-0.0036077783 0.026604783 0.071801744 0.013485879 -0.0028356893 0.09793891 0.0015985784 -0.03295227
-0.012763142 0.00848404 -0.027613034 0.05597786 0.04411934 -0.0037560835 -0.027546478 0.19722722
-0.047331944 0.0052282996 0.037810452 -0.047497686 0.06592145 -0.04049626 0.8644238 -0.031272575
-0.008995498 -0.005720627 -0.031592526 -0.21540152 -0.033007912 -0.05048621 0.030730948 0.11922962
-0.0124079 -0.06034241 0.067814685 0.18688035 0.09066027 0.058315165 0.07052823 0.16680083
-0.07084462 -0.015365355 -0.060823046 0.23292483 0.041731216 -0.008220673 0.5040024 -0.044255506
0.07307484 -0.013258718 0.014740057 -0.010478632 0.00026322083 0.009689076 0.030421238 -0.025845073
-0.032770645 -0.026049117 0.042760924 -0.0007019957 -0.018516647 0.03700403 -0.07425664 -0.036498975
-0.0036731712 -0.017136501 0.01584308 0.0071773725 0.0847425 0.0829441 0.010376657 0.011884735
0.047847375 -0.08412183 -0.03792828 0.0021825612 0.061573662 -0.5513987 0.03917787 -0.005950481
0.026003506 -0.008747344 -0.05201708 0.07978309 0.039100204 -0.07025913 0.003541474 -0.0023353319
-0.0023198777 0.07192485 0.04055556 0.016854709 0.00012886987 0.026633224 0.0370903 0.27859393
0.015775343 0.044275794 -0.014648813 0.06355957 0.036300555 -0.036902383 -0.00970578 0.050424784
0.34773114 0.05651058 0.0337384 -0.0035890236 0.106107496 0.034941133 -0.14047258 0.035416994
-0.033315722 0.4829005 0.036481004 0.026480597 0.015830921 0.07385385 0.14571445 0.009246065
-0.02415431 -0.30519667 -0.034444537 0.14409763 -0.051591802 -0.08147165 0.034340303 -0.02285366
-0.0659248 0.033274673 -0.15384157 0.029854925 -0.02502666 0.22219773 0.017561946 0.033238158
-0.002346488 -0.011647342 -0.3534517 0.016014988 -0.057855126 0.3672385 -0.032983776 -0.01112934
0.6776863 -0.02102636 0.028102003 0.27444112 -0.036436394 -0.024300488 0.10225552 -0.045310847
00000000: c026 59bd 77d0 a2bc 449d 563d 9cac d53c
00000010: 573d 9ebd 6961 473b bd51 9e3c a6fa 573c
00000020: 3435 c0bd b16a 25bf 88ca dfba d14c 71bd
00000030: 7344 053d 27a4 853d 9dc9 3cbd 589b b6bb
00000040: 0aa0 9dbc 681c adbe 3c96 92bc e597 be3b
00000050: 4b33 f6bc 1d60 edbc 54a5 f7bc d558 a73c
00000060: 910f e53c fdab a83c 135a 86b9 0181 2e3b
00000070: 18b1 2d3b fd72 4ebe 417d db3d dac0 2f3c
00000080: 0609 e13c eede 7d3d 0be8 02bd ce7c 1ebd
00000090: 780c d7b9 3cef 23be 7750 8ebc 6ba8 e53c
000000a0: f9a0 163d a898 0cbc 6fa9 4dbd 46e3 403d
000000b0: 9d04 843e c8e7 5fbd 077f 98bc a3a3 10bb
000000c0: 0558 ffbd c0ec 563d ba66 bbbd 7e22 b6bc
000000d0: 1639 00bd b7a7 903e 9449 903d 1a5c b4bc
000000e0: eec8 ce3c 40bc 9cbd 45ca c73d affb 763c
000000f0: 2893 2dbd 207f e2bc 119a dd3b 4098 a83a
00000100: 21cc 78bd 0938 1dbc d407 553d d18c acbc
00000110: 57fd 5dbc 37e9 3e3c 9fe7 bdbd 609b 493c
00000120: 3bac 7abd 4380 b33d 1369 8e3c 5d61 483c
00000130: b26d a63b 113a 863c 8c98 f5be fb0a b8bc
00000140: 5f4f 2fbb b6f2 3a3e e0fb 67bd d8f9 023d
00000150: 0b31 2ebf 9901 ad3c c16c a6bc d4cb 7bbe
00000160: 80a3 3dbd b284 203c 2dbb 143d f547 653d
00000170: 2e34 12bb 86ee 823d e866 83bd a430 a03b
00000180: 0ed6 8bbd 9674 44bd dabc 103e 7bf5 813d
00000190: 03bc 95bc 4ecb 4bbd eee1 3bbc 879e 2d3c
000001a0: 7a70 6cbb 46f2 d93c cb0c 933d e0f3 5c3c
000001b0: f9d6 39bb 3294 c83d 6487 d13a f6f8 06bd
000001c0: 7f1c 51bc a500 0b3c bb34 e2bc 0a49 653d
000001d0: 7bb6 343d a028 76bb 27a9 e1bc eff5 493e
000001e0: 24df 41bd 2852 ab3b 22df 1a3d ef8c 42bd
000001f0: d301 873d 68df 25bd e14a 5d3f ac17 00bd
00000200: da61 13bc 1974 bbbb 2a67 01bd 3792 5cbe
00000210: 4e33 07bd a1ca 4ebd 78bf fb3c a92e f43d
00000220: 814a 4bbc 9a29 77bd 6de2 8a3d 905d 3f3e
00000230: 17ac b93d e2db 6e3d 1b71 903d d6cd 2a3e
00000240: fc16 91bd f8be 7bbc 9621 79bd d983 6e3e
00000250: 5aee 2a3d 00b0 06bc 4d06 013f 4345 35bd
00000260: 43a8 953d 183b 59bc 4880 713c 91ae 2bbc
00000270: e700 8a39 eebe 1e3c f635 f93c 0cb9 d3bc
00000280: 833a 06bd f564 d5bc 1426 2f3d 2206 38ba
00000290: 39b0 97bc 8a91 173d de13 98bd f37f 15bd
000002a0: 96b9 70bb d961 8cbc 59c9 813c 2a30 eb3b
000002b0: 7a8d ad3d 99de a93d db02 2a3c 31b8 423c
000002c0: 9cfb 433d 1148 acbd af5a 1bbd 4d09 0f3b
000002d0: aa34 7c3d 7728 0dbf f978 203d 41fc c2bb
000002e0: 4e05 d53c 0551 0fbc dd0f 55bd 5165 a33d
000002f0: 8927 203d 05e4 8fbd 1318 683b 5e0c 19bb
00000300: 1709 18bb 564d 933d 961d 263d e312 8a3c
00000310: 3e21 0739 eb2d da3c 00ec 173d dda3 8e3e
00000320: 4b3b 813c 895a 353d 9301 70bc 852b 823d
00000330: e4af 143d f426 17bd fe04 1fbc 388a 4e3d
00000340: d109 b23e a377 673d 4731 0a3d d335 6bbb
00000350: e34e d93d 6f1e 0f3d 0bd8 0fbe 6911 113d
00000360: 1176 08bd bc3e f73e 1b6d 153d d6ed d83c
00000370: d9af 813c b040 973d 2b36 153e cf7c 173c
00000380: 42df c5bc bd42 9cbe b715 0dbd 548e 133e
00000390: ed51 53bd 9cda a6bd 6ba8 0c3d 9937 bbbc
000003a0: 9503 87bd 064b 083d a588 1dbe 5192 f43c
000003b0: b604 cdbc cd87 633e 12de 8f3c bc24 083d
000003c0: 89c7 19bb 7ed4 3ebc 9ff7 b4be dd31 833c
000003d0: 7ff9 6cbd af06 bc3e ff19 07bd d657 36bc
000003e0: d97c 2d3f 793f acbc 2c36 e63c 8c83 8c3e
000003f0: 543e 15bd d111 c7bc 586b d13d de97 39bd

net.layers.4.bias f4 [2]
0.0449293 -0.05684003
00000000: c907 383d 17d1 68bd

exp_avg f4 [164, 2]
0.004982044 0.0011119612 0.0015046232 0.0011933339 -0.00025126647 -0.0013077956 6.626382e-05 -0.0001919883
2.4678011e-05 0.00013873761 0.0008312378 -0.0019534784 8.808181e-05 -0.00017332114 0.00016112227 0.00065246463
-1.6922466e-05 -0.0005929263 5.3805066e-05 -0.00050024135 0.0004273454 -0.00078251446 0.00023070793 -0.0010251201
0.00030587404 -4.2278552e-05 -1.0106014e-05 0.0003578444 -0.00027012246 0.00080914644 -0.0052323136 -0.0019651973
0.00020668811 0.00011604381 1.7663173e-05 0.00023156643 -5.305941e-05 -0.00092000363 0.0005929752 -0.0005870231
-0.00013743433 0.00036791328 -0.00023992862 0.000916907 -0.0019038443 -0.0007689381 -0.0025119274 -0.0015244975
-0.00035308255 -0.0017336647 -0.001984187 0.0014521915 -0.000565416 -0.0009859971 0.000608522 -0.0017827626
-0.00056658615 0.0010540646 0.0015006481 5.5236276e-05 -0.00027166738 0.00056592625 -0.00023032338 -0.0008174144
-0.0077075157 -0.0035915112 0.00012540049 -0.00013936311 -0.0027515376 -0.0010607035 0.00010291822 -0.00016675831
0.0003645348 -0.000105443876 -0.00031467192 0.00013119855 -0.00015524827 -0.0014203312 -0.001654872 -0.000669345
0.00018020789 0.0009927773 -0.0003567792 0.0007189277 0.00015272503 0.0002788914 0.0022466 0.0013726233
-0.0002657154 0.0007443845 0.000438937 0.00021454511 0.00013034721 0.00023043458 -0.00053920504 0.00041416707
0.0006502293 -0.00050064735 0.0011154013 0.001203882 0.000536129 -0.00012162875 0.00023530365 0.00083636213
-9.099359e-05 0.00026917894 -6.897483e-05 -0.0010034966 -0.0019072177 -3.294472e-05 -0.00044843525 -0.0005318266
0.00050542457 -0.0013056946 -0.0014382683 0.0005425225 0.0018603116 2.7896604e-05 0.00024274655 0.00088295504
0.000106442894 -0.00012585463 -0.0010997998 0.0005939197 0.00416875 0.00070343213 0.0004946886 5.8247824e-05
0.0011250786 9.235373e-05 -0.0011525449 -0.00045276294 -0.0010037748 -0.004328785 7.5316057e-06 0.00085473194
-0.00051448215 0.00037457206 -0.00042288966 0.0010705111 0.00019351223 -0.0007376231 0.00032397365 -0.00062579766
0.001178806 -0.0012498233 0.0002270844 -0.0003361443 -7.157994e-05 0.00037451624 0.0013480685 -0.0018283592
-0.0009308977 0.00086888927 0.00095151464 -0.0007149211 0.00094108353 0.0008007188 0.00011869974 0.0022498628
-0.0019987228 -0.00075392704 -0.00021992443 0.0012217272 -6.361946e-05 0.0002907944 0.0010304896 -0.00043363613
0.0016982444 -0.0005451066 0.0013084733 0.0010579437 -0.0001545143 -0.0015641884 0.0002480026 0.00013659692
0.00014851136 -0.0009778976 -6.0504193e-05 -0.00032566805 0.0012615705 0.0015203995 -0.00015628467 0.00060757966
0.00019290477 -0.0007102918 0.00017493533 -0.00040928414 0.0013200362 -0.00052756583 0.003381209 0.0015126222
-0.00025373913 -0.00067802105 0.0008296247 0.0022932761 -0.00045776565 -0.0001226028 -0.0001500629 0.00038038532
-0.00028348548 0.00048088693 -0.0010892729 -0.00090384507 0.0139665 0.005615948 0.0010245037 6.4955864e-05
-0.0010594935 -0.0003577653 -0.0003708126 -1.34840375e-05 -6.9878297e-07 0.00024280985 0.00021740276 0.0018666069
0.00090948073 -0.0005837478 -0.00089888164 9.233641e-05 0.001996967 -0.00038665812 -0.00047773996 6.584963e-05
-0.0019215213 -0.0016693347 -3.8456215e-05 -0.0012356706 0.00010959804 -0.00022897194 -0.0016323298 -0.001885317
0.00042662697 -5.6226738e-05 0.00026085452 -0.00077733566 0.0014265884 0.0017349934 0.00027288636 -0.001093498
6.562313e-05 -0.00035649806 -0.0006617298 -3.5888865e-05 0.0015952941 0.00046684922 -1.2834789e-06 -0.00065672776
-0.00036745984 -0.0012948418 -0.0006316042 -0.00028614787 0.00029924433 0.00041288242 0.00043915852 0.0012411713
00000000: 6a40 a33b 3abf 913a c736 c53a a469 9c3a
00000010: 6abc 83b9 576a abba 1ef7 8a38 7850 49b9
00000020: a003 cf37 187a 1139 6de7 593a ee05 00bb
00000030: 90b8 b838 8abd 35b9 eef2 2839 290a 2b3a
00000040: b8f4 8db7 9c6e 1bba c0ac 6138 a122 03ba
00000050: 540d e039 a821 4dba 30ea 7139 535d 86ba
00000060: b85d a039 4054 31b8 008d 29b7 109d bb39
00000070: 399f 8db9 e61c 543a d473 abbb 8aca 00bb
00000080: 6bba 5839 8c5c f338 602b 9437 a4d0 7239
00000090: 1c8c 5eb8 662c 71ba e471 1b3a 74e2 19ba
000000a0: 3f1c 10b9 7ce4 c039 5995 7bb9 965c 703a
000000b0: 6a8a f9ba 9092 49ba 269f 24bb a6d1 c7ba
000000c0: f01d b9b9 223c e3ba 2209 02bb 7657 be3a
000000d0: 6d38 14ba 933c 81ba 3885 1f3a 96ab e9ba
000000e0: f486 14ba 8a28 8a3a 65b1 c43a 80ad 6738
000000f0: 946e 8eb9 ab5a 143a f682 71b9 c047 56ba
00000100: 548f fcbb 8f5f 6bbb f07d 0339 0022 12b9
00000110: 2453 34bb 4e07 8bba ccd5 d738 d8db 2eb9
00000120: 081f bf39 c021 ddb8 8dfa a4b9 5892 0939
00000130: 24ca 22b9 682a baba 4ae8 d8ba fc76 2fba
00000140: 30f6 3c39 1420 823a 180e bbb9 6c76 3c3a
00000150: d024 2039 2c38 9239 b23b 133b 98e9 b33a
00000160: b84f 8bb9 cc22 433a 2021 e639 84f7 6039
00000170: d0ad 0839 d0a0 7139 7059 0dba 9024 d939
00000180: 2674 2a3a e03d 03ba a832 923a 94cb 9d3a
00000190: 028b 0c3a f012 ffb8 d8bb 7639 503f 5b3a
000001a0: d0d3 beb8 9620 8d39 94a6 90b8 c287 83ba
000001b0: 9bfb f9ba 202e 0ab8 f61b ebb9 476a 0bba
000001c0: 787e 043a d723 abba 4784 bcba 1238 0e3a
000001d0: b3d5 f33a 8003 ea37 c889 7e39 1c76 673a
000001e0: 183a df38 d8f7 03b9 2827 90ba 47b1 1b3a
000001f0: 029a 883b 8866 383a fdad 013a 204f 7438
00000200: 6077 933a 08ae c138 fd10 97ba d060 edb9
00000210: 1891 83ba 7bd8 8dbb 00b8 fc36 1710 603a
00000220: 50de 06ba 3662 c439 4ab7 ddb9 6450 8c3a
00000230: 8be9 4a39 0c5d 41ba 02db a939 920c 24ba
00000240: 2a82 9a3a 1cd1 a3ba 811d 6e39 863c b0b9
00000250: 301d 96b8 b85a c439 acb1 b03a 8ea5 efba
00000260: 7d07 74ba 2cc6 633a 116f 793a 8b69 3bba
00000270: 0cb3 763a 54e7 513a 70ee f838 6f72 133b
00000280: 01fd 02bb 30a3 45ba 849b 66b9 5d22 a03a
00000290: 706b 85b8 c475 9839 7e11 873a a859 e3b9
000002a0: a097 de3a 7ce5 0eba 1481 ab3a b3aa 8a3a
000002b0: 1e05 22b9 7405 cdba 5806 8239 753b 0f39
000002c0: b7b9 1b39 cc2c 80ba e2c5 7db8 6dbe aab9
000002d0: 485b a53a 2448 c73a 59e0 23b9 fb45 1f3a
000002e0: 7b46 4a39 e032 3aba d86e 3739 3095 d6b9
000002f0: 1105 ad3a 584c 0aba 4697 5d3b 2e43 c63a
00000300: 4a08 85b9 39bd 31ba 2c7b 593a ca4a 163b
00000310: 4400 f0b9 f08e 00b9 345a 1db9 746e c739
00000320: c7a0 94b9 8d1f fc39 efc5 8eba 04f0 6cba
00000330: bfd3 643c fc05 b83b a448 863a ea38 8838
00000340: b4de 8aba 7292 bbb9 a069 c2b9 8039 62b7
00000350: 0094 3bb5 c69a 7e39 9cf6 6339 efa8 f43a
00000360: 386a 6e3a a706 19ba eda2 6bba bca4 c138
00000370: 8cdf 023b 60b8 cab9 2c79 fab9 c018 8a38
00000380: 8edb fbba 94cd daba 0c4c 21b8 3af6 a1ba
00000390: 00d8 e538 3018 70b9 e6f3 d5ba be1c f7ba
000003a0: e7ac df39 00d5 6bb8 4dc3 8839 1dc6 4bba
000003b0: 5dfc ba3a b868 e33a 3012 8f39 b453 8fba
000003c0: 269f 8938 5ce8 bab9 ef77 2dba 6087 16b8
000003d0: 3019 d13a 71c3 f439 0044 acb5 4128 2cba
000003e0: a0a7 c0b9 aeb7 a9ba 3e92 25ba 1e06 96b9
000003f0: e5e3 9c39 2478 d839 dc3e e639 ccae a23a

exp_avg_sq f4 [164, 2]
0.00025227838 0.00059033424 8.331753e-05 6.2358784e-05 4.601442e-05 3.3848744e-05 4.6904115e-05 0.00011844825
1.2054542e-05 2.3797566e-05 0.0002547262 0.00029196317 4.4435626e-05 4.683294e-05 0.000101112404 0.000106657106
2.6080985e-05 3.2836106e-05 1.5721873e-05 5.4525393e-05 9.025174e-05 9.431406e-05 5.5366167e-05 4.5432756e-05
0.00019033719 0.00021760128 1.0637348e-05 3.0636522e-05 4.830843e-05 6.5130516e-05 0.000731196 0.00094246713
9.475119e-06 1.337844e-05 2.346066e-05 5.8198515e-05 0.0003452743 0.00022339157 1.6111078e-05 3.5173103e-05
3.3746714e-05 3.2639615e-05 6.812554e-05 9.871197e-05 9.0473455e-05 0.00012057007 0.00034452547 0.00028439853
0.00090975483 0.0005079153 0.00013189483 0.0002480438 3.3045362e-05 4.891489e-05 0.00013718625 6.5240514e-05
5.4764838e-05 4.7826077e-05 0.00012386336 0.000236837 0.00016394086 7.943664e-05 0.00012978615 8.635082e-05
0.0014716352 0.0016621656 3.096892e-05 3.0408972e-05 0.00017340938 0.00013647873 2.8392478e-05 1.7823864e-05
0.000111137575 6.3705935e-05 3.409808e-05 7.3408315e-05 0.00020562146 0.0001402094 0.0002343791 0.00021698797
9.666125e-05 0.00011368936 8.355105e-05 4.558266e-05 0.00030564025 0.00036986292 0.00016175593 0.00022952132
0.000109900866 0.00014332372 2.9948675e-05 1.259368e-05 0.00023911214 0.00051412475 0.00015393466 0.00019668878
2.1655442e-05 1.340795e-05 0.00082573056 0.00077840954 1.5809394e-05 1.05628615e-05 9.883383e-05 9.008664e-05
1.05658455e-05 2.8798844e-05 4.8564114e-05 0.00010123532 2.0553158e-05 2.2754974e-05 7.570987e-05 0.0001330785
0.00023888961 0.0002699065 7.875946e-05 0.00014262972 8.155385e-05 0.00015991078 0.00030077944 0.0004360334
4.0045008e-05 1.8798228e-05 4.465403e-05 3.9937244e-05 0.00034052462 0.00085678877 2.6932363e-05 3.39918e-05
0.00014299265 0.00011492659 4.002508e-05 9.8132914e-05 0.004078861 0.0036684137 1.6506532e-05 1.1089207e-05
8.436675e-06 4.3264125e-05 2.1295946e-05 4.2167438e-05 1.4448344e-05 6.7641035e-05 5.984346e-05 3.5427795e-05
6.173642e-05 2.954015e-05 3.7796206e-05 8.389374e-06 4.4125267e-05 4.9480168e-05 0.00013433782 0.000307018
9.933183e-05 0.00020511425 6.578103e-05 0.00012261063 0.00082844775 0.0007458135 0.00018808804 9.7502125e-05
2.5839761e-05 7.758996e-05 2.4087423e-05 3.6134195e-05 3.5240304e-05 7.333188e-05 6.3264175e-05 0.00010778486
9.196275e-05 7.979357e-05 3.6163085e-05 2.0227533e-05 0.0004309839 0.0004744873 4.3404857e-06 3.219487e-06
7.642048e-05 8.740199e-05 3.3137267e-06 3.285957e-06 0.00041419125 0.000348724 6.534254e-05 5.253082e-05
0.00014935859 0.00024893365 0.00013709701 0.00016727886 0.00010623731 0.00020122064 0.0006231858 0.000592877
2.0730813e-05 2.3393592e-05 0.0001361608 0.00022987448 0.00012105483 0.00018349165 8.079372e-05 8.591796e-05
4.9455615e-05 9.559167e-05 0.00021811457 0.00018024091 0.0064198896 0.0034242324 8.481541e-05 3.855776e-05
3.3831966e-05 2.6792422e-05 5.291687e-05 8.152299e-05 1.788956e-05 2.2233198e-05 6.740841e-05 5.9676357e-05
6.773391e-05 8.213036e-05 4.498537e-05 2.8893674e-05 0.00062682637 0.00070207793 0.0003442428 0.00044942903
0.00013747413 0.00012061463 7.787493e-05 0.00018942296 2.0301868e-05 1.0216848e-05 3.6253216e-05 0.00012741591
7.836411e-06 7.3660194e-06 2.7147513e-05 7.6713506e-05 0.00039089943 0.0010007482 4.8540864e-05 8.102119e-05
1.0239166e-05 2.0853005e-05 8.654891e-05 0.00016132591 2.9696972e-05 1.986071e-05 2.0717316e-05 2.2323688e-05
0.00069190166 0.00046202895 1.0163982e-05 4.5398523e-05 3.0164412e-05 3.5094123e-05 0.00015770856 0.00026324697
00000000: 3b44 8439 a9c0 1a3a c2ba ae38 9ec6 8238
00000010: 9bff 4038 d0f8 0d38 e9ba 4438 6c67 f838
00000020: dd3d 4a37 e2a0 c737 c68c 8539 a212 9939
00000030: 6460 3a38 7d6e 4438 4f0c d438 19ad df38
00000040: 7dc8 da37 80b9 0938 77e2 8337 32b2 6438
00000050: 8945 bd38 7aca c538 f838 6838 0d8f 3e38
00000060: 4095 4739 e62b 6439 1077 3237 b77f 0038
00000070: c89e 4a38 ae96 8838 bcad 3f3a e60f 773a
00000080: 54f7 1e37 f673 6037 62cd c437 2e1a 7438
00000090: ef05 b539 383e 6a39 4726 8737 d586 1338
000000a0: 428b 0d38 85e6 0838 9fde 8e38 9603 cf38
000000b0: 91bc bd38 90da fc38 6da1 b439 531b 9539
000000c0: 9d7c 6e3a 9e25 053a 404d 0a39 e00b 8239
000000d0: 309a 0a38 f729 4d38 a7d9 0f39 bcd1 8838
000000e0: 4cb3 6538 dc98 4838 51e1 0139 7357 7839
000000f0: 8ae7 2b39 3997 a638 3417 0839 3e17 b538
00000100: e2e3 c03a 06dd d93a a0e4 0138 c516 ff37
00000110: 3ad5 3539 bb1b 0f39 622c ee37 7584 9537
00000120: 8812 e938 dd99 8538 8904 0f38 caf2 9938
00000130: 179c 5739 2d05 1339 a9c3 7539 4487 6339
00000140: 9db6 ca38 836c ee38 2138 af38 0230 3f38
00000150: 573e a039 29ea c139 079d 2939 a9ab 7039
00000160: 947a e638 2b49 1639 4a3a fb37 7249 5337
00000170: 2dba 7a39 54c6 063a 8569 2139 3e3e 4e39
00000180: b5a8 b537 b5f2 6037 d775 583a 2e0e 4c3a
00000190: 6a9e 8437 2537 3137 0245 cf38 e6ec bc38
000001a0: f643 3137 0c95 f137 52b1 4b38 4c4e d438
000001b0: 9269 ac37 efe1 be37 6dc6 9e38 fd8a 0b39
000001c0: 717e 7a39 3d82 8d39 aa2b a538 e08e 1539
000001d0: e407 ab38 b9ad 2739 efb1 9d39 6a9b e439
000001e0: 00f6 2738 e3b0 9d37 e64a 3b38 4a82 2738
000001f0: 7188 b239 1f9a 603a cfec e137 6b92 0e38
00000200: 4cf0 1539 be04 f138 9ae0 2738 b5cc cd38
00000210: f7a7 853b c569 703b 8277 8a37 c80b 3a37
00000220: 3e8b 0d37 8076 3538 b2a4 b237 f1dc 3038
00000230: 2a67 7237 81da 8d38 6d00 7b38 4e98 1438
00000240: 7d78 8138 fdcc f737 5e87 1e38 16c0 0c37
00000250: 2513 3938 ed88 4f38 09dd 0c39 42f7 a039
00000260: 5f50 d038 f013 5739 ecf3 8938 0a91 0039
00000270: 302c 593a b282 433a 8039 4539 0e7a cc38
00000280: 77c2 d837 cbb7 a238 590f ca37 cc8e 1738
00000290: fdce 1338 c1c9 9938 b2ac 8438 8e0a e238
000002a0: 20dc c038 d956 a738 d1ad 1738 4cae a937
000002b0: aef5 e139 9bc4 f839 7da4 9136 5e0e 5836
000002c0: ef43 a038 964b b738 6461 5e36 5084 5c36
000002d0: cf27 d939 f1d4 b639 8208 8938 8a54 5c38
000002e0: 249d 1c39 4f83 8239 b3c1 0f39 9467 2f39
000002f0: b9cb de38 c1fe 5239 4b5d 233a 4d6b 1b3a
00000300: 15e7 ad37 5b3d c437 63c6 0e39 760a 7139
00000310: d1de fd38 aa67 4039 cc6f a938 db2e b438
00000320: 906e 4f38 6378 c838 afb5 6439 0dff 3c39
00000330: f05d d23b 1669 603b edde b138 14b9 2138
00000340: cce6 0d38 4ac0 e037 0ef3 5d38 52f7 aa38
00000350: 8a11 9637 6e81 ba37 9d5d 8d38 004d 7a38
00000360: 5e0c 8e38 673d ac38 acae 3c38 b160 f237
00000370: 9b51 243a a70b 383a 7d7b b439 58a1 eb39
00000380: ee26 1039 7df2 fc38 c950 a338 d79f 4639
00000390: ee4d aa37 0769 2b37 980e 1838 f39a 0539
000003a0: 2179 0337 a029 f736 d7ba e337 40e1 a038
000003b0: a2f1 cc39 8a2b 833a 5b98 4b38 ece9 a938
000003c0: e2c8 2b37 7ded ae37 9881 b538 9829 2939
000003d0: c31d f937 8d9a a637 19ca ad37 c143 bb37
000003e0: bc60 353a 7a3c f239 f885 2a37 4b6a 3e38
000003f0: 9509 fd37 0732 1338 925e 2539 6904 8a39

exp_avg f4 [164]
0.000105883664 0.00023604187 -0.000111173096 5.751095e-05 7.329769e-05 -2.3600995e-05 -4.9941187e-05 7.018018e-05
7.210285e-06 0.000104206905 -6.117567e-05 -2.8116196e-05 0.00015684188 4.7707857e-05 0.00025449294 -0.0010509988
1.6160553e-05 -5.3143038e-05 8.12269e-05 0.00014757125 -6.230356e-05 5.1978786e-05 -0.00017893754 -0.0002504
0.000120694895 -0.00030659215 -4.0384723e-05 -0.00013350628 -0.00014882495 -3.5008008e-05 0.00012131911 0.000110221095
-0.0011376819 6.6780995e-05 -0.00040519203 -1.168095e-05 0.00013560042 1.544593e-05 5.016064e-05 -0.0002599646
0.00017237526 5.0626957e-05 5.183759e-05 0.0004787825 0.000236264 6.1690895e-05 5.1505922e-05 4.0320127e-05
4.274462e-05 0.00038767274 7.711008e-05 0.00016765314 5.6536344e-05 -2.420081e-05 -0.00025322195 9.778417e-05
0.00015451496 4.122449e-05 -8.640552e-05 -1.2996257e-05 -3.8037237e-05 -0.00016095256 -3.694184e-05 5.2173928e-05
0.0001859803 -1.1231226e-05 -0.0005343451 -5.816438e-06 2.1684893e-05 0.00016033108 4.908609e-05 -2.1546519e-05
7.693177e-05 -4.5592886e-05 7.971923e-05 -0.00011788446 5.3469994e-05 -6.251721e-06 0.0003991786 0.00017373575
-2.6511305e-05 0.00018799245 5.7351746e-05 0.00020765695 0.00026115266 0.00019532737 1.5895814e-05 6.503517e-05
0.00018692447 1.6003338e-05 0.00035030997 2.142452e-05 0.00012543236 -3.1056697e-06 -0.00013694362 4.2411615e-05
0.00012709782 0.00037737493 0.000155418 0.00013397585 -1.46938255e-05 -0.00010817239 0.0024863626 0.00020403629
-4.9559414e-05 6.964305e-05 8.141117e-05 0.00029847826 -2.3221888e-05 -6.0367216e-05 0.00027231086 3.2463344e-05
-0.00050304434 0.00017504545 5.1742685e-05 -0.0001275762 2.89675e-05 0.00015332695 0.00022936414 4.3553613e-05
-9.013705e-05 4.8173955e-05 0.00022871885 -4.5206354e-05 0.00010951096 1.4202842e-05 -2.779027e-05 0.00012648792
-0.00016240074 6.8678724e-05 -2.221862e-05 1.5828758e-05 -7.4301024e-06 -2.9736202e-06 0.00011931849 0.00043464464
-0.00040281346 8.550123e-06 -8.271766e-05 -8.678147e-05 8.966669e-05 5.393281e-05 0.00014623583 -0.00011946091
-0.00015643224 -0.00021699978 0.00055679714 0.00015324532 1.6016867e-05 -0.00017257797 -7.320613e-05 0.00014276558
-0.00015344791 -0.00017550442 -0.00037726603 -0.00016907796 0.00016334187 8.374336e-05 1.5871541e-05 -1.7379316e-05
-5.7127967e-05 -1.2664848e-05 2.702573e-05 -0.00018858205
00000000: dc0d de38 0282 7739 9a25 e9b8 ea37 7138
00000010: 66b7 9938 c0fa c5b7 f177 51b8 b22d 9338
00000020: e0ef f136 a889 da38 704b 80b8 12db ebb7
00000030: ec75 2439 ec19 4838 776d 8539 abc1 89ba
00000040: 8690 8737 e7e5 5eb8 5c58 aa38 5bbd 1a39
00000050: f8a8 82b8 cc03 5a38 2ea1 3bb9 1e48 83b9
00000060: 941d fd38 1abe a0b9 c462 29b8 d2fd 0bb9
00000070: e50d 1cb9 90d5 12b8 b46c fe38 8026 e738
00000080: 451e 95ba c60c 8c38 f46f d4b9 4cf9 43b7
00000090: f62f 0e39 e291 8137 9463 5238 dc4b 88b9
000000a0: a2bf 3439 4858 5438 306c 5938 1905 fb39
000000b0: a2bd 7739 0c60 8138 1008 5838 681d 2938
000000c0: b048 3338 8e40 cb39 29b6 a138 0ccc 2f39
000000d0: 7021 6d38 d802 cbb7 e0c2 84b9 7a11 cd38
000000e0: 4b05 2239 76e8 2c38 9c34 b5b8 800a 5ab7
000000f0: 2c8a 1fb8 60c5 28b9 00f2 1ab8 54d5 5a38
00000100: b503 4339 c06d 3cb7 4b13 0cba d22a c3b6
00000110: f4e7 b537 8c1e 2839 cae1 4d38 ccbe b4b7
00000120: 6e56 a138 fd3a 3fb8 f02e a738 bd38 f7b8
00000130: f844 6038 e0c5 d1b6 d848 d139 d62c 3639
00000140: 9864 deb7 d71f 4539 f88c 7038 7dbe 5939
00000150: 51eb 8839 cbd0 4c39 0058 8537 7e63 8838
00000160: 2801 4439 e83e 8637 cfa9 b739 ceb8 b337
00000170: 7e86 0339 006b 50b6 8698 0fb9 20e3 3138
00000180: 9045 0539 68da c539 b4f7 2239 de7b 0c39
00000190: 8085 76b7 9cda e2b8 3ef2 223b 93f2 5539
000001a0: 04de 4fb8 540d 9238 4abb aa38 137d 9c39
000001b0: a0cc c2b7 ce32 7db8 f2c4 8e39 4029 0838
000001c0: bcde 03ba 688c 3739 4906 5938 fac5 05b9
000001d0: 3cff f237 64c6 2039 7881 7039 56ad 3638
000001e0: f607 bdb8 640e 4a38 40d4 6f39 f49b 3db8
000001f0: 40a9 e538 be48 6e37 271f e9b7 d8a1 0439
00000200: 1e4a 2ab9 9c07 9038 2062 bab7 00c8 8437
00000210: 1850 f9b6 688e 47b6 a03a fa38 04e1 e339
00000220: b530 d3b9 8072 0f37 b578 adb8 72fe b5b8
00000230: 700b bc38 ea35 6238 e256 1939 1687 fab8
00000240: f607 24b9 6f8a 63b9 06f6 113a 7ab0 2039
00000250: f65b 8637 0cf6 34b9 3e86 99b8 58b3 1539
00000260: dce6 20b9 9c07 38b9 cacb c5b9 854a 31b9
00000270: c046 2b39 609f af38 e023 8537 ccc9 91b7
00000280: b09c 6fb8 1c7b 54b7 50b5 e237 1cbe 45b9

exp_avg_sq f4 [164]
7.1372665e-06 1.1740743e-06 1.2721599e-06 1.7094259e-06 4.730582e-07 4.302882e-06 1.0439586e-06 2.4366161e-06
7.795223e-07 7.056107e-07 2.1582143e-06 9.083549e-07 4.246063e-06 5.5691714e-07 1.4112445e-06 2.0962423e-05
2.9448523e-07 7.739504e-07 5.5530786e-06 6.3266737e-07 7.603283e-07 1.7629973e-06 3.5731462e-06 6.5549643e-06
1.3398197e-05 4.703659e-06 1.1519801e-06 2.3136452e-06 2.5218421e-06 4.107857e-06 4.4209914e-06 1.8834921e-06
3.336818e-05 8.016707e-07 5.18248e-06 5.08152e-07 3.6577017e-06 1.2013741e-06 5.190305e-06 4.5085267e-06
1.8428444e-06 3.3536644e-06 8.274876e-06 5.558173e-06 2.1790515e-06 5.626965e-07 1.20377e-05 3.3921842e-06
3.840841e-07 1.5564108e-05 3.713642e-07 2.0361633e-06 6.462725e-07 1.5711946e-06 8.700546e-07 2.076456e-06
5.614906e-06 2.3036243e-06 2.3825617e-06 8.535768e-06 8.086875e-07 8.3934003e-07 1.13372735e-05 6.35596e-07
2.2099055e-06 1.1955945e-06 7.894799e-05 2.8455526e-07 5.444478e-07 8.0339186e-07 7.79191e-07 9.666333e-07
1.0331732e-06 5.8300407e-07 9.68835e-07 4.5171355e-06 3.6423744e-06 1.6885356e-06 1.18975e-05 2.6491084e-06
9.851697e-07 9.595467e-07 1.3057456e-06 1.8282427e-06 1.622666e-06 9.725787e-07 1.0459952e-05 9.2526086e-08
1.8622629e-06 7.760031e-08 6.4522774e-06 1.6788388e-06 3.7789446e-06 2.9384864e-06 3.5967964e-06 1.3177968e-05
4.8175144e-07 5.298319e-06 3.267593e-06 1.7719725e-06 1.7471755e-06 4.384039e-06 0.00019897216 2.0731627e-06
1.0267652e-06 1.9693841e-06 5.292078e-07 1.7101632e-06 1.393579e-06 6.145617e-07 1.0966154e-05 9.282169e-06
4.925679e-06 2.7523392e-06 7.149233e-07 1.7538749e-06 2.867879e-07 1.17863e-06 1.6739927e-05 1.3706874e-06
4.7055346e-07 2.6427776e-06 7.6881145e-07 5.705553e-07 1.0471336e-05 4.603061e-07 6.8212927e-07 4.7012413e-06
2.587983e-06 3.3901258e-06 2.4068202e-06 2.9968453e-06 8.086167e-07 1.9397569e-06 1.4967633e-05 1.7330429e-05
3.5709716e-06 3.4136121e-06 4.6480756e-07 4.3457163e-07 3.2545165e-06 1.0951541e-06 2.6025937e-06 8.41577e-07
3.636269e-06 2.0816162e-06 3.596265e-06 7.5141986e-07 3.398688e-07 6.6948473e-06 3.8833123e-06 2.001001e-06
6.0332122e-06 3.52141e-06 1.0443528e-05 1.2260431e-06 1.5473481e-06 2.2140623e-06 7.237488e-06 2.3539653e-07
1.0990327e-06 1.6608205e-07 3.066684e-06 7.205275e-06
00000000: a77c ef36 e394 9d35 15bf aa35 6d6f e535
00000010: a0f8 fd34 7a61 9036 251e 8c35 bf84 2336
00000020: 5d40 5135 3369 3d35 d7d5 1036 acd5 7335
00000030: 6779 8e36 0e7f 1535 fe69 bd35 76d8 af37
00000040: be19 9e34 77c1 4f35 9554 ba36 92d4 2935
00000050: 5d19 4c35 20a0 ec35 2fca 6f36 b7f2 db36
00000060: d1c8 6037 20d4 9d36 bc9d 9a35 1f44 1b36
00000070: eb3c 2936 39d6 8936 0758 9436 4ccc fc35
00000080: cff4 0b38 6432 5735 2ae5 ad36 f167 0835
00000090: d676 7536 e63e a135 6128 ae36 f347 9736
000000a0: a757 f735 840f 6136 52d4 0a37 5880 ba36
000000b0: d23b 1236 360c 1735 87f5 4937 48a5 6336
000000c0: 1e34 ce34 ab8f 8237 e85f c734 05a5 0836
000000d0: 827b 2d35 d6e1 d235 b28d 6935 3e59 0b36
000000e0: ad67 bc36 f797 1a36 19e4 1f36 d834 0f37
000000f0: 9514 5935 024f 6135 3835 3e37 d39d 2a35
00000100: e34d 1436 5078 a035 e190 a538 fac4 9834
00000110: 2b26 1235 aba8 5735 9929 5135 44bd 8135
00000120: 90ab 8a35 bc7f 1c35 eb08 8235 e691 9736
00000130: 846f 7436 a4a1 e235 609b 4737 56c7 3136
00000140: 2c3a 8435 c6c9 8035 1441 af35 f161 f535
00000150: 61ca d935 8d89 8235 277d 2f37 c1b2 c633
00000160: def2 f935 39a5 a633 a480 d836 7654 e135
00000170: c699 7d36 d032 4536 7e60 7136 f116 5d37
00000180: b551 0135 37c8 b136 d248 5b36 83d4 ed35
00000190: 7e80 ea35 9c1a 9336 2fa3 5039 aa20 0b36
000001a0: 62cf 8935 c329 0436 e20e 0e35 c388 e535
000001b0: 030b bb35 5cf8 2435 46fb 3737 9dba 1b37
000001c0: 4347 a536 d4b4 3836 28e9 3f35 af66 eb35
000001d0: d4f7 9934 6b31 9e35 b86c 8c37 76f8 b735
000001e0: 60a0 fc34 935a 3136 5260 4e35 4328 1935
000001f0: 0cae 2f37 fd1f f734 911b 3735 5bbf 9d36
00000200: 36ad 2d36 eb81 6336 db84 2136 691d 4936
00000210: b70f 5935 c52c 0236 7f1d 7b37 d060 9137
00000220: d3a4 6f36 6915 6536 aa8a f934 124f e934
00000230: 2b68 5a36 35fd 9235 38a8 2e36 bbe8 6135
00000240: a006 7436 e5b1 0b36 5d57 7136 2eb5 4935
00000250: 3677 b634 4da4 e036 664d 8236 ef48 0636
00000260: e670 ca36 5d51 6c36 9c36 2f37 858e a435
00000270: 7aae cf35 4d95 1436 8cd9 f236 4ec1 7c34
00000280: 7a82 9335 4954 3234 3bcd 4d36 d7c4 f136
