docs/smld/lightning_logs/version_53/checkpoints/epoch=8-step=882.ckpt (torch, 345931 bytes, 18 tensors)

ms.layers.0.weight f4 [164, 3]
000000 a0 ea 86 bd fe 38 12 bf be 1c 60 3d 14 79 98 3d
       -0.0658772 -0.57118213 0.05471491 0.07444969
000010 4a ff 05 3f 00 59 9d be 08 fc 85 be c3 3a eb bd
       0.52342665 -0.30731964 -0.26168847 -0.11485817
000020 de cb 09 be b2 39 22 3e 07 65 cb 3d 3f cc 20 bd
       -0.13456675 0.15842322 0.09931379 -0.039257284
000030 a5 d8 a1 be 3a 7b 58 3e de 9a ff 3e 92 53 ad bd
       -0.316106 0.21140757 0.49922842 -0.084632054
000040 d5 ab ad 3e 1d 27 c5 be 91 82 0b 3f 88 49 c1 3e
       0.3392016 -0.38506404 0.54496104 0.37751412
000050 22 6c ad bd 70 97 d7 be cf 36 39 3e 86 27 b4 be
       -0.0846789 -0.42107725 0.18087314 -0.35186404
000060 45 c5 06 bf 30 52 07 bf e6 76 23 bf 1f e2 da be
       -0.5264476 -0.52859783 -0.638533 -0.42750642
000070 1a 1b c1 bd f1 70 0f 3e 83 5d ba 3e 16 b4 36 be
       -0.09428997 0.14007927 0.3639947 -0.17842135
000080 a9 ca f3 be e1 d6 a6 bb 82 bd 6b bc 3f 11 bd be
       -0.47615555 -0.0050915335 -0.014388444 -0.3692722
000090 24 a4 ad 3d cb cf 89 be 4b 54 e4 bd 85 bd 9c be
       0.08478573 -0.26916346 -0.1114889 -0.30613342
0000a0 b3 af 8e bd b8 db 16 3f 19 b7 78 3e 68 c8 3a 3e
       -0.06967106 0.58929014 0.24288596 0.18240511
0000b0 31 24 d0 3e c5 a9 11 be 5c dd 88 be 29 64 cb bd
       0.40652612 -0.14224918 -0.26731384 -0.099312134
0000c0 33 70 c8 3e 55 80 ae be ea 1d 01 3e c8 18 a0 bd
       0.391481 -0.34082285 0.12609068 -0.07817227
0000d0 36 b0 a2 be f7 79 14 3f 5c 9c 9f be c2 43 22 be
       -0.31775063 0.57998604 -0.3117398 -0.1584616
0000e0 9d 99 2f be 3f 66 13 3e a8 0c 08 3e 6a 53 c9 3e
       -0.17148443 0.14394473 0.13286078 0.39321452
0000f0 e1 1d b8 3d 07 9c dc be a8 fa 17 3f 88 3f b1 be
       0.08990074 -0.4308779 0.59366846 -0.34618783
000100 09 49 d0 3d 33 04 a5 be b5 62 56 be 71 41 1f 3e
       0.1017018 -0.32229766 -0.20936091 0.15552308
000110 43 72 01 bf 85 01 56 be de 98 61 be 00 3d 0a bf
       -0.50564975 -0.20899017 -0.2203097 -0.5399933
000120 51 a2 3d 3e 2b 52 d6 3c 91 87 62 3e 8b 02 07 3f
       0.1851895 0.026162228 0.22122027 0.52738255
000130 8e 48 d1 3e f7 90 f7 be 6c 1a a2 3e ab 7b 18 bd
       0.40875667 -0.48352787 0.31660783 -0.037227314
000140 7d 06 45 be 75 19 c5 be a5 40 81 be 7e c9 1c 3e
       -0.19240756 -0.38495985 -0.25244632 0.15311238
000150 b4 e3 be 3d 9c ee 23 3d b8 d8 f5 be 7d 33 26 ba
       0.09320775 0.040022478 -0.48016906 -0.000634007
000160 1f bd 06 bf ec ab 9c bd 71 8c 0e be ba 2d 8f 3e
       -0.52632326 -0.07649979 -0.13920762 0.27964574
000170 b1 e0 8c be d8 bd 09 3d eb 41 bf 3e 7f 2b a7 3e
       -0.27515176 0.033628315 0.3735498 0.32650372
000180 2d 5c 4c be 59 12 00 3f f3 79 07 3e 09 d8 04 be
       -0.19957037 0.50027996 0.13230114 -0.12973036
000190 44 ac a6 3d 12 6a e4 3e f5 b8 5c 3e 80 94 63 bd
       0.08138326 0.44612175 0.2155493 -0.055561543
0001a0 25 61 02 3f eb 9b d6 be 7a 93 19 be 33 94 8f 3d
       0.5092948 -0.4191583 -0.14997664 0.07010689
0001b0 8b 1c 95 3e 0b 82 4c 3e 39 d6 85 3e 34 26 d7 3e
       0.2912334 0.19971482 0.2614 0.42021334
0001c0 35 f6 e4 be 55 32 fe be 8f b2 ec be 95 df ee 3e
       -0.4471909 -0.49647775 -0.4622998 0.46654955
0001d0 25 52 86 bd 75 af ab 3e e0 ad 0e 3f 1e 72 e6 be
       -0.065586366 0.335323 0.5573406 -0.4500894
0001e0 40 f7 e1 be 74 27 92 3e 37 39 df 3e f0 7c 42 be
       -0.4413395 0.28545725 0.4359834 -0.18992972
0001f0 b1 8d 97 3e 32 3d e6 bd e0 be 49 3e e7 1b e8 be
       0.2960029 -0.11242141 0.1970172 -0.45333788
000200 00 25 f5 be 91 11 10 3e 42 99 74 be 53 71 b4 bd
       -0.4787979 0.14069201 -0.23886588 -0.088106774
000210 5f d9 e0 be 76 a7 f3 be ce e1 e3 be d4 1e f0 3e
       -0.4391584 -0.475887 -0.44508213 0.4689852
000220 e0 92 50 3e 3c 41 c3 be 69 51 8b 3e f7 e9 be bd
       0.20368528 -0.38135707 0.2721055 -0.09321969
000230 fd 6e 74 be df 19 ab 3d 8a 18 a0 3b aa 09 08 3f
       -0.23870464 0.08354544 0.004885738 0.53139746
000240 e1 28 8b be 69 f7 96 3e c3 9a 96 bc d3 96 00 bf
       -0.27179626 0.29485634 -0.018384343 -0.5023014
000250 6c f3 92 be 03 1b 4b 3d 40 70 8a 3e 0b 33 ce be
       -0.2870134 0.049586307 0.27038765 -0.40273318
000260 c2 fe 0f 3f 9d db f2 3e d3 67 d1 3e 0a a6 9d 3e
       0.56248105 0.47433177 0.40899524 0.3079074
000270 f7 a9 89 be 53 b9 93 be 50 b8 8a 3d f6 ea fb 3d
       -0.26887485 -0.2885233 0.06773436 0.123006746
000280 fc a1 c3 be 53 97 05 3f a5 70 e7 3e f3 e2 1b 3d
       -0.38209522 0.5218403 0.45203128 0.038058233
000290 72 2b d1 be ff 9c af 3e 2f 29 db 3e 29 7e 11 bf
       -0.4085346 0.34299466 0.42804858 -0.5683313
0002a0 cc e5 22 be 1a 08 55 3d ab d3 72 3e 09 1e 92 3d
       -0.15907973 0.05200968 0.23713557 0.07134635
0002b0 cb 3c db be 14 31 02 bf ba 6c ae 3e 5a 0a ec 3e
       -0.4281982 -0.5085614 0.34067327 0.46101648
0002c0 cc 5f d1 be 98 94 ea be 6e 86 c8 bc a2 dc 16 be
       -0.408934 -0.45816493 -0.024478164 -0.14732602
0002d0 f8 43 f6 3e f5 85 1c be bc eb b8 be da 69 93 3e
       0.4809873 -0.15285476 -0.3611735 0.28791696
0002e0 f6 1e da 3e e7 b9 93 3d 7f f7 d0 3d 49 72 05 3f
       0.42601746 0.072131924 0.10203456 0.5212751
0002f0 e3 cf d5 3e 39 b9 88 3e 9f 6d aa be 9e ea 82 3d
       0.41760167 0.26703814 -0.3328676 0.06392406
000300 55 d8 0e bf 19 62 1d 3e ef 9e 18 bf b4 ad 06 bf
       -0.55798846 0.15369453 -0.59617513 -0.526088
000310 91 12 ec be 23 d9 25 bd 08 65 f1 3e 89 68 2a be
       -0.46107915 -0.04049028 0.47147393 -0.1664144
000320 e2 fd fc 3e 11 b4 07 bf 72 70 1b be 63 0a 36 3e
       0.49412447 -0.53009135 -0.15179613 0.177774
000330 1a d9 02 3c 8c f3 b3 be 3d ee 31 3e 33 36 e8 be
       0.007986331 -0.3514675 0.17376037 -0.4535385
000340 51 6a f2 3e 0f 18 a9 3e e1 55 d7 3d e4 77 05 3e
       0.47346738 0.33026168 0.10514427 0.13034016
000350 db 26 95 3e 92 d2 dd 3e ea d0 1f 3d e0 35 b3 3e
       0.29131207 0.43324715 0.039017595 0.3500204
000360 28 5a 90 3d 7c 89 c0 bd 10 58 d1 be 7a 0e 9e 3c
       0.07048446 -0.09401223 -0.408875 0.019294012
000370 64 7b 94 3e 04 43 dc 3d cd 2b 0c bf 25 1f ee 3e
       0.2900039 0.1075497 -0.54754335 0.46508136
000380 3b 42 95 be ee cb d4 be d6 20 e3 3d e5 98 c6 be
       -0.29152092 -0.41561836 0.11090247 -0.38788524
000390 4b 4e 42 be 6b eb de 3d 50 20 33 3e 6f 5f 97 3a
       -0.18975179 0.10884746 0.17492795 0.0011548827
0003a0 33 21 87 3e eb 2f d9 be 69 f8 93 bd f2 cd a6 3d
       0.26392516 -0.4241937 -0.07225115 0.0814475
0003b0 8a fe 6c 3e bf 1b 0d bf 7e f6 ef 3e 66 d3 f2 be
       0.23143974 -0.5512046 0.46867746 -0.4742691
0003c0 84 e1 33 be 47 0e 80 bb ac fc f1 3d db 26 34 be
       -0.17566496 -0.003907952 0.118157715 -0.17592947
0003d0 c2 36 ef 3e c1 30 a2 3e e9 3a fa be 3c a5 51 be
       0.46721464 0.3167782 -0.4887307 -0.20473188
0003e0 d7 ea 92 3e 5e 5c 97 3d 7c 6a 81 3d 24 9b 0f bf
       0.28694794 0.073906645 0.063191384 -0.560961
0003f0 aa c9 e0 3d 91 a0 fe be 09 46 85 3d 5e 80 8a bd
       0.10975964 -0.49731877 0.06507499 -0.06762765

ms.layers.0.bias f4 [164]
000000 f8 c1 1a bf 9f 1e a9 be a9 74 f1 be e0 6a 29 3f
       -0.6045222 -0.33031175 -0.47159317 0.66178703
000010 86 47 1d bf 69 c6 0f bf 40 60 03 bf a5 21 5b 3e
       -0.6143726 -0.56162125 -0.5131874 0.21399553
000020 59 7d 37 bf d0 ab 72 bf 1f db 96 be f0 a7 78 3f
       -0.7167564 -0.94793415 -0.2946405 0.9713125
000030 be 34 29 bf e8 76 36 3f 18 19 f3 3e 75 20 15 3f
       -0.66096103 0.71275187 0.47480083 0.5825265
000040 fa 73 58 3d 3b 3d 98 3d 9c d6 59 bc 77 ed 54 3e
       0.05284498 0.07433554 -0.013295796 0.2079371
000050 cd ad e6 be 6e 84 93 3e f2 2f bd 3e 51 02 4f 3e
       -0.45054474 0.28811973 0.36950642 0.20215727
000060 09 7d 3f 3f 96 87 d8 be d7 21 21 3f 38 b5 4a 3f
       0.74800164 -0.42290944 0.6294226 0.7918277
000070 28 fc 3e bf bc f6 19 bd 15 6a c9 3e b8 b5 b6 3e
       -0.7460351 -0.03758882 0.39338747 0.35685515
000080 61 40 09 bf 27 d2 44 3f 61 6d 18 3f be 05 4d 3f
       -0.5361386 0.7688317 0.595419 0.80086887
000090 0f d1 69 bd 34 21 cf be de 7b b4 be 16 00 26 bd
       -0.05708414 -0.4045502 -0.35250753 -0.040527426
0000a0 1d b6 fc 3e 7a db 2d 3f bf e2 9e 3c 06 e7 12 bf
       0.4935769 0.6791302 0.01939523 -0.57383764
0000b0 d6 9a e9 be 63 21 d9 3d 9c c6 94 be 87 de 59 3d
       -0.45625943 0.10602071 -0.29057777 0.053190734
0000c0 b0 eb 8f 3e 41 51 33 bf 24 94 15 bf 31 3b 08 3f
       0.28109503 -0.7004586 -0.5842917 0.5321532
0000d0 67 e9 cb 3e d6 93 1b bf b7 8e e6 3e f3 52 91 3e
       0.3982651 -0.60772455 0.45030758 0.28383598
0000e0 28 f1 42 bf a8 79 1c bf 33 79 f3 be f3 78 d3 be
       -0.76149225 -0.6112313 -0.47553405 -0.41303214
0000f0 29 80 1d bf 15 7b 08 3f ec c9 f8 be 13 88 15 bf
       -0.6152368 0.5331281 -0.48591554 -0.5841076
000100 da 71 1e bf ee 77 4e bf 59 9d 29 bf 69 00 66 3e
       -0.61892474 -0.8065175 -0.6625572 0.22461094
000110 38 95 3e bc 4b 94 7e 3e 15 b8 28 3f 08 a7 27 3e
       -0.011632256 0.24861257 0.65905887 0.16372311
000120 6a db f1 bc 07 9c 06 3f b2 e5 06 bf 21 c4 5a bf
       -0.02952357 0.5258183 -0.5269424 -0.8545552
000130 a1 36 cc 3d fe 66 1c 3f 7c 97 4b 3f 12 87 cc be
       0.09971357 0.61094654 0.7952802 -0.399468
000140 d0 27 29 bf 92 0a 01 be 71 75 18 3c 6e ca 24 bf
       -0.66076374 -0.12601689 0.009305344 -0.64371383
000150 d5 68 e8 3e b4 d1 e7 3e 21 74 e4 3c 58 de 3c 3f
       0.4539248 0.45277178 0.027887406 0.7377677
000160 91 3c 28 be 2b fd 11 3f de 4d 17 3f 6d bd e4 be
       -0.16429354 0.5702693 0.5910319 -0.4467577
000170 37 03 81 be 7a 91 36 3f 8c c2 36 bf 79 8d 29 bf
       -0.25197765 0.7131573 -0.71390605 -0.66231495
000180 2a d8 56 3e fc 63 1a 3d c2 87 be be 73 51 5f 3f
       0.20980898 0.03769301 -0.3721295 0.87233657
000190 44 03 e4 be a1 ff 30 3e dd 75 45 be 83 42 98 be
       -0.4453374 0.17285015 -0.19283243 -0.29738244
0001a0 72 97 a5 3e 5b 73 93 3c ff 60 54 3f 21 b3 2d 3f
       0.32342106 0.017999342 0.82960504 0.67851454
0001b0 71 8a c9 be 1a 00 3e 3f a0 b3 a7 3e c8 94 a8 3e
       -0.39363435 0.74218905 0.3275423 0.3292601
0001c0 97 d8 3d bd 6a 74 f1 be be 8e 4c bf d2 31 24 bf
       -0.046349134 -0.4715913 -0.7990531 -0.6413852
0001d0 5b e9 08 bf 6b 6c 14 bf 63 ee f3 be e5 7f 8f 3d
       -0.5348107 -0.5797793 -0.47642812 0.07006816
0001e0 88 9a 8b be c3 d9 06 bf b3 51 91 be 5f a8 47 be
       -0.27266335 -0.5267603 -0.28382644 -0.19497822
0001f0 f9 0b 03 3f 6f de 2a 3f 4f 65 39 bf a7 b9 fe be
       0.51190144 0.66745657 -0.7242021 -0.49751016
000200 ad 43 68 be 2f a4 7a be ec 44 ef 3e cb 8d b8 be
       -0.22682066 -0.24476694 0.4673227 -0.3604568
000210 3d c2 55 3e 70 56 22 3f 30 01 23 3f b8 d9 2f 3f
       0.20874877 0.63413143 0.63673687 0.6869159
000220 3d a3 5f 3e cd f7 09 3f df 39 e5 be a9 73 df bd
       0.21839614 0.5389374 -0.44770715 -0.10910732
000230 80 7d 38 bf a6 2f 15 bf ba a1 7f 3f 8d b3 72 3e
       -0.720665 -0.5827583 0.9985615 0.23701306
000240 8f 31 2a bf ea 0f 0b bf e1 d7 b8 3e 67 1e 29 3f
       -0.6648187 -0.5432116 0.36102203 0.66062015
000250 69 4e 63 bc c3 04 a1 3d bc 8d 22 bf 9a 7b 48 3f
       -0.013873675 0.07862236 -0.6349752 0.783136
000260 26 35 08 bf 8d f2 44 3f 8a 5f 93 be 52 bb 15 3f
       -0.532061 0.76932603 -0.28783828 0.58488953
000270 d1 13 59 3e 46 2d 4a 3f c7 a9 50 bf 7a 54 59 3f
       0.21198966 0.7897533 -0.8150906 0.84894526
000280 95 e8 9d be 0f ea 4f be 63 7c a8 be 0e 08 ea be
       -0.30841509 -0.2030413 -0.329074 -0.4570927

ms.layers.2.weight f4 [164, 164]
000000 f1 f4 d5 be 52 91 1f bd 5f ac b8 3b 66 06 1c 3e
       -0.41788438 -0.038956948 0.0056357826 0.15236816
000010 ab d0 af 3b dc 7c 70 bd ac d1 2c bd 03 77 43 bd
       0.0053654513 -0.058712825 -0.042192146 -0.04772092
000020 70 8e 3e bd 47 c7 ca bd 57 9f 85 bd 50 22 f6 3e
       -0.046522558 -0.099012904 -0.06524532 0.48073053
000030 fd cc 7e bd 3e 6a 48 3d 48 b6 50 bb 1c f7 2b be
       -0.06220721 0.048929445 -0.003184693 -0.16793483
000040 6c ba 03 3d b3 13 91 be 8d 6e f8 3c 88 82 80 3c
       0.032160208 -0.28335342 0.030326152 0.015687242
000050 51 b4 4b be e1 c5 52 bd 98 a7 7e 3d fa c1 dd bd
       -0.19893004 -0.051458243 0.06217155 -0.10828014
000060 2b 3c 41 3d 3e 43 56 bc d2 3b 12 3d 5f 3b 04 bc
       0.04717652 -0.013077555 0.03570158 -0.008070796
000070 de f0 fd bd 84 6a cc be 71 b3 f8 bc d2 7c 99 3d
       -0.123994574 -0.39925015 -0.030359002 0.07494511
000080 3c 4b b8 bd d5 ce ed 3d 90 a3 1e 3e e8 ac 93 3d
       -0.08998725 0.11611716 0.15492082 0.072107136
000090 01 bc 4f bd 49 bc d9 bd 9a 57 a0 bd f9 12 db bd
       -0.050716404 -0.10631616 -0.07829209 -0.10696978
0000a0 71 09 55 3d 67 ca 94 3d 97 07 01 be e2 de cc bd
       0.052010957 0.07265168 -0.12600552 -0.10003449
0000b0 4d 7d ce bc 10 4a b2 bc 67 92 d4 bc 04 67 2b bd
       -0.025206232 -0.021763831 -0.025948716 -0.04184629
0000c0 0c a0 92 3d e7 0b ba bd 70 8d a8 3b 79 7b 81 bd
       0.07159433 -0.090843014 0.005143814 -0.06322379
0000d0 d8 a4 05 bd df 9f 60 be 98 b6 a3 bc f3 ba 8d bc
       -0.03262791 -0.21935986 -0.019984528 -0.017301058
0000e0 bb a8 75 be d0 40 f2 bd fe 56 10 be 42 c1 aa bd
       -0.23990147 -0.11828768 -0.14095685 -0.08337642
0000f0 97 8d 41 bd fd a4 3e bd 66 f5 ab bd 1a e6 0c be
       -0.04725417 -0.046544064 -0.083964154 -0.13759652
000100 62 eb d0 bc 68 54 b2 bd c1 9f 04 be 3b 7c 93 bc
       -0.025502864 -0.087075055 -0.12951566 -0.018003574
000110 a6 7e a9 be a1 87 60 3d f7 c4 af 3d ea ab 65 3d
       -0.33104438 0.054816846 0.0858249 0.056072153
000120 dd d6 a6 3d 81 4c d0 3d d0 5c c1 bd f1 6c 1d be
       0.08146451 0.10170842 -0.09441531 -0.15373589
000130 64 03 0f 3d f0 85 41 3d 62 7f d2 3d 97 bc ed bc
       0.034915343 0.047246873 0.102782026 -0.02902059
000140 73 3f 17 be 37 7f 9b 3c e5 9e be 3c 0b c6 2d 3d
       -0.14770298 0.01898156 0.023269126 0.042425197
000150 5e c7 52 be fa 92 c6 bd 1f 52 2d 3d 52 9d fe 3d
       -0.20583865 -0.09696002 0.042314645 0.1243235
000160 a3 d0 01 bd e2 10 63 3d 48 c0 53 3d 4c 0a a7 bd
       -0.031693112 0.055436023 0.051697046 -0.08156261
000170 e9 18 0f bd 58 bb 60 3c 0d d2 ce bd 67 e4 25 be
       -0.034935866 0.013716541 -0.10098658 -0.1620041
000180 7b 3a 66 3c 47 34 1b 3d a4 ab 5f 3b 45 59 9e 3e
       0.014052029 0.037891652 0.0034129405 0.30927482
000190 9f de 9a bd 64 0a b1 bd a7 2d 47 bd 61 18 a3 bc
       -0.07561993 -0.0864456 -0.04862752 -0.019909086
0001a0 70 87 4b 3d c0 34 93 bd 7f 86 3f 3e 49 ed 7c 3d
       0.04968971 -0.07187796 0.1870365 0.06174973
0001b0 5f 20 06 3d 89 d1 bd 3d a7 46 90 3d f9 40 96 3d
       0.032745715 0.09268481 0.07044726 0.07336611
0001c0 70 e7 39 bc 59 45 0d be f9 52 cb bd 05 17 0d be
       -0.011346683 -0.13795985 -0.09927935 -0.13778313
0001d0 ff c9 85 be f2 68 2c be 23 4a 78 bd 81 e0 c5 bb
       -0.26130673 -0.16836908 -0.060617577 -0.006038726
0001e0 a4 c6 6e bd 76 31 c6 3c 07 7b 90 bd 48 33 09 3d
       -0.058294907 0.024193507 -0.070547156 0.03349617
0001f0 49 a6 b8 3d 38 24 5f 3e 62 7f 99 bd 6c 71 7b bd
       0.090160914 0.2179116 -0.074949995 -0.061387464
000200 4c 7d be bd 4e 79 90 bc 69 fc c6 bc 9c da e5 bd
       -0.09301242 -0.017635968 -0.02429028 -0.11223337
000210 f9 9c 6a bd 09 68 65 3e ec d7 95 3d 3b 84 69 3d
       -0.057278607 0.22402968 0.073165745 0.05701087
000220 40 f0 1e be e2 09 f7 bc ca e3 6f bd 10 59 a8 bd
       -0.15521336 -0.03015608 -0.058566846 -0.08220112
000230 0a 0d 27 bd 80 8c fe bc e8 ea 5a 3e 3f 97 8c bd
       -0.04078392 -0.031072855 0.21378672 -0.068647854
000240 4b a4 b0 bd ab 15 f5 bd 3f f1 7f 3e 7c db 70 3d
       -0.086250864 -0.119670235 0.24994372 0.058803067
000250 f8 b9 40 3c 88 a7 c2 3c d6 38 00 be bf 1e b8 3d
       0.011763088 0.023761526 -0.12521681 0.08990239
000260 be 98 0f be bf d4 86 3d 54 eb fc 3c 43 33 f5 3d
       -0.1402311 0.06583547 0.030873932 0.11972668
000270 dd 1e 28 3d 47 d2 38 3e 33 94 04 be 40 ac 58 bc
       0.04104506 0.18048964 -0.12947159 -0.013224661
000280 d4 4b aa bd ea 5f bd bc a5 ab 70 3c 6f 4d c3 bc
       -0.08315244 -0.023117024 0.014689361 -0.023840634
000290 c4 a2 68 3d f8 79 48 3d 42 e6 99 bb e6 e9 01 bd
       0.05679585 0.048944443 -0.0046966383 -0.031717204
0002a0 4a 3f 48 bd f6 96 ea bc f0 c8 87 3d 58 42 2a 3c
       -0.048888482 -0.028636437 0.06630123 0.010391794
0002b0 4d 4e 95 3d 85 3f 8a 3d f2 c1 44 bc 1f c4 27 bd
       0.07290325 0.06750397 -0.012009131 -0.04095852
0002c0 74 89 0c 3e 66 7f 95 bd 96 27 9c 3d 32 f0 b1 bd
       0.13724309 -0.0729969 0.07624738 -0.08688392
0002d0 d0 50 c1 bb b3 8b 7a 3c 04 12 91 bc 08 53 0f bc
       -0.005899526 0.015292096 -0.017708786 -0.008747824
0002e0 7a ee d5 bb 65 d7 8d bd 35 89 0d bd 5e ec 27 3d
       -0.0065286728 -0.06925849 -0.03455468 0.0409969
0002f0 68 fe 13 3d 03 e9 2f bd aa 6e 9c 3d ac 3a 6e bd
       0.036131293 -0.042946827 0.07638295 -0.058161423
000300 3a 24 01 bf c2 d4 73 3d 96 d1 c1 3c 56 ea 0a 3b
       -0.504459 0.059529074 0.023659509 0.0021196804
000310 52 92 8e 3d 52 aa d5 bc 21 14 97 bd c5 32 e3 3c
       0.06961502 -0.026082192 -0.07376886 0.02773417
000320 24 41 7a bc 1d 27 80 bd 0d 67 68 3d 9a 26 22 bc
       -0.01527432 -0.0625746 0.056738902 -0.009896899
000330 9d 87 4a 3d 9d fb 81 bc dd 8a 9d bc d2 8d 67 3d
       0.049445737 -0.015867049 -0.019231254 0.056531735
000340 df 26 23 3d 35 8d 97 bc 0d 6b d4 3c 35 51 b7 bd
       0.039831992 -0.01849995 0.025929952 -0.08951036
000350 bd 35 3c 3d b5 c4 45 bc 0a 63 a9 3d 60 40 1e 3c
       0.045949686 -0.012070824 0.08270843 0.009658903
000360 f8 ec 88 bd c5 3a d1 3d 13 65 eb 3c 27 2b 41 3d
       -0.06685823 0.102162875 0.02873472 0.047160294
000370 4b bc 72 3c 9a 32 8e 3d 72 b8 56 3d a5 ce e5 bc
       0.0148154 0.06943245 0.052421995 -0.028052637
000380 62 fc 55 3d bf 48 ca 3c d9 49 88 3c eb db 60 3d
       0.052242644 0.024692891 0.016636776 0.05489723
000390 d6 b0 ba 3a 62 49 ae 3d 66 98 76 3d b8 ca 20 bd
       0.0014243375 0.085100904 0.060203932 -0.039255828
0003a0 f3 82 94 bd e1 17 0e 3d e0 63 f0 bc 38 db 9a 3d
       -0.07251539 0.03469074 -0.0293445 0.07561344
0003b0 21 4e 16 3d 38 ae 89 bd 26 ca db bc e4 d5 c7 3d
       0.036695603 -0.06722683 -0.02682979 0.09757593
0003c0 f0 28 1c 3d 3a 46 34 bc 41 96 b3 bd 6e 0e 42 3d
       0.03812498 -0.011003071 -0.08768893 0.047377042
0003d0 3f f4 09 3e 29 b5 86 3d 3f ac 47 bd 83 f1 96 be
       0.13472079 0.06577522 -0.04874825 -0.29481134
0003e0 da 51 96 bd 5d 93 3a bd 17 01 92 bd 83 f0 29 3d
       -0.07339831 -0.045550693 -0.07129114 0.041489135
0003f0 2c 58 ac bd 17 70 f2 3c d3 da 0d bd 7c 6c a7 3c
       -0.08415255 0.029594464 -0.034632515 0.020437472

ms.layers.2.bias f4 [164]
000000 f7 44 ae 3e a0 c4 d9 bd 33 9c 3e 3e 68 2f 4d 3c
       0.3403699 -0.10633206 0.18614273 0.01252351
000010 50 36 de bd 02 30 0e bd b7 98 07 bd 72 b5 88 bd
       -0.10850203 -0.034713753 -0.033104625 -0.06675233
000020 ac 46 77 3e 18 82 79 be 80 e6 c3 bd c9 a8 7b bd
       0.24148053 -0.24366033 -0.09565449 -0.061440263
000030 52 92 2d bc e8 16 17 bd 89 65 a8 3c 30 b2 46 be
       -0.0105939675 -0.03688708 0.020556228 -0.1940391
000040 53 0f 0e bd 26 4a 6c bd 6c 41 a8 bc a6 cb 73 be
       -0.034682583 -0.0576879 -0.020539008 -0.23808154
000050 b2 a4 8b bd 31 38 1c be a9 eb 6a be a9 72 0d bc
       -0.068185225 -0.1525581 -0.2294146 -0.008633294
000060 99 1b 1d be e4 8a e8 3d 1a ff 42 3e 58 48 34 3d
       -0.15342559 0.11354616 0.19042626 0.044014305
000070 10 8e ed 3d 81 45 f5 bb cc 92 88 3e f0 49 a5 bd
       0.11599362 -0.007485092 0.26674497 -0.08070743
000080 8e 18 35 bd 11 ce cb bd da 73 a6 3c 11 23 96 3e
       -0.04421287 -0.099514134 0.020318914 0.2932363
000090 45 89 90 bd 56 20 5c 3b c1 be 9e 3d 6c 59 f6 3d
       -0.07057432 0.003358861 0.07751227 0.120287746
0000a0 df 27 cf bb 2f 6a 81 bd 53 62 d4 3d 18 19 4d bd
       -0.0063218917 -0.06319081 0.10370316 -0.05007276
0000b0 41 e3 4b 3b f9 06 ff bd fd a4 7e bd c0 d9 1d 3e
       0.0031110796 -0.12452502 -0.062169064 0.15415096
0000c0 e2 59 1e 3e e9 e0 98 3c 41 44 ba 3d 8a 3a 14 bc
       0.15463975 0.018661933 0.0909505 -0.00904716
0000d0 b6 f4 40 3d 97 12 33 3d da f2 56 3d f5 f2 69 be
       0.047108375 0.0437189 0.052477695 -0.22846587
0000e0 f9 b7 73 3e c8 33 56 3e 14 12 b8 3c 9f 49 47 bd
       0.23800649 0.2091819 0.022469558 -0.048654195
0000f0 a4 5a 0e 3d ef 59 c0 bc c6 1f 08 3d 52 11 db 3b
       0.03475441 -0.023480384 0.033233427 0.0066854144
000100 5a 02 90 bb aa 64 33 be 7f cf 2a 3e 24 e2 92 3d
       -0.0043948116 -0.17518869 0.16680716 0.07172039
000110 38 2f af 3d 74 5f e3 3c f3 10 08 3e 4e 9d 27 bd
       0.08553928 0.027755477 0.13287716 -0.0409215
000120 fb 71 54 bd 9f c5 10 be c6 14 86 3e 84 63 81 3e
       -0.051866513 -0.14137886 0.26187724 0.25271237
000130 6a 85 34 be 6c 1c 3a 3d 54 4d 7d be 14 0a 00 3e
       -0.17629018 0.04543726 -0.2473653 0.12503844
000140 5b 43 39 3c b6 c9 e3 3d 4a 2e 97 bd d2 42 3d 3d
       0.011307563 0.11122458 -0.07381876 0.046206303
000150 4b 85 0b bd e2 54 98 bd 86 3e 09 3e bd 2f 99 3c
       -0.034062665 -0.07438065 0.13402757 0.018699521
000160 a7 dd 7b 3c 87 6d 67 bb db a2 19 3c 08 1e 79 bd
       0.01537267 -0.0035313086 0.009377207 -0.060819656
000170 0b 51 cc bc c1 d6 d6 bc 8f cd 85 bd 46 68 dc bd
       -0.024940988 -0.02622545 -0.06533348 -0.10762076
000180 1f fb 28 3d e3 ae c1 3b aa 28 24 3d e0 45 e3 bd
       0.041255113 0.0059107407 0.040077843 -0.11097312
000190 05 a4 84 3d 4a 1f a0 3d 10 58 c0 3c bb bc 39 bd
       0.06476597 0.07818468 0.023479491 -0.045346003
0001a0 1b 1a 41 bd 9e 3a 67 bd d6 20 a2 be 03 30 63 3d
       -0.047144037 -0.056452386 -0.31665677 0.05546571
0001b0 4d 32 bc bd 5f b5 fe bd 25 dd 5f 3e 1d df 19 be
       -0.091892816 -0.124369375 0.21861704 -0.15026517
0001c0 a4 d6 88 3e 72 5a 19 3e 41 0d 2e 3d ef 69 0b 3d
       0.26726258 0.14975908 0.04249311 0.034036573
0001d0 fc 88 65 bd b3 f0 78 bd d5 ef 49 3b 67 39 fc 3d
       -0.05603884 -0.060776424 0.0030813117 0.12315636
0001e0 ef db b9 3c 6a 0c 09 3d dc 18 a7 3d 79 84 2f bc
       0.02268788 0.033459105 0.081590384 -0.010712736
0001f0 75 f3 6a 3e 3e dc 50 be 66 5a 83 bd 40 a3 2f 3c
       0.22944434 -0.20396516 -0.064137265 0.010720074
000200 4d 11 dd bb b6 40 bd bd 43 35 59 bd db 0e 8a bc
       -0.006746447 -0.09240858 -0.05302931 -0.016852787
000210 ab 9d fd 3d aa 04 82 3d d4 74 5d 3d bf 06 3b bd
       0.123835884 0.06348546 0.054066494 -0.04566073
000220 8c 58 40 3d c8 fd 07 3e 1d c7 e3 3d a6 d3 35 3e
       0.046959445 0.13280404 0.11121962 0.17756519
000230 cd 3a 7d 3e 76 32 66 bd 3c ff 52 3c 0d ae cd 3d
       0.24729462 -0.056200467 0.012878235 0.10042963
000240 ed 7e 77 3d 1c 08 16 be f1 7a 02 3e b3 b2 68 3d
       0.06042378 -0.14651531 0.12742211 0.056811046
000250 3b 7a 9e 3e 71 29 04 3e 6b ac b3 bd 95 c7 82 bd
       0.3095263 0.12906434 -0.087731205 -0.063857235
000260 ef fd d4 3d b2 8c 36 3d 34 83 a3 3c 65 c2 2c bc
       0.103999965 0.04456777 0.019960023 -0.010544394
000270 6b 2c 91 3d 2d b4 e8 bd 11 81 9e bd 8e c5 82 bd
       0.0708855 -0.11362491 -0.07739461 -0.06385337
000280 e3 f4 38 3d e3 ce 00 3d cb 55 0b bd e2 93 fa bb
       0.045155417 0.031447303 -0.034017365 -0.0076470235

ms.layers.4.weight f4 [2, 164]
000000 21 8c 36 be 79 2e ac bd ca 4e 59 be e9 56 eb 3c
       -0.17826892 -0.084073015 -0.21221462 0.028727965
000010 f7 83 92 bc 62 c1 96 bc 21 08 c3 ba 9d 46 3e 3c
       -0.017885191 -0.018402759 -0.0014879742 0.011613515
000020 8c b2 41 be 68 e5 4f be 07 1e 47 3d cb 54 c8 bd
       -0.18915766 -0.20302355 0.04861262 -0.09781798
000030 ef 38 4e 3d e3 fc a6 3c 94 72 8c bd 7c 7c 4c be
       0.050347265 0.020384258 -0.068577915 -0.19969362
000040 da 1f 78 3d 10 38 3a bd c8 7f 15 bc ca e2 1e be
       0.06057725 -0.04546362 -0.009124704 -0.155162
000050 11 3a 71 bd 19 60 8d bd d5 22 57 bd 3f 12 34 3d
       -0.058893267 -0.06903095 -0.052523453 0.043962713
000060 e2 c4 7b bd aa 5f 7a bd 37 ee e3 bb 08 7f ea bc
       -0.06146706 -0.06112639 -0.0069558877 -0.028625026
000070 23 6f 9d 3d 5b 0d 68 bd 5d bf ac 3d b0 1c 0f bd
       0.07687213 -0.05665336 0.08434937 -0.034939468
000080 c2 d8 65 bd 37 1e 86 bc c0 de 50 3d 68 9c c1 be
       -0.05611492 -0.01637183 0.05099368 -0.3781464
000090 da 4b 36 bd 0f b2 c2 3c fc 9f ad 3d 4d c4 a5 3c
       -0.04450593 0.023766546 0.0847778 0.020235205
0000a0 e0 17 67 3d 04 13 c0 bc bf ac 70 3d b3 c1 3e 3c
       0.056419253 -0.023446567 0.058758494 0.011642861
0000b0 4b 08 0f bd 12 fc 88 bd b9 0f 55 bd a5 2c 49 3e
       -0.03492002 -0.066887036 -0.052016947 0.19645937
0000c0 6b 49 a8 3d 13 c0 8b 3d 3c 2a 75 3d 6d 9c 88 3b
       0.08217128 0.068237446 0.05985473 0.004169038
0000d0 d1 a2 42 3c 2c e3 68 bb bc 6a d7 bc 0b 9a 1e be
       0.011879639 -0.0035535796 -0.026296012 -0.1548845
0000e0 f8 f5 01 3e 59 72 2f 3e 4a f3 8e 3c 88 ca e6 b8
       0.12691486 0.17133464 0.017449994 -0.00011004979
0000f0 a4 a7 85 bb 8a 4f 99 bd e6 5b 86 3d 5f f3 c6 bc
       -0.004078822 -0.07485874 0.06560497 -0.02428597
000100 a2 d9 b4 bc 41 0f 3d bc e7 eb 56 3c 01 0c 4d bd
       -0.022076432 -0.011539281 0.013117767 -0.050060276
000110 62 e7 86 3d 75 0a 3d bc 78 1e d1 3d 4c b3 8c bd
       0.065871015 -0.011538138 0.102108896 -0.06870136
000120 c2 92 41 bc d7 4d 23 be 05 73 d6 bd 86 33 03 be
       -0.011814775 -0.15947662 -0.10471157 -0.12812623
000130 f1 cf cc bd 94 b2 94 3d fd 01 c3 bd 67 d4 74 3d
       -0.10000599 0.072606236 -0.095218636 0.059772875
000140 fa f6 00 3b d1 d0 12 3d c6 6a 2c bb ef 9c 5a 3b
       0.001967846 0.035843674 -0.002630876 0.00333577
000150 60 a6 40 3d 19 ea 09 be f4 3b a7 bd e5 23 62 bd
       0.047033668 -0.13468207 -0.08165732 -0.055210013
000160 7a c7 0a 3d 38 24 ae 3c c5 6f 95 3d 6f e4 58 3d
       0.033881642 0.021257505 0.07296709 0.052952226
000170 b3 2b 67 3b 29 fb dc bc 20 c9 11 3d be e5 6c bd
       0.003527385 -0.026975231 0.0355922 -0.057836287
000180 88 7a 57 bd 7f fb aa 3d d7 ec 1a 3d 8c f4 1a bc
       -0.05260709 0.0834875 0.037823524 -0.009457719
000190 85 2d 13 3d d8 19 90 3d b9 d3 b9 bc 8a c9 9d bd
       0.035932083 0.07036179 -0.022683965 -0.07704456
0001a0 7e e8 be bd a1 2c 2b bd b9 6a 8b be 22 0c c5 bc
       -0.09321688 -0.04179061 -0.2722986 -0.024053637
0001b0 44 a2 c9 bd 39 87 90 bd 48 54 02 be de 32 c0 bd
       -0.09845403 -0.07057042 -0.12727463 -0.09384702
0001c0 7e ee cd be 74 85 3c 3c df 93 12 bb f2 6b 8d bd
       -0.40221018 0.011506427 -0.002236597 -0.069053546
0001d0 08 4b 5d 3c c8 75 69 3d d3 f6 6d bd 54 d8 12 3e
       0.013506658 0.05699709 -0.058096718 0.14340335
0001e0 eb 13 2d 3d 23 72 77 3d f1 e7 31 3d cb b8 8d b8
       0.042255323 0.060411584 0.043434087 -6.757824e-05
0001f0 bb f4 17 3e 02 e5 ca bd de c3 8d bd fd a7 76 bd
       0.14839451 -0.09906961 -0.06922124 -0.0602188
000200 5a b0 85 bd 20 71 de bc 5e 61 52 3d ba a9 2a 3c
       -0.06527777 -0.027153552 0.051362388 0.0104164425
000210 19 81 b8 3d a7 40 41 3c b5 6e 91 3c 32 31 0b bc
       0.090089984 0.0117951995 0.017752985 -0.008495616
000220 65 95 09 bd 0d a2 c4 3d 42 34 fb bc 2b cb 72 3c
       -0.03358974 0.09601221 -0.030664567 0.014818947
000230 96 6a 4e bd 8e a3 43 3d 5a 22 13 bd 76 fa ab 3c
       -0.050394617 0.0477634 -0.035921432 0.020993453
000240 af 05 2c 3d 28 0c cb bc 1d f9 d3 bc 72 00 0d bc
       0.041997608 -0.02478607 -0.025875622 -0.008606063
000250 90 88 89 3e 64 a9 ae 3c 94 92 85 bd e9 6a d7 bb
       0.26862 0.021321006 -0.06522098 -0.006574024
000260 fa 6f 48 3d bc f1 c1 3c 6a e6 c9 bb 52 32 4d bd
       0.048934914 0.023674838 -0.0061615007 -0.050096817
000270 b5 8b c0 3d 6e 53 8d bd 8f 64 20 bd cc 07 ac bd
       0.09401647 -0.069006786 -0.0391584 -0.08399925
000280 ad 24 02 3d 4d a1 cb bc 20 79 01 ba 47 c6 4e bd
       0.031773258 -0.024857188 -0.00049390085 -0.05048206
000290 b4 ee a2 be 41 bf 9d bd 8b 00 2c be e8 cb 77 bc
       -0.3182274 -0.077024944 -0.16797082 -0.015124299
0002a0 3b b0 9d 3d 65 2f f6 3c 76 87 2c 3b 25 d8 29 3d
       0.07699629 0.030051896 0.0026325858 0.041465897
0002b0 75 a6 8d 3e e4 b4 6b be 6c 20 b0 bc 12 b2 79 bc
       0.2766606 -0.23018223 -0.021499835 -0.015240209
0002c0 e1 8f 8b bd 2f 2c 26 bc 69 ca 57 bc 44 44 70 3d
       -0.06814552 -0.01014237 -0.013170817 0.058658853
0002d0 4c 33 8f bd 0a 6c 31 bd 4c 23 89 bc 7a fa 0a be
       -0.06992206 -0.043315925 -0.016740464 -0.13572112
0002e0 ea 0e 61 3d 70 96 32 3e 5c 74 c3 be 5a c9 de bc
       0.054945864 0.174402 -0.38174713 -0.027195621
0002f0 bc 61 d3 bc 3e 79 b8 3d 4a af 6f 3e 52 12 ad bb
       -0.02580344 0.090075 0.23406711 -0.005281725
000300 21 96 b3 3d e8 57 34 bd 70 a5 61 be 62 d0 ad 39
       0.08768869 -0.044029146 -0.22035766 0.0003315239
000310 40 a0 c9 3c 5a 58 57 bc d8 0f 28 3d b4 12 82 3d
       0.024612546 -0.013143623 0.041030735 0.063512236
000320 78 da 95 bd 90 90 2c bd 7f 42 91 bd 26 e8 92 3d
       -0.0731706 -0.042130053 -0.07092761 0.07173185
000330 4b 38 c2 b9 21 db 7b 3c 04 4a a9 bd b5 c0 a3 3c
       -0.00037044505 0.015372069 -0.082660705 0.01998935
000340 72 e6 98 3d fd 04 22 3c b9 eb 77 bb 74 35 b0 3d
       0.07465829 0.009888885 -0.003782971 0.086039454
000350 53 8d 2b 3d 1b c5 c6 3c a2 08 85 3b eb 2c 64 bc
       0.041882824 0.02426391 0.004059867 -0.013926725
000360 f2 a2 c8 bb c2 4b 80 3d 0a a6 55 3d 0a 87 ef bc
       -0.00612294 0.0626445 0.0521603 -0.029239196
000370 69 bb 70 be 2d ad 18 3e 1e f6 26 3d e3 3b 0c bd
       -0.23508991 0.14909811 0.04076206 -0.0342368
000380 60 7f 30 bd 4b e3 a9 bc b9 c0 00 bd d3 bf b5 bc
       -0.043090224 -0.020738265 -0.031433795 -0.022186195
000390 e1 13 cc 3c c8 fe f5 3d fd 31 bd bd 39 31 34 bd
       0.024911823 0.12011486 -0.0923805 -0.043992255
0003a0 ff f0 84 3c bc c8 f2 3b c7 42 8c 3c b6 36 de 3d
       0.016228197 0.0074091833 0.017121686 0.10850279
0003b0 fa 61 d9 bc 13 c6 f0 3d f9 bf 54 be fc 45 75 be
       -0.026535977 0.1175653 -0.20776357 -0.23952478
0003c0 3c a7 c5 3d ec 56 91 3d 20 b7 91 be 91 db 6b 3d
       0.09651038 0.07096657 -0.28460026 0.05758244
0003d0 81 44 4a 3b 25 a7 e9 3c 9c 51 85 3d be 47 21 3d
       0.0030863585 0.028522084 0.065097064 0.03937506
0003e0 b8 9e 26 bd f0 40 c6 3d b0 3d 00 be 2a 4a ce 3c
       -0.04067871 0.096803546 -0.12523532 0.025181849
0003f0 a0 dc 27 bd d0 45 e5 39 fb 14 93 3b 06 99 05 bd
       -0.04098189 0.00043730298 0.004488585 -0.032616638

ms.layers.4.bias f4 [2]
000000 48 e2 f7 3c 7a be 80 3d
       0.030259266 0.062863305

exp_avg f4 [164, 3]
000000 00 43 31 3b 4f 11 6c 3b 90 e7 db b9 74 aa a7 b9
       0.0027047992 0.003602106 -0.00041943463 -0.0003197972
000010 37 91 6a 3a a2 3c b7 38 68 21 54 3b 38 f6 85 3b
       0.00089480303 8.737414e-05 0.0032368544 0.0040881895
000020 ec cd 83 b9 8a d1 32 ba 28 04 ac b9 fa 70 84 b9
       -0.0002513969 -0.0006821385 -0.00032809493 -0.00025261176
000030 d4 15 ef 3a 30 f9 aa 3a da 1d 0c b9 fa 6b 80 ba
       0.0018240758 0.0013044234 -0.00013362561 -0.0009797805
000040 23 7d 90 3a bc 59 f6 38 1e 38 09 39 29 8b 23 3a
       0.0011023622 0.000117469084 0.00013086243 0.0006238693
000050 34 1d e1 37 56 bd f1 b9 61 b8 8e 39 73 53 35 39
       2.6835689e-05 -0.00046108168 0.00027221724 0.00017292592
000060 d4 78 34 3b 55 03 54 3b a6 75 9d b9 a9 1d 91 3b
       0.002753784 0.003235062 -0.00030033028 0.0044285846
000070 89 d0 58 3b 8a 83 83 b9 a0 30 86 b8 34 e7 98 3a
       0.003308328 -0.0002508427 -6.398675e-05 0.0011665584
000080 7a 16 6a b9 00 d7 90 bc a1 ac 82 bc 95 54 bd 3a
       -0.00022324352 -0.017680645 -0.015951457 0.0014444763
000090 40 c9 e8 37 a4 c1 86 3b bb 33 8d b9 d8 6d 6b bb
       2.775027e-05 0.004112439 -0.00026932158 -0.0035923626
0000a0 31 83 31 bb 87 f6 40 39 34 1a ef b9 78 00 7d 39
       -0.0027086253 0.00018402385 -0.00045605155 0.00024128135
0000b0 81 5b 65 b8 cc 8e 38 bb 45 c9 15 bb 5c f1 c1 39
       -5.4683074e-05 -0.0028161285 -0.0022855562 0.00036991655
0000c0 81 d1 79 b8 b6 c0 31 ba 15 2c 91 b7 ac 9b 97 ba
       -5.9561342e-05 -0.00067807303 -1.7305874e-05 -0.001156678
0000d0 0e d7 71 39 33 e0 4e b9 64 4e ca b9 eb 85 13 3a
       0.00023063665 -0.00019729212 -0.00038586848 0.00056275603
0000e0 0e 52 56 38 0c 0f 28 b9 d4 c3 e5 39 2c a1 bd b7
       5.1097995e-05 -0.00016027334 0.00043824187 -2.2605607e-05
0000f0 e6 f5 4d 3b 02 2a f6 3a 67 24 bf b9 a3 2e 79 ba
       0.0031427084 0.001878083 -0.0003645748 -0.00095055456
000100 bc 1d 8c b8 36 1d 3b 39 d4 2f 69 bb 3b a0 77 ba
       -6.681259e-05 0.00017844592 -0.0035581486 -0.00094461784
000110 bb 94 7f 39 14 70 15 ba 04 11 75 3a f6 15 2a b8
       0.00024374101 -0.00057006 0.0009348544 -4.055161e-05
000120 ba 22 ce 39 19 25 12 bb 13 1c b6 b8 62 cc c2 39
       0.00039317255 -0.0022299944 -8.6836655e-05 0.0003715484
000130 66 8e 73 3a c6 4a b7 38 64 2c 99 38 76 8e 9c ba
       0.00092909334 8.7400476e-05 7.303877e-05 -0.0011944312
000140 22 21 37 38 e0 ec 4e bb 68 95 10 bb 26 b9 7e 39
       4.3661457e-05 -0.0031574294 -0.002206171 0.00024292301
000150 8a e0 9a 3b 43 9f 0c 3c aa a3 2b 3a 6c 7c 64 3a
       0.004726474 0.008582893 0.000654752 0.000871605
000160 8e 07 ce 3a 62 68 35 b9 b4 24 92 ba b6 bc f6 b9
       0.0015718804 -0.00017300391 -0.0011149854 -0.00047061377
000170 7e 58 fe 38 3a 28 c7 b8 b8 cc 61 b9 c1 d2 62 37
       0.00012128147 -9.496552e-05 -0.00021533936 1.351972e-05
000180 6e 01 70 ba a4 bd 65 3a fa a0 f3 38 e7 b2 a0 bb
       -0.00091554865 0.00087639154 0.00011617127 -0.0049041393
000190 42 eb a0 bb c5 da ee 39 60 a1 dd 39 64 76 6c bb
       -0.0049108574 0.00045557893 0.00042272639 -0.0036081308
0001a0 07 91 7a 39 9a 2b 07 bb 15 40 e9 ba f2 59 1b 39
       0.00023895885 -0.0020625354 -0.0017795587 0.00014815459
0001b0 18 09 06 39 b8 0d 84 39 55 a0 c4 b8 88 2a 5c b9
       0.00012782624 0.00025187223 -9.3758725e-05 -0.00020996679
0001c0 6e e3 be 3a 08 25 61 b9 7c 1b 24 ba be 13 8f 3a
       0.0014563629 -0.00021471467 -0.0006260199 0.0010915918
0001d0 0e 5d 18 39 a1 ed e6 b9 dd 92 40 3a 0e f8 95 38
       0.00014530515 -0.00044046066 0.0007346103 7.1510774e-05
0001e0 b4 99 36 bb 94 0d fe ba d0 35 9e 39 89 8a 30 bb
       -0.002786261 -0.0019382709 0.00030176202 -0.0026938042
0001f0 68 3b be ba 26 85 32 39 3a fa f8 38 9e 36 80 ba
       -0.0014513554 0.00017025004 0.0001187217 -0.0009781902
000200 73 11 0a 39 14 cf 65 ba 1c d9 5d 3b 9b 7c ca b9
       0.00013167206 -0.0008766514 0.003385133 -0.0003862128
000210 bc 43 53 3b d9 fd 3d 3b f0 9d 94 b9 e4 8c 29 3a
       0.0032236418 0.0028990416 -0.00028346432 0.0006467833
000220 0b bb b7 b9 ed f2 5d 38 7c b3 d0 b9 00 bd 66 3a
       -0.00035043838 5.291675e-05 -0.00039806578 0.0008801967
000230 34 13 f8 b8 70 c7 18 3a a0 b9 1d b8 8a 4e bd b8
       -0.000118291384 0.00058280583 -3.7604594e-05 -9.026851e-05
000240 ba f0 75 ba 9c 19 98 b9 26 d7 97 b7 86 a3 08 3b
       -0.00093818794 -0.0002901078 -1.8100789e-05 0.002084942
000250 9a 44 2f 3b 4c 07 49 b9 ca e1 b6 b9 15 24 80 3a
       0.002674377 -0.00019171572 -0.0003488197 0.0009776378
000260 07 f3 d6 b8 78 be 3b ba 5d 43 89 39 ba b6 59 b8
       -0.000102495826 -0.0007161866 0.00026180866 -5.190701e-05
000270 04 cb 1a bb 05 f9 cd ba 53 fa 5f 39 64 9d ea 3a
       -0.0023619542 -0.0015714472 0.0002136019 0.0017899689
000280 bd 5b 5c 3b c2 b6 d1 b9 3c a1 52 39 89 65 89 38
       0.0033624016 -0.00039999752 0.00020087225 6.5515815e-05
000290 4d 48 02 b7 40 8c 6e 37 93 cb c3 39 0f b0 43 b7
       -7.765438e-06 1.421856e-05 0.00037344973 -1.1663898e-05
0002a0 9d 2b 9f 3c 47 00 04 3c 7e e1 cf ba 9f 22 cf 3a
       0.019429976 0.008056707 -0.0015860049 0.0015803165
0002b0 74 2e fb 3a cc 3b 76 b8 9f 88 b3 b9 0c 52 14 3a
       0.0019163624 -5.870666e-05 -0.0003424333 0.0005657978
0002c0 34 f6 b0 b7 88 28 ae ba 14 80 6d 39 7c b4 ac 39
       -2.1095482e-05 -0.0013287226 0.00022649794 0.00032940868
0002d0 9d 21 91 39 e0 89 2d b9 c5 99 c9 b8 06 2a a6 38
       0.000276816 -0.00016549928 -9.613069e-05 7.923324e-05
0002e0 6d b1 69 b9 1f 0d df b8 e7 f3 3a ba 17 dc 9e 3a
       -0.00022286708 -0.000106359126 -0.0007131681 0.0012120035
0002f0 bc c9 23 38 94 91 26 ba 6c 3c 9c 3a fa 6d 58 b9
       3.9050108e-05 -0.00063540903 0.0011919863 -0.00020640335
000300 40 6d 8d 3b 6c 96 31 3b 5f aa 85 b9 7e df 5b 3b
       0.004316002 0.0027097715 -0.00025494673 0.003354996
000310 62 de 01 3b 88 5c 83 b9 59 14 9e ba 87 aa 4b 3b
       0.0019816388 -0.00025055208 -0.0012060507 0.0031076984
000320 58 15 de b9 ce 13 f2 ba ca 79 01 bb 21 82 34 39
       -0.00042359042 -0.0018469037 -0.001975643 0.00017214614
000330 b1 83 1e 3a e2 a8 73 b9 28 3e a6 37 bf 51 b9 ba
       0.0006046845 -0.000232372 1.9817686e-05 -0.0014138742
000340 36 1d 77 b8 fd 7e b8 38 bc 26 36 ba a0 b8 91 39
       -5.8916594e-05 8.797457e-05 -0.0006948521 0.00027794112
000350 87 2e 95 b9 95 8d b2 ba f8 48 01 3b 1d 41 55 b9
       -0.0002845416 -0.0013622517 0.001972733 -0.0002033752
000360 07 58 53 3a f0 f5 25 bb 52 2f 8c 39 1a 6e 90 39
       0.00080621283 -0.0025323592 0.00026738137 0.00027547852
000370 99 fc 28 ba d2 37 24 b8 65 1c d0 3a a0 ed 0c 3b
       -0.00064463314 -3.9152634e-05 0.0015877603 0.002150394
000380 0c bc fa b8 70 2d ee 3b ea 78 a2 3b 85 c8 03 ba
       -0.000119559554 0.0072686 0.0049582617 -0.0005027133
000390 88 0f 00 b9 52 a6 4a ba 22 6c 3f 38 3a 48 9d 3a
       -0.00012212817 -0.0007730472 4.5638655e-05 0.0011999675
0003a0 e2 97 69 ba 90 e9 0c b8 9a 26 dd bb e4 0f b9 ba
       -0.0008910877 -3.3596123e-05 -0.0067489864 -0.0014119116
0003b0 5a 3f d3 38 18 60 50 3b cd f2 08 3b 36 a0 5a b9
       0.00010073064 0.0031795558 0.0020896674 -0.00020849783
0003c0 0c 14 3b 3c e7 5d ea 3b ef af 74 ba d2 27 27 3a
       0.011418354 0.0071523073 -0.00093340775 0.0006376478
0003d0 7c f0 4c 3a 33 d1 49 b8 28 8d ca b8 4f 72 95 ba
       0.00078178174 -4.8116966e-05 -9.658403e-05 -0.0011401864
0003e0 83 4b 9d 38 e6 10 88 3b c4 35 bd 3b f4 b7 f5 39
       7.5004085e-05 0.004152405 0.0057742316 0.00046867097
0003f0 7d 75 95 b9 90 af b9 b8 3e 59 83 38 90 8d 01 bb
       -0.0002850703 -8.8541885e-05 6.2631894e-05 -0.0019768216

exp_avg_sq f4 [164, 3]
000000 9f 28 77 38 f6 57 96 38 21 f8 59 35 42 10 81 37
       5.892722e-05 7.1689414e-05 8.1199875e-07 1.5385569e-05
000010 28 95 cd 37 1c a3 a9 34 13 b9 db 38 7f a7 63 38
       2.450736e-05 3.159738e-07 0.000104772065 5.427701e-05
000020 3d 08 83 35 e9 40 ca 37 62 0d 29 38 6b 57 17 35
       9.762658e-07 2.4110503e-05 4.0305204e-05 5.6379093e-07
000030 e4 5e 11 38 f3 43 ac 37 75 52 cc 34 c1 04 ec 38
       3.4659068e-05 2.053564e-05 3.8057956e-07 0.000112542424
000040 d0 cf dd 38 d9 0e ee 35 20 39 c6 36 ce 5c b6 36
       0.00010576809 1.7736703e-06 5.90751e-06 5.4348266e-06
000050 93 f8 e4 33 e0 6f 95 37 73 a2 d5 36 da 09 51 34
       1.0662293e-07 1.781428e-05 6.3668062e-06 1.9468226e-07
000060 e7 36 ad 38 97 86 36 38 ae c4 4d 35 30 38 49 39
       8.259509e-05 4.3517528e-05 7.665466e-07 0.00019189785
000070 b1 3a b3 38 dc 50 eb 35 c8 05 55 37 19 22 1a 37
       8.546317e-05 1.7532398e-06 1.2697135e-05 9.187054e-06
000080 2c 92 46 34 a0 8c 51 3b 3f 65 2d 3b 55 1e 20 38
       1.8493364e-07 0.0031974688 0.0026458052 3.817522e-05
000090 89 97 64 38 8e a1 0c 39 a3 1f ad 35 85 a7 ee 38
       5.4500564e-05 0.00013411624 1.2898712e-06 0.00011379927
0000a0 db 2c a6 38 6b 94 ad 35 7d 4e b0 37 d0 a1 d5 37
       7.923852e-05 1.29327e-06 2.1017384e-05 2.5466928e-05
0000b0 ee 1d f9 34 48 2b 93 38 c8 b7 54 38 5a f4 56 35
       4.640164e-07 7.017568e-05 5.07159e-05 8.007679e-07
0000c0 f3 99 2f 36 99 14 61 36 bd 5f a3 33 43 0f c6 36
       2.6166642e-06 3.3539602e-06 7.607694e-08 5.9026365e-06
0000d0 07 21 46 36 cd 3c b4 33 52 93 d7 36 3e 3c a3 36
       2.9523524e-06 8.392963e-08 6.4246497e-06 4.8647917e-06
0000e0 e6 9a a2 33 a6 13 eb 36 81 2f 4c 37 87 37 4b 34
       7.571889e-08 7.005833e-06 1.2170408e-05 1.8926049e-07
0000f0 f1 17 8f 37 32 5c 5b 37 30 06 49 34 d0 ba cb 36
       1.7058077e-05 1.3074883e-05 1.8721835e-07 6.0716193e-06
000100 fd b1 95 36 ad 89 b4 33 c0 ef 68 38 15 fb ab 37
       4.4612666e-06 8.406946e-08 5.5536395e-05 2.0501708e-05
000110 1d 86 09 35 6f 41 65 36 17 b4 87 36 ce 1d 4f 33
       5.123164e-07 3.4161746e-06 4.0442787e-06 4.822305e-08
000120 08 c5 0a 38 10 eb 20 38 b0 dc 31 35 5f c5 1f 37
       3.3085264e-05 3.836589e-05 6.625878e-07 9.523093e-06
000130 19 b7 6c 37 34 6c 52 34 b5 b5 de 36 36 7d c6 36
       1.4109327e-05 1.9597138e-07 6.637269e-06 5.9154363e-06
000140 56 5f 1c 34 78 a4 8a 38 a6 92 fd 37 7d 4e 2d 35
       1.4563315e-07 6.6109875e-05 3.0228239e-05 6.456174e-07
000150 79 41 a1 39 c8 b3 3f 39 69 8e c0 35 01 4e 3f 37
       0.00030757094 0.00018282153 1.4346562e-06 1.1402649e-05
000160 bd 67 47 37 73 4d 2e 34 99 51 ea 37 ec 3c 28 37
       1.1885478e-05 1.6233189e-07 2.793297e-05 1.0027765e-05
000170 52 9c 94 34 a0 73 11 37 72 a8 08 37 04 8f 4f 34
       2.7680886e-07 8.6695945e-06 8.145451e-06 1.9330406e-07
000180 2f bb 21 38 5f fd 06 38 34 68 13 35 54 12 b4 39
       3.855972e-05 3.218406e-05 5.4913403e-07 0.0003434593
000190 92 93 81 39 0d 59 92 36 4d a2 be 36 c1 00 c7 37
       0.00024714746 4.361506e-06 5.6813356e-06 2.3723e-05
0001a0 2e 77 5f 34 5e 24 eb 38 ad 4c 6c 38 17 0a a4 35
       2.0811851e-07 0.00011212447 5.6338195e-05 1.2221889e-06
0001b0 46 9a 20 37 2f 4b 8e 37 68 4e 88 34 c0 a0 0a 37
       9.572663e-06 1.696273e-05 2.5389022e-07 8.2628685e-06
0001c0 8d d5 4a 37 7c b0 47 34 76 86 f3 36 f7 2f 0f 37
       1.2089859e-05 1.8597524e-07 7.2576177e-06 8.534632e-06
0001d0 9d 5b 06 34 5e b7 eb 36 b8 e7 a4 37 42 c6 73 34
       1.2513051e-07 7.0248925e-06 1.9658226e-05 2.2703264e-07
0001e0 7c 0d b3 38 01 da 37 38 65 58 82 35 24 d0 24 38
       8.537897e-05 4.3833632e-05 9.711481e-07 3.9294493e-05
0001f0 cc 47 8d 37 ea 0f d1 34 4a 2d b6 36 76 fe 0e 37
       1.6841943e-05 3.8940863e-07 5.429295e-06 8.523106e-06
000200 fd 88 ed 33 53 73 fe 37 f7 59 5c 38 67 ce 72 35
       1.10610905e-07 3.0332862e-05 5.2535874e-05 9.045238e-07
000210 f8 37 9b 38 23 d2 4c 38 28 98 47 35 5b 52 3c 37
       7.401401e-05 4.8833095e-05 7.4354693e-07 1.1224848e-05
000220 97 9f 05 37 cc 11 4e 34 95 ae 13 37 ea ce 48 37
       7.964575e-06 1.919172e-07 8.802531e-06 1.1969105e-05
000230 fe 5b 4a 34 59 4e 72 37 4e 15 4f 37 d3 36 6c 34
       1.8846183e-07 1.4442566e-05 1.2343122e-05 2.1999158e-07
000240 77 6a fc 36 1e f7 f2 36 28 97 ea 33 21 67 4a 38
       7.5225794e-06 7.2409302e-06 1.0923969e-07 4.82566e-05
000250 73 f7 d0 37 8c da f5 34 f4 e9 be 36 37 b6 15 37
       2.491076e-05 4.579382e-07 5.689677e-06 8.923517e-06
000260 04 e4 c8 33 4b 91 06 37 89 a0 dd 36 69 fd bc 33
       9.3547015e-08 8.020851e-06 6.605002e-06 8.800527e-08
000270 7d 43 5d 38 c7 40 cb 37 49 21 0e 35 8a 37 25 38
       5.275336e-05 2.422965e-05 5.294756e-07 3.939079e-05
000280 62 24 5d 38 08 a0 49 35 00 be 19 36 36 61 67 36
       5.272439e-05 7.511121e-07 2.2909371e-06 3.4478267e-06
000290 ee 8b 5d 33 5f 2a 2b 36 bd 57 5e 36 e9 86 47 33
       5.1582838e-08 2.550565e-06 3.3131648e-06 4.6455998e-08
0002a0 8b 56 44 3b ff 07 8e 3a c7 c0 eb 37 5d bd cf 37
       0.002995881 0.0010836123 2.8103952e-05 2.4764502e-05
0002b0 50 a9 6e 38 f2 84 08 35 2e b2 d0 36 4b 8c 8e 37
       5.6901306e-05 5.085741e-07 6.219626e-06 1.6993048e-05
0002c0 36 89 73 34 33 2a 20 36 c1 00 7b 36 71 01 73 33
       2.2681056e-07 2.386642e-06 3.7402353e-06 5.6579157e-08
0002d0 81 b6 4c 37 f8 d3 d4 36 79 b7 5e 34 9a e5 9b 36
       1.220184e-05 6.3427688e-06 2.0742108e-07 4.646089e-06
0002e0 37 1e c9 36 19 02 bd 33 4c 63 f5 36 ae 30 17 37
       5.9937843e-06 8.80138e-08 7.3131287e-06 9.0116355e-06
0002f0 b6 d6 1a 34 b6 2b 07 37 55 25 42 37 9b d6 64 34
       1.4420479e-07 8.056804e-06 1.1571993e-05 2.1312228e-07
000300 b2 10 5e 39 c8 38 b8 38 d3 c2 f6 35 27 75 ab 38
       0.0002117779 8.78438e-05 1.838513e-06 8.175737e-05
000310 fa 0f 0b 38 61 0e 43 35 8c 4a 5f 37 97 21 be 37
       3.3155062e-05 7.2664085e-07 1.3309193e-05 2.2665407e-05
000320 5a e5 b4 34 39 b3 35 38 ab f6 a3 37 ac c8 db 34
       3.3694488e-07 4.3320677e-05 1.9545978e-05 4.0937937e-07
000330 63 09 30 36 fe 83 09 36 f3 db 6a 33 be 2e 4b 37
       2.6231507e-06 2.049142e-06 5.4682413e-08 1.2110626e-05
000340 76 9a 97 36 d8 2e ec 33 43 c2 2a 38 dc 90 39 38
       4.5181323e-06 1.0998127e-07 4.071208e-05 4.4242348e-05
000350 c6 18 32 35 38 37 f5 36 ed 31 f1 36 c3 f2 25 34
       6.634622e-07 7.3079973e-06 7.188172e-06 1.5455139e-07
000360 d3 d2 cb 36 ec 48 d7 36 cb 45 bd 33 bb 95 db 37
       6.0744146e-06 6.4159885e-06 8.8136936e-08 2.6176558e-05
000370 ed 23 c8 37 a7 85 04 35 be b1 af 38 ca 85 7b 38
       2.3858587e-05 4.936832e-07 8.377757e-05 5.9967664e-05
000380 4d bc 93 35 c0 43 42 3a 14 28 aa 39 07 e5 f0 36
       1.1007156e-06 0.0007410608 0.00032454787 7.1792197e-06
000390 bd 01 d8 37 d0 9b 83 37 c1 cb b8 34 fb 34 37 38
       2.5750016e-05 1.5688973e-05 3.442092e-07 4.3679942e-05
0003a0 38 d3 03 38 41 ef 29 35 73 6a 94 39 67 b6 3e 39
       3.1429547e-05 6.3305566e-07 0.0002830807 0.00018187762
0003b0 c0 73 55 36 9b 56 87 38 57 f1 d0 37 8e 69 1a 35
       3.1806849e-06 6.453433e-05 2.4907915e-05 5.7523073e-07
0003c0 4e 48 81 3a 7a bb ca 39 ef 48 10 37 e3 eb e1 36
       0.0009863467 0.00038668123 8.60005e-06 6.7329834e-06
0003d0 39 90 52 37 36 54 1c 34 59 e5 c5 36 8c 73 ed 36
       1.2550555e-05 1.4559268e-07 5.897757e-06 7.076602e-06
0003e0 a9 42 c4 33 f3 ec 1a 38 38 37 24 38 ae f6 75 34
       9.1390866e-08 3.6937137e-05 3.9152073e-05 2.2907145e-07
0003f0 5b 0a 1a 37 66 0d d9 36 4a 53 f1 33 5b a4 c4 37
       9.181526e-06 6.4686637e-06 1.1237587e-07 2.3441555e-05

exp_avg f4 [164]
000000 6e 19 0a b9 42 fe 80 39 46 de 5b b9 82 58 4f ba
       -0.00013170179 0.000246035 -0.00020968271 -0.0007909612
000010 8e 13 97 b8 11 aa 9c 39 8b d6 8b 39 06 75 41 39
       -7.2038834e-05 0.00029881348 0.00026671993 0.00018449509
000020 2f 93 36 b9 6d 70 29 b9 52 70 e7 b8 66 ec 4d ba
       -0.00017411703 -0.00016158978 -0.0001103586 -0.00078553555
000030 10 25 25 39 20 3f a0 b8 50 57 f7 b9 e3 b5 7a 39
       0.00015749433 -7.6411525e-05 -0.00047176564 0.00023909616
000040 20 7f 30 b5 60 8f 6b b9 a4 0e 07 39 40 72 2c b9
       -6.57501e-07 -0.00022464758 0.00012880057 -0.0001644576
000050 96 fa 9d b9 88 48 42 39 d7 f8 cc 39 47 18 0e b8
       -0.00030132075 0.00018528302 0.00039095312 -3.387805e-05
000060 70 a2 05 ba 52 44 99 39 9a 05 5b b9 93 4c 46 39
       -0.00050977524 0.00029233337 -0.00020887554 0.00018911278
000070 72 b7 f2 3a 80 22 ca b8 82 06 be 38 87 0a 92 b8
       0.0018517806 -9.638537e-05 9.061118e-05 -6.9637834e-05
000080 10 6a a5 39 37 45 1b ba d6 83 8a b8 80 1b bd b6
       0.00031550275 -0.00059230946 -6.604909e-05 -5.6358404e-06
000090 d6 14 19 b9 50 98 be b7 bc 2b 90 39 0e fc 8a 39
       -0.00014598979 -2.2720691e-05 0.00027498405 0.00026509207
0000a0 2c 7c 88 39 d4 42 bc 38 5a c9 3c 39 f0 c9 a9 37
       0.00026032457 8.976986e-05 0.00018004086 2.0240404e-05
0000b0 3a ca 40 b9 d8 e8 dd 36 20 60 e6 38 26 59 3d b9
       -0.00018385882 6.61342e-06 0.00010985159 -0.00018057655
0000c0 18 0a 8b b8 16 67 a3 b8 d8 34 10 38 5e 02 22 b9
       -6.6299166e-05 -7.791647e-05 3.438149e-05 -0.00015450406
0000d0 b5 ff 3c 39 b8 d1 ea b8 b0 28 91 b8 27 b1 97 38
       0.00018024335 -0.00011197053 -6.9217174e-05 7.233238e-05
0000e0 e6 bc 01 bb c0 06 61 39 d5 33 65 39 e3 d1 f4 39
       -0.001979643 0.00021460187 0.00021858451 0.00046695684
0000f0 12 48 17 39 62 e0 31 b9 b8 14 73 39 00 bb 0f 37
       0.0001442733 -0.00016963625 0.00023182004 8.5670035e-06
000100 a0 c6 7f b9 38 2a 1c b9 3a 06 59 b9 30 9b 4a 39
       -0.00024392689 -0.00014893047 -0.00020697052 0.00019322033
000110 3e d4 8e 38 cb 8d e3 38 44 07 56 ba ae ae 94 b9
       6.810621e-05 0.000108506145 -0.0008164535 -0.00028358906
000120 14 15 bd 39 17 87 42 b9 10 ca b5 37 a0 a1 04 ba
       0.00036064594 -0.00018551607 2.1670974e-05 -0.00050594844
000130 e0 ad bd 37 4a cf a3 b9 8e 34 66 ba 66 82 3d b9
       2.2611523e-05 -0.00031244225 -0.0008781635 -0.00018073022
000140 52 c2 77 ba 00 bc ae 34 ae 33 91 38 91 0a 98 3a
       -0.0009451258 3.2546814e-07 6.923765e-05 0.0011599829
000150 9c 03 c2 b7 36 b5 1d 38 69 b3 aa 38 c4 e9 3e b8
       -2.3128283e-05 3.7600483e-05 8.1396494e-05 -4.551724e-05
000160 68 02 fb b6 f8 d3 36 39 f5 c7 c3 38 aa a0 c3 b8
       -7.480663e-06 0.00017435837 9.3355695e-05 -9.3282506e-05
000170 03 00 ae 38 80 56 ab 37 32 74 1d 39 0a 7d de 39
       8.296969e-05 2.0425068e-05 0.00015015973 0.000424363
000180 c0 44 7d 39 43 17 17 b9 89 75 69 b9 d2 3b 0f ba
       0.00024153572 -0.00014409148 -0.00022264397 -0.0005463931
000190 51 02 8b b8 f3 e4 a1 38 16 94 c0 39 42 b0 c6 b8
       -6.628468e-05 7.719723e-05 0.00036731426 -9.474206e-05
0001a0 24 89 d0 38 44 f2 fe 37 8c 4f 66 b9 fa 5c d2 38
       9.943757e-05 3.0391973e-05 -0.00021964143 0.000100308986
0001b0 57 24 91 39 07 9d ae b9 ac 35 7b 39 50 b3 67 b9
       0.0002768363 -0.0003330486 0.0002395722 -0.00022096676
0001c0 e6 15 9b 38 1e f4 d2 b8 48 aa 9f b9 32 89 0a 3a
       7.395055e-05 -0.00010059051 -0.00030453713 0.0005284726
0001d0 b0 05 d1 b9 12 3a ec 39 b0 c9 9e 39 a0 6a 2c b8
       -0.00039867824 0.00045056693 0.00030286377 -4.1107298e-05
0001e0 78 9a 00 37 f7 c9 a2 37 f1 62 f2 38 fc f6 23 39
       7.66536e-06 1.9405952e-05 0.000115578885 0.000156369
0001f0 da ee c6 38 20 4e 14 b8 ad 1f 03 ba 88 db 94 37
       9.485865e-05 -3.535871e-05 -0.00050019735 1.7745202e-05
000200 b6 eb e0 37 b2 4c a6 39 84 8c 0a 39 0f df 7c 39
       2.6812642e-05 0.0003171913 0.00013213052 0.00024115689
000210 1b d8 0d 38 d2 30 ac 38 bd 56 d6 b9 72 1c 26 39
       3.3818284e-05 8.2106926e-05 -0.00040881886 0.0001584159
000220 4f 30 26 b9 e0 97 84 38 3a 85 49 39 b2 18 36 39
       -0.0001584899 6.3225394e-05 0.00019218485 0.00017366072
000230 f0 bb e7 b9 28 17 91 b8 8f f0 93 b9 ca 72 54 39
       -0.00044199778 -6.918452e-05 -0.00028217255 0.00020260658
000240 f0 7c d4 b7 e1 01 00 3a 02 35 15 ba cd 35 c4 b8
       -2.5330548e-05 0.00048830925 -0.00056917977 -9.3560295e-05
000250 be e0 45 39 22 a9 b6 38 f8 ef 81 39 a7 cc 8d b9
       0.00018871107 8.70994e-05 0.00024783588 -0.00027046094
000260 d0 d2 cb 38 ad ff b9 b9 0c cf 48 39 f5 5a ae b9
       9.719061e-05 -0.00035476443 0.00019150617 -0.00033255634
000270 16 5f 94 39 bb bf 6c ba a0 fd cf 37 b8 f2 e5 b8
       0.00028299604 -0.00090312556 2.4794426e-05 -0.00010964781
000280 00 c9 d6 35 00 b8 55 39 f8 a3 f5 b7 c0 52 8f 35
       1.6002741e-06 0.00020381808 -2.928263e-05 1.0678414e-06
