docs/smld/lightning_logs/version_46/checkpoints/epoch=29-step=2940.ckpt (torch, 345931 bytes, 18 tensors)

ms.layers.0.weight f4 [164, 3]
0.26020303 0.15241846 -1.7288344 -0.4883048 -0.06395755 -1.5451745 -0.47708878 -0.2336555
-2.089723 -0.40959382 0.41386586 -2.659976 0.38054007 0.077144615 -1.6137612 -0.060761612
0.14870895 0.5336665 -0.50915414 -0.13281879 -1.284291 -0.3027908 -0.3495986 -2.4316537
-0.25220403 0.19182561 -2.0734115 0.30919975 -0.39009914 -0.16580772 -0.04685083 -0.054189134
-1.3704313 0.32659158 -0.44832146 -1.1742792 -0.5269079 0.3323256 -2.4655218 0.21215157
-0.035849705 0.28736725 0.21296915 -0.35721067 -0.99178725 -0.042105645 -0.018502345 -0.4438048
0.29974076 0.32555887 -1.257175 0.23963943 -0.47737184 -0.9204724 0.052275617 -0.0048360373
-1.1452719 0.43706557 -0.24171005 -0.8069978 0.35859957 -0.3392272 -0.17184083 -0.44350743
0.31361032 -2.3305342 0.15383074 -0.26077452 -0.0580444 0.18977456 0.12601356 -1.9863803
-0.34397724 0.1055909 -2.0380094 -0.21000546 0.009658597 -2.3646815 -0.18444589 0.4623213
-1.9177796 0.054097 -0.0048003267 -1.0871724 0.3584148 0.23865499 -1.4572153 -0.53585744
0.16842759 -1.7315046 -0.41180325 -0.28687754 -2.1743073 -0.18426147 -0.11251516 -1.4094634
-0.06352159 0.1078123 -1.6596489 -0.23236276 0.027544837 -1.5543383 0.18988755 -0.17710508
0.3782373 0.46811005 0.49643293 -0.7849769 0.12405844 -0.44790354 -1.0247822 -0.35781407
-0.03245613 -1.998066 -0.43327323 0.24668169 -1.9572891 -0.40923244 -0.51398146 -1.5757992
-0.096972264 0.05818674 -2.0411704 -0.08844909 0.3141659 -0.106645845 -0.03448436 0.2253392
-1.1805001 -0.20851246 0.010353825 -2.3268192 0.1696814 0.42699274 -1.3549016 -0.2244187
-0.2536516 -1.3434421 -0.27787104 0.1142987 -2.3881214 -0.24469425 0.12491596 -1.7321062
-0.35221037 0.14080285 -2.4171333 -0.29044712 -0.48760673 -1.7373639 0.538687 0.3412454
-0.8320517 -0.107981555 -0.42093423 -2.0502033 0.21552435 -0.42379332 -0.54855305 -0.12428434
-0.18920109 -0.78473943 -0.22289164 0.024074404 -1.242613 -0.41645014 -0.04280855 -1.31825
-0.055217385 0.23645034 0.001083905 -0.27110782 0.31415963 -2.5383804 0.04213637 -0.115975834
0.8363063 0.24912384 0.16728552 -2.4276638 0.51893455 0.026421938 -0.7970507 0.36887875
-0.23207858 -1.2650865 -0.21280713 0.51627517 -0.70266664 0.4828066 0.059734244 -1.4796561
-0.33810225 -0.40770856 -1.063097 -0.13772596 0.13272858 -2.2494974 0.586689 0.49924347
-0.74915785 -0.55147934 -0.4432767 -1.0433761 0.026879009 0.30097663 -1.1985285 0.015595794
-0.058356028 0.85197675 0.0034924154 0.103105225 -0.86605424 -0.28474897 -0.028246455 -1.8006989
-0.17771636 0.457422 -0.63171357 -0.40179697 0.28592843 -2.2234936 0.23747109 -0.06362145
-1.1610976 -0.17115116 0.34756428 -2.2250378 0.32535556 0.227375 -0.6273069 -0.4813831
0.49982706 -1.7997808 -0.17455974 -0.14229067 -1.6620847 -0.057598434 0.5345431 -0.9010474
-0.23804069 0.33245707 -1.3255541 -0.22834471 0.19191691 -2.0556056 0.107102044 0.48599467
-1.197408 0.13878421 -0.2862165 -0.564208 -0.40260968 0.44040704 -1.5999441 -0.10832915
00000000: 5539 853e 9613 1c3e 724a ddbf 1603 fabe
00000010: 2dfc 82bd 47c8 c5bf fb44 f4be 6343 6fbe
00000020: 06be 05c0 48b6 d1be 3ae6 d33e 0c3d 2ac0
00000030: 26d6 c23e fffd 9d3d ba8f cebf 2be1 78bd
00000040: 2947 183e 5e9e 083f ed57 02bf a601 08be
00000050: a663 a4bf 6507 9bbe 96fe b2be 37a0 1bc0
00000060: e320 81be ef6d 443e c6b2 04c0 6e4f 9e3e
00000070: 13bb c7be 80c9 29be a8e6 3fbd 6df5 5dbd
00000080: 4b6a afbf 0337 a73e 648a e5be c84e 96bf
00000090: 70e3 06bf 9526 aa3e 1ccb 1dc0 433e 593e
000000a0: 24d7 12bd cd21 933e 9614 5a3e 51e4 b6be
000000b0: c5e5 7dbf f876 2cbd 3b92 97bc 623a e3be
000000c0: 9f77 993e a7af a63e 1ceb a0bf 0a64 753e
000000d0: 156a f4be 14a4 6bbf f51e 563d 9f77 9ebb
000000e0: 4598 92bf 0fc7 df3e d782 77be 6897 4ebf
000000f0: 5d9a b73e 30af adbe 0bf7 2fbe 6813 e3be
00000100: 8891 a03e 7927 15c0 ce85 1d3e 3d84 85be
00000110: f7bf 6dbd 4354 423e b309 013e b641 febf
00000120: c91d b0be 0b40 d83d bf6e 02c0 ac0b 57be
00000130: 183f 1e3c f156 17c0 62df 3cbe 61b5 ec3e
00000140: cd79 f5bf d194 5d3d 0f4c 9dbb 7728 8bbf
00000150: 2582 b73e f961 743e 0886 babf f42d 09bf
00000160: 4878 2c3e f1a1 ddbf e0d7 d2be 9de1 92be
00000170: da27 0bc0 0aaf 3cbe 596e e6bd 4c69 b4bf
00000180: 9b17 82bd b2cc dc3d 606f d4bf 81f0 6dbe
00000190: b6a5 e13c 8ff4 c6bf e271 423e 095b 35be
000001a0: 52a8 c13e 1fac ef3e 752c fe3e 3ff4 48bf
000001b0: 5a12 fe3d 9d53 e5be 102c 83bf 6833 b7be
000001c0: b8f0 04bd a0c0 ffbf fdd5 ddbe 209a 7c3e
000001d0: 7388 fabf ea86 d1be 4a94 03bf cab3 c9bf
000001e0: 6599 c6bd 3855 6e3d 89a2 02c0 cc24 b5bd
000001f0: 5ada a03e 2369 dabd 793f 0dbd 52bf 663e
00000200: a11a 97bf 4a84 55be 17a3 293c 9bea 14c0
00000210: f6c0 2d3e cb9e da3e 6a6d adbf 04ce 65be
00000220: 9fde 81be e9f5 abbf 1d45 8ebe 7015 ea3d
00000230: fbd6 18c0 2191 7abe f0d3 ff3d a8b5 ddbf
00000240: eb54 b4be 9f2e 103e 50b2 1ac0 7cb5 94be
00000250: 97a7 f9be f161 debf 64e7 093f b8b7 ae3e
00000260: 5701 55bf 6f25 ddbd b184 d7be 8836 03c0
00000270: 6ab2 5c3e 70fb d8be f96d 0cbf ca88 febd
00000280: eebd 41be afe4 48bf b53d 64be af37 c53c
00000290: f10d 9fbf f438 d5be 0558 2fbd 6abc a8bf
000002a0: a02b 62bd 0a20 723e d111 8e3a a5ce 8abe
000002b0: 88d9 a03e d374 22c0 3097 2c3d bd84 edbd
000002c0: 2b18 563f 521a 7f3e e54c 2b3e d85e 1bc0
000002d0: e5d8 043f d272 d83c 840b 4cbf addd bc3e
000002e0: 02a6 6dbe 5bee a1bf 1dea 59be 9c2a 043f
000002f0: f6e1 33bf 6d32 f73e e5ab 743d 5f65 bdbf
00000300: bd1b adbe 2dbf d0be 9013 88bf 0908 0dbe
00000310: 00ea 073e c4f7 0fc0 4031 163f d79c ff3e
00000320: cfc8 3fbf c02d 0dbf 2af5 e2be 598d 85bf
00000330: 5e31 dc3c 9c19 9a3e 6269 99bf 8085 7f3c
00000340: bb06 6fbd 261b 5a3f 02e1 643b d528 d33d
00000350: bbb5 5dbf 9eca 91be 1c65 e7bc 4d7d e6bf
00000360: 47fb 35be 3733 ea3e fbb7 21bf 55b8 cdbe
00000370: 3665 923e b84d 0ec0 9f2b 733e f64b 82bd
00000380: d99e 94bf 4042 2fbe f2f3 b13e 0567 0ec0
00000390: 0195 a63e fed4 683e 2f97 20bf d877 f6be
000003a0: 55e9 ff3e 385f e6bf cabf 32be a5b4 11be
000003b0: 31bf d4bf 56ec 6bbd d1d7 083f 0bab 66bf
000003c0: f0c0 73be d037 aa3e c2ab a9bf 32d3 69be
000003d0: de85 443e 0b8f 03c0 5158 db3d 4bd4 f83e
000003e0: aa44 99bf 731d 0e3e f88a 92be ef6f 10bf
000003f0: db22 cebe 087d e13e f8ca ccbf acdb ddbd

ms.layers.0.bias f4 [164]
-0.16836143 -0.35539275 0.44976902 -0.19470796 -0.15831265 -0.023548694 0.12266133 0.4766245
-0.6069386 -0.4362331 -0.32021296 -0.37941223 0.3232682 -0.29287726 0.035610415 -0.55578154
0.2547744 0.30605575 0.048069675 -0.45024383 0.43198064 -0.45792747 0.24348247 0.07335419
-0.6320291 -0.30747974 0.2612102 -0.1312947 -0.040734824 0.43018937 0.4245879 0.12705316
0.12790157 -0.014477467 -0.47908613 0.08350369 0.08714221 -0.5039408 0.3755789 -0.47902784
0.13856585 -0.020860212 -0.5747991 -0.09289099 0.062486343 0.17672952 -0.16407774 -0.1068077
0.27552816 0.5322469 -0.56331015 0.38603216 0.13905875 0.18946862 0.36632746 0.22021258
0.5398144 0.40716064 -0.4710467 -0.24938698 0.17127398 0.023270626 -0.35931778 -0.08313665
-0.43329516 -0.50633097 -0.11307906 0.026244413 -0.49536464 -0.0037564868 -0.19712892 0.442831
0.38072917 -0.44683444 0.35395426 0.5104715 0.32697192 0.40579805 0.45924228 0.0058636735
0.20242295 -0.059659664 -0.4220191 0.35377094 0.13475996 -0.21695231 0.1360947 -0.67395097
-0.2049748 0.23848602 0.20378675 -0.41341248 -0.19905514 0.26689523 -0.52671057 -0.24002673
0.17373934 -0.4619272 -0.08951997 -0.5181751 0.063520834 -0.18646826 -0.55439615 0.3929186
-0.12991114 -0.6712362 -0.64468145 -0.016282478 -0.13167481 0.34001258 0.14424415 -0.11576305
0.2708997 -0.015025625 -0.44738597 0.477926 -0.25720125 0.13861531 0.21804471 0.2872946
-0.34788316 -0.29314563 0.33945528 0.32608467 -0.6387234 0.4373392 -0.12852256 -0.21031624
-0.5284038 0.05046646 -0.079136334 0.29756877 0.054326825 -0.12403341 -0.21642 -0.34150025
-0.028788447 -0.4768741 -0.24295309 0.24086958 0.2480994 0.06068148 0.45304665 -0.39491662
-0.23541003 -0.104020044 -0.011944696 -0.26015776 0.09441047 -0.34969994 -0.33605614 0.36925375
-0.6477788 0.46143493 -0.33386427 -0.024527965 -0.050601985 0.44843155 -0.54834694 -0.32780343
-0.31500083 -0.38371837 -0.41312853 -0.40213576
00000000: f066 2cbe 0af6 b5be 2048 e63e 8661 47be
00000010: b61c 22be 31e9 c0bc dd35 fb3d 2008 f43e
00000020: 5460 1bbf f259 dfbe f4f2 a3be 5242 c2be
00000030: 6983 a53e 02f4 95be 3adc 113d b347 0ebf
00000040: ca71 823e 57b3 9c3e b5e4 443d 5c86 e6be
00000050: 912c dd3e 7875 eabe 7853 793e b93a 963d
00000060: a9cc 21bf fc6d 9dbe 58bd 853e 1e72 06be
00000070: 8fd9 26bd c841 dc3e 9663 d93e 391a 023e
00000080: a1f8 023e e632 6dbc c74a f5be fc03 ab3d
00000090: 9d77 b23d 4402 01bf e14b c03e 2343 f5be
000000a0: 35e4 0d3e 09e3 aabc 0926 13bf a23d bebd
000000b0: aef1 7f3d 95f8 343e ff03 28be ffbd dabd
000000c0: 0712 8d3e 5541 083f 1835 10bf 02a6 c53e
000000d0: 6b65 0e3e 1004 423e 468f bb3e 687f 613e
000000e0: 4731 0a3f 5c77 d03e 082d f1be 4d5f 7fbe
000000f0: 7262 2f3e 0aa2 be3c 80f8 b7be 8c43 aabd
00000100: ddd8 ddbe e89e 01bf ff95 e7bd 86fe d63c
00000110: 6fa0 fdbe 642f 76bb 2adc 49be bfba e23e
00000120: efee c23e 7cc7 e4be 7e39 b53e 43ae 023f
00000130: dd68 a73e c3c4 cf3e ce21 eb3e 0f24 c03b
00000140: f647 4f3e b15d 74bd e312 d8be 7721 b53e
00000150: 84fe 093e bf28 5ebe 695c 0b3e 0d88 2cbf
00000160: eae4 51be ae35 743e 79ad 503e cdaa d3be
00000170: 1cd5 4bbe 7ea6 883e 81d6 06bf 91c9 75be
00000180: bae8 313e b981 ecbe 3f56 b7bd 20a7 04bf
00000190: 3617 823d 89f1 3ebe e8ec 0dbf a02c c93e
000001a0: 6d07 05be 23d6 2bbf d809 25bf d562 85bc
000001b0: c3d5 06be 2116 ae3e bdb4 133e 2e15 edbd
000001c0: 5eb3 8a3e 0a2e 76bc c60f e5be b7b2 f43e
000001d0: e2af 83be 2cf1 0d3e 1d47 5f3e 4718 933e
000001e0: be1d b2be 2f17 96be 15cd ad3e 92f4 a63e
000001f0: 6083 23bf ecea df3e 6b9b 03be 245d 57be
00000200: 7945 07bf ebb5 4e3d 3b12 a2bd ef5a 983e
00000210: ce85 5e3d 3a05 febd 349d 5dbe 1fd9 aebe
00000220: c0d5 ebbc d828 f4be b2c8 78be 84a6 763e
00000230: c50d 7e3e 258d 783d bbf5 e73e 8332 cabe
00000240: 540f 71be 7608 d5bd b0b3 43bc 6633 85be
00000250: 475a c13d df0b b3be 8d0f acbe d40e bd3e
00000260: d5d4 25bf 3341 ec3e 42f0 aabe dfee c8bc
00000270: 0744 4fbd d298 e53e 7760 0cbf dad5 a7be
00000280: ca47 a1be bc76 c4be 9585 d3be bde4 cdbe

ms.layers.2.weight f4 [164, 164]
-0.0924328 -0.06995025 -0.10154584 -0.062226478 0.039589897 0.04775603 -0.0979097 0.053411458
-0.007235022 -0.05105891 -0.018169835 -0.04957393 -0.057621315 -0.0791493 -0.052295394 -0.05626594
-0.0028656046 0.03298855 -0.0061772144 0.03276561 0.055290576 -0.06562649 -0.015146141 -0.03152552
-0.06837936 -0.09644261 -0.030182939 0.045465194 -0.05939436 -0.018561121 0.028410923 -0.10578875
0.030618787 0.058737777 -0.06973189 -0.08099887 -0.06329291 -0.08299009 -0.0023288848 -0.066987015
-0.05770365 -0.05830205 -0.04754858 0.019577937 0.024373801 0.03130727 -0.031241909 -0.0777481
0.03575564 0.036265098 0.041208517 0.042599 -0.024208264 -0.070633486 0.016078733 0.03647283
-0.03324717 0.034455888 0.015721014 -0.05745627 0.05060166 0.042432744 0.043440633 -0.01505045
-0.07282241 -0.025509195 -0.06296226 -0.020340113 0.030858595 -0.09073111 -0.0072903973 0.019079475
-0.05546099 -0.014530852 0.004049365 -0.04425552 -0.095104955 0.045953486 -0.0031795285 0.01644664
-0.04714895 0.044532266 0.059268817 0.021212019 -0.04874734 -0.043349065 0.010690702 0.02116634
-0.08105658 0.0042594 -0.0019265721 -0.050805792 0.04415641 -0.04011971 -0.009035552 -0.0027205509
-0.049614564 -0.0048280284 -0.059313353 -0.0035798822 -0.011775327 -0.032577958 0.039195113 0.023022234
0.06577512 -0.025138251 0.04062176 -0.0011621572 0.034395244 0.048761494 -0.060078997 -0.058871813
0.049145706 -0.066344716 0.0725643 -0.04972063 -0.09052559 -0.05197208 0.031627536 0.0016871361
-0.060809553 0.05643405 -0.0055359066 -0.055975456 0.009016002 0.04829018 -0.020494703 0.046692815
-0.050150625 0.051650155 0.042538185 -0.009846533 0.02073938 -0.080016814 -0.08004953 -0.07016512
0.08450658 -0.02334589 -0.026947804 0.048275057 -0.04470112 0.046246592 0.035252016 0.028768225
-0.10419226 -0.084856495 0.06826405 0.032050513 0.030246953 -0.009014105 -0.021142833 0.068973415
-0.11376244 0.009829269 0.047977637 -0.06862184 -0.017103199 0.00749841 0.0019420328 -0.07545221
-0.011863032 0.037942596 -0.05766868 -0.0015420439 -0.036323912 -0.08156047 -0.0520725 0.062358033
-0.057888474 -0.06588676 -0.054852925 0.033946108 0.030053072 0.059814174 -0.09722001 0.0040271105
-0.035507154 -0.084049836 0.0064920434 -0.008208977 -0.04942111 -0.0031782328 0.06943659 -0.04005588
-0.06707103 -0.032136835 -0.07863626 -0.021448843 0.036414515 0.02703525 0.059521146 -0.06744182
-0.022253422 -0.028364608 -0.0858695 -0.003798398 -0.021352235 -0.0967732 -0.010120832 0.028762659
0.06348333 0.0025474036 -0.007815827 -0.08276452 -0.064436205 -0.037916128 -0.017589968 0.051909383
0.069622636 0.032723356 -0.05421121 0.06069784 -0.019682202 -0.0321162 0.06934679 -0.050363347
0.04376984 -0.013210385 0.010968455 0.035558112 0.0061957045 0.059561644 0.030107345 -0.04458162
0.02919741 -0.060886826 -0.035118565 0.05076705 0.015121222 0.0060220296 -0.02973826 0.0265899
-0.031423613 0.055299576 -0.003795509 0.041667312 0.039314818 -0.012763513 0.032633554 -0.03240119
-0.08402375 0.04812115 -0.0088315 -0.08230583 0.04897637 0.033224113 -0.03594316 0.052108105
0.012318752 -0.07546214 -0.052833274 0.016128825 0.019692233 0.004366107 -0.013547172 -0.025642235
00000000: 684d bdbd 1442 8fbd 44f7 cfbd 31e1 7ebd
00000010: 0429 223d d49b 433d e184 c8bd f9c5 5a3d
00000020: c313 edbb 2623 51bd e8d8 94bc 090e 4bbd
00000030: 5404 6cbd 0719 a2bd b233 56bd 1d77 66bd
00000040: decc 3bbb 001f 073d 3b6a cabb 3b35 063d
00000050: 5f78 623d 2e67 86bd 8527 78bc e720 01bd
00000060: 7a0a 8cbd b483 c5bd 3642 f7bc b639 3a3d
00000070: 8047 73bd 7e0d 98bc 06be e83c c6a7 d8bd
00000080: 40d4 fa3c 0697 703d 98cf 8ebd bce2 a5bd
00000090: b79f 81bd b5f6 a9bd 34a0 18bb 7d30 89bd
000000a0: aa5a 6cbd 21ce 6ebd 4dc2 42bd e961 a03c
000000b0: 91ab c73c 0d3c 003d 08ef ffbc 653a 9fbd
000000c0: 8274 123d b68a 143d 43ca 283d 4a7c 2e3d
000000d0: 6950 c6bc 4aa8 90bd 8cb7 833c 8964 153d
000000e0: 2f2e 08bd 9e21 0d3d 5bc9 803c 4457 6bbd
000000f0: b043 4f3d f5cd 2d3d ceee 313d 2a96 76bc
00000100: ea23 95bd a9f8 d0bc 5bf2 80bd 4fa0 a6bc
00000110: 2acb fc3c 3bd1 b9bd 49e4 eebb 8f4c 9c3c
00000120: 102b 63bd d012 6ebc 89b0 843b 4745 35bd
00000130: 63c6 c2bd b939 3c3d a35f 50bb 1bbb 863c
00000140: 421f 41bd 7767 363d dcc3 723d d4c4 ad3c
00000150: 4aab 47bd ca8e 31bd 0e28 2f3c 0865 ad3c
00000160: fe00 a6bd 7092 8b3b 0885 fcba bc19 50bd
00000170: 5add 343d 9154 24bd da09 14bc 454b 32bb
00000180: a438 4bbd 7034 9ebb 8ff2 72bd 759c 6abb
00000190: 4ded 40bc 7770 05bd 0e8b 203d 2099 bc3c
000001a0: 1bb5 863d bcee cdbc 0163 263d 8653 98ba
000001b0: 07e2 0c3d 22ba 473d 6515 76bd 9223 71bd
000001c0: 024d 493d bddf 87bd 979c 943d dca7 4bbd
000001d0: 7b65 b9bd ade0 54bd e08b 013d e522 dd3a
000001e0: 7013 79bd 6427 673d 8d66 b5bb 8546 65bd
000001f0: dab7 133c eccb 453d 82e4 a7bc f740 3f3d
00000200: be6a 4dbd 1d8f 533d 853c 2e3d 5a53 21bc
00000210: a2e5 a93c dbdf a3bd 02f1 a3bd bbb2 8fbd
00000220: c911 ad3d e13f bfbc a4c1 dcbc 11bc 453d
00000230: 8618 37bd 116d 3d3d 6b64 103d 57ab eb3c
00000240: c062 d5bd 3ec9 adbd 06ce 8b3d 6647 033d
00000250: 75c8 f73c e6af 13bc bc33 adbc ef41 8d3d
00000260: 48fc e8bd f10a 213c 3384 443d 9b89 8cbd
00000270: 021c 8cbc 39b5 f53b cf8b fe3a b086 9abd
00000280: 2a5d 42bc b269 1b3d fe35 6cbd 681e caba
00000290: 62c8 14bd 2d09 a7bd f949 55bd 236b 7f3d
000002a0: 771c 6dbd a3ef 86bd 76ad 60bd 130b 0b3d
000002b0: dc31 f63c b5ff 743d 491b c7bd daf5 833b
000002c0: f36f 11bd 5222 acbd 35bb d43b f27e 06bc
000002d0: ca6d 4abd e649 50bb c534 8e3d a211 24bd
000002e0: 895c 89bd eaa1 03bd 0c0c a1bd 7cb5 afbc
000002f0: 6327 153d 0779 dd3c 72cc 733d f01e 8abd
00000300: cf4c b6bc e55c e8bc 59dc afbd 8bee 78bb
00000310: e2ea aebc 0731 c6bd d9d1 25bc ab9f eb3c
00000320: 8c03 823d 57f2 263b f40d 00bc 7280 a9bd
00000330: 21f7 83bd f14d 1bbd d618 90bc ef9e 543d
00000340: 5096 8e3d ed08 063d 930c 5ebd 4c9e 783d
00000350: 923c a1bc 478c 03bd b105 8e3d cc49 4ebd
00000360: 0148 333d 5f70 58bc 09b5 333c 62a5 113d
00000370: 5605 cb3b e9f6 733d aea3 f63c 379b 36bd
00000380: 682f ef3c 7764 79bd 7cd8 0fbd 1cf1 4f3d
00000390: 00bf 773c 7254 c53b a79d f3bc 10d3 d93c
000003a0: 0cb6 00bd cf81 623d 13be 78bb 58ab 2a3d
000003b0: 9308 213d 0e1e 51bc c3aa 053d 1cb7 04bd
000003c0: a514 acbd af1a 453d ffb1 10bc f68f a8bd
000003d0: 729b 483d 0216 083d 2339 13bd 4f6f 553d
000003e0: 97d4 493c e58b 9abd b467 58bd 9920 843c
000003f0: 9b51 a13c 8f11 8f3b f5f4 5dbc aa0f d2bc

ms.layers.2.bias f4 [164]
-0.046591725 0.056041915 0.03161261 0.10007412 -0.01308513 -0.005411175 -0.048839364 0.007227852
-0.053976998 -0.08761185 -0.036485314 0.04250744 0.0027144628 -0.019262556 -0.034264464 -0.071411654
-0.03615506 0.05260543 0.041738078 0.012769452 -0.08003279 0.041344244 0.096188694 0.0070246914
-0.053626694 -0.0070303474 -0.026242169 -0.01835864 -0.09318436 0.04085892 0.06685594 -0.012972371
-0.043360062 -0.035080593 -0.08810594 0.059204556 0.06684967 0.041667975 0.035738427 -0.04494572
-0.059150815 -0.0020224687 0.0015707733 -0.07131929 0.04045266 0.017718712 0.090874605 -0.037964936
-0.062386356 -0.09081676 -0.023116786 -0.038049612 -0.118322276 0.014257502 -0.040571745 -0.034935392
-0.03543776 -0.047208864 -0.06283748 0.0013711513 -0.05793287 -0.014158209 -0.023331 0.019692214
0.14553739 -0.038054537 0.006557888 0.04981111 -0.0023478013 -0.07464119 0.036659583 -0.05050559
-0.037947305 0.01504558 0.006459697 0.08677223 -0.0071141142 -0.05395493 0.03254694 0.020971475
-0.05460228 0.05442768 0.01346077 0.062447708 -0.08062554 -0.013576998 -0.0895703 -0.09167331
-0.07221177 -0.011105636 -0.00809986 0.016912559 -0.004771366 -0.023299286 -0.04780905 0.05535591
0.014972767 -0.036757216 0.032668088 -0.0968103 -0.05563695 0.1245643 -0.051861744 -0.016572226
-0.06346865 0.050551284 -0.09190608 -0.07373236 -0.041943017 0.024810629 -0.01818006 0.019162295
-0.057223875 -0.06165219 0.012054055 -0.046383142 -0.009820713 -0.00866976 -0.044910595 -0.042636298
0.064545184 0.055788856 0.07597754 0.035410482 -0.10532869 0.05141679 0.030577017 0.11412917
-0.063663945 -0.06676495 -0.06313235 -0.047448937 -0.0047387974 -0.04979676 0.056989 0.024203002
0.027823046 0.016233299 -0.019008834 -0.062245507 0.011830465 -0.087608114 -0.057830404 -0.03251393
0.02736292 -0.041632727 0.030984268 0.00767674 0.008163124 -0.08200229 -0.041506667 -0.059431504
0.05560173 -0.0055416576 -0.048523355 0.024794089 0.03500939 0.03896332 0.0016261019 -0.051371124
-0.0065567885 -0.026640201 -0.073862866 0.03925503
00000000: f7d6 3ebd 358c 653d 397c 013d a9f3 cc3d
00000010: 0363 56bc 3a50 b1bb c90b 48bd 9ed7 ec3b
00000020: fc16 5dbd d76d b3bd a071 15bd 481c 2e3d
00000030: 21e5 313b 82cc 9dbc e558 0cbd 4640 92bd
00000040: 5417 14bd cb78 573d 8cf5 2a3d f736 513c
00000050: 3be8 a3bd 9558 293d 94fe c43d 622f e63b
00000060: aaa7 5bbd d45e e6bb d1f9 d6bc dc64 96bc
00000070: 71d7 bebd af5b 273d c4eb 883d 118a 54bc
00000080: 529a 31bd abb0 0fbd e370 b4bd 7a80 723d
00000090: 7be8 883d 0aac 2a3d 7562 123d 0119 38bd
000000a0: 2048 72bd 658b 04bb 68e2 cd3a d90f 92bd
000000b0: b0b1 253d d526 913c 771c ba3d 1f81 1bbd
000000c0: d688 7fbd 23fe b9bd 6a5f bdbc e9d9 1bbd
000000d0: f352 f2bd 4c98 693c 8f2e 26bd 6a18 0fbd
000000e0: 2f27 11bd 155e 41bd f0b0 80bd 34b8 b33a
000000f0: 044b 6dbd d5f7 67bc a720 bfbc 9151 a13c
00000100: c107 153e 13df 1bbd 8de3 d63b bc06 4c3d
00000110: 92dd 19bb 7bdd 98bd 5c28 163d f3de 4ebd
00000120: a26e 1bbd bd81 763c deab d33b a4b5 b13d
00000130: 841d e9bb d8ff 5cbd f14f 053d 5fcc ab3c
00000140: a4a6 5fbd 8fef 5e3d 908a 5c3c 2bc9 7f3d
00000150: 011f a5bd 0f72 5ebc a270 b7bd 37bf bbbd
00000160: c4e3 93bd 6af4 35bc 46b5 04bc 358c 8a3c
00000170: 1e59 9cbb 25de bebc 6cd3 43bd e1bc 623d
00000180: 5650 753c bc8e 16bd f9ce 053d 7b44 c6bd
00000190: 92e3 63bd 911b ff3d fb6c 54bd 7ac2 87bc
000001a0: dafb 81bd dd0e 4f3d 4139 bcbd fe00 97bd
000001b0: 71cc 2bbd a93f cb3c 59ee 94bc 3ffa 9c3c
000001c0: 9563 6abd 0287 7cbd 5f7e 453c 40fc 3dbd
000001d0: 0ee7 20bc 9c0b 0ebc 2cf4 37bd 66a3 2ebd
000001e0: 4430 843d db82 643d 1d9a 9b3d 950a 113d
000001f0: 91b6 d7bd 699a 523d a77c fa3c 8ebc e93d
00000200: 3e62 82bd 10bc 88bd 894b 81bd d159 42bd
00000210: ea47 9bbb b0f7 4bbd 4c6d 693d 6045 c63c
00000220: 28ed e33c b2fb 843c 6ab8 9bbc 25f5 7ebd
00000230: 91d4 413c e26b b3bd 93df 6cbd 542d 05bd
00000240: 3428 e03c 1487 2abd b8d2 fd3c 2a8d fb3b
00000250: a0be 053c d1f0 a7bd e502 2abd 736e 73bd
00000260: a4be 633d cb96 b5bb 6dc0 46bd f91c cb3c
00000270: 0266 0f3d 0198 1f3d ed22 d53a 876a 52bd
00000280: 54da d6bb 8d3c dabc 6a45 97bd e2c9 203d

ms.layers.4.weight f4 [2, 164]
0.0018121825 0.04766215 -0.006391027 0.02209775 -0.042064667 0.05864091 0.008635113 -0.020506436
-0.06611629 0.07091444 -0.04772368 -0.0009809263 0.035547774 0.015921112 0.036108807 0.027103117
0.017346263 0.04986177 0.035147063 0.06525565 0.010852376 -0.022331664 -0.019671282 0.04320091
-0.018222224 -0.023837423 -0.039508384 0.009239899 0.050232098 -0.018044027 0.035285525 0.031618044
0.005247766 0.09961093 0.0041649905 -0.054539144 -0.08421888 0.02504845 0.054941475 -0.013049022
0.031902757 0.017291816 -0.048998978 0.0008830577 0.06901253 -0.005655515 0.05803051 -0.038068444
0.037130002 0.06254014 -0.05841828 -0.013114312 -0.0013180262 0.07281839 0.008392946 0.010787137
-0.022386428 0.011265024 0.04174623 0.096254535 -0.0060654646 -0.00092671247 0.055817775 -0.03584927
-0.1098754 -0.029553363 -0.009410215 0.0031420852 -0.0068609496 0.019911686 -0.0034060772 0.08041582
0.007846906 0.008576973 -0.015188939 -0.1845777 0.06721269 0.0015422778 -0.08643538 0.051731322
-0.025554046 -0.0006978372 0.039552774 0.000816341 0.03117275 -0.11113419 0.033639412 0.001733901
0.06642176 -0.031021567 -0.039390285 -0.012621799 0.024171906 -0.086541295 0.02889969 0.069428794
0.0024506024 -0.031192722 -0.17188594 0.002496047 0.027701374 0.016985562 -0.004012579 -0.05605396
-0.002295021 0.03535629 -0.021862617 0.024712015 0.011588988 -0.016287288 -0.0029327737 0.015983144
0.006398637 0.07337953 -0.04616367 0.006493951 0.004001091 -0.013306411 -0.043406177 -0.10208665
0.0057973196 -0.027337033 0.07084338 0.03293725 0.0077344133 -0.031954464 -0.022082482 0.016814154
-0.015770594 -0.023985662 -0.022860903 -0.02842319 -0.047229093 0.020829573 0.06428851 -0.042151265
0.027696379 0.028843453 -0.08724756 0.035984427 -0.0073953434 0.056176454 0.010142879 -0.053599667
-0.0056074923 0.07778086 0.013032792 0.007878893 -0.09033383 -0.04305336 0.030779917 -0.037908
0.005155382 0.04265091 0.00229959 -0.0029519992 -0.03891245 0.013844592 0.054668806 0.023601504
0.005725534 0.05621397 0.016402848 -0.034137256 -0.022179175 -0.018055655 0.008671823 0.5247398
0.074077226 0.029833155 0.042792216 -0.022342145 -0.028806807 0.026889684 0.0051755453 0.006034329
0.03054206 -0.012873114 0.023209881 -0.012966215 -0.0188698 0.0018987776 -0.044438504 -0.00491452
-0.04592205 -0.0059537627 0.082324594 -0.07220831 -0.00585128 -0.0025803316 -0.031262267 0.017035186
-0.0517096 -0.06307025 -0.019579146 0.018903265 -0.0074166106 0.009489207 0.030783525 -0.014930954
-0.052606113 0.0042556985 0.015270405 -0.030552287 0.056605935 0.030934548 -0.0031266364 0.00079645513
0.042729255 -0.029879812 0.0739145 0.03423592 -0.018759854 -0.0449166 0.07622283 0.016778488
0.02068367 0.08006162 0.06822636 0.0074809603 -0.058255758 0.022738356 -0.03428318 -0.051192265
0.02573483 -0.024236208 0.041012287 -0.023461565 -0.13382049 -0.0074483394 -0.035171065 0.012418596
0.015102436 0.03350558 0.0024105057 0.02735539 0.01307232 0.06380792 0.03791499 -0.062182706
0.05294853 0.028047731 0.11493636 -0.024719756 0.017697114 -0.00668832 0.05301807 0.025852071
-0.024264557 0.0008312163 -0.044403188 0.0070546973 -0.0075354264 -0.009542774 -0.05364108 -0.045515906
00000000: c186 ed3a 6339 433d d26b d1bb 5706 b53c
00000010: 004c 2cbd 7331 703d 4a7a 0d3c 1dfd a7bc
00000020: fa67 87bd 973b 913d e879 43bd 6d92 80ba
00000030: 8b9a 113d fe6c 823c d4e6 133d 5b07 de3c
00000040: c019 8e3c db3b 4c3d 5ef6 0f3d c1a4 853d
00000050: 2ace 313c e5f0 b6bc ab25 a1bc 70f3 303d
00000060: c646 95bc b346 c3bc 8bd3 21bd f262 173c
00000070: 2cc0 4d3d 11d1 93bc 8e87 103d ec81 013d
00000080: 74f5 ab3b d100 cc3d 797a 883b 7064 5fbd
00000090: f37a acbd 6832 cd3c 500a 613d 91cb 55bc
000000a0: 77ac 023d 91a7 8d3c 27b3 48bd 007d 673a
000000b0: 7156 8d3d e651 b9bb 66b1 6d3d a8ed 1bbd
000000c0: a115 183d 0b15 803d 0248 6fbd 69dd 56bc
000000d0: 9fc1 acba cf21 953d 9182 093c 88bc 303c
000000e0: be63 b7bc ef90 383c 18fe 2a3d 1921 c53d
000000f0: cec0 c6bb 9fee 72ba 2ea1 643d afd6 12bd
00000100: 5b06 e1bd e519 f2bc 4d2d 1abc 71eb 4d3b
00000110: d1d1 e0bb d51d a33c 7e38 5fbb 0db1 a43d
00000120: 4f90 003c 6f86 0c3c 07db 78bc f001 3dbe
00000130: cfa6 893d 4126 ca3a 0805 b1bd 39e4 533d
00000140: b856 d1bc 10ef 36ba 1702 223d b8ff 553a
00000150: ff5d ff3c 529a e3bd 7bc9 093d 1044 e33a
00000160: 2208 883d f120 febc b557 21bd a9cb 4ebc
00000170: 2904 c63c 903c b1bd 0bbf ec3c af30 8e3d
00000180: 499a 203b e187 ffbc de02 30be b894 233b
00000190: feed e23c 4e25 8b3c f47b 83bb d698 65bd
000001a0: 1068 16bb c2d1 103d 3b19 b3bc da70 ca3c
000001b0: bddf 3d3c eb6c 85bc c733 40bb 15ef 823c
000001c0: a8ab d13b 0248 963d 1e16 3dbd 36cb d43b
000001d0: 951b 833b 2203 5abc adca 31bd ce12 d1bd
000001e0: 71f7 bd3b eaf1 dfbc 5616 913d 36e9 063d
000001f0: f670 fd3b afe2 02bd 52e6 b4bc d6bd 893c
00000200: 5531 81bc 947d c4bc ca46 bbbc c0d7 e8bc
00000210: 4b73 41bd c8a2 aa3c b2a9 833d cea6 2cbd
00000220: 84e3 e23c 1b49 ec3c d9ae b2bd 6864 133d
00000230: a354 f2bb 4819 663d 512e 263c 538b 5bbd
00000240: 0ebf b7bb 924b 9f3d 7e87 553c 7916 013c
00000250: f100 b9bd b858 30bd 2a26 fc3c 6b45 1bbd
00000260: 7bee a83b b8b2 2e3d b8b4 163b 5476 41bb
00000270: a962 1fbd 6dd4 623c 66ec 5f3d f157 c13c
00000280: 439d bb3b 9f40 663d 445f 863c 82d3 0bbd
00000290: 1ab1 b5bc 74e9 93bc 4314 0e3c 5955 063f
000002a0: cdb5 973d a964 f43c e446 2f3d e006 b7bc
000002b0: 41fc ebbc c147 dc3c 9f97 a93b 9fbb c53b
000002c0: 5833 fa3c c1e9 52bc a622 be3c 3f70 54bc
000002d0: d794 9abc 67e0 f83a 2605 36bd fb09 a1bb
000002e0: c218 3cbd c817 c3bb cc99 a83d f3e1 93bd
000002f0: 18bc bfbb c81a 29bb dd0c 00bd 608d 8b3c
00000300: 72cd 53bd fa2a 81bd 7264 a0bc 05db 9a3c
00000310: 0a07 f3bb 9e78 1b3c bb2d fc3c f6a0 74bc
00000320: 8279 57bd 6373 8b3b b930 7a3c ca48 fabc
00000330: a0db 673d 736a fd3c 41e8 4cbb 33c9 503a
00000340: df04 2f3d 82c6 f4bc 7c60 973d f73a 0c3d
00000350: 44ae 99bc 78fa 37bd b71a 9c3d 0a73 893c
00000360: cd70 a93c 59f7 a33d 43ba 8b3d d822 f53b
00000370: 979d 6ebd ca45 ba3c 856c 0cbd fbae 51bd
00000380: dad1 d23c 038b c6bc 80fc 273d 7832 c0bc
00000390: 3d08 09be 3311 f4bb 890f 10bd 5e77 4b3c
000003a0: 3570 773c 263d 093d 93f9 1d3b 6918 e03c
000003b0: 492d 563c baad 823d c04c 1b3d 4bb3 7ebd
000003c0: 8fe0 583d 5bc4 e53c c163 eb3d 1681 cabc
000003d0: 8af9 903c b229 dbbb 7a29 593d b9c7 d33c
000003e0: 77c6 c6bc fbe5 593a 1ee0 35bd 172b e73b
000003f0: bdeb f6bb 4c59 1cbc c0b6 5bbd e36e 3abd

ms.layers.4.bias f4 [2]
-0.026675059 0.018040357
00000000: a785 dabc 5fc9 933c

exp_avg f4 [164, 3]
-0.5893078 0.108257025 0.016784046 -0.46964315 -0.0897564 0.025243696 -0.49564385 -0.088482924
0.03048064 -0.38559675 0.05481505 0.0165767 0.06827961 0.087922804 0.015035966 0.7036224
0.054908916 -0.02458498 -0.41868475 -0.089146525 0.024228662 -0.25599197 0.1910343 0.0031772477
-0.19028111 0.065274335 0.009755594 0.8130199 -0.040135566 -0.0010509626 0.040221624 0.021015191
0.00046629738 -2.1727726 -0.2751686 0.004617884 -0.40657696 0.004691676 0.018190295 2.3141727
0.416998 -0.0035633964 1.3863146 0.10985494 -0.0047652815 -1.1598572e-37 1.1055789e-37 1.1610679e-37
-1.6151292 -0.12971513 0.011959884 -2.2276778 -0.39581862 0.0048954985 -4.412625 -0.54802144
0.005203461 0.1377998 0.018064534 0.003932744 -2.1074295 -0.23567662 0.004342993 -0.2831627
0.040924974 0.01374997 2.294146 0.3662529 -0.005029318 -1.1438391 -0.08620471 0.010408115
-0.51082426 0.030470146 0.030745726 -0.2584533 -0.015495253 0.01236999 0.058490846 0.15624355
0.0047454312 -2.9226685 -0.31755704 0.0027835069 -0.22743197 -0.0032838546 0.01919299 -0.3845722
0.0012102099 0.026468169 -0.24356386 -0.021192525 0.0106092505 -0.64398104 0.10276418 0.02348757
-0.15255545 0.065867655 0.005279562 -0.5739124 -0.030273695 0.033170722 1.8401884 0.34661192
-0.011204969 -1.6889827 -0.04058203 0.016661063 0.62631977 -0.014031615 0.00028189726 -0.5183869
-0.10592747 0.030204047 -0.121924736 0.02507441 0.011157957 -0.022954892 0.07289509 -0.00035895393
-0.19352633 0.10233319 0.009025315 0.13224211 0.0095661115 -0.00336463 0.15719035 0.19202323
0.00635284 -0.52835464 -0.07389463 0.024704807 -0.911677 0.09181478 0.0114261685 -0.11469985
0.079205684 0.0038947081 -0.25026056 0.09546437 0.017603038 -0.5141221 0.028911274 0.023910379
-0.24182396 0.0060974485 0.015546078 -0.66658896 0.33176818 0.01675923 -0.23295599 0.09382797
0.015829148 -0.009415042 0.033259843 -0.0025228 -0.47093284 -0.1741795 0.0055138487 -0.32440537
0.24697243 0.005044465 -0.38081488 -0.016332794 0.024459565 -0.6762228 -0.13665289 0.035979845
-0.21554422 -0.14254545 -0.013214475 -0.31544453 -0.0074602775 0.010909738 -0.7591023 0.3507875
-0.0007369376 -1.5555314 0.015119791 0.018084414 -0.051500138 0.058286723 0.007005858 -0.90938747
-0.020026257 0.0060621984 0.2354108 0.065509625 -0.0034477748 -0.87627745 -0.0023362096 0.01700936
-0.3689435 0.0653037 0.013464528 -0.1759665 -0.006576643 0.0032963383 -1.8140264 -0.07775974
0.018770313 -0.27739072 0.15233786 0.011445133 -0.025405986 0.0009964057 0.00021382162 8.562148
0.25954932 -0.07431455 0.060137622 0.13394953 0.0045794835 -0.4151938 -0.102076545 0.025523448
0.1540487 0.04167453 -0.004330068 -0.29038262 0.013487205 0.0124493325 -0.3064234 0.135646
0.006898787 -0.012620673 0.23725902 0.011072201 -0.44159055 0.06997586 0.017629622 -0.0614549
0.010705176 0.0018818789 -0.25591588 0.061573904 0.009051649 0.083851285 -0.063271336 -0.0035761571
-0.35372192 0.026801752 0.012519882 -0.16374673 -0.048639446 0.004373448 -1.8959191 -0.038916185
0.007033471 -1.2573273 -0.2755883 0.004426229 -0.14362426 0.07040042 0.008045816 -0.22342727
00000000: e0dc 16bf dcb5 dd3d b27e 893c 1175 f0be
00000010: 34d2 b7bd decb ce3c 08c5 fdbe 8936 b5bd
00000020: 89b2 f93c f06c c5be bf85 603d dccb 873c
00000030: 2ed6 8b3d df10 b43d 6a59 763c 9920 343f
00000040: 2ce8 603d 7166 c9bc d95d d6be 7492 b6bd
00000050: 307b c63c 6111 83be 7f9e 433e 5f39 503b
00000060: 0dd9 42be 8dae 853d edd5 1f3c 1222 503f
00000070: 3165 24bd 74c0 89ba 6ebf 243d 0d28 ac3c
00000080: 6079 f439 b50e 0bc0 e6e2 8cbe 9e51 973b
00000090: db2a d0be a1bc 993b d003 953c 681b 1440
000000a0: c380 d53e df87 69bb c272 b13f a0fb e03d
000000b0: 1426 9cbb 20df 1d82 cd7b 1602 5009 1e02
000000c0: 8ebc cebf 0bd4 04be 64f3 433c 4692 0ec0
000000d0: bda8 cabe 6b6a a03b 3934 8dc0 224b 0cbf
000000e0: cb81 aa3b 641b 0d3e 13fc 933c 3fde 803b
000000f0: 20e0 06c0 3655 71be aa4f 8e3b b4fa 90be
00000100: f2a0 273d 8e47 613c 4ad3 1240 8085 bb3e
00000110: facc a4bb 5269 92bf 188c b0bd cc86 2a3c
00000120: 61c5 02bf 879c f93c 76de fb3c fe53 84be
00000130: cddf 7dbc 80ab 4a3c 1994 6f3d 4ffe 1f3e
00000140: 907f 9b3b 000d 3bc0 d696 a2be 7f6b 363b
00000150: ede3 68be f035 57bb 9e3a 9d3c a6e6 c4be
00000160: e89f 9e3a c6d3 d83c ce68 79be f29b adbc
00000170: 6cd2 2d3c f1db 24bf 0776 d23d 0169 c03c
00000180: 7f37 1cbe 9fe5 863d 2d00 ad3b eceb 12bf
00000190: 8a00 f8bc 06de 073d 4b8b eb3f 1e77 b13e
000001a0: 0c95 37bc 9630 d8bf 5839 26bd c87c 883c
000001b0: 7e56 203f dce4 65bc 9ccb 9339 01b5 04bf
000001c0: 80f0 d8bd 7a6e f73c adb3 f9bd d968 cd3c
000001d0: ddcf 363c e60b bcbc 054a 953d fb31 bcb9
000001e0: c42b 46be 1094 d13d eade 133c 7a6a 073e
000001f0: 2ebb 1c3c 2081 5cbb 82f6 203e bda1 443e
00000200: 7c2b d03b 4042 07bf 1156 97bd bc61 ca3c
00000210: aa63 69bf 6309 bc3d d334 3b3c c1e7 eabd
00000220: 9736 a23d 5c3e 7f3b 2722 80be d382 c33d
00000230: 3f34 903c 829d 03bf 56d7 ec3c b3df c33c
00000240: b3a0 77be 1bcd c73b fab4 7e3c 93a5 2abf
00000250: 85dd a93e a74a 893c 048c 6ebe e128 c03d
00000260: 21ac 813c 8c41 1abc 793b 083d 8f55 25bb
00000270: 1c1e f1be 1c5c 32be 84ad b43b 7618 a6be
00000280: 57e6 7c3e 0a4c a53b 2bfa c2be 5acc 85bc
00000290: 6d5f c83c f01c 2dbf bcee 0bbe 9a5f 133d
000002a0: a0b7 5cbe 6ff7 11be 8681 58bc f281 a1be
000002b0: 5875 f4bb c2be 323c 8754 42bf 6b9a b33e
000002c0: 0c2f 41ba a71b c7bf 00b9 773c c425 943c
000002d0: cff1 52bd 0fbe 6e3d 6591 e53b 9ecd 68bf
000002e0: 1b0e a4bc 68a5 c63b 870f 713e e929 863d
000002f0: 10f4 61bb b853 60bf 181b 19bb 3757 8b3c
00000300: 2ae6 bcbe f2bd 853d 539a 5c3c 9030 34be
00000310: e180 d7bb 6107 583b 0432 e8bf 8040 9fbd
00000320: 33c4 993c 2806 8ebe 75fe 1b3e 5e84 3b3c
00000330: 3720 d0bc d499 823a 4e35 6039 8ffe 0841
00000340: a6e3 843e 3a32 98bd de52 763d 112a 093e
00000350: 7e0f 963b 4894 d4be 820d d1bd 8d16 d13c
00000360: f1be 1d3e e9b2 2a3d 3ee3 8dbb 08ad 94be
00000370: 70f9 5c3c 49f8 4b3c 87e3 9cbe c9e6 0a3e
00000380: 380f e23b f0c6 4ebc 07f4 723e 2d68 353c
00000390: 2818 e2be 814f 8f3d ff6b 903c 22b8 7bbd
000003a0: c364 2f3c 61a9 f63a 6807 83be eb34 7c3d
000003b0: 5e4d 143c 39ba ab3d 6794 81bd f65d 6abb
000003c0: 0a1b b5be 598f db3c 3120 4d3c 39ad 27be
000003d0: 283a 47bd 244f 8f3b 7aad f2bf 9466 1fbd
000003e0: 0879 e63b 1af0 a0bf e919 8dbe e609 913b
000003f0: 3d12 13be 182e 903d 99d2 033c 1eca 64be

exp_avg_sq f4 [164, 3]
20.121338 6.319425 8.6106185e-05 95.83889 11.466958 0.00065102876 219.92145 8.339389
0.000495455 98.38 11.071445 0.00042602335 14.399662 6.0593762 9.836261e-05 37.005924
10.841956 0.00016306246 360.26846 34.46168 0.00059526734 18.448782 46.27964 0.00011220124
35.794743 4.861801 0.00023402342 4.9649105 2.0891602 6.4800006e-05 9.660149 8.353386
3.4839657e-06 7.549929 4.6612134 5.6543835e-05 238.56335 47.13167 0.000643727 27.50877
10.016374 0.000109547036 35.41091 24.902409 4.2409796e-05 13.297626 0.027288672 1.7262368e-08
3.8051984 0.907921 7.361285e-05 30.593372 14.797584 9.612264e-05 15.21498 4.0343566
8.093721e-06 11.811403 6.016909 6.443942e-05 67.16923 108.74023 0.00048245522 108.74082
7.999942 0.00030737257 21.51767 35.3133 3.7447222e-05 14.145759 5.5283346 3.6661117e-05
63.897274 21.324873 0.0005557327 37.403492 15.406728 8.919757e-05 118.737015 7.363677
4.361792e-05 11.317495 3.1709688 9.032019e-06 57.419636 16.50357 0.00011538743 88.11258
16.971704 0.0004083783 49.000748 17.21284 0.00020943832 353.288 5.2502384 0.00040299003
18.103458 7.275975 0.00012734064 45.876278 16.288729 0.0007259067 10.343165 10.340449
0.00012477749 15.613684 4.523614 0.000104446546 54.399174 54.99882 5.731197e-05 236.722
7.213335 0.0004702161 13.659156 5.466947 0.00015248705 78.43956 49.507828 0.00011634149
132.32948 11.982186 8.392362e-05 34.28163 4.4878025 1.7939088e-05 11.50106 4.555686
1.7039412e-05 38.307087 7.8007674 0.00029916002 1.5193233 0.8457546 4.6647416e-05 33.369556
8.782688 0.00011715891 63.052017 5.809199 0.00016210857 119.13752 21.9791 0.00077021983
159.43466 3.5722573 0.00018172196 405.6302 34.0233 0.00019259931 115.64847 32.60298
0.00010916498 37.810158 26.371307 0.00010322498 27.763351 66.42443 5.2216925e-05 130.19159
38.244423 0.00028340498 1293.1078 5.143358 0.00035248804 117.73694 47.930016 0.0011489491
251.7882 11.819502 4.830165e-05 175.91164 9.820785 0.0003172739 68.94389 255.19806
0.00043528335 9.549188 2.4010801 4.8429105e-05 21.211233 7.378102 0.00013826747 13.698416
5.3124456 4.0961026e-05 464.82352 8.650716 6.0676182e-05 27.160158 9.803169 0.000120648874
47.16687 13.774989 0.00020072427 117.77001 19.36854 5.644504e-05 109.22091 30.111048
0.000109016415 266.97415 26.93845 0.00022182183 8.358314 3.7400556 1.2238877e-05 136.91978
28.572968 0.0016953406 10.176508 1.9451632 1.9350791e-05 46.79103 35.337605 0.0005777404
574.77295 5.453637 4.0394654e-05 34.649635 13.533841 0.00032534963 26.170155 11.37857
8.124948e-05 212.65694 9.775301 8.6785556e-05 101.74769 28.913757 0.00014598313 161.38004
11.693063 0.000112792746 87.99643 25.500505 0.00014092264 146.04541 4.2484007 1.8424595e-05
159.70172 19.096113 0.00038623664 41.16522 16.604404 0.0003130859 9.485728 2.0755415
2.343461e-05 27.003052 58.606155 5.5722972e-05 178.34683 12.018896 0.000181232 29.911928
00000000: 80f8 a041 bb38 ca40 e893 b438 83ad bf42
00000010: a978 3741 cda9 2a3a e4eb 5b43 236e 0541
00000020: 6ce1 013a 8fc2 c442 a424 3141 e35b df39
00000030: 0465 6641 69e6 c140 0648 ce38 1106 1442
00000040: a778 2d41 bffb 2a39 5d22 b443 c3d8 0942
00000050: b70b 1c3a 1b97 9341 5a1e 3942 954d eb38
00000060: d12d 0f42 e093 9b40 2f64 7539 8ce0 9e40
00000070: cdb4 0540 3de5 8738 f88f 1a41 78a7 0541
00000080: 13ce 6936 0599 f140 a928 9540 7b29 6d38
00000090: 3890 6e43 d586 3c42 cabf 283a f611 dc41
000000a0: 1143 2041 9ebc e538 c6a4 0d42 2238 c741
000000b0: 2ce1 3138 13c3 5441 7e8c df3c 5948 9432
000000c0: 5f88 7340 836d 683f 9960 9a38 3abf f441
000000d0: e7c2 6c41 7395 c938 8f70 7341 7319 8140
000000e0: 44ca 0737 82fb 3c41 858a c040 a623 8738
000000f0: a556 8642 ff7a d942 0bf2 fc39 4d7b d942
00000100: 86ff ff40 d926 a139 3024 ac41 d240 0d42
00000110: a610 1d38 0755 6241 1ee8 b040 93c4 1938
00000120: cf96 7f42 5799 aa41 97ae 113a 2d9d 1542
00000130: f581 7641 950f bb38 5a79 ed42 3ea3 eb40
00000140: 63f2 3638 7614 3541 27f1 4a40 3a88 1737
00000150: b5ad 6542 5007 8441 28fc f138 a439 b042
00000160: 0dc6 8741 9c1b d639 c400 4442 e5b3 8941
00000170: ac9c 5b39 dda4 b043 f401 a840 6848 d339
00000180: e2d3 9041 cad4 e840 be86 0539 4f81 3742
00000190: 514f 8241 c64a 3e3a 9b7d 2541 7b72 2541
000001a0: b4d6 0239 a6d1 7941 72c1 9040 500a db38
000001b0: c198 5942 cbfe 5b42 4262 7038 d5b8 6c43
000001c0: a4d3 e640 5687 f639 e78b 5a41 3bf1 ae40
000001d0: eee4 1f39 0ee1 9c42 0408 4642 5dfc f338
000001e0: 5954 0443 09b7 3f41 2700 b038 6420 0942
000001f0: 149c 8f40 e67b 9637 5704 3841 2ec8 9140
00000200: dcef 8e37 753a 1942 e39f f940 94d8 9c39
00000210: 3079 c23f 6083 583f 48a7 4338 6d7a 0542
00000220: e485 0c41 36b3 f538 4435 7c42 f5e4 b940
00000230: b0fb 2939 6946 ee42 32d5 af41 94e8 493a
00000240: 466f 1f43 dd9f 6440 9e8c 3e39 aad0 ca43
00000250: dc17 0842 7cf4 4939 044c e742 7469 0242
00000260: 81ef e438 9a3d 1742 70f8 d241 7d7a d838
00000270: 581b de41 4fd9 8442 7f03 5b38 0c31 0243
00000280: 4afa 1842 f995 9439 73a3 a144 6496 a440
00000290: 25ce b839 5079 eb42 56b8 3f42 5698 963a
000002a0: c7c9 7b43 ae1c 3d41 8097 4a38 61e9 2f43
000002b0: ef21 1d41 c857 a639 46e3 8942 b432 7f43
000002c0: be36 e439 79c9 1841 4cab 1940 5b20 4b38
000002d0: 9bb0 a941 6919 ec40 e4fb 1039 b62c 5b41
000002e0: 8eff a940 91cd 2b38 6969 e843 5569 0a41
000002f0: 8e7e 7e38 0148 d941 c8d9 1c41 df04 fd38
00000300: e0aa 3c42 5b66 5c41 8379 5239 3f8a eb42
00000310: c5f2 9a41 66bf 6c38 1b71 da42 6de3 f041
00000320: be9f e438 b17c 8543 f281 d741 d898 6839
00000330: a7bb 0541 125d 6f40 9455 4d37 77eb 0843
00000340: 7095 e441 3136 de3a fad2 2241 1cfb f83f
00000350: 8253 a237 042a 3b42 b559 0d42 8073 173a
00000360: 78b1 0f44 3284 ae40 6e6d 2938 3a99 0a42
00000370: 9d8a 5841 b093 aa39 7a5c d141 9f0e 3641
00000380: 7c64 aa38 2da8 5443 a267 1c41 a400 b638
00000390: d17e cb42 604f e741 0c13 1939 4a61 2143
000003a0: c916 3b41 258b ec38 2cfe af42 0901 cc41
000003b0: a2c4 1339 a00b 1243 e6f2 8740 848e 9a37
000003c0: a4b3 1f43 d7c4 9841 ce7f ca39 2fa9 2442
000003d0: d2d5 8441 ae25 a439 8bc5 1741 acd5 0440
000003e0: 7195 c437 4006 d841 b46c 6a42 16b8 6938
000003f0: ca58 3243 664d 4041 1809 3e39 a14b ef41

exp_avg f4 [164]
-0.07959056 0.062307283 0.05990391 0.04864856 0.017837577 -0.042489324 0.05874856 -0.03126548
0.026958339 0.11313528 -0.00480687 -0.2938239 0.05129142 0.2895343 0.18356879 1.1011116e-37
-0.2250575 -0.29760197 -0.5801723 0.016021665 -0.2913039 0.03780376 0.2930447 -0.15584551
0.06333703 0.033937298 0.019654721 -0.38204563 -0.010693821 0.056540105 0.01904765 -0.0069139344
0.01714684 0.07340176 0.22707337 -0.23223484 0.114948004 0.06818796 0.018660035 -0.015310513
0.034094524 -0.005856417 0.015880655 0.06858353 -0.12289114 -0.013856087 0.03950923 0.06447852
0.03537379 -0.06134201 -0.030635875 -0.004247799 -0.052183773 -0.042882923 0.053161357 0.08950921
-0.067692816 0.030199097 -0.09417549 -0.21031265 -0.010629991 -0.13171592 -0.00856393 -0.11488924
-0.0007602412 0.021065151 -0.24909513 -0.035107918 -0.0052285646 1.2020055 0.011678305 0.0576078
-0.0039698076 0.033443708 -0.053853683 0.032529023 -0.051775187 0.006666328 0.004162953 -0.01038063
0.041512024 0.0151310945 -0.25833228 -0.14460072 0.024303015 0.026502132 -0.03578482 0.21758422
0.046961773 0.054954868 -0.24152072 0.028988214 -0.082565255 0.014124597 0.02485694 -0.34586257
0.04060433 0.0028676144 0.034697518 -0.018200878 0.0437835 0.07264317 0.42587832 -0.11720906
-0.22532347 0.00088016153 0.07196083 0.0073513677 -0.007644903 0.05325178 -0.009718485 -0.07026483
0.052782588 0.00023268606 0.16872393 -0.28107968 0.040199436 -0.009709328 -0.1343441 -0.0560963
0.069433264 0.035929214 0.032375343 -0.1855998 -0.006760153 -0.03689553 -0.12593971 -0.33053803
-0.2704428 -0.029319115 -0.043020803 -0.026437553 -0.08050266 -0.027421312 -0.08959839 0.024076734
-0.010874552 -0.033780545 -0.060760017 -0.0430484 -0.19097893 0.01449961 -0.0056550223 0.036227405
0.0003053355 0.110900104 -0.21578093 -0.004370632 0.046970677 0.03908244 -0.026633129 -0.16721657
0.029098684 -0.16211393 -0.12983689 -0.020183198 0.093531854 0.042586006 0.33328632 -0.1495176
0.21112356 -0.017785002 0.16622935 0.020884544
00000000: 6000 a3bd ec35 7f3d cd5d 753d b643 473d
00000010: 1c20 923c 4909 2ebd 54a2 703d 3b10 00bd
00000020: bcd7 dc3c 78b3 e73d f382 9dbb 1670 96be
00000030: f416 523d d73d 943e 75f9 3b3e 24e0 1502
00000040: 7975 66be 495f 98be 2c86 14bf de3f 833c
00000050: c925 95be 1ed8 1a3d f409 963e f795 1fbe
00000060: d8b6 813d d601 0b3d f002 a13c 7c9b c3be
00000070: 2335 2fbc 9996 673d d109 9c3c 498e e2bb
00000080: 8877 8c3c a953 963d ec85 683e f8ce 6dbe
00000090: dc69 eb3d 21a6 8b3d eedc 983c f2d8 7abc
000000a0: b3a6 0b3d 30e7 bfbb 2618 823c 8675 8c3d
000000b0: 5aae fbbd a404 63bc 6ed4 213d 500d 843d
000000c0: 1be4 103d c241 7bbd 16f8 fabc 1f31 8bbb
000000d0: a7be 55bd 01a6 2fbd b9bf 593d 9b50 b73d
000000e0: 88a2 8abd 1964 f73c 14df c0bd 335c 57be
000000f0: 6a29 2ebc 8ae0 06be ba4f 0cbc 0d4b ebbd
00000100: ec4a 47ba d390 ac3c cb12 7fbe 52cd 0fbd
00000110: 6154 abbb 51db 993f 5d56 3f3c 28f6 6b3d
00000120: 2915 82bb 45fc 083d ae95 5cbd 273d 053d
00000130: 3812 54bd 3671 da3b 6169 883b 8513 2abc
00000140: 8308 2a3d 69e8 773c 2144 84be 3612 14be
00000150: 1e17 c73c 001b d93c 1a93 12bd 66ce 5e3e
00000160: fd5a 403d 5b18 613d 3551 77be b178 ed3c
00000170: f917 a9bd db6a 673c c8a0 cb3c e614 b1be
00000180: ba50 263d 96ee 3b3b fc1e 0e3d 021a 95bc
00000190: 5456 333d f1c5 943d b90c da3e 4e0b f0bd
000001a0: 32bb 66be a4ba 663a 3360 933d bee3 f03b
000001b0: 1882 fabb 8a1e 5a3d 483a 1fbc 02e7 8fbd
000001c0: 8e32 583d 30fd 7339 f7c5 2c3e ade9 8fbe
000001d0: 2aa8 243d e013 1fbc 8091 09be 3cc5 65bd
000001e0: 0733 8e3d 832a 133d 029c 043d e00d 3ebe
000001f0: 4684 ddbb c41f 17bd 57f6 00be 483c a9be
00000200: 7b77 8abe a42e f0bc 9536 30bd 9193 d8bc
00000210: 94de a4bd a9a2 e0bc 5c7f b7bd 923c c53c
00000220: 2d2b 32bc 785d 0abd 7fdf 78bd 8553 30bd
00000230: fb8f 43be c68f 6d3c c44d b9bb 3063 143d
00000240: 7015 a039 981f e33d adf5 5cbe 8537 8fbb
00000250: 5364 403d e914 203d b82d dabc d23a 2bbe
00000260: 5d60 ee3c 3201 26be f6f3 04be 3c57 a5bc
00000270: a18d bf3d aa6e 2e3d 81a4 aa3e 241b 19be
00000280: c630 583e dab1 91bc 0738 2a3e 1016 ab3c

exp_avg_sq f4 [164]
0.20581773 1.362933 3.0204952 1.3711344 0.154899 0.5325609 5.0720773 0.6017884
0.5034384 0.07599357 0.17395034 0.13630247 3.4872465 0.342935 0.4642674 0.17715327
0.05729992 0.4538443 0.30262876 0.13276455 1.475229 1.4871709 0.5293547 0.16160221
0.996553 0.60230905 1.464529 0.1486528 0.57297003 1.2912422 0.7878476 4.750425
0.28058484 0.7234638 0.22417909 0.14639468 0.9505502 3.1992764 0.2059415 1.4171423
1.8445947 0.4332359 0.11158834 0.5513435 0.026077332 0.5058927 0.87057257 1.6871325
2.1283147 5.0605245 1.1214738 0.66270113 0.858571 2.0242217 17.26275 1.9235684
3.4013114 2.3967052 2.9627037 0.108985834 0.23941605 0.14494814 6.1318426 0.29093394
0.743063 1.6666151 1.1058207 3.7661235 0.0678968 2.0086923 0.13069065 0.90797687
7.6784415 0.53041035 0.26191768 2.8555734 0.95961136 2.1996922 1.3620303 1.8719199
2.2148342 0.63461983 0.14242591 0.77334017 2.433878 0.47826105 0.20657293 0.123561844
0.57702035 2.276785 0.11537862 0.44647777 0.23289712 5.4069166 0.15430525 0.27452907
0.78079754 0.25596172 0.3307894 0.1226197 0.3212428 0.38422605 0.31802654 3.3413422
0.22731654 0.25080264 0.10303044 4.8319983 1.002792 0.34574795 2.555663 0.67070884
0.9600432 0.32354507 0.2676993 0.5018159 4.0339193 6.1137104 2.317748 1.7605227
4.3260183 4.019207 0.29272553 0.16740751 0.29761243 1.0014131 0.34163702 0.18459402
0.09211944 0.099031866 2.5742557 0.76211137 0.56086165 4.1329117 0.11564663 0.5286014
0.41463488 0.13255948 0.692318 0.8722535 4.215022 0.03253876 0.9355275 0.23766853
0.9318494 0.07896403 0.0864194 0.023753779 1.1487254 1.2288501 0.08581681 0.22340466
0.38109618 0.49909422 0.16376886 2.2921784 0.12293471 2.1942356 0.7643168 0.17365503
0.10074758 6.487312 0.104586646 0.17275426
00000000: e2c1 523e 9774 ae3f cb4f 4140 5581 af3f
00000010: d89d 1e3e e955 083f 754e a240 ce0e 1a3f
00000020: 57e1 003f 84a2 9b3d 0a20 323e e092 0b3e
00000030: 0c2f 5f40 2d95 af3e 75b4 ed3e ab67 353e
00000040: 52b3 6a3d 485e e83e 28f2 9a3e 6ef3 073e
00000050: 4ed4 bc3f 9e5b be3f ca83 073f 0d7b 253e
00000060: 191e 7f3f ed30 1a3f b075 bb3f 7138 183e
00000070: 2aae 123f 6d47 a53f 61b0 493f 7b03 9840
00000080: d1a8 8f3e ec34 393f 348f 653e 7de8 153e
00000090: 4257 733f f2c0 4c40 54e2 523e eb64 b53f
000000a0: ae1b ec3f 19d1 dd3e 6d88 e43d d924 0d3f
000000b0: 21a0 d53c 2f82 013f d8dd 5e3f f5f3 d73f
000000c0: 4f36 0840 d1ef a140 748c 8f3f c8a6 293f
000000d0: 4fcb 5b3f d98c 0140 1d1a 8a41 7d37 f63f
000000e0: 16af 5940 9e63 1940 f09c 3d40 f733 df3d
000000f0: 7b29 753e 496d 143e 0e38 c440 4bf5 943e
00000100: 6039 3e3f a553 d53f 888b 8d3f 2b08 7140
00000110: 7a0d 8b3d 6a8e 0040 c5d3 053e 2c71 683f
00000120: cbb5 f540 f9c8 073f 131a 863e b7c1 3640
00000130: 17a9 753f c2c7 0c40 0257 ae3f 129b ef3f
00000140: d8bf 0d40 7276 223f 19d8 113e 9ff9 453f
00000150: a8c4 1b40 a2de f43e db87 533e fe0d fd3d
00000160: 9bb7 133f d8b6 1140 a04b ec3d bc98 e43e
00000170: 957c 6e3e 7605 ad40 3202 1e3e 138f 8c3e
00000180: 59e2 473f 6a0d 833e 3a5d a93e 0a20 fb3d
00000190: f079 a43e 47b9 c43e 60d4 a23e 8dd8 5540
000001a0: abc5 683e 3469 803e a001 d33d bb9f 9a40
000001b0: 7d5b 803f e005 b13e fc8f 2340 93b3 2b3f
000001c0: 64c5 753f b3a7 a53e e20f 893e 0277 003f
000001d0: de15 8140 84a3 c340 fc55 1440 cf58 e13f
000001e0: be6e 8a40 589d 8040 1fe0 953e e06c 2b3e
000001f0: a860 983e 4e2e 803f 0ceb ae3e 3706 3d3e
00000200: 1ea9 bc3d 38d1 ca3d 9bc0 2440 bb19 433f
00000210: a194 0f3f d040 8440 24d8 ec3d 6c52 073f
00000220: 064b d43e acbd 073e c13b 313f 014c 5f3f
00000230: 76e1 8640 5d47 053d bb7e 6f3f 615f 733e
00000240: af8d 6e3f e5b7 a13d a8fc b03d 4997 c23c
00000250: 6f09 933f f64a 9d3f b9c0 af3d 31c4 643e
00000260: 0a1f c33e 4789 ff3e 06b3 273e 0db3 1240
00000270: 31c5 fb3d 5b6e 0c40 44aa 433f a0d2 313e
00000280: bf54 ce3d 0f98 cf40 8631 d63d 7ee6 303e
