docs/smld/lightning_logs/version_113/checkpoints/epoch=49-step=4900.ckpt (torch, 345995 bytes, 18 tensors)

model.layers.0.weight f4 [164, 3]
0	0x3ea4cf52	0.32189423
1	0xbea26c79	-0.31723383
2	0x3d66ab7c	0.056315884
3	0xbedc03d6	-0.42971677
4	0xbe7c806a	-0.24658361
5	0x3e9724a9	0.29520157
6	0x3ee9d836	0.45672768
7	0x3f074d98	0.52852774
8	0xbe7063d3	-0.2347558
9	0x3d79a58a	0.060948886
10	0x3ebce7ec	0.36895692
11	0xbf04f48c	-0.5193565
12	0xbe02662a	-0.12734285
13	0xbeb62488	-0.35574746
14	0xbed2bf0e	-0.41161388
15	0x3e0b4d7f	0.13603781
16	0xbebbfb3f	-0.36715123
17	0xbee76543	-0.45194444
18	0x3e9c758d	0.30558434
19	0xbebc5c38	-0.36789107
20	0xbd62b7f1	-0.0553512
21	0x3e274627	0.16335355
22	0xbec05680	-0.37565994
23	0xbe7365cb	-0.237693
24	0x3e06afeb	0.13153045
25	0xbee1d845	-0.44110313
26	0x3ef23128	0.47303128
27	0xbd2f23bb	-0.042758685
28	0xbeca9eb4	-0.39574206
29	0x3ef65e10	0.4811864
30	0xbdb49a1e	-0.08818458
31	0xbe6fb9a7	-0.23410664
32	0x3b4e66f3	0.0031494468
33	0xbe54d0d5	-0.20782788
34	0x3eba413d	0.36377898
35	0x3e0be677	0.13662134
36	0xbdc9c5dd	-0.098521926
37	0x3ea0214d	0.31275406
38	0x3e6f01ba	0.23340502
39	0x3ea60305	0.3242418
40	0xbeb0a8ac	-0.34503686
41	0xbf0af713	-0.54283255
42	0xbdb80290	-0.08984864
43	0x3dfd04d1	0.12354434
44	0x3b04e2fb	0.0020276892
45	0xbdc419e4	-0.09575251
46	0xbeadc703	-0.33940896
47	0x3ec04fbd	0.37560835
48	0x3ef01bfb	0.46896347
49	0x3d2da4bb	0.042393427
50	0x3ec9c3fe	0.39407343
51	0xbe89fb8c	-0.26949728
52	0xbeafd2b5	-0.34340444
53	0xbe4512ea	-0.19245496
54	0xbea60c57	-0.3243129
55	0x3df41bb0	0.119193435
56	0x3e101415	0.1407016
57	0x3e8c8591	0.27445653
58	0xbda5a48a	-0.08088024
59	0x3eeaf49e	0.45889753
60	0x3ee2d484	0.44302762
61	0xbd34a72e	-0.044104747
62	0x3ec9dc49	0.39425877
63	0x3ed0acd3	0.40756854
64	0xbec14c91	-0.37753728
65	0x3e515997	0.20444332
66	0xbe059cd2	-0.13048103
67	0x3d9bffe6	0.07617168
68	0xbed4f69b	-0.41594395
69	0x3da86b49	0.08223588
70	0x3e8a5c61	0.27023605
71	0x3ecfaa14	0.40559447
72	0x3efd7a58	0.49507403
73	0x3ea0eda0	0.31431293
74	0x3e386da5	0.18010576
75	0xbe047514	-0.12935287
76	0xbbcbcd75	-0.0062195607
77	0x3e71c02e	0.23608467
78	0xbd69e5b8	-0.057103842
79	0x3e696121	0.22790958
80	0xbe4890b6	-0.19586453
81	0x3ef5cef4	0.48009455
82	0x3e966745	0.29375663
83	0x3ea7ef70	0.32799864
84	0x3ee42c18	0.4456489
85	0xbe17c092	-0.14819553
86	0x3e6153f0	0.22004676
87	0x3deedfc8	0.11663777
88	0xbe9c3649	-0.30510166
89	0xbd41c3d6	-0.047305904
90	0x3eb6d780	0.35711288
91	0x3ecff0af	0.40613315
92	0x3efd7dd2	0.49510056
93	0xbe5a7f3e	-0.21337602
94	0xbf017f75	-0.5058511
95	0xbe0267ca	-0.12734905
96	0xbed43f81	-0.414547
97	0xbe44483a	-0.19168177
98	0xbd1999f2	-0.03750033
99	0x3ea2b9cf	0.31782386
100	0xbedadf90	-0.4274869
101	0xbdf47386	-0.11936097
102	0xbd32690e	-0.04355722
103	0x3f0050e2	0.5012342
104	0xbe8dbd69	-0.2768357
105	0xbee1e604	-0.441208
106	0xbe46ca23	-0.19413047
107	0x3ea74e0b	0.3267673
108	0xbd61ce5a	-0.055128433
109	0x3ef16e21	0.47154334
110	0xbedfa9cf	-0.4368424
111	0x3e998d84	0.2999078
112	0x3d27b39d	0.040942777
113	0x3e79597e	0.24350545
114	0xbec5fa4f	-0.38667533
115	0xbe0465d1	-0.12929465
116	0x3e98ad76	0.2981984
117	0x3da4967f	0.08036517
118	0xbead61d3	-0.33863696
119	0xbd09bb7a	-0.033626057
120	0xbee42805	-0.44561782
121	0x3d77e698	0.060522646
122	0x3eb79350	0.35854578
123	0x3ec0d5d6	0.37663144
124	0xbe69036a	-0.22755209
125	0x3ed1f9ad	0.410108
126	0xbed73a19	-0.42036512
127	0xbed8a6a0	-0.42314625
128	0xbe99054c	-0.29886854
129	0xbec4694f	-0.38361594
130	0x3db14cbd	0.08657215
131	0xbecafda7	-0.39646646
132	0xbe82261b	-0.25419697
133	0x3e8617b8	0.2618997
134	0xbd4442eb	-0.04791538
135	0xbe4a2c4b	-0.19743459
136	0xbebda4ad	-0.370397
137	0xbee080af	-0.43848178
138	0x3e0d6c10	0.13810754
139	0xbee44e59	-0.44591025
140	0xbed4f183	-0.4159051
141	0x3dc11d59	0.09429426
142	0x3db9b708	0.090681136
143	0x3d23e937	0.040017333
144	0x3efcd5e6	0.49381942
145	0xbe1857db	-0.14877264
146	0xbefffaf2	-0.49996144
147	0xbdd35168	-0.103182614
148	0x3ef27c0c	0.47360265
149	0xbc0af41d	-0.008481053
150	0x3ee21b6f	0.44161555
151	0xbeb0eebe	-0.34557146
152	0x3cc31b06	0.023816597
153	0xbc654489	-0.013993391
154	0xbc4da580	-0.012551665
155	0xbd6729d3	-0.05643637
156	0x3e36d0bb	0.17853062
157	0x3e854423	0.26028547
158	0x3e93b4bd	0.2884883
159	0xbc39b46d	-0.011334521
160	0x3ea051af	0.3131232
161	0x3e6cca83	0.23124127
162	0xbe032bc9	-0.12809671
163	0x3ce8dc26	0.028425287
164	0xbdd34c80	-0.103173256
165	0xbd8ce8bc	-0.06880328
166	0xbdf4a840	-0.11946154
167	0xbd8f17a5	-0.06986932
168	0xbe562392	-0.20912006
169	0x3e98df9d	0.29858103
170	0xbec7d5be	-0.3903026
171	0x3eea7e7a	0.4579962
172	0xbea739ff	-0.32661435
173	0xbf1371eb	-0.575957
174	0x3e12f108	0.14349759
175	0xbe1a5867	-0.15072785
176	0x3f059231	0.52176195
177	0xbe12fcc1	-0.1435423
178	0x3ea1925c	0.31556976
179	0x3e790e6b	0.24321906
180	0x3ea55a88	0.32295632
181	0x3ec9aa09	0.3938754
182	0x3cce6d93	0.025198733
183	0xbdb02191	-0.08600152
184	0x3eddf463	0.43350515
185	0xbef42b05	-0.4768907
186	0x3ea0e843	0.31427202
187	0xbe39710d	-0.18109532
188	0xbf09f9c9	-0.53896767
189	0x3f0b8811	0.54504496
190	0x3ebd4adc	0.36971176
191	0xbf1d610b	-0.614762
192	0xbe1eb313	-0.15497999
193	0xbe0b577c	-0.13607591
194	0xbe845b9f	-0.2585115
195	0x3ef47423	0.47744855
196	0xbe173e55	-0.14769872
197	0xbef23f37	-0.47313854
198	0xbe1abc7e	-0.15110967
199	0xbe15b8f5	-0.14621337
200	0x3e8cc66d	0.27495137
201	0xbec1273a	-0.3772524
202	0xbe99e608	-0.30058312
203	0x3ed0e24a	0.40797645
204	0x3e20dca3	0.15709166
205	0x3de50697	0.111828975
206	0x3e72b4d3	0.23701791
207	0x3f04eb8d	0.5192192
208	0x3d96367b	0.0733461
209	0xbf06c4b4	-0.52643895
210	0xbf02e3d1	-0.5112887
211	0x3ee73c2a	0.4516309
212	0x3ea43013	0.32067928
213	0x3eb1140d	0.3458561
214	0x3eded3e4	0.43521035
215	0xbed2e853	-0.41192874
216	0xbd40a449	-0.047031675
217	0x3e1c5bf0	0.15269446
218	0xbe85b411	-0.26113942
219	0x3f0b04d5	0.5430425
220	0xbebb3e3d	-0.36570922
221	0xbece70b1	-0.40320352
222	0x3d8b0a55	0.0678908
223	0x3e2a3baf	0.1662433
224	0x3d4bb91c	0.04973708
225	0xbe69d5d3	-0.22835474
226	0xbe614752	-0.21999863
227	0xbebe8b8d	-0.37215844
228	0xbe89e033	-0.26928863
229	0x3d829418	0.06375903
230	0x3eea5f6b	0.45775923
231	0x3e5fb58d	0.218466
232	0xbe03b087	-0.12860309
233	0xbc6f0a97	-0.014589927
234	0x3db064b5	0.08612958
235	0xbdb55b82	-0.08855344
236	0xbde0a553	-0.10969033
237	0x3dec7af4	0.11546889
238	0xbf057d8a	-0.5214468
239	0x3d91d6e9	0.07121069
240	0xbd9d2fe5	-0.07675151
241	0xbcb11cba	-0.021620143
242	0x3e71cae8	0.23612559
243	0xbee85f61	-0.45385268
244	0xbecde14d	-0.40210953
245	0xbe9ec0b9	-0.3100641
246	0x3ea0ae5e	0.31383032
247	0x3e987854	0.29779303
248	0x3e7b280e	0.24526998
249	0x3e150d18	0.14555776
250	0xbe480be9	-0.19535793
251	0x3ef4b65e	0.47795385
252	0x3c9b2186	0.018936884
253	0x3cebeef2	0.028800461
254	0xbd0aa130	-0.033845127
255	0x3f00962d	0.5022915

model.layers.0.bias f4 [164]
0	0xbe5a54a2	-0.21321347
1	0xbf12ba70	-0.5731573
2	0xbe8a8599	-0.27055052
3	0x3eb1c198	0.34718013
4	0x3e014faa	0.12628046
5	0x3f039b9d	0.5140932
6	0xbf27ce4d	-0.65549165
7	0x3ee2da45	0.4430715
8	0xbf00deaf	-0.5033979
9	0xbecf61e4	-0.40504372
10	0xbe8f355b	-0.27970394
11	0x3ec5e978	0.38654685
12	0xbf0921a7	-0.53566974
13	0x3f4a2aa4	0.78971314
14	0x3f76ce78	0.96408796
15	0x3f2fbe27	0.68649524
16	0x3e938db0	0.28819036
17	0xbeb3ddd6	-0.35130185
18	0xbf0504d9	-0.5196052
19	0xbeb19884	-0.34686673
20	0x3eada805	0.3391725
21	0xbf0acb2d	-0.5421627
22	0x3ebe9452	0.37222534
23	0xbe472365	-0.19447096
24	0x3f31ab2b	0.69401807
25	0x3f264f44	0.649647
26	0xbf0d7e23	-0.55270594
27	0x3f14bacc	0.5809753
28	0x3e8e4ae8	0.27791524
29	0x3f439ba7	0.7640938
30	0xbe847567	-0.2587082
31	0xbeb87ced	-0.3603281
32	0x3ed62610	0.41825914
33	0x3e036bcb	0.12834089
34	0xbf1ea5f7	-0.6197199
35	0xbe8c66bd	-0.27422133
36	0x3ea9dece	0.331778
37	0xbf3eb7ab	-0.74499005
38	0x3e337919	0.17526664
39	0xbebae9a3	-0.36506376
40	0xbf23722f	-0.63846105
41	0x3e6bcc85	0.23027237
42	0x3ecda434	0.4016434
43	0xbe239db4	-0.15978128
44	0xbe4d8b49	-0.20072664
45	0x3f3fbc43	0.7489664
46	0x3f0cfdc5	0.5507472
47	0xbe5caf2f	-0.21551202
48	0xbe39e659	-0.18154277
49	0x3dc6d86f	0.0970925
50	0x3f0d55fa	0.55209315
51	0x3f317444	0.6931803
52	0xbeef523d	-0.4674243
53	0xbe8824d2	-0.26590592
54	0x3f4a1ce2	0.7895032
55	0x3d6879fc	0.05675696
56	0xbe43a180	-0.19104576
57	0x3f3d5400	0.739563
58	0xbf4a7aee	-0.79093826
59	0xbf155542	-0.5833322
60	0x3e99cd3b	0.3003939
61	0xbee9226b	-0.4553407
62	0xbe0e028c	-0.13868159
63	0x3e16e0c2	0.14734176
64	0x3f557501	0.8338166
65	0xbf01e391	-0.50737864
66	0xbf25ca74	-0.64762044
67	0xbeecf7ab	-0.46282706
68	0xbf2979c2	-0.6620141
69	0xbf432efa	-0.76243556
70	0xbe85495b	-0.26032528
71	0xbeb4b5d4	-0.35294974
72	0x3f7fbbee	0.9989613
73	0x3f030479	0.511787
74	0x3e30b59b	0.17256777
75	0xbf3525c9	-0.7076078
76	0x3ef4c644	0.47807515
77	0x3f35de1a	0.71042025
78	0x3d965231	0.073398955
79	0xbf101406	-0.56280553
80	0xbf5bccda	-0.85859454
81	0x3e8e80cc	0.2783264
82	0xbcc69811	-0.024242433
83	0x3e4fd87d	0.20297427
84	0x3f20d7ad	0.62829095
85	0xbf18cf3f	-0.5969123
86	0x3e94cc94	0.2906233
87	0xbef559b9	-0.47920015
88	0xbef5c21c	-0.47999656
89	0x3eff089c	0.49811256
90	0xbe6519bc	-0.22373098
91	0xbebfcbf0	-0.3746028
92	0xbf4ca897	-0.7994475
93	0xbf0efde7	-0.55856174
94	0xbe067e00	-0.13134003
95	0x3ea00e92	0.31261116
96	0xbe5e91e7	-0.21735345
97	0xbee398cc	-0.44452512
98	0xbf6cfe64	-0.9257567
99	0x3ed41c78	0.4142797
100	0xbeddf2ed	-0.433494
101	0xbf35e58a	-0.71053374
102	0x3d87949c	0.06620142
103	0x3f3f4477	0.74713844
104	0xbf487276	-0.78299654
105	0xbf269033	-0.6506378
106	0xbda92b8c	-0.08260259
107	0x3e2e0b03	0.16996388
108	0xbf25acb6	-0.6471666
109	0x3f1dac02	0.6159059
110	0x3ef05870	0.46942472
111	0x3f52785b	0.822149
112	0x3ea595fb	0.3234099
113	0xbe240ba2	-0.16020063
114	0x3efda7e8	0.49542165
115	0x3f007f12	0.50193894
116	0x3e3fad6a	0.18718496
117	0x3f458ffc	0.7717283
118	0xbddd09f4	-0.10792914
119	0xbed97e01	-0.42478946
120	0xbed6ba31	-0.41938928
121	0xbd372807	-0.044715907
122	0xbcd987d5	-0.026554028
123	0xbf60db60	-0.8783474
124	0x3f13fdfa	0.5780941
125	0x3ec8d133	0.39222106
126	0xbf8c8b9b	-1.0980104
127	0x3ec35870	0.3815341
128	0xbb28adea	-0.0025738426
129	0xbecff6c9	-0.4061797
130	0x3e856068	0.26050115
131	0x3ef735d3	0.48283252
132	0xbf379fbe	-0.7172812
133	0x3e1ff70f	0.15621589
134	0x3e9d3e98	0.30711818
135	0xbf3196ce	-0.69370735
136	0x3e9845c6	0.29740733
137	0xbebf2456	-0.3733241
138	0xbe5a23ba	-0.21302691
139	0xbe32b981	-0.17453577
140	0xbf404b63	-0.7511503
141	0xbf0fe26a	-0.56204855
142	0xbf3c9a0b	-0.7367255
143	0x3ccf1f68	0.02528353
144	0x3e8490a9	0.25891617
145	0xbf3199bd	-0.6937521
146	0x3cf09d46	0.029371869
147	0x3e591235	0.21198352
148	0x3bc6c09d	0.0060654418
149	0xbf29f76c	-0.6639316
150	0xbec3a5d6	-0.3821246
151	0xbe268e6f	-0.16265272
152	0xbeda19b3	-0.42597732
153	0x3f81dbdb	1.014522
154	0xbeebc964	-0.46052086
155	0x3ee8fd27	0.4550564
156	0xbeea381e	-0.4574594
157	0x3f4eff5f	0.80858415
158	0x3f03642a	0.51324713
159	0x3d6d15e9	0.057882223
160	0x3d5738ff	0.05254459
161	0x3ed58273	0.41701087
162	0xbe401977	-0.18759714
163	0x3eabf797	0.33587334

model.layers.2.weight f4 [164, 164]
0	0xbcd4c81e	-0.02597433
1	0xbc8b2035	-0.016983131
2	0xbdac8deb	-0.08425506
3	0xbda287cc	-0.079360574
4	0xbda135a4	-0.07871559
5	0x3d4939a3	0.049127232
6	0xbd8c43f4	-0.068488985
7	0xbc177730	-0.009244725
8	0xbd92914f	-0.07156622
9	0xbd57b2a8	-0.052660614
10	0x3c8344fa	0.016024102
11	0x3d4493c7	0.047992494
12	0x3d847b2c	0.06468806
13	0xbbd6bd56	-0.0065533323
14	0xbd8b1d46	-0.06792693
15	0xbcf58771	-0.02997181
16	0x3d49b206	0.049242042
17	0x3d4aa82d	0.04947679
18	0x3d1d85b1	0.038457576
19	0x3b0831cb	0.0020781632
20	0xbc470f14	-0.012149591
21	0xbcc4022a	-0.023926813
22	0xbb542eda	-0.0032376559
23	0xbd7b0c24	-0.061290875
24	0xbc2e9ffd	-0.010658261
25	0x3cf0d4d7	0.029398365
26	0x3d5aba7c	0.0534005
27	0xbd6a9516	-0.057271086
28	0x3d3cfb94	0.04613836
29	0xbd36cfc6	-0.044631742
30	0xbd92d745	-0.07169966
31	0x3d75f2c7	0.060045984
32	0xbd0a0ae9	-0.03370181
33	0x3d607a7f	0.05480432
34	0x3d07b2e3	0.033129584
35	0xbcf294d0	-0.029611975
36	0xbd9689a2	-0.0735047
37	0x3c8088f8	0.015690312
38	0x3c4c52be	0.012470899
39	0xbd3c35f4	-0.04594989
40	0xbd011698	-0.031515688
41	0xbd2c8ceb	-0.042126577
42	0xbd1fe82f	-0.039039787
43	0xbe00f5cd	-0.12593766
44	0xbd90c969	-0.07069666
45	0xbcd3a80e	-0.02583697
46	0x3d572409	0.0525246
47	0xbd91d65d	-0.07120965
48	0xbd42e918	-0.047585577
49	0xbc39fa46	-0.011351174
50	0xbce8ebd4	-0.028432764
51	0x3c8f489c	0.017490678
52	0x3a98e157	0.0011663836
53	0xbd50d086	-0.050980113
54	0xbce16708	-0.02751495
55	0xbd2b9810	-0.041893065
56	0x3cdd1307	0.026986612
57	0xbbb35cac	-0.005473694
58	0xbd00c574	-0.031438306
59	0xbd6edf7e	-0.058318608
60	0x3d218a84	0.03943874
61	0xbd9bfd17	-0.076166324
62	0x3d54b4a7	0.051930096
63	0xbcfa0810	-0.030521423
64	0xbd14aa89	-0.036295447
65	0x3cb94a19	0.02261834
66	0x3c904f27	0.017615868
67	0xbd881c16	-0.06645982
68	0x3cbccf55	0.023048082
69	0xbd1a67e8	-0.03769675
70	0xbb5514ff	-0.0032513735
71	0x3d615fd7	0.05502304
72	0x3c987ecf	0.018615155
73	0x3d1e8a26	0.038705967
74	0xbc919646	-0.017771851
75	0x3b949ae9	0.0045350683
76	0x3d94b20b	0.072605215
77	0xbcb59602	-0.022166256
78	0x3d8a68fa	0.06758304
79	0x3d4ada26	0.04952445
80	0xbc39e852	-0.011346893
81	0xbc68b8d0	-0.014204219
82	0x3d56cd12	0.052441664
83	0xbcdf358d	-0.027247215
84	0xbd882f88	-0.06649691
85	0xbd4510a2	-0.048111565
86	0x3d25d422	0.04048551
87	0xbd64402c	-0.05572526
88	0xbd394af8	-0.04523751
89	0x3d55d1f5	0.052202184
90	0xbcd879ae	-0.026425209
91	0x3c45627a	0.012047404
92	0x3c9ca1b1	0.01912007
93	0x3d09291f	0.03348648
94	0xbd75685a	-0.05991397
95	0x3d251c1f	0.04031002
96	0x3d291eba	0.04128907
97	0xbc7fab73	-0.0156048415
98	0x3c720572	0.014771806
99	0x3d6a46e9	0.05719653
100	0xbd2bc47c	-0.04193543
101	0xbd1b0d52	-0.0378545
102	0x3ce3406c	0.02774068
103	0xbd8f29a6	-0.06990366
104	0xbdab7c3a	-0.08373304
105	0x3cd6c246	0.026215684
106	0xbd72ed67	-0.059308436
107	0xbc150e3d	-0.009097633
108	0xbcfbdf5f	-0.03074616
109	0x3d8e08b7	0.06935256
110	0xbd86d9a1	-0.06584478
111	0x3c946253	0.01811329
112	0x3d8eface	0.06981431
113	0x3cc7d28c	0.024392389
114	0xbcc47334	-0.023980714
115	0xbc3b596c	-0.011434894
116	0x3c9b179e	0.01893216
117	0xbd3e9d70	-0.046536863
118	0xbd7ccc41	-0.06171823
119	0x3d15fa32	0.036615558
120	0xbda23dd5	-0.0792195
121	0xbbe50a72	-0.0069897706
122	0xbd8e6164	-0.069521695
123	0x3d574e9a	0.052565195
124	0x3bdf3371	0.006811552
125	0xbda6a775	-0.08137409
126	0xbddfe4c4	-0.109323055
127	0xbd8a191f	-0.06743073
128	0x3cb1204e	0.02162185
129	0xbc1bd641	-0.009511531
130	0xbd9fd497	-0.0780422
131	0xbda919c2	-0.08256866
132	0x3a90c002	0.0011043551
133	0x3d8449f8	0.06459421
134	0xbcde42f0	-0.027131528
135	0x3d64efed	0.055892874
136	0xbd4f2327	-0.050570633
137	0x3d1373b2	0.035999008
138	0x3cea8a4c	0.028630398
139	0xbd9a693b	-0.07539602
140	0x3c87a1d0	0.01655665
141	0xbd03048e	-0.031986766
142	0x3cc93232	0.024560068
143	0x3cf210ab	0.029548964
144	0xbd406485	-0.046970863
145	0x3bfda330	0.0077404007
146	0xbd1b9b93	-0.037990164
147	0xbd89aeaa	-0.06722768
148	0xbc79e099	-0.015251302
149	0xbbac50a5	-0.005258637
150	0x3d07f1d9	0.03318963
151	0xbd1e4cf3	-0.038647603
152	0xbd7edb5b	-0.062220912
153	0xbd16b80d	-0.03679662
154	0xbc59b9b0	-0.0132889
155	0xbd66dfa4	-0.056365624
156	0x3d9bbdaa	0.07604535
157	0x3d937d33	0.07201614
158	0x3d1fe711	0.03903872
159	0xbcf97a71	-0.030453892
160	0x3caa7337	0.020806892
161	0x3c426290	0.011864319
162	0xbdb36ef8	-0.087614
163	0x3cb2e357	0.02183692
164	0x3c84474f	0.016147284
165	0xbd1644a3	-0.03668655
166	0x3d231d28	0.039822727
167	0xbdb505fd	-0.08839033
168	0x3d4e2c9e	0.05033552
169	0x3d46818c	0.04846339
170	0xb9e0d64e	-0.0004288428
171	0x3cecfdd4	0.028929628
172	0x3bd2103b	0.006410626
173	0x3bcb1560	0.0061976165
174	0x3bff8736	0.007798101
175	0x3d2ce5cd	0.042211343
176	0x3aa3162e	0.0012442523
177	0xbd019a55	-0.031641323
178	0xbcdb1e86	-0.026747953
179	0x3d771b0b	0.060328525
180	0xbd86653b	-0.06562277
181	0x3c4fadaa	0.012675682
182	0x3c9d987b	0.019237747
183	0xbd891829	-0.06694061
184	0xbd019661	-0.031637553
185	0xbd25737d	-0.04039334
186	0x3da24b6e	0.07924543
187	0xbc1d3a90	-0.009596482
188	0xbca23b41	-0.019803645
189	0xbc3ae26e	-0.011406524
190	0x3d2218a5	0.039574284
191	0x3da28f37	0.07937472
192	0xbc973304	-0.018456943
193	0xbda1a89a	-0.07893486
194	0x3d189431	0.0372507
195	0x3caf37c5	0.021388898
196	0x3d856f61	0.065153845
197	0x3d3eefed	0.04661553
198	0xbd0b7aa2	-0.0340525
199	0xbd8e4514	-0.06946769
200	0xbd091fed	-0.033477712
201	0xbcf190e7	-0.02948804
202	0xbc1aeef0	-0.009456381
203	0xbbc5e7fd	-0.006039618
204	0xbd944c46	-0.072411105
205	0xbcc28744	-0.02374614
206	0xbc2a945f	-0.010411351
207	0x3cc1aca6	0.023641896
208	0xbda57a4b	-0.08079966
209	0x3ceb6d78	0.028738722
210	0xbc062ca4	-0.008189354
211	0x3d8d23ed	0.06891618
212	0xbc38b010	-0.011272445
213	0x3d7ffb9f	0.062495824
214	0x3bbf36c4	0.005835386
215	0x3dff64c6	0.12470393
216	0xbb4b545d	-0.0031025626
217	0xbd22b632	-0.039724536
218	0x3d19c2d8	0.037539333
219	0x3d2058d9	0.03914723
220	0x3ccd7636	0.025080781
221	0xbc7d7c67	-0.015471554
222	0x3d516512	0.05112178
223	0x3c0689ad	0.008211535
224	0xbd64003c	-0.055664286
225	0xbc8307ca	-0.015994925
226	0xbd4be6b5	-0.049780566
227	0xbd841976	-0.06450169
228	0x3d956c70	0.072960734
229	0x3dbbfca1	0.091790445
230	0x3d5609d9	0.052255485
231	0x3d489d49	0.048978124
232	0x3d2cd97c	0.042199597
233	0xbd362b2a	-0.04447476
234	0x3d43cbd3	0.047801804
235	0x3d5ea2f4	0.054354623
236	0xbed15c10	-0.4089055
237	0xbc80787d	-0.015682453
238	0x3d3cb5d1	0.04607183
239	0xbc554137	-0.013016037
240	0x3d0677fa	0.032829262
241	0xbd9c7d7b	-0.07641121
242	0xbcb06355	-0.02153174
243	0x3d8df9be	0.069324
244	0xbc1006d4	-0.00879069
245	0x3d8189cc	0.06325111
246	0x3db32fc2	0.087493435
247	0xbc8085ae	-0.015688743
248	0xbe864a61	-0.26228622
249	0x3d428feb	0.047500532
250	0xbd0db2c7	-0.034594323
251	0x3c06e9d1	0.008234457
252	0x3db45529	0.088053055
253	0x3d114c14	0.035472944
254	0x3d88f09a	0.06686516
255	0xbd8c6b1f	-0.06856369

model.layers.2.bias f4 [164]
0	0xbd9b62db	-0.075872146
1	0xbd62263e	-0.05521225
2	0xba479210	-0.00076130126
3	0xbe03df02	-0.1287804
4	0xbd1f01ae	-0.03881996
5	0x3d89b5c7	0.067241244
6	0xbc97b3e5	-0.018518398
7	0xbe0c5c47	-0.13707076
8	0x3dc6ced0	0.09707415
9	0x3a6ae748	0.0008960855
10	0x3c9869e8	0.018605188
11	0x3e4aaf8d	0.1979353
12	0x3e338099	0.17529525
13	0x3d3b85d5	0.04578193
14	0x3e0fca58	0.14042032
15	0x3d731821	0.059349183
16	0xbd487544	-0.04893996
17	0xbe9cf899	-0.30658415
18	0x3d29ce45	0.04145648
19	0xbbf40201	-0.007446528
20	0xb8cd1ee6	-9.780917e-05
21	0x3d662214	0.056184843
22	0x3a960d24	0.0011448008
23	0xbdc3eb55	-0.095663704
24	0x3dda6356	0.10663478
25	0x3d0c9022	0.034317143
26	0xbd9ae67e	-0.07563494
27	0x3c11b920	0.008894235
28	0x3d475761	0.048667315
29	0x3d089c69	0.03335229
30	0xbdaeae60	-0.08529353
31	0xbd7d0b4e	-0.06177836
32	0xbc9ec51d	-0.0193811
33	0x3d6dd79b	0.058066946
34	0xbd214849	-0.039375577
35	0xbe4139b6	-0.18869671
36	0x3e13528e	0.14386961
37	0x3e1f7db7	0.155753
38	0xbddee717	-0.10883921
39	0x3d5649b7	0.052316394
40	0xbd4b4ff5	-0.0496368
41	0x3e877f96	0.26464528
42	0x3ba783cf	0.0051121484
43	0xbd731c4c	-0.059353158
44	0xbda1868a	-0.078869894
45	0xbe0ae4b0	-0.135638
46	0x3d86144f	0.06546842
47	0x3d7d9391	0.06190831
48	0x3d16edad	0.03684776
49	0x3d920b1e	0.07131027
50	0x3d8077d9	0.06272859
51	0xbba17b5f	-0.004928037
52	0x3c388c0a	0.011263857
53	0x3d2c9585	0.04213478
54	0xbc880221	-0.016602578
55	0xbccfa2f0	-0.02534625
56	0xbda84000	-0.08215332
57	0xbcf19fc2	-0.029495124
58	0xbe6c4eef	-0.23076986
59	0x3d99f36c	0.07517132
60	0x3d831629	0.06400711
61	0xbd78b79b	-0.060721975
62	0x3d025e30	0.031828105
63	0xbcf31c21	-0.029676499
64	0x3911980b	0.00013884918
65	0xbd5c0f5a	-0.053725578
66	0xbd3490ce	-0.04408341
67	0x3d162102	0.036652572
68	0x38e5b270	0.000109528075
69	0xbdbcc2b5	-0.09216825
70	0x3d145d69	0.036221895
71	0x3eb7feeb	0.35936674
72	0xbd14ab75	-0.036296327
73	0x3d1c97b9	0.03823063
74	0x3d3934b4	0.045216277
75	0xbdef81f4	-0.116947085
76	0x3d0fce45	0.035108823
77	0xbeb8b3c8	-0.36074662
78	0xbdca7b5f	-0.098868124
79	0x3a19915a	0.0005858146
80	0x3d7fc0ba	0.062439658
81	0x3c5fa48d	0.013650072
82	0xbdb91a2c	-0.09038195
83	0x3d89c159	0.06726331
84	0x3d9fc3f1	0.07801045
85	0xbdf77a6e	-0.120838985
86	0xbda1e57e	-0.079051
87	0x3cdae14c	0.026718758
88	0xbe3753b9	-0.17903031
89	0xbd53b197	-0.051683035
90	0x3dc1b039	0.0945744
91	0xbd57b4a3	-0.052662503
92	0x3d88025d	0.06641076
93	0xbd003b6e	-0.031306677
94	0x3c1935a4	0.009351168
95	0x3e3de10b	0.18542878
96	0xbb6d6517	-0.0036223584
97	0xbdb3c83d	-0.08778427
98	0x3d1f9085	0.038956184
99	0x3c4d94d8	0.012547694
100	0x3e12cf5b	0.14336912
101	0x3d190cbe	0.037365668
102	0xbb91690a	-0.0044375705
103	0x3d1947f4	0.037422135
104	0xbcecd33c	-0.028909318
105	0x3e69e7a5	0.22842272
106	0xbc121b0a	-0.008917579
107	0x3cfaf60d	0.030634904
108	0x3dd9a7fd	0.10627744
109	0xbb1bd35f	-0.002377711
110	0xbda71414	-0.081581265
111	0xbd02e084	-0.031952396
112	0x3d6e37fe	0.058158867
113	0x3dc3db7d	0.095633484
114	0xbd72f960	-0.059319854
115	0xbe938a03	-0.28816232
116	0x3e60caf9	0.21952428
117	0xbd04ad33	-0.03239174
118	0xbd61b222	-0.05510152
119	0xbca0e0b8	-0.019638404
120	0xbd7b8e4d	-0.061415005
121	0xbdbae7d4	-0.09126249
122	0xbeb080ef	-0.3447337
123	0xbcea9cc6	-0.028639209
124	0x3d36fc52	0.044674225
125	0xbcda8b20	-0.026677668
126	0xbcfcf86d	-0.030880177
127	0xbd6af5e5	-0.05736341
128	0x3c071520	0.008244783
129	0xbc18a663	-0.009317013
130	0xbd9c98e8	-0.07646352
131	0x3d4d9081	0.050186638
132	0x3d97666f	0.073925845
133	0xbd06d557	-0.0329183
134	0xbe897b4c	-0.2685188
135	0x3da03a29	0.07823593
136	0xbc711a12	-0.014715688
137	0x3ca97a6a	0.020688254
138	0x3e9b7fc0	0.30370903
139	0x3bfc5a98	0.0077012293
140	0xbd985322	-0.07437731
141	0x3e7adfb9	0.24499406
142	0xbd9216aa	-0.07133229
143	0x3d43145e	0.047626846
144	0x3e6c00c5	0.23047169
145	0x3e05ffc0	0.13085842
146	0xbde3a65d	-0.11115716
147	0x3cf47e4c	0.02984538
148	0x3c00ac49	0.007853576
149	0xbb978c1d	-0.004624857
150	0xbe156125	-0.14587839
151	0xba0d353b	-0.0005386655
152	0xbe1f3400	-0.1554718
153	0xbdfe5565	-0.124186315
154	0xbd12ffc8	-0.035888463
155	0x3bb7a34e	0.005604184
156	0xbdb2ec2e	-0.08736454
157	0xbd1ae01c	-0.037811384
158	0xbd9aeeeb	-0.07565101
159	0xbd7e438b	-0.062076133
160	0xbd5c407c	-0.053772435
161	0xbc5c242a	-0.013436357
162	0xbcb0eb90	-0.0215967
163	0xbdca0334	-0.09863892

model.layers.4.weight f4 [2, 164]
0	0x3c846cb4	0.016165115
1	0x3cb74c00	0.022375107
2	0xbd6ef3cf	-0.058337983
3	0x3cd024a5	0.025408098
4	0xbc434bd3	-0.011919933
5	0xbd1169fa	-0.035501458
6	0x395ec318	0.00021244248
7	0x3c9ead88	0.019369856
8	0xbb1ec385	-0.0024225425
9	0xbcd4a1d0	-0.025956064
10	0xbc2ac941	-0.010423959
11	0x3d79354d	0.060841847
12	0xbc12597d	-0.0089324685
13	0x3c3fde27	0.01171068
14	0xbc63affb	-0.0138969375
15	0xbd008390	-0.031375468
16	0x3c0b0a42	0.008486332
17	0xbd9053bf	-0.07047223
18	0xbc57fba8	-0.013182558
19	0xbb489c1d	-0.003061063
20	0x3af85619	0.0018946558
21	0xbc5a6c1d	-0.01333144
22	0xbd13991b	-0.036034685
23	0x3a4c9460	0.0007804092
24	0x3cb8e5d0	0.02257052
25	0xbc1a5c65	-0.009421443
26	0x3b6b162e	0.0035871374
27	0xbc09bba8	-0.008406557
28	0xbcc5d667	-0.024150087
29	0x3c32a52f	0.010903641
30	0xbcf0850c	-0.029360317
31	0x3c3ec98d	0.011644733
32	0x3c9f1319	0.019418286
33	0xbd09c48c	-0.033634707
34	0xbbd3f0bb	-0.0064679063
35	0xbd371641	-0.044698957
36	0xbd0d66cc	-0.034521863
37	0xbdb5c347	-0.08875137
38	0x3d28d7ba	0.041221358
39	0x3c92e846	0.017933022
40	0xbd3ffa69	-0.04686967
41	0x3d86f28c	0.06589231
42	0x3b432867	0.002977872
43	0xbba3ff6d	-0.0050048144
44	0x3bef49c3	0.0073024943
45	0xbb55aa54	-0.0032602744
46	0x3d08171e	0.03322517
47	0xbd3f0b4c	-0.046641633
48	0xbc207368	-0.00979314
49	0x3b625df9	0.0034540875
50	0x3d153510	0.036427557
51	0x3aab5a00	0.0013073087
52	0xbc9cfe59	-0.019164251
53	0x3c10e477	0.008843533
54	0x3ca063b4	0.019578792
55	0x3d68b47d	0.056812752
56	0x3d1a2692	0.03763444
57	0xbb9799a1	-0.0046264683
58	0xbcc8aa48	-0.024495259
59	0xbcf86263	-0.030320352
60	0x3d01ea86	0.0317178
61	0xbd98a162	-0.07452656
62	0x3d411b0e	0.047144942
63	0x3beea307	0.007282618
64	0x3cd85fec	0.026412927
65	0xbd198571	-0.037480775
66	0x3b244603	0.0025066144
67	0xbc8fa0a4	-0.017532654
68	0xbd0840bd	-0.033264864
69	0xbc075b21	-0.008261473
70	0xbc907203	-0.01763249
71	0x3f6b240b	0.9185187
72	0x3d2ba283	0.04190303
73	0xbc80f45d	-0.015741521
74	0x3b46a05f	0.003030799
75	0x3c98ea56	0.018666428
76	0xbb914b40	-0.0044340193
77	0xbb8ee835	-0.0043611773
78	0xbc432ab0	-0.011912033
79	0xbd2b6a7d	-0.041849602
80	0x3c46141a	0.0120897535
81	0x3c1199c1	0.008886755
82	0xbbd17f2c	-0.006393334
83	0xbc62a0f3	-0.013832319
84	0x3cb9ef82	0.022697214
85	0x3d031af5	0.03200813
86	0x3c5cb3b5	0.01347058
87	0x3b5f85ab	0.0034106772
88	0xbc739871	-0.014867888
89	0xbd0addf3	-0.033903074
90	0x3b36f56d	0.0027917281
91	0x3cf61bc2	0.030042533
92	0x3da877e9	0.08225996
93	0xbbd356c8	-0.006449554
94	0xbcbcbcfa	-0.02303933
95	0x3c9b4ee3	0.018958515
96	0x3c1ca090	0.009559765
97	0x3cfa90cf	0.030586628
98	0x3c160d43	0.009158435
99	0x3d599dd6	0.05312904
100	0x3d443d08	0.047909766
101	0x3cef0b5b	0.02918022
102	0x3d06df7d	0.03292798
103	0x37003770	7.642302e-06
104	0xbd462903	-0.048378956
105	0xbc842ee3	-0.016135639
106	0xbc96f813	-0.018428838
107	0xbca41f21	-0.020034375
108	0xbd0493e2	-0.032367595
109	0x3d734899	0.059395406
110	0xbaffdb35	-0.0019520285
111	0xbcf8a784	-0.030353315
112	0xbd34147a	-0.04396484
113	0x3b9ed33c	0.0048469584
114	0x3d2d4908	0.042305976
115	0xbc623ee9	-0.013808944
116	0x3cb89cf5	0.02253578
117	0xbcb2b3b4	-0.021814205
118	0xbc174f49	-0.009235212
119	0x3d118c21	0.035534028
120	0x3cb3b9d2	0.021939192
121	0x3b833ddb	0.0040051765
122	0xbde52187	-0.111880355
123	0xbc35f080	-0.011104703
124	0x3a2ff167	0.0006711692
125	0x3c4fc585	0.01268137
126	0x3bfa9f5a	0.0076483907
127	0xbc7c9393	-0.015416044
128	0x3aea02a7	0.0017853574
129	0xbcbe042a	-0.023195345
130	0x3bbccaa1	0.00576146
131	0xbcb5be79	-0.022185551
132	0xbc2f4b76	-0.010699144
133	0x3bf5453d	0.0074850605
134	0xbcff4fd8	-0.031166002
135	0x3c9a25ef	0.018816916
136	0x3cd1e351	0.025621088
137	0x3d84b4b5	0.0647978
138	0xbeafb6e7	-0.3431923
139	0x3ce516c7	0.027964963
140	0x3baf04f9	0.005341169
141	0xbc86a4d1	-0.016436012
142	0xbcaecfb7	-0.02133928
143	0x3cc6e2f4	0.024278142
144	0xbda9bdac	-0.0828813
145	0x3cf6d315	0.030129949
146	0xbc2e26d8	-0.010629378
147	0x3bd330af	0.0064450125
148	0x3d1581c1	0.036500696
149	0x3c17476c	0.009233337
150	0xbc38497d	-0.01124799
151	0x3d0d9819	0.03456888
152	0xbc199850	-0.009374693
153	0xbd4224ec	-0.047398493
154	0xbb067fe1	-0.0020523
155	0xbc9536bc	-0.018214576
156	0xbd0c127f	-0.034197327
157	0xbb910bb8	-0.004426446
158	0x39bffd9b	0.0003661931
159	0x3b694503	0.0035594113
160	0x3be234bd	0.0069032595
161	0x3cc6bee5	0.024260947
162	0xbbed34f3	-0.007238978
163	0xbbe8af16	-0.00710095
164	0xbb995d18	-0.004680287
165	0x3b991194	0.004671285
166	0x3c4e3dfa	0.012588019
167	0x3bfdd7b9	0.0077466634
168	0xbcd65b38	-0.026166543
169	0x3d8a8186	0.06762986
170	0xbc068ebb	-0.0082127405
171	0xbcd6c981	-0.026219131
172	0xbc8d4e14	-0.017249145
173	0x3c3d1456	0.011540493
174	0xbcc1e392	-0.023668084
175	0x3d1c319d	0.038133252
176	0x3d84d0f1	0.06485165
177	0x3b65b84f	0.0035052483
178	0xbbd2459b	-0.006416989
179	0xbc022977	-0.007944456
180	0xbbcdeb56	-0.0062841577
181	0x3de5083a	0.1118321
182	0xbca3ef37	-0.020011527
183	0xba19223e	-0.00058415893
184	0xbb610fce	-0.0034341696
185	0x3d932b45	0.071859874
186	0xbcf42f00	-0.029807568
187	0x3c0f7cff	0.008757829
188	0xbd37f827	-0.04491439
189	0x3cf6a9dc	0.030110292
190	0xbd07cf54	-0.033156708
191	0xbd300f2b	-0.042983215
192	0x3b8a3477	0.00421768
193	0x3d3112d5	0.04323085
194	0xbcb803b1	-0.022462698
195	0x3b670913	0.0035253211
196	0xbc7e1083	-0.015506866
197	0x3d31825c	0.04333721
198	0x3d316fe0	0.043319583
199	0x3d0e3baf	0.034724887
200	0xbbdc4ee7	-0.006723273
201	0x3cad43f2	0.021150563
202	0xbd56bc0f	-0.05242544
203	0xbc28b2b9	-0.010296517
204	0xbcd82324	-0.026383944
205	0xbce5fa84	-0.028073557
206	0xbbe6e901	-0.007046819
207	0xbbf3418c	-0.0074235853
208	0xbbfe8a5f	-0.00776796
209	0xbd53c08b	-0.051697295
210	0xbd0dbb7c	-0.034602627
211	0xbd06e84e	-0.032936387
212	0x3b40a5dc	0.0029395735
213	0xbd1018d3	-0.035179924
214	0x3ca637d6	0.020290297
215	0x3cafa022	0.021438662
216	0xbc57962d	-0.013158363
217	0x3d6cbb93	0.057796072
218	0x3a25a219	0.0006318405
219	0xbd865697	-0.065594845
220	0x3c6bfcdd	0.014403549
221	0x3bebf22d	0.0072005005
222	0x3d4573c3	0.048206102
223	0xbcce7ace	-0.025205042
224	0x3d96c0ab	0.07360967
225	0xbd17c3c9	-0.03705195
226	0x3d163f53	0.036681484
227	0x3c1bf8d1	0.009519772
228	0xbd729613	-0.059225153
229	0xbc550796	-0.013002297
230	0x3bab2206	0.005222562
231	0x3c2bcc2b	0.010485689
232	0x3c8292c4	0.015939124
233	0xbb1e1304	-0.002412022
234	0xbd3f559f	-0.046712514
235	0xbe668da1	-0.22514965
236	0xbd5de496	-0.054173075
237	0xbaaea6ec	-0.0013324893
238	0xbcd09d8c	-0.02546575
239	0xbd0d2cf1	-0.034466688
240	0xbb56652a	-0.0032714107
241	0xbd667a3d	-0.05626892
242	0xbc160aa5	-0.009157811
243	0x3c4e2328	0.012581624
244	0xbdef6309	-0.11688811
245	0xbd904616	-0.07044618
246	0x3b7b3713	0.0038332387
247	0xbce5e6fd	-0.028064245
248	0xbd2ea1ef	-0.0426349
249	0xbd213861	-0.039360408
250	0xbd17cc7c	-0.037060246
251	0x3b70be1d	0.003673441
252	0xbcc234e8	-0.023706868
253	0xbd5b3ca4	-0.05352463
254	0x3cd1f82e	0.025631037
255	0xbd59c469	-0.053165827

model.layers.4.bias f4 [2]
0	0xbd836785	-0.06416229
1	0x3c47cf77	0.01219546

exp_avg f4 [164, 3]
0	0xbb027436	-0.0019905693
1	0x3a37f206	0.00070169603
2	0xba550398	-0.00081258407
3	0x3957afb8	0.00020569458
4	0xba024318	-0.0004969104
5	0x39d57608	0.00040714466
6	0xbaa134d4	-0.0012299069
7	0xba22f962	-0.00062169705
8	0xba91d770	-0.0011126827
9	0x37e8d560	2.7755916e-05
10	0x38f79c38	0.00011806976
11	0x386c58b0	5.634938e-05
12	0xb8b58790	-8.656003e-05
13	0xb9452036	-0.00018799384
14	0x3969f8d0	0.00022313301
15	0x3a355196	0.00069167593
16	0xba4c74c1	-0.000779938
17	0x39276aa4	0.00015966088
18	0xbabf23c9	-0.0014582808
19	0x3a89c991	0.0010512342
20	0xb910e25a	-0.00013817233
21	0x3a822ea8	0.0009932118
22	0x39d89b3b	0.00041314386
23	0xba215794	-0.0006154713
24	0xbab7082e	-0.001396423
25	0xb9304470	-0.00016810163
26	0x39e68eec	0.00043975504
27	0xb8c6b720	-9.4754854e-05
28	0x389f3ace	7.592664e-05
29	0xb917538c	-0.00014431606
30	0xba4c25fa	-0.00077876414
31	0x399ad73c	0.0002953353
32	0x3a1b6ff0	0.0005929461
33	0x3a2763dc	0.00063854246
34	0xb80a94c0	-3.3040298e-05
35	0x39c32598	0.00037221308
36	0x3a93dfbe	0.001128189
37	0xb9b6cf5a	-0.00034868234
38	0xb9ddd7e6	-0.00042313262
39	0x3aa31241	0.0012441353
40	0xbaef537a	-0.0018259131
41	0x3a6d5bab	0.0009054492
42	0x39a5fae8	0.00031658192
43	0x3b3fcc0e	0.0029265913
44	0x39bc5e80	0.00035928562
45	0xb8e0d840	-0.00010721432
46	0x38939a18	7.0382084e-05
47	0x3a36932a	0.0006964678
48	0xb942f6ac	-0.00018593174
49	0x3ae938bb	0.0017793396
50	0x3a0d760e	0.00053963147
51	0xba3f5f17	-0.0007300241
52	0x3a2272d8	0.00061969226
53	0x380ea40c	3.400822e-05
54	0xbaf166a9	-0.0018417436
55	0xbaf7a27a	-0.0018893026
56	0xb9b9b2e8	-0.00035419245
57	0xb8ca8a3a	-9.657857e-05
58	0xbb087e26	-0.0020827143
59	0x3a963f04	0.0011462872
60	0x3a11178a	0.00055348186
61	0x3aa34a0f	0.0012457984
62	0xb703ff80	-7.867697e-06
63	0xba4dbc05	-0.00078481465
64	0x392a0926	0.00016215871
65	0xb97a7be0	-0.00023888005
66	0x3b463f0c	0.0030249981
67	0xbb38132b	-0.0028087597
68	0xbaac7774	-0.0013158158
69	0x3a81a364	0.0009890613
70	0x39024f94	0.00012427411
71	0x3a1f0e22	0.00060674746
72	0x3a725267	0.0009243846
73	0x3923a924	0.00015607901
74	0x3a7995ac	0.0009520899
75	0x3a7ce10c	0.00096465717
76	0x3b1360a3	0.002248802
77	0x39d0bcb8	0.00039813458
78	0xb9c92318	-0.00038363854
79	0xbaa218b2	-0.0012366979
80	0xbb095b14	-0.0020958828
81	0x3b1100b9	0.0022125675
82	0x393256d2	0.00017007746
83	0x3ab55d3d	0.0013836991
84	0xba267b1b	-0.00063507416
85	0xba499dc0	-0.0007691048
86	0xba998a1c	-0.0011714133
87	0x3b23b733	0.0024981021
88	0xbaad2a9f	-0.0013211555
89	0x3af537ae	0.001870861
90	0xbad20a33	-0.0016024768
91	0xb9cf5b68	-0.0003955022
92	0xb9a8a1bc	-0.00032163959
93	0xb9b0ea24	-0.00033743784
94	0xb96f3778	-0.0002281348
95	0x391f87ce	0.00015214013
96	0x3ae05e25	0.0017117901
97	0xba0a4254	-0.0005274166
98	0x39b9a42c	0.00035408267
99	0x3a23c859	0.00062478107
100	0x39c6761b	0.00037853498
101	0x38ded93c	0.00010626248
102	0xb8caefc0	-9.6767675e-05
103	0xb9767cb0	-0.00023506838
104	0xb9fd0da6	-0.0004826609
105	0xb9afc5dc	-0.00033526018
106	0xbad714bf	-0.0016409381
107	0x3a0234f0	0.0004966995
108	0xb868ed30	-5.553401e-05
109	0x390e1e12	0.00013553377
110	0x38b290f6	8.5147025e-05
111	0xba6fb388	-0.00091438787
112	0xbab8d2a9	-0.0014100868
113	0xbac89c06	-0.0015305288
114	0xb9343d90	-0.00017189072
115	0x3a6efbbc	0.0009116491
116	0x3a01490e	0.00049318455
117	0x3a916ebb	0.0011095622
118	0xbb2bbc21	-0.0026204663
119	0x3aa9058e	0.0012895332
120	0xb9d14796	-0.00039916922
121	0xba312ad7	-0.0006758398
122	0x3a1e130e	0.0006030061
123	0xba4b71bc	-0.0007760783
124	0x39a397c0	0.00031202845
125	0x38bcbb78	8.999457e-05
126	0x3a25b494	0.0006321159
127	0xba1a4a1a	-0.0005885676
128	0x39db5b4f	0.00041838965
129	0x38e08399	0.00010705664
130	0xb5659a9a	-8.553412e-07
131	0xb8ffe6eb	-0.00012202359
132	0x38fbbdd0	0.00012003968
133	0x39e5a792	0.00043803133
134	0xb9be7dc6	-0.00036333333
135	0x395e94a8	0.00021226949
136	0x3a94e961	0.0011361056
137	0xba7185a0	-0.0009213332
138	0x39d38b38	0.00040348782
139	0xbaed3088	-0.0018096128
140	0x3a2afdf8	0.00065228296
141	0xbaa3ce62	-0.001249742
142	0xb954934a	-0.00020272765
143	0xba7586b3	-0.000936608
144	0xb7f038f4	-2.863675e-05
145	0x3a524b1e	0.00080220576
146	0xb902da32	-0.0001247905
147	0xba89ebc0	-0.001052253
148	0x38449108	4.6865112e-05
149	0xb882c9e1	-6.236486e-05
150	0x3b17a9e4	0.0023142034
151	0x3a8ff19d	0.001098204
152	0x39d09324	0.0003978248
153	0x3c78c8a8	0.015184559
154	0x3ca80ef1	0.020514937
155	0x3c2f0c98	0.010684155
156	0xba89a82a	-0.0010502387
157	0x38a1265c	7.684223e-05
158	0xb94c9300	-0.00019509718
159	0xba5e7c7c	-0.00084871775
160	0xb9ee7564	-0.0004548236
161	0xb464b000	-2.1298183e-07
162	0x3a95fa00	0.0011442304
163	0x3ba459a2	0.005015568
164	0x3b38bf72	0.0028190282
165	0xb8972c4c	-7.208492e-05
166	0x3a62e4d9	0.0008655317
167	0xba03e498	-0.00050313165
168	0x3a04225a	0.0005040519
169	0x3992a64a	0.00027971185
170	0xb8d0e6ba	-9.961189e-05
171	0x3b759c42	0.003747717
172	0xba9bfc56	-0.0011900763
173	0x3af6de5c	0.0018834579
174	0xbb0af9d8	-0.0021206047
175	0xb9b9d814	-0.0003544694
176	0xba15e88e	-0.0005718552
177	0xbaecb56e	-0.0018059441
178	0x3a5f0d20	0.00085087307
179	0x3953fa30	0.0002021573
180	0xb8da9830	-0.00010423397
181	0x39a7c8c8	0.00032002316
182	0x3a771229	0.00094250083
183	0xba81b0bf	-0.0009894593
184	0x3a6cccf4	0.0009033226
185	0x3a02da08	0.00049915956
186	0x38a66674	7.93458e-05
187	0x398113ba	0.00024619495
188	0x37d216b8	2.504453e-05
189	0x3ad74f0e	0.0016426758
190	0xb939db38	-0.0001772464
191	0x39f77981	0.0004720204
192	0x3acb89e0	0.0015528761
193	0x39e373a1	0.00043382964
194	0xba90fd61	-0.0011061841
195	0xbb36b95e	-0.0027881484
196	0x3ad6622a	0.001635616
197	0xbae1e514	-0.0017234408
198	0xb9807730	-0.00024502864
199	0xba798e10	-0.0009519765
200	0xba8ebf42	-0.001089074
201	0x39aadebc	0.00032590877
202	0xb99d6662	-0.00030021655
203	0xb9c5b4ae	-0.00037709385
204	0xbb10283c	-0.0021996638
205	0x39b70670	0.00034909276
206	0xbaf8c0cf	-0.001897836
207	0xbb2e4a84	-0.0026594708
208	0xb9ebc570	-0.00044969795
209	0xbad14260	-0.0015965216
210	0x3a64ed2a	0.000873285
211	0xba265c5f	-0.0006346162
212	0xba1962fc	-0.00058512366
213	0xb9589370	-0.0002065429
214	0x398f79c7	0.00027365817
215	0xb9433c5b	-0.00018619133
216	0x3b422c90	0.0029628612
217	0x3b317ff8	0.0027084332
218	0x3add541c	0.0016886028
219	0x3ad6a0d1	0.0016374831
220	0xbb2c3a41	-0.002627984
221	0x3a8ab7ba	0.0010583319
222	0x3adcbc44	0.0016840775
223	0xba66a230	-0.00087979715
224	0xba9709ea	-0.001152334
225	0xb96b4fb0	-0.00022441032
226	0x39883ad5	0.00025983775
227	0x39645548	0.00021775544
228	0x3a048870	0.0005055731
229	0x3ad24520	0.0016042329
230	0x376f8080	1.4275429e-05
231	0x3af021bf	0.0018320604
232	0x3a41bf4c	0.0007390871
233	0x3992c918	0.00027997117
234	0x3a84c01c	0.0010128054
235	0xba93fb12	-0.0011290035
236	0x3a7abe9d	0.0009565147
237	0x390cc0ce	0.00013423266
238	0x394c65c0	0.00019492861
239	0x3919faba	0.0001468462
240	0xbb115366	-0.0022174953
241	0xbb5cd68c	-0.0033697216
242	0xbb2bf645	-0.0026239317
243	0xb9e817d2	-0.00044268236
244	0x3a76a86a	0.0009409251
245	0xb80a8070	-3.302138e-05
246	0xba86480e	-0.0010244863
247	0x3aa7df1d	0.0012807582
248	0xb89b9de0	-7.4203825e-05
249	0x3b1989ab	0.0023428004
250	0x3922dbfc	0.00015531474
251	0x3a5e086b	0.00084698823
252	0x3bddadd0	0.006765105
253	0xbac97e27	-0.0015372679
254	0x3bee70f9	0.007276651
255	0xb81e2cb0	-3.7711754e-05

exp_avg_sq f4 [164, 3]
0	0x39198ea8	0.0001464436
1	0x38867e82	6.413182e-05
2	0x388235fe	6.20894e-05
3	0x37e2898f	2.7005355e-05
4	0x38914f01	6.9288544e-05
5	0x38012792	3.079285e-05
6	0x38bfcbc2	9.1455426e-05
7	0x3830832c	4.2083833e-05
8	0x38270c08	3.9827108e-05
9	0x37bfb861	2.2854832e-05
10	0x3933da01	0.00017151983
11	0x3804ed29	3.1692125e-05
12	0x37661c37	1.3715638e-05
13	0x3805c38e	3.1891796e-05
14	0x37281451	1.0018311e-05
15	0x390429e7	0.00012604111
16	0x398f5564	0.00027338706
17	0x38bff799	9.1537084e-05
18	0x399d101f	0.00029957385
19	0x390de9e7	0.00013533943
20	0x391e854a	0.00015117708
21	0x377cbf41	1.50649e-05
22	0x389c7893	7.4611184e-05
23	0x37efcedb	2.8587345e-05
24	0x39a9dd69	0.00032399155
25	0x39aa417c	0.00032473716
26	0x399451e5	0.00028289776
27	0x39045900	0.00012621656
28	0x384c6006	4.872682e-05
29	0x38b4524a	8.5983964e-05
30	0x383bc367	4.4766257e-05
31	0x385907e9	5.17442e-05
32	0x37df6e10	2.6634923e-05
33	0x3984f2f1	0.00025358007
34	0x3a0b5e44	0.0005316476
35	0x39714ba0	0.00023011724
36	0x38a9146d	8.0623526e-05
37	0x3920f704	0.0001535081
38	0x38bbe864	8.960141e-05
39	0x3966aa6e	0.00021998
40	0x3985c181	0.00025511908
41	0x38e94365	0.00011122859
42	0x3a582428	0.0008245134
43	0x3a7ac5f7	0.0009566242
44	0x3a75c555	0.0009375413
45	0x3914ec95	0.00014202514
46	0x388fd626	6.8586596e-05
47	0x38c45e1e	9.363539e-05
48	0x38c737af	9.499431e-05
49	0x391e4c61	0.00015096508
50	0x38f593d3	0.00011710045
51	0x382e9256	4.162112e-05
52	0x381033cb	3.438051e-05
53	0x378af102	1.656311e-05
54	0x39382eb8	0.00017565012
55	0x39b2bdb5	0.00034092148
56	0x39291542	0.00016125015
57	0x384cfd40	4.8873248e-05
58	0x38ee8360	0.00011373195
59	0x387ca8f1	6.023882e-05
60	0x38299550	4.0431798e-05
61	0x383390a1	4.2811622e-05
62	0x3822eddf	3.8845345e-05
63	0x38077544	3.229572e-05
64	0x37c9dc53	2.4063664e-05
65	0x380070e5	3.062272e-05
66	0x388ecca7	6.809207e-05
67	0x37f7f117	2.955696e-05
68	0x3714c608	8.867595e-06
69	0x3932d226	0.00017053689
70	0x38ac2271	8.208014e-05
71	0x38a1aa03	7.7087454e-05
72	0x38eff558	0.00011442107
73	0x38fb9976	0.00011997197
74	0x389d7717	7.5085256e-05
75	0x39953a47	0.00028462915
76	0x39b00146	0.00033570285
77	0x3981cf19	0.00024759097
78	0x39e7f35e	0.00044241076
79	0x3ab97599	0.0014149427
80	0x39b138a6	0.00033802277
81	0x397dcc62	0.00024204099
82	0x38a13924	7.6877215e-05
83	0x38fa754d	0.00011942778
84	0x394b879f	0.00019410111
85	0x38f00148	0.000114443304
86	0x392124f6	0.00015367926
87	0x38da5aa2	0.00010411932
88	0x38fef15d	0.00012156621
89	0x38ac53c4	8.217202e-05
90	0x389213e4	6.9655274e-05
91	0x38fef052	0.00012156427
92	0x388cee10	6.720063e-05
93	0x37b5d0be	2.1674085e-05
94	0x38aa9599	8.1340964e-05
95	0x37f34f0a	2.9004663e-05
96	0x391fb72d	0.0001523166
97	0x390a2000	0.00013172626
98	0x38aa5a98	8.123106e-05
99	0x38a2f52a	7.770427e-05
100	0x38f14003	0.000115036986
101	0x3890c8cc	6.9038564e-05
102	0x3865e1b7	5.4808068e-05
103	0x3904a8e4	0.00012651418
104	0x38183a6c	3.6294034e-05
105	0x38b1279f	8.447398e-05
106	0x391716c4	0.00014408963
107	0x38b6ee5b	8.7228334e-05
108	0x37c4ff29	2.3483839e-05
109	0x3858e3d6	5.1710602e-05
110	0x3786be70	1.6062724e-05
111	0x38c0d640	9.1951806e-05
112	0x38f7d28e	0.00011817097
113	0x38c45b90	9.363063e-05
114	0x38af2205	8.350987e-05
115	0x3921d29b	0.00015432613
116	0x38cdd2ca	9.814424e-05
117	0x3913056d	0.00014021034
118	0x39ba291a	0.00035507308
119	0x392212da	0.00015456547
120	0x38e44eea	0.00010886586
121	0x38fc689d	0.00012035782
122	0x38d9744a	0.00010369027
123	0x3999146b	0.00029197647
124	0x390ac0d1	0.00013232535
125	0x393858be	0.00017580666
126	0x388886d5	6.5101e-05
127	0x37802447	1.5275682e-05
128	0x37aade3c	2.0369065e-05
129	0x37cdc2ed	2.4528674e-05
130	0x3704d993	7.918471e-06
131	0x370ec950	8.510731e-06
132	0x3828b86f	4.022609e-05
133	0x387a183d	5.962722e-05
134	0x38095021	3.273797e-05
135	0x38d894ac	0.00010327375
136	0x3a18192b	0.000580209
137	0x39273e26	0.00015949513
138	0x3912bfdb	0.00013995117
139	0x39ac3822	0.0003284822
140	0x38fe4cbc	0.00012125957
141	0x39429fcf	0.00018560815
142	0x380bb55d	3.330909e-05
143	0x389bc94f	7.4284726e-05
144	0x389d2625	7.493448e-05
145	0x3806a0bd	3.209779e-05
146	0x37bb3f04	2.2321481e-05
147	0x37987f9c	1.8179235e-05
148	0x3865e8e1	5.481474e-05
149	0x37b0e7f9	2.1088856e-05
150	0x38fdd721	0.00012104051
151	0x38a6e737	7.958564e-05
152	0x38937b6d	7.032496e-05
153	0x3c75f7bc	0.015012678
154	0x3c61691c	0.01375797
155	0x3bddab9b	0.0067648417
156	0x38c7ce91	9.5275354e-05
157	0x389905ea	7.29671e-05
158	0x385ca5e1	5.2606574e-05
159	0x38d155bf	9.981868e-05
160	0x384d415d	4.8936683e-05
161	0x382c302b	4.1052856e-05
162	0x39b8b390	0.00035229
163	0x39febba4	0.00048586458
164	0x39286d2a	0.00016062395
165	0x380e6c35	3.3956214e-05
166	0x3951763e	0.00019975842
167	0x38957426	7.126508e-05
168	0x379975ab	1.8293815e-05
169	0x375b912d	1.3087219e-05
170	0x36dc3cc0	6.563583e-06
171	0x3969bd88	0.00022291217
172	0x389b27a6	7.398361e-05
173	0x388d8a7d	6.7491994e-05
174	0x39196986	0.00014630528
175	0x3904a08b	0.00012648308
176	0x38cf175d	9.874881e-05
177	0x3977b959	0.00023624803
178	0x3996b99c	0.0002874852
179	0x395aaa1c	0.00020853471
180	0x38b01564	8.396318e-05
181	0x391ffc4b	0.00015257408
182	0x38908412	6.891055e-05
183	0x38078cc9	3.2317625e-05
184	0x38d04c17	9.932386e-05
185	0x37c45f2f	2.3409344e-05
186	0x37faeb4b	2.991189e-05
187	0x37589f0b	1.2911633e-05
188	0x3703d1f8	7.857096e-06
189	0x3993e918	0.00028211693
190	0x38f1eda8	0.000115360424
191	0x38bd2664	9.019373e-05
192	0x3a04de84	0.0005068558
193	0x39c3b237	0.0003732608
194	0x392bd1ae	0.00016385943
195	0x3a28c332	0.0006437778
196	0x393edf70	0.00018203049
197	0x39404070	0.00018334552
198	0x39de83cc	0.00042441336
199	0x3a0dfcf6	0.0005416417
200	0x39c3edd8	0.00037370506
201	0x388d858e	6.7482804e-05
202	0x38e0d033	0.000107199325
203	0x38bc7687	8.986616e-05
204	0x39a195ab	0.00030819824
205	0x395493c6	0.00020272945
206	0x392df6e7	0.00016590544
207	0x38e133fc	0.00010738519
208	0x37b2ccfd	2.1314709e-05
209	0x37ce8c82	2.4622543e-05
210	0x37ea8f26	2.7961632e-05
211	0x38a2b936	7.75926e-05
212	0x3824994c	3.9243416e-05
213	0x383ba3c1	4.4736782e-05
214	0x38524b79	5.013819e-05
215	0x37956f06	1.7813883e-05
216	0x3b77069b	0.0037693146
217	0x3c33dab1	0.010977433
218	0x3b38ee39	0.0028218164
219	0x3a1e9cd3	0.00060505903
220	0x393e927b	0.0001817438
221	0x397e4d65	0.0002425216
222	0x3a55b9c2	0.0008152985
223	0x39d34e5d	0.0004030344
224	0x39eef602	0.00045578188
225	0x389bc931	7.428451e-05
226	0x387b5190	5.9919024e-05
227	0x37b8c3f1	2.2025752e-05
228	0x383f16a6	4.555904e-05
229	0x388ebabc	6.8058696e-05
230	0x38409bdc	4.5921523e-05
231	0x384124f4	4.60492e-05
232	0x3881cda0	6.1895e-05
233	0x386266e2	5.3978416e-05
234	0x39036bfa	0.00012533358
235	0x38cc870c	9.7526325e-05
236	0x387160d2	5.754905e-05
237	0x3838de49	4.4076038e-05
238	0x38b8543a	8.789492e-05
239	0x3834247d	4.2949327e-05
240	0x3a4cffb3	0.00078200846
241	0x3adf4eca	0.0017037031
242	0x3a1aa01d	0.00058984925
243	0x39130f60	0.0001402474
244	0x38f590da	0.00011709491
245	0x389368c2	7.029019e-05
246	0x390caefe	0.0001341663
247	0x38afb634	8.378588e-05
248	0x38cd555b	9.7910604e-05
249	0x3920351b	0.00015278572
250	0x388182ec	6.1755854e-05
251	0x38c34dfd	9.312851e-05
252	0x3a5b5ed4	0.00083683175
253	0x39c89571	0.00038258315
254	0x39e38034	0.00043392333
255	0x39b16801	0.0003383756

exp_avg f4 [164]
0	0xb8b97e3a	-8.844999e-05
1	0x391117f6	0.00013837204
2	0xb8c4daa0	-9.3867304e-05
3	0xb7f9d6b2	-2.9783088e-05
4	0xb6882138	-4.056983e-06
5	0xb73c2ef8	-1.1216609e-05
6	0x38df8374	0.00010657954
7	0xb90c8338	-0.00013400323
8	0x39308d6d	0.00016837353
9	0x380587f2	3.183628e-05
10	0x39207b16	0.00015304642
11	0x376a91d0	1.39814365e-05
12	0x37ebdf38	2.8118127e-05
13	0x38206fc1	3.825105e-05
14	0xb99c76d2	-0.00029843167
15	0xb7f6cff0	-2.9422314e-05
16	0x3867573c	5.5155935e-05
17	0x38676fed	5.517893e-05
18	0x3881a7d0	6.182457e-05
19	0x392f23f1	0.0001670269
20	0xb8273c7c	-3.9872233e-05
21	0x3808f7b0	3.2655604e-05
22	0xb909b64c	-0.00013133249
23	0x38d1f678	0.00010011805
24	0x38a6e31a	7.957798e-05
25	0xb90135d6	-0.00012322454
26	0xb8a3a4a0	-7.8031095e-05
27	0x38e61c76	0.00010972556
28	0xb922e15d	-0.00015533478
29	0x38b12b6c	8.448106e-05
30	0x366769a0	3.4483164e-06
31	0x3855e66b	5.099775e-05
32	0xb82f6194	-4.1814128e-05
33	0x360834de	2.0296352e-06
34	0x377c0848	1.5022299e-05
35	0x38fac96e	0.00011958448
36	0x3696c3d4	4.4931458e-06
37	0xb92e8865	-0.00016644744
38	0xb7a89530	-2.0096631e-05
39	0x39831ae7	0.0002500631
40	0x393edacb	0.00018201319
41	0x36c5f0f8	5.89911e-06
42	0x3828a5d8	4.0208775e-05
43	0x36aa9b24	5.0844556e-06
44	0xb711eae4	-8.697363e-06
45	0xb9872d50	-0.00025782967
46	0x3857290c	5.1298222e-05
47	0xb8b57286	-8.652084e-05
48	0x3752fb50	1.2575489e-05
49	0xb87203ea	-5.770094e-05
50	0xb4b13400	-3.3006654e-07
51	0xba4c3ccc	-0.0007791042
52	0x3755aed0	1.2736491e-05
53	0x388f68e5	6.8383095e-05
54	0x38b43fa6	8.594924e-05
55	0xb8a91510	-8.062471e-05
56	0x388405dc	6.295342e-05
57	0x3945a3c8	0.00018848397
58	0x38305808	4.2043655e-05
59	0x38662d3c	5.48784e-05
60	0x38d4d41f	0.000101484584
61	0x38de129d	0.00010589252
62	0x378a33b0	1.647495e-05
63	0xb6001cf0	-1.909033e-06
64	0xb9c7c055	-0.00038099536
65	0xb93a6ffd	-0.00017780061
66	0x3861e310	5.385565e-05
67	0xb743f760	-1.1680502e-05
68	0xb906db7b	-0.00012860999
69	0xb9828b61	-0.00024899378
70	0xb8678096	-5.5194447e-05
71	0xb82c263f	-4.1043615e-05
72	0xba15fde5	-0.0005721732
73	0x38e8eb18	0.00011106412
74	0xb939c72e	-0.00017717175
75	0x38c592f1	9.421062e-05
76	0xb853cc18	-5.0496397e-05
77	0xb88bb7e4	-6.662289e-05
78	0x3918db38	0.00014577515
79	0x38a34521	7.785322e-05
80	0x37cc75e0	2.4373585e-05
81	0xb8606924	-5.350368e-05
82	0xb6d1d2a0	-6.2532054e-06
83	0x38aad5c1	8.1460465e-05
84	0x39c576ca	0.00037663273
85	0xb81e4b36	-3.774018e-05
86	0x36b37410	5.348127e-06
87	0x37ad4d1c	2.0659114e-05
88	0x3701d600	7.738825e-06
89	0x38a37b07	7.795361e-05
90	0x390137cc	0.00012323185
91	0x3983a8b0	0.0002511195
92	0xb8ae5678	-8.3130726e-05
93	0x3896ada4	7.1849005e-05
94	0xb89a3f9e	-7.355142e-05
95	0x385af006	5.219879e-05
96	0x3719c50a	9.165387e-06
97	0x3924840b	0.00015689449
98	0x389a9d06	7.37254e-05
99	0x379a6c4a	1.8408657e-05
100	0xb895e4db	-7.147501e-05
101	0x38255128	3.941465e-05
102	0xb89ebc74	-7.569129e-05
103	0x387e0118	6.0559338e-05
104	0xb941ebf8	-0.0001849382
105	0xb7365ef0	-1.087015e-05
106	0xb859f744	-5.1967116e-05
107	0x38d3ccfe	0.00010099447
108	0xb940dfa0	-0.00018393854
109	0x38a35462	7.788163e-05
110	0x387dbe30	6.0497026e-05
111	0x37d10240	2.491579e-05
112	0xb6874cac	-4.0322393e-06
113	0xb874aaea	-5.833331e-05
114	0xb900e2c0	-0.00012291502
115	0x37af50f8	2.089933e-05
116	0x38c71380	9.4926916e-05
117	0xb8b121a2	-8.446282e-05
118	0x388a11f3	6.583696e-05
119	0x37245af0	9.796335e-06
120	0x389a99c2	7.371932e-05
121	0x391892f6	0.00014550597
122	0x3912f3cd	0.00014014468
123	0x38e4bb35	0.00010906757
124	0xb7451a20	-1.1748198e-05
125	0x384b75c4	4.850865e-05
126	0x399b7537	0.00029651236
127	0x385df9f5	5.2923297e-05
128	0xb6265060	-2.4782712e-06
129	0xb975b990	-0.00023434148
130	0x390f7422	0.00013680806
131	0x38111f84	3.4600045e-05
132	0x39365f1f	0.00017392308
133	0xb7a079e8	-1.9130253e-05
134	0x385bf516	5.2441923e-05
135	0xb7a2c0b4	-1.940164e-05
136	0x38becbda	9.097876e-05
137	0xb4dfa200	-4.1654857e-07
138	0xb912afe1	-0.00013989165
139	0x3880d352	6.142877e-05
140	0xb8df07d0	-0.00010634924
141	0xb92b2560	-0.00016321754
142	0xb807ba68	-3.2360113e-05
143	0xb84c1095	-4.8652833e-05
144	0x38e16850	0.00010748266
145	0x390d1408	0.0001345427
146	0x392488c0	0.00015691202
147	0xb61f3b00	-2.3727189e-06
148	0xb7ba4230	-2.2203749e-05
149	0x375e8720	1.3263692e-05
150	0xb807c394	-3.2368655e-05
151	0xb8b64371	-8.690998e-05
152	0x37e708b4	2.7541399e-05
153	0x393db3ec	0.0001809147
154	0x38828631	6.223878e-05
155	0x392a88b2	0.00016263386
156	0x38ecfa6d	0.000113000024
157	0x382c7464	4.1116393e-05
158	0xb8584df8	-5.1571027e-05
159	0x38967a5b	7.175348e-05
160	0x383a6ab2	4.4445223e-05
161	0xb841be88	-4.6192232e-05
162	0x389535a5	7.114866e-05
163	0x3791b9cf	1.737187e-05
