docs/smld/lightning_logs/version_111/checkpoints/epoch=27-step=2744.ckpt (torch, 617307 bytes, 30 tensors)

t_embed.0.weight f4 [128, 1]
0	0xbec03060	-0.37536907
1	0x3f76cff9	0.9641109
2	0xbf456669	-0.7710939
3	0x3f11f4d3	0.570142
4	0xbf317c49	-0.6933027
5	0xbf57cf21	-0.8430043
6	0xbf06a22c	-0.52591205
7	0x3e02e127	0.12781201
8	0xbf0d029c	-0.55082107
9	0xbf21c90c	-0.631974
10	0xbf7b4573	-0.98152846
11	0xbf087c34	-0.5331452
12	0xbf466f2e	-0.77513397
13	0xbf18d79f	-0.5970401
14	0x3e84d117	0.25940773
15	0x3f1081ee	0.56448257
16	0xbe16f4e6	-0.14741859
17	0x3ee98ded	0.45616093
18	0xbe77ad7c	-0.24187273
19	0xbf99a2d1	-1.2002813
20	0xbea90e84	-0.33018887
21	0xbf48ceb6	-0.78440416
22	0x3d72e123	0.05929674
23	0xbf732b1d	-0.9498766
24	0x3f26a2b7	0.65092033
25	0x3ea2ca2d	0.31794873
26	0x3d1f7347	0.038928296
27	0x3f6c5e13	0.92331046
28	0xbf63c452	-0.88971436
29	0x3f668bf9	0.9005733
30	0x3d2d0cf2	0.042248674
31	0xbe6c62ab	-0.23084514
32	0x3f2892be	0.6584891
33	0x3f5b7586	0.857262
34	0x3f156c31	0.5836821
35	0xbf7e3848	-0.9930463
36	0xbf1bd17d	-0.6086653
37	0x3ea464cf	0.3210816
38	0xbf2d4e17	-0.6769728
39	0x3cac3671	0.021022053
40	0xbe6e2db3	-0.2325962
41	0xbe6e7ed1	-0.23290564
42	0xbe28c479	-0.16481198
43	0x3f73695c	0.9508264
44	0x3f1eb3bf	0.6199302
45	0x3e3b3ac2	0.18284133
46	0xbda541e6	-0.0806921
47	0x3d8ab6d1	0.06773151
48	0x3b465cf4	0.0030267807
49	0xbdc55cd8	-0.09636849
50	0xbe072fb7	-0.13201796
51	0x3d051ac2	0.03249622
52	0x3eb50a10	0.3535924
53	0xbf1c657f	-0.6109237
54	0xbf05f462	-0.52326024
55	0xbe38da86	-0.1805211
56	0xbf0e41ba	-0.5556904
57	0xbf24a428	-0.6431298
58	0x3f31cb9c	0.6945131
59	0x3c24ea8d	0.010065687
60	0x3e9047ee	0.28179878
61	0x3f044054	0.51660657
62	0x3f403cd4	0.75092816
63	0xbd872ecd	-0.066007234
64	0x3f05d80d	0.5228279
65	0xbe6a03e8	-0.22853053
66	0x3f547c5d	0.83002263
67	0xbf70c6a5	-0.9405311
68	0xbf68e689	-0.9097677
69	0xbf079621	-0.52963454
70	0xbf417d84	-0.75582147
71	0x3d36e3f7	0.044650998
72	0x3f776db5	0.96651775
73	0x3ca61ff0	0.0202789
74	0xbec3e498	-0.3826034
75	0xbf2e9c6b	-0.68207425
76	0x3e2c8033	0.16845779
77	0x3f2cb9ff	0.6747131
78	0x3cecff68	0.028930381
79	0xbf7497b8	-0.95544004
80	0xbf2028d1	-0.6256228
81	0x3d5c85ad	0.05383842
82	0xbf28a212	-0.658723
83	0xbf2324fd	-0.63728315
84	0xbd402d9d	-0.0469185
85	0x3ecd0bea	0.40048152
86	0xbe9e6d8d	-0.30942956
87	0xbde9f9f7	-0.1142463
88	0x3f6112a2	0.87919056
89	0x3f87e077	1.0615376
90	0xbe9c0727	-0.30474207
91	0x3f427d1b	0.75972146
92	0x3a34a71b	0.0006891356
93	0xbf3f7502	-0.74787915
94	0xbce1ed29	-0.027578907
95	0x3e83a983	0.25715265
96	0x3e81b09e	0.2533006
97	0xbf4f9859	-0.8109184
98	0xbe5af984	-0.21384245
99	0x3d5757ec	0.052574083
100	0x3e8ce194	0.27515852
101	0x3f2c639e	0.67339504
102	0xbf484088	-0.78223467
103	0xbf44b321	-0.7683583
104	0xbf8f2005	-1.1181647
105	0xbd31a8fa	-0.04337404
106	0x3f40128c	0.750283
107	0xbf35ceda	-0.71018755
108	0xbe39643c	-0.18104643
109	0x3e59a763	0.21255259
110	0x3f2d9f88	0.6782155
111	0x3f57158d	0.8401726
112	0x3e27c027	0.16381894
113	0xbefd2cb9	-0.49448183
114	0x3e5c5483	0.21516614
115	0xbe8f39a6	-0.2797367
116	0x3f1defa6	0.616938
117	0x3f230715	0.6368268
118	0x3f2664a1	0.649973
119	0x3f54ba35	0.8309663
120	0xbe088241	-0.13330938
121	0x3f27ec58	0.65595007
122	0xbefa0589	-0.48832348
123	0xbf047e86	-0.5175556
124	0x3ecd8d71	0.40146974
125	0x3de85971	0.113451846
126	0x3d057eff	0.032591816
127	0xbecb3631	-0.39689782

t_embed.0.bias f4 [128]
0	0x3f0680f3	0.5254051
1	0xbe9b7bb1	-0.30367807
2	0xbef5c000	-0.47998047
3	0xbdc6bce5	-0.097039975
4	0x3ea7b655	0.32756296
5	0x3f066f21	0.5251332
6	0x3e87fce7	0.26560137
7	0x3f211e48	0.6293683
8	0x3ed50fdd	0.41613665
9	0x3e9c55cd	0.3053421
10	0x3f31d98b	0.6947257
11	0x3d851bdb	0.06499454
12	0x3f7602d4	0.96098065
13	0xbf0b61b7	-0.54445976
14	0xbf19fac9	-0.6014829
15	0xbeceb3ca	-0.40371543
16	0x3e5930fc	0.21210092
17	0xbe3936f9	-0.18087377
18	0x3d985c5a	0.0743949
19	0xbf3690ac	-0.713145
20	0xbf2470ae	-0.64234436
21	0xbf4fecf2	-0.81220925
22	0xbdbc421c	-0.09192297
23	0xbdffb086	-0.12484841
24	0x3e2cebf5	0.16886885
25	0xbedc71da	-0.43055612
26	0xbea95a59	-0.33076742
27	0xbe5a5b5b	-0.21323912
28	0xbf25e779	-0.64806324
29	0xbe806df7	-0.25083897
30	0x3f4f0db8	0.8088031
31	0x3f6fb29a	0.936319
32	0x3e6ff0fe	0.23431775
33	0x3ed023b1	0.4065223
34	0xbef19b22	-0.4718867
35	0x3f7fef43	0.9997446
36	0x3b879564	0.004137682
37	0xbcfa1264	-0.030526347
38	0x3f22ec0f	0.63641447
39	0xbf1aa2f6	-0.6040491
40	0x3e502a88	0.20328724
41	0xbdcfe161	-0.101504095
42	0x3eb878d5	0.36029688
43	0xbf615bbc	-0.880306
44	0xbf76e299	-0.9643951
45	0x3efafbb4	0.4902016
46	0xbf181717	-0.5941023
47	0xbe1ecd92	-0.15508106
48	0xbaf920dc	-0.0019006985
49	0x3daa2def	0.083095424
50	0x3de95db2	0.11394824
51	0x3e43d95f	0.19125889
52	0xbe7d879e	-0.24758765
53	0x3e23def5	0.1600302
54	0xbf542056	-0.8286184
55	0x3f309cfa	0.6898953
56	0x3ef2e4ed	0.47440282
57	0x3dd59dd3	0.10430493
58	0x3f13eeb8	0.5778613
59	0xbe828e8f	-0.2549939
60	0x3f2b1240	0.6682472
61	0x3f42df34	0.7612183
62	0x3ded11eb	0.11575683
63	0x3f2b50ab	0.66919965
64	0x3e94343e	0.28946108
65	0xbed3a8b7	-0.41339657
66	0xbf47f9b7	-0.7811541
67	0xbf327f99	-0.6972595
68	0x3f5d1dd1	0.8637362
69	0xbd808185	-0.06274704
70	0xbeeb7fea	-0.45996028
71	0xbe4ac1d8	-0.19800508
72	0xbf53c52b	-0.8272273
73	0x3f2117a9	0.6292673
74	0x3f31eaba	0.6949879
75	0x3f6e8e46	0.9318584
76	0x3e67834a	0.22608677
77	0x3e650fbb	0.22369282
78	0xbe535d2c	-0.20641011
79	0xbf406aa3	-0.75162715
80	0x3caff302	0.02147818
81	0xbde1d7e7	-0.11027508
82	0x3ef8f37a	0.48623258
83	0xbf2475cf	-0.6424226
84	0xbde8b5fb	-0.11362835
85	0x3efcf39a	0.49404603
86	0x3f08d395	0.5344785
87	0xbeb5d20c	-0.35511816
88	0x3eda3ec5	0.42626014
89	0xbf78d702	-0.97203076
90	0x3e3b002d	0.18261786
91	0x3d569d56	0.05239614
92	0xb99b4702	-0.0002961681
93	0xbf390041	-0.7226601
94	0xbf1bbf7d	-0.6083906
95	0xbf325341	-0.69658285
96	0xbf4adc12	-0.7924205
97	0xbf018d7f	-0.5060653
98	0x3d92f42b	0.071754776
99	0xbef00300	-0.4687729
100	0xbf505537	-0.8138003
101	0x3f3e66b5	0.7437547
102	0xbe7e7639	-0.24849786
103	0xbf225c26	-0.6342186
104	0x3f6867c0	0.9078331
105	0x3e1c2d82	0.15251735
106	0xbf1c9f6a	-0.61180747
107	0x3e925ed0	0.2858796
108	0xbded2374	-0.11579028
109	0xbe299f68	-0.16564715
110	0xbee6a263	-0.45045766
111	0xbf498916	-0.787248
112	0x3ee0a8ff	0.43878934
113	0x3eaf6c7f	0.34262463
114	0x3cec6f38	0.028861627
115	0xbf10e9a9	-0.5660654
116	0xbf51d3cb	-0.81963795
117	0xbf2f14d6	-0.6839117
118	0xbeaaf3a6	-0.33389014
119	0x3f22ced1	0.63596827
120	0xbecf2a33	-0.40461883
121	0x3f3d6653	0.7398426
122	0xbe07fdad	-0.13280363
123	0xbdd851c0	-0.105624676
124	0x3ec07368	0.37588048
125	0xbe757073	-0.23968677
126	0x3f30fc14	0.6913464
127	0x3e9e18cb	0.3087829

t_embed.2.weight f4 [128, 128]
0	0xbcd00584	-0.025393255
1	0xbdab0bd7	-0.08351868
2	0x3db0deb7	0.086362295
3	0xbdbbcaf3	-0.09169569
4	0x3d8fde3b	0.07024809
5	0xbd8e9602	-0.069622055
6	0x3da89edc	0.08233425
7	0xbdcafbf1	-0.09911335
8	0x3da819ef	0.082080714
9	0x3d7756a5	0.060385365
10	0xbac98c69	-0.0015376928
11	0xbc061788	-0.008184321
12	0xbda4fcb1	-0.080560096
13	0x3c425bd2	0.011862712
14	0xbd97dd9d	-0.07415316
15	0xb94dac77	-0.00019614572
16	0x3d51da4f	0.051233586
17	0xbdff35ae	-0.124614105
18	0xbd858103	-0.06518748
19	0x3daa8d1d	0.083276965
20	0x3db85d55	0.09002177
21	0x3dbadd7e	0.091242775
22	0x3d0cc5fd	0.034368504
23	0x3db09d1f	0.086237185
24	0x3d106054	0.035248116
25	0xbd0321e9	-0.03201476
26	0x3dab4660	0.08363032
27	0xbd815c9a	-0.063164905
28	0x3c103b65	0.008803223
29	0xbbcc4b23	-0.006234543
30	0x3d885bb9	0.0665812
31	0x3d79236f	0.060824808
32	0xbd83b749	-0.06431443
33	0x3cfd427b	0.03091549
34	0x3ba5dbe6	0.0050616143
35	0xbdd1b5d1	-0.10239757
36	0x3dca2aed	0.09871469
37	0xbddb4c0b	-0.107078634
38	0xbd84dab3	-0.06487026
39	0xbd7b65d9	-0.061376426
40	0x3d7bd39d	0.061481107
41	0x3d928a6b	0.071553074
42	0xbd32ddc5	-0.043668527
43	0xbdf98d06	-0.12185101
44	0xbe41dd8b	-0.18932168
45	0xbd4c39e8	-0.04985991
46	0xbd0a1b9c	-0.033717737
47	0xbd8fee40	-0.070278645
48	0x3d5b27cd	0.053504754
49	0x3bd78e9b	0.006578279
50	0x3c4e7af6	0.012602558
51	0xba6eb6b8	-0.00091062067
52	0xbdcff3b3	-0.10153904
53	0xbd82019e	-0.06347965
54	0xbd084f84	-0.033278957
55	0xbd918c00	-0.07106781
56	0xbc809135	-0.01569424
57	0xbd7c9700	-0.061667442
58	0x3d463008	0.04838565
59	0x3d75550b	0.059895556
60	0xbdc01ada	-0.093801215
61	0x3c6b26d6	0.014352521
62	0xbc89e142	-0.016831044
63	0xbb5371cf	-0.003226388
64	0x3caaa39c	0.020829968
65	0x3d37a4e8	0.044835
66	0xbe3b025d	-0.1826262
67	0x3dbdb038	0.09262127
68	0x3d3dd6e6	0.04634752
69	0x3c8c64ca	0.017137904
70	0xbd29c858	-0.04145083
71	0x3d82e53e	0.06391381
72	0xbe06b27e	-0.13154027
73	0x3cae6e5f	0.021292863
74	0xbd0afc12	-0.0339318
75	0x3c9581a5	0.018250296
76	0xbdb56f5b	-0.0885913
77	0x3c61275a	0.013742292
78	0x3dac2232	0.0840496
79	0x3d8955ab	0.06705793
80	0x3dd52ba8	0.104087174
81	0xbc82bc20	-0.015958846
82	0xbd6d7d00	-0.057980537
83	0xbd8d7a77	-0.06908124
84	0x3d84e6c6	0.06489329
85	0xbca24fef	-0.019813506
86	0xbca86387	-0.02055527
87	0xbd97b9bf	-0.07408475
88	0xbd9e8841	-0.07740832
89	0xbdd9afd7	-0.10629242
90	0xbd76937e	-0.060199253
91	0x3cfaacb4	0.03059993
92	0x3d38b3ce	0.04509335
93	0xbca2d1aa	-0.019875366
94	0x3d3a36d3	0.04546244
95	0x3d80b62d	0.06284747
96	0xbd1f609f	-0.038910504
97	0x3d4714a3	0.048603665
98	0x3d4c8c53	0.04993851
99	0xbc8bb316	-0.017053168
100	0xbdb648fb	-0.08900639
101	0xbdcbd55f	-0.09952807
102	0xbd58ce2b	-0.052930992
103	0x3d553bbf	0.05205893
104	0xbdac2434	-0.08405343
105	0xbd92b838	-0.07164043
106	0xbe0138a7	-0.12619267
107	0xbd855ebd	-0.065122105
108	0xbc92e060	-0.017929256
109	0xbe035476	-0.12825188
110	0xbe03c1a8	-0.12866843
111	0xbe3a3550	-0.181844
112	0xbd26873e	-0.04065632
113	0xbbea0424	-0.007141607
114	0x3c912288	0.017716661
115	0x3d09f776	0.033683263
116	0xbe52c0ca	-0.20581356
117	0xbcb179f4	-0.021664597
118	0xbd37fece	-0.044920735
119	0xbd73fea1	-0.059569005
120	0xbd496512	-0.049168654
121	0xbd0f10cc	-0.034928128
122	0x3d6b9808	0.057518035
123	0xbc02e316	-0.007988712
124	0xbdac43d7	-0.08411377
125	0xbd962c2d	-0.073326446
126	0xbd61e6bf	-0.055151697
127	0xbd8d60e9	-0.0690325
128	0xbdb53290	-0.08847535
129	0xbcb062db	-0.021531513
130	0x3d0b21a7	0.03396764
131	0xbdbbd05d	-0.091706015
132	0xba905170	-0.0011010598
133	0x3d61358c	0.054982707
134	0x3d8e9018	0.069610775
135	0xbdd246e7	-0.1026743
136	0xbcccea7c	-0.025014155
137	0x3d0eb27a	0.034838177
138	0xbdf9aa59	-0.12190694
139	0x3d35eb12	0.044413634
140	0xbd7de235	-0.061983306
141	0x3dbf45f5	0.09339515
142	0xbd6ee065	-0.058319468
143	0x3be130d3	0.0068722754
144	0x3baf5b20	0.005351439
145	0xbdc6dc25	-0.09709958
146	0xbc9d9fc4	-0.019241221
147	0x3ccc6d1d	0.024954373
148	0x3c016c1a	0.007899309
149	0x3dbe1b0b	0.09282502
150	0x3c72970a	0.014806518
151	0xbccd13f9	-0.025033938
152	0x3d3f22d7	0.046664085
153	0xbdc052dc	-0.09390804
154	0x3d2e1ee7	0.04250994
155	0x3cfbc53c	0.030733697
156	0x3c715167	0.0147288805
157	0xbd6845d7	-0.05670723
158	0xbdcec031	-0.10095251
159	0x3d6e2e44	0.05814959
160	0xbd27fa4e	-0.041010194
161	0x3c6c8cfb	0.014437909
162	0xbd612407	-0.054966
163	0x3b157ae0	0.0022808835
164	0x3db319eb	0.08745178
165	0xbde13b4b	-0.10997637
166	0xbc76dbf5	-0.01506709
167	0x3d667606	0.0562649
168	0x3d48772e	0.048941784
169	0xbd18169a	-0.03713093
170	0xbb4582d0	-0.0030137785
171	0xbdaebf43	-0.08532574
172	0xbcf6c95d	-0.030125314
173	0x3bdd173e	0.0067471555
174	0x3d4ad409	0.04951862
175	0x3db92790	0.09040749
176	0x3be5f7b7	0.0070180553
177	0xbd733e0d	-0.059385348
178	0x3c7e351f	0.015515595
179	0xbcfa91e1	-0.030587139
180	0xbda061b3	-0.07831135
181	0xbcc1c4df	-0.023653446
182	0x3d3e5810	0.0464707
183	0xbc99c6ad	-0.018771494
184	0xbd16fa5b	-0.03685985
185	0xbdae75eb	-0.08518585
186	0x3d3ae1ad	0.045625377
187	0xbd6d576f	-0.05794471
188	0xbd7726be	-0.06033968
189	0xbcbb3e80	-0.02285695
190	0xbde73149	-0.11288697
191	0xbcd4f228	-0.025994375
192	0xbd2af243	-0.041734945
193	0x3d2efab0	0.042719543
194	0xbd14c094	-0.03631647
195	0x3da8334f	0.08212911
196	0xbd8e24e6	-0.069406316
197	0x3d299947	0.041405942
198	0xbbcbe8ac	-0.006222805
199	0x3b0d4180	0.0021553934
200	0xbdbf9f89	-0.09356601
201	0x3d83eab2	0.06441249
202	0xbd26df3a	-0.04074023
203	0xbddbf009	-0.107391424
204	0xbd85eea6	-0.06539659
205	0xbdbf9213	-0.09354033
206	0x3cb17328	0.021661356
207	0x3de0849a	0.10962792
208	0x3c78f31d	0.0151946815
209	0x3cf94702	0.030429367
210	0xbcb17ed3	-0.02166692
211	0xbc509947	-0.012731857
212	0x3dab181e	0.08354209
213	0xbdd35063	-0.10318067
214	0x3cc207e1	0.023685398
215	0xbd4b3b0b	-0.049616855
216	0xb8ad6739	-8.2685096e-05
217	0xbe0ffb01	-0.14060594
218	0xbc8ead68	-0.01741667
219	0xbdc4a434	-0.09601632
220	0xbc07eef1	-0.008296714
221	0x3ca80c3f	0.020513652
222	0xbd0f4bec	-0.034984514
223	0xbd565701	-0.052329067
224	0xbd396ed3	-0.045271706
225	0xbcb78ab1	-0.022405
226	0x3d2418ac	0.04006259
227	0x3d9bd189	0.07608325
228	0x3dace575	0.08442203
229	0xbd800d2d	-0.06252513
230	0xbc82f285	-0.015984783
231	0xbc9bef2c	-0.019034944
232	0xbcd681f2	-0.02618501
233	0x3cd0a9ed	0.025471652
234	0xbc9bbc0d	-0.019010568
235	0xbdbf9edf	-0.09356474
236	0xbd3957bb	-0.045249682
237	0xbbe7de0a	-0.0070760297
238	0xbcecee03	-0.028922087
239	0xbe253ae4	-0.16135746
240	0xbd81c377	-0.0633611
241	0xbd3f9a66	-0.046778105
242	0x3b9ff160	0.004881069
243	0x3dc11299	0.09427375
244	0xbd869798	-0.06571883
245	0x3a5f9cab	0.000853012
246	0xbcb62116	-0.022232573
247	0xbd45d6a2	-0.048300393
248	0x3d32d719	0.043662164
249	0xbdc97578	-0.098368585
250	0xbd57fb4e	-0.052729897
251	0x3d803936	0.06260912
252	0xbde29eeb	-0.110654674
253	0xbc05a9b4	-0.008158136
254	0x3d45aed6	0.04826244
255	0x3d652fe8	0.05595389

t_embed.2.bias f4 [128]
0	0x3d58d227	0.052934792
1	0xbcfc2e10	-0.030783683
2	0xbd63c1e9	-0.05560485
3	0xbc38b8cc	-0.011274528
4	0xbab64c0b	-0.0013908161
5	0x3d48d6ac	0.049032852
6	0x3d9effb7	0.077636175
7	0x3d867e1b	0.065670215
8	0x3cc7b007	0.024375929
9	0x3a9af8d2	0.0011823422
10	0xbd040651	-0.032232586
11	0xbd865b2b	-0.06560358
12	0x3d9b0e3e	0.07571076
13	0xbd0ff34a	-0.035144128
14	0xba4449f5	-0.0007487827
15	0xbc481e9a	-0.012214327
16	0xbd89f23d	-0.067356564
17	0x3d8415a8	0.06449443
18	0x3db3e1fa	0.08783336
19	0x3bb678bd	0.0055685923
20	0xbb1562ea	-0.0022794553
21	0x3d3509fe	0.044198982
22	0x3d3681ee	0.044557504
23	0x3ce7e8f5	0.028309325
24	0x3cf8150f	0.030283479
25	0x3d1ca6a3	0.038244855
26	0x3d2cdade	0.042200916
27	0x3d8c2e94	0.068448216
28	0xbd3ee936	-0.046609126
29	0x3d23f497	0.04002818
30	0xbcc96f9f	-0.024589358
31	0xbbe11220	-0.0068686157
32	0x3d19aa27	0.037515786
33	0x3c23d9a4	0.01000062
34	0x3d2651a5	0.040605206
35	0xbd8ccf60	-0.06875491
36	0x3d9b68b0	0.07588327
37	0x3d9758a1	0.073899515
38	0xbd87924b	-0.066197
39	0xbcf445b0	-0.029818386
40	0xbd3f6826	-0.046730183
41	0xbb9883b8	-0.004654374
42	0xbd2acc6b	-0.041698854
43	0xbdba4ce8	-0.090967
44	0x3b72809c	0.0037002927
45	0x3c58565c	0.013204183
46	0x3d2b4cb7	0.041821208
47	0xbda3c5d7	-0.07996719
48	0x3d8790fa	0.06619449
49	0xbd869fd1	-0.06573451
50	0x3cebad16	0.028769057
51	0xbc79ce6f	-0.0152469715
52	0x3bce6d85	0.006299677
53	0xbc29f2a3	-0.0103727905
54	0x3dd934df	0.106057875
55	0x3d81ce95	0.063382305
56	0x3d4c856f	0.04993194
57	0x3d3e1703	0.046408664
58	0xbd11e6b6	-0.035620414
59	0xbcc7507c	-0.02433037
60	0x3dfb1827	0.12260466
61	0xbda3f2c7	-0.080052905
62	0x3da40034	0.08007851
63	0xbc8c3a08	-0.017117515
64	0x3db19c0a	0.0867234
65	0xbd8c54ac	-0.068520874
66	0x3d202522	0.039097913
67	0x3d07fe68	0.033201605
68	0xbafce752	-0.0019295013
69	0xbdd623a0	-0.10456014
70	0xbd822862	-0.06355359
71	0x3c2472ab	0.010037105
72	0x3d8c2522	0.0684302
73	0x3dbe4d7b	0.09292122
74	0x3cb5cf49	0.022193568
75	0xbda25f7f	-0.07928371
76	0xbd4016fc	-0.04689692
77	0x3c1a1da9	0.009406486
78	0xbc37a726	-0.011209285
79	0x3d2ebd8e	0.042661242
80	0x3d781084	0.060562626
81	0x3d3f4d24	0.046704426
82	0xbad440fb	-0.0016193682
83	0xbd1c0b86	-0.038096927
84	0x3d702950	0.05863315
85	0xb9cd7dcc	-0.00039194373
86	0xbd862b4d	-0.06551228
87	0x3dd7c78a	0.10536106
88	0x3dcc9fa4	0.099913865
89	0x3ca31323	0.019906586
90	0xbcc4349c	-0.023950867
91	0xbd3e8c53	-0.046520542
92	0x3cc85b05	0.024457464
93	0x3d60eca4	0.054913178
94	0x3d8c258a	0.068430975
95	0xbd42e07c	-0.047577366
96	0xbd01dd87	-0.031705406
97	0x3dbd3598	0.09238738
98	0x3bdff994	0.006835172
99	0xbd937206	-0.071994826
100	0xbdaea644	-0.085278064
101	0x3bbe1eec	0.005802026
102	0x3d9d1ce8	0.07671529
103	0x3d6e9dfd	0.058256138
104	0x3b7a8712	0.003822748
105	0x3c1eea0f	0.009699359
106	0xbdb522c6	-0.08844523
107	0x3cfcf8d6	0.030880373
108	0xbbe3add9	-0.0069482145
109	0xbd5b7707	-0.05358031
110	0xbccf010e	-0.025269058
111	0xbc821fff	-0.015884398
112	0xbdc0bd1b	-0.09411069
113	0xbcccc743	-0.02499736
114	0x3c8f4f09	0.017493742
115	0xbcde6c85	-0.027151356
116	0xbd82c87a	-0.06385894
117	0x3ca3df9a	0.020004082
118	0xbc8fedf9	-0.017569529
119	0xbc1615d6	-0.0091604795
120	0xbd2a87d3	-0.04163344
121	0xbbd5f02c	-0.006528875
122	0xbd4470e0	-0.04795921
123	0x3b2cb8c5	0.0026355248
124	0xbc881931	-0.016613575
125	0x3da677ab	0.081282936
126	0xbd8178cb	-0.063218676
127	0x3caececc	0.021338843

ms.0.weight f4 [128, 130]
0	0x3dbed6e0	0.09318328
1	0x3c6c0a8d	0.014406812
2	0x3d1a9288	0.0377374
3	0xbb548be4	-0.0032432014
4	0xbd4d9ad1	-0.050196473
5	0x3d457136	0.04820367
6	0xbd0aca3c	-0.033884272
7	0x3d7e400f	0.06207281
8	0xbd649a1e	-0.05581104
9	0xbacc5630	-0.0015589651
10	0x3cadce44	0.02121652
11	0x3d34a874	0.044105962
12	0xbd4dd610	-0.050252974
13	0xbda9f13e	-0.082979664
14	0x3c6492d3	0.013951021
15	0x3d563e5a	0.052305557
16	0xbc986aed	-0.018605674
17	0x3cf9a1f0	0.030472726
18	0xbd836c86	-0.064171836
19	0xbd26f026	-0.040756367
20	0x3c59bcce	0.013289643
21	0x3d52af45	0.05143668
22	0xbc090969	-0.00836406
23	0x3d8c56ba	0.06852479
24	0xbd1ccfa8	-0.038283974
25	0x3d75fcfc	0.060055718
26	0x3d1e0f40	0.038588762
27	0x3d548284	0.051882282
28	0xbbed2af5	-0.007237787
29	0x3d33d3d5	0.04390319
30	0x3d8ff53d	0.07029197
31	0xbd1835a6	-0.037160538
32	0xbdb2899c	-0.08717653
33	0xbd288672	-0.041143842
34	0x3b8546a7	0.0040672603
35	0x3c1d1ea2	0.009589823
36	0xbc508610	-0.0127272755
37	0xbcc7cf76	-0.024390917
38	0x3be81caf	0.0070834975
39	0xbc9cd11e	-0.019142684
40	0x3cf7adfe	0.030234333
41	0xbd97e437	-0.074165754
42	0xbd2cb63d	-0.042165983
43	0xbc978f52	-0.018500958
44	0x3ca3a6df	0.019977031
45	0x3cd8e185	0.026474724
46	0x3d3d47e1	0.046211127
47	0x3c3bc6f3	0.011461007
48	0x3d22acfe	0.03971576
49	0x3d1c921e	0.038225286
50	0xbd9e2554	-0.077219635
51	0xbd9c3754	-0.076277405
52	0xbd5e6e53	-0.054304432
53	0x3d5d4f95	0.054030973
54	0x3d956d8d	0.07296286
55	0x3d81e630	0.06342733
56	0x3d79f6ee	0.061026506
57	0x3d882890	0.06648362
58	0x3c361ea5	0.011115705
59	0xbcfb6219	-0.030686425
60	0x3d36f75e	0.0446695
61	0xbd709a38	-0.058740824
62	0x3b51511f	0.003193922
63	0x3dade520	0.08490968
64	0xbcd1d96a	-0.025616366
65	0x3d65ba5a	0.05608592
66	0xbc9f943a	-0.01947986
67	0xbdaadaae	-0.08342491
68	0xbcda3a48	-0.026639119
69	0x3cd7e1e7	0.026352836
70	0xbc19411e	-0.009353904
71	0xbd7c3295	-0.061571676
72	0x3d9772a8	0.07394916
73	0xbca56bda	-0.02019303
74	0x3d127f44	0.0357659
75	0xbb0e348c	-0.00216988
76	0x3d10c6c4	0.035345808
77	0x3ca93c1d	0.020658547
78	0x3d3dc057	0.046326008
79	0x3db999d1	0.09062541
80	0x3ba6b654	0.005087653
81	0xbd86a040	-0.06573534
82	0x3c2637c8	0.010145135
83	0xbbaadd02	-0.0052143345
84	0xbd14b40b	-0.036304515
85	0xbd3aff62	-0.04565371
86	0x3d9c6565	0.07636527
87	0x3d7d34f7	0.06181809
88	0x3ca21a8b	0.019788047
89	0xbd86ed5b	-0.06588241
90	0x3b8a15a4	0.0042140055
91	0xbd0469e4	-0.032327548
92	0xbdd079a7	-0.10179453
93	0xbdc21a48	-0.09477669
94	0xbd31cf23	-0.04341043
95	0x3da10d6f	0.078638904
96	0xbcd70c98	-0.026251122
97	0xbccf6000	-0.025314331
98	0x3dbca2fe	0.09210776
99	0x3ccb9a05	0.024853716
100	0xbc94bb60	-0.018155754
101	0xbc8939f8	-0.016751274
102	0xbd1baafb	-0.038004857
103	0x3b6994d2	0.0035641682
104	0xbd4c1f59	-0.049834583
105	0xbd86fe80	-0.06591511
106	0x3d8b360f	0.0679742
107	0xbbe9bd12	-0.0071331346
108	0x3da4df33	0.08050384
109	0xbd166bda	-0.03672395
110	0xbb0a9505	-0.0021145951
111	0xbd98beef	-0.07458293
112	0x3cc0a6e7	0.023517085
113	0x3ce5e619	0.02806382
114	0xbd42df0d	-0.047576
115	0xbc933a19	-0.017972039
116	0x3d6610c7	0.056168344
117	0xbd81eab8	-0.06343597
118	0x3d30eb4a	0.04319314
119	0x3b32cee2	0.0027283956
120	0xbbf6d3a2	-0.007532553
121	0x3db2aec2	0.08724739
122	0x3c45c617	0.012071154
123	0x3c96d9e6	0.018414449
124	0x3ce34405	0.027742395
125	0xbd077a63	-0.0330757
126	0xbc756d85	-0.014979725
127	0xbd67f2e3	-0.05662812
128	0xbc735fe9	-0.01485441
129	0xbd2e2700	-0.042517662
130	0x3cf17bc8	0.029477969
131	0xbd04cf9c	-0.032424554
132	0xbd2d3f2a	-0.042296566
133	0xbb85ccdf	-0.0040832604
134	0xbdab0ec9	-0.083524294
135	0x3db5b8c5	0.088731326
136	0x3d067b31	0.03283233
137	0xbd40470b	-0.04694275
138	0xbd9d0f96	-0.076689884
139	0x3d879126	0.06619482
140	0xbd01d336	-0.031695567
141	0xbd1710f8	-0.036881417
142	0xbd30edb6	-0.04319545
143	0xbcdc1d18	-0.026869342
144	0x3d6b08ae	0.057381324
145	0x3d05fa40	0.03270936
146	0xbc3a0d46	-0.011355704
147	0x3d974b5d	0.07387421
148	0xbc908a49	-0.017644065
149	0xbd095870	-0.033531606
150	0xbd6bb167	-0.05754223
151	0xbd609e23	-0.05483831
152	0xbd61721e	-0.05504047
153	0xbd8b4349	-0.06799943
154	0x3c6cf39a	0.014462376
155	0xbcdb305e	-0.026756462
156	0xbd5f7a0b	-0.05455975
157	0xbcbc2fe7	-0.02297206
158	0xbdc169c3	-0.094440006
159	0x3b8ed9f1	0.0043594767
160	0x3d3d7331	0.046252433
161	0xbd93e1fc	-0.072208375
162	0xbb02e9bb	-0.001997574
163	0x3d48be7c	0.049009785
164	0xbd3ad72d	-0.045615364
165	0xbda56c69	-0.08077318
166	0x3d8ee43e	0.069771275
167	0x3c92b029	0.017906265
168	0x3cd6bf6a	0.02621432
169	0x3da9b873	0.08287134
170	0xbd588662	-0.052862532
171	0xbd40b6b2	-0.04704923
172	0xbd0470f8	-0.032334298
173	0x3bd71c1b	0.0065646297
174	0x3debc36b	0.115118824
175	0x3d5e0025	0.054199357
176	0xbd4fcd75	-0.05073305
177	0xbd8804b1	-0.0664152
178	0xbca03a40	-0.019559026
179	0x3d3c4d7c	0.045972332
180	0x3cbc2934	0.022968866
181	0x3d139d27	0.036038544
182	0x3d84d200	0.06485367
183	0x3ca4efd8	0.020133898
184	0x3cac654f	0.021044401
185	0x3c8b159d	0.01697808
186	0xbd51014c	-0.051026627
187	0x3d5a7003	0.05332948
188	0x3d8c9973	0.068652056
189	0xbdb25274	-0.08707133
190	0x3d95dbb4	0.07317296
191	0x3da3fe2d	0.080074646
192	0x3c3cb0ae	0.011516733
193	0x3d85b471	0.06528557
194	0xbb912314	-0.0044292305
195	0x3d2b68ac	0.04184787
196	0xbd25def6	-0.040495835
197	0x3d5626c6	0.05228307
198	0x3c39e678	0.011346452
199	0xbd1b93b2	-0.03798265
200	0x3d796b49	0.06089333
201	0x3d56595f	0.052331325
202	0x3ca85357	0.020547552
203	0x3c6696bf	0.014074027
204	0xbcb2f3c9	-0.021844761
205	0x3c1b3a95	0.009474416
206	0xbd9e19a7	-0.077197365
207	0xbc8f5a97	-0.017499251
208	0xbd4525a7	-0.04813161
209	0x3d84f88f	0.06492721
210	0x3bd18fff	0.0063953395
211	0x3d75f34e	0.060046487
212	0xbd0dbc66	-0.0346035
213	0xbd1b2052	-0.03787262
214	0x3d8c63b0	0.068549514
215	0x3bde3641	0.00678137
216	0xba462afb	-0.0007559505
217	0xbd6c0a37	-0.05762693
218	0xbd549e6e	-0.051908903
219	0x3d8d700f	0.06906139
220	0x3d3b06fb	0.045660954
221	0x3c89d878	0.016826853
222	0x3cb4d085	0.022072086
223	0x3cd6a08a	0.026199598
224	0x3d264f76	0.040603124
225	0x3d1d8019	0.03845224
226	0x3c1b1c40	0.009467185
227	0x3d25acc4	0.040447965
228	0x3ccc5021	0.024940552
229	0xbc5dd41f	-0.013539343
230	0x3d79656e	0.060887747
231	0x3cbb823d	0.02288925
232	0x3d460aad	0.048350025
233	0x3ca236f8	0.019801602
234	0xbda05d68	-0.07830316
235	0x3cbda512	0.02315
236	0x3d8e62ab	0.06952413
237	0x3c61708f	0.013759746
238	0x3d26f6e3	0.040762793
239	0xbaaae579	-0.0013038359
240	0xbd0aa563	-0.03384913
241	0x3d164698	0.036688417
242	0xbda3627f	-0.07977771
243	0xbd7c95dc	-0.061666355
244	0xbd1e9219	-0.03871355
245	0xbd932f82	-0.07186796
246	0x3c8cb0ea	0.017174203
247	0xbd25c544	-0.04047133
248	0xbd2d0df2	-0.042249627
249	0xbcbb7f42	-0.02288783
250	0x3d1b09bd	0.037851084
251	0xbc78e041	-0.015190185
252	0xbd00be3e	-0.03143143
253	0xbc9df5a6	-0.019282173
254	0xbc9108ae	-0.017704334
255	0xbd421dd7	-0.04739174

ms.0.bias f4 [128]
0	0xbc2ed539	-0.010670953
1	0x3d827917	0.06370752
2	0x3df4640e	0.119331464
3	0x3c23baeb	0.009993295
4	0xbd978d51	-0.07400001
5	0x3d5aa77f	0.053382393
6	0x3d599f75	0.053130586
7	0x3e0337be	0.12814233
8	0xbd162d65	-0.036664385
9	0x3c2951ff	0.010334491
10	0xbd9c1af1	-0.07622326
11	0x3dbfec16	0.09371202
12	0x3cab20d6	0.02088968
13	0x3caed87d	0.021343464
14	0x3b31edac	0.002714972
15	0xbd465869	-0.04842416
16	0xbb7365d1	-0.0037139545
17	0x3d967cdd	0.073480345
18	0xbe15211f	-0.14563416
19	0xbc881323	-0.016610688
20	0xbe05bb56	-0.13059744
21	0xbd3963eb	-0.045261305
22	0xbdea3445	-0.11435751
23	0xbd0d9aab	-0.03457133
24	0xbe0d6d98	-0.13811338
25	0xbe3155cc	-0.17317885
26	0xbdb1c3a6	-0.08679895
27	0xbe11afab	-0.14227168
28	0x3ccea15b	0.025223425
29	0xbd0091f8	-0.031389207
30	0xbdc3ff67	-0.095701985
31	0x3cc20bd9	0.02368729
32	0x3dfda810	0.12385571
33	0x3d860f0d	0.065458395
34	0xbcd2933a	-0.025704969
35	0x3d85ebeb	0.065391384
36	0xbc2e8b69	-0.010653355
37	0xbd05bd69	-0.03265134
38	0xbcced123	-0.025246209
39	0x3d69cb85	0.057078857
40	0xbd2b9824	-0.04189314
41	0xbd8b3019	-0.06796283
42	0x3d9ab6cd	0.07554398
43	0xbd8a568e	-0.0675479
44	0x3d833204	0.06406024
45	0xbdeedfe7	-0.116638
46	0x3d20a98b	0.03922419
47	0xbdea88f5	-0.11451904
48	0x3db12783	0.086501144
49	0xbc8886ef	-0.016665904
50	0x3d70a349	0.05874947
51	0x3d3c5713	0.045981478
52	0x3da89cc1	0.082330234
53	0x3bd649c8	0.006539557
54	0x3d9794e2	0.07401444
55	0x3ce0bf30	0.027434915
56	0xbcbde618	-0.023181006
57	0xbd8fd92f	-0.07023846
58	0x3d311f1f	0.04324257
59	0x3cef4257	0.029206438
60	0xbd22ebfe	-0.03977584
61	0xbe0074ba	-0.12544528
62	0xbd2b9ff5	-0.041900594
63	0x3dbe7593	0.09299769
64	0x3d3ed4a0	0.046589494
65	0xbdcb5af8	-0.0992946
66	0x3d16882f	0.03675097
67	0xbd546ec9	-0.051863465
68	0x3da7a676	0.08186047
69	0xbe14773c	-0.1449861
70	0x3d63d823	0.055626046
71	0xbda93647	-0.08262306
72	0xbd2e8d70	-0.042615354
73	0xbd03ba43	-0.032160055
74	0x3ddc4421	0.10755182
75	0xbcde1fcb	-0.02711477
76	0xbe16496d	-0.14676447
77	0x3c6696a3	0.0140740005
78	0x3e1f39da	0.15549412
79	0xbdaa58e3	-0.08317735
80	0xbdb6ada8	-0.08919841
81	0xbd3eb9b9	-0.046563838
82	0xbd25f1bf	-0.04051375
83	0xbdeb3aa1	-0.11485792
84	0xbda10f5a	-0.07864256
85	0xbcc9ac64	-0.024618335
86	0xbe0cc144	-0.137456
87	0x3dd43e0e	0.103633985
88	0xbd8e62b1	-0.06952418
89	0xbce42a1d	-0.027852112
90	0xbdde4520	-0.10853028
91	0xbd88240d	-0.06647501
92	0x3cdfdfae	0.027328338
93	0xbdac1727	-0.084028535
94	0xbdd73b2f	-0.10509335
95	0xbd3cc0e9	-0.04608241
96	0xbd710cd0	-0.05885011
97	0xbe0365fb	-0.12831871
98	0x3d68a4ae	0.056797676
99	0x3e022756	0.12710318
100	0xbe0414f4	-0.12898618
101	0x3dd44150	0.1036402
102	0xbdbf154b	-0.09330233
103	0xbdcc5623	-0.09977367
104	0x3c9e859a	0.019350816
105	0xbd938092	-0.07202257
106	0xbbeeef62	-0.0072917202
107	0x3d857bb2	0.06517734
108	0x3d557156	0.05211004
109	0xbd48966b	-0.048971575
110	0xbd2fe774	-0.04294534
111	0x3da16b87	0.07881837
112	0xbd9af527	-0.0756629
113	0x3df53a8d	0.11974058
114	0x3be90e20	0.0071122795
115	0xbbe15d2d	-0.0068775625
116	0x3de412bb	0.11136385
117	0x3d1938bc	0.03740762
118	0xbdb55238	-0.088535726
119	0xbd4c5272	-0.049883313
120	0x3d29214a	0.041291513
121	0xbded1d2b	-0.11577829
122	0x3c370a92	0.011171954
123	0xbb3bc8ce	-0.0028653624
124	0xbe26c755	-0.16286977
125	0x3ba8b024	0.0051479507
126	0xbd42b7b6	-0.04753848
127	0xbe3def7c	-0.18548387

ms.2.weight f4 [128, 128]
0	0xbd9f3954	-0.07774606
1	0x3c74deb7	0.0149456775
2	0x3d17d229	0.03706566
3	0x3d3f6509	0.046727214
4	0xbd8a18c1	-0.06743003
5	0xbdadec79	-0.08492369
6	0xbcee4898	-0.02908735
7	0xbd8c6d87	-0.06856828
8	0x3cccac94	0.024984635
9	0xbd11896c	-0.035531446
10	0x3d7c9494	0.061665133
11	0xbc9d34af	-0.01919016
12	0xbc0203dc	-0.00793549
13	0x3cdd6463	0.027025407
14	0x3d1ab366	0.037768744
15	0xbd7cfaf1	-0.061762754
16	0x3d6c4f5b	0.057692867
17	0xbd38e259	-0.045137737
18	0xbda5ba3f	-0.08092164
19	0x3d2745c9	0.040838037
20	0x3d626870	0.05527538
21	0x3db4b453	0.088234566
22	0xbdc57554	-0.09641519
23	0x3da681b2	0.08130206
24	0xbd88e372	-0.06684007
25	0xbc3d7a51	-0.011564807
26	0xbcc9f693	-0.024653709
27	0x3cd7e8bf	0.0263561
28	0xbd9c1026	-0.076202676
29	0xbd919f94	-0.07110515
30	0xbcb05dfb	-0.021529188
31	0xbc97798f	-0.01849058
32	0x3d695a54	0.05697091
33	0xbb796b7a	-0.0038058446
34	0x3d557101	0.052109722
35	0xbaedf76c	-0.0018155403
36	0x3d83cd7b	0.06435677
37	0xbdabed38	-0.08394855
38	0x3da0b37a	0.078467324
39	0xbd60a071	-0.05484051
40	0xbd6aca8f	-0.05732208
41	0xbd05ad1a	-0.032635786
42	0xbcb5ecf1	-0.022207709
43	0x3ce12190	0.027481824
44	0xbd7d5f10	-0.061858237
45	0xbd4dfc48	-0.050289422
46	0xbd0dbbda	-0.034602977
47	0x3d1eb6b2	0.03874845
48	0xbd01cac3	-0.03168751
49	0xbd48cabb	-0.049021464
50	0x3d813364	0.0630863
51	0xbdbd0bf3	-0.09230795
52	0x3bd5d0a9	0.0065251184
53	0x3c8449cb	0.016148468
54	0x3dc085ac	0.09400496
55	0xbda30092	-0.07959093
56	0x3c961d51	0.018324526
57	0x3d12f3ce	0.03587704
58	0x3d014da7	0.031568196
59	0x3b733752	0.003711183
60	0xbd45e403	-0.048313152
61	0x3dae87d6	0.085220024
62	0x3dae4f04	0.08511165
63	0xbdabf3f5	-0.083961405
64	0x3dab2769	0.08357126
65	0xbd37882e	-0.044807605
66	0xbdb44ad9	-0.088033386
67	0xbd730ad4	-0.0593365
68	0x3cead811	0.028667482
69	0xbd3cf81d	-0.046135057
70	0xbcf150bb	-0.02945744
71	0x3a30ee3a	0.0006749366
72	0xbdac71b2	-0.08420123
73	0x3dd952ed	0.1061152
74	0xba3fbd3b	-0.00073142693
75	0x3d911116	0.07083337
76	0x3d92fcb4	0.071771055
77	0xbd4207a1	-0.047370557
78	0xbc99875d	-0.018741304
79	0x3d06f5de	0.03294932
80	0x3666be70	3.438352e-06
81	0x3a8d747b	0.001079216
82	0x3dac6b27	0.08418875
83	0xbdab3eb9	-0.08361573
84	0xbcb4e007	-0.02207948
85	0xbd0b00bb	-0.033936244
86	0xbcfc360e	-0.030787494
87	0xbcdb8d00	-0.026800632
88	0x3c850a9d	0.016240412
89	0x3d51f38d	0.05125766
90	0xbd3a9489	-0.04555181
91	0xbc6815db	-0.014165367
92	0xbcaf757d	-0.021418327
93	0xbd6d80df	-0.05798423
94	0xbc198366	-0.009369707
95	0x3cbda42e	0.023149576
96	0xbbf16925	-0.0073672705
97	0x3dacbac8	0.08434063
98	0xbd80b6ad	-0.06284843
99	0x3d875e2b	0.06609758
100	0xbdba7aba	-0.091054395
101	0x3d704068	0.058655173
102	0x3d5cd716	0.05391606
103	0xbd76c7b7	-0.060249057
104	0x3daecf12	0.08535589
105	0x3db6db01	0.089284904
106	0xbd02b20e	-0.031908087
107	0xbcb1ebf5	-0.021718958
108	0x3d9503e4	0.07276133
109	0x3cbd6a36	0.023121934
110	0xbd072de5	-0.033002753
111	0xbd21273f	-0.03934407
112	0xbcf9ff68	-0.030517295
113	0xbc324d22	-0.010882648
114	0xbdafe5fd	-0.08588789
115	0xbde49233	-0.11160698
116	0x3d478bf1	0.048717443
117	0xbd4e5968	-0.050378233
118	0xbc0ddc62	-0.0086585
119	0x3d4ae250	0.049532235
120	0xbc64125e	-0.013920395
121	0xbc462bce	-0.012095405
122	0x3c836e56	0.016043823
123	0xbd5249a2	-0.051339753
124	0x3d7d07e7	0.061775114
125	0xbc11357c	-0.008862849
126	0x3d45c606	0.048284553
127	0x3da8cd3a	0.08242269
128	0xbdca9c07	-0.09893041
129	0xbcf3077d	-0.029666657
130	0xbbdd5dfb	-0.006755588
131	0x3c7cc8ac	0.015428703
132	0xbdd98a54	-0.10622087
133	0xbda2332d	-0.07919917
134	0x3d97ff0f	0.074216954
135	0x3c4f6599	0.0126585
136	0xbcc22cfb	-0.023703089
137	0x3d030637	0.03198835
138	0xbd63767a	-0.05553291
139	0xbd28f0b6	-0.041245185
140	0x3cc7fde4	0.024413057
141	0xbb741d6a	-0.0037248977
142	0x3da1e794	0.07905498
143	0x3d26a463	0.040684115
144	0x3932f2a4	0.00017065794
145	0x3c57cb8f	0.013171091
146	0x3cc69d1c	0.024244837
147	0x3dbea231	0.09308279
148	0xbd085df3	-0.033292722
149	0x3d68b8d5	0.056816895
150	0xbd6a57fb	-0.05721281
151	0x3ca09740	0.019603372
152	0x3aab0f06	0.0013050742
153	0x3d1a29d4	0.037637547
154	0xbd3c1ce1	-0.04592598
155	0x3c0f6ef3	0.00875448
156	0xbc805dca	-0.015669722
157	0xbdb7a16e	-0.08966337
158	0x3decf33e	0.11569832
159	0xbd0f174a	-0.03493432
160	0xbd11e6ed	-0.03562062
161	0x3ba64223	0.005073802
162	0x3d182dad	0.037152935
163	0x3dc2ed57	0.09517925
164	0xbcd08014	-0.025451697
165	0xbd5b7c64	-0.053585425
166	0xbcdb0d80	-0.026739836
167	0xbd6c9543	-0.057759535
168	0x3d7b22ad	0.061312366
169	0xbd94cd52	-0.07265724
170	0xbd6e448d	-0.058170844
171	0x3d568781	0.05237532
172	0x3ce8734a	0.028375287
173	0xbdc3988a	-0.09550579
174	0xbb4463f7	-0.002996681
175	0xbcc64559	-0.02420299
176	0xbd8840c0	-0.06652975
177	0x3ba8d785	0.005152645
178	0xbc5698c4	-0.013097946
179	0xbd285017	-0.041092005
180	0xbd1b80e4	-0.037964717
181	0xbdaee83d	-0.0854039
182	0x3d3fbbc9	0.046809945
183	0x3d2ef16c	0.042710707
184	0xbc543016	-0.012950918
185	0xbd09dba3	-0.033656728
186	0xbd7b5714	-0.06136234
187	0x3c4c053a	0.012452418
188	0x3dbcc867	0.09217911
189	0xbc132212	-0.008980291
190	0xbd755ff7	-0.059905972
191	0xbd13c967	-0.036080744
192	0xbc2c72e5	-0.01052544
193	0x3cbd64c9	0.023119347
194	0xbcf62178	-0.030045256
195	0xbc6f2233	-0.014595556
196	0xbd0cf12c	-0.034409687
197	0x3d175a23	0.036951195
198	0xbd8e5cd6	-0.06951301
199	0xbd07a34d	-0.03311472
200	0xbcac1456	-0.02100579
201	0xbc338396	-0.0109566655
202	0xbd33719a	-0.04380951
203	0xbd90d124	-0.070711404
204	0xbbca19b6	-0.0061676158
205	0x3d87071d	0.065931536
206	0xbd3efa5e	-0.046625488
207	0xbc92a886	-0.017902624
208	0x3c613e6f	0.0137477955
209	0x3d8fa8de	0.07014631
210	0x3bb97f90	0.0056609586
211	0x3d983961	0.07432819
212	0xbdc7c10f	-0.0975362
213	0xbca38bdf	-0.019964157
214	0xba9e9edf	-0.0012101791
215	0xbdae1c97	-0.08501547
216	0x3d75f27c	0.060045704
217	0xbd2161d9	-0.039399955
218	0x3d427783	0.047477257
219	0xbce1f981	-0.027584793
220	0xbd81258f	-0.06305992
221	0x3d8d4635	0.068981566
222	0x3dc0ed91	0.09420312
223	0x3ce0d3cc	0.027444743
224	0xbe330b84	-0.17484862
225	0x3c20bf3a	0.009811217
226	0x3db5e612	0.08881773
227	0x3d86f693	0.06589999
228	0x3c829985	0.015942344
229	0xbda0a136	-0.078432485
230	0x3dae4e90	0.08511078
231	0x3abeb9e8	0.0014551254
232	0xbd4af490	-0.04954964
233	0xbd932f9f	-0.071868174
234	0xbd9a6fa2	-0.075408235
235	0xbd706c67	-0.05869713
236	0x3dc8f9f1	0.098132975
237	0xbd942e19	-0.07235355
238	0x3d0f828a	0.0350366
239	0xbd540ab3	-0.051768016
240	0xbce19f65	-0.027541826
241	0xbd82996f	-0.063769214
242	0x3d8950a0	0.06704831
243	0x3d61172e	0.054953746
244	0xbd356c9a	-0.044293024
245	0x3d3bc6a9	0.045843754
246	0xbcc83a19	-0.024441766
247	0xbd57683c	-0.05258964
248	0xbd5720f7	-0.052521672
249	0xbdd1b5c6	-0.10239749
250	0x3da1e935	0.07905809
251	0x3d590e7f	0.05299234
252	0xbd962687	-0.07331567
253	0x3d8b1371	0.067908175
254	0xbd599d1c	-0.053128347
255	0x3d531928	0.051537663

ms.2.bias f4 [128]
0	0xbd255eb7	-0.04037353
1	0xbc2ac017	-0.010421774
2	0xbd9629d8	-0.073322
3	0x3ad8f68c	0.0016552969
4	0xbd4903ba	-0.04907582
5	0xbc9465b6	-0.018114906
6	0x3d4d3eb5	0.05010863
7	0xbd6509a5	-0.0559174
8	0x3cde26ae	0.027118053
9	0xbd89cdda	-0.06728716
10	0xbc793d34	-0.015212346
11	0xbde99b5b	-0.11406585
12	0xbdab348b	-0.08359631
13	0xbdafab1d	-0.08577559
14	0x3c8ca352	0.017167721
15	0xbdbeb590	-0.09311974
16	0xbce5600b	-0.027999898
17	0x3d33af71	0.043868486
18	0x3b91141a	0.004427445
19	0xbdf50d79	-0.1196546
20	0xbd883a89	-0.0665179
21	0x3d052ef5	0.032515485
22	0xbb825ef3	-0.003978604
23	0xbc90c1f1	-0.017670603
24	0xbcaf8181	-0.021424057
25	0xbd56eb2f	-0.052470382
26	0xbdb78b0d	-0.08962069
27	0xbb867195	-0.0041028955
28	0xbd689186	-0.056779407
29	0x3d2f3b33	0.042781066
30	0xbd1e9f83	-0.03872634
31	0x3dd351bb	0.10318323
32	0xbbee4268	-0.0072711
33	0x3d205d91	0.039151732
34	0xbcbbdc21	-0.022932114
35	0xbd8a95d3	-0.06766858
36	0xbd78c9af	-0.060739215
37	0xbd4a9466	-0.04945793
38	0x3cb1e881	0.021717312
39	0x3a091f70	0.000523082
40	0xbd39edad	-0.04539268
41	0xbd470c75	-0.048595864
42	0xbcb0cf08	-0.021583095
43	0x3cd0be1e	0.02548128
44	0xbc958552	-0.018252049
45	0x3b4fa8f6	0.0031686402
46	0xbcd945a4	-0.026522465
47	0xbd2a22bc	-0.04153703
48	0xbdab3c26	-0.08361082
49	0xbd5e6bbf	-0.054301973
50	0xbd4624d5	-0.04837497
51	0xbc9583f8	-0.018251404
52	0xba4e16ee	-0.0007861693
53	0x3c799625	0.015233551
54	0xbcde6361	-0.027146997
55	0xbe0b9ab9	-0.13633241
56	0x3d04aac6	0.032389425
57	0xbd51779c	-0.05113946
58	0xbc35c18c	-0.011093508
59	0xbd8301c0	-0.06396818
60	0xbbe2f5a2	-0.0069262544
61	0xbded956f	-0.11600768
62	0xbcea656c	-0.028612815
63	0xbcdbce16	-0.026831668
64	0x3cbd99ea	0.023144681
65	0xbd58c9a4	-0.052926674
66	0xbcc7a902	-0.024372581
67	0x3ba3adc7	0.004995081
68	0xbdbf0707	-0.09327512
69	0xbda239c5	-0.07921175
70	0xbd2853f1	-0.041095678
71	0xbd6bf890	-0.057610095
72	0xbd69d35d	-0.057086337
73	0xbd63d567	-0.05562344
74	0xbda2edfd	-0.07955549
75	0xbd332b71	-0.0437426
76	0xbd82e35a	-0.0639102
77	0xbd8cd31d	-0.06876204
78	0xbb84e320	-0.0040553957
79	0xbd3ed389	-0.046588454
80	0x3cccfc2d	0.02502259
81	0xbdb614b9	-0.08890671
82	0xbc5203b4	-0.012818266
83	0x3c79bf90	0.015243426
84	0xbdfeedea	-0.12447722
85	0x3d157d78	0.03649661
86	0x3c22c227	0.009933985
87	0x3d8c3d9a	0.06847687
88	0x3cba7bc1	0.022764089
89	0xbd4f048c	-0.050541446
90	0xbd5577b6	-0.05211612
91	0xbcfdd8db	-0.030987194
92	0x3d1001a4	0.035157815
93	0x3d67ff17	0.056639757
94	0xbdb07226	-0.08615522
95	0xbdc24ae7	-0.09486943
96	0xbda3afb7	-0.07992499
97	0xbc68070b	-0.014161835
98	0xbdb1713c	-0.08664176
99	0x3c1b4fee	0.009479506
100	0x3d6e7e9e	0.05822622
101	0x3d04dd6f	0.032437738
102	0xbd13da4b	-0.036096852
103	0xbe02576b	-0.1272866
104	0xbdc70821	-0.09718347
105	0xbd138f91	-0.036025587
106	0x3a1e843c	0.0006046926
107	0x3d242732	0.040076442
108	0xbe02f2b2	-0.12787893
109	0xb97cfe9a	-0.00024127439
110	0xbccdf2f3	-0.025140261
111	0xbd811b18	-0.06303996
112	0xbd8804e0	-0.06641555
113	0xba12a5e6	-0.0005594179
114	0x3b01538e	0.001973364
115	0xbdb10a0d	-0.08644495
116	0xbd568ceb	-0.052380484
117	0x3d608773	0.054816674
118	0x3d1e1a98	0.03859958
119	0xbe09ef26	-0.13470134
120	0xbc969543	-0.01838172
121	0x3d07ae48	0.033125192
122	0x3d6488c6	0.0557945
123	0xbdaabd3f	-0.08336877
124	0xbc2fe959	-0.010736787
125	0x3d1311c1	0.035905603
126	0xbdf9f9d1	-0.12205852
127	0xbd2a2118	-0.041535467

ms.4.weight f4 [2, 128]
0	0xbbbe1de6	-0.005801904
1	0x3c2a0869	0.010377982
2	0xbb1f74c6	-0.0024331077
3	0x3c538349	0.012909719
4	0x3cc07534	0.023493387
5	0x3b6aaa08	0.0035806913
6	0xb8a05882	-7.6458804e-05
7	0x3de9f0c1	0.11422873
8	0x3bf92bc8	0.007604096
9	0xbc774c78	-0.015093915
10	0xbbeec196	-0.007286261
11	0xbd19e647	-0.037573125
12	0xbd8dfcab	-0.06932958
13	0x39ad6aac	0.00033076608
14	0x3b9d5f6e	0.004802636
15	0xbd1f1b9c	-0.03884469
16	0x3e2da841	0.16958715
17	0x39848da9	0.00025282547
18	0xba896ade	-0.0010484119
19	0xbde6375b	-0.11241027
20	0xbaa011b9	-0.0012212313
21	0x3ce4975a	0.027904201
22	0x3dc26d39	0.09493489
23	0x3c82f2b0	0.015984863
24	0x3b728bfa	0.0037009702
25	0x3b395d21	0.002828427
26	0xbc51839b	-0.012787725
27	0x3c06f323	0.008236679
28	0xbcc81415	-0.024423638
29	0x3d953fcc	0.07287559
30	0x3cff5a13	0.03117088
31	0x38e23ed9	0.00010788226
32	0x3b61981c	0.003442294
33	0x3b80c177	0.003929313
34	0xbc55d6e7	-0.013051725
35	0x3df77678	0.12083143
36	0xbd3c866f	-0.046026643
37	0x3d09992c	0.03359334
38	0x3a38e1ee	0.0007052709
39	0xbdf13bd5	-0.1177899
40	0xbc3b59ee	-0.011435015
41	0x3e26245e	0.1622481
42	0x3c6c7932	0.014433192
43	0xbacb5b97	-0.0015514967
44	0xbdfb2ed6	-0.122647926
45	0x3b0f0168	0.0021820907
46	0x39f93634	0.00047533365
47	0x3c154f94	0.009113211
48	0x3db58467	0.08863144
49	0xbcee5673	-0.029093957
50	0xba8f8f6e	-0.001095278
51	0xb9b6cf88	-0.00034868368
52	0xba9b6b5a	-0.0011857555
53	0xba9a6191	-0.0011778345
54	0xb9c1808b	-0.000369076
55	0xbe0932a2	-0.13398221
56	0x3d4af44c	0.049549386
57	0x3d9735d6	0.07383315
58	0xbd3e2cc5	-0.046429414
59	0x3d8dadc6	0.0691791
60	0xbd003dc5	-0.031308908
61	0xbd1b533f	-0.037921187
62	0x3aa109d8	0.0012286259
63	0x3e4d7f51	0.20068099
64	0xbae12dcb	-0.0017179785
65	0xba244f51	-0.00062679226
66	0x3d07e42b	0.033176582
67	0x3b20d747	0.0024542378
68	0xbc8d56f5	-0.017253378
69	0x3deb76cb	0.11497267
70	0x39060ecc	0.00012784748
71	0xbd8d21dd	-0.068912245
72	0xbb1beed8	-0.0023793485
73	0x3b887211	0.0041639884
74	0xbab84eef	-0.001406161
75	0x3bac2a38	0.0052540563
76	0xbc9baf98	-0.019004628
77	0x3d614798	0.054999918
78	0x3dd15474	0.10221186
79	0x3d8a0945	0.06740049
80	0xbad43d94	-0.0016192668
81	0xbe3709cf	-0.17874835
82	0xbc962ff0	-0.018333405
83	0x3c235841	0.009969772
84	0xbd2bfc0a	-0.04198841
85	0xba91e568	-0.001113099
86	0x3cbfdf1b	0.023421815
87	0x3da14c4b	0.0787588
88	0xbc865485	-0.016397724
89	0xbdd5b251	-0.10434402
90	0x3adc9dfd	0.0016831752
91	0x3818afef	3.6403475e-05
92	0x3d53a0ef	0.05166715
93	0x3d31830d	0.04333787
94	0xbe11c3f3	-0.14234905
95	0xba4c6248	-0.00077966275
96	0xbd3ac6f5	-0.045599896
97	0xbd9aec67	-0.075646214
98	0x3b8260c4	0.0039788205
99	0x36be5930	5.672824e-06
100	0xbc55cd59	-0.013049447
101	0x3a5a0240	0.00083163753
102	0x3da3a484	0.07990363
103	0x3cfb86c7	0.030703915
104	0x3d208add	0.03919493
105	0xbd0a8595	-0.0338188
106	0x3b35d2b4	0.0027743997
107	0x3c4fdc24	0.012686763
108	0x3d12bb1a	0.035822965
109	0x3aaf772e	0.0013386959
110	0xbc433c71	-0.011916266
111	0x3b38d868	0.002820516
112	0x3d010f75	0.03150888
113	0xbb4ef2f7	-0.0031577924
114	0xbb5c75d5	-0.003363957
115	0x3cd20102	0.025635246
116	0x3a554dae	0.00081368804
117	0xbb079594	-0.002068852
118	0x3c1d4487	0.009598858
119	0x3e0b8606	0.13625345
120	0xbc6041fd	-0.013687608
121	0xbc8b3a7e	-0.016995665
122	0x3b75de4a	0.0037516528
123	0xbb894f29	-0.004190345
124	0xba853cc3	-0.0010165203
125	0x3a7d3c56	0.0009660175
126	0xbd8e17fe	-0.0693817
127	0x3cb0e44f	0.021593241
128	0xbc9ffa74	-0.019528605
129	0xbc0c9d3a	-0.008582408
130	0xba5a7be0	-0.0008334499
131	0x3b8d4510	0.0043112114
132	0x3d83a926	0.06428747
133	0xbb0106cc	-0.001968789
134	0xba8d26ba	-0.0010768988
135	0x3ad52682	0.0016262087
136	0x3c3334a8	0.010937847
137	0xbcef24f1	-0.02919242
138	0x3af0d598	0.0018374203
139	0x3de61093	0.1123363
140	0x3d60e51f	0.054906007
141	0xbb8e36e0	-0.0043400377
142	0x3bd548c2	0.0065089175
143	0x3d369772	0.044578023
144	0x3cfeeeda	0.031119753
145	0xbb018d0c	-0.0019767908
146	0xbaa8c5d4	-0.001287634
147	0xbe034488	-0.12819111
148	0xbb11bca2	-0.0022237678
149	0xbd077451	-0.033069912
150	0xbcd1a7d7	-0.025592728
151	0xbb442e84	-0.0029934952
152	0x39f659b6	0.00046987616
153	0x3a33f11a	0.0006864235
154	0x3c48b9d2	0.012251334
155	0xb9886cf6	-0.00026021124
156	0xbc0e53f8	-0.008687012
157	0xbcce3828	-0.025173262
158	0xbc938fe9	-0.018012958
159	0x3b5744c4	0.0032847384
160	0x3aa5b477	0.0012642284
161	0x3b9b74e2	0.004744158
162	0x3c15649c	0.009118225
163	0xbdec2df3	-0.115322016
164	0x3d8c6b1d	0.06856368
165	0x3c840dcb	0.016119858
166	0x3b413dba	0.0029486255
167	0xbd8dd45c	-0.0692527
168	0x3b3a0b4a	0.0028388076
169	0x3dc3e647	0.09565406
170	0xbbd3f496	-0.006468366
171	0x38ad25c4	8.256317e-05
172	0xbe5052c9	-0.2034408
173	0x3b5ed9ef	0.003400441
174	0x3a9abe9a	0.0011806071
175	0xbc631b02	-0.01386142
176	0xbdcc5fbc	-0.099791974
177	0xbca7ddc5	-0.02049149
178	0x3d5e5195	0.05427702
179	0x3ae217c4	0.0017249514
180	0xba7945e4	-0.00095090107
181	0x3b0fd1c2	0.0021945094
182	0xb8ac51a8	-8.216809e-05
183	0x3c93e43d	0.018053168
184	0x3d209939	0.039208625
185	0xbd070cb9	-0.032971118
186	0xbca02872	-0.019550536
187	0xbc4b4030	-0.01240544
188	0xbd20a040	-0.039215326
189	0x3cd2d2ab	0.02573522
190	0x3ac320c8	0.0014887089
191	0xbe0003da	-0.12501469
192	0x39c0e53a	0.0003679188
193	0xb9fbf4ea	-0.00048056926
194	0xbd7b5826	-0.06136336
195	0x3b81da7a	0.003962812
196	0xbc0e6234	-0.008690406
197	0xbda63e46	-0.081173465
198	0x3a0dad4a	0.0005404545
199	0xbd5cc758	-0.053901047
200	0xbb1710b2	-0.0023050723
201	0x391722b8	0.00014413416
202	0xba894615	-0.0010473157
203	0x3a0b37e2	0.00053107564
204	0xbce7be53	-0.028288996
205	0x3d2a3c7d	0.041561592
206	0x3d0165ed	0.031591345
207	0x3d181532	0.03712959
208	0xbb0bab60	-0.0021311864
209	0x3db58523	0.088632844
210	0x3caa4ce3	0.020788616
211	0xbb3a1c7c	-0.0028398326
212	0x3d96b26c	0.0735825
213	0xbb19cc54	-0.0023467736
214	0x3da26e63	0.07931211
215	0xbd1ce52d	-0.038304497
216	0x3b087552	0.0020821881
217	0xbd812e85	-0.06307701
218	0xbb7482c8	-0.0037309397
219	0x3b80cae0	0.0039304346
220	0x3c86f76d	0.016475404
221	0xbcd100d2	-0.025513086
222	0xbc953631	-0.018214317
223	0x3b551ab2	0.0032517132
224	0x3e3cd9fb	0.18442528
225	0xbc4cb0fc	-0.012493368
226	0x3b784d13	0.0037887737
227	0x3a4f2acb	0.00079028
228	0xbcc2ffb0	-0.023803562
229	0xb9c1b125	-0.00036943812
230	0xbd52d970	-0.051476896
231	0x3e0e2dac	0.1388461
232	0x3d464bbc	0.04841207
233	0x3b62e42d	0.0034620867
234	0x3b2486d2	0.0025104773
235	0xbb220df4	-0.0024727555
236	0x3d71ad1a	0.059002973
237	0xbc17b0dd	-0.009258476
238	0xbbd9f2c6	-0.0066512553
239	0xbc6f2efd	-0.014598605
240	0xbde0955f	-0.1096599
241	0xbcf2cf8f	-0.029639987
242	0xbb9c120a	-0.0047628926
243	0xbd2d1659	-0.04225764
244	0xbc4d2b6a	-0.012522558
245	0xbb118930	-0.0022207014
246	0xba04ee9e	-0.0005070957
247	0x3e036a9e	0.1283364
248	0x3c8eef06	0.01744796
249	0x3b27bc86	0.0025594546
250	0x3b7f216e	0.0038929838
251	0xbcfb564b	-0.030680796
252	0x3a966567	0.0011474312
253	0x3920a72f	0.0001532107
254	0x3db793c8	0.08963734
255	0x3c65b45a	0.01402005

ms.4.bias f4 [2]
0	0xbd2b9f75	-0.041900117
1	0x3cc72db9	0.024313794

exp_avg f4 [128, 1]
0	0x38607e4e	5.3523392e-05
1	0xb8372bff	-4.3671575e-05
2	0xb74e1478	-1.2283323e-05
3	0xb7f2ec3e	-2.8958657e-05
4	0xb76cb6e0	-1.4109275e-05
5	0xb7a01966	-1.9085313e-05
6	0x35c08920	1.4345023e-06
7	0x38635634	5.42013e-05
8	0xb557ce40	-8.0393875e-07
9	0xb787c10e	-1.6183152e-05
10	0xb833f19e	-4.290195e-05
11	0xb71cf7bf	-9.3560075e-06
12	0x3780d344	1.5357167e-05
13	0xb7a07130	-1.9126193e-05
14	0xb85feb97	-5.3386753e-05
15	0xb8d12280	-9.972323e-05
16	0x388243cf	6.2115134e-05
17	0xb8904277	-6.878835e-05
18	0xb4a4d2e0	-3.0700812e-07
19	0x3808e34c	3.2636613e-05
20	0xb784d41e	-1.5834401e-05
21	0xb795aa4c	-1.7841485e-05
22	0xb7854e04	-1.5891164e-05
23	0x36c42360	5.8453734e-06
24	0xb5415bf0	-7.203189e-07
25	0xb90359bb	-0.00012526561
26	0xb6d14601	-6.236835e-06
27	0xb7f8ab86	-2.9643776e-05
28	0xb6154e40	-2.2248278e-06
29	0xb7e54eac	-2.7335562e-05
30	0x38125631	3.4889385e-05
31	0x38aacb78	8.144131e-05
32	0xb4f25c00	-4.5142951e-07
33	0xb78a34a8	-1.6475402e-05
34	0xb8caacdf	-9.66431e-05
35	0xb7c93f30	-2.3990491e-05
36	0xb7387101	-1.0993565e-05
37	0xb7fa7147	-2.9855071e-05
38	0xb6ef8600	-7.1383547e-06
39	0xb78862d1	-1.6258478e-05
40	0x37b4a3cc	2.1533946e-05
41	0xb649bc20	-3.0060837e-06
42	0x387dac3a	6.04803e-05
43	0xb8f0880b	-0.00011469432
44	0xb9513f31	-0.00019955334
45	0x371916e0	9.124837e-06
46	0xb711e323	-8.695558e-06
47	0xb7a8adc6	-2.010808e-05
48	0x371145ac	8.658895e-06
49	0x38354ba5	4.3224212e-05
50	0x37767786	1.4690571e-05
51	0x375bcff0	1.3101831e-05
52	0xb8804561	-6.1164385e-05
53	0xb794268e	-1.7660928e-05
54	0xb7186e42	-9.085577e-06
55	0x37cffdff	2.4794599e-05
56	0xb68d1834	-4.204945e-06
57	0xb730db14	-1.0541426e-05
58	0xb696a6c8	-4.4897643e-06
59	0xb68138f0	-3.851128e-06
60	0x3799b5f3	1.8323748e-05
61	0x36ad8382	5.1711113e-06
62	0xb86a4df2	-5.586254e-05
63	0x3831110b	4.221596e-05
64	0xb82e0768	-4.149173e-05
65	0xb7d87a2d	-2.5806099e-05
66	0xb907b92b	-0.00012943584
67	0xb696eb00	-4.497706e-06
68	0xb7a723e0	-1.9924657e-05
69	0xb6ad74b8	-5.1693896e-06
70	0xb75a8e30	-1.3026918e-05
71	0xb7b2a061	-2.1293936e-05
72	0xb8e5c0c2	-0.00010955475
73	0x37b3da20	2.1440035e-05
74	0x3898a240	7.278146e-05
75	0x3808c0be	3.2604432e-05
76	0xb6f9207c	-7.42456e-06
77	0xb7cf6e30	-2.4727633e-05
78	0xb718f658	-9.117262e-06
79	0xb6c8d960	-5.9857703e-06
80	0xb65fb66d	-3.3335775e-06
81	0xb74751dc	-1.1880384e-05
82	0xb72226f8	-9.665026e-06
83	0xb7938edc	-1.759029e-05
84	0xb75f7648	-1.3319375e-05
85	0xb7bc394c	-2.2438027e-05
86	0x389839d2	7.258695e-05
87	0xb73ff901	-1.1442463e-05
88	0x381a3748	3.6767946e-05
89	0xb90ecaaa	-0.00013617674
90	0x3748cadb	1.196816e-05
91	0xb855ac6e	-5.0943745e-05
92	0xb5a42042	-1.222834e-06
93	0xb78efc50	-1.7045211e-05
94	0xb71d2f61	-9.3689605e-06
95	0xb811964a	-3.471066e-05
96	0xb77f7830	-1.5227168e-05
97	0xb6d64310	-6.385504e-06
98	0x36b5662a	5.406114e-06
99	0xb6d43557	-6.324302e-06
100	0xb7b477a9	-2.1513393e-05
101	0xb7af7832	-2.0917596e-05
102	0xb73ee808	-1.13789065e-05
103	0xb73e03a8	-1.1325734e-05
104	0xb83d7ea8	-4.517907e-05
105	0x36e51080	6.8266527e-06
106	0xb8d8ec10	-0.00010343653
107	0xb74a8e30	-1.2073244e-05
108	0x369199da	4.3392474e-06
109	0xb850ae84	-4.9753595e-05
110	0xb8acb5ce	-8.235463e-05
111	0xb8d486ba	-0.000101340425
112	0x37a86300	2.0073261e-05
113	0x35118aa0	5.4218435e-07
114	0xb70e3136	-8.475317e-06
115	0xb78931f4	-1.6354934e-05
116	0xb932b9fa	-0.00017044685
117	0xb89f2eea	-7.590449e-05
118	0xb8333696	-4.2727763e-05
119	0xb52c9440	-6.4290725e-07
120	0xb7271d9e	-9.9608715e-06
121	0x372123a8	9.60465e-06
122	0xb7872692	-1.6111215e-05
123	0xb762866e	-1.3501949e-05
124	0xb7b4a793	-2.1535705e-05
125	0xb81d4d6e	-3.750383e-05
126	0x378e5c1f	1.6970616e-05
127	0x364d8dd0	3.0629926e-06
