docs/smld/lightning_logs/version_4/checkpoints/epoch=26-step=2646.ckpt (torch, 344011 bytes, 18 tensors)

model.layers.0.weight f4 [164, 2]
0	0x3effc9c1	0.49958614
1	0xbbf6215c	-0.007511301
2	0xbee85437	-0.4537675
3	0x3e3f03bc	0.18653768
4	0x3d1b9bea	0.037990488
5	0x3e7e0cf0	0.24809623
6	0xbed30b9e	-0.412198
7	0xbf2de230	-0.6792326
8	0xbe80c195	-0.2514769
9	0x3f0d80f6	0.55274904
10	0x3f017077	0.5056223
11	0xbedbddcd	-0.42942658
12	0x3e71227b	0.2354831
13	0x3eb9fa89	0.36323956
14	0xbc2e220d	-0.0106282355
15	0x3db23619	0.087017246
16	0xbebe004f	-0.3710961
17	0x3e867f58	0.2626903
18	0xbe8e5931	-0.27802423
19	0x3efb3d6b	0.49070296
20	0x3eddd524	0.43326676
21	0x3f1c5328	0.61064386
22	0x3e6ec316	0.23316607
23	0xbefa5807	-0.48895285
24	0x3ed239e1	0.41059783
25	0xbebce0bb	-0.36890206
26	0xbf02d232	-0.5110198
27	0xbf074aee	-0.5284871
28	0xbeba0735	-0.36333624
29	0x3e993c89	0.29928997
30	0x3ec3b04b	0.38220438
31	0x3d1342de	0.03595244
32	0xbf13bf50	-0.57713795
33	0x3d9a9523	0.07547977
34	0x3dffe149	0.124941416
35	0xbef130ef	-0.47107646
36	0x3e8d5939	0.27607134
37	0xbdb6b07a	-0.08920379
38	0xbe0a9996	-0.13535151
39	0xbd8aa469	-0.0676964
40	0x3e8402df	0.2578344
41	0xbc809f1a	-0.015700866
42	0x3f0b57d7	0.5443091
43	0x3e1dc0d0	0.15405583
44	0xbdb9e1d1	-0.09076274
45	0xbeec236a	-0.4612077
46	0xbed015b5	-0.4064156
47	0x3f04c4c8	0.51862764
48	0xbe9757d0	-0.29559183
49	0xbea6c47f	-0.3257179
50	0x3ebfd335	0.37465826
51	0xbebeed75	-0.3729054
52	0x3e755320	0.23957491
53	0xbdc8d970	-0.09807098
54	0xbf151e93	-0.5824978
55	0x3edf68db	0.43634686
56	0xbf302f6f	-0.6882238
57	0x3d8fb159	0.07016248
58	0x3ec36ec4	0.38170445
59	0xbf1a5a81	-0.6029435
60	0xbf1ee62a	-0.6206995
61	0xbf0d732d	-0.5525387
62	0xbeb0a817	-0.34503242
63	0xbf160da0	-0.5861454
64	0x3e4c5d03	0.19957356
65	0xbe87f8d0	-0.26557016
66	0xbee3cbc8	-0.4449141
67	0xbe19c82e	-0.15017769
68	0xbefb3316	-0.49062413
69	0xbe91f1fd	-0.28504935
70	0xbf0b202f	-0.54345983
71	0x3f102181	0.5630112
72	0xbeb58f9e	-0.35461134
73	0xbf225b20	-0.63420296
74	0xbe8cfd36	-0.27536935
75	0xbe49f151	-0.19720961
76	0x3ed4b3a5	0.41543308
77	0xbe9f6260	-0.31129742
78	0xbd2b5832	-0.041832156
79	0x3e879f59	0.2648876
80	0xbf233b8d	-0.6376274
81	0x3ead2494	0.3381697
82	0xbed02162	-0.4065047
83	0xbec727c8	-0.38897538
84	0xbf249b50	-0.6429949
85	0xbeb99844	-0.36248982
86	0xbe0977d8	-0.13424623
87	0x3e21b39d	0.15791173
88	0xbf01b07b	-0.5065991
89	0xbf2660d3	-0.6499149
90	0xbea7a0d4	-0.3273989
91	0xbecfe936	-0.40607613
92	0x3ee4271c	0.44561088
93	0xbebc585a	-0.36786157
94	0x3f2a5105	0.66529876
95	0x3f1a003b	0.601566
96	0x3ebef8b3	0.37299117
97	0x3f1637ed	0.58679086
98	0xbf096993	-0.5367672
99	0xbdc5f1aa	-0.096652344
100	0xbeedabac	-0.46420038
101	0xbe3de273	-0.18543415
102	0xbdcd38c0	-0.1002059
103	0xbe1bf766	-0.15231094
104	0xbe8c2add	-0.27376452
105	0x3e8d805c	0.27636993
106	0x3f29d8ca	0.6634642
107	0xbf106cb6	-0.5641588
108	0x3e32b27a	0.17450896
109	0xbe5b3606	-0.21407327
110	0x3f1a9760	0.6038723
111	0x3ec34fa6	0.38146704
112	0xbe381d4f	-0.1797993
113	0x3f064ae2	0.5245801
114	0xbedbd9f5	-0.42939726
115	0x3f16dee8	0.5893388
116	0x3e5c45d9	0.2151102
117	0x3d4bd528	0.04976383
118	0xbe04bd36	-0.12962803
119	0x3e989f54	0.29809058
120	0xbef2edd7	-0.47447082
121	0x3ed53c49	0.41647556
122	0xbd9e8a44	-0.07741216
123	0xbeefcd75	-0.4683644
124	0xbde02adb	-0.10945674
125	0x3ec08609	0.3760226
126	0xbed733e1	-0.42031768
127	0x3ee5efe7	0.44909593
128	0x3e4358e6	0.19076881
129	0xbf2ec139	-0.68263584
130	0xbf12e22d	-0.57376367
131	0xbefb466f	-0.49077174
132	0x3f089c64	0.53363633
133	0xbea8d30c	-0.32973516
134	0xbed4c236	-0.4155442
135	0xbf26f038	-0.65210295
136	0x3eb7a673	0.35869178
137	0xbe97f02e	-0.2967543
138	0xbddeeb37	-0.108847074
139	0x3df55613	0.11979308
140	0x3ef541df	0.47901818
141	0x3f20160c	0.6253364
142	0x3ee7f5d6	0.45304745
143	0xbf10c1de	-0.5654582
144	0xbce03b3a	-0.027371991
145	0x3e418754	0.1889928
146	0xbef29f2e	-0.4738707
147	0xbdfee34d	-0.12445698
148	0xbebbd815	-0.36688295
149	0xbf0aa306	-0.54155004
150	0xbeed03d7	-0.46291992
151	0x3ebbcf1f	0.36681458
152	0xbe373601	-0.17891695
153	0xbe10d63e	-0.14144227
154	0x3e461032	0.19342116
155	0xbf27d895	-0.6556485
156	0x3e3b4025	0.18286188
157	0x3f17e0a7	0.5932717
158	0x3e9c044b	0.30472025
159	0xbe61f6fa	-0.2206687
160	0xbed9474c	-0.42437208
161	0xb99a148c	-0.00029388478
162	0x3dce7110	0.10080159
163	0x3f167a4f	0.5878038
164	0x3f211a56	0.6293081
165	0xbc7d8060	-0.0154725015
166	0xbe969fab	-0.29418692
167	0x3f272229	0.652865
168	0xbf1b2884	-0.60608697
169	0xbe6a5e8e	-0.22887632
170	0xbefad8d1	-0.48993543
171	0x3e47be0f	0.19506095
172	0xbef34a62	-0.47517687
173	0x3eba5e00	0.3639984
174	0x3ea64695	0.32475725
175	0xbf0a81b5	-0.5410417
176	0xbd1c46cc	-0.038153455
177	0xbd088750	-0.03333217
178	0xbdda46bb	-0.10658022
179	0xbe544dfe	-0.20732877
180	0x3da7e021	0.08197046
181	0xbf116792	-0.5679866
182	0x3e9773e6	0.2958061
183	0xbe6a2ac9	-0.22867884
184	0xbf27745c	-0.65411925
185	0xbef03e28	-0.4692242
186	0xbcc635ae	-0.024195518
187	0xbeac1847	-0.33612272
188	0xbec64f40	-0.38732338
189	0xbf0aa2bc	-0.5415456
190	0xbe60c2e9	-0.21949352
191	0xbf318e09	-0.69357353
192	0xbe170a70	-0.14750075
193	0xbf250c7f	-0.6447219
194	0x3eeff727	0.4686825
195	0xbea8e658	-0.32988238
196	0xbebd27f0	-0.36944532
197	0x3e007319	0.12543906
198	0xbef1cb35	-0.47225347
199	0xbec66f04	-0.38756573
200	0x3f0840c7	0.5322384
201	0x3dfe6b64	0.12422827
202	0x3c579fac	0.013160627
203	0x3e018954	0.12650043
204	0x3e87c7b3	0.26519546
205	0xbeb08546	-0.3447668
206	0xbe9fe70a	-0.31230956
207	0x3e9f07bd	0.3106059
208	0x3ece1988	0.40253854
209	0xbf19fcc3	-0.6015131
210	0xbe4f60d2	-0.20251778
211	0xbe14787a	-0.14499083
212	0xbe9f757d	-0.31144324
213	0xbd476bdf	-0.04868686
214	0xbf1a992d	-0.6038998
215	0xbf038eb1	-0.51389605
216	0x3e985422	0.29751688
217	0x3eafdcd3	0.34348163
218	0xbd2eeaaa	-0.04270426
219	0x3f0615ba	0.523769
220	0x3e5ad938	0.21371925
221	0xbf19e019	-0.6010757
222	0x3e3aea77	0.18253504
223	0xbf158304	-0.5840304
224	0x3ee6b6f8	0.4506147
225	0xbe14bab3	-0.14524345
226	0x3e6d261b	0.23159067
227	0xbe28f0b4	-0.16498071
228	0x3c833674	0.016017176
229	0xbf05b460	-0.52228355
230	0xbec0841e	-0.37600797
231	0xbf013f7e	-0.50487506
232	0xbf22ea87	-0.6363911
233	0x3db1737b	0.08664604
234	0xbefdb541	-0.49552348
235	0x3f24a4fa	0.64314234
236	0x3f043c5a	0.5165459
237	0xbee3682c	-0.44415414
238	0x3f0c84c1	0.54890066
239	0xbb89d1aa	-0.004205902
240	0x3dd24713	0.102674626
241	0x3d5fdf03	0.05465604
242	0x3edd3ff3	0.43212852
243	0x3f12a6e5	0.5728591
244	0x3f0405a9	0.51571137
245	0xbe1a6f3c	-0.15081495
246	0xbefb97ec	-0.49139345
247	0x3f0e3825	0.5555442
248	0xbdb7532d	-0.089514114
249	0x3dd0ab92	0.101889744
250	0x3f245bfc	0.64202857
251	0x3eac5b52	0.33663422
252	0xbe28bede	-0.1647906
253	0xbf0af6da	-0.54282916
254	0x3ee16c6a	0.44028026
255	0x3e2adc49	0.16685595

model.layers.0.bias f4 [164]
0	0x3f117578	0.5681987
1	0x3e4063dd	0.18788095
2	0x3e8d0629	0.27543762
3	0x3ef88ef1	0.48546556
4	0x3f2d01b3	0.6758072
5	0xbe0f57da	-0.13998356
6	0x3e9f3be2	0.31100374
7	0x3ed777c4	0.4208356
8	0x3f1e8d30	0.61934185
9	0xbefb385a	-0.4906643
10	0xbe49cd6d	-0.1970727
11	0x3e158816	0.14602694
12	0x3ef17939	0.47162798
13	0xbc9e4241	-0.019318702
14	0xbf2c4e4d	-0.6730698
15	0x3e39d6b7	0.18148313
16	0x3f232372	0.6372596
17	0x3f079391	0.52959543
18	0xbf2dffae	-0.6796826
19	0xbf330234	-0.69925237
20	0x3da7355d	0.08164475
21	0xbea8abf1	-0.3294368
22	0xbf303501	-0.6883088
23	0x3ea2d444	0.3180257
24	0xbf12501f	-0.57153505
25	0x3eee77bd	0.46575728
26	0x3e357f8a	0.17724434
27	0xbcc5846a	-0.024110992
28	0x3e72cd1f	0.2371106
29	0xbf192b2d	-0.59831506
30	0x3d92101e	0.0713198
31	0x3db7b118	0.08969325
32	0xbd63a5f6	-0.055578195
33	0x3efbd429	0.49185303
34	0x3e86066e	0.2617678
35	0x3f1e6033	0.6186554
36	0x3eb4c396	0.3530547
37	0xbe62539b	-0.22102205
38	0xbdbc844e	-0.092049226
39	0xbe98d932	-0.29853207
40	0xbee9a325	-0.45632282
41	0xbeaf3787	-0.34222052
42	0xbf25ae54	-0.6471913
43	0xbd828df7	-0.06374734
44	0xbf373ac3	-0.7157404
45	0xbea2a422	-0.31765848
46	0x3f02293a	0.50844157
47	0x3f1fd0b5	0.62427837
48	0x3f0b61ea	0.5444628
49	0x3e0aa5bd	0.13539787
50	0xbd3e41e4	-0.046449557
51	0xbee0d3f0	-0.43911695
52	0xbc2306b0	-0.009950325
53	0xbf25f3c4	-0.6482508
54	0xbf1cb527	-0.61213917
55	0x3f17146e	0.5901555
56	0x3e4f9721	0.20272495
57	0x3e905132	0.28186947
58	0x3f0a3bb0	0.53997326
59	0x3e40e79f	0.18838356
60	0xbf0851d3	-0.53249854
61	0x3eed7201	0.4637604
62	0x3f254f1f	0.64573854
63	0x3ece03d2	0.4023729
64	0x3f17c389	0.5928274
65	0x3dd4c924	0.10389927
66	0xbf0d8a5c	-0.55289245
67	0x3e83aca8	0.25717664
68	0xbf0c17ef	-0.5472402
69	0x3f1c4c5e	0.6105403
70	0xbde03ae2	-0.10948731
71	0x3eb08ada	0.34480935
72	0x3ec25429	0.37954834
73	0x3ed514fa	0.41617566
74	0x3f273ff6	0.6533197
75	0xbf15261d	-0.5826128
76	0x3eff6062	0.49878222
77	0xbe94e371	-0.29079774
78	0x3e9c6260	0.30543804
79	0xbe76b058	-0.24090707
80	0xba56ea87	-0.00081983994
81	0xbe90c176	-0.282726
82	0x3ec94389	0.39309338
83	0xbeed933f	-0.46401402
84	0xbe9615c3	-0.29313478
85	0xbe773964	-0.24142987
86	0xbdc21ffa	-0.09478755
87	0xbecfdc15	-0.40597597
88	0xbe8cc520	-0.27494144
89	0xbd2c25f0	-0.042028368
90	0xbe6a2a81	-0.22867776
91	0x3d9c5321	0.07633043
92	0x3ed6ebdd	0.41976824
93	0xbeaf6059	-0.34253195
94	0xbf354dd9	-0.7082191
95	0xbda93a83	-0.08263113
96	0x3d8baa2a	0.068195656
97	0x3ef6cc28	0.48202634
98	0x3efb9646	0.49138087
99	0xbf355e41	-0.70846945
100	0xbf15236a	-0.5825716
101	0xbf2f1fd3	-0.68407935
102	0xbd9d9ff9	-0.07696528
103	0x3ecf98ef	0.40546367
104	0xbddf525f	-0.10904383
105	0x3ea88589	0.3291438
106	0xbf0a3893	-0.53992575
107	0x3ef4af57	0.47790024
108	0xbe7f0332	-0.24903563
109	0xbeb3fe10	-0.35154772
110	0xbeaa2268	-0.33229375
111	0x3efeb024	0.4974376
112	0xbf02940f	-0.5100717
113	0x3ddcb867	0.107773595
114	0xbe5a31a6	-0.21308002
115	0x3e5eb1da	0.21747532
116	0xbf1832e5	-0.5945266
117	0xbdb8fb18	-0.09032267
118	0x3f1d4367	0.6143097
119	0x3ec06239	0.37574938
120	0x3d6dbe99	0.058043096
121	0x3ea98c44	0.33114827
122	0x3d2e2d78	0.04252383
123	0xbe4e934e	-0.2017338
124	0xbe9b124d	-0.302874
125	0xbf1c3c3e	-0.6102942
126	0xbec54a61	-0.3853331
127	0xbe513bc1	-0.2043295
128	0xbf08db01	-0.53459173
129	0x3eb0bc49	0.3451865
130	0x3d7b9c31	0.061428253
131	0xbe476055	-0.19470342
132	0xbeaa12bf	-0.33217427
133	0xbf1e76b5	-0.6189988
134	0x3e8ac3e6	0.27102584
135	0xbee1b5f9	-0.44084147
136	0x3e1bc21e	0.15210769
137	0xbf22eee8	-0.6364579
138	0xbecb130d	-0.39662972
139	0xbe2d97bb	-0.16952412
140	0xbe5e99a8	-0.21738303
141	0xbf1c2c47	-0.6100506
142	0xbdd0eabe	-0.102010235
143	0x3d8c3577	0.06846135
144	0x3e9ed5d5	0.31022516
145	0xbbb3a858	-0.0054827146
146	0xbe7a31a2	-0.24432996
147	0xbf2e175a	-0.6800438
148	0x3f146c20	0.57977486
149	0xbef4e98a	-0.47834426
150	0xbf18225e	-0.5942744
151	0xbe420a19	-0.18949164
152	0xbf2dd7bf	-0.6790733
153	0xbec97225	-0.39344898
154	0x3f0e7b2e	0.5565671
155	0xbe5e78b9	-0.2172574
156	0x3e828c22	0.25497538
157	0x3ef95dfe	0.48704523
158	0x3dac311a	0.08407803
159	0xbea5edb2	-0.3240791
160	0xbea4cd9b	-0.32188115
161	0x3e8395ad	0.2570013
162	0xbf3cc8d2	-0.7374393
163	0xbf1e393c	-0.6180608

model.layers.2.weight f4 [164, 164]
0	0x3d3a5936	0.045495234
1	0x3d0de7c8	0.034644872
2	0x3c962bba	0.018331397
3	0x3d37a348	0.04483345
4	0x3cb51ecf	0.022109417
5	0xbcc2ab58	-0.023763344
6	0x3d508e7e	0.05091714
7	0xbdb6bc41	-0.08922625
8	0xbcb0fd52	-0.021605168
9	0xbd900f65	-0.07034186
10	0xba01f6a7	-0.00049577135
11	0x3bf62365	0.0075115436
12	0x3cddce63	0.027075952
13	0x3ce33e6e	0.02773973
14	0xbc5478f1	-0.012968288
15	0xbc994c3a	-0.018713105
16	0xbd97301a	-0.073822215
17	0x3c200060	0.009765714
18	0xbda4cbee	-0.08046709
19	0x3d5d3eab	0.054014843
20	0xbd817ddc	-0.06322834
21	0xbc19a868	-0.00937853
22	0xbd70147d	-0.05861329
23	0xbbe30b10	-0.006928809
24	0x3d0e17f5	0.034690816
25	0xbc84a111	-0.016190084
26	0xbcce46e0	-0.02518028
27	0xbd290024	-0.0412599
28	0xbcc91f20	-0.024550974
29	0x3d684783	0.056708824
30	0x3d074b5a	0.033030845
31	0x3d2a6507	0.041600253
32	0xbd0e89fc	-0.03479956
33	0xbc8400e1	-0.0161137
34	0xbd9b3087	-0.07577615
35	0xbd3b1d58	-0.04568228
36	0x3d670ffb	0.056411725
37	0xbdb06dfd	-0.086147286
38	0xbda3b109	-0.07992751
39	0x3d592de8	0.053022295
40	0xbd69056c	-0.056889936
41	0xbd985879	-0.0743875
42	0x3d236013	0.039886545
43	0xbd35be35	-0.04437085
44	0x3d6a4d11	0.057202403
45	0xbd2f88b1	-0.04285497
46	0x3d48cc7b	0.049023133
47	0x3d38f3d0	0.045154393
48	0xbd403bef	-0.046932157
49	0xbca833c8	-0.020532504
50	0xbd00490f	-0.031319674
51	0xbd7cfbbc	-0.06176351
52	0xbb2dfcfa	-0.002654849
53	0x3ba9f3c4	0.00518653
54	0x3d8a2fd7	0.06747406
55	0x3d7cd1ec	0.061723635
56	0xbbdd19e0	-0.0067474693
57	0x3cd50773	0.026004529
58	0x3d140b87	0.036143806
59	0xbbec3ea7	-0.007209617
60	0xbb47cbe3	-0.0030486516
61	0xbc8b9d48	-0.017042771
62	0xbd9bc894	-0.076066166
63	0xbd6ac62b	-0.057317894
64	0xbc7a3c26	-0.01527313
65	0x3bea25e9	0.0071456325
66	0x3cf26d61	0.029593172
67	0xbd2b3588	-0.0417991
68	0x3ce1bb6c	0.02755519
69	0xbcd808e3	-0.026371425
70	0xbcef1f42	-0.02918971
71	0xbd835b4f	-0.064139
72	0xbd59b307	-0.05314925
73	0xbdadb556	-0.08481853
74	0xbcd99cc5	-0.026564011
75	0x3d07aeaa	0.033125557
76	0xbdadf634	-0.08494225
77	0x3c575eae	0.013145132
78	0x3d4565ab	0.04819266
79	0xbd918559	-0.07105512
80	0xbd8ebf07	-0.06970029
81	0x3b1093e2	0.0022060801
82	0x3d6b3346	0.057421945
83	0x3d4a6abd	0.0494182
84	0xbd83c512	-0.064340726
85	0x3c9f9aff	0.019483088
86	0x3cd04ae0	0.025426328
87	0xbd8324d3	-0.06403508
88	0x3bb74ec3	0.005594106
89	0xbd8fcfdf	-0.0702207
90	0x3d122365	0.035678286
91	0x3d073a04	0.033014312
92	0xbd820dae	-0.063502654
93	0xbda17c11	-0.07884992
94	0x3caef6e4	0.021357961
95	0xbd85058e	-0.064952
96	0x3cffc7fb	0.031223288
97	0x3d837d08	0.06420332
98	0x3d4a6540	0.049412966
99	0xbd72aa60	-0.059244514
100	0xbbe726d7	-0.0070541906
101	0xbd01c229	-0.031679306
102	0x3c8b231e	0.016984519
103	0x3d89645e	0.06708597
104	0xbd95d82f	-0.073166244
105	0xbd5bf9b6	-0.05370494
106	0xbd27debb	-0.040983897
107	0xbda6a26d	-0.08136449
108	0x3d63f971	0.055657808
109	0xbd6113e7	-0.05495062
110	0x3bb945ac	0.0056540575
111	0xbc11b0e8	-0.008892275
112	0xbd83b314	-0.06430641
113	0x3c95d354	0.018289246
114	0xbcded002	-0.027198795
115	0xbb235a44	-0.0024925629
116	0xbd93a103	-0.07208445
117	0xbcf50bbc	-0.029912822
118	0x3d3a7fba	0.045531966
119	0x3cb60e82	0.022223715
120	0x3bc3bfb1	0.005973779
121	0xbd50dd74	-0.050992444
122	0xbb7ce4d1	-0.0038588534
123	0x3cd3551d	0.025797421
124	0x3d13ef80	0.036117077
125	0xbda123c1	-0.07868148
126	0xbd1e96ca	-0.038718022
127	0x3d83e6d6	0.06440513
128	0xbbd59207	-0.006517652
129	0xbda50746	-0.08058028
130	0x3cb43c43	0.022001391
131	0xbc120bd3	-0.008913952
132	0x3d1207c3	0.035651933
133	0xbd80e3fe	-0.06293486
134	0xbd707187	-0.058702018
135	0x3d64ee0d	0.055891085
136	0x3cf89f33	0.03034935
137	0xbd6766b2	-0.056494422
138	0x3c683fa1	0.014175327
139	0x3cfbb61f	0.03072649
140	0xbc793596	-0.01521053
141	0xbd97c19d	-0.07409976
142	0x3c68f458	0.014218412
143	0x3c808d04	0.015692241
144	0xbd099c53	-0.033596348
145	0x3d0e2093	0.034699034
146	0xbcd826da	-0.026385713
147	0x3a8f85a8	0.0010949867
148	0xbd89b93f	-0.06724786
149	0xbd68ac3f	-0.05680489
150	0xbd6cd9c7	-0.057824876
151	0x3d4ca3a3	0.049960744
152	0xbd18b269	-0.03727952
153	0xbda9c896	-0.08290212
154	0x3d100e63	0.03516997
155	0xbd96ed53	-0.07369485
156	0x3c2274fe	0.009915588
157	0x3d3734ef	0.044728216
158	0xbd0a243f	-0.033725973
159	0xbd9890b2	-0.074494734
160	0x3c93c352	0.018037472
161	0x3ae58577	0.0017511089
162	0x3d03f839	0.032219145
163	0xbda4a5b5	-0.080394186
164	0xbd933b6b	-0.071890675
165	0xbd1ca929	-0.03824726
166	0xbda37a1e	-0.079822764
167	0xbd6048e7	-0.054757025
168	0xbd8b28e4	-0.06794909
169	0x3d262f95	0.04057272
170	0xbae4a537	-0.0017444257
171	0x3cd6e4f6	0.026232224
172	0x3d31dd2f	0.043423828
173	0xbd2e7915	-0.04259594
174	0xbc80469e	-0.015658673
175	0xbd8436d2	-0.06455769
176	0xbc9e83a5	-0.019349882
177	0xbc4dfde7	-0.012572742
178	0x3bfc0fef	0.007692329
179	0x3d8b2f4c	0.067961305
180	0xbd2cd1ea	-0.042192377
181	0x3d0abd0f	0.033871707
182	0x3d683aa7	0.05669656
183	0xbcaa3c2c	-0.020780645
184	0xbcd0d57c	-0.025492422
185	0x3d230bde	0.03980624
186	0x3c6efe02	0.014586927
187	0x3d6e6061	0.058197383
188	0x3c476b5a	0.012171591
189	0xbd9c465f	-0.0763061
190	0xbd30832a	-0.043093838
191	0x3ba7642c	0.005108377
192	0xbcb1e027	-0.02171333
193	0xbd6ee082	-0.058319576
194	0xbd903fef	-0.07043444
195	0x3d0424a4	0.032261506
196	0x3d10f313	0.035388064
197	0xbcfe8f92	-0.031074319
198	0x3b254306	0.002521695
199	0xbd97c293	-0.07410159
200	0x3d28511f	0.041092988
201	0x3d1cfa6b	0.038324755
202	0x3d0f525d	0.034990657
203	0x3cf90ba3	0.030401057
204	0x3d2c6154	0.042085007
205	0xbc099ea8	-0.008399643
206	0x3b82733d	0.0039810226
207	0xbd9c48ef	-0.076310985
208	0x3d03ad97	0.03214797
209	0xbcac04ab	-0.02099832
210	0x3cb4cae2	0.022069398
211	0xbdb0666d	-0.08613286
212	0xbcac6841	-0.021045806
213	0xbd8fe9da	-0.070270255
214	0x3cff4eee	0.031165566
215	0x3cb432ff	0.021996973
216	0xbd54d332	-0.051959224
217	0xbca4e0bf	-0.020126699
218	0xbcfc15e3	-0.030772155
219	0xbd6da45a	-0.058018066
220	0x3c94ec6c	0.018179141
221	0x3cbed1c9	0.023293393
222	0xbbf463a8	-0.007458169
223	0xbc82a9f2	-0.015950177
224	0xbc6a2e0c	-0.014293205
225	0xbda90a9e	-0.08253978
226	0xbac7a38d	-0.0015231237
227	0x3d54ad00	0.0519228
228	0xbcf16dc1	-0.02947128
229	0x3d3c8fdc	0.046035632
230	0xbd0ca5c9	-0.034337793
231	0xbca66cbb	-0.020315519
232	0x3d8152e8	0.06314641
233	0x3be12048	0.0068703033
234	0x3d0f390a	0.034966506
235	0xbd7a6d45	-0.061139364
236	0xbd6ba3fe	-0.057529442
237	0x3ca17d91	0.019713195
238	0x3d3b2248	0.04568699
239	0x3a907ec5	0.0011024108
240	0x3cd48f8a	0.025947351
241	0x3b7ef6a2	0.0038904329
242	0xbd96dc2f	-0.073662154
243	0xbc1028a4	-0.008798752
244	0xbca79494	-0.02045659
245	0xbd5e0375	-0.054202516
246	0x3d4b7dc2	0.04968048
247	0x3d74be19	0.059751604
248	0xbd5007a4	-0.050788537
249	0x3d6d3dbc	0.057920203
250	0xbcb3a8ab	-0.021931013
251	0xbc823029	-0.015892105
252	0xbc958f21	-0.018256726
253	0x3d004246	0.031313203
254	0x3cf3f98b	0.029782077
255	0xbbcf60ee	-0.0063286936

model.layers.2.bias f4 [164]
0	0x3d0929d5	0.03348716
1	0x3d3a8bf5	0.04554363
2	0xbcf788b2	-0.030216549
3	0x3b34dee0	0.0027598664
4	0x3d2e6a9a	0.042582132
5	0x3d43b823	0.04778303
6	0xbda4325d	-0.080174185
7	0xbcb123ab	-0.021623453
8	0x3c79406c	0.015213113
9	0xbc8c8d85	-0.017157326
10	0x3d427515	0.04747494
11	0xbcb02038	-0.021499738
12	0x3d3a62d5	0.04550441
13	0x3cca5b7f	0.024701832
14	0xbb7e9f26	-0.0038852184
15	0xbc8ddf6a	-0.017318446
16	0xbd0aa0b6	-0.033844672
17	0xbc84a1d5	-0.016190449
18	0xbc9b9ebc	-0.018996589
19	0xbca40d80	-0.020025969
20	0xbc16fce7	-0.00921557
21	0xbcb2ea35	-0.021840194
22	0xbc99035b	-0.018678358
23	0xbd8f20cc	-0.069886774
24	0xbd85d033	-0.065338515
25	0xbd311cd9	-0.043240402
26	0xbd4664aa	-0.048435844
27	0x3d3d5e60	0.04623258
28	0xbd089909	-0.03334907
29	0xbcb531c6	-0.02211846
30	0xbd1ae4da	-0.037815906
31	0x3c34e981	0.011042
32	0xbc2b5b1c	-0.010458734
33	0x3ce79236	0.028267961
34	0x3cea19d0	0.028576761
35	0x3d991d1b	0.074762546
36	0xbccc3bad	-0.0249308
37	0xbd8eb59d	-0.06968234
38	0xbcd79fdb	-0.026321342
39	0x3c184c7f	0.009295582
40	0xbd8de19c	-0.06927797
41	0x3b997604	0.004683258
42	0x3d2ab2b3	0.041674327
43	0xbd93641e	-0.0719683
44	0xbd4dc9fd	-0.05024146
45	0x3d0cc1d5	0.03436454
46	0xbd48997c	-0.0489745
47	0xbda70f31	-0.081571944
48	0xba0d952b	-0.0005400951
49	0xbd966856	-0.07344119
50	0x3d27cab8	0.040964812
51	0x3cb0c0da	0.021576334
52	0x3c94561f	0.018107472
53	0x3d3332b4	0.043749526
54	0x3c90a09d	0.017654711
55	0x3dbd3137	0.092379026
56	0xbd09854b	-0.033574384
57	0x3d2cac3c	0.042156443
58	0xbdabc0e1	-0.08386398
59	0xbd995b6f	-0.07488143
60	0xbd71960b	-0.058980983
61	0xbcc1e9a9	-0.023670988
62	0x3d890b34	0.0669159
63	0xbd207453	-0.039173435
64	0xbdb85dfe	-0.090023026
65	0xbda19067	-0.07888871
66	0xbc33a8fe	-0.010965584
67	0x3c8d2853	0.017231142
68	0xbd25eb3e	-0.040507548
69	0xbd64f176	-0.055894338
70	0x3c9c5da3	0.019087618
71	0xbd6c1319	-0.0576354
72	0xbc238b45	-0.009981935
73	0x3c54c90d	0.012987387
74	0xbba078f8	-0.004897233
75	0xbdb2ee76	-0.08736889
76	0xbb4bf8ff	-0.0031123755
77	0xbd3d22af	-0.046175655
78	0x3d653fc8	0.05596903
79	0xbd91f108	-0.07126051
80	0xbc806dd6	-0.015677374
81	0xbd953d8b	-0.07287129
82	0xbd08915d	-0.033341754
83	0x3d2798b5	0.040917117
84	0x3d46d417	0.04854211
85	0x3cb20881	0.02173257
86	0xbd81ed2c	-0.06344065
87	0xbd8438b0	-0.06456125
88	0x3d4624a0	0.048374772
89	0xbc1c7ba5	-0.0095509635
90	0x3c61787a	0.013761634
91	0x3ca1d8e4	0.019756742
92	0xbd655779	-0.055991624
93	0xbc1be9cd	-0.009516192
94	0xbb5aaf4b	-0.0033368643
95	0xbc437e9a	-0.01193204
96	0xbd419783	-0.047263633
97	0x3b817616	0.0039508445
98	0x3d70586d	0.05867808
99	0xbd5e8b98	-0.054332346
100	0x3d1c24b2	0.038120933
101	0x3c0702ed	0.008240444
102	0xbc8a5c56	-0.016889732
103	0xbcc23d8c	-0.023710988
104	0x3ca81095	0.02051572
105	0xbd349338	-0.04408571
106	0xbda35252	-0.07974686
107	0xbd216931	-0.03940696
108	0xbcaec4c9	-0.021334069
109	0x3c0c0209	0.008545407
110	0xbd419d95	-0.047269423
111	0x3cfc0e56	0.030768555
112	0xbd9f9a58	-0.077931106
113	0x3d1aadcd	0.037763406
114	0x3d2e8575	0.042607743
115	0xbd7d7561	-0.06187952
116	0x3c1dd4ef	0.009633287
117	0xbd2470a8	-0.0401465
118	0xbd9548b9	-0.07289261
119	0xbd8993fa	-0.067176774
120	0x3d4e000a	0.050293006
121	0x3d630fee	0.055435114
122	0xbd4a47f6	-0.049385034
123	0x3d054f3c	0.032546267
124	0x3d88355b	0.06650802
125	0x3c037670	0.008023843
126	0xbd1e9ff1	-0.03872675
127	0xbcdae8a3	-0.026722258
128	0xbd9bccef	-0.07607447
129	0x3d1dfc24	0.03857054
130	0xbdb9c92c	-0.090715736
131	0xbd9677ee	-0.073470935
132	0x3d79f652	0.061025925
133	0xbd356fe2	-0.044296153
134	0xbd3276fd	-0.043570507
135	0x3d74c6c9	0.05975989
136	0xbd199d1c	-0.037503347
137	0xbae1a504	-0.0017215316
138	0xbd8ce221	-0.06879068
139	0x3cc9ce6a	0.024634559
140	0xbbeebff6	-0.007286067
141	0xbb0d722f	-0.0021582951
142	0xbdad05bc	-0.08448359
143	0xbc8fbdd3	-0.01754657
144	0xbd8564cf	-0.06513368
145	0x3c835fe1	0.01603693
146	0xbd3233a2	-0.043506272
147	0xbdb6519c	-0.089022845
148	0xbd835295	-0.06412236
149	0x3ba161e0	0.0049249977
150	0x38a0b9ba	7.663989e-05
151	0x3b81c4db	0.0039602346
152	0x3cd357b0	0.025798649
153	0x3d649eb2	0.055815406
154	0xbd84ed54	-0.06490579
155	0x3d04db5a	0.032435752
156	0xbd5d7747	-0.05406883
157	0xbc89c540	-0.016817689
158	0xbd548035	-0.05188008
159	0x3d090d53	0.033459973
160	0xbd89132b	-0.06693109
161	0xbc88705c	-0.01665514
162	0x3d27bcfc	0.040951714
163	0x3d802766	0.06257515

model.layers.4.weight f4 [2, 164]
0	0xbb0c541b	-0.0021412435
1	0xbb4be78d	-0.0031113357
2	0xbcddea82	-0.027089361
3	0x3c8cf08d	0.017204547
4	0xbd0b85fe	-0.03406333
5	0xba48851d	-0.000764923
6	0xbc9971a5	-0.018730948
7	0xbd53970c	-0.05165772
8	0x3d103987	0.035211112
9	0x3bc4fec0	0.006011814
10	0x3d298206	0.041383766
11	0x3d8f0640	0.06983614
12	0xbca8bc7e	-0.020597693
13	0x3cbe027c	0.023194544
14	0xbd3a2df3	-0.045453977
15	0x3ca66695	0.020312587
16	0xbd06e3ea	-0.0329322
17	0xbc30e03a	-0.010795647
18	0xbc3e2867	-0.011606312
19	0x3d1e9976	0.03872057
20	0xbc58c8a2	-0.013231428
21	0x3d431ef1	0.04763693
22	0x3c8c04e1	0.01709217
23	0x3ca42190	0.020035535
24	0x3c8800db	0.01660197
25	0x3d8b4223	0.06799724
26	0x3b0dee4e	0.0021656933
27	0xbca306bc	-0.019900672
28	0x3c808d71	0.015692445
29	0xbb803a59	-0.0039132056
30	0x3c51207c	0.012764093
31	0x3b29466c	0.0025829328
32	0x3d65e0e4	0.056122676
33	0xbcc89f05	-0.024489889
34	0x3c8cc20b	0.01718237
35	0x3c27978f	0.0102290055
36	0x3b595c45	0.003316657
37	0xbbaa97c5	-0.0052060806
38	0xbb34085e	-0.0027470808
39	0x3d11df89	0.03561357
40	0x3b57f7f1	0.003295418
41	0x3c1ecf8a	0.009693036
42	0xbc83da64	-0.016095348
43	0xbd96152c	-0.07328257
44	0xbb612187	-0.003435226
45	0x3d9bf3ff	0.07614898
46	0x3cab59f2	0.020916913
47	0x3d082fea	0.03324882
48	0x3d981d58	0.07427472
49	0x3d328d08	0.04359153
50	0x3d5ba979	0.05362842
51	0x3d377239	0.044786666
52	0xbd67b1f7	-0.056566205
53	0x3bcc5511	0.0062357266
54	0xbd66f84d	-0.05638914
55	0x3b9a3068	0.0047054775
56	0xbc071f3b	-0.008247192
57	0xb8ffab7d	-0.0001219129
58	0xbc81682d	-0.015796745
59	0x3ce9b4cf	0.028528599
60	0xbd95da05	-0.073169746
61	0x3d18b5a7	0.037282612
62	0x3b9991c6	0.004686567
63	0x3c13c003	0.009017947
64	0xbcf3dd69	-0.029768663
65	0xbbcea75a	-0.006306571
66	0xbc83aaa2	-0.016072575
67	0x3d5662ee	0.05234044
68	0x3b33230c	0.0027334122
69	0x3c8bdaff	0.017072199
70	0xbd46cc35	-0.04853459
71	0xbbf0135e	-0.0073265275
72	0x3bf1ea54	0.0073826704
73	0x3d5a8a93	0.05335481
74	0x3c1efd7b	0.009703989
75	0xbd2e0a6d	-0.04249041
76	0x3b7397b6	0.0037169284
77	0xbd05eb51	-0.03269512
78	0xbd300dba	-0.04298184
79	0x3c4c3b26	0.012465274
80	0xbcdf4935	-0.027256588
81	0xbd56fd41	-0.052487615
82	0x394f4beb	0.0001976934
83	0x3d9379b6	0.07200949
84	0x3d2b8f11	0.041884486
85	0xbd67ab75	-0.05656
86	0xbc9850db	-0.018593242
87	0xbd0f739b	-0.03502236
88	0xbcc670b5	-0.024223665
89	0x3c5ff765	0.013669823
90	0xbcc05a99	-0.0234807
91	0x3b627946	0.0034557148
92	0x3c1ad1dd	0.009449449
93	0xbcb2335b	-0.021753004
94	0x3cd641b6	0.02615438
95	0x3bfba6d9	0.007679802
96	0x3c21cc74	0.009875406
97	0xbb999a3a	-0.0046875747
98	0xbb1fe94c	-0.002440053
99	0xbbde63da	-0.0067868056
100	0x3bc41d37	0.005984928
101	0xbd7ce24b	-0.061739247
102	0x3cc26be2	0.023733083
103	0x3c7bad2c	0.015361112
104	0xbd164b09	-0.036692653
105	0xbc1247db	-0.0089282645
106	0x3cb0e8cc	0.021595381
107	0xbcb91fc9	-0.022598164
108	0xbc477edb	-0.012176241
109	0x3c01e7bb	0.007928784
110	0x3d049ab1	0.032374088
111	0xbc23b1c5	-0.009991114
112	0x3b37777d	0.0027994805
113	0xbd15d290	-0.03657776
114	0xbd22f106	-0.03978064
115	0x3d3df444	0.046375528
116	0x3d52c154	0.051453903
117	0x3bbc251a	0.0057417275
118	0xbd578623	-0.052618157
119	0x3d06a6ed	0.032874037
120	0x3d58fe23	0.05297674
121	0xbcc386e7	-0.023868037
122	0xbd0458d7	-0.032311287
123	0xbcb98fac	-0.022651516
124	0xbc2b3ddb	-0.010451759
125	0x3c966156	0.01835696
126	0x3b802f20	0.0039118677
127	0x3d60a0ab	0.054840725
128	0x3c2192b2	0.009861635
129	0xbc02dd9e	-0.007987408
130	0xbd0c30fb	-0.0342264
131	0xbb8d0a5c	-0.0043042134
132	0xbd4a27aa	-0.049354233
133	0xba7d0562	-0.0009651986
134	0xbaac2c7a	-0.0013135814
135	0xbce1a22a	-0.027543146
136	0x3d96e024	0.0736697
137	0xbcdd3fb1	-0.02700791
138	0xbd2bbc95	-0.041927893
139	0xbd783f46	-0.060607217
140	0x3d08f02b	0.033432167
141	0xbd155bb3	-0.036464404
142	0xbcc0d41a	-0.023538638
143	0x3d31fd33	0.04345436
144	0x3d559627	0.05214515
145	0xbd122995	-0.035684187
146	0x3d850047	0.064941935
147	0x3bfb48f0	0.007668607
148	0xbd478395	-0.04870947
149	0xbc69c2af	-0.014267608
150	0x3d8fd359	0.07022733
151	0xbd36bba5	-0.044612546
152	0x3cbf2d7b	0.023337116
153	0x3d549c01	0.05190659
154	0xbbf3cc69	-0.007440139
155	0x3d2f97cb	0.04286937
156	0xbb45e372	-0.0030195382
157	0x3d0a4be9	0.0337638
158	0xbb5abbdc	-0.0033376133
159	0xbccd3023	-0.025047367
160	0xbc858bce	-0.016302016
161	0xbd8a8138	-0.06762928
162	0xbcfc009e	-0.030762013
163	0xbc22de5c	-0.00994071
164	0x3b979f65	0.0046271556
165	0x3c6b0cc9	0.01434631
166	0xbcd093ca	-0.025461096
167	0xbd5c64da	-0.053807117
168	0xbd7c956e	-0.061665945
169	0xbceb333d	-0.028710956
170	0xbcb2642e	-0.021776285
171	0xbd8d20c3	-0.068910144
172	0xbd1d3351	-0.038379017
173	0xbbf1bd95	-0.0073773363
174	0x3cf440b5	0.029816011
175	0xbd093c65	-0.033504862
176	0xbd73994d	-0.05947237
177	0x3d6cb3b9	0.057788584
178	0x3d5c300b	0.053756755
179	0x3cea14fc	0.02857446
180	0xbd002f59	-0.031295154
181	0x3cc1d381	0.023660423
182	0xbd2ecf08	-0.04267791
183	0xbd04131a	-0.03224478
184	0xbc0fd404	-0.008778576
185	0x3d866087	0.0656138
186	0x3d454364	0.04815997
187	0x3ce7a3c5	0.028276334
188	0x3d76cf84	0.060256496
189	0x3d08744f	0.033314046
190	0xbd4f2e2b	-0.05058114
191	0xbcb827a4	-0.02247984
192	0x3a514d37	0.0007984223
193	0x3aab598e	0.0013072954
194	0x3cb9b8bc	0.022671096
195	0x3c7d0218	0.015442394
196	0xbc193f1a	-0.0093534235
197	0xbd4b53ae	-0.04964035
198	0x3c90797f	0.017636059
199	0xbcb9a56c	-0.022661887
200	0x3bb06a36	0.005383755
201	0x3c54cc06	0.012988096
202	0xbc58d1d3	-0.01323362
203	0xbcc869c4	-0.024464495
204	0xbbdea3bd	-0.0067944215
205	0xbd3e1805	-0.046409626
206	0x3c61dc5e	0.01378545
207	0x3d43ff2c	0.047850773
208	0xbd194256	-0.03741678
209	0xbd3b809d	-0.045776952
210	0xbb95f3aa	-0.004576166
211	0x3d2470d0	0.04014665
212	0xbd6dc1ca	-0.05804614
213	0xbd816135	-0.06317369
214	0x3ce0160b	0.02735426
215	0x3d59f481	0.053211693
216	0xbd3db19e	-0.046311967
217	0x3c16c625	0.009202515
218	0xbd0a32ce	-0.033739857
219	0xbba04236	-0.0048907055
220	0xbd139ff8	-0.03604123
221	0x3cc1552a	0.02360018
222	0xbce36f23	-0.027762955
223	0xbd47bf65	-0.048766512
224	0xbcd77479	-0.026300656
225	0xbcc8b530	-0.02450046
226	0xbcc07084	-0.023491152
227	0x3cbabe1f	0.022795735
228	0xba8c1326	-0.0010686859
229	0x3d29a7ca	0.04141978
230	0xbc6c2a1a	-0.014414335
231	0xbd6a141f	-0.057148095
232	0x3c255d16	0.010092994
233	0xbcef9e8b	-0.029250404
234	0x3c7d6d85	0.015468006
235	0xbcf7a754	-0.030231155
236	0x3caf8697	0.021426482
237	0x3d3dc94b	0.046334546
238	0x3c9870b6	0.018608432
239	0x3d24787d	0.04015397
240	0xbd1c4a71	-0.03815693
241	0xbcbaf0b4	-0.022819854
242	0x3d64e55d	0.0558828
243	0xbc520a21	-0.012819798
244	0x3cf3c00d	0.029754663
245	0xbd63bd4d	-0.055600453
246	0xba2e8fb8	-0.0006658989
247	0x3ca03d3c	0.019560449
248	0xbc3c7093	-0.011501449
249	0xbc12742b	-0.008938829
250	0xbd5b5201	-0.053545002
251	0x3c748a3c	0.014925536
252	0xbc2f530f	-0.010700955
253	0xbcb4b604	-0.022059448
254	0xbc255f2d	-0.010093492
255	0xbbc8c40b	-0.006126886

model.layers.4.bias f4 [2]
0	0xba12a517	-0.00055940583
1	0x3c354d75	0.0110658305

exp_avg f4 [164, 2]
0	0x39c81494	0.00038162305
1	0xba87e714	-0.0010368549
2	0xb7a96367	-2.0192658e-05
3	0xb95e4a0c	-0.00021199154
4	0x3890bc7c	6.901563e-05
5	0xb7ec4a50	-2.8167997e-05
6	0x399c5c02	0.0002982319
7	0x3aa03002	0.0012221339
8	0xb97ee167	-0.00024307297
9	0xb8aad2d4	-8.1455015e-05
10	0x39db739f	0.0004185708
11	0xba88b0eb	-0.0010428702
12	0xba007441	-0.00049001357
13	0xb884d1e1	-6.3333435e-05
14	0xb943c796	-0.00018671
15	0x397e39bc	0.00024244835
16	0x398452e7	0.0002523877
17	0x373716e0	1.0912976e-05
18	0xba61d772	-0.00086151727
19	0xb9905cb6	-0.00027534895
20	0x398cab88	0.00026830682
21	0xba4ae4b1	-0.0007739766
22	0xb903b61f	-0.00012560979
23	0x3a6cb990	0.00090303365
24	0x38a3563c	7.788508e-05
25	0xba496d11	-0.00076837937
26	0xb8a0bcb4	-7.664543e-05
27	0xbac8d261	-0.0015321487
28	0xb7a84acc	-2.006199e-05
29	0x37ab2b7e	2.0405041e-05
30	0x398644ca	0.00025609724
31	0xba2842fa	-0.00064186717
32	0x3916c772	0.00014379414
33	0xb955e9b4	-0.00020400324
34	0xba692c04	-0.00088948035
35	0x3ade3317	0.0016952482
36	0x39d8fec5	0.0004138855
37	0x39af2f75	0.0003341396
38	0x397a6f04	0.00023883214
39	0x39d5e3de	0.000407963
40	0xba64c208	-0.00087264227
41	0x3b0b0c80	0.0021217167
42	0x3a3e4b2b	0.00072591257
43	0xb9ed763a	-0.00045292248
44	0xba079b81	-0.0005173013
45	0x3ae023ca	0.001710051
46	0xb9afbbb3	-0.00033518448
47	0x38f43a70	0.000116457115
48	0xb5be2e80	-1.4169636e-06
49	0x3aa14ea7	0.0012306765
50	0xba5138c1	-0.0007981174
51	0x3adc953c	0.0016829143
52	0x380683e0	3.2070908e-05
53	0x3a5debba	0.0008465607
54	0x39e80bae	0.0004425919
55	0x3936ccbe	0.00017433145
56	0x383bc010	4.4763146e-05
57	0xb8c1dc60	-9.244005e-05
58	0xba0ae611	-0.0005298565
59	0x3a5b8e99	0.0008375436
60	0xb9dd624f	-0.0004222565
61	0x390a922d	0.0001321516
62	0x38cdfd72	9.8223696e-05
63	0xb94a3ee9	-0.00019287657
64	0xba04febc	-0.0005073359
65	0x3a5869e2	0.0008255524
66	0x393b748c	0.00017877127
67	0x39f75666	0.00047175883
68	0xb9d98f29	-0.00041496128
69	0xba038802	-0.000501752
70	0x37547ad0	1.2664779e-05
71	0x383ec002	4.547835e-05
72	0x3a395d65	0.0007071107
73	0xba36b360	-0.0006969478
74	0xb757d42d	-1.28644e-05
75	0x39df0554	0.00042537844
76	0x3a9469bb	0.0011323014
77	0xbaa09bb7	-0.0012253438
78	0x39f4f180	0.00046719238
79	0x38284380	4.0117186e-05
80	0xb92e860d	-0.00016643871
81	0xb704e780	-7.921713e-06
82	0xb9885502	-0.00026003277
83	0xba029815	-0.00049817684
84	0xb6a75098	-4.98637e-06
85	0xb9ca6c74	-0.00038609246
86	0x38527d79	5.0184757e-05
87	0x398fda5b	0.00027437773
88	0xb9ed1cf9	-0.0004522575
89	0x39021862	0.0001240685
90	0x3756f480	1.2812321e-05
91	0x3ad942be	0.0016575677
92	0xba46d72d	-0.0007585164
93	0x39f3dc3d	0.00046512662
94	0xba27502f	-0.0006382493
95	0xb9d1d260	-0.00040020328
96	0x39333794	0.00017091475
97	0x393233fc	0.00016994769
98	0x38d4d990	0.00010149472
99	0xba095eac	-0.00052402425
100	0xb9844a04	-0.00025232148
101	0xb9974374	-0.0002885122
102	0x3a23c4e0	0.0006247293
103	0x3a80906d	0.0009808667
104	0xb99ebc08	-0.00030276203
105	0x388a012a	6.5805696e-05
106	0x39c836eb	0.0003818789
107	0xba9f1244	-0.0012136181
108	0xba44229c	-0.0007481964
109	0x39befe13	0.00036428924
110	0x39308698	0.00016834808
111	0xb99556c8	-0.00028484152
112	0x38bd5800	9.0286136e-05
113	0xb9302788	-0.00016799395
114	0xb904d796	-0.00012668813
115	0xb936a0c0	-0.00017416757
116	0xb9ac0210	-0.00032807933
117	0x38b99a18	8.8501896e-05
118	0xb6fbf1a8	-7.5085154e-06
119	0x38bcd469	9.004103e-05
120	0xb88861ac	-6.503178e-05
121	0xb97957fc	-0.00023779267
122	0x399a642d	0.00029447806
123	0x39c62859	0.00037795564
124	0x383264c0	4.2532338e-05
125	0x39794e94	0.00023775763
126	0x38815908	6.167783e-05
127	0xb91a850f	-0.00014736153
128	0xba0f0a89	-0.0005456587
129	0x39e90fef	0.00044453095
130	0xb9bb1a58	-0.00035687047
131	0xba9dd406	-0.0012041337
132	0x39b36be6	0.0003422193
133	0x38b18636	8.4650164e-05
134	0xb86b9f38	-5.617665e-05
135	0xba90af0f	-0.00110385
136	0xbadc7e5a	-0.0016822324
137	0x3b1ee612	0.002424602
138	0xb85d4b5e	-5.2760697e-05
139	0xb940cfb6	-0.00018387925
140	0x3a39a244	0.00070813694
141	0x39539e72	0.00020181554
142	0x3a2462e2	0.0006270838
143	0xba1ebfe7	-0.00060558174
144	0xba3ee82e	-0.0007282522
145	0x37ce8ce0	2.4622714e-05
146	0x38ef092f	0.00011398119
147	0xb9832ef2	-0.00025021244
148	0x3a3c84f4	0.00071914424
149	0xb9de0e98	-0.00042354013
150	0x390f4d54	0.0001366635
151	0x3999741b	0.0002926894
152	0xba248e14	-0.0006277275
153	0x3a19a787	0.00058614503
154	0x392201d8	0.00015450211
155	0xba509a3b	-0.00079575524
156	0x3a33f4db	0.00068647944
157	0xb905d45c	-0.00012762978
158	0xba053cb2	-0.00050825917
159	0x3a682b7d	0.0008856578
160	0xb8c8067f	-9.537953e-05
161	0xba0952b4	-0.0005238459
162	0x37b0ad40	2.106151e-05
163	0x394c0d10	0.00019459822
164	0x3a9ffcd6	0.0012206088
165	0xba4ce86e	-0.0007816617
166	0x3956c956	0.00020483634
167	0xb5cc3480	-1.5214464e-06
168	0xb866fc24	-5.5071097e-05
169	0xb9a02f30	-0.00030552736
170	0xb965bf9c	-0.00021910522
171	0x39e624ca	0.00043896429
172	0xb92109d2	-0.00015357815
173	0xb9ad80fb	-0.0003309323
174	0x3a844b75	0.0010093289
175	0xba536290	-0.0008063698
176	0x39d109f4	0.00039871002
177	0x3a1a1312	0.00058774755
178	0xba4391c4	-0.00074603804
179	0xba658e11	-0.0008756826
180	0xb7937cc8	-1.7581871e-05
181	0xba23622c	-0.00062325853
182	0xb94e5942	-0.00019678942
183	0x39a16f7e	0.0003079138
184	0x37af2c68	2.0882304e-05
185	0xba6b2deb	-0.0008971381
186	0xba74a628	-0.00093326205
187	0x3ad54368	0.0016270699
188	0xba1e2ff0	-0.0006034365
189	0x3a600805	0.0008546117
190	0x3aaf9472	0.001339568
191	0x39f9b836	0.0004763023
192	0xb96be687	-0.00022497225
193	0x3a74d14a	0.0009339048
194	0x3a30b309	0.00067405455
195	0xba84bfdf	-0.0010127983
196	0xba4b8b28	-0.00077645713
197	0xbabe0bd4	-0.0014499375
198	0xba0b3b3c	-0.0005311256
199	0x3a52662d	0.00080260896
200	0xbac60075	-0.0015106337
201	0x3a876f76	0.00103329
202	0xba821425	-0.0009924216
203	0xba11179f	-0.0005534831
204	0xbaa73614	-0.0012757205
205	0x3abf6ba0	0.0014604218
206	0xb90a9070	-0.00013214513
207	0x3892a270	6.992079e-05
208	0xb9417d18	-0.00018452515
209	0xba06e144	-0.00051452615
210	0xb850759c	-4.9700597e-05
211	0xba0e05ff	-0.00054177636
212	0xb95a7c30	-0.00020836364
213	0x399d68c6	0.00030023436
214	0x39552042	0.0002032528
215	0x3a9629f9	0.0011456601
216	0xb8bd38f8	-9.0228335e-05
217	0xb9b9c4d8	-0.0003543261
218	0x3a6d8556	0.0009060701
219	0x39b33608	0.00034181797
220	0xbab1bd12	-0.0013560376
221	0x3aacbd2a	0.0013178934
222	0xba39008a	-0.000705727
223	0x3a450918	0.00075163087
224	0x3a76062c	0.0009385075
225	0xba92ac85	-0.0011190331
226	0x3a06ff25	0.0005149714
227	0xbab4526b	-0.0013757473
228	0x39cd2480	0.00039127842
229	0x3a53644b	0.0008063956
230	0xbafb5648	-0.0019175494
231	0x3a043fbc	0.00050448976
232	0x395d0417	0.00021077726
233	0x3a0cee62	0.0005376098
234	0xb9be1b20	-0.00036259834
235	0xb8bc677c	-8.983814e-05
236	0x3a740528	0.00093086297
237	0xba464ae0	-0.0007564258
238	0xba82598d	-0.0009944901
239	0x3a86e531	0.0010291693
240	0x3a84ab8e	0.0010121928
241	0xbaaad903	-0.0013034645
242	0xb63ce580	-2.814777e-06
243	0x39490cb6	0.00019173589
244	0xba9d0338	-0.0011979109
245	0x3b0eeba4	0.0021807933
246	0x378c0880	1.6693259e-05
247	0xb98a3574	-0.00026361237
248	0x3979489f	0.00023773544
249	0xb987e518	-0.00025919895
250	0xb9f637fc	-0.00046962488
251	0x3ade23b6	0.0016947899
252	0xba76d8f0	-0.00094164815
253	0x390898a9	0.00013026841
254	0x3a472cae	0.00075979054
255	0xb9e3bfec	-0.00043439807

exp_avg_sq f4 [164, 2]
0	0x3b508f74	0.0031823786
1	0x3a9452b1	0.0011316148
2	0x39807e5c	0.00024508208
3	0x39dca45f	0.00042084136
4	0x39628814	0.00021603733
5	0x39a86386	0.00032117608
6	0x3a2086b1	0.0006123586
7	0x3a50fbc4	0.00079720863
8	0x39bdb0c5	0.00036180593
9	0x394d213c	0.00019562704
10	0x3a1a7669	0.0005892278
11	0x3a1a79cc	0.0005892783
12	0x39abdf80	0.00032782182
13	0x3a57cba3	0.00082319434
14	0x3972267d	0.00023093256
15	0x397bb7b6	0.00024005663
16	0x394d1a91	0.0001956022
17	0x3a0b271c	0.0005308257
18	0x3982fde8	0.00024984707
19	0x395a4109	0.00020814328
20	0x3a09be05	0.00052544504
21	0x39febae1	0.0004858589
22	0x394b323a	0.000193783
23	0x39a9c038	0.00032377406
24	0x3a1dc73b	0.00060187624
25	0x394a0e88	0.00019269635
26	0x39878f44	0.00025855948
27	0x39daea9f	0.00041755007
28	0x39478623	0.00019028089
29	0x399da45f	0.0003006784
30	0x3a163f86	0.00057315116
31	0x3a639b2d	0.0008682486
32	0x38ebd274	0.00011244873
33	0x391d14f9	0.000149805
34	0x39b0e1af	0.00033737483
35	0x39d878ca	0.00041288725
36	0x3b0d719f	0.0021582616
37	0x3a4ad883	0.0007737951
38	0x38f99d2d	0.000119025215
39	0x392c8757	0.00016453616
40	0x3a8b7435	0.0010639491
41	0x3a78eaf7	0.00094954617
42	0x3a5f62c4	0.0008521492
43	0x39ab3e10	0.00032661902
44	0x39c4a168	0.0003750429
45	0x3a8d4c1d	0.001078013
46	0x39aef8de	0.00033373287
47	0x3a0b6d63	0.0005318729
48	0x3941a8aa	0.00018468747
49	0x39fcf1ba	0.00048245286
50	0x399a2333	0.00029399394
51	0x3a0284a3	0.0004978871
52	0x3b28448d	0.0025675625
53	0x3ab45818	0.0013759164
54	0x39d6647c	0.00040892127
55	0x3a49049b	0.0007668228
56	0x3a807c47	0.0009802663
57	0x39a95b7d	0.00032302356
58	0x39f44a6d	0.00046594758
59	0x39dbfc1f	0.0004195878
60	0x39f48bd4	0.00046643487
61	0x3ab2f965	0.0013654648
62	0x399a665b	0.0002944943
63	0x3a049950	0.0005058246
64	0x3a016721	0.0004936327
65	0x3977cc5d	0.00023631887
66	0x393a0f30	0.00017744
67	0x394e04b7	0.00019647447
68	0x3a302b72	0.0006720341
69	0x3a1c0b7b	0.00059526385
70	0x3a0c8d3a	0.00053616206
71	0x3a30f95f	0.00067510264
72	0x39234f3e	0.00015574411
73	0x3928e4cc	0.00016106962
74	0x399be81a	0.00029736833
75	0x39ed5fee	0.00045275636
76	0x3b0324c7	0.0020010935
77	0x3a80b0f0	0.0009818356
78	0x3a663579	0.0008781772
79	0x3a8f05ab	0.0010911723
80	0x39d95bf5	0.0004145798
81	0x399827f0	0.00029021455
82	0x39b33ab2	0.00034185272
83	0x39cbc5f1	0.00038866655
84	0x390944d7	0.00013090983
85	0x3911186c	0.00013837375
86	0x3937765f	0.00017496337
87	0x39b36610	0.00034217583
88	0x395a9990	0.00020847307
89	0x39fb3e91	0.00047921066
90	0x39834f64	0.00025045418
91	0x3ab10dac	0.0013508103
92	0x39fa66a8	0.000477602
93	0x39a10d6b	0.0003071831
94	0x3a15aa69	0.0005709292
95	0x3a02f22f	0.00049951946
96	0x395289df	0.00020078522
97	0x391e49fe	0.00015095618
98	0x39114a63	0.00013855989
99	0x3933d855	0.0001715136
100	0x38bf333b	9.117132e-05
101	0x38a5fb36	7.914605e-05
102	0x393abe84	0.00017809315
103	0x39eaeb7f	0.00044807416
104	0x393245ae	0.0001700136
105	0x398865e2	0.0002601585
106	0x3a30e821	0.0006748457
107	0x39e1bef3	0.00043057612
108	0x3a811b88	0.0009850124
109	0x3a9b3756	0.0011842053
110	0x3ae036d7	0.0017106187
111	0x3a87ab96	0.0010350819
112	0x395a8dd4	0.00020842935
113	0x39a9e242	0.00032402767
114	0x398075ab	0.00024501732
115	0x39371b52	0.00017462418
116	0x3afacd1f	0.0019134617
117	0x3ab04bb8	0.00134503
118	0x39344d82	0.00017195012
119	0x3983bd00	0.00025127083
120	0x39d5b3b4	0.00040760415
121	0x3ab2797b	0.0013616526
122	0x3a43dd03	0.0007471593
123	0x39a817e7	0.00032061266
124	0x3a82bcd7	0.0009974492
125	0x3aadae72	0.0013250841
126	0x399357b9	0.00028103383
127	0x39dcda06	0.0004212411
128	0x39fc0af0	0.00048073335
129	0x3a3758a6	0.00069941056
130	0x38882b7e	6.4930864e-05
131	0x394483e8	0.00018741156
132	0x398f0a97	0.00027282975
133	0x399b53a7	0.0002962623
134	0x3a13b6c4	0.0005634839
135	0x3aae29f8	0.0013287654
136	0x3a84fb10	0.0010145623
137	0x3a71ea38	0.0009228322
138	0x3984164c	0.00025193614
139	0x3a0be13d	0.00053359923
140	0x39c62d12	0.00037799083
141	0x3a45cb86	0.0007545281
142	0x3a957437	0.0011402433
143	0x39de01da	0.0004234452
144	0x3ab3069f	0.001365859
145	0x3b26ee6f	0.0025471707
146	0x39dc6652	0.00042037904
147	0x3a179346	0.00057821383
148	0x398fdfe0	0.00027441885
149	0x3a257308	0.00063113915
150	0x392ce81a	0.00016489663
151	0x3a017f81	0.0004939959
152	0x3a39d0f1	0.00070883246
153	0x3aaa80e6	0.0013008385
154	0x39957dad	0.0002851313
155	0x395e6b4e	0.00021211544
156	0x3a4d4118	0.0007829829
157	0x3a478ad4	0.00076119346
158	0x3ae75195	0.0017648215
159	0x3a82f10e	0.0009990053
160	0x39e6f0fc	0.00044048566
161	0x398ad64c	0.00026481075
162	0x397c546d	0.00024064044
163	0x39cc4e1e	0.00038968114
164	0x3a866bb9	0.0010255493
165	0x3a910a31	0.0011065659
166	0x38d1d536	0.0001000561
167	0x398b9b76	0.00026627973
168	0x39237328	0.0001558779
169	0x39094ee2	0.00013094724
170	0x399e6d2c	0.00030217448
171	0x39eadfe8	0.0004479878
172	0x39226d92	0.00015490342
173	0x39816d47	0.00024686215
174	0x3a1703a4	0.00057607354
175	0x3a6bba65	0.00089923135
176	0x394a6097	0.00019300204
177	0x39368b15	0.00017408685
178	0x39b38841	0.00034243058
179	0x3a1b4096	0.0005922405
180	0x3981c435	0.00024750983
181	0x397e48f4	0.00024250505
182	0x39d52f6b	0.00040661855
183	0x3a05f2dd	0.0005109737
184	0x398a49bb	0.00026376345
185	0x39cf0409	0.00039485123
186	0x3a0251d3	0.0004971299
187	0x3a685f07	0.0008864258
188	0x38f7fa41	0.00011824491
189	0x3952806f	0.00020075006
190	0x39ac7ad9	0.00032897925
191	0x3a69a98a	0.0008913508
192	0x39373950	0.0001747359
193	0x398ba0d9	0.00026631987
194	0x3add4d9b	0.001688409
195	0x3a213a0d	0.0006150313
196	0x39ba73b5	0.00035562893
197	0x3a7c5d35	0.0009626926
198	0x39764a01	0.00023487957
199	0x39f8c64c	0.0004744999
200	0x3a468aac	0.00075737643
201	0x39835428	0.00025048968
202	0x39e93c07	0.00044485947
203	0x3aaadb33	0.0013035297
204	0x3a15448d	0.0005694114
205	0x3a1b6bef	0.0005928864
206	0x39d366ad	0.00040321556
207	0x39d32157	0.00040269896
208	0x39a6adb8	0.00031791418
209	0x39a6a889	0.00031787556
210	0x3915074c	0.00014212466
211	0x39d3e418	0.00040415
212	0x3a156d3b	0.00057001755
213	0x3984ed36	0.00025353738
214	0x38e31bc6	0.00010829377
215	0x3a8cc536	0.0010739926
216	0x3b7b6797	0.0038361305
217	0x3b81a21d	0.003956093
218	0x396a0fb1	0.00022321825
219	0x39501cb0	0.00019847113
220	0x399f87e9	0.00030428104
221	0x39ac16fe	0.00032823527
222	0x3a43615c	0.00074531673
223	0x39a68e16	0.0003176785
224	0x3a25ce77	0.0006325016
225	0x3a437fd3	0.0007457707
226	0x3a6ecb5d	0.0009109283
227	0x3a704aa0	0.00091663934
228	0x39a6ae04	0.0003179164
229	0x39e4396a	0.00043530326
230	0x393f6f2e	0.00018256597
231	0x39b2c3c5	0.00034096665
232	0x39145924	0.00014147587
233	0x39050914	0.0001268725
234	0x399ec3cf	0.00030281997
235	0x398aeb2e	0.00026496634
236	0x395e096a	0.00021175077
237	0x39b3027f	0.000341434
238	0x3a341278	0.0006869207
239	0x3a9bdbfa	0.001189112
240	0x3a2f721e	0.0006692725
241	0x3a13435a	0.0005617641
242	0x390fdbdc	0.00013719447
243	0x38d4a5d5	0.000101398364
244	0x3a964bda	0.0011466697
245	0x3a6fcf19	0.00091479864
246	0x3a5e186a	0.0008472266
247	0x3a653038	0.0008742842
248	0x39f87434	0.00047388824
249	0x3a3f8a46	0.0007306676
250	0x3a2afe26	0.00065228564
251	0x39e86c92	0.0004433138
252	0x390a005e	0.00013160842
253	0x39cddb4b	0.00039264033
254	0x3a07d760	0.00051819347
255	0x39fff9ff	0.00048823652

exp_avg f4 [164]
0	0x38a3dde4	7.813776e-05
1	0xb689e118	-4.1091225e-06
2	0xb6f3a012	-7.260599e-06
3	0xb9175fd2	-0.00014436178
4	0xb833b3de	-4.284444e-05
5	0x3946d6a5	0.00018962713
6	0x37fb8811	2.9984893e-05
7	0xb5e1c160	-1.6820086e-06
8	0xb7012c50	-7.6993165e-06
9	0xb6ef6268	-7.134211e-06
10	0x362f5390	2.6125672e-06
11	0xb8a9efba	-8.1032005e-05
12	0x363d6436	2.8221525e-06
13	0x392e6c92	0.00016634379
14	0x36145855	2.2105135e-06
15	0x37a38978	1.9495128e-05
16	0x36a6565a	4.957238e-06
17	0xb97ce146	-0.00024116514
18	0x389443ce	7.0698195e-05
19	0xb825f644	-3.956842e-05
20	0xb8e132d1	-0.00010738301
21	0x38d49997	0.00010137556
22	0xb95c8219	-0.000210293
23	0xb7cf88f2	-2.4740093e-05
24	0xb9160e35	-0.00014310407
25	0xb961b1bc	-0.00021523883
26	0x365b7540	3.2701791e-06
27	0xb78eddde	-1.7031034e-05
28	0xb70b3d96	-8.299385e-06
29	0xb8f32da0	-0.00011595641
30	0x371d084c	9.359861e-06
31	0x36f38260	7.257142e-06
32	0xb8bfc9d8	-9.145186e-05
33	0xb796b105	-1.7963825e-05
34	0x38b46cac	8.6033106e-05
35	0x37a06ee9	1.9125133e-05
36	0x39114374	0.00013853406
37	0xb8238f9c	-3.8995975e-05
38	0x39615994	0.00021491043
39	0x394c7b76	0.00019500949
40	0x381144b2	3.463467e-05
41	0x38adf092	8.2940925e-05
42	0x381c5a5e	3.727746e-05
43	0x372b97ce	1.0227739e-05
44	0xb8091abc	-3.2688244e-05
45	0xb92509bc	-0.00015739253
46	0xb9673dad	-0.00022052853
47	0xb8d1a95c	-9.997442e-05
48	0x3801f755	3.0986343e-05
49	0x377d0938	1.50821215e-05
50	0x37e7aee6	2.761879e-05
51	0xb8bc13ea	-8.968248e-05
52	0x3791f08e	1.7397364e-05
53	0x392acbde	0.0001628841
54	0xb8ced3a6	-9.862268e-05
55	0x380a1ae1	3.2926797e-05
56	0xb79c0a72	-1.8601513e-05
57	0x369cd1c0	4.6735804e-06
58	0xb89fe295	-7.623915e-05
59	0x36f69051	7.348172e-06
60	0xb86793be	-5.5212287e-05
61	0xb8990a8c	-7.297573e-05
62	0x3904551a	0.00012620204
63	0xb7976a1e	-1.8050017e-05
64	0xb89b82b2	-7.41532e-05
65	0x3931dfdc	0.0001696343
66	0x3910106d	0.00013739029
67	0x390e7b77	0.0001358817
68	0xb9bbe938	-0.0003584118
69	0xb8c2932b	-9.278053e-05
70	0x3851d0d1	5.002396e-05
71	0x382d6c46	4.134725e-05
72	0xb883b58a	-6.280381e-05
73	0xb7f2f244	-2.8961462e-05
74	0x386a5e74	5.5877914e-05
75	0x363c5770	2.8065078e-06
76	0xb8d17f04	-9.989555e-05
77	0x38d4a8a0	0.000101403566
78	0x3833bc1b	4.2852113e-05
79	0x37feacb0	3.0359573e-05
80	0x365ec730	3.319652e-06
81	0x3811ac82	3.4731354e-05
82	0x39497da7	0.00019215663
83	0xb893ba1f	-7.044174e-05
84	0xb7839016	-1.5683512e-05
85	0x3886437e	6.402189e-05
86	0xb7df2da0	-2.6604917e-05
87	0x38ee6054	0.00011366667
88	0xb885e3e6	-6.3843836e-05
89	0x389141f8	6.9264264e-05
90	0x38c2ce29	9.289041e-05
91	0xb88c4788	-6.689044e-05
92	0x38bd74f2	9.034005e-05
93	0xb9602fc1	-0.00021380094
94	0xb8e59ce6	-0.000109487955
95	0x37aa9b54	2.033791e-05
96	0xb909b606	-0.00013133147
97	0x38b31ea9	8.541096e-05
98	0x38ec69d9	0.000112730726
99	0xb8b755fa	-8.7421344e-05
100	0xb95f7f85	-0.00021314442
101	0xb875068c	-5.841865e-05
102	0xb981970d	-0.0002471734
103	0x3721ae58	9.63694e-06
104	0x38d360b7	0.000100792786
105	0x3828c40e	4.023691e-05
106	0x38471018	4.7460286e-05
107	0xb8fe3b22	-0.00012122678
108	0xb7ff0ccb	-3.0404326e-05
109	0x39258c18	0.00015787815
110	0xb9790144	-0.00023746962
111	0xb8fa1c7a	-0.00011926233
112	0x39173da6	0.00014423448
113	0x38bcbf94	9.000223e-05
114	0xb8a43a7d	-7.831024e-05
115	0xb9036fc8	-0.00012534775
116	0xb7da7a6d	-2.6044634e-05
117	0x37c0d67d	2.2988062e-05
118	0x395805fb	0.00020601593
119	0xb9169d1c	-0.00014363643
120	0x3909327c	0.00013084145
121	0xb770aaba	-1.4344865e-05
122	0xb9320026	-0.00016975458
123	0x379f46e0	1.898728e-05
124	0xb88df0c0	-6.768247e-05
125	0xb868042d	-5.5317e-05
126	0xb801ae4b	-3.091832e-05
127	0x38fbdf03	0.00012010152
128	0xb8c12587	-9.209947e-05
129	0x394db3b6	0.00019617271
130	0x3904dc1c	0.00012670498
131	0x39791c30	0.00023756991
132	0x398c3f8e	0.00026750233
133	0xb82d2c25	-4.1287527e-05
134	0xb7325a10	-1.0630596e-05
135	0xb81a4891	-3.6784044e-05
136	0x39506f9f	0.00019878008
137	0xb96bad03	-0.00022475798
138	0x388ab62a	6.6142835e-05
139	0xb825ee2d	-3.9560884e-05
140	0x3954f609	0.00020309551
141	0xb8051486	-3.1728785e-05
142	0xb93684fb	-0.00017406412
143	0xb824a993	-3.9258575e-05
144	0x364ef660	3.0839801e-06
145	0x3688fe48	4.082718e-06
146	0xb85abc84	-5.215082e-05
147	0xb8ccc9e6	-9.7650845e-05
148	0xb866f5d0	-5.5065204e-05
149	0x37c0a03c	2.2962799e-05
150	0x3862c02e	5.406158e-05
151	0xb8e1f07e	-0.00010773631
152	0x377bca30	1.5007841e-05
153	0xb8150612	-3.553002e-05
154	0x36dec1cb	6.638676e-06
155	0xb85252e4	-5.01451e-05
156	0xb9690f66	-0.00022226348
157	0xb8639fa0	-5.426968e-05
158	0x38b9088e	8.823081e-05
159	0xb5ffd145	-1.9059886e-06
160	0x370911bc	8.169965e-06
161	0xb7f0cc22	-2.8705286e-05
162	0x38572370	5.1293e-05
163	0x39153209	0.00014228387
