docs/smld/lightning_logs/version_115/checkpoints/epoch=49-step=4900.ckpt (torch, 345995 bytes, 18 tensors)

model.layers.0.weight f4 [164, 3]
0	0xbe9519bb	-0.29121193
1	0x3e2b6ad9	0.16739978
2	0xbe7b6715	-0.24551041
3	0xbe1cb38f	-0.15302871
4	0xbe8d8c11	-0.27645925
5	0xbf0e150c	-0.55500865
6	0x3e69b8f6	0.22824463
7	0xbe45bfe6	-0.19311485
8	0x3e4791f0	0.19489264
9	0x3e9e83d2	0.30959946
10	0x3ee95223	0.45570478
11	0xbe868fdd	-0.26281634
12	0x3eebdd45	0.46067253
13	0xbe211dab	-0.15733974
14	0x3e1dd117	0.15411793
15	0x3d988b33	0.07448425
16	0xbccef101	-0.025261404
17	0x3da6215d	0.08111832
18	0xbeba30df	-0.3636541
19	0xbe023c9f	-0.12718438
20	0x3eefbca0	0.46823597
21	0xbe0dceba	-0.13848391
22	0xbeca8cf9	-0.3956068
23	0xbe257a85	-0.16160019
24	0x3d8dcced	0.06923852
25	0xbec7075b	-0.388728
26	0xbeb6d9e7	-0.3571312
27	0x3bbfed7d	0.005857168
28	0x3dece118	0.11566371
29	0x3ce24cbe	0.027624484
30	0xbf01c6d8	-0.50694036
31	0x3f09363b	0.53598374
32	0xbdc9faf2	-0.09862317
33	0xbeb7e3a7	-0.35915872
34	0xbec7f74a	-0.39055854
35	0xbe5e36b0	-0.21700549
36	0xbd99a3a4	-0.07501915
37	0x3ec04def	0.3755946
38	0xbee4223a	-0.44557363
39	0x3d805414	0.06266037
40	0x3d25710f	0.040391024
41	0x3ce13ce2	0.027494851
42	0x3eb939a5	0.36176792
43	0xbebd023f	-0.36915776
44	0x3e898093	0.26855907
45	0xbeeb7956	-0.4599101
46	0xbed453fe	-0.4147033
47	0xbdebfd35	-0.11522905
48	0x3df70fb1	0.1206354
49	0xbdae28cb	-0.085038744
50	0x3e632c06	0.22184762
51	0xbf1164ef	-0.5679464
52	0x3e335b2b	0.17515247
53	0xbe95a12f	-0.29224536
54	0xbe93a869	-0.28839424
55	0x3e20cde9	0.15703548
56	0x3e6446bb	0.22292607
57	0x3e301be9	0.17198147
58	0xbef06a1c	-0.46955955
59	0xbe25fd7c	-0.16209978
60	0xbeeffd8b	-0.46873125
61	0xbe97b229	-0.29628113
62	0x3f032bde	0.5123881
63	0x3df7c7a2	0.12098624
64	0xbe0d9113	-0.13824873
65	0x3ebd7df6	0.37010163
66	0x3db2166f	0.08695685
67	0xbeb4666a	-0.35234386
68	0xbd5b8f4f	-0.053603467
69	0xbc9ce2c6	-0.019151103
70	0x3ef4c101	0.478035
71	0x3f0898f8	0.5335841
72	0x3dae2858	0.08503789
73	0x3e7c6ab3	0.24650078
74	0xbf095091	-0.5363856
75	0xbda02ace	-0.07820664
76	0x3e8d25b6	0.27567834
77	0x3dee42ac	0.116338104
78	0x3e2b282a	0.1671454
79	0x3bf8f551	0.0075976034
80	0xbe9a5841	-0.30145457
81	0xbeb15871	-0.34637788
82	0xbed357ae	-0.41277832
83	0xbe83e49b	-0.2576035
84	0xbef23d45	-0.4731237
85	0xbd5e9961	-0.054345492
86	0x3e2c82e5	0.16846807
87	0xbe3cd959	-0.18442287
88	0xbe33a3b9	-0.17542924
89	0x3edb2bb9	0.42806795
90	0xbe9af9fe	-0.30268854
91	0x3e7fc529	0.24977554
92	0xbf138ee6	-0.5763992
93	0xbeef42be	-0.46730608
94	0x3e89add1	0.26890424
95	0x3e9ea582	0.30985647
96	0x3d9480b3	0.0725111
97	0x3b2204ad	0.0024722025
98	0xbdf293e1	-0.11844612
99	0x3f00378a	0.50084746
100	0x3dedd5c6	0.1161304
101	0x3efa6a9e	0.48909467
102	0x3dd67f59	0.104735084
103	0x3d63d10d	0.05561929
104	0xbe5806a3	-0.21096282
105	0xbe793880	-0.2433796
106	0x3e92a5d9	0.28642157
107	0xbe2deffc	-0.16986078
108	0xbee94dab	-0.45567068
109	0xbdb274e6	-0.08713703
110	0xbf058902	-0.5216218
111	0x3d803aac	0.06261191
112	0x3e58b925	0.21164377
113	0x3f0f3811	0.55944926
114	0x3e97b6c6	0.29631633
115	0xbe2d4175	-0.16919501
116	0x3e75a470	0.23988509
117	0xbf033239	-0.5124851
118	0x3e8ccab2	0.27498394
119	0xbec58766	-0.38579863
120	0x3ec2ab56	0.38021344
121	0x3d6db7e9	0.05803672
122	0xbe4eece3	-0.20207553
123	0x3e8355c6	0.25651377
124	0xbed427d2	-0.4143663
125	0x3e804822	0.25055033
126	0x3f009e90	0.5024195
127	0x3e6abd14	0.2292369
128	0xbec3fc31	-0.38278344
129	0x3e90a8bc	0.28253734
130	0xbaeddbff	-0.0018147229
131	0xbeb40d44	-0.3516637
132	0xbd3f8313	-0.04675586
133	0xbdcd2d11	-0.10018361
134	0xbeab8cbe	-0.33505815
135	0xbd38ab45	-0.04508521
136	0xbe3ffe5b	-0.18749373
137	0xbcac359e	-0.02102166
138	0x3eca56f7	0.39519474
139	0xbe5e356a	-0.21700063
140	0xbde78562	-0.11304738
141	0xbc3441af	-0.011001988
142	0xbea2c968	-0.31794286
143	0x3e57185a	0.21005383
144	0x3e5e9d9d	0.21739812
145	0x3ef1e92c	0.4724821
146	0xbdbd0a7b	-0.092305146
147	0xbe41ab31	-0.1891296
148	0x3ddb3f82	0.107054725
149	0x3d9c899f	0.07643437
150	0xbeb53a84	-0.35396206
151	0x3e2f3263	0.17109065
152	0xbf049207	-0.5178532
153	0x3eb9c655	0.36284128
154	0x3e4926c7	0.19643699
155	0xbf012637	-0.50448936
156	0x3dfe73f2	0.124244586
157	0xbdcf14e3	-0.10111406
158	0xbe5626eb	-0.20913284
159	0x3e039564	0.12849957
160	0xbf0475af	-0.5174207
161	0xbf198133	-0.5996277
162	0xbeab5f23	-0.3347102
163	0x3d57c633	0.052679252
164	0x3e49dd12	0.19713238
165	0xbe9efd43	-0.31052598
166	0x3ecf40bc	0.40479076
167	0xbe2e18bb	-0.17001621
168	0xbe248127	-0.16064893
169	0xbef5451d	-0.47904292
170	0xbeb41b8c	-0.35177267
171	0x3d707e04	0.058713928
172	0xbd5087c6	-0.050910734
173	0x3e32d6d7	0.17464767
174	0x3ee9df63	0.45678243
175	0xbe8d7c65	-0.27633968
176	0xbe0fe814	-0.14053375
177	0xbe9fd414	-0.3121649
178	0x3e942bd1	0.2893968
179	0x3e8cff19	0.27538374
180	0xbf05d546	-0.52278554
181	0xbec8911a	-0.39173204
182	0xbe4c7e27	-0.19969998
183	0xbe848f18	-0.25890422
184	0x3ea51d4d	0.32248917
185	0xbd71d96a	-0.059045233
186	0x3e2b42e7	0.1672474
187	0xbf03a317	-0.5142073
188	0x3ddee465	0.108834065
189	0x3ef5a2c8	0.47975755
190	0x3ee1068a	0.439503
191	0x3d6075f7	0.0548
192	0x3f0517a3	0.5198919
193	0xbec6c95b	-0.38825497
194	0xbe015993	-0.12631826
195	0x3dac587e	0.08415316
196	0x3e739e0f	0.23790763
197	0xbe18c272	-0.14917925
198	0x3e7c66fd	0.24648662
199	0xbe177101	-0.14789201
200	0xbe98c4a6	-0.2983753
201	0xbdba7ccc	-0.09105834
202	0x3eef56af	0.46745822
203	0xbe17524d	-0.14777489
204	0xbeb07151	-0.34461454
205	0x3ea13d45	0.31492057
206	0xbe1446e5	-0.14480169
207	0x3cce214b	0.02516236
208	0x3e7e2372	0.24818209
209	0xbeb6cb1b	-0.35701832
210	0x3eeb43ef	0.45950267
211	0x3efb9598	0.49137568
212	0x3ece2d42	0.40268904
213	0xbe2ec936	-0.17068943
214	0x3e929c25	0.28634754
215	0x3e61f441	0.22065832
216	0x3d46a3aa	0.048495926
217	0x3eefc07e	0.46826547
218	0x3d07e8d5	0.03318103
219	0xbe648c7b	-0.22319214
220	0x3ee279b0	0.44233465
221	0x3f0e4652	0.5557605
222	0x3ea9dd95	0.33176866
223	0xbeba45ac	-0.3638128
224	0x3e050add	0.12992425
225	0x3d0c4a10	0.03425032
226	0xbea3deb9	-0.3200586
227	0x3ef8ba07	0.48579428
228	0x3d524f60	0.05134523
229	0xbdf16e60	-0.117886305
230	0xbda5d7e1	-0.08097816
231	0xbea578eb	-0.32318816
232	0xbe4b01bd	-0.19824882
233	0x3e3caf75	0.18426307
234	0x3e10c3d6	0.14137205
235	0x3c92b279	0.017907368
236	0x3ef6d13c	0.48206508
237	0x3de9810d	0.114015676
238	0x3ec23e13	0.37937984
239	0x3d41f439	0.04735205
240	0x3ef5e7b8	0.4802835
241	0x3f07020d	0.52737504
242	0xbf13bd80	-0.5771103
243	0x3bebe34d	0.007198727
244	0x3ee2b34f	0.44277427
245	0x3f01923c	0.5061376
246	0xbe5ab5df	-0.21358441
247	0x3e49888c	0.19680995
248	0xbdac356a	-0.084086254
249	0x3edbef7e	0.42956156
250	0xbec8eda3	-0.39243802
251	0xbd0a072b	-0.033698242
252	0xbeb020c4	-0.34399998
253	0xbe9e0bb6	-0.3086831
254	0x3e3896ac	0.18026227
255	0x3eb6c7c7	0.35699293

model.layers.0.bias f4 [164]
0	0x3f6bf260	0.9216671
1	0xbf17e02c	-0.59326434
2	0xbeeb48d4	-0.45954
3	0x3eb9df0d	0.36302987
4	0x3e308a64	0.17240292
5	0xbf4e1504	-0.8050082
6	0x3d1c3667	0.03813782
7	0x3f3c4d23	0.735552
8	0xbf1b30a7	-0.6062111
9	0x3c662350	0.014046505
10	0x3eb8c203	0.3608552
11	0x3e4fe04f	0.2030041
12	0xbf88b23e	-1.0679395
13	0x3e6f2c8b	0.23356836
14	0xbf276f98	-0.65404654
15	0xbf24dcdc	-0.64399505
16	0x3f09a657	0.5376944
17	0xbe9671ed	-0.29383793
18	0x3f6961b4	0.9116471
19	0x3e17fc5b	0.1484236
20	0xbde2be5b	-0.11071464
21	0xbea30041	-0.3183613
22	0x3e55db79	0.20884503
23	0x3f23a49c	0.6392305
24	0x3f441758	0.7659812
25	0xbda09669	-0.078411885
26	0xbf4b6da0	-0.7946415
27	0x3f00c786	0.5030445
28	0x3f5ee023	0.87060755
29	0x3e19b32f	0.1500976
30	0x3f44ae6c	0.76828647
31	0xbe69e7c7	-0.22842322
32	0x3f8b7f3b	1.0898203
33	0x3d9d42d8	0.07678765
34	0x3ea5d1c5	0.32386604
35	0x3f24e720	0.6441517
36	0x3e5007f5	0.20315535
37	0xbe7b1263	-0.24518733
38	0xbedd30b3	-0.43201217
39	0xbf8ab5a2	-1.083668
40	0xbf2092a2	-0.62723744
41	0x3f293355	0.6609395
42	0x3d9da3db	0.076972686
43	0x3eb6b8d8	0.356879
44	0x3cd22f88	0.02565743
45	0xbea48bac	-0.3213781
46	0x3e97b67a	0.29631406
47	0xbeb231c8	-0.34803605
48	0x3f4f76f4	0.81040883
49	0x3f90eee0	1.1322899
50	0x3f5aafdb	0.85424584
51	0xbe006b13	-0.12540846
52	0x3ef0c11c	0.4702233
53	0x3ead9bb8	0.33907866
54	0xbf11046c	-0.5664737
55	0x3c96fcac	0.01843103
56	0xbd958e82	-0.07302572
57	0x3fa4a75c	1.2863574
58	0xbee63dba	-0.4496897
59	0x3e5cfec5	0.21581562
60	0xbf97b644	-1.1852498
61	0x3f3d1380	0.7385788
62	0xbf0998bb	-0.53748673
63	0xbec411e0	-0.38294888
64	0x3ee89b41	0.4543095
65	0xbe37a975	-0.17935736
66	0xbeaf97e2	-0.34295565
67	0xbf38aa61	-0.7213498
68	0x3f4250fd	0.7590483
69	0x3f35d584	0.71028924
70	0xbe6b2fec	-0.229675
71	0x3f55ec47	0.83563656
72	0x3e641409	0.22273268
73	0xbf80d4d8	-1.0064955
74	0x3e2558fc	0.16147226
75	0xbe9debb2	-0.30843884
76	0x3f4dd9e7	0.8041062
77	0xbf07aff8	-0.5300288
78	0xbf1ac7dd	-0.6046122
79	0xbf303508	-0.6883092
80	0xbde66ee3	-0.11251619
81	0x3ba9ad8a	0.005178158
82	0x3f0e9f33	0.5571167
83	0x3ed04610	0.40678453
84	0xbf3a616a	-0.7280489
85	0xbf6f77f4	-0.9354241
86	0xbf2880ba	-0.6582142
87	0xbdeb535d	-0.1149051
88	0x3ecf6e84	0.40514004
89	0xbf239cdb	-0.6391122
90	0xbf1239a8	-0.57119226
91	0x3f3980a5	0.7246192
92	0x3dcec038	0.100952566
93	0xbe64a678	-0.22329128
94	0xbf8ef5e5	-1.1168791
95	0x3f0adaa7	0.54239887
96	0xbdc117ed	-0.094283916
97	0xbf9fe5c9	-1.2492
98	0xbf50de2d	-0.81589013
99	0xbead7cf6	-0.338844
100	0x3f3a07d0	0.7266817
101	0x3ee4a933	0.4466034
102	0xbe9c0dbd	-0.3047923
103	0x3e703dc5	0.23461063
104	0x3ed52cd2	0.41635758
105	0x3ebe1fd9	0.37133673
106	0x3f1186b1	0.5684615
107	0x3f4f767d	0.81040174
108	0x3f357799	0.70885617
109	0xbe88772c	-0.2665342
110	0x3f218247	0.6308941
111	0x3e3f101a	0.18658486
112	0xbdaae07c	-0.08343598
113	0xbedaf17f	-0.42762372
114	0xbcadf289	-0.021233814
115	0x3e88afdd	0.26696673
116	0xbea0f33b	-0.3143557
117	0x3f03c505	0.514725
118	0xbef9cca4	-0.4878894
119	0x3f56d9fc	0.8392637
120	0x3e4dd72d	0.20101614
121	0xbd1d4d36	-0.038403712
122	0x3ed62c86	0.41830844
123	0x3f263e80	0.6493912
124	0xbe4b7dba	-0.1987218
125	0xbf0d14c6	-0.5510982
126	0xbf4a2f9e	-0.7897891
127	0xbf0e2f19	-0.55540615
128	0xbea7c61b	-0.3276833
129	0x3e6e69ab	0.23282497
130	0xbdc28c93	-0.09499469
131	0xbf29a8f8	-0.6627345
132	0x3e976352	0.29567963
133	0xbf2cbedf	-0.67478746
134	0x3ebb66f4	0.36601985
135	0xbf6fba34	-0.936435
136	0xbf2c1536	-0.67219865
137	0xbeb46435	-0.35232702
138	0xbf0cd051	-0.55005366
139	0xbcb767fb	-0.022388449
140	0xbde26044	-0.110535175
141	0x3f7e3e19	0.99313504
142	0x3e8b8628	0.2725079
143	0xbea9ae12	-0.33140618
144	0xbf2bf52b	-0.6717097
145	0xbf81878b	-1.011949
146	0x3f1c5457	0.6106619
147	0xbdcb92f1	-0.09940136
148	0x3df349fb	0.11879345
149	0x3effeba7	0.49984476
150	0x3f7064e2	0.93903935
151	0x3e4ebcb2	0.20189169
152	0xbd5b1c19	-0.053493593
153	0x3ed338b6	0.41254205
154	0xbf8213c9	-1.0162288
155	0xbee33426	-0.44375724
156	0x3f2b3d52	0.6689044
157	0x3f30e64b	0.691014
158	0x3f20e545	0.6284984
159	0xbf681d24	-0.90669465
160	0xbe8c0fe6	-0.2735588
161	0xbf7e1b2b	-0.99260205
162	0xbf1ced0c	-0.61299205
163	0x3f004389	0.5010305

model.layers.2.weight f4 [164, 164]
0	0xbd7bba8f	-0.061457213
1	0x3d67cf89	0.056594405
2	0x3c9da8ac	0.019245468
3	0xbd844f7e	-0.064604744
4	0x3d04fb53	0.032466244
5	0xbdab47b8	-0.08363289
6	0x3c483af4	0.012221087
7	0x3d4e4832	0.05036182
8	0x3c8cc394	0.017183103
9	0xbc6c86e8	-0.014436461
10	0xbd81576c	-0.063155025
11	0xbcf87603	-0.03032971
12	0x3b97ae0f	0.0046289037
13	0x3d5c5bbe	0.05379843
14	0x3ced4a4a	0.028966088
15	0xbb454916	-0.0030103377
16	0xbd5a0a7b	-0.05323265
17	0xbd348f7f	-0.04408216
18	0x3ccd6a76	0.025075179
19	0xbb2a54e9	-0.0025990552
20	0xbd1a307d	-0.0376439
21	0x3d2a1c87	0.041531112
22	0xbc98fa8a	-0.018674154
23	0x3d35dacc	0.044398114
24	0x3ce4a699	0.027911471
25	0xbd4bc672	-0.0497498
26	0x3ccec053	0.025238192
27	0x3d0dc378	0.03461024
28	0xbb533cab	-0.0032232206
29	0xbd802650	-0.062573075
30	0xbd370406	-0.04468157
31	0xbd388991	-0.04505307
32	0xbd4a4b1b	-0.049388032
33	0x3c8b095f	0.016972242
34	0xbde19033	-0.11013832
35	0x3acedd21	0.0015782454
36	0xbd70c5bd	-0.058782328
37	0x3d566821	0.0523454
38	0xbcc37285	-0.023858318
39	0x3d9dcaf9	0.077047296
40	0x3d872734	0.06599274
41	0xbd6287e7	-0.055305388
42	0xbc2b6364	-0.010460708
43	0x3d39f8bd	0.04540323
44	0x3e1451d8	0.14484346
45	0x3d332e73	0.04374547
46	0xbd4204e7	-0.047367956
47	0xbd187eda	-0.03723035
48	0xbd7c22a4	-0.061556473
49	0xbcd9cb61	-0.026586236
50	0x3d908eb1	0.07058466
51	0x3d0eadd0	0.03483373
52	0x3d44b545	0.048024435
53	0xbda4cd0b	-0.08046921
54	0xbcabe30b	-0.020982286
55	0xbd0fe63d	-0.03513168
56	0x3d0b1bd5	0.03396209
57	0x3c5a71b5	0.013332774
58	0x3d8d6d80	0.06905651
59	0xbd881dfc	-0.06646344
60	0x3ce2f0e0	0.027702749
61	0xbd304f58	-0.043044418
62	0x3d3ccb48	0.0460923
63	0xbd9c5d21	-0.076349504
64	0x3ca61620	0.020274222
65	0x3bd75f4b	0.006572639
66	0xbdbdbd38	-0.09264606
67	0xbd793baf	-0.060847934
68	0x3d80bd23	0.06286075
69	0xbc8d24e0	-0.017229497
70	0xbd0d4b56	-0.034495674
71	0x3caf583e	0.021404382
72	0x3d3ab613	0.045583796
73	0x3cff69e7	0.031178428
74	0x3c515fe1	0.012779207
75	0x3d180d16	0.037121855
76	0xbc4602d2	-0.012085633
77	0xbd873c21	-0.066032656
78	0x3d938553	0.07203164
79	0x3d403391	0.046924178
80	0xbda15969	-0.07878382
81	0xbd7f5e0e	-0.062345557
82	0x3d2e4515	0.04254635
83	0x3d70e615	0.058813173
84	0x3d011b8a	0.031520404
85	0xbd7552bc	-0.059893355
86	0x3c75ce28	0.015002765
87	0xbd22db09	-0.03975967
88	0xbd96b38a	-0.07358463
89	0xbd975469	-0.07389147
90	0x3c8c5f79	0.017135369
91	0xbd5750d6	-0.052567326
92	0xbda0b7b2	-0.07847537
93	0xbd937f39	-0.07202
94	0x3d4b22f4	0.04959388
95	0x3d4edfab	0.050506275
96	0xbd9b6eb6	-0.07589476
97	0x3c1aaf2e	0.00944118
98	0xbd876231	-0.066105254
99	0xbcbe140d	-0.02320292
100	0xbd3f2c15	-0.0466729
101	0xbd2ce205	-0.042207737
102	0xbd855f16	-0.06512277
103	0x3d1c998f	0.038232382
104	0x3cd16faa	0.02556594
105	0xbd949bff	-0.072563164
106	0xbc390878	-0.011293523
107	0x3d14b7c0	0.03630805
108	0xbd04654e	-0.032323174
109	0x3d630645	0.0554259
110	0xbd335e1a	-0.043790914
111	0xbcdcc1fe	-0.026947971
112	0xbc8692b6	-0.01642738
113	0xbd7d51f8	-0.06184575
114	0x3d841251	0.06448806
115	0x3a66d475	0.0008805462
116	0xbd844009	-0.06457526
117	0x3d8b9e57	0.0681731
118	0xbd3f12b2	-0.04664869
119	0xbca4ee34	-0.020133115
120	0xbd6e9d5d	-0.058255542
121	0xbc496ebd	-0.0122944685
122	0xbd9c28b9	-0.07624955
123	0x3d113794	0.035453394
124	0x3c9162a8	0.017747238
125	0xbcecd979	-0.028912293
126	0x3d210cd9	0.039318893
127	0x3c38e49e	0.011284975
128	0x3d9ab5ab	0.07554182
129	0xbd57005a	-0.05249057
130	0xbd3f7a2f	-0.046747383
131	0x3b9214cd	0.004458046
132	0xbba076de	-0.0048969826
133	0xbd4f0f19	-0.050551508
134	0xbd7061ac	-0.058686897
135	0x3cc8c771	0.024509164
136	0x3d951463	0.07279279
137	0xbcf99f19	-0.030471371
138	0x3c7f4f1f	0.015582829
139	0x3cb43047	0.021995677
140	0xbc8ef231	-0.01744947
141	0x3d2be697	0.041967954
142	0x3d0b6d7a	0.03403995
143	0x3c736bf6	0.014857283
144	0xbd8b9b41	-0.06816722
145	0x3d5b0a3d	0.05347656
146	0x3d4271c5	0.04747178
147	0xbd723353	-0.059130978
148	0x3c35488e	0.011064662
149	0x3d11f02d	0.03562944
150	0x3d132bfb	0.035930615
151	0xbb9a8f03	-0.0047167554
152	0x3d2dfd28	0.042477757
153	0x3d074cd2	0.033032246
154	0x3da3cc4a	0.079979494
155	0xbadb5048	-0.00167323
156	0xbd27474f	-0.04083949
157	0xbc3fc12d	-0.011703772
158	0xbd9f0f81	-0.07766629
159	0x3cc94695	0.024569789
160	0x3c981225	0.01856334
161	0x3d303774	0.043021634
162	0xbd90ca41	-0.07069827
163	0xbcad0a63	-0.021123117
164	0x3e03c9a9	0.12869896
165	0xbdfc5471	-0.123207934
166	0xbdc84123	-0.09778049
167	0xbe478d26	-0.19487438
168	0xbb071fc6	-0.0020618304
169	0xbcec3874	-0.028835513
170	0xbd8b48f1	-0.06801022
171	0x3de5fa3f	0.11229371
172	0xbc81ddfd	-0.015852923
173	0xbe03e14c	-0.12878913
174	0x3d4c2f4a	0.049849786
175	0xbcd2016d	-0.025635445
176	0x3d7ad90b	0.061242145
177	0x3cc0bf71	0.023528786
178	0xbdf0de1d	-0.11761115
179	0x3cb74493	0.022371566
180	0x3d5ff75c	0.05467926
181	0x3c19bbf4	0.00938319
182	0x3d02fb49	0.031977925
183	0xbda1ff63	-0.07910039
184	0x3c875488	0.0165198
185	0xbdbacf95	-0.091216244
186	0x3d166118	0.03671369
187	0x3d87555e	0.066080794
188	0xbdced0b9	-0.100984044
189	0xbdc52402	-0.096260086
190	0xbc4eb780	-0.012616992
191	0x3b74662b	0.0037292342
192	0x3d4b503a	0.049637057
193	0xbcc74d85	-0.024328956
194	0xbbc2488d	-0.005929059
195	0xbdcf3338	-0.10117191
196	0x3ee25d83	0.4421197
197	0xbd5387a7	-0.05164304
198	0xbd1aef1d	-0.037825692
199	0x3d932801	0.071853645
200	0xbd0b67b0	-0.03403443
201	0xbdc8c03c	-0.09802291
202	0xbdd99163	-0.106234334
203	0xbdc5f193	-0.09665217
204	0xbc3f2133	-0.01166563
205	0x3db18d6d	0.08669553
206	0xbe0de928	-0.13858473
207	0xbd495734	-0.04915543
208	0x3f13b475	0.5769723
209	0xbd9957c6	-0.074874446
210	0xbd92b1a5	-0.07162789
211	0xbd12aca9	-0.035809193
212	0xbd5f8f68	-0.054580122
213	0x3e08b9cd	0.13352127
214	0x3db053c6	0.086097285
215	0xbd88f925	-0.066881455
216	0x3d85f21a	0.06540318
217	0x3cf1b1d8	0.029503748
218	0xbd2b3da9	-0.04180685
219	0xbdb47a61	-0.088124044
220	0xbd8ea21d	-0.069645144
221	0x3e0a0363	0.13477854
222	0xbdf06021	-0.11737085
223	0x3cc200af	0.023681967
224	0xbd8798b2	-0.06620921
225	0x3d21f5ff	0.03954124
226	0xbcd755cd	-0.02628603
227	0xbd4d7bd8	-0.050166935
228	0xbcad406f	-0.021148888
229	0xbcd914a1	-0.026499094
230	0xbdc4e754	-0.09614435
231	0xbde42db7	-0.11141532
232	0x3d50bf41	0.050963644
233	0x3d5c53bc	0.053790793
234	0x3e00cc23	0.12577872
235	0x3d76802f	0.06018084
236	0xbe5bff04	-0.21484
237	0xbd9bae72	-0.07601632
238	0x3d8965a2	0.06708838
239	0x3d32b8c9	0.043633256
240	0x3e393f48	0.18090546
241	0x3c8834f2	0.016626809
242	0xbc1cfd3f	-0.009581863
243	0xbe040b6e	-0.12894985
244	0xbe104150	-0.14087415
245	0xbd7873d3	-0.060657334
246	0x3d9cbbb3	0.07652988
247	0x3c4098e7	0.011755205
248	0xbda0eae3	-0.07857301
249	0x3b082d35	0.0020778899
250	0x3cb4dfa0	0.022079289
251	0xbd68bf75	-0.056823213
252	0xbc59abce	-0.01328559
253	0x3cf73270	0.030175418
254	0xbe23d8a6	-0.16000614
255	0xbcf085c2	-0.029360656

model.layers.2.bias f4 [164]
0	0xbba33c3b	-0.0049815453
1	0x3ebf185b	0.3732327
2	0xbc22c339	-0.00993424
3	0xbd0d99de	-0.034570567
4	0xbea1010e	-0.31446117
5	0xbe385f7a	-0.18005171
6	0x3e0b621e	0.13611647
7	0x3d2f76b0	0.0428378
8	0x3d11ac02	0.03556443
9	0x3d3ce723	0.046118867
10	0x3e06156c	0.1309411
11	0x3df64946	0.120256945
12	0xbd9b374b	-0.07578906
13	0xbd5ed046	-0.054397844
14	0x3cfe953b	0.031077018
15	0xbd68a282	-0.056795605
16	0x3a86fc8d	0.0010298655
17	0x3cce8e64	0.025214382
18	0xbd93a5c9	-0.072093554
19	0xbdb796e3	-0.08964326
20	0xbd657ed9	-0.056029174
21	0x3d72b535	0.059254844
22	0x3e4e845a	0.20167676
23	0x3d500467	0.05078545
24	0xbe22ec9b	-0.1591057
25	0x3d2a95fb	0.04164694
26	0x3c6bb1ac	0.014385622
27	0x3d38c0c0	0.045105696
28	0xbb40863f	-0.0029376892
29	0xbce29366	-0.027658176
30	0xbd924875	-0.07142726
31	0x3d9fe0bf	0.07806539
32	0x3ec3b162	0.3822127
33	0x3d5d26ec	0.053992197
34	0x3b3362a9	0.0027372038
35	0x3e03f771	0.1288736
36	0xbda24228	-0.079227746
37	0xbd9d6398	-0.076850116
38	0x3dbddde2	0.092708364
39	0xbcb869ec	-0.022511445
40	0xbd3b4c1b	-0.045726877
41	0x3cb26dfd	0.021780962
42	0xbd91cde0	-0.07119346
43	0x3c059340	0.008152783
44	0x3e20059d	0.15627141
45	0xbc8b379a	-0.016994286
46	0x3c79338b	0.015210043
47	0xbdd99596	-0.106242344
48	0xbe1bbeb7	-0.1520947
49	0x3d9bb400	0.07602692
50	0x3be0d2d9	0.0068610725
51	0xbd3c1bed	-0.04592507
52	0x3da429ba	0.08015771
53	0x3dccde88	0.10003382
54	0xbd0013cb	-0.031268876
55	0x3d3a19da	0.04543481
56	0x3d130a2a	0.035898365
57	0xbec515a2	-0.38493067
58	0x3c95f4c1	0.018305184
59	0x3de2b9a8	0.11070567
60	0xbb011350	-0.001969535
61	0x3d8b54be	0.06803273
62	0xbe1140b7	-0.14184843
63	0x3e028e85	0.1274968
64	0x3e8822c5	0.26589027
65	0x3d7cfd0d	0.061764766
66	0xbdd8f7b8	-0.105941236
67	0xbd67f892	-0.05663354
68	0xbcc5bf70	-0.024139136
69	0x3e6952f0	0.22785544
70	0x3e4ab2be	0.19794747
71	0x3d984f17	0.0743696
72	0x3bd874e6	0.0066057323
73	0x3d3f8a50	0.046762764
74	0xbd54c9c8	-0.051950246
75	0xbccaf2da	-0.024774004
76	0xbb9101e5	-0.0044252747
77	0x3f053d8a	0.52047026
78	0xbd992e4f	-0.07479536
79	0xbdc8ef25	-0.09811238
80	0xbe129549	-0.1431476
81	0x3d7243f4	0.059146836
82	0xbbaa57c2	-0.00519845
83	0xbd5e6751	-0.05429775
84	0xbd89ea69	-0.06734163
85	0x3c4d6d63	0.012538287
86	0xbd8d7479	-0.06906981
87	0xbd558c6e	-0.052135877
88	0x3d7bd189	0.061479125
89	0xbdc0c255	-0.09412066
90	0x3e37faf5	0.17966826
91	0xbe757634	-0.23970872
92	0xbe3514cc	-0.17683715
93	0xbcda795a	-0.026669193
94	0xbd5afc48	-0.05346325
95	0x3ce20f57	0.027595205
96	0x3d514fac	0.05110137
97	0x3d011130	0.031510532
98	0xbd7509de	-0.059823863
99	0xbe4f6990	-0.20255113
100	0x3d07f93d	0.033196677
101	0xbd785372	-0.060626455
102	0xbe570876	-0.20999321
103	0x3ce9cc5d	0.02853983
104	0x3b303358	0.0026886072
105	0x3ce08513	0.027407205
106	0xbc03cb2a	-0.008044044
107	0xbd503e80	-0.050840855
108	0x3dd82ff6	0.10556023
109	0xbd949ddb	-0.07256671
110	0x3e279bdc	0.1636805
111	0xbe5508a9	-0.20804085
112	0x3c43d5cb	0.011952828
113	0x3d6e87ec	0.058235094
114	0x3c89da47	0.016827716
115	0xbe27416c	-0.1633355
116	0xbbd76e96	-0.006574462
117	0xbcea6a3b	-0.028615108
118	0x3b869e96	0.0041082604
119	0xbdf42b77	-0.11922353
120	0xbd4daf62	-0.050216086
121	0xbc0e8560	-0.008698791
122	0x3c4b8fbe	0.0124244075
123	0x3b5fb11d	0.0034132667
124	0xbe03994f	-0.12851451
125	0xbe23659c	-0.1595673
126	0xbe28867c	-0.16457552
127	0xbdd52ef1	-0.10409344
128	0xbe431551	-0.190511
129	0x3cb2a009	0.021804826
130	0x3baafaff	0.0052179093
131	0x3cca948d	0.024729038
132	0xbdcaa4b7	-0.09894698
133	0xbd50e649	-0.051000867
134	0xbdcefc34	-0.10106698
135	0x3d8a0ac7	0.06740337
136	0x3d98f15d	0.074679114
137	0x3dce8dab	0.10085615
138	0xbde3507c	-0.110993356
139	0x3c0f60e3	0.008751127
140	0xbe158514	-0.14601547
141	0xbd71d0bc	-0.059036955
142	0xbc1cf891	-0.009580747
143	0xbbc18ba0	-0.005906537
144	0xbd0c1c06	-0.034206413
145	0xbdd0bf20	-0.10192704
146	0x3d7a8013	0.061157297
147	0xbe80f07f	-0.25183484
148	0x3c5d4e55	0.013507445
149	0x3d3c1a8f	0.045923766
150	0xbc95d5fd	-0.018290514
151	0xbde3bee2	-0.111203924
152	0x3e5429f8	0.20719135
153	0xbbf1888a	-0.007371013
154	0x3df17d1e	0.11791442
155	0xbca954ad	-0.02067026
156	0x3d14a76a	0.03629247
157	0xbd033d53	-0.032040905
158	0x3cc34cd2	0.023840342
159	0xbc5fe0a7	-0.013664401
160	0x3ed3e91d	0.4138879
161	0x3d8abc47	0.06774192
162	0x3d77145c	0.06032215
163	0x3d466d21	0.048443917

model.layers.4.weight f4 [2, 164]
0	0xbccd378c	-0.0250509
1	0xbde701e2	-0.11279656
2	0xbb55385f	-0.003253482
3	0x3b9b581c	0.004740728
4	0x3c727566	0.014798498
5	0x3cad91df	0.02118772
6	0x3d184a72	0.03718037
7	0xbba255d8	-0.004954081
8	0x3c8b4899	0.01700239
9	0x3bf559a0	0.007487491
10	0xbd6913fa	-0.056903817
11	0x3cad6029	0.021164017
12	0x3d3ad34c	0.045611665
13	0x3d5f9d91	0.054593626
14	0x3bd91c16	0.0066256626
15	0xbc5c2bed	-0.013438207
16	0xbd8a65ba	-0.06757684
17	0xbc003dd3	-0.00782724
18	0xbc283e33	-0.010268736
19	0x3cb868c8	0.022510901
20	0x3d29eb8f	0.04148441
21	0x3d8f0697	0.06983679
22	0x3c713e91	0.01472439
23	0x3d4eaea3	0.050459515
24	0xbc42161d	-0.0118460925
25	0x3cb9ccef	0.022680728
26	0x3ba2c1ce	0.004966951
27	0x3ad7b6ac	0.0016457639
28	0xbd851035	-0.06497232
29	0x3d11166a	0.035421766
30	0xbd0c8460	-0.03430593
31	0x3d11727a	0.035509564
32	0x3dfa7eac	0.12231192
33	0xbd0f2b8d	-0.034953643
34	0xbc45c0b6	-0.012069872
35	0xbcb4adc8	-0.022055522
36	0xbcbc124c	-0.022957943
37	0xbd719592	-0.058980532
38	0x3abf37da	0.0014588789
39	0xbcd59814	-0.026073493
40	0xbabefd4a	-0.0014571336
41	0x3c465846	0.012106007
42	0xbd29716c	-0.041367933
43	0x3cebecd2	0.028799448
44	0x3c968ba1	0.018377127
45	0xbd4df62b	-0.050283592
46	0xbca6791f	-0.020321427
47	0xbb97d5d9	-0.004633647
48	0xbc979c6f	-0.01850721
49	0xbb489cc6	-0.0030611022
50	0xbc6b810d	-0.01437403
51	0x3d974445	0.07386068
52	0xbc5b1d62	-0.013373705
53	0x3d253ba3	0.040340077
54	0xbce55bbe	-0.027997848
55	0xbc9013e6	-0.017587613
56	0xbd25dff1	-0.04049677
57	0x3caedb0e	0.021344688
58	0xbcfe3afb	-0.031033983
59	0xba377788	-0.00069987075
60	0x3cae9743	0.021312362
61	0x3d7ef9b0	0.06224984
62	0xbd65cfab	-0.05610625
63	0x3cb7ef94	0.022453107
64	0x3e3c6d8d	0.18401165
65	0xbcc18d46	-0.023626935
66	0xbb9826a8	-0.00464328
67	0x3cc8ad7b	0.024496784
68	0xbcb3ced5	-0.021949211
69	0x3e2328a7	0.15933476
70	0x3dfa25ed	0.12214265
71	0x3c22736a	0.009915212
72	0xbd6287cc	-0.055305287
73	0xbd3ff343	-0.04686285
74	0xbd164172	-0.036683507
75	0xbcb24207	-0.02176
76	0x3c206b4d	0.0097912075
77	0xbf70085b	-0.9376275
78	0xbd326c9b	-0.043560605
79	0x3d33e18c	0.04391627
80	0xbd3c703e	-0.04600548
81	0x3bd75472	0.006571346
82	0x3b37d2b3	0.002804917
83	0xbcd58ca6	-0.026068043
84	0xbcae20b2	-0.021255825
85	0xbbe15bc0	-0.0068773925
86	0x3c530235	0.012878944
87	0x3c0c2467	0.008553601
88	0x3a30f671	0.000675059
89	0x3c688080	0.014190793
90	0x3dcf71a3	0.10129096
91	0x3d3cf36a	0.046130575
92	0xbcd666fd	-0.026172156
93	0x3bbc7330	0.005751036
94	0x3c63fa37	0.013914636
95	0x3d1104b3	0.035404872
96	0x3d138efe	0.03602504
97	0x3d308656	0.043096863
98	0xb9a0fecc	-0.00030707417
99	0x3a9c7503	0.0011936728
100	0xbd9a5bd0	-0.07537043
101	0x3c7de785	0.015497093
102	0x3d32dd08	0.043667823
103	0xbca998b7	-0.020702703
104	0xbb127c3f	-0.0022351888
105	0x3d0a2f85	0.033736724
106	0x3d02fb2b	0.031977814
107	0x3c354cb6	0.011065653
108	0x3c0335f1	0.008008466
109	0xbc2b719d	-0.010464099
110	0xbd2fd1f3	-0.042924833
111	0xbc633bd6	-0.0138692465
112	0x3b4444c8	0.0029948223
113	0xbd80619c	-0.062686175
114	0xbad1b58a	-0.0015999537
115	0x3cb81222	0.022469584
116	0xbab64d38	-0.0013908511
117	0x3c1de59a	0.009637261
118	0x3a8665e3	0.0010253753
119	0xbd1787f7	-0.0369949
120	0x3d797652	0.060903855
121	0xbcc4edee	-0.024039235
122	0x3d525e8c	0.0513597
123	0x3bb248e7	0.0054408195
124	0xbcae2ac9	-0.021260636
125	0x3d542d84	0.05180122
126	0xbd5c2d93	-0.0537544
127	0xbb1b0b4c	-0.0023657857
128	0x3d01e6b7	0.031714167
129	0xbb2b389b	-0.0026126269
130	0xbd310ca4	-0.043224946
131	0xbc1e3ae1	-0.0096575925
132	0xbcd5c3c9	-0.026094334
133	0x3acd88a9	0.0015680987
134	0x3cc3b529	0.023890095
135	0x3d53b74a	0.05168847
136	0xbd216965	-0.039407153
137	0x3d3d9573	0.046285104
138	0xbb94e87e	-0.004544317
139	0xbc1ebdad	-0.009688777
140	0xbbed2309	-0.0072368425
141	0x3c365fd6	0.0111312475
142	0xbb185d08	-0.002324881
143	0x3cc06c7d	0.023489231
144	0xbceb97dc	-0.028758936
145	0xbce4413f	-0.027863143
146	0xbd8aacda	-0.0677125
147	0xbd13dd2b	-0.036099594
148	0xbb141e5f	-0.002260111
149	0xbd555e83	-0.052092087
150	0xbc119da2	-0.00888768
151	0xbc7f0820	-0.015565902
152	0x3d4d0f55	0.05006345
153	0xba92fbed	-0.0011213996
154	0x3d697886	0.056999706
155	0xbcaf5b0b	-0.021405717
156	0xbd59b09a	-0.053146936
157	0xbd201bcf	-0.03908902
158	0x3c064af4	0.008196581
159	0x3b9c97a3	0.0047788187
160	0x3ea1c9eb	0.31599364
161	0x3bffd234	0.0078070406
162	0x3d75253f	0.059849974
163	0x3c95f06d	0.01830312
164	0x3c9dfebf	0.019286511
165	0xbe2e7dba	-0.17040148
166	0xbd011a8a	-0.03151945
167	0x3b95bbc9	0.004569505
168	0xbdab183e	-0.08354233
169	0x3d14f680	0.036367893
170	0xbcc66324	-0.024217196
171	0xbc1097aa	-0.008825222
172	0xbd469fd7	-0.04849228
173	0x3cae5658	0.021281406
174	0x3d178065	0.03698768
175	0xbc5450b5	-0.012958695
176	0xbd42839a	-0.047488786
177	0xbd3e017e	-0.04638814
178	0x3c87407d	0.016510243
179	0xbd2cc8ca	-0.042183675
180	0xbcb6302c	-0.022239767
181	0x3d47f1f3	0.048814725
182	0x3bd82fc0	0.006597489
183	0xbd0b3e61	-0.033995036
184	0xba5c47eb	-0.00084030506
185	0x3c3445e5	0.011002992
186	0xbd36bf3b	-0.044615965
187	0x3c889e78	0.016677126
188	0x3aa4d049	0.0012574281
189	0x3ce82c84	0.02834154
190	0xbd0b18d6	-0.033959232
191	0x3b60eedb	0.0034322056
192	0x3cf6d685	0.030131588
193	0x3cea2930	0.028584093
194	0x3d61a852	0.055092163
195	0xbd5df107	-0.05418494
196	0x3cd3eb97	0.025869174
197	0x3cbfbb72	0.02340481
198	0x3d93ad28	0.07210761
199	0xbd20448e	-0.03912788
200	0xbb8e1efc	-0.0043371897
201	0x3d121d17	0.035672273
202	0xbb38e0b3	-0.0028210103
203	0xbd3567d5	-0.044288475
204	0x3b1ac1ab	0.002361397
205	0xbc8fdcac	-0.01756128
206	0xbbc91cb7	-0.0061374563
207	0xbca52839	-0.020160781
208	0xbcae1ac7	-0.021253003
209	0xbbeeb74c	-0.0072850343
210	0xbbd9d115	-0.006647239
211	0xbc5df8ee	-0.013548119
212	0xbbbdc497	-0.0057912576
213	0xbc9d96e9	-0.019236999
214	0xbc455401	-0.012043954
215	0xbc0eb3a7	-0.008709825
216	0xbc064a2e	-0.008196397
217	0x3d96b5bc	0.07358882
218	0x3d8a5236	0.06753962
219	0x3c5ccd51	0.013476686
220	0xbd6d9211	-0.058000628
221	0xbe03e007	-0.12878428
222	0xbbaaf735	-0.0052174577
223	0xbd400f79	-0.046889756
224	0x3cb2acb5	0.021810869
225	0xbd46a187	-0.04849389
226	0x3ca9d5ab	0.020731768
227	0x3d1393ea	0.036029734
228	0x3e83f46f	0.25772426
229	0x3d19475f	0.03742158
230	0xbb0e1a95	-0.0021683325
231	0x3ca59d59	0.02021663
232	0xbd00b4fd	-0.031422604
233	0xbdf18567	-0.117930226
234	0xbe02401e	-0.12719771
235	0x3c8c5a10	0.017132789
236	0x3d822d4f	0.06356298
237	0x3c8e975e	0.017406162
238	0x3d80aa12	0.06282438
239	0x3d8edfee	0.06976305
240	0x3ae1da3b	0.0017231175
241	0x3e817c18	0.2528999
242	0xbd34491f	-0.044015046
243	0xbd4a4fe0	-0.04939258
244	0x3d8dcce9	0.06923849
245	0x3b26368a	0.0025362098
246	0x3d1fa526	0.038975857
247	0x3c8d7b66	0.017270755
248	0xbc9d7360	-0.019220054
249	0x3c25a58e	0.010110272
250	0xbd87ac1d	-0.06624625
251	0xbbea14f0	-0.007143609
252	0x3b360407	0.0027773397
253	0x3c99d133	0.018776512
254	0xbdeb49e7	-0.11488705
255	0x3c2edef3	0.010673272

model.layers.4.bias f4 [2]
0	0x3bd90ecc	0.0066240784
1	0x3c55c6bc	0.01304787

exp_avg f4 [164, 3]
0	0x3b38fda6	0.0028227358
1	0x3ad337aa	0.0016114612
2	0xbab19e9a	-0.0013551295
3	0xba2ac1d4	-0.0006513868
4	0xb9fee209	-0.00048615065
5	0x395793bd	0.00020559035
6	0xba144a57	-0.00056568295
7	0x39889cb9	0.0002605671
8	0xb99519ac	-0.00028438622
9	0xb9c8c515	-0.0003829381
10	0x3955d8e3	0.0002039406
11	0xb8bf3932	-9.118243e-05
12	0xb993acd9	-0.00028166806
13	0x3a100ac1	0.00054947665
14	0xb985a894	-0.00025493337
15	0x3b314bc3	0.0027053214
16	0x3c437a15	0.011930962
17	0xbb3fe7b2	-0.0029282388
18	0x39a40638	0.0003128515
19	0xb98c2d25	-0.00026736516
20	0xb72a5913	-1.0153529e-05
21	0x3b11c68f	0.0022243594
22	0x3a0b8498	0.0005322187
23	0xbab8fee8	-0.0014114054
24	0xb9fd4014	-0.00048303662
25	0x3a54a63a	0.0008111928
26	0xb9e5ce6e	-0.00043832086
27	0x39a977ae	0.0003232336
28	0xb9b3f6c4	-0.00034325395
29	0xb85bbae4	-5.2387724e-05
30	0xba0d9851	-0.000540142
31	0x3a04ad94	0.00050612655
32	0x3a230656	0.00062189007
33	0xb9117c7d	-0.00013874653
34	0xb9c8525e	-0.0003820834
35	0x3a18d403	0.0005829932
36	0xbb5ec37e	-0.0033991034
37	0xb98a12a2	-0.00026335294
38	0x39b363ee	0.00034215994
39	0x361cf200	2.3386674e-06
40	0xba5dee4c	-0.000846599
41	0x3a11c262	0.00055602763
42	0x3a5f4858	0.0008517555
43	0xb74af240	-1.20965415e-05
44	0x3a2ad2f5	0.00065164204
45	0xba89b1c5	-0.001050525
46	0x3a2f4401	0.00066858536
47	0x393b142f	0.00017841229
48	0xba28ef14	-0.0006444317
49	0xba2c7931	-0.0006579338
50	0xb99fdb70	-0.00030490337
51	0xbaca94d8	-0.0015455736
52	0xba81e1b2	-0.0009909181
53	0x39ba4536	0.0003552825
54	0x3ab561d2	0.0013838357
55	0x3b3e3635	0.002902401
56	0xb9a33bb8	-0.00031134277
57	0x39fcd3a4	0.0004822287
58	0xba015a5c	-0.0004934424
59	0xb6901a00	-4.294561e-06
60	0x39952ff0	0.0002845521
61	0x3abe6427	0.0014525697
62	0xba1c7764	-0.00059687183
63	0xb979b926	-0.00023815464
64	0x392a2fb9	0.00016230241
65	0x3a09d026	0.0005257152
66	0x3a98002b	0.001159673
67	0x39215f84	0.00015389739
68	0xb97836ce	-0.0002367154
69	0x3a8c68f2	0.0010712428
70	0x3aa1ab7e	0.0012334434
71	0x39ee55a1	0.00045458696
72	0xbac8228c	-0.0015269085
73	0x3a63c9a1	0.0008689408
74	0xb9244f9e	-0.00015669919
75	0x38dfd14a	0.00010672452
76	0xba2f19c5	-0.000667956
77	0xb9b8a9cf	-0.00035221732
78	0x3c0acc8b	0.008471618
79	0x3aa3439e	0.0012456065
80	0x3b2d1bb7	0.0026414224
81	0x3afa949f	0.0019117779
82	0x3a7c242a	0.0009618426
83	0xbab6e6b7	-0.0013954256
84	0x3a6e6184	0.00090935105
85	0x3abe5a17	0.0014522698
86	0xba7a9f22	-0.0009560456
87	0x39e67d0a	0.0004396218
88	0xbad3bb24	-0.0016153795
89	0x39d85ccd	0.00041267872
90	0x3aa16fe0	0.0012316667
91	0x3a90741c	0.0011020931
92	0xb951b4e7	-0.00019999185
93	0xbb18cc0d	-0.0023314983
94	0xba9638ec	-0.0011461056
95	0x3a35dd82	0.0006937609
96	0x3b743461	0.0037262666
97	0xbb46a842	-0.0030312692
98	0xbaac4750	-0.0013143811
99	0x3aa12c86	0.0012296594
100	0xba9039ae	-0.0011003518
101	0x3a4950e2	0.0007679594
102	0xbb2d5b20	-0.002645202
103	0x39d0eae5	0.00039847862
104	0xba39f044	-0.00070929923
105	0x3af364ab	0.001856943
106	0x3ad2f9e2	0.0016096199
107	0xb9b6d252	-0.00034870446
108	0x3a8c2a29	0.0010693717
109	0x3abe8330	0.0014534947
110	0xb9ea3bfa	-0.00044676644
111	0xba89d4fc	-0.0010515745
112	0x3a838f72	0.0010037257
113	0xb94bb534	-0.00019427092
114	0x3a0c9f44	0.00053643086
115	0x3a7062fc	0.0009170023
116	0x38a8a860	8.0422265e-05
117	0xbbacfcc9	-0.005279158
118	0xbb403679	-0.0029329343
119	0x3b0f29e8	0.0021845046
120	0xb8f6bbee	-0.00011765199
121	0x3709ffb0	8.225368e-06
122	0xba1e565e	-0.00060400914
123	0x39dd9822	0.00042265753
124	0xba3df822	-0.00072467525
125	0xb95c03b2	-0.00020982212
126	0x39e7b71b	0.00044196178
127	0x3a023805	0.0004967454
128	0x395cb07f	0.00021046585
129	0xb9d73062	-0.00041044044
130	0xbafce9dd	-0.0019295771
131	0x39c23705	0.00037043556
132	0x39a1c4c6	0.0003085492
133	0xba0846a2	-0.00051985134
134	0x38bf422e	9.119917e-05
135	0xba4beb82	-0.0007778929
136	0xba78e35c	-0.00094943284
137	0x3a004765	0.0004893451
138	0xb8676130	-5.5165205e-05
139	0xba99754e	-0.0011707933
140	0x3a4fd0e0	0.0007927548
141	0xb9fda5b1	-0.0004837937
142	0x39f7a72e	0.0004723607
143	0x386f7440	5.7090307e-05
144	0x377500b4	1.4603302e-05
145	0x3a474069	0.00076008454
146	0x389b178c	7.395362e-05
147	0x3b1ef4e8	0.0024254862
148	0x3b385df0	0.0028132163
149	0xb9f15a3d	-0.00046034335
150	0x3b5f24de	0.0034049074
151	0x3b3550c1	0.0027666541
152	0xba8ab95b	-0.0010583805
153	0x37d80d94	2.575553e-05
154	0xba338b54	-0.00068490696
155	0xb99555e8	-0.000284835
156	0xbab45b94	-0.0013760203
157	0xbb42501c	-0.00296498
158	0x39c1b406	0.00036945957
159	0x38694ab0	5.5621087e-05
160	0xbab873a2	-0.0014072547
161	0x3a5b9a5d	0.0008377189
162	0xbad53322	-0.0016265849
163	0xb78bdf2a	-1.667401e-05
164	0x3a3711de	0.00069835584
165	0xb969341f	-0.00022240028
166	0x39983843	0.00029033617
167	0x3976d8aa	0.00023541102
168	0xb7498460	-1.2011355e-05
169	0x3a54dcfe	0.00081200886
170	0xb9af3077	-0.0003341471
171	0x3b4cde55	0.003126045
172	0x3b02c4bc	0.0019953689
173	0xb8bb1610	-8.920964e-05
174	0x39ba9016	0.00035584037
175	0x3a1ff689	0.0006102105
176	0xb981ee1d	-0.00024782206
177	0x399d2c38	0.0002997832
178	0x3a6a86b0	0.00089464616
179	0x3a01c972	0.0004950977
180	0xbb120a86	-0.0022284104
181	0xba54a0f7	-0.0008111144
182	0x3acb98a8	0.0015533166
183	0x3ae0fbe6	0.0017164915
184	0x3aadc4c4	0.0013257493
185	0xb78388b8	-1.5680082e-05
186	0xba42e99a	-0.0007435322
187	0xb9f031d8	-0.00045813504
188	0x3a02baed	0.00049869606
189	0x388f8f40	6.845454e-05
190	0xb98fb6be	-0.0002741124
191	0xb97282c6	-0.00023127635
192	0xba8aa871	-0.0010578764
193	0xb9388593	-0.00017597368
194	0xba0103c0	-0.0004921518
195	0x3a2434e2	0.00062639837
196	0xba0b6648	-0.00053176703
197	0xb8649d1f	-5.4505766e-05
198	0x39fa2f28	0.0004771885
199	0x3adf11a9	0.0017018813
200	0xb9c2f131	-0.00037182265
201	0x3ab8da5b	0.0014103161
202	0x39a5cd2c	0.00031624117
203	0xb69c1fc0	-4.6528585e-06
204	0x3ac26caf	0.0014833416
205	0x3a9a9d78	0.0011796197
206	0xba054c9d	-0.00050849636
207	0x3a2c79d1	0.00065794314
208	0xba2b514c	-0.00065352465
209	0xba6526f7	-0.0008741463
210	0xba07c20b	-0.0005178756
211	0x394da4a9	0.00019611664
212	0xb9ad74ba	-0.000330841
213	0x3ae315ec	0.0017325259
214	0x3b011b22	0.001970001
215	0xb9490a78	-0.00019172754
216	0xb9b4c61c	-0.00034479878
217	0xbacf0c42	-0.00157965
218	0xba8b775b	-0.0010640429
219	0xbad4cf7b	-0.001623615
220	0xbaaa75f9	-0.0013005129
221	0xb96be839	-0.00022497856
222	0xb9fe1e28	-0.00048469123
223	0xbac0808f	-0.0014686751
224	0x385c3bfc	5.2507952e-05
225	0xba99c831	-0.0011732635
226	0x3a8c6bef	0.0010713319
227	0xb9ff8491	-0.0004873616
228	0x3ae43faa	0.0017413993
229	0x381eba60	3.784371e-05
230	0xb9f9aaf8	-0.00047620363
231	0xba93c78e	-0.0011274682
232	0x3a027549	0.00049765833
233	0xb9a5606f	-0.000315431
234	0xbb1a194b	-0.002351361
235	0xbb52f888	-0.0032191593
236	0xb990ebb2	-0.00027641427
237	0xba391986	-0.0007060993
238	0xbaa33616	-0.0012452032
239	0xb9d091a6	-0.00039781368
240	0xb94ccee4	-0.00019532029
241	0xb9f51a8c	-0.0004674982
242	0xb93b0b00	-0.00017837808
243	0xbaa07641	-0.0012242274
244	0xbac592fc	-0.0015073712
245	0x3583ea00	9.828364e-07
246	0x3a4b4291	0.00077537546
247	0x3ad2a6ae	0.0016071403
248	0xb9b4a827	-0.0003445756
249	0x3a00877b	0.00049030007
250	0xba3e3504	-0.0007255825
251	0x39582a6c	0.00020615169
252	0xbad98704	-0.0016596024
253	0xbab43d38	-0.0013751155
254	0x39e1a908	0.00043041282
255	0x3a2e275b	0.00066434377

exp_avg_sq f4 [164, 3]
0	0x3930b12c	0.0001685067
1	0x38eff672	0.00011442312
2	0x389a628b	7.361647e-05
3	0x379877e6	1.8175644e-05
4	0x3871c555	5.7642657e-05
5	0x3718d140	9.108626e-06
6	0x384467cf	4.682672e-05
7	0x385d69f3	5.278918e-05
8	0x380ef904	3.4087352e-05
9	0x382baac5	4.092862e-05
10	0x388da251	6.753638e-05
11	0x37b7b197	2.1897997e-05
12	0x388bcda4	6.66634e-05
13	0x3803dab4	3.1436517e-05
14	0x37cc3a25	2.434577e-05
15	0x3c0dfe4a	0.008666584
16	0x3c06fd90	0.008239165
17	0x3b6f3ab1	0.0036503489
18	0x3852ba4e	5.024141e-05
19	0x386bffc5	5.626657e-05
20	0x384557f4	4.7050373e-05
21	0x38a0d055	7.6681994e-05
22	0x3931c1c1	0.00016952214
23	0x3893bd71	7.0447924e-05
24	0x38134e23	3.51203e-05
25	0x3911e503	0.00013913591
26	0x38042f98	3.1515578e-05
27	0x38656cf2	5.4699318e-05
28	0x382d82a3	4.136808e-05
29	0x37fecc63	3.0374335e-05
30	0x38041f46	3.1500378e-05
31	0x38bebdc7	9.095255e-05
32	0x37e94e01	2.7812088e-05
33	0x37f28289	2.8909433e-05
34	0x38c42f76	9.3548486e-05
35	0x380caa3b	3.353714e-05
36	0x38f77635	0.000117998956
37	0x3a105deb	0.0005507159
38	0x38e4a857	0.00010903243
39	0x382c9802	4.1149564e-05
40	0x383058e7	4.2044467e-05
41	0x37bb052c	2.2294545e-05
42	0x383a565f	4.4426295e-05
43	0x38128a3b	3.493785e-05
44	0x37ec4068	2.8163384e-05
45	0x37f8f526	2.967806e-05
46	0x38b033ec	8.402005e-05
47	0x37c25468	2.3165907e-05
48	0x3895e3d7	7.147312e-05
49	0x38a13db0	7.6885684e-05
50	0x384e215f	4.9145307e-05
51	0x38824c28	6.213068e-05
52	0x37c60ecf	2.3610335e-05
53	0x3830a6c1	4.211697e-05
54	0x39392e61	0.00017660252
55	0x3936b768	0.00017425197
56	0x391b3057	0.0001479996
57	0x385a42b8	5.2037387e-05
58	0x38396a0f	4.4206212e-05
59	0x379aff03	1.847698e-05
60	0x389b4875	7.404472e-05
61	0x396806e6	0.00022127814
62	0x38a6f396	7.960868e-05
63	0x38cb2282	9.686222e-05
64	0x381c6387	3.728599e-05
65	0x38364188	4.3453212e-05
66	0x37b65f6a	2.1740521e-05
67	0x37db85e7	2.6169188e-05
68	0x3760102d	1.3355207e-05
69	0x38943de7	7.06872e-05
70	0x38d4580f	0.0001012535
71	0x3884b030	6.327068e-05
72	0x38802058	6.10954e-05
73	0x392937e4	0.00016137917
74	0x37ea0c2f	2.7900647e-05
75	0x3825d8fd	3.954115e-05
76	0x388887aa	6.510255e-05
77	0x384cb73a	4.8808033e-05
78	0x3a716cee	0.0009209652
79	0x38ceab14	9.854711e-05
80	0x38e1a31a	0.00010759216
81	0x384df122	4.910038e-05
82	0x382faa54	4.188188e-05
83	0x380d38a6	3.3669778e-05
84	0x3871604b	5.7548557e-05
85	0x38875ef2	6.4549866e-05
86	0x383ee0ba	4.5508823e-05
87	0x38ac5740	8.217851e-05
88	0x38949960	7.085758e-05
89	0x384440a5	4.6790246e-05
90	0x398cd705	0.00026863083
91	0x39a39472	0.00031200383
92	0x38def774	0.00010631877
93	0x384b5403	4.8477214e-05
94	0x38c0db9c	9.196179e-05
95	0x381702a1	3.6003654e-05
96	0x3b898cfa	0.004197714
97	0x3b00a0b3	0.0019627034
98	0x3aaea6be	0.001332484
99	0x390458c0	0.00012621563
100	0x397d47e5	0.00024154743
101	0x38e2d275	0.000108157205
102	0x38abbd26	8.189147e-05
103	0x38078dd2	3.231859e-05
104	0x378d1691	1.6819018e-05
105	0x38c149c0	9.216694e-05
106	0x3879c0e8	5.9545884e-05
107	0x384332f8	4.653909e-05
108	0x393766ae	0.00017490491
109	0x386835ee	5.5363336e-05
110	0x3833cf71	4.287012e-05
111	0x39c9b40e	0.0003847186
112	0x39b79041	0.00035011958
113	0x39810e9b	0.0002461568
114	0x3822fa1a	3.8856735e-05
115	0x3908aeb1	0.00013035048
116	0x384d7e45	4.8993406e-05
117	0x398c4b4e	0.00026758987
118	0x394d2bcc	0.00019566639
119	0x38e131db	0.000107381224
120	0x38c9bb28	9.6192874e-05
121	0x384e2bfc	4.915519e-05
122	0x37dd906e	2.6412508e-05
123	0x3884b721	6.328361e-05
124	0x390cdc09	0.0001343341
125	0x3851cf50	5.0022558e-05
126	0x389b9286	7.418268e-05
127	0x3805b286	3.1875934e-05
128	0x37d10c89	2.4920579e-05
129	0x39813091	0.00024640982
130	0x3880481e	6.1169485e-05
131	0x3884a9f4	6.325907e-05
132	0x374046ca	1.1460574e-05
133	0x37ddd718	2.6445414e-05
134	0x3651c9ef	3.1260968e-06
135	0x3790a0e9	1.7241067e-05
136	0x37d026b4	2.4813555e-05
137	0x3783b0e4	1.5698788e-05
138	0x390ea350	0.00013603014
139	0x38f25fa4	0.00011557274
140	0x388f568b	6.834891e-05
141	0x38af7f39	8.368347e-05
142	0x398fc34c	0.00027420593
143	0x38cc9076	9.754386e-05
144	0x38ab8234	8.1781676e-05
145	0x38ff7395	0.000121808764
146	0x3831a7bc	4.2356303e-05
147	0x3919d43f	0.00014670285
148	0x39394c56	0.00017671412
149	0x390d0183	0.00013447371
150	0x39dbb31d	0.00041904385
151	0x39951eb2	0.00028442364
152	0x390d8427	0.00013496038
153	0x3787bfec	1.6182625e-05
154	0x376b4975	1.4024195e-05
155	0x3694ee41	4.43848e-06
156	0x39bf1fb6	0.00036453985
157	0x395179bf	0.00019977147
158	0x38f1ea37	0.000115354014
159	0x3851a8fd	4.9986866e-05
160	0x38a99c3c	8.087649e-05
161	0x37d4565f	2.5312589e-05
162	0x37db4414	2.6138536e-05
163	0x381dd2a5	3.7627895e-05
164	0x37c96c5f	2.4011531e-05
165	0x37daaf5b	2.6069281e-05
166	0x38047fbe	3.159022e-05
167	0x37728009	1.44541345e-05
168	0x37de2e48	2.6486014e-05
169	0x38e00b06	0.000106832056
170	0x38004afa	3.0587405e-05
171	0x3a429efa	0.0007424202
172	0x3a55102f	0.0008127717
173	0x39baa61d	0.0003560045
174	0x38c66147	9.459495e-05
175	0x3870ab11	5.7379777e-05
176	0x380d3127	3.3662796e-05
177	0x37edb8a4	2.8338582e-05
178	0x3890eded	6.910772e-05
179	0x383effd4	4.553779e-05
180	0x385b8ab5	5.234285e-05
181	0x3824ffed	3.9338996e-05
182	0x37ed5c01	2.8295444e-05
183	0x3873b6c3	5.8105925e-05
184	0x390b21ba	0.00013268637
185	0x3849720f	4.802836e-05
186	0x39095b55	0.00013099362
187	0x38e34fe6	0.00010839086
188	0x38b6074a	8.679794e-05
189	0x37c9b157	2.4043647e-05
190	0x3830f4c8	4.218964e-05
191	0x378f1603	1.7057178e-05
192	0x37db7799	2.6162526e-05
193	0x37894bbc	1.636694e-05
194	0x37394c65	1.1044646e-05
195	0x376d1d06	1.4133058e-05
196	0x38236de3	3.896457e-05
197	0x3757b474	1.2857014e-05
198	0x39627035	0.0002159484
199	0x38d6b623	0.00010238241
200	0x3885a0e3	6.371902e-05
201	0x3826317a	3.9623563e-05
202	0x38229853	3.8765673e-05
203	0x37a08bc1	1.9138564e-05
204	0x389e4b58	7.548061e-05
205	0x38a451db	7.835376e-05
206	0x380d2410	3.3650605e-05
207	0x392ef6aa	0.00016685823
208	0x3a0540c2	0.0005083197
209	0x38edc61f	0.000113379436
210	0x383bbf3d	4.476238e-05
211	0x381d9239	3.7567897e-05
212	0x37c9f8ef	2.4076986e-05
213	0x3944a56d	0.00018753643
214	0x3920f2e2	0.0001534927
215	0x38f80363	0.00011826192
216	0x38c6033f	9.4419804e-05
217	0x39197b25	0.00014637092
218	0x389129f0	6.92195e-05
219	0x391da166	0.00015032812
220	0x389088f7	6.891967e-05
221	0x38bf353d	9.117506e-05
222	0x380c98c0	3.352086e-05
223	0x37e8c2ba	2.7747232e-05
224	0x3773eee6	1.4539552e-05
225	0x391a73cf	0.00014729727
226	0x38be3559	9.069843e-05
227	0x388842eb	6.49745e-05
228	0x3964401b	0.00021767656
229	0x38cd3768	9.785482e-05
230	0x38c629c1	9.449153e-05
231	0x37d8cade	2.5843674e-05
232	0x385797fd	5.1401545e-05
233	0x37c005a7	2.2890816e-05
234	0x396b87ea	0.00022461978
235	0x39596aed	0.00020734566
236	0x38e10002	0.000107288375
237	0x38011fc8	3.0785595e-05
238	0x38a29903	7.7532626e-05
239	0x37db275f	2.6125168e-05
240	0x38001b56	3.0543037e-05
241	0x37ad4184	2.0653715e-05
242	0x3747f6c0	1.1918775e-05
243	0x394639c7	0.00018904275
244	0x38135466	3.5126133e-05
245	0x388fc3b0	6.855221e-05
246	0x38ae6276	8.315306e-05
247	0x37d17538	2.4969326e-05
248	0x37e59980	2.7370406e-05
249	0x3846e1fc	4.7417343e-05
250	0x387bce9f	6.0035494e-05
251	0x3810260f	3.436772e-05
252	0x38cf4516	9.8833974e-05
253	0x386ac36e	5.5971956e-05
254	0x388233e2	6.208547e-05
255	0x3843de96	4.6698922e-05

exp_avg f4 [164]
0	0xb9bdf7c2	-0.00036233483
1	0x38e3f74f	0.00010870268
2	0x385e65dd	5.3023792e-05
3	0xb8337b2b	-4.2791635e-05
4	0xb7c863fa	-2.3888413e-05
5	0xb9390a78	-0.00017646875
6	0x373428d9	1.0738347e-05
7	0xb9ae0155	-0.0003318886
8	0xb69a4320	-4.597372e-06
9	0xb7afb684	-2.0946616e-05
10	0x387922b5	5.939855e-05
11	0x38367a83	4.350628e-05
12	0x38f35fd6	0.00011604994
13	0x383fc1c1	4.5718396e-05
14	0x392640df	0.0001585516
15	0x3884eb0b	6.338031e-05
16	0xb92d571e	-0.0001653102
17	0x3914bda1	0.00014185022
18	0xb91a92df	-0.00014741298
19	0xb7263342	-9.906305e-06
20	0xb8a9f3a2	-8.103928e-05
21	0x39191bd6	0.00014601587
22	0xb8648480	-5.4482836e-05
23	0xb5ab0b20	-1.2743731e-06
24	0xb89d4138	-7.498491e-05
25	0xb7801b10	-1.5271391e-05
26	0x39db311d	0.00041807527
27	0xb99d0365	-0.00029947903
28	0xb9404d14	-0.0001833926
29	0x36e8b044	6.934659e-06
30	0xb91c292f	-0.00014892661
31	0x390e4915	0.000135694
32	0xba84deb1	-0.0010137168
33	0x38df252e	0.00010640394
34	0xb8d095d4	-9.9461206e-05
35	0xb9209144	-0.00015312905
36	0xb895c8cc	-7.142275e-05
37	0x386df86e	5.673657e-05
38	0x38905f14	6.884165e-05
39	0x3a023938	0.00049676327
40	0xb88f59db	-6.835508e-05
41	0xb8ce3236	-9.832198e-05
42	0x38307c29	4.2077303e-05
43	0x3798a810	1.8198072e-05
44	0xb7d54add	-2.542644e-05
45	0x38f8850e	0.00011850345
46	0x390e0fad	0.00013548015
47	0x38974c92	7.2145034e-05
48	0xb7f78f24	-2.951135e-05
49	0xb98e6960	-0.0002716286
50	0xb9bd0606	-0.00036053377
51	0xb83bd206	-4.4779874e-05
52	0x38430232	4.6493667e-05
53	0x38e68404	0.000109918445
54	0x3949a238	0.00019229285
55	0x388396d2	6.274659e-05
56	0xb71b7f21	-9.268319e-06
57	0xb9d0b05e	-0.00039804255
58	0x37c7aaba	2.380215e-05
59	0x381e87c9	3.7796595e-05
60	0x39c3c0ad	0.00037336853
61	0xb8c8e794	-9.579878e-05
62	0x39072e18	0.00012891775
63	0xb7a682a5	-1.9849578e-05
64	0xb85eb867	-5.3100663e-05
65	0x35925e40	1.0905278e-06
66	0xb7d04928	-2.4829598e-05
67	0x383f3374	4.5585868e-05
68	0xb921adaa	-0.00015418851
69	0xb950abde	-0.00019900451
70	0xb8a0f244	-7.67452e-05
71	0xb934e313	-0.0001725073
72	0xb9032198	-0.00012505648
73	0x38a6ea2f	7.959117e-05
74	0xb7e1fd50	-2.6940048e-05
75	0xb74f73e0	-1.2365141e-05
76	0xb9a8a74e	-0.0003216811
77	0x387246f8	5.776339e-05
78	0x3843de58	4.6698697e-05
79	0xb78fbc88	-1.713472e-05
80	0xb79c3d60	-1.862523e-05
81	0x3625d140	2.4708716e-06
82	0xb8ccd30a	-9.766787e-05
83	0x37adcc18	2.0718246e-05
84	0x394007e2	0.00018313483
85	0x382d479f	4.1313117e-05
86	0x37c1f7ce	2.3122786e-05
87	0x38a91299	8.062012e-05
88	0xb6ca7760	-6.033966e-06
89	0xb7979e16	-1.8074217e-05
90	0x38d1cfaa	0.00010004577
91	0xb86ee8a3	-5.696028e-05
92	0x39213d5c	0.00015377015
93	0x388227f3	6.206324e-05
94	0x39d731bc	0.0004104505
95	0x385150e4	4.990482e-05
96	0x36ad9cd5	5.1740594e-06
97	0x3ae3aa0a	0.0017369401
98	0x39e990c6	0.00044549088
99	0x391a3239	0.00014705294
100	0xb8cf9616	-9.898485e-05
101	0xb80bd4fc	-3.333854e-05
102	0xb8d5d32b	-0.000101959646
103	0xb7a742ba	-1.9939023e-05
104	0xb93ff11c	-0.00018305
105	0x3711d7a0	8.692878e-06
106	0xb91c0cdb	-0.00014882108
107	0xb9a53d48	-0.0003151691
108	0xb94f81a6	-0.00019789356
109	0x371544a7	8.897076e-06
110	0xb8ee090c	-0.000113504095
111	0xb8b53d18	-8.642132e-05
112	0xb743ebe0	-1.1677825e-05
113	0x3797eb47	1.8110162e-05
114	0xb855393d	-5.0836465e-05
115	0x38767c1a	5.876655e-05
116	0x38a1be34	7.712506e-05
117	0x38d46e8e	0.0001012954
118	0x37b77178	2.1868138e-05
119	0xb85e6f84	-5.303278e-05
120	0x36a93450	5.0426825e-06
121	0xb7da3f96	-2.6017235e-05
122	0x38a3caeb	7.810242e-05
123	0xb87f6a14	-6.089553e-05
124	0x381b1fe8	3.6984595e-05
125	0x36991af0	4.5628913e-06
126	0x38e86d76	0.00011083011
127	0x3969935b	0.00022275506
128	0x381dfa7e	3.7665006e-05
129	0xb700ada6	-7.669825e-06
130	0x392e8b37	0.00016645795
131	0x395ec13e	0.00021243558
132	0x3806fd75	3.218414e-05
133	0x39a2c49c	0.00031045533
134	0xb77e6088	-1.5162055e-05
135	0x39eced66	0.00045190303
136	0x38bc2756	8.9718655e-05
137	0x38450bfb	4.6979618e-05
138	0x363ea9c0	2.8411014e-06
139	0x37b11cbc	2.1113425e-05
140	0xb7d49286	-2.53406e-05
141	0xb990cf59	-0.00027620306
142	0x371c82b8	9.32876e-06
143	0xb81e24d9	-3.7704453e-05
144	0x3973a437	0.0002323546
145	0x389929a2	7.303363e-05
146	0xb920bac4	-0.00015328365
147	0x386c5146	5.6342476e-05
148	0xb7d4d6e4	-2.5372436e-05
149	0xb9246302	-0.00015677142
150	0xb994eb0e	-0.0002840389
151	0x383bbffa	4.4763066e-05
152	0x38c34068	9.310321e-05
153	0xb8838bd7	-6.272614e-05
154	0x396282e8	0.00021601806
155	0xb81d3562	-3.7481434e-05
156	0xb8423e8e	-4.6311463e-05
157	0x385f65d6	5.3262185e-05
158	0x38434eaa	4.6564885e-05
159	0x38d53f57	0.000101684294
160	0xb782ce94	-1.5593403e-05
161	0x3940de69	0.00018393401
162	0xb76a30be	-1.3958836e-05
163	0x38264da8	3.9649807e-05
