docs/smld/lightning_logs/version_104/checkpoints/epoch=49-step=4900.ckpt (torch, 345995 bytes, 18 tensors)

model.layers.0.weight f4 [164, 3]
0.26517925 -0.05557815 -0.20819688 -0.17852323 -0.16720599 -0.48287764 0.29597208 -0.2674764
-0.06604161 0.4009462 -0.17168663 -0.3809538 -0.23097825 -0.51375955 -0.5917835 -0.07140241
0.41178504 0.41234455 -0.40022862 -0.21137786 -0.6261064 0.4865173 0.39591253 -0.5687596
0.18361153 -0.24570782 0.36898977 0.29929283 -0.33526412 0.43746525 0.041045852 0.2999195
-0.54041725 0.269356 -0.5257872 -0.17093922 -0.15812476 -0.46334964 -0.07424276 0.24120966
-0.033010792 0.4528096 -0.27100176 0.20888254 -0.30059382 0.3863176 0.4789125 0.30118808
-0.4390621 0.025853911 0.24479778 0.19236778 -0.1860037 0.3750755 -0.16645247 0.19793485
0.008051051 -0.06803918 0.30173597 -0.63442814 0.21661289 -0.3980513 -0.25983092 -0.53551644
-0.21285379 0.13747746 0.21973115 -0.51284724 -0.3654775 0.2891799 -0.30810112 0.43274218
-0.16942732 0.14962555 -0.28276318 -0.08676316 0.07227461 0.011763785 -0.017177843 0.19104306
0.42329416 0.2130077 0.14300486 -0.016314782 0.15687895 -0.46870968 -0.33335674 0.37245452
0.30447447 0.028605016 0.36600295 0.5096442 0.27330646 -0.058769178 -0.28016692 0.205968
-0.25514558 -0.051923443 0.38389206 0.059328962 0.34096885 -0.37781924 -0.09041341 0.40401736
-0.31233737 -0.38074195 -0.12364127 -0.3722864 -0.5101071 0.31336716 -0.07884107 0.27479315
-0.0761551 -0.24510257 0.14076129 0.38796622 0.34017697 0.087658785 -0.21659848 0.07782121
0.055374343 -0.4934123 0.36524197 -0.013845731 -0.4302902 -0.011260614 0.2715211 -0.45387682
-0.14089233 0.292571 0.38099948 -0.5218236 -0.18553025 -0.18347614 0.17267185 0.36924043
0.085738204 -0.18597741 -0.026268192 0.012017604 0.27987847 0.32387862 -0.36306772 -0.20807545
-0.4371231 -0.40470287 -0.40497515 0.26280284 -0.13355455 -0.44592884 -0.45646352 0.0013097788
0.14692052 -0.1156455 0.11054963 0.07479818 0.036815744 -0.15717235 0.3332674 0.5043455
-0.54121774 0.018216323 0.32329413 0.19366184 -0.40731353 -0.49443296 0.17520267 -0.19010627
0.13010824 -0.09904465 0.26395443 0.31669798 0.2671604 0.36546206 0.065584324 -0.10776498
-0.34772238 -0.26378536 0.08317672 0.5318856 0.5096134 0.19534254 0.34479505 -0.040197913
0.021293871 0.36780173 0.4754816 -0.0040521175 0.5308029 -0.45355275 0.31730258 0.13563043
-0.22823828 0.12671717 0.24571688 -0.5137785 -0.121425666 0.0063290675 0.4128911 0.3081412
-0.3610006 0.23602225 -0.08055436 -0.22814049 -0.49991307 0.10847281 0.1824066 0.13471198
0.124906644 -0.35184073 0.25775546 0.15500829 -0.23497711 0.040507127 -0.07918783 0.12766284
-0.17369632 -0.23706149 0.39584175 0.04705624 -0.19346969 0.41905412 0.40942773 0.47819042
0.38603067 0.016104357 0.33967564 0.21325439 -0.29973447 -0.4435594 -0.42755973 -0.44382215
-0.021052523 -0.1980175 0.45307752 -0.2188129 0.10549015 -0.35532075 0.1343772 0.051792905
-0.27803397 -0.2055252 0.4733658 0.3571344 0.4332539 0.3312979 0.06658212 -0.18477717
0.34407467 0.37732056 -0.02662307 0.5232826 0.2757263 0.5010303 0.5321923 -0.19895297
00000000: 93c5 873e eaa5 63bd 9031 55be cbce 36be
00000010: 0c38 2bbe bd3b f7be a789 973e abf2 88be
00000020: d340 87bd d248 cd3e 9fce 2fbe 600c c3be
00000030: 9085 6cbe bf85 03bf 207f 17bf 6d3b 92bd
00000040: 7dd5 d23e d31e d33e c4ea ccbe 7073 58be
00000050: 8248 20bf cc18 f93e 0cb5 ca3e 3b9a 11bf
00000060: a904 3c3e d59a 7bbe 3aec bc3e e93c 993e
00000070: bda7 abbe 72fb df3e b21f 283d 0c8f 993e
00000080: c958 0abf 08e9 893e fd99 06bf b10a 2fbe
00000090: 75eb 21be 2a3c edbe 970c 98bd aaff 763e
000000a0: 5336 07bd a9d6 e73e bec0 8abe 4ee5 553e
000000b0: 6fe7 99be 6ccb c53e 0534 f53e 5335 9a3e
000000c0: bfcc e0be 95cb d33c 45ac 7a3e 0ffc 443e
000000d0: c177 3ebe e509 c03e 8472 2abe 6faf 4a3e
000000e0: 8ee8 033c 2058 8bbd 237d 9a3e e269 22bf
000000f0: c5cf 5d3e 61cd cbbe 8f08 85be 9b17 09bf
00000100: 58f6 59be e4c6 0c3e 3401 613e f549 03bf
00000110: de1f bbbe 630f 943e 6ebf 9dbe 6290 dd3e
00000120: 5b7e 2dbe 7137 193e 56c6 90be e2b0 b1bd
00000130: b604 943d e4bc 403c 8cb8 8cbc cba0 433e
00000140: 03ba d83e b11e 5a3e de6f 123e 94a6 85bc
00000150: e0a4 203e b7fa efbe bcad aabe 5cb2 be3e
00000160: 14e4 9b3e 1155 ea3c bd64 bb3e 0b78 023f
00000170: d3ee 8b3e f3b7 70bd 0a72 8fbe 47e9 523e
00000180: 71a2 82be adad 54bd 808d c43e ed02 733d
00000190: 7893 ae3e 8671 c1be aa2a b9bd 5ddb ce3e
000001a0: afea 9fbe 9cf0 c2be a237 fdbd 539c bebe
000001b0: 6196 02bf a971 a03e 6d77 a1bd b0b1 8c3e
000001c0: 34f7 9bbd 2bfc 7abe ba23 103e 82a3 c63e
000001d0: ad2b ae3e 7386 b33d fecb 5dbe ba60 9f3d
000001e0: 35d0 623d 89a0 fcbe ff00 bb3e 34d9 62bc
000001f0: ff4e dcbe 707e 38bc d004 8b3e 8b62 e8be
00000200: 1446 10be decb 953e 5d12 c33e 3b96 05bf
00000210: a4fb 3dbe 2be1 3bbe e4d0 303e 150d bd3e
00000220: 8397 af3d dd70 3ebe 6430 d7bc 7ce5 443c
00000230: 3b4c 8f3e 6bd3 a53e 03e4 b9be bb11 55be
00000240: 99ce dfbe 3735 cfbe e758 cfbe 188e 863e
00000250: 86c2 08be c950 e4be 96b5 e9be e2ac ab3a
00000260: 5572 163e 8cd7 ecbd d867 e23d ca2f 993d
00000270: 1bcc 163d caf1 20be 06a2 aa3e c91c 013f
00000280: 3f8d 0abf 663a 953c cf86 a53e 4a4f 463e
00000290: 668b d0be 5126 fdbe 5468 333e 38ab 42be
000002a0: 183b 053e ecd7 cabd 0925 873e 3d26 a23e
000002b0: 3fc9 883e d81d bb3e 1351 863d e3b3 dcbd
000002c0: ab08 b2be e00e 87be 8e58 aa3d a829 083f
000002d0: 0676 023f e007 483e fa88 b03e 91a6 24bd
000002e0: 7c70 ae3c 8250 bc3e 5372 f33e a0c7 84bb
000002f0: b3e2 073f 1138 e8be 7c75 a23e b4e2 0a3e
00000300: 4cb7 69be 25c2 013e 359d 7b3e fd86 03bf
00000310: 05ae f8bd 1164 cf3b 7666 d33e afc4 9d3e
00000320: 12d5 b8be d1af 713e aff9 a4bd a99d 69be
00000330: 9bf4 ffbe fe26 de3d ccc8 3a3e f0f1 093e
00000340: 0ecf ff3d 7824 b4be 86f8 833e 7eba 1e3e
00000350: d79d 70be cdea 253d 3b2d a2bd 0cba 023e
00000360: 73dd 31be 3fc0 72be c5ab ca3e 0bbe 403d
00000370: eb1c 46be 438e d63e 83a0 d13e 60d5 f43e
00000380: d0a5 c53e 49ed 833c f7e9 ad3e 5c5f 5a3e
00000390: cc76 99be 381a e3be 1ce9 dabe a83c e3be
000003a0: 5776 acbc 19c5 4abe c7f9 e73e 7d10 60be
000003b0: 380b d83d 9aec b5be 2d9a 093e cc24 543d
000003c0: 785a 8ebe 3375 52be 015d f23e 52da b63e
000003d0: 75d3 dd3e e19f a93e 355c 883d 3a36 3dbe
000003e0: 8e2a b03e 2930 c13e a018 dabc d9f5 053f
000003f0: ff2b 8d3e 8643 003f c13d 083f 54ba 4bbe

model.layers.0.bias f4 [164]
-0.19357677 0.9842105 -0.88718724 -0.867169 0.066288225 0.50321394 0.178474 0.55457544
0.09773109 0.0786082 1.0082932 0.52547616 0.11311011 -0.71176773 -0.22201446 0.06235026
0.35755956 -0.09437365 -0.78157866 -0.27899474 -0.7437653 -0.3809868 0.06408735 0.4603064
0.27865106 -1.1776228 0.004515699 -0.50346184 -0.9450927 0.06664935 0.26296315 -0.19391674
-0.6370454 -0.8226145 -0.084571764 -0.01811292 0.6415321 -0.32244468 -0.5593794 -0.42246446
0.2789837 -0.32758063 0.59245735 -0.33804563 0.16410637 -0.30903527 -1.0605023 -0.8630113
-0.0944755 1.0741931 0.08331313 0.132517 -0.75500196 -0.06240891 -0.28112692 -0.6093229
0.4654117 0.004392374 0.057724174 -0.31724963 0.4623787 0.31807184 0.18350801 0.5537939
0.2799549 -0.5345875 -0.049045194 0.42037594 -0.18482377 -0.8019838 0.26153553 0.3700501
0.479329 -0.7626239 -0.5068994 -0.59738344 0.33719596 0.7474846 -0.516518 -0.48324203
-0.50368965 0.863871 0.55684036 -0.45758846 -0.67016923 0.6368849 0.30127767 -0.4352622
-0.025634749 -0.0023661929 -0.09033052 0.44958597 0.60207343 -0.22596136 -0.22911851 -0.32861573
-0.86476517 -0.17009051 0.81471086 -0.6913553 -0.058636677 0.24410097 0.038255837 0.5259541
-0.3649932 0.27536422 0.17250775 0.53973025 0.34256464 -0.50522166 0.64296985 0.30148247
0.21808814 0.31277722 0.67253757 -0.5811228 0.22517654 0.671562 -0.10138562 0.61056465
0.12592754 0.3149658 -0.013096724 0.22555801 -0.80114305 0.15004788 -0.19639851 0.40317065
0.85531014 0.34241158 0.5623175 -0.3216833 0.07089764 -1.1237986 0.4816263 0.26781428
0.66787547 -0.4161102 -0.66862226 -0.5452241 -0.13971996 -0.5131787 0.69938934 0.13169387
0.42288616 -0.43426186 0.26810136 -0.4899396 0.98462826 0.379533 -0.26887324 0.13025892
-0.34720886 -0.12814534 -0.50421 -0.74788064 -0.39190075 0.16360715 -0.727499 -0.26591346
0.62292343 -0.56807363 0.18108824 -0.3345943
00000000: fd38 46be 38f5 7b3f b41e 63bf cafe 5dbf
00000010: 1fc2 873d a1d2 003f e3c1 363e a8f8 0d3f
00000020: 3d27 c83d 56fd a03d c00f 813f 9b85 063f
00000030: 46a6 e73d 6936 36bf c257 63be fc62 7f3d
00000040: 0c12 b73e f946 c1bd 8a15 48bf 66d8 8ebe
00000050: 6767 3ebf b410 c3be 3b40 833d 48ad eb3e
00000060: 5aab 8e3e 58bc 96bf 6ef8 933b e0e2 00bf
00000070: 98f1 71bf 747f 883d 1ba3 863e 1c92 46be
00000080: 6815 23bf dd96 52bf f633 adbd 8c61 94bc
00000090: 733b 243f 7817 a5be 7d33 0fbf 434d d8be
000000a0: f4d6 8e3e a6b8 a7be 49ab 173f 5114 adbe
000000b0: 800b 283e df39 9ebe 8abe 87bf 4fee 5cbf
000000c0: 5f7c c1bd 297f 893f 13a0 aa3d 89b2 073e
000000d0: cf47 41bf 7ca0 7fbd deef 8fbe 96fc 1bbf
000000e0: 714a ee3e e7ed 8f3b 2f70 6c3d 8b6e a2be
000000f0: e7bc ec3e 50da a23e 86e9 3b3e 70c5 0d3f
00000100: 4056 8f3e bada 08bf 9de3 48bd 843b d73e
00000110: 7142 3dbe cf4e 4dbf fce7 853e 3577 bd3e
00000120: 9c6a f53e 523b 43bf 29c4 01bf 1fee 18bf
00000130: f3a4 ac3e 275b 3f3f 863a 04bf 806b f7be
00000140: cef1 00bf a626 5d3f 178d 0e3f 0949 eabe
00000150: 3690 2bbf e40a 233f 1141 9a3e b0da debe
00000160: f7ff d1bc 2112 1bbb 35ff b8bd 2230 e63e
00000170: 7c21 1a3f 6a62 67be 0b9e 6abe 5240 a8be
00000180: 4061 5dbf 352c 2ebe e490 503f a9fc 30bf
00000190: 032d 70bd 9bf5 793e 27b2 1c3d eea4 063f
000001a0: 64e0 babe 8afc 8c3e dfa5 303e c32b 0a3f
000001b0: a264 af3e 3556 01bf ac99 243f e95b 9a3e
000001c0: 7f52 5f3e 5624 a03e 6c2b 2c3f 77c4 14bf
000001d0: ae94 663e 7deb 2b3f 44a3 cfbd f74d 1c3f
000001e0: 26f3 003e 3343 a13e a493 56bc aef8 663e
000001f0: b617 4dbf 27a6 193e b11c 49be 626c ce3e
00000200: 9bf5 5a3f 9250 af3e 0af4 0f3f acb3 a4be
00000210: c832 913d a2d8 8fbf b997 f63e f41e 893e
00000220: e3f9 2a3f 650c d5be d42a 2bbf ce93 0bbf
00000230: c012 0fbe ae5f 03bf 2e0b 333f c2da 063e
00000240: 8984 d83e 9257 debe 9544 893e 5dd9 fabe
00000250: 9910 7c3f 2652 c23e c1a9 89be 9862 053e
00000260: 5cc5 b1be 8838 03be e813 01bf 1b75 3fbf
00000270: 37a7 c8be a288 273e 603d 3abf cf25 88be
00000280: e977 1f3f 466d 11bf 326f 393e f24f abbe

model.layers.2.weight f4 [164, 164]
-0.09977324 0.035938457 -0.00017373878 0.0143249575 0.05601497 -0.004364296 -0.044261243 -0.07377686
0.0048519177 0.03829955 0.0032316907 -0.017147666 0.058255315 -0.06668492 -0.05129129 0.059210334
0.012395234 -0.01476314 0.04611384 0.05434354 -0.04529462 -0.0039154706 -0.050245382 -0.048175894
0.00431454 0.047061693 -0.06750933 0.042796325 0.047918167 0.02517521 -0.06997566 -0.097517006
-0.004781506 0.0020133697 -0.073567666 0.037804287 -0.06694098 -0.07600291 -0.065666325 -0.066892
-0.03444082 -0.078379326 0.024262736 0.041723166 -0.025520263 -0.008256163 -0.10996063 0.01977043
-0.0053112 0.071738675 0.03167837 -0.0498269 -0.061529126 -0.0927635 0.0026222751 -0.055801846
0.04978375 -0.021747883 0.053994063 -0.013811901 -0.047390483 0.0654828 0.072387874 0.05814782
0.0286355 0.028225712 -0.011992794 0.03257827 -0.031212172 0.10237464 -0.013043746 0.07333949
0.06537639 -0.1142174 -0.07275983 -0.015971694 -0.04046838 -0.005732216 -0.06916894 -0.09005242
-0.06151967 0.022008924 -0.037204873 -0.006758605 0.04499059 0.09551436 0.05598142 0.016543996
-0.032455307 -0.04711633 -0.016258826 -0.009555173 0.026642283 -0.106048316 -0.067103274 0.00440876
-0.106103756 -0.02285821 0.086293966 0.05067079 0.027606081 0.041611843 -0.0411111 0.02000818
-0.014992551 -0.0036257699 0.04172556 -0.015585092 -0.054525077 -0.040112868 0.017253984 -0.033481315
0.0005148157 0.036346942 0.044422556 -0.035617646 0.048025668 -0.0050505586 0.0076059615 0.026300492
0.0005313113 0.18704389 -0.06315069 0.07801249 0.071167886 -0.025830096 -0.03454415 -0.026190396
0.08437439 -0.024633426 0.0647241 0.017175406 -0.08569867 0.0043086642 -0.063801765 9.4949355e-06
-0.027817637 0.0073141917 0.04138179 -0.071387306 0.03406775 0.008463793 -0.030117389 0.038177527
0.096353024 -0.029201027 0.017319905 -0.0604869 0.09322423 0.057193257 -0.06782148 0.037425023
-0.03708399 -0.041865993 0.06334826 -0.084946476 -0.05115191 -0.06265266 -0.010580773 0.055956505
0.052443434 -0.029280946 0.026708037 0.057279114 0.04397823 -0.0043293787 -0.013710025 0.022198599
0.028492438 -0.046547677 0.0098816175 0.07926833 0.06286651 -0.0006167913 0.056291055 -0.0043112356
-0.07782743 0.06918847 -0.007458033 0.053495165 -0.035728984 0.016275099 0.053116884 0.05293017
0.06708133 -0.05717382 -0.009841984 0.064862855 -0.016616622 -0.014684756 -0.014831672 0.06367537
-0.041247677 -0.04340543 0.07336309 -0.010036718 -0.05000403 -0.073463015 0.012413793 0.029558904
0.030488923 -0.04858587 0.016815733 -0.059021123 -0.0019343402 -0.075377464 0.058096558 -0.0055521154
0.0014737839 -0.010974322 -0.081621684 -0.048970643 0.001955453 0.06676944 -0.072748296 -0.04637399
-0.02950966 0.038053155 -0.0058327443 0.029119028 -0.056596003 -0.051484827 0.052095294 0.07133282
-0.063635215 -0.07744257 0.024787782 -0.049462996 0.076291494 0.070914105 -0.0389633 -0.047955792
-0.07918931 0.064850874 0.046827935 -0.073456526 -0.051212166 -0.08145588 -0.05135238 -0.0040652505
0.068467095 0.009030381 -0.031512484 0.053985633 -0.043870237 0.01943427 -0.043609764 0.02679914
-0.0753848 -0.017733714 -0.010412683 0.06786881 -0.06995565 -0.008290156 -0.02819866 0.08039087
00000000: ea55 ccbd 3434 133d a62d 36b9 3ab3 6a3c
00000010: f46f 653d 5e02 8fbb 474b 35bd 5318 97bd
00000020: d6fc 9e3b fddf 1c3d c6ca 533b 4379 8cbc
00000030: 209d 6e3d 1a92 88bd d116 52bd 8986 723d
00000040: 6115 4b3c 19e1 71bc dee1 3c3d 5597 5e3d
00000050: da86 39bd 594d 80bb 1ace 4dbd 1654 45bd
00000060: fc60 8d3b c3c3 403d 5542 8abd 334b 2f3d
00000070: d745 443d 3e3c ce3c 664f 8fbd ffb6 c7bd
00000080: 2eae 9cbb bdf2 033b a5aa 96bd abd8 1a3d
00000090: 5a18 89bd 6aa7 9bbd 117c 86bd acfe 88bd
000000a0: d111 0dbd 5785 a0bd a5c2 c63c e9e5 2a3d
000000b0: df0f d1bc dc44 07bc 0a33 e1bd 99f5 a13c
000000c0: 9309 aebb baeb 923d 2ec1 013d 4b17 4cbd
000000d0: f705 7cbd cafa bdbd 7ada 2b3b 7a90 64bd
000000e0: 0cea 4b3d 9e28 b2bc e128 5d3d 504b 62bc
000000f0: 861c 42bd d91b 863d 1840 943d 692c 6e3d
00000100: ff94 ea3c 9c39 e73c 6d7d 44bc cb70 053d
00000110: abb0 ffbc cca9 d13d 70b5 55bc 0433 963d
00000120: 0fe4 853d d0ea e9bd 1b03 95bd 12d7 82bc
00000130: 2cc2 25bd 50d5 bbbb 72a8 8dbd 676d b8bd
00000140: 0dfc 7bbd 0f4c b43c 2364 18bd 4a77 ddbb
00000150: 0e48 383d 089d c33d c64c 653d 4687 873c
00000160: dbef 04bd 0efd 40bd 3b31 85bc 4d8d 1cbc
00000170: eb40 da3c dc2f d9bd 716d 89bd 5c77 903b
00000180: ed4c d9bd 2441 bbbc e4ba b03d 2d8c 4f3d
00000190: 2626 e23c 2e71 2a3d 1d64 28bd 32e8 a33c
000001a0: 51a3 75bc 539e 6dbb 6ce8 2a3d 9d58 7fbc
000001b0: b055 5fbd 644d 24bd 3a58 8d3c b423 09bd
000001c0: b2f4 063a 88e0 143d 6df4 353d cfe3 11bd
000001d0: 90b6 443d 287f a5bb 6e3b f93b 2174 d73c
000001e0: b347 0b3a 6f88 3f3e 2655 81bd 03c5 9f3d
000001f0: 78c0 913d a399 d3bc 2b7e 0dbd 3e8d d6bc
00000200: 7bcc ac3d 0acc c9bc 128e 843d 70b3 8c3c
00000210: c982 afbd b22f 8d3b 80aa 82bd 704c 1f37
00000220: d0e1 e3bc e3ab ef3b f47f 293d 8233 92bd
00000230: a08a 0b3d b9ab 0a3c beb8 f6bc 0a60 1c3d
00000240: bc54 c53d fe36 efbc 79e2 8d3c 1dc1 77bd
00000250: 58ec be3d 7a43 6a3d fde5 8abd fb4a 193d
00000260: 62e5 17bd ad7b 2bbd bcbc 813d 6bf8 adbd
00000270: aa84 51bd 0a50 80bd fb5a 2dbc a632 653d
00000280: edce 563d 98de efbc d0ca da3c 819d 6a3d
00000290: 8422 343d 76dd 8dbb 03a0 60bc d6d9 b53c
000002a0: f968 e93c c7a8 3ebd 82e6 213c 6f57 a23d
000002b0: 28c0 803d 2ab0 21ba 7391 663d 4445 8dbb
000002c0: fd63 9fbd afb2 8d3d 8462 f4bb bf1d 5b3d
000002d0: 8e58 12bd 5b53 853c 1791 593d 4ecd 583d
000002e0: f061 893d 182f 6abd 4640 21bc d1d6 843d
000002f0: 951f 88bc 5598 70bc 8b00 73bc 3b68 823d
00000300: 53f3 28bd e4c9 31bd 633f 963d 0c71 24bc
00000310: 07d1 4cbd c773 96bd 3963 4b3c 8425 f23c
00000320: e8c3 f93c fa01 47bd 26c1 893c 22c0 71bd
00000330: b089 fdba 805f 9abd a8f6 6d3d 85ee b5bb
00000340: fb2b c13a a5cd 33bc 4529 a7bd 7195 48bd
00000350: 0f27 003b 6bbe 883d 0ffd 94bd a7f2 3dbd
00000360: 3ebe f1bc a0dd 1b3d 9b20 bfbb 078b ee3c
00000370: 36d1 67bd c1e1 52bd e061 553d f116 923d
00000380: 2e53 82bd 369a 9ebd bf0f cb3c b699 4abd
00000390: b73e 9c3d 6a3b 913d fb97 1fbd 4b6d 44bd
000003a0: 012e a2bd 89d0 843d a6ce 3f3d 6070 96bd
000003b0: d9c3 51bd 57d2 a6bd e056 52bd cb35 85bb
000003c0: 7a38 8c3d 2af4 133c 3c13 01bd 0a20 5d3d
000003d0: 47b1 33bd 9e34 9f3c 27a0 32bd df89 db3c
000003e0: 5963 9abd 4b46 91bc f599 2abc cdfe 8a3d
000003f0: e844 8fbd 6fd3 07bc e000 e7bc f8a3 a43d

model.layers.2.bias f4 [164]
0.2575346 -0.010512232 -0.016798083 -0.033948027 -0.08713861 0.11104145 -0.12896393 0.07796856
-0.09997493 0.074613914 -0.020065106 0.0854995 -0.0171845 0.15256141 -0.017107645 -0.17140861
0.17745847 -0.0570073 0.009114246 -0.055498905 -0.016266068 0.02119534 -0.06732308 0.12635575
-0.014926249 -0.046060197 0.012240869 -0.032554246 0.06132931 -0.07995223 -0.045113977 -0.09210625
0.061697487 -0.002664284 0.043067396 0.014738932 -0.16371696 -0.06224264 -0.090702154 -0.07705012
0.039962374 0.11038228 0.016312273 0.05860998 -0.24246465 0.035374995 0.021959038 -0.059912205
-0.10565412 -0.0835559 0.0008941337 0.027269075 -0.111239046 -0.059506156 0.048156932 0.011250679
0.04305917 -0.04056642 -0.0089198025 0.00062524556 -0.052028235 0.039837196 0.109515086 -0.036234677
-0.0029604586 -0.009332385 -0.07249759 0.098739676 -0.32286528 0.06996729 -0.003123928 0.026599666
0.015776629 0.01632789 -0.068182215 0.014244426 -0.06664421 -0.07697758 0.13278566 -0.08611261
0.09138109 0.006992862 0.009271834 0.03337247 0.07109224 -0.05631748 -0.015112147 0.06614946
0.3966797 0.021295642 0.07347365 0.028890321 0.0037778693 -0.028815739 0.0018855148 0.010883864
0.047632545 -0.030994084 -0.079145566 0.21805362 -0.0794857 0.3540088 0.15855223 -0.101243146
0.011678675 -0.061387323 -0.0641162 -0.056964163 -0.010023282 0.10932454 -0.06056794 0.088480204
-0.047022197 -0.020471483 0.045441628 -0.03873475 0.051910628 0.019098537 -0.006219705 -0.14769186
-0.027371187 0.33573696 -0.008766562 -0.09184648 0.12962376 -0.09468473 -0.3048719 -0.027709262
0.065549046 0.30302733 0.3331021 -0.0003540322 0.2324408 0.07231495 0.16392012 0.020649923
-0.09324665 -0.07213643 0.04500745 0.044280972 -0.0504265 0.081245966 0.04793564 0.07947109
0.027225649 -0.012913199 0.21469954 -0.04981954 -0.055923972 -0.30830315 0.06059628 0.048982788
-0.080949806 -0.13098492 0.06904292 0.06998491 -0.11228927 0.06579035 -0.226996 0.047674872
-0.043687318 -0.052771736 0.022858012 -0.034584727
00000000: 93db 833e 7f3b 2cbc 229c 89bc 160d 0bbd
00000010: ba75 b2bd b369 e33d 1f0f 04be fbad 9f3d
00000020: a8bf ccbd 2ecf 983d 945f a4bc 5d1a af3d
00000030: 82c6 8cbc 0f39 1c3e 5525 8cbc bd85 2fbe
00000040: acb7 353e 7d80 69bd eb53 153c d252 63bd
00000050: 6b40 85bc daa1 ad3c afe0 89bd 6763 013e
00000060: 3a8d 74bc 9ea9 3cbd ed8d 483c 9a57 05bd
00000070: 7134 7b3d ffbd a3bd 6fc9 38bd 34a2 bcbd
00000080: 81b6 7c3d 459b 2ebb 7067 303d 907b 713c
00000090: 6ba5 27be 23f2 7ebd 0dc2 b9bd 74cc 9dbd
000000a0: 96af 233d 1b10 e23d 51a1 853c 0511 703d
000000b0: a748 78be 5fe5 103d 71e3 b33c 8066 75bd
000000c0: 3061 d8bd 5b1f abbd 4c64 6a3a 6563 df3c
000000d0: 4cd1 e3bd babc 73bd 3440 453d c554 383c
000000e0: d05e 303d f928 26bd 5d24 12bc 85e7 233a
000000f0: 8f1b 55bd 542c 233d 7249 e03d d06a 14bd
00000100: 4104 42bb dce6 18bc 9e79 94bd 0738 ca3d
00000110: 994e a5be 034b 8f3d d1ba 4cbb 8be7 d93c
00000120: fd3d 813c 11c2 853c 1ea3 8bbd 7461 693c
00000130: c27c 88bd 6ca6 9dbd f7f8 073e cf5b b0bd
00000140: 0226 bb3d 6124 e53b e4e8 173c 92b1 083d
00000150: cf98 913d 28ad 66bd f098 77bc 5e79 873d
00000160: 9a19 cb3e 3374 ae3c 5a79 963d 65ab ec3c
00000170: 2196 773b fc0e ecbc 6123 f73a 3c52 323c
00000180: 581a 433d 4ee7 fdbc 1217 a2bd 7349 5f3e
00000190: 66c9 a2bd a440 b53e 845b 223e 9158 cfbd
000001a0: ea57 3f3c 4671 7bbd 5b4f 83bd 4153 69bd
000001b0: b138 24bc 8be5 df3d 1716 78bd 1c35 b53d
000001c0: 599a 40bd d0b3 a7bc 0021 3a3d 54a8 1ebd
000001d0: 3da0 543d 8974 9c3c abce cbbb 893c 17be
000001e0: 8a39 e0bc b7e5 ab3e a0a1 0fbc 021a bcbd
000001f0: 17bc 043e 11ea c1bd 2b18 9cbe 89fe e2bc
00000200: 943e 863d 6626 9b3e 5c8c aa3e 669d b9b9
00000210: f604 6e3e dc19 943d adda 273e 072a a93c
00000220: 1af8 bebd 44bc 93bd bb59 383d f75f 353d
00000230: 058c 4ebd 4964 a63d 2958 443d bdc1 a23d
00000240: 5308 df3c e291 53bc 32da 5b3e 930f 4cbd
00000250: 8910 65bd e9d9 9dbe ce33 783d 2da2 483d
00000260: 03c9 a5bd e920 06be 6066 8d3d 4054 8f3d
00000270: ebf7 e5bd 17bd 863d a471 68be ba46 433d
00000280: 79f1 32bd 2d27 58bd ba40 bb3c b7a8 0dbd

model.layers.4.weight f4 [2, 164]
0.06496916 0.062467415 0.021830365 0.0035128053 -0.034275524 -0.04077622 -0.023981804 -0.0070957798
0.02796056 0.026539518 -0.02181749 0.05557054 0.030349337 -0.057101164 -0.014053731 -0.0147277685
0.044326395 0.001884406 0.03348503 0.034772728 -0.008614975 0.027270736 -9.8478326e-05 0.026940089
7.566591e-05 -0.020964347 0.041736398 0.038279727 0.04864007 -0.016338151 0.020947307 -0.008793849
-0.018273963 -0.0025866863 -0.040630925 0.032993454 0.033517256 -0.037172705 -0.010210228 -0.059138093
0.011932883 -0.026228847 0.06829264 -0.071236044 -0.047909923 0.021349369 -0.02949855 0.019920725
-0.023445848 -0.034080993 -0.012134498 -0.01168771 -0.05819657 0.039906707 -0.0042907177 0.044735678
0.0025865554 -0.036192093 0.03766735 -0.06686679 -0.012243002 0.011404396 0.017935831 0.046283294
-0.03977432 -0.031075448 0.00047749278 0.013504551 -0.020629972 -0.06727269 0.05978346 -0.034825955
0.043543722 -0.021379601 -0.032134734 0.031876914 0.0028583242 -0.051707957 0.028985426 0.036436107
0.031233957 0.015501126 -0.02935755 -0.04791064 -0.0112433955 -0.02635812 -0.013369708 0.06068279
-0.041586097 -0.0060474062 0.06910289 -0.04103601 0.038710903 0.06724945 0.0013965903 -0.04561995
-0.019909443 0.017401984 0.06264311 0.0028461018 -0.043268498 -0.15069625 0.04136487 -0.051759373
-0.009018293 -0.053207587 0.053952884 -0.023861993 -0.0010538824 0.0006339648 0.0014186357 -0.015872631
-0.019287871 -0.04888972 0.053464398 -0.03488848 0.049647715 -0.05886872 -0.030209761 0.010680981
0.02292089 0.09624974 0.024614379 -0.012381499 -0.009433638 -0.038600825 -0.06782383 -0.03774125
0.021531112 -0.06883934 0.06100371 -0.024088113 -0.023440816 0.012234299 0.028132569 0.0021165963
-0.04358266 0.060008075 -0.068844296 0.008858096 -0.015570043 -0.039689284 0.03823332 0.02262519
-0.0074854647 -0.04195931 0.00345301 0.00414927 0.052782934 -0.023228692 -0.021650666 -0.00084283913
0.033830855 0.01406139 -0.06733867 0.06508694 0.03674717 0.06300603 0.036158916 -0.038825214
-0.040984366 -0.0060672853 -0.04524857 0.013322001 -0.017081307 -0.055283897 -0.023993578 0.0052014804
0.01564746 0.015605509 -0.02934374 0.0048718234 0.04781617 -0.020116623 -0.038226403 0.011849695
0.025961138 -0.03817547 -0.03445659 -0.013213169 -0.042001072 -0.03790271 -0.012566919 -0.047585767
-0.023403129 0.011643015 -0.02398124 0.03193194 -0.009396219 -0.011256754 0.040504165 -0.031277884
0.0048978273 -0.043842927 -0.015471596 0.00556481 0.028613351 0.0031935733 -0.0039529623 0.0077503943
0.009548486 -0.035944127 0.00061123783 0.051893663 0.051179938 -0.028520226 0.020653015 -0.008144671
-0.038742095 0.017408928 0.023190105 -0.011246575 0.02812628 0.02351511 -0.04470773 0.04243105
-0.036969285 0.06741112 -0.027718803 0.033886407 0.038679596 -0.018973729 0.044584304 -0.0656954
-0.066964574 -0.0006732549 0.006621844 0.027683454 0.058734123 0.046932045 0.0015038797 -0.006053378
0.0686507 -0.014098918 -0.04858043 0.020232115 0.021022104 0.016621409 0.030798018 -0.044491783
0.0046260334 -0.060652692 0.019092342 -0.043255914 0.0094908215 -0.016494686 0.051753435 0.043233123
0.027681086 -0.04817032 -0.032724373 0.080854334 0.2082041 0.007827961 -0.066648334 0.03597896
00000000: 8d0e 853d d5dd 7f3d 98d5 b23c 1837 663b
00000010: 7e64 0cbd f704 27bd 7d75 c4bc b783 e8bb
00000020: 8b0d e53c 6769 d93c 98ba b2bc ef9d 633d
00000030: 2c9f f83c e9e2 69bd 9f41 66bc bd4c 71bc
00000040: 988f 353d 2cfe f63a 9927 093d d96d 0e3d
00000050: d325 0dbc e166 df3c 2686 ceb8 76b1 dc3c
00000060: d3ae 9e38 6cbd abbc c9f3 2a3d 34cb 1c3d
00000070: cf3a 473d 96d7 85bc b099 ab3c 1314 10bc
00000080: 47b3 95bc 6585 29bb 9d6c 26bd 2524 073d
00000090: 6449 093d 6842 18bd cd48 27bc c93a 72bd
000000a0: 2482 433c e1dd d6bc 03dd 8b3d 34e4 91bd
000000b0: 323d 44bd dfe4 ae3c f1a6 f1bc ca30 a33c
000000c0: 8211 c0bc 8398 0bbd c6cf 46bc cf7d 3fbc
000000d0: 875f 6ebd 3775 233d 2699 8cbb c23c 373d
000000e0: 3383 293b 293e 14bd 1449 1a3d 75f1 88bd
000000f0: df96 48bc 81d9 3a3c 2aee 923c 8d93 3d3d
00000100: 66ea 22bd f091 febc ff57 fa39 3142 5d3c
00000110: 3000 a9bc 44c6 89bd 80df 743d a9a5 0ebd
00000120: e75a 323d 4624 afbc b69f 03bd 5e91 023d
00000130: b952 3b3b b9cb 53bd d872 ed3c 073e 153d
00000140: 5bde ff3c 6ff8 7d3c 3f7f f0bc f23d 44bd
00000150: 3836 38bc fcec d7bc 9f0c 5bbc 848e 783d
00000160: 2f56 2abd 5229 c6bb d185 8d3d 6015 28bd
00000170: 538f 1e3d 14ba 893d cb0d b73a fcdb 3abd
00000180: 2119 a3bc 9b8e 8e3c 084b 803d aa85 3a3b
00000190: 4f3a 31bd 1e50 1abe 366e 293d a301 54bd
000001a0: 76c1 13bc 33f0 59bd b3fd 5c3d 3a7a c3bc
000001b0: 6d22 8aba a830 263a 84f1 b93a 5207 82bc
000001c0: 9901 9ebc 9640 48bd 7cfd 5a3d 39e7 0ebd
000001d0: 675b 4b3d 5420 71bd 767a f7bc 48ff 2e3c
000001e0: 97c4 bb3c 951e c53d 18a4 c93c c5db 4abc
000001f0: 8c8f 1abc e61b 1ebd 38e7 8abd 9296 1abd
00000200: 0462 b03c a4fb 8cbd 07df 793d 6f54 c5bc
00000210: f406 c0bc 5f72 483c 4676 e63c 98b6 0a3b
00000220: bb83 32bd 07cb 753d 3dfe 8cbd 8c21 113c
00000230: 7e19 7fbc 3b91 22bd 8b9a 1c3d 7658 b93c
00000240: a148 f5bb 87dd 2bbd e54b 623b 99f6 873b
00000250: eb32 583d 194a bebc bd5c b1bc faf1 5cba
00000260: 3992 0a3d bf61 663c dbe8 89bd 4d4c 853d
00000270: 3384 163d 4e09 813d 5f1b 143d 3007 1fbd
00000280: 39df 27bd 14d0 c6bb 9156 39bd 8644 5a3c
00000290: 19ee 8bbc 5e71 62bd 2e8e c4bc 2e71 aa3b
000002a0: 1a2f 803c 40ae 7f3c 4862 f0bc d1a3 9f3b
000002b0: e3da 433d 9ecb a4bc 4a93 1cbd 3925 423c
000002c0: 74ac d43c e25d 1cbd 5a22 0dbd 0c7c 58bc
000002d0: 5109 2cbd df3f 1bbd 7be5 4dbc 4be9 42bd
000002e0: ebb7 bfbc 58c2 3e3c 4e74 c4bc 11cb 023d
000002f0: 99f2 19bc 406e 38bc b2e7 253d 3d1d 00bd
00000300: f47d a03b a494 33bd 947c 7dbc 0259 b63b
00000310: 8c66 ea3c 454b 513b da87 81bb 05f7 fd3b
00000320: 4171 1c3c 263a 13bd 7a3b 203a 738e 543d
00000330: 0ea2 513d 40a3 e9bc 8330 a93c 3a71 05bc
00000340: 08b0 1ebd 2b9d 8e3c 2df9 bd3c 8e43 38bc
00000350: 1669 e63c c3a2 c03c 741f 37bd 2ecc 2d3d
00000360: 1b6d 17bd d70e 8a3d 8b12 e3bc 79cc 0a3d
00000370: 7f6e 1e3d cb6e 9bbc 089e 363d 4f8b 86bd
00000380: b924 89bd 5f7d 30ba 0efc d83b 69c8 e23c
00000390: 3193 703d d13b 403d d41d c53a 6a5b c6bb
000003a0: bd98 8c3d 26ff 66bc 46fc 46bd d2bd a53c
000003b0: 8c36 ac3c 9f29 883c 204c fc3c 043d 36bd
000003c0: fb95 973b f56e 78bd 8b67 9c3c 1d2d 31bd
000003d0: 647f 1b3c dd1f 87bc 69fb 533d 3715 313d
000003e0: 72c3 e23c 3e4e 45bd fe09 06bd f596 a53d
000003f0: 7533 553e d940 003c ec7e 88bd ad5e 133d

model.layers.4.bias f4 [2]
-0.045965344 -0.04723781
00000000: 2846 3cbd 6f7c 41bd

exp_avg f4 [164, 3]
0.0009036079 -7.904999e-05 0.0002968625 -0.0015587198 -0.003084872 0.0012385334 -0.0016934993 0.0015166667
-0.0016754407 -0.0027726376 0.0020255228 -0.0026323549 -0.0009168648 -0.0003564076 0.00041775376 0.0005520338
-0.0008113637 -0.00019659812 0.0006150346 -0.000271397 -7.3450414e-05 0.0006348921 -0.00010717474 0.00050216407
-0.0005514368 8.513813e-05 -0.00021223344 -0.0008573905 -0.00049508817 -1.7479266e-05 0.00082261837 -0.0008684662
-0.0014800958 -0.0004128769 -0.00091688125 0.00081464666 -0.00049381214 0.00034228413 0.00018209517 -0.00028899533
0.0028275896 -0.0032535153 0.00024349033 -3.1607924e-05 -9.8160235e-05 -0.00026445475 0.0015140612 0.00150573
-0.00057921896 -9.987086e-05 0.0016273251 1.5717e-05 -0.001096047 -0.0003172462 -0.0013026564 0.0006472202
0.00048999063 -0.00029735372 8.6557164e-05 7.17542e-05 0.00071325264 0.003552158 -0.0011031394 -0.0012110323
0.0024294986 -3.445719e-05 -0.001404448 0.00090408104 -0.0011226197 0.00031076788 -0.0030308221 0.00075425726
0.0035885551 -0.0001020818 -0.0014935774 -0.029279225 0.006658774 0.013027411 0.00032681916 0.00056771445
9.290385e-05 0.0005663963 -0.0012070218 -0.00046072315 -0.00035497558 0.0039107115 -0.0012674943 0.0009524998
0.00062821474 0.00028934592 -0.0009907953 0.00061701273 0.00045096327 0.00038711354 -0.00014375203 -0.00047818624
-0.0024738149 0.0039405962 -0.0013018188 0.00012245547 0.00028394675 0.0008413758 -4.625984e-05 0.00033633842
0.00019149011 0.000797016 0.00011838158 -0.00058319 0.00051137817 -0.0012363463 -0.00053162756 -0.0013371671
0.0018774697 -0.001172662 -0.0013416957 0.0010566002 0.00041228917 -0.0014259272 0.0030794446 -0.0016129173
-0.00024303189 0.0007361773 -0.00021577923 -0.0006988682 0.0022736616 -0.0012379319 -0.00041598012 -0.001001682
0.00019513571 0.00013479617 -0.00093605334 -0.0003974866 0.0011828105 -0.00031686047 0.00036790292 0.0012985395
-0.00022592283 0.000586575 -0.0053138947 0.0078393 -0.0043889666 -0.0019559476 0.0045353766 -0.0031969957
0.00014526989 -0.00022535409 0.00024747994 0.006604981 -0.004927259 0.00565542 0.00033941952 -0.00043017475
-0.000548566 -0.00017208874 -0.00012779818 0.000715696 0.0005906641 0.00070521276 -0.0030176872 5.348539e-05
-0.0031800314 0.0008757512 -0.0012910798 0.00020373831 -0.0006624093 -0.0007752017 0.00026485417 0.00012995774
0.0010601602 -0.001734487 0.0010712713 4.718793e-06 -0.0002971653 1.9181796e-05 8.5185355e-05 -0.0005170106
0.0001431334 -0.0006536261 0.00082903047 -0.0007029704 -0.00032884907 -0.0008213696 0.00053733203 0.0013150814
-0.0017814236 0.00045206625 0.0007293147 0.0009344132 0.00086202775 0.0007199937 -0.00033494073 -0.00010846852
0.00032998656 0.0011725627 0.0005759382 -5.835737e-05 0.00021458697 -0.0005616631 -5.070676e-05 0.00091436366
-4.7465346e-05 0.0014180727 -0.003106587 0.0015932167 -0.0017258003 0.00031218282 0.00094322534 -0.0008391001
0.00014720543 -0.00021323335 -0.0011730667 0.0010949748 -8.244737e-05 0.00077080034 -0.0014340136 0.0021765234
0.00010768633 -0.00049317494 0.0010802355 -0.001575149 0.0015462509 -0.0025982067 0.0006704144 -0.0017957024
-0.0006351891 -0.0007003946 0.00021194096 0.0005091137 0.0011014028 -0.0022077025 0.00081911974 0.002215318
0.00015326054 -0.00048520125 5.5310084e-05 0.0012430942 -0.0009157049 -0.0017623026 0.00020846294 0.00020495284
-0.0028180548 0.0021178108 -0.001513087 0.000754865 0.00036976393 0.00025758764 0.001998946 -0.0013097941
0.0013622775 -9.066553e-05 -0.0005156824 -0.0013325079 -0.00075784524 -0.000119050266 -0.0010374428 0.003230698
00000000: 1ae0 6c3a a4c7 a5b8 36a4 9b39 f54d ccba
00000010: 902b 4abb 4956 a23a 68f8 ddba e4ca c63a
00000020: 769a dbba 24b5 35bb a2be 043b 9683 2cbb
00000030: c159 70ba 38dc bab9 f605 db39 5cb6 103a
00000040: b2b1 54ba e825 4eb9 463a 213a 4a4a 8eb9
00000050: 6409 9ab8 e36e 263a 00c3 e0b8 a9a3 033a
00000060: 4c8e 10ba 2f8c b238 fb8a 5eb9 81c2 60ba
00000070: cec8 01ba 70a0 92b7 fca4 573a c8a9 63ba
00000080: c6ff c1ba 6677 d8b9 dc5a 70ba 038e 553a
00000090: 2c73 01ba 9974 b339 cdf0 3e39 4c84 97b9
000000a0: 154f 393b ee38 55bb 7051 7f39 c092 04b8
000000b0: 60db cdb8 84a6 8ab9 7773 c63a ea5b c53a
000000c0: bad6 17ba c271 d1b8 f84b d53a 00d8 8337
000000d0: 3ca9 8fba 1054 a6b9 e5bd aaba 36aa 293a
000000e0: b772 003a 24e6 9bb9 0686 b538 be7a 9638
000000f0: 93f9 3a3a 52cb 683b 3797 90ba 80bb 9eba
00000100: 3938 1f3b 2086 10b8 7415 b8ba daff 6c3a
00000110: de24 93ba 8fee a239 c2a0 46bb 59b9 453a
00000120: f72d 6b3b c014 d6b8 24c4 c3ba fcda efbc
00000130: d831 da3b ec70 553c ed58 ab39 acd2 143a
00000140: 60d5 c238 367a 143a ee34 9eba 378d f1b9
00000150: 041c bab9 6d25 803b 0d22 a6ba 2eb1 793a
00000160: c7ae 243a 5ab3 9739 93dd 81ba 06bf 213a
00000170: 446f ec39 80f5 ca39 24bc 16b9 12b5 fab9
00000180: ba1f 22bb 1e20 813b caa1 aaba 6467 0039
00000190: b0de 9439 c68f 5c3a 2007 42b8 9456 b039
000001a0: bcca 4839 d7ee 503a a043 f838 38e1 18ba
000001b0: 020e 063a e60c a2ba ec5c 0bba e243 afba
000001c0: 6e15 f63a 02b4 99ba d6db afba 9f7d 8a3a
000001d0: 8428 d839 2de6 baba 82d0 493b 8668 d3ba
000001e0: 60d6 7eb9 06fc 403a cc42 62b9 4034 37ba
000001f0: b601 153b 1a42 a2ba e817 dab9 df4a 83ba
00000200: 589d 4c39 1258 0d39 7a61 75ba c065 d0b9
00000210: 8908 9b3a 4b20 a6b9 18e3 c039 c133 aa3a
00000220: b3e5 6cb9 62c4 193a 2e20 aebb 6870 003c
00000230: 52d1 8fbb 5b2f 00bb 7f9d 943b b084 51bb
00000240: 9753 1839 074d 6cb9 32c0 8139 996e d83b
00000250: d874 a1bb 1a51 b93b 1ef4 b139 1489 e1b9
00000260: a4cd 0fba b872 34b9 9001 06b9 8c9d 3b3a
00000270: ccd6 1a3a 07de 383a 64c4 45bb 8055 6038
00000280: 1368 50bb ab92 653a 7339 a9ba 96a2 5539
00000290: 89a5 2dba e836 4bba 20dc 8a39 4445 0839
000002a0: 13f5 8a3a ba57 e3ba e669 8c3a 2056 9e36
000002b0: dacc 9bb9 98e8 a037 8aa5 b238 fe87 07ba
000002c0: 1416 1639 1b58 2bba 4b53 593a 8c47 38ba
000002d0: 6069 acb9 2e51 57ba bedb 0c3a cf5e ac3a
000002e0: a87e e9ba 4e03 ed39 7b2f 3f3a 69f3 743a
000002f0: b4f9 613a f6bd 3c3a fc9a afb9 9879 e3b8
00000300: 0c02 ad39 adb0 993a 8ffa 163a c0c4 74b8
00000310: c002 6139 933c 13ba f8ad 54b8 e8b1 6f3a
00000320: 8715 47b8 a0de b93a e297 4bbb 7bd3 d03a
00000330: 4034 e2ba 78ac a339 c842 773a 0ef7 5bba
00000340: 285b 1a39 6497 5fb9 96c1 99ba 4285 8f3a
00000350: 98e7 acb8 890f 4a3a 83f5 bbba 01a4 0e3b
00000360: a8d5 e138 6948 01ba b096 8d3a 3b75 ceba
00000370: 92ab ca3a ad46 2abb c0be 2f3a c65d ebba
00000380: d282 26ba b09a 37ba 783c 5e39 0b76 053a
00000390: f25c 903a 1aaf 10bb 32ba 563a de2e 113b
000003a0: 90b4 2039 9c62 feb9 c0fc 6738 52ef a23a
000003b0: ea0b 70ba 10fd e6ba d896 5a39 9ce8 5639
000003c0: 1daf 38bb f8ca 0a3b c652 c6ba 22e2 453a
000003d0: e0dc c139 d40c 8739 c000 033b 66ad abba
000003e0: 738e b23a b023 beb8 dc2e 07ba 8ca7 aeba
000003f0: 22aa 46ba a0aa f9b8 cefa 87ba 1eba 533b

exp_avg_sq f4 [164, 3]
6.113569e-05 2.0428142e-05 1.744273e-05 0.0012126387 0.001400086 0.00041114227 0.000178125 6.245532e-05
5.3968e-05 0.00067764544 0.00018584605 0.00018064483 3.253307e-05 2.1458662e-05 1.1987775e-05 0.00013594815
0.00013609002 9.02043e-05 4.7423677e-05 2.8547951e-05 1.3971517e-05 0.00013220777 0.00015454197 5.8043697e-05
9.040933e-05 5.355402e-05 8.034953e-05 2.1630423e-05 1.9527572e-05 1.405054e-05 0.00022549296 0.0017175941
0.00034361007 2.7306363e-05 3.969735e-05 1.6979418e-05 1.8061348e-05 1.07076885e-05 9.135869e-06 0.0002832255
0.00032145067 0.00031947423 6.1009556e-05 3.3020966e-05 2.4261279e-05 0.0002754135 0.00050288864 0.00034858767
2.4022944e-05 0.00011246895 6.1821374e-05 3.4954635e-05 5.1750132e-05 7.7773286e-05 7.496829e-05 8.848898e-05
4.343631e-05 4.471043e-06 1.4910061e-05 2.7953574e-06 4.0759172e-05 7.97074e-05 2.6094864e-05 0.00017065505
0.00015426958 9.927232e-05 8.7155284e-05 4.885278e-05 4.004084e-05 3.155701e-05 7.3170275e-05 2.5872043e-05
0.0005804396 0.00095628534 0.00033306412 0.04613579 0.059045613 0.021955974 6.349244e-05 0.00011175023
6.708591e-05 2.6918273e-05 2.2447504e-05 1.1150842e-05 3.7780796e-05 0.00012775495 3.1357056e-05 3.784373e-05
3.090296e-05 1.987443e-05 4.4850214e-05 0.00014454704 7.117766e-05 0.00020259635 0.00011864458 0.00012162075
0.0002993031 0.0002829905 0.00024268692 0.00011538147 0.0008447443 0.00017250195 1.4069118e-05 5.7608668e-05
1.7690454e-05 2.5483392e-05 1.26204195e-05 1.1163876e-05 0.0001442217 0.00025245937 0.00013264675 0.00012232755
4.7802885e-05 2.8348244e-05 0.00010703341 0.00021211548 0.00014390727 0.0001651041 0.0003452013 0.00012902792
6.531501e-05 5.6892786e-05 7.331365e-05 7.574583e-05 0.00016801275 8.184162e-05 3.2697357e-05 2.5963542e-05
1.7010927e-05 2.1836076e-05 6.908428e-05 1.8465495e-05 3.1895903e-05 4.1645806e-05 2.3154584e-05 6.636005e-05
6.0890372e-05 3.364056e-05 0.0005705727 0.0007637191 0.0002810352 0.00010405524 0.00017876881 4.944283e-05
9.786007e-06 1.5261769e-05 6.331171e-06 0.002911587 0.0006165333 0.0006708669 1.8066141e-05 7.212504e-05
2.0606501e-05 3.3722674e-05 0.00011300857 6.959763e-05 0.00011763908 4.714737e-05 9.6752134e-05 0.00019096918
0.00016606732 0.00011386762 0.00011877485 7.5433374e-05 3.9091658e-05 0.00011656526 7.0852126e-05 6.837314e-05
0.00019245809 0.00019162726 0.00015245721 3.1646032e-05 6.357854e-05 2.4041943e-05 3.2055777e-06 3.8850594e-06
7.431579e-07 4.8861257e-05 0.00015357106 6.66655e-05 5.314765e-05 0.00011133091 4.6334542e-05 8.777045e-05
0.00015060185 0.00013771774 0.00029719307 0.0001629073 0.00020093376 2.4476754e-05 7.019257e-05 3.5031477e-05
1.22307965e-05 1.2506286e-05 1.0638173e-05 0.0001781507 0.000105685365 9.020013e-05 0.00010535296 0.00015974861
6.43932e-05 0.00034191957 9.831865e-05 8.914346e-05 0.00017695322 0.00019312746 0.00012400172 0.000120421835
0.00015410749 2.6772874e-05 9.6843825e-05 9.436065e-05 5.4022228e-05 4.7453526e-05 6.467409e-05 6.180498e-05
3.5646848e-05 1.530038e-05 1.9680145e-05 0.000100004836 0.00019244896 0.00018912205 0.00020671256 0.00014842166
0.00015387835 9.154347e-05 0.0001171611 7.700393e-05 5.5679622e-05 5.0391754e-05 2.498405e-05 0.0001387153
0.00010492332 6.0812934e-05 0.0002509306 0.00011342891 9.603272e-05 6.638842e-05 5.927616e-05 3.755576e-05
0.00013851776 0.00012239092 0.00011765942 4.225368e-05 3.466936e-05 2.068565e-05 0.00013084845 8.269712e-05
9.809374e-05 0.00021846917 0.00037100379 0.00025386456 5.6612862e-05 6.875349e-05 4.4118355e-05 0.00020174908
00000000: f935 8038 1a5d ab37 fa51 9237 67f1 9e3a
00000010: 1783 b73a 958e d739 11c7 3a39 72fa 8238
00000020: b35b 6238 04a4 313a abdf 4239 7a6b 3d39
00000030: 1e74 0838 2002 b437 1a1f 4937 4e8d 0e39
00000040: 63b3 0e39 112c bd38 c9e8 4638 427a ef37
00000050: 3567 6a37 41a1 0a39 8b0c 2239 f273 7338
00000060: 249a bd38 319f 6038 5381 a838 fb72 b537
00000070: 24cf a337 9cba 6b37 4e72 6c39 e520 e13a
00000080: 9026 b439 f80f e537 b480 2638 066f 8e37
00000090: 7382 9737 2ca5 3337 4246 1937 e27d 9439
000000a0: 6188 a839 1b7f a739 83e4 7f38 fe7f 0a38
000000b0: b384 cb37 6065 9039 49d4 033a a5c2 b639
000000c0: e184 c937 4fdd eb38 19a6 8138 419c 1238
000000d0: 480e 5938 371a a338 4b38 9d38 2993 b938
000000e0: 622f 3638 f805 9636 3926 7a37 e097 3b36
000000f0: d4f4 2a38 9628 a738 4be6 da37 def1 3239
00000100: 6dc3 2139 6c30 d038 23c7 b638 46e7 4c38
00000110: 86f1 2738 155c 0438 fe72 9938 ca07 d937
00000120: a428 183a 39af 7a3a 1c9f ae39 e2f8 3c3d
00000130: d0d9 713d 04dd b33c 3f27 8538 735b ea38
00000140: 79b0 8c38 8dce e137 a64d bc37 8014 3b37
00000150: d276 1e38 f5f5 0539 6285 0338 65ba 1e38
00000160: cd9d 0138 03b8 a637 8d1d 3c38 8d91 1739
00000170: 3745 9538 0b70 5439 d3d0 f838 a50e ff38
00000180: c8eb 9c39 585e 9439 c679 7e39 f4f8 f138
00000190: d571 5d3a a4e1 3439 670a 6c37 d6a0 7138
000001a0: f665 9437 2bc5 d537 4abc 5337 7b4c 3b37
000001b0: 383a 1739 865c 8439 1717 0b39 0d45 0039
000001c0: f57f 4838 64cd ed37 2077 e038 516b 5e39
000001d0: d0e5 1639 cb1f 2d39 22fc b439 ab4b 0739
000001e0: bbf9 8838 2aa0 6e38 f7bf 9938 bcd9 9e38
000001f0: 942c 3039 63a2 ab38 8524 0938 48cc d937
00000200: b0b2 8e37 9e2c b737 57e1 9038 59e6 9a37
00000210: f7c7 0538 d8ac 2e38 173c c237 c82a 8b38
00000220: 8a64 7f38 4719 0d38 7c92 153a 5234 483a
00000230: e857 9339 3b38 da38 e373 3b39 d660 4f38
00000240: 942e 2437 6606 8037 5870 d436 53d0 3e3b
00000250: d99e 213a 1edd 2f3a be8c 9737 d641 9738
00000260: 20dc ac37 7271 0d38 04ff ec38 f1f4 9138
00000270: 00b5 f638 1ac0 4538 68e7 ca38 e63e 4839
00000280: 5b22 2e39 37cc ee38 c316 f938 fc31 9e38
00000290: 59f6 2338 7f74 f438 7296 9438 8d63 8f38
000002a0: 93ce 4939 8def 4839 ecdc 1f39 abbb 0438
000002b0: 7855 8538 aead c937 681f 5736 685c 8236
000002c0: 6c7d 4735 60f0 4c38 eb07 2139 c5ce 8b38
000002d0: dbea 5e38 547a e938 5657 4238 6711 b838
000002e0: e0ea 1d39 5368 1039 94d0 9b39 18d2 2a39
000002f0: bfb1 5239 6e53 cd37 5934 9338 c3ee 1238
00000300: df32 4d37 17d2 5137 9b7a 3237 f7cd 3a39
00000310: 66a3 dd38 d329 bd38 f1f0 dc38 3182 2739
00000320: d60a 8738 ab43 b339 6c30 ce38 88f2 ba38
00000330: 858c 3939 4282 4a39 7506 0239 fb8a fc38
00000340: ea97 2139 4f96 e037 a218 cb38 7de3 c538
00000350: ed95 6238 d608 4738 a3a1 8738 4c9d 8138
00000360: 8383 1538 5159 8037 ca16 a537 b0b9 d138
00000370: 20cc 4939 104f 4639 fbc0 5839 a3a1 1b39
00000380: 685a 2139 07fb bf38 63b4 f538 2c7d a138
00000390: 8a89 6938 bc5b 5338 d794 d137 1b74 1139
000003a0: 470a dc38 6411 7f38 568f 8339 afe0 ed38
000003b0: 2d65 c938 033a 8b38 4b9f 7838 3185 1d38
000003c0: 143f 1139 1056 0039 ecbf f638 8b39 3138
000003d0: f169 1138 1886 ad37 5d34 0939 ae6d ad38
000003e0: adb7 cd38 df14 6539 4983 c239 2019 8539
000003f0: 9973 6d38 c02f 9038 b90b 3938 9b8c 5339

exp_avg f4 [164]
7.962837e-05 -0.00030895195 -0.00011512654 -0.000199329 4.2938016e-05 -7.759506e-05 -9.692059e-06 6.325271e-05
-4.7736376e-07 -1.09389985e-05 -0.0002930399 6.426178e-05 5.8062415e-05 -0.0002025697 1.1765835e-05 0.00014624206
0.000115008064 -1.3326819e-05 0.0002847115 5.393308e-07 -8.654583e-05 7.059219e-05 -0.00011352296 3.5756013e-05
-0.00026000733 0.0026511494 7.528049e-05 -1.6713671e-05 -7.423703e-05 2.7974918e-05 8.418983e-05 -5.9040816e-05
5.1846204e-05 0.00017402525 2.8750255e-05 -1.4098201e-05 -0.00013935551 -8.690766e-05 0.00012995362 -4.5786473e-05
4.003632e-06 -8.9997295e-05 -2.7822876e-05 -3.166657e-05 7.1614544e-05 0.00010719091 1.6959792e-05 -0.00028539335
6.387062e-05 0.00040492052 -7.704569e-05 3.3548502e-05 -0.00018201803 5.8216632e-05 -4.6972207e-05 0.00017478544
-0.00010178868 1.4324169e-05 3.285998e-06 1.9494095e-05 2.6670226e-05 -5.445363e-05 2.8928207e-05 -0.000100415244
4.2110743e-05 -1.738043e-05 -2.1238826e-05 0.0001283068 0.00022389274 3.8915983e-05 -2.4942314e-05 8.7565364e-05
1.6177095e-05 -8.1724196e-05 9.39767e-06 0.0001826722 7.2714785e-05 -0.00021095116 9.724477e-06 0.00011841832
-1.3009179e-05 -8.588833e-05 3.3468383e-05 -5.63751e-05 -4.1243024e-05 -5.0197705e-06 -0.00012719701 9.054321e-05
5.3154316e-05 8.093035e-05 -2.6698839e-05 8.0245285e-05 4.502409e-05 1.1712866e-05 -6.0617065e-05 8.193882e-05
-4.2986132e-05 3.1940894e-05 5.9521422e-05 0.00010149637 1.0899235e-05 -4.46993e-05 3.0428753e-05 -8.530008e-05
9.717715e-05 0.00012266984 -8.0834536e-05 -0.00024377456 4.9068476e-06 7.231069e-05 0.00010005479 -0.00018081645
-3.011367e-05 3.1846e-05 -1.214871e-05 4.3534368e-05 -4.8461516e-07 -0.00016139523 -9.623909e-05 -9.0432644e-05
9.226692e-05 -4.8771013e-05 -4.444997e-06 -3.41826e-05 -0.00016585525 3.0319003e-05 0.00014384172 -6.555116e-05
-9.234897e-05 -0.00016328914 0.00013858333 5.7406996e-05 -3.1730862e-05 5.365824e-05 9.934417e-05 -3.0569518e-05
8.9718174e-05 1.4420715e-05 5.011602e-05 8.755602e-05 -9.410294e-05 -0.00010910732 2.2128661e-05 -5.4900192e-05
-4.8698734e-05 -6.0857514e-05 -0.00013709645 0.000110423556 -0.00017898233 3.7666534e-05 0.00020236812 -8.9405235e-05
8.998877e-05 -5.180139e-06 5.033509e-05 6.039931e-05 6.911808e-05 2.293409e-05 8.263909e-05 -9.1148e-05
-9.278185e-06 0.00011592117 2.984596e-05 -0.00016151344
00000000: 28fe a638 d4fa a1b9 1770 f1b8 f902 51b9
00000010: 5818 3438 88ba a2b8 149b 22b7 8aa6 8438
00000020: 3024 00b5 a486 37b7 26a3 99b9 48c4 8638
00000030: 0b88 7338 e468 54b9 e065 4537 8e58 1939
00000040: 7c30 f138 4096 5fb7 5545 9539 88c6 1035
00000050: f07f b5b8 e50a 9438 2d13 eeb8 baf8 1538
00000060: 9851 88b9 e8be 2d3b e8df 9d38 5634 8cb7
00000070: b4af 9bb8 aeab ea37 128f b038 98a2 77b8
00000080: 7075 5938 8c7a 3639 b42c f137 5087 6cb7
00000090: f61f 12b9 3242 b6b8 2944 0839 da0a 40b8
000000a0: f056 8636 eebc bcb8 2c65 e9b7 b8d1 04b8
000000b0: c42f 9638 aecb e038 e044 8e37 d9a0 95b9
000000c0: 47f2 8538 834b d439 9793 a1b8 6eb6 0c38
000000d0: 18dc 3eb9 a22d 7438 0604 45b8 9c46 3739
000000e0: 6277 d5b8 d651 7037 0485 5c36 4087 a337
000000f0: e0b9 df37 2465 64b8 daaa f237 0696 d2b8
00000100: 11a0 3038 30cc 91b7 082a b2b7 188a 0639
00000110: c0c4 6a39 b839 2338 363b d1b7 4ca3 b738
00000120: 0cb4 8737 5863 abb8 afaa 1d37 b28b 3f39
00000130: 747e 9838 c532 5db9 5026 2337 5a57 f838
00000140: 0042 5ab7 f21e b4b8 6760 0c38 4d74 6cb8
00000150: 5cfc 2cb8 806f a8b6 3060 05b9 04e2 bd38
00000160: 03f2 5e38 27b9 a938 52f7 dfb7 5c49 a838
00000170: 40d8 3c38 6082 4437 143f 7eb8 92d6 ab38
00000180: 024c 34b8 46f8 0538 a4a6 7938 73da d438
00000190: dcdb 3637 827b 3bb8 4041 ff37 22e3 b2b8
000001a0: 96cb cb38 efa0 0039 b685 a9b8 bc9d 7fb9
000001b0: 80a5 a436 82a5 9738 82d4 d138 8c99 3db9
000001c0: 9d9c fcb7 6292 0538 50d2 4bb7 ac98 3638
000001d0: 8016 02b5 343c 29b9 f8d3 c9b8 a8a6 bdb8
000001e0: 6d7f c138 7a8f 4cb8 3c26 95b6 4a5f 0fb8
000001f0: 6ee9 2db9 9055 fe37 38d4 1639 8378 89b8
00000200: 7aab c1b8 9838 2bb9 ae50 1139 4bc8 7038
00000210: c116 05b8 190f 6138 ff56 d038 c537 00b8
00000220: 1427 bc38 80f0 7137 ab33 5238 489e b738
00000230: 2259 c5b8 8cd0 e4b8 f0a0 b937 a244 66b8
00000240: de41 4cb8 4241 7fb8 8cc1 0fb9 3293 e738
00000250: 34ad 3bb9 22fc 1d38 c732 5439 127f bbb8
00000260: 5ab8 bc38 0ed1 adb6 e41e 5338 4455 7d38
00000270: 7df3 9038 9562 c037 864e ad38 b626 bfb8
00000280: 80a9 1bb7 b41a f338 b65d fa37 ef5b 29b9

exp_avg_sq f4 [164]
2.4502228e-07 5.572348e-06 7.50758e-07 2.5186355e-06 1.6447463e-07 1.2215684e-06 1.8887954e-07 8.1354506e-07
1.1206208e-06 1.9988397e-07 4.685977e-06 2.382183e-07 1.3153463e-07 4.466317e-06 3.3540277e-07 4.7878575e-06
8.6407357e-07 1.0728111e-06 6.073909e-07 3.7866418e-08 3.6321774e-07 1.3500695e-06 5.6470685e-07 3.5604458e-07
4.463259e-06 0.0002859863 9.373639e-07 1.5324342e-07 4.3123183e-07 2.763114e-07 9.819779e-07 1.6591023e-06
3.3248307e-06 2.3348987e-06 2.4047537e-07 1.5949526e-07 1.7835079e-06 3.9405083e-07 1.979211e-06 1.7957959e-06
1.0141979e-06 1.1308176e-06 2.3624041e-07 2.5566655e-07 3.2790763e-07 4.700971e-07 3.9564143e-06 6.8441716e-07
9.0518945e-08 9.44782e-06 2.7805524e-07 9.658745e-07 1.4034603e-06 1.5732293e-06 5.405441e-07 9.69698e-07
2.1682138e-06 3.3784022e-07 9.954819e-09 9.429901e-07 6.4908585e-07 1.9006802e-06 2.7730925e-06 4.930879e-07
1.4944598e-07 1.2346367e-06 8.974908e-07 1.2473049e-06 1.689879e-06 3.5824885e-07 7.434535e-07 8.9627184e-07
2.9339316e-07 2.673296e-06 2.1424362e-06 1.0753428e-06 3.3811057e-07 8.273536e-07 1.3441737e-06 5.1639194e-07
1.6144635e-06 3.0303002e-07 1.3903444e-06 3.5322046e-06 6.211252e-07 2.2824615e-06 1.2144282e-06 1.9963059e-07
9.788426e-07 7.2744757e-07 8.018363e-07 1.7010851e-06 1.033066e-06 1.012693e-06 3.6417978e-07 7.949022e-07
6.578423e-07 6.695587e-07 4.351994e-07 2.3966587e-07 2.5460145e-06 7.811336e-07 8.607688e-07 1.8738816e-06
1.1435525e-06 4.0551546e-07 2.2394265e-06 3.3113827e-06 1.361795e-06 1.3044802e-06 1.0490867e-06 3.6777528e-06
1.5963235e-07 2.7255808e-06 9.808449e-07 2.0711689e-06 3.154984e-07 3.6365472e-07 1.1532577e-06 9.259137e-06
3.505555e-07 3.5878127e-09 1.7330208e-07 1.2733268e-06 1.6440672e-05 3.1192842e-06 4.886934e-07 2.8540984e-07
1.7205609e-06 2.4110973e-06 8.648346e-07 4.3286104e-07 1.1011849e-07 1.0466417e-06 1.108322e-06 2.0506309e-06
1.3667886e-07 2.545316e-06 2.2917428e-07 1.522374e-06 2.6666623e-06 6.5958864e-07 5.261141e-07 1.5820326e-06
1.3102393e-06 4.0208076e-07 5.454877e-06 4.0742395e-07 5.8896205e-07 2.4086814e-06 4.6844116e-06 1.8297207e-07
6.0286504e-07 1.3135107e-07 5.0566364e-08 3.5470342e-07 5.799183e-07 2.1086423e-07 5.0716136e-07 4.5410943e-07
3.3655208e-06 1.611021e-07 3.2571117e-07 1.3512363e-06
00000000: 9b8b 8334 1bfa ba36 b287 4935 d405 2936
00000010: 719a 3034 c5f4 a335 d0ce 4a34 6462 5a35
00000020: 3d68 9635 b09f 5634 3c3c 9d36 f3c8 7f34
00000030: f73b 0d34 5fdd 9536 6811 b434 62a7 a036
00000040: aff2 6735 82fd 8f35 960b 2335 91a2 2233
00000050: 4400 c334 0934 b535 5c96 1735 6526 bf34
00000060: 1ac3 9536 6ef0 9539 289f 7b35 3b8b 2434
00000070: 0d84 e734 f357 9434 81cc 8335 52ae de35
00000080: 2820 5f36 41b1 1c36 af1a 8134 b941 2b34
00000090: dd60 ef35 ef8d d334 96d2 0436 1407 f135
000000a0: 931f 8835 99c6 9735 45a9 7d34 8b42 8934
000000b0: 480b b034 a761 fc34 57c1 8436 cab8 3735
000000c0: 5163 c233 1482 1e37 9f47 9534 32a3 8135
000000d0: 875e bc35 bf27 d335 e819 1135 9226 8235
000000e0: a181 1136 6860 b534 c205 2b32 c921 7d35
000000f0: d73c 2e35 e01a ff35 5e19 3a36 be5c 0435
00000100: 6677 2034 cbb5 a535 19eb 7035 1269 a735
00000110: cdcf e235 5955 c034 bc91 4735 5597 7035
00000120: a683 9d34 e066 3336 c6c6 0f36 7f54 9035
00000130: 9085 b534 4e17 5e35 7569 b435 2f9e 0a35
00000140: 8bb0 d835 21b0 a234 df9b ba35 d00a 6d36
00000150: 66bb 2635 642c 1936 6fff a235 0a5a 5634
00000160: c760 8335 d145 4335 c53d 5735 d750 e435
00000170: e1a7 8a35 deeb 8735 7d84 c334 4361 5535
00000180: 9496 3035 b9bb 3335 5aa5 e934 6dab 8034
00000190: 32dc 2a36 18af 5135 950f 6735 1582 fb35
000001a0: 2a7c 9935 9fb5 d934 0e49 1636 1f39 5e36
000001b0: ebc6 b635 9915 af35 58ce 8c35 50cf 7636
000001c0: 6867 2b34 1fe9 3636 93a5 8335 69fe 0a36
000001d0: c561 a934 533c c334 a2c9 9a35 b157 1b37
000001e0: fb33 bc34 788d 7631 ea14 3a34 2de7 aa35
000001f0: 13ea 8937 e554 5136 c12e 0335 6e3a 9934
00000200: 06ee e635 56ce 2136 fb26 6835 f863 e834
00000210: 487a ec33 567a 8c35 a7c1 9435 929d 0936
00000220: 00c2 1234 32d0 2a36 f212 7634 5f54 cc35
00000230: e9f4 3236 960e 3135 493a 0d35 3a56 d435
00000240: 7bdb af35 8fdd d734 0909 b736 ecbb da34
00000250: 2a19 1e35 d5a4 2136 ca2e 9d36 fb76 4434
00000260: 92d4 2135 8209 0d34 4e2e 5933 116e be34
00000270: afab 1b35 eb69 6234 dd23 0835 53cc f334
00000280: 35db 6136 68fb 2c34 67dd ae34 205c b535
