docs/smld/lightning_logs/version_112/checkpoints/epoch=49-step=4900.ckpt (torch, 346059 bytes, 18 tensors)

ms.layers.0.weight f4 [164, 3]
000000 31 ef 86 bd ae 95 1a be b5 68 96 3c 51 e9 d8 be
       -0.06588591 -0.15096161 0.018360475 -0.42365506
000010 82 ec 82 be 61 92 92 be 7e 36 9d be e9 d5 d7 3d
       -0.25571066 -0.28627303 -0.30705637 0.10538847
000020 cb c4 c8 bd 69 ce 4f 3e 69 06 29 3e 73 78 da 3e
       -0.0980316 0.20293583 0.16506352 0.4267002
000030 de 23 9b be 26 19 8f 3d 47 50 03 3f e5 e8 ab 3e
       -0.30300802 0.069872186 0.5129437 0.33576122
000040 b5 c8 48 be 6e 46 15 3e 1a 62 c8 3e bf b1 b8 be
       -0.19607814 0.14577648 0.39137346 -0.3607311
000050 a7 2a 8b 3c c7 64 c1 bc 09 b2 ac be 8a 30 bb be
       0.016988112 -0.023607625 -0.3372958 -0.3656047
000060 55 67 63 3d 05 db 0e 3e 2e 7d 4d 3f c8 64 95 3e
       0.055518467 0.13950737 0.80269134 0.29178452
000070 40 76 58 3e b8 08 50 be f3 58 90 be 59 f5 e8 3c
       0.21138859 -0.20315826 -0.28192863 0.028437303
000080 90 70 0d 3f 67 5a d4 bb d4 40 4a 3e e1 10 0c 3f
       0.5524988 -0.0064805034 0.19751292 0.54713255
000090 f1 37 3c 3e 92 db e1 be ae f2 26 3f 2b 64 aa 3d
       0.18380715 -0.4411283 0.6521405 0.08319887
0000a0 e4 a7 3b 3e 0b 08 4b 3e 72 4b a3 3e db dd 09 be
       0.18325764 0.19827287 0.31893498 -0.13463537
0000b0 3c f3 77 3f dd 64 d9 3e e8 c3 83 3e 91 83 1f 3f
       0.9685552 0.42459765 0.25735402 0.6231013
0000c0 a8 c2 b2 3e 63 03 ba bd f7 ba 1c 3d 4c 42 86 be
       0.34914136 -0.09082677 0.03826424 -0.26222456
0000d0 16 c8 08 be 3d ec 70 be 18 5e c9 3e ef 44 e1 3d
       -0.13357577 -0.23527618 0.393296 0.10999476
0000e0 02 25 0c 3f a2 61 37 be 24 8b a1 3c e9 65 dd 3e
       0.5474397 -0.17908338 0.019719668 0.43241814
0000f0 0e eb 93 3e 18 24 46 be cf 1d 24 3f 06 9e b4 3e
       0.2889027 -0.19349706 0.64107984 0.35276812
000100 8d c9 00 3d f1 92 18 3f fc 61 af 3e 5f cc 03 3f
       0.031442214 0.59599215 0.34254444 0.5148372
000110 62 24 9b be fa 0f 36 bd 49 1c fa be 9d 04 5d 3f
       -0.30301195 -0.04444883 -0.48849705 0.86335164
000120 fb c2 b1 bc 6f 2a 3f 3e 3b 85 29 3e 24 9c fb 3e
       -0.02169942 0.18668531 0.1655473 0.49142563
000130 cf 08 ce be fd b9 b3 3e 61 09 bb 3e 08 22 d1 be
       -0.40241095 0.35102835 0.36530593 -0.40846276
000140 8e e2 ee 3e b2 92 b2 3e 09 d9 5f be 33 cf b4 be
       0.46657223 0.34877545 -0.21860136 -0.3531433
000150 c8 19 b2 3c e7 8a 81 be 6d 3a a2 3e 0a d8 bc 3e
       0.02174081 -0.25301287 0.316852 0.36883575
000160 d3 88 04 3e e8 d8 f9 3e 5e 3d db 3d fb 15 ea be
       0.1294282 0.487983 0.10705064 -0.45719895
000170 d5 96 d1 be 6e e9 03 3f e8 f6 09 bf 69 0a 41 be
       -0.40935388 0.5152806 -0.53892374 -0.18851627
000180 60 7c b6 be 32 ca 93 3e b1 ed 4a 3f 6b 47 d9 3e
       -0.35641766 0.288652 0.7926894 0.424373
000190 78 08 fb 3d 20 0c 4d bf 56 d6 ea 3e ea bb 98 be
       0.12257475 -0.80096626 0.4586665 -0.29830867
0001a0 a5 3a 8e 3d 8a 9f 06 3f b2 a3 cf bd 82 ee 46 be
       0.06944779 0.5258719 -0.10138644 -0.19426921
0001b0 84 f3 b3 be 42 63 4e bd 65 00 e4 bd 52 da 79 3e
       -0.35146725 -0.05038763 -0.11132888 0.24399689
0001c0 cb e3 e0 3e fd b8 6b 3e 41 25 1b 3e b2 29 95 3c
       0.43923792 0.23019786 0.1515093 0.018208358
0001d0 08 04 68 3e 38 71 ca be 8e 08 8d bd 37 d0 21 bf
       0.22657788 -0.39539504 -0.06886397 -0.63208336
0001e0 65 e7 e3 be 72 a7 aa be e1 d0 1d 3f 4b 93 d2 be
       -0.44512478 -0.33330876 0.6164685 -0.41128
0001f0 4f a0 31 be 1e 0c 09 bd 14 b5 48 3e 7e c0 d6 3e
       -0.17346309 -0.03345882 0.19600326 0.41943735
000200 0a 9f 20 3e 65 83 d8 3d cf 5a fc 3e a0 fb e1 3d
       0.15685669 0.105719365 0.4928803 0.11034322
000210 8d 05 57 be f0 3a d0 3d 32 21 08 3f e1 95 a1 bd
       -0.20998211 0.101674914 0.5317565 -0.07889915
000220 89 4c 04 3f 16 d8 82 3e 7c 8d ed 3e c0 81 03 3f
       0.51679283 0.25555485 0.46397007 0.5136986
000230 36 e7 0e bf 6d 65 31 bd 45 7f 42 bc 47 05 23 3f
       -0.5582155 -0.043309618 -0.011871164 0.6367993
000240 86 2b 75 be 57 df e2 be ef ca 7b be 3b 13 61 3e
       -0.23942384 -0.4431102 -0.24589132 0.21979992
000250 a3 54 b5 ba 02 4b db 3e b8 af c2 bd 87 16 8f 3e
       -0.0013834428 0.42830664 -0.09506172 0.27946874
000260 47 39 97 bf e8 42 82 3e 76 5a 20 3d 8a 5c 96 3e
       -1.1814355 0.2544167 0.03914877 0.29367477
000270 c1 ba b2 bd be 2f ff be 50 71 92 3e 25 1b d4 3e
       -0.08727027 -0.49841112 0.28602076 0.4142696
000280 f9 a4 c4 bd fa d4 19 3f 69 92 3b 3e 9e 2c c8 3e
       -0.096017785 0.600906 0.1831757 0.3909654
000290 0d 44 25 3e 70 71 da 3e 2a 54 db 3e 27 f5 0f 3f
       0.1613924 0.4266467 0.4283765 0.5623345
0002a0 5e 8b 28 be 5d c0 8e 3e 92 dd 0b bf f4 53 97 be
       -0.16459414 0.27881137 -0.54634964 -0.2955624
0002b0 02 ca d6 3e ac ee fb be 1b f7 8d 3d b9 9b 91 be
       0.41950995 -0.4920553 0.06931897 -0.2843912
0002c0 92 aa 94 3e ce d4 aa 3e ed 46 d1 3e 66 63 11 bf
       0.29036385 0.33365482 0.40874425 -0.56792295
0002d0 c8 0f 20 3e a3 0b b4 3e f9 6f 00 3f 9e 5c 9a bd
       0.1563102 0.35165128 0.50170857 -0.075371966
0002e0 89 2f 3c 3e 22 a9 cc be 6d dd 8a 3e e0 87 e4 3d
       0.18377508 -0.39972788 0.2712206 0.111587286
0002f0 bb 93 51 3e 2c 18 67 3e 10 09 cb be 32 32 2b bf
       0.20466511 0.22567815 -0.39655352 -0.66873467
000300 48 1d 8a be 3c d0 93 be 2d 48 f9 be 3a 91 e4 be
       -0.26975465 -0.28869808 -0.48687878 -0.4464205
000310 23 af 2e be ef 5f a0 be 6e fe 00 3f 76 fa ea be
       -0.17058997 -0.31323192 0.5038823 -0.45894212
000320 b2 6d d3 bd 9d e1 e5 bd 0a 39 e2 bd a9 7f 81 3f
       -0.10323657 -0.11224673 -0.110460356 1.0117084
000330 c5 e9 21 be a2 58 09 bf 28 94 c3 3d 89 ec 74 3d
       -0.15811832 -0.5365087 0.09549743 0.05979589
000340 44 57 f8 3e 95 8d 3c 3f 4a 0d c5 3e db 24 cb 3e
       0.48504078 0.7365354 0.384867 0.39676556
000350 83 51 19 bf 4e 47 e3 be c0 e0 3b 3e 7b bd 04 3f
       -0.5989 -0.4439034 0.18347454 0.51851624
000360 5c 9c 7a be 7a 19 d4 3d b5 00 24 bf 68 5b b0 be
       -0.24473709 0.10356422 -0.6406358 -0.34444737
000370 3e 5c 36 be c3 18 58 bf 0f cd da be af f3 da 3e
       -0.17808625 -0.84412783 -0.42734572 0.4276404
000380 e3 56 88 3e 52 c5 bd 3c 5b e1 82 3e 1e 36 39 bf
       0.2662879 0.023165379 0.25562558 -0.723482
000390 07 e6 ce bc 45 bf 7b be 90 79 34 3f 75 6d f7 bd
       -0.02525617 -0.24584682 0.7049799 -0.12081424
0003a0 5e c4 08 bf a1 d6 84 3e 12 59 6c 3e c7 19 09 bf
       -0.5342463 0.25945 0.23080853 -0.5355496
0003b0 91 20 c9 be b8 97 8f be f7 cd f5 be 1b 6c 13 3f
       -0.3928266 -0.2804544 -0.480087 0.5758683
0003c0 df 04 c0 bd fd d9 b3 3d ad 88 fe bf 5d 01 20 3e
       -0.09375929 0.08781812 -1.988546 0.1562552
0003d0 3e 9a 10 be 43 ba 4f 3e 61 e2 53 be 81 dd 96 be
       -0.14121339 0.20285897 -0.20691825 -0.2946587
0003e0 b9 5d 3b be b7 99 91 3d ef 82 d3 be 59 9a 72 bf
       -0.18297471 0.07109397 -0.41310832 -0.94766766
0003f0 b5 05 65 3e 1c 2f 02 3f 98 9a 0d 3e e5 3b e8 be
       0.22365458 0.50853133 0.13828504 -0.45358196

ms.layers.0.bias f4 [164]
000000 e2 6d 64 bf fd e6 a1 3e 50 25 10 bf 0b 3a d5 3d
       -0.8923017 0.31621543 -0.56306934 0.104114614
000010 db 6e 7b 3e 5f 84 19 bf 8a 18 97 be ca fc d4 3e
       0.24554007 -0.5996761 -0.2951091 0.41599113
000020 e0 bf d1 3e 8c 21 b0 3e 74 ee 94 3e 68 c6 ac be
       0.40966702 0.34400594 0.29088175 -0.33745122
000030 ad 35 95 3e 76 23 65 3e 5b 53 64 3f cb 45 dc 3e
       0.29142514 0.22376809 0.8918969 0.43021998
000040 24 c2 00 bf 55 13 6b bc 78 4b a4 be 50 36 06 be
       -0.50296235 -0.014347871 -0.32088828 -0.13106656
000050 0e f9 0c bf fe ae 12 bf 1e fd ee bd 21 cc 2a 3f
       -0.5506753 -0.57298267 -0.11669372 0.66717726
000060 42 2d 13 3f 28 d5 84 3e 94 9b db 3e 91 f0 de 3e
       0.5749093 0.25943875 0.42892134 0.43542913
000070 c9 5e ec be 83 df cc bd 38 07 05 bd ef 21 e6 bd
       -0.46166065 -0.10003569 -0.032477587 -0.11236941
000080 53 ed 3c be 8a 6b 36 3e f9 5f be 3e ae 4b f4 3e
       -0.18449907 0.1781446 0.37182596 0.4771399
000090 c5 9f 12 3f 35 e9 08 3f 01 64 1c bf cf e6 5a 3e
       0.5727504 0.53480846 -0.61090094 0.21377109
0000a0 b6 1e 32 3f 7e 34 f5 3d 0f 6d ad be a7 51 c0 be
       0.6957811 0.11972903 -0.33872268 -0.37562296
0000b0 a4 97 00 3e 72 50 a1 3e 66 43 89 be b4 3c be bf
       0.12557846 0.31506687 -0.26809233 -1.4862275
0000c0 12 0a bc bd 2d 5c e7 3e c5 08 a1 be b8 c4 0c 3f
       -0.09181608 0.45187512 -0.31452003 0.5498767
0000d0 30 0e ea 3e fc 68 49 be 5d c0 1f bf ee f1 41 bf
       0.4571395 -0.19668955 -0.624029 -0.7575978
0000e0 46 ec 03 3f 90 4c fc 3c 28 6b 24 3f f4 b0 8d 3e
       0.515324 0.030798227 0.6422601 0.27674067
0000f0 12 ee 31 3e 84 93 e3 3e 13 0f e6 be fb 76 fe 3e
       0.17375973 0.44448483 -0.44933376 0.4970015
000100 43 c4 a8 be 4f d0 5b bf 00 60 96 3e 3d fa 18 3f
       -0.32962236 -0.8586473 0.29370117 0.59756833
000110 13 a8 ec 3e fd 3e ab 3e f0 c8 1f bf 32 3f 3f 3f
       0.4622198 0.33446494 -0.6241598 0.74705803
000120 90 87 c9 3d 63 2c 86 3e 81 d7 5a bf ad 37 a3 3e
       0.098403096 0.2620574 -0.8548508 0.31878415
000130 77 e3 26 be ee c8 60 be 4a db d5 be e0 96 34 bf
       -0.16297708 -0.21951649 -0.41768867 -0.70542717
000140 83 bb f6 bd 66 65 e5 be 96 ce a7 3d fe 3e c9 bd
       -0.12047484 -0.44803923 0.081937 -0.09826468
000150 e0 6c 92 be 63 c6 3b be ec 42 93 3e 61 35 3e 3d
       -0.2859869 -0.18337397 0.28761995 0.046437625
000160 c1 50 6c 3b 45 6c 36 be b9 28 ee 3e 0b b4 00 bf
       0.0036058875 -0.17814739 0.46515444 -0.50274724
000170 77 31 72 be 32 0d b4 3e ec a7 dc 3e 99 65 43 bf
       -0.23651682 0.35166317 0.43096864 -0.763269
000180 2f 95 af 3d 85 de c7 be cf df b9 bd 24 59 e4 3e
       0.085733764 -0.39036956 -0.09075891 0.4459926
000190 f2 80 89 bd f9 a5 f3 3e 36 59 86 3e 50 97 47 3e
       -0.067140475 0.47587565 0.26239938 0.19491315
0001a0 ce 22 fc be 63 96 1f bf a9 74 a0 be 6d 5e 9a be
       -0.49245304 -0.62338847 -0.31339005 -0.30150166
0001b0 f0 88 89 bf ac 97 99 be b3 86 2f bf b6 fe 30 3d
       -1.0744915 -0.2999853 -0.6856491 0.04321166
0001c0 11 32 10 3f ff 0a 24 bf 06 d6 0f 3f bd 18 38 be
       0.56326395 -0.6407928 0.5618595 -0.17978187
0001d0 bf a4 6e bf d7 98 37 3e df a0 9f 3e 5b ea cc ba
       -0.9322013 0.17929398 0.31177422 -0.0015633808
0001e0 57 ac a1 be 5d 07 e9 be f2 94 38 3e 3e 6e 45 bf
       -0.31576797 -0.4551343 0.18025568 -0.7712134
0001f0 0a cb 15 bf 18 4b e0 be fd f3 f5 be d1 6e d7 be
       -0.5851294 -0.43807292 -0.4803771 -0.42076734
000200 bd bd 65 bf 8d 13 a8 be 3c a6 23 be 17 78 c9 3e
       -0.8974264 -0.32827416 -0.15981382 0.39349434
000210 2b f9 91 3e 2c 8a 2c be 16 a7 c2 bd 74 57 95 3e
       0.28510413 -0.16849583 -0.09504525 0.29168284
000220 fa 7f 1f bf 3d 27 4a bf ad 05 0d bf 40 9f 1c be
       -0.6230465 -0.7896612 -0.55086786 -0.15295124
000230 6e 92 34 bf a0 83 f2 be 8d f4 be be 99 6c 15 bf
       -0.70535934 -0.47366047 -0.37295952 -0.5836883
000240 81 a0 a3 be 79 f0 86 3c 20 b6 4a bd 9f 42 06 3f
       -0.31958392 0.016472088 -0.049490094 0.52445406
000250 56 cc d7 3e c1 7b fe bd 60 ce 03 be a8 55 33 3f
       0.42148083 -0.12425948 -0.12871695 0.70052576
000260 86 39 62 3e 1c fd 35 be 96 d0 4d be 22 de ee be
       0.22092256 -0.17772335 -0.200991 -0.4665385
000270 0d b3 8b be 10 ae c4 3e 9f 35 19 bf a3 bb 34 3e
       -0.27285042 0.3841405 -0.59847444 0.17649703
000280 45 b7 2c be 00 08 72 bf 29 c1 07 3f e2 ef 01 be
       -0.16866787 -0.9454346 0.53029114 -0.12689164

ms.layers.2.weight f4 [164, 164]
000000 e7 8e 09 bd 90 3e 09 bd 48 d2 41 3d 96 b7 45 bd
       -0.033583548 -0.03350693 0.04731968 -0.048270784
000010 c7 48 14 3c bb 97 7d bd 6b 5f 95 bd a8 be b5 bc
       0.009050555 -0.06191228 -0.0729359 -0.022185639
000020 d3 6b 9f 3d 6c ec 09 3c 0e 34 45 bd 2f cd 97 3d
       0.07784238 0.008418184 -0.048145346 0.074121825
000030 d4 87 97 3c e2 73 44 bd 92 b0 a7 bd 43 8c 3c 3d
       0.018497385 -0.047962077 -0.08187975 0.0460322
000040 3b b5 b3 bc f2 ab 81 3d 5a de ad 3c fb 8a 1a bd
       -0.021937003 0.06331624 0.02122419 -0.0377302
000050 7a 8d f9 3b 3a ae 14 3d 75 50 c5 3c 7f 6e 8e ba
       0.0076157423 0.036298968 0.024086216 -0.0010866671
000060 b2 04 5e 3d cc 68 1b 3c 11 ad 15 bd 73 01 46 3d
       0.054203697 0.009485435 -0.036542002 0.048341226
000070 0d cc 3d bd 12 fe 08 3d a4 7d ca bb 89 01 73 bd
       -0.046337176 0.033445425 -0.0061795283 -0.059327636
000080 68 38 38 3d bc b3 56 bc e9 a8 53 bd a8 41 9d bd
       0.04497567 -0.013104375 -0.051674757 -0.076785386
000090 13 ba 93 bd 03 9b 28 bc ee 9b 28 bd da b9 4e 3d
       -0.07213225 -0.010290864 -0.04116433 0.05047021
0000a0 a7 5c 2d 3d c1 6c 1a 3d 8f 9d 0e 3d 60 13 ad bd
       0.04232469 0.037701372 0.03481823 -0.08450961
0000b0 33 b7 a0 3d dc a7 c3 3b 9f 90 de 3c 3b be 52 3e
       0.078474425 0.005970938 0.02716857 0.2058038
0000c0 78 42 05 3d 03 5c 9b bd 6d 39 b4 3c f2 f1 66 bd
       0.032534093 -0.07585909 0.022000039 -0.05638308
0000d0 ed c5 88 3d 99 39 79 bd 46 18 72 bb 0b b5 83 3d
       0.06678376 -0.060845945 -0.0036940738 0.064310156
0000e0 60 86 37 3d 4c 81 75 3d 6f 0c a6 bd 2f 20 c2 bd
       0.044805884 0.05993776 -0.0810784 -0.09478795
0000f0 51 36 62 bd 94 41 d5 bb 29 7f 3d bc 02 ca e5 bb
       -0.05522758 -0.0065080617 -0.011565962 -0.0070126066
000100 7b fe 03 3d b8 8f 27 bd f6 59 83 3d 4c ac b0 bb
       0.032225113 -0.040908545 0.06413643 -0.005391633
000110 38 ee b2 3c 4e 91 61 3d 05 dd 3e bd 60 93 8a 3d
       0.021842107 0.055070214 -0.0465975 0.06766391
000120 57 44 ac bc b5 26 36 bd 0a 7f ca ba 8e fb dd 3c
       -0.02102868 -0.044470508 -0.0015449238 0.02709749
000130 64 7a 9c 3c af e9 f4 bc 68 28 1a 3d da 83 ac bc
       0.01910133 -0.029896585 0.03763619 -0.021058965
000140 c2 99 72 be da 1b b2 bd 4d 97 ba 3c e4 73 88 bd
       -0.23691466 -0.086967185 0.022777224 -0.066627294
000150 92 8b 82 bd e9 cf d2 3c d0 af 14 bd 14 24 8e bd
       -0.06374277 0.025733905 -0.03630048 -0.06940475
000160 e8 31 b9 3b 8f b9 6d bc 2e 92 04 3d c4 4e 85 bd
       0.0056517012 -0.014509573 0.03236597 -0.06509164
000170 85 ba 07 bd 49 80 20 3d 61 8e cc bc 68 fa 54 3b
       -0.033136863 0.039184842 -0.024970235 0.0032497887
000180 01 39 3f 3d 40 3b 86 3d 04 ea 3a 3d 50 a7 1c 3d
       0.046685223 0.0655427 0.04563333 0.0382455
000190 26 e0 17 bd 48 86 ce bb af f3 28 3d 6b 67 5a 3d
       -0.037079 -0.0063026287 0.04124802 0.053321283
0001a0 d0 5f 0b 3d 5c df eb bc 7f e1 0d bd 23 43 a9 bc
       0.03402692 -0.02879303 -0.034638878 -0.020661896
0001b0 ec ba 80 3d 45 1a e5 3c d4 cd 94 3c f7 13 5f 3d
       0.062856525 0.027966628 0.018164553 0.0544624
0001c0 e6 55 84 3c b3 44 9d 3c b7 2d 6f 3d eb b8 31 3b
       0.01615424 0.019197797 0.058393206 0.0027118276
0001d0 45 6d 21 3d 0a af 10 bb f4 df 32 bd 2b 95 8f 3b
       0.03941085 -0.0022076988 -0.04367061 0.004381796
0001e0 46 8d 17 3d 40 ca 88 3d bf d4 90 bd 88 db fc bc
       0.036999963 0.06679201 -0.07071828 -0.0308664
0001f0 93 86 a6 bd 0a b5 57 bd fb a5 43 3d d7 ef 8e bd
       -0.08131137 -0.052662887 0.047765713 -0.069793396
000200 ce c9 c7 3d bf ff 33 bd e0 d6 2f 3d 15 69 8f bd
       0.09755288 -0.04394507 0.04292953 -0.07002465
000210 7f 44 07 bd 5b b4 3e 3d 05 31 8c 3d 64 73 81 bd
       -0.033024307 0.04655872 0.06845287 -0.06320837
000220 68 58 d3 bc 62 75 81 bd 46 69 85 bd 90 e1 96 3d
       -0.025798991 -0.06321217 -0.0651422 0.073672414
000230 3f 60 eb bc 06 4a 69 3d 1c c9 d7 bc 08 6e d6 3c
       -0.028732417 0.05695536 -0.026341014 0.026175514
000240 bd d9 61 3d de dc a2 bd d6 ef fe 3c e5 1d 46 3d
       0.055139292 -0.07952283 0.031120222 0.048368353
000250 31 2c 3f 3d b9 54 00 bd 8f df 0e 3c 67 8e bd bb
       0.046673004 -0.031330798 0.008720293 -0.005784798
000260 20 d2 08 3d 33 b3 fe 3c 38 ec 5e 3c 5a 00 67 bd
       0.033403516 0.031091308 0.013606124 -0.05639682
000270 71 ad 1f bd 42 b1 82 bd 3e b5 3d 3c 4c 6c 7b 3d
       -0.038983766 -0.063814655 0.011578856 0.061382577
000280 4f f2 e8 bb 08 b9 00 3d 1f 5e 28 3d c9 66 d9 3c
       -0.0071089636 0.03142646 0.041105386 0.02653827
000290 40 ad 20 3d 3c a2 d8 bc 0e 89 9a bc 8c 63 51 bd
       0.039227724 -0.026444547 -0.01886418 -0.051120326
0002a0 a3 31 bb bc 30 78 1c 3c 40 e3 47 3d fe 33 ed bc
       -0.022850817 0.009550139 0.048800707 -0.028955456
0002b0 53 cb 7d 3d 3f 8b 99 bc 4e 26 2e 3d f7 52 06 3d
       0.061961483 -0.018743156 0.042517 0.032793965
0002c0 39 24 67 bd 13 9b 60 3d fc 26 27 3d 4f 8c 09 3c
       -0.05643103 0.05483539 0.040808663 0.008395269
0002d0 81 86 47 bd e6 d4 93 bd 6b e4 e6 bc 6f 39 a0 3c
       -0.048712257 -0.072183415 -0.02818509 0.019558636
0002e0 c9 e5 52 3d 6c 77 61 3d dd cd df bc 77 6d 95 3c
       0.05148867 0.05504553 -0.027319843 0.018240673
0002f0 d2 6f 46 3d 8d f3 71 bd e2 75 61 3d 59 0c 2b bd
       0.048446484 -0.05907016 0.055044062 -0.041759823
000300 b3 69 9b bd dc 01 44 3d 44 db 49 bd 04 7f 77 bd
       -0.0758852 0.047853336 -0.049281374 -0.060423866
000310 40 36 a3 3d ef d8 ae bc 74 76 93 bc e5 4e 21 3d
       0.07969332 -0.021343676 -0.018000819 0.03938188
000320 29 a1 70 3d ff 0d 70 3d c1 0a 40 bc a3 96 6a 3d
       0.058747444 0.058607098 -0.011721314 0.057272565
000330 a8 2c 82 bd a4 47 ac bb 6a 76 0e 3d 0e e0 da 3a
       -0.06356174 -0.0052575637 0.034780897 0.0016698854
000340 1a fb 3b 3d cb 7b 05 3d b3 fc 07 3d e7 66 02 3e
       0.045893766 0.03258876 0.033199977 0.12734567
000350 1e 05 00 bd f4 00 49 bd 5b d3 62 bc 55 a9 1d 3d
       -0.03125488 -0.049073175 -0.013844336 0.038491566
000360 36 1c ab 3c c4 3c d6 3c d9 c9 28 bc 97 e4 23 3d
       0.020887475 0.026152022 -0.0103020305 0.040012922
000370 a1 3e a7 3c 7f ae 84 3d 3b d0 00 3c d4 ad 0c 3b
       0.020415606 0.06478595 0.007862146 0.0021465914
000380 7f 0f 03 3d 4d 59 4c 3d 1a da 35 3d 51 21 23 bd
       0.0319972 0.04988985 0.04439745 -0.039826695
000390 c3 9a 75 bd dd db b0 3c 9d 3f 54 3d 6d a5 85 bd
       -0.059962045 0.021589214 0.05181848 -0.06525693
0003a0 45 f1 a5 ba 0d c4 bb bc 9a 2e b9 bc 7b f0 a7 bd
       -0.0012660405 -0.022920633 -0.02260523 -0.08200165
0003b0 9d d9 90 bd 66 be 91 3d 64 26 14 bd 33 44 0d bd
       -0.070727564 0.07116394 -0.036169425 -0.034488868
0003c0 66 d9 cc bc d1 9f 22 bd 79 87 84 3d 39 91 57 3d
       -0.025006007 -0.039703194 0.06471152 0.05262873
0003d0 73 21 fa bd 52 65 c3 3c e4 5c 4b 3d eb ce 50 3d
       -0.12213411 0.023852024 0.049649134 0.050978582
0003e0 f7 24 7b bd ee aa 3e bd 2d 18 15 3d d9 4d 27 bb
       -0.06131455 -0.04654973 0.03640001 -0.0025528579
0003f0 6c 53 73 3d bd d1 8d bd cc 07 89 3d 8d 07 3d 3d
       0.05940573 -0.0692477 0.0669094 0.04614978

ms.layers.2.bias f4 [164]
000000 34 4c 28 3c 00 33 4c bd be 9c a0 bd 0c c5 ce bc
       0.0102720745 -0.049853325 -0.07842396 -0.025240444
000010 69 a8 c8 bd ff 2d c3 3d 5d cf 45 be 2c d9 04 3d
       -0.09797747 0.095302574 -0.19317384 0.032433674
000020 c4 01 63 3c 29 c4 c3 3b e8 67 5a bd 41 90 b1 bd
       0.013855401 0.005974312 -0.05332175 -0.086700924
000030 79 6c 26 3d 19 60 f8 bc a4 28 4e 3e ce 3c 27 3d
       0.04063079 -0.03031926 0.2013269 0.040829472
000040 5e 65 c1 3d 13 62 24 be cf 78 9f bd db 4b 2f 3d
       0.094431624 -0.16053037 -0.07786714 0.04279695
000050 76 cf c2 3b f5 4c 96 3c d4 8c 5d ba 86 f1 37 3d
       0.0059451414 0.018347243 -0.0008451466 0.04490807
000060 be 62 1b 3c 67 5f dd bc e4 c1 41 bd 3b 81 cc 3d
       0.009483991 -0.02702303 -0.04730405 0.09985586
000070 bb 77 5d 3d 9b ba 50 bd 51 c5 98 bd f2 a6 21 bc
       0.054069262 -0.05095921 -0.0745951 -0.009866463
000080 c3 39 6b bd f4 4c 89 3c 0b 5c 96 3d 55 d0 fa bc
       -0.057428133 0.016760327 0.073417746 -0.030616919
000090 e5 a8 15 bd ce 57 bd 3c a3 45 1e 3e fa cb f7 bd
       -0.036538024 0.023113158 0.15456252 -0.12099452
0000a0 e6 c8 04 3d 19 9b 3b 3c aa 49 4c be be 59 23 bd
       0.032418154 0.011450552 -0.19949976 -0.039880507
0000b0 f2 62 18 bd 9a 3a 59 bc 2b a6 69 bd 12 5c fb bb
       -0.037203737 -0.013258601 -0.057043236 -0.0076708877
0000c0 1f 83 54 bd 24 d7 1a bd 71 d1 71 bc 7b 1c 6d bd
       -0.05188286 -0.03780283 -0.014759407 -0.05788849
0000d0 02 ee 89 3d aa 03 56 bc 42 0f 84 be dd b8 a3 bd
       0.067348495 -0.013062397 -0.2579289 -0.07994244
0000e0 72 49 84 3d 2a 59 26 bc 1f 5e 38 3d 22 85 ac 3c
       0.06459321 -0.010153094 0.045011636 0.021059576
0000f0 0b 4e 6d 3d b9 49 56 bd b9 ef 1a 3e 0d c4 dd bc
       0.057935756 -0.0523164 0.1513051 -0.027071023
000100 07 26 de 3d 03 d4 9a bd 55 52 d6 bd 6d f5 69 bc
       0.10847097 -0.07559969 -0.10464922 -0.0142797055
000110 e6 8d 2a 3d 1d aa db bd fc be 33 bd 49 29 02 3d
       0.04163923 -0.10725806 -0.04388331 0.031777654
000120 f8 7d fc bc f2 b3 69 bd 85 2a 70 bc f2 c1 fc 3c
       -0.030821785 -0.057056375 -0.014658575 0.0308542
000130 87 06 e7 3d 43 b7 49 bc 2b a4 c8 3c cb 78 a8 3a
       0.11280542 -0.012311759 0.024492344 0.0012853382
000140 78 25 09 3e 4a 6b 3d bd a8 bf c2 3b d9 89 1a 3d
       0.133932 -0.046244897 0.0059432574 0.037729118
000150 e0 d9 03 be c9 bb 4d 3e bd c2 7e 3e 93 53 4e bd
       -0.12876081 0.20091166 0.24878974 -0.05037267
000160 18 09 dc 3c d2 90 1b 3c f7 92 04 3d 29 03 19 3e
       0.026859805 0.009494977 0.03236672 0.14942612
000170 73 12 1a 3d 5f d6 da 3c db 9c 2d be c4 44 5d bd
       0.03761525 0.026713548 -0.16954367 -0.054020658
000180 c5 58 d7 bd e0 a4 df bc ff 67 07 bd 89 7e 2e 3d
       -0.10514978 -0.027300298 -0.033058163 0.042601142
000190 04 58 21 bd d0 10 8a bc b0 70 14 3c 83 84 ca 3d
       -0.03939058 -0.01685372 0.00906007 0.09888556
0001a0 28 bc 30 3d 34 8f 60 3d 21 fb 6c 3d 41 85 aa 3d
       0.04314819 0.05482407 0.057856683 0.083261974
0001b0 a4 df 4e 3e a9 74 32 bc de 35 fe 3c 9a b9 7d 3d
       0.202025 -0.010892072 0.031031545 0.06194458
0001c0 bb c8 8f 3d bf 60 d6 bc 87 9c 4e 3d 29 68 2f 3e
       0.07020708 -0.026169179 0.050442245 0.17129578
0001d0 df 1d d6 bd 65 c4 fd bd ea 7e b0 bd d6 b6 4a bd
       -0.10454916 -0.12390975 -0.08617957 -0.049490772
0001e0 23 af b9 bd 5f 1a 37 3c d9 08 60 bd 68 76 19 3e
       -0.09066608 0.011175721 -0.054695938 0.14986575
0001f0 62 75 48 3d 91 08 40 3e c6 b0 98 3d 6c 7c a0 bd
       0.04894007 0.18753268 0.07455592 -0.078362316
000200 0b ec b9 3b 6b ee 58 bd 09 af 05 bd 01 92 b9 3b
       0.0056738905 -0.052961748 -0.03263763 0.005663157
000210 55 fd 76 bd 27 f7 10 bd c7 97 7f bd d6 35 14 bd
       -0.06030019 -0.035391953 -0.062400606 -0.036184154
000220 a2 44 bc 3d d8 94 47 3d 66 28 4f 3d 54 35 fc bc
       0.09192778 0.048725933 0.050575636 -0.030787148
000230 c7 bd eb bd 82 50 b8 be a3 fe 06 3a 09 51 85 3b
       -0.115108065 -0.35998923 0.0005149638 0.004068498
000240 ab d3 0c be 10 90 a8 bc c3 98 7f bd 49 27 5f 3d
       -0.1375262 -0.020576507 -0.062401544 0.054480825
000250 4b 23 ae bd 7c 87 4b 3d ce 21 a9 3d 4d b6 20 bc
       -0.08502825 0.049689755 0.08258401 -0.009809089
000260 a9 da f4 3d b0 59 8f 3d 21 5c 89 3d 0f 1a c3 3c
       0.119557686 0.069995284 0.06707025 0.023816137
000270 52 d1 04 bd f6 de 5e bc 58 1a 76 3d f4 ae d0 3d
       -0.032426186 -0.013602963 0.060083717 0.1018962
000280 dd d1 09 3d 5c bb 9c bd 3e e3 b5 be d1 15 12 bd
       0.033647407 -0.076529235 -0.35524935 -0.035665337

ms.layers.4.weight f4 [2, 164]
000000 b6 56 46 3d a1 85 71 3c 76 df 84 bc 09 0c 9c 3c
       0.048422538 0.014741332 -0.016219836 0.019048708
000010 f2 6b 28 3b f7 fd 9b bb 94 c2 86 3d 98 2b 73 bd
       0.0025699106 -0.0047604996 0.065800816 -0.059367746
000020 e1 d8 f3 bc 44 b3 76 3c df 50 4d 3b 40 dd a5 bc
       -0.029766502 0.015057389 0.003132872 -0.020247102
000030 41 68 2a bd 78 04 66 bc 8a 3f 6d bd b5 24 14 bd
       -0.04160333 -0.014039151 -0.057921924 -0.03616782
000040 44 a1 94 bc 94 a3 c9 3d c1 6f 06 3c bb 1b 85 bb
       -0.018143304 0.09845653 0.008205355 -0.0040621436
000050 27 09 a4 3c 3c a4 c1 3a 1b 9a bb 3c 76 6d 8c bd
       0.020023895 0.0014773677 0.022900632 -0.068568155
000060 34 18 8a bd 7c af e4 3c c7 27 10 bd 22 60 01 3e
       -0.06742898 0.027915709 -0.035194185 0.12634328
000070 f2 0f 88 3d 56 b9 ad 3c 06 16 05 3a 1c 33 c4 bc
       0.06643666 0.02120654 0.0005076829 -0.023950152
000080 92 09 1a 3c 0b e8 28 bd 0c 53 e4 3c c8 d5 f5 3c
       0.009401696 -0.04123692 0.027871631 0.030009165
000090 f1 13 2e bb 72 37 f9 3c 9c 76 6c be 29 9e 06 bc
       -0.002656218 0.030421946 -0.23092121 -0.008216419
0000a0 ab bb 0c 3e b6 7f bb bc df 52 6e bd 38 6b 14 3d
       0.13743465 -0.022888046 -0.0581845 0.036235064
0000b0 cb 39 c0 bc 80 12 82 bc 8e f5 4d 3b ca cd 94 3c
       -0.023465058 -0.015877962 0.003142688 0.018164534
0000c0 12 17 8c 3c 0e fe a0 3b cf e9 94 bc 4d b6 a1 39
       0.017100845 0.004913098 -0.018177895 0.00030844138
0000d0 61 6b 67 bc 7c 0b cf 3c 17 5f 01 3e 31 a6 24 bd
       -0.014124722 0.02527403 0.1263393 -0.040197555
0000e0 97 99 81 3c 13 1f 18 bd c4 a6 6f 3d 2d 65 09 3b
       0.015820308 -0.03713901 0.05850865 0.0020964846
0000f0 59 56 7a bc 17 05 80 ba d4 44 d3 3d b3 47 32 bd
       -0.015279376 -0.0009767142 0.10315862 -0.04352541
000100 30 38 a8 3b fc 72 de 3c 35 ab 5c 3d 5b fb e4 3c
       0.005133651 0.027154438 0.053874213 0.027951887
000110 86 21 bc bc 84 5a b7 3c 6a 54 ce 3c d1 ad bf 3b
       -0.022965204 0.022382028 0.025186736 0.005849578
000120 33 5c b9 bb d9 d9 9c bd e9 2f d0 bb e3 0f 61 bd
       -0.005656743 -0.07658739 -0.0063533676 -0.05494679
000130 dd 96 ca bd 18 27 f1 bb ab 96 3d bd e3 0c 3b 3c
       -0.09892056 -0.0073593967 -0.046286266 0.011416647
000140 28 4c 8d bd d4 21 16 bd ea 0b ab ba 8f 87 40 3d
       -0.06899291 -0.036653355 -0.0013049815 0.04700428
000150 63 86 e4 3c 0d 6a dd bd f0 6c d9 bd 7a 4a 92 3b
       0.027896112 -0.10811243 -0.10616481 0.0044644447
000160 2c f6 b0 bb 56 b6 7b 3c 60 d2 14 3c ba bc a5 bd
       -0.0054004397 0.0153632965 0.00908336 -0.08092637
000170 79 87 53 3c 48 5c dc 39 09 e8 30 3c 8b 73 80 3b
       0.012910717 0.00042030425 0.010797509 0.003920024
000180 d2 b4 10 bd 72 be 16 3d 87 c0 09 bd 1e 45 05 bd
       -0.035328694 0.036802717 -0.033630874 -0.03253662
000190 27 c3 d1 bc 61 e9 0d be d4 38 c2 bb 88 80 08 3d
       -0.025605751 -0.13858558 -0.0059271846 0.033325702
0001a0 05 6c 4e 3c 92 f1 93 3c 76 bf bb bd e2 4b 84 3e
       0.012598996 0.018059526 -0.09167378 0.25839144
0001b0 a1 f4 13 be 26 a9 d3 3b 3b 33 14 3d d7 07 be 3b
       -0.14448787 0.006459373 0.03618167 0.0057992744
0001c0 46 58 a8 3c fe 6f 92 bc 3d 50 f1 3c 2e 33 49 3d
       0.020549905 -0.017875668 0.029457206 0.049121074
0001d0 4b 78 d2 bc ef b8 10 bd 57 09 b3 ba a4 a6 b9 bb
       -0.025692126 -0.035332616 -0.00136594 -0.005665617
0001e0 88 e1 7c bc 1b c9 a0 bc a0 c9 8e 3c 1d 81 dd bb
       -0.01543463 -0.019627145 0.017430127 -0.0067597763
0001f0 ef 08 fb bc d9 dc 0b 3d 85 6f 3a bc 62 ec 07 3b
       -0.030643908 0.034146164 -0.011379127 0.002074026
000200 3d 23 16 bd bd 1b 53 3d 7f 7b 19 3c d8 da 9c 3c
       -0.0366547 0.051540125 0.009367823 0.019147322
000210 74 b3 2e bd 8c 8a 84 bc 67 d4 a0 3c f2 de 4b bb
       -0.04265161 -0.016179346 0.019632531 -0.0031108228
000220 b1 df f0 3d 75 74 49 bc 12 25 de bc 29 47 e5 bc
       0.11761416 -0.012295832 -0.027117286 -0.027988033
000230 bf 0c 01 3d aa 4a a4 3e 88 2f f1 bb 15 4c 60 b9
       0.031506296 0.32088214 -0.0073604025 -0.00021390647
000240 55 5a 2e 3d ec e7 92 bc 0b 7e 9f bb 6f e4 82 bb
       0.042566616 -0.017932855 -0.0048673204 -0.0039945166
000250 c1 a1 fc 3c 24 4e 96 3d 3a cc dd 3c 87 bc 2c 3b
       0.030838849 0.07339123 0.027074922 0.0026357488
000260 6b f6 e8 3d 0e 1d 29 bd 1b 0e 37 3d 01 30 c6 3a
       0.113751255 -0.041287474 0.044691186 0.0015120507
000270 5d ce 23 3d b2 d9 1e bd d9 2f ba ba 43 e8 90 3c
       0.039991725 -0.03878183 -0.0014204934 0.017688876
000280 df fc 81 bd 8f 1d bf bc 2a 2d dd 3e a7 ad 19 bd
       -0.063470595 -0.023329524 0.4319852 -0.037519123
000290 a2 b7 1c bd 61 72 7e bc 95 20 a5 3c 53 85 98 3c
       -0.038261063 -0.0155302 0.020157138 0.018618261
0002a0 01 64 24 3c d2 83 d6 bc e5 b1 49 be b8 c1 e8 3c
       0.010033608 -0.026185904 -0.19696768 0.028412685
0002b0 e1 27 3e 3d aa d3 00 bd f0 16 c1 bc 22 e0 8a 3c
       0.04642475 -0.03145186 -0.023570508 0.016952578
0002c0 a5 22 50 bd 70 63 59 3d e3 89 a2 3e 96 a3 6c bc
       -0.05081429 0.053073347 0.31745824 -0.014443299
0002d0 a5 f7 c8 bd 55 66 1b be 70 76 b7 3c 9f b7 b1 bc
       -0.098128594 -0.15175755 0.022395343 -0.021694003
0002e0 3e f4 a6 bb 5d 8d e7 ba 0e fe 00 bd 20 2e 0c 3e
       -0.005095034 -0.0017666031 -0.031492285 0.1368947
0002f0 cd 27 47 3d 08 43 52 3d b8 ec c0 bc 89 1d 06 3e
       0.04862194 0.051333457 -0.023550376 0.13097204
000300 e0 5a 03 bd 90 ed cf 3c dc e5 54 bb 78 b2 fb bb
       -0.032069087 0.025381833 -0.003248564 -0.0076811872
000310 4e ae 21 3d ab 9d fc bc 64 e9 6d bd 14 17 0f bd
       0.03947287 -0.0308369 -0.058083907 -0.03493412
000320 f1 9f 46 bc e0 c5 95 3c fe 16 9c 3d 5b 08 48 bc
       -0.012123094 0.01828283 0.07621573 -0.012209023
000330 c9 22 9a 3d b1 90 82 bc 48 30 69 3d 47 09 ee 3c
       0.07526166 -0.015938135 0.05693081 0.029057158
000340 37 ab 23 bd 30 c9 e8 3b a2 db 08 bb ab b7 c4 3c
       -0.039958205 0.0071040615 -0.0020882864 0.024013361
000350 c9 25 bf bb b3 7e 40 bc 46 02 39 3d 80 48 9b 39
       -0.0058333618 -0.011748957 0.045168184 0.0002961792
000360 ae dd ec 3c d8 ef 48 3c 3a a5 13 3e f7 18 03 3d
       0.028914299 0.012264214 0.14418498 0.03200623
000370 6a be c8 3c 1d be 3e bd f1 8a 94 3d aa af 11 bb
       0.024504859 -0.046568025 0.072530635 -0.0022229948
000380 d1 50 d2 3b 1f 6f ac 3c 1c a1 f3 3d 37 d8 79 bd
       0.0064183255 0.02104908 0.118959635 -0.060997214
000390 68 13 a0 3b af 49 62 3d 3c 0d da bc dc b1 33 3c
       0.004885126 0.05524605 -0.026617639 0.010967698
0003a0 df 6d 7b 3c 8d d4 8a bc e6 5b cf 3c 1b a7 cb 3c
       0.0153460195 -0.016947055 0.025312375 0.024859956
0003b0 e9 05 d2 bc 4d a5 a8 3b 55 35 38 bd 01 b4 88 3d
       -0.025637584 0.0051466585 -0.044972736 0.06674958
0003c0 65 71 e8 3c ba 5a 6f bc 39 f8 37 bd a3 cd f5 bc
       0.028374383 -0.014609033 -0.044914458 -0.030005282
0003d0 8f 2f bf bd 12 df dc 3c 4f 00 10 ba ea be e1 bc
       -0.09335243 0.026961837 -0.000549321 -0.027556855
0003e0 e1 73 25 bd 5f 7a ac 3d f7 48 43 3d ad f3 67 3c
       -0.040393714 0.08421778 0.047677007 0.014157218
0003f0 42 59 c1 3c c0 d6 e5 3c 70 ff 83 3c 5b a9 4c 3d
       0.023602132 0.028056502 0.016113013 0.049966197

ms.layers.4.bias f4 [2]
000000 78 16 ba 3b 05 fa 09 bc
       0.005678948 -0.008421426

exp_avg f4 [164, 3]
000000 16 af 3b 3a 8e ac 1c bb 37 54 57 39 2e 46 84 ba
       0.0007159574 -0.0023906562 0.0002053537 -0.0010091716
000010 da 9a 0e 39 90 63 9d 38 da aa 94 3a 80 28 5f b7
       0.00013599862 7.504888e-05 0.0011342422 -1.3301265e-05
000020 ef f7 cd b9 73 c8 b9 3a 4b 46 85 3a 5e aa b7 38
       -0.00039285372 0.0014174118 0.0010168044 8.757853e-05
000030 8d 29 3c ba bb 63 9c 39 8c b6 4f 3a 68 e3 16 3b
       -0.00071778224 0.00029828944 0.0007923625 0.0023023728
000040 2e 51 87 3b 60 14 ae b6 e1 e0 2e 3a 2c 7c 79 3a
       0.0041295504 -5.187976e-06 0.0006671083 0.0009517099
000050 95 4a ad 38 f1 86 ab ba a7 d5 47 ba de 80 6c 38
       8.263175e-05 -0.001308648 -0.0007623084 5.63868e-05
000060 16 29 90 ba 5a 5d b5 b9 2c fc 4a 3a a6 cc 10 3a
       -0.0010998573 -0.00034592563 0.0007743265 0.0005523659
000070 e2 3b 85 38 a8 a5 7f 38 16 ac 06 b9 09 f5 03 3b
       6.353088e-05 6.0951017e-05 -0.00012843343 0.0020135066
000080 fc bf 61 3a 7f 43 62 3a 3c da 85 b9 50 11 01 b7
       0.0008611677 0.00086312735 -0.00025530334 -7.69303e-06
000090 a6 e5 39 3a ec 6a 42 3a 55 ac d5 38 97 de b6 39
       0.000709141 0.00074164453 0.00010188731 0.00034879587
0000a0 b2 a7 ea 39 f4 9b 87 39 6a d2 49 3b 2a 7d 65 3c
       0.000447569 0.000258654 0.0030795583 0.014006892
0000b0 c8 78 da 3a fb 92 8b 39 f8 9a f9 b7 11 01 86 b8
       0.0016668076 0.00026621655 -2.9755276e-05 -6.3898166e-05
0000c0 da 9c 8d ba a4 03 90 ba 88 d7 30 39 ea fc 86 ba
       -0.0010804192 -0.0010987413 0.0001686496 -0.0010298763
0000d0 ca 4a 1a ba 99 bf 87 b6 5c 50 18 ba ee d3 19 ba
       -0.0005885778 -4.0456184e-06 -0.00058103143 -0.0005868067
0000e0 14 7e 8f b9 25 99 7f ba 10 4a 9c 38 d1 94 36 3a
       -0.0002736902 -0.00097502983 7.452455e-05 0.00069649244
0000f0 30 18 49 bb a5 9e f0 bb 5e 16 89 b9 d6 6e 98 ba
       -0.0030684583 -0.0073431307 -0.0002614734 -0.0011629711
000100 29 c7 51 ba c2 85 0f 39 dc a5 f3 b9 0c f5 aa b9
       -0.00080023945 0.00013687371 -0.00046472147 -0.000326075
000110 bc fc cd b8 93 e6 8e b9 ee 20 d1 3a 50 6a d1 39
       -9.822237e-05 -0.00027256142 0.0015955248 0.00039942795
000120 5c 85 45 b9 40 38 6d b8 92 12 7d 3a 36 46 16 b9
       -0.00018837064 -5.655759e-05 0.0009653951 -0.0001433127
000130 c5 51 28 bb 73 e4 54 38 e3 c9 b0 ba 3e 13 54 bb
       -0.0025683504 5.07575e-05 -0.0013487901 -0.0032360102
000140 ad f8 ef 38 ba 98 88 3a c6 ff bf 3a 12 e4 19 39
       0.000114427276 0.0010421493 0.001464837 0.0001467618
000150 b4 7d 0e ba 1f 6d 5f bb 1a b1 57 39 c7 11 1d 3a
       -0.00054356013 -0.003409214 0.00020569973 0.0005991724
000160 28 4a 49 38 ff ce 3a 39 15 af 43 3a 40 bd 93 36
       4.7991198e-05 0.00017815454 0.0007464749 4.402973e-06
000170 e8 ce 0f 38 16 95 58 ba f8 c5 c0 ba 4c 03 88 b9
       3.4286553e-05 -0.00082619616 -0.0014707437 -0.00025942398
000180 02 c5 30 ba bd 6b c5 b9 d8 ca ff 39 c0 25 20 37
       -0.00067432236 -0.0003765504 0.0004878852 9.5455325e-06
000190 ac 7a 06 39 b1 65 b5 37 4f d6 c7 ba ce a0 5c ba
       0.00012824935 2.1624235e-05 -0.0015246364 -0.0008416296
0001a0 cf 46 70 b9 1a 4d 7a 3a 98 22 0c ba 68 e7 13 38
       -0.00022914562 0.0009548232 -0.0005345731 3.5263045e-05
0001b0 44 8e 17 b9 10 cc 98 3a d0 88 88 39 08 08 09 ba
       -0.0001445348 0.0011657495 0.00026041875 -0.0005227332
0001c0 1a d8 a3 b9 be fa b1 38 21 30 a1 ba e4 6d d9 ba
       -0.0003125079 8.486722e-05 -0.0012297669 -0.0016588536
0001d0 10 e8 97 b9 54 64 6b b9 e4 06 ca 39 16 4c c6 38
       -0.00028973864 -0.00022448722 0.00038533576 9.455548e-05
0001e0 a4 55 a5 b9 38 80 42 39 3c 3c 2c 39 7b bb 99 b9
       -0.0003153506 0.00018549047 0.00016425637 -0.00029322118
0001f0 70 74 90 ba 3e 87 fb 38 a4 71 5b b9 5a 3c 4e b9
       -0.0011021029 0.000119938035 -0.00020927802 -0.00019668174
000200 47 cd ad b9 c8 82 98 39 1e da 34 b9 fa e8 14 ba
       -0.00033150075 0.0002908914 -0.00017247393 -0.0005680468
000210 90 e9 66 39 95 2a bd 3a a2 fd 6a 3a d0 d0 27 3a
       0.00022021518 0.0014432246 0.0008964186 0.000640166
000220 c8 d0 25 3a ff bc 03 39 64 17 fe b9 98 e2 96 b8
       0.00063253613 0.0001256354 -0.00048464083 -7.194764e-05
000230 62 70 cf 38 ac 35 33 3c 52 81 85 bb 26 65 06 bc
       9.891462e-05 0.010938089 -0.004074254 -0.008202827
000240 62 e4 b3 39 46 11 0e 3a ec bf 17 37 10 d2 a1 38
       0.000343117 0.0005419444 9.044987e-06 7.7162054e-05
000250 45 86 81 ba ab 48 2d 3a df 50 13 3a 6c e2 8f 38
       -0.0009881934 0.00066102546 0.0005619656 6.860946e-05
000260 b9 9d ca b7 ae eb 29 b9 f8 af 49 38 56 b2 18 3a
       -2.4153722e-05 -0.00016204893 4.8086018e-05 0.0005824914
000270 4d 49 0f ba bd 46 ff b9 69 47 25 b9 f5 7a 49 39
       -0.000546594 -0.00048690094 -0.00015762229 0.00019214659
000280 cb ae 45 3a 97 a3 b5 39 dc 73 a1 b9 b8 f0 b6 38
       0.0007541 0.00034644894 -0.00030794635 8.723274e-05
000290 f8 08 dd b9 99 f4 71 ba 1e c6 6d ba 5f 82 47 b9
       -0.00042159087 -0.00092298683 -0.0009070354 -0.00019026686
0002a0 5e f3 5a 3a 8c f7 65 3a b4 27 49 38 ac 1a cf 3a
       0.00083523046 0.0008772544 4.795911e-05 0.0015800796
0002b0 61 dc 00 3a c6 8f 1b b9 88 f8 1c 3a a3 5f 02 3b
       0.00049156515 -0.00014835512 0.0005987962 0.001989343
0002c0 24 e0 2f 39 cd 87 ce 39 dd 08 4c 3a ba b9 21 b9
       0.000167728 0.0003939256 0.0007783303 -0.00015423345
0002d0 ff f5 a4 39 4b fb 0d b9 53 d4 d9 39 60 5a 90 b7
       0.000314638 -0.00013540422 0.0004154766 -1.7208222e-05
0002e0 74 4d 50 b9 07 de 59 b9 87 eb bc b8 ae 72 63 b9
       -0.0001986528 -0.00020777444 -9.008409e-05 -0.00021691128
0002f0 d9 b8 06 39 93 cd 3f 3a 1d b9 9c 3a 91 55 bd 38
       0.00012848097 0.0007316705 0.0011957024 9.02816e-05
000300 51 d7 92 39 2b 9b d4 b8 6f 91 45 b8 71 20 a1 39
       0.00028007713 -0.0001013785 -4.7103906e-05 0.00030732484
000310 6d 92 5e ba 7b fd 7d b9 07 ea ae b9 40 9e 13 b8
       -0.0008490447 -0.00024222389 -0.0003336223 -3.5194913e-05
000320 16 73 0e 38 78 7a a1 39 ce ae 85 ba 54 d1 5e b9
       3.396262e-05 0.0003079956 -0.0010199191 -0.0002124955
000330 90 5c 0c ba bb 0e 55 3a 50 85 b6 b8 f4 52 05 ba
       -0.0005354369 0.00081275 -8.703268e-05 -0.00050859083
000340 d4 a7 67 ba 1c f8 80 3a b2 e8 d3 b9 e8 91 fe b9
       -0.0008836959 0.0009839567 -0.00040418428 -0.00048555364
000350 f6 14 64 b9 ea 8e f3 b9 ee 4d 1c 3a 98 db 3e 39
       -0.00021751583 -0.0004645505 0.000596254 0.00018201617
000360 01 91 48 b9 c2 6b 93 3a 90 cb df 37 38 fc 9c b9
       -0.00019127504 0.0011247324 2.6678463e-05 -0.00029942556
000370 8f 2b 8b 39 ac 66 e0 b7 1a 63 aa 3a fb 1c 86 ba
       0.000265446 -2.6750691e-05 0.0012999505 -0.0010232026
000380 23 04 5c ba 42 af 99 3a 47 5d 6f 39 b2 8e 0c b9
       -0.00083929504 0.0011725205 0.00022827565 -0.00013404599
000390 a4 d7 5a 3a 96 a4 f1 b8 dc 48 b5 39 3c 32 be 3a
       0.0008348173 -0.00011522432 0.00034577295 0.0014510821
0003a0 14 3f ce 39 bc cd 82 b6 0c 98 36 ba e5 d2 f8 b9
       0.0003933838 -3.8982525e-06 -0.0006965406 -0.00047459375
0003b0 27 31 a9 b8 c0 76 12 3a 28 82 8b ba 64 35 6b 37
       -8.067703e-05 0.0005587153 -0.0010643648 1.40195225e-05
0003c0 9d f4 3c 3a 89 75 68 3b 19 7a 87 38 f6 df 3e b9
       0.0007208081 0.0035470447 6.460044e-05 -0.00018203244
0003d0 f5 56 c9 ba b8 68 21 b8 f5 b7 85 39 d0 bf d3 39
       -0.0015360998 -3.8482918e-05 0.00025504795 0.00040387968
0003e0 60 2f af 37 9d 51 e8 39 a5 33 07 3b 8c f9 b8 38
       2.0883686e-05 0.00044311295 0.0020630148 8.8202854e-05
0003f0 f7 28 8a ba a3 d7 f6 b9 b3 1e f8 b9 10 bd 09 3a
       -0.0010540773 -0.00047081438 -0.0004732512 0.0005254308

exp_avg_sq f4 [164, 3]
000000 2e 4b f3 37 0a 21 a3 38 8e 73 93 36 1f e7 07 38
       2.9002866e-05 7.7786e-05 4.3943937e-06 3.2401756e-05
000010 e2 7a 1e 38 14 1e 40 34 78 18 04 38 29 2c 78 37
       3.778458e-05 1.7892336e-07 3.149404e-05 1.4792234e-05
000020 53 99 6a 35 97 dd aa 38 e9 b8 d7 38 d6 3f ca 34
       8.739491e-07 8.147506e-05 0.00010286441 3.767188e-07
000030 fa 47 e0 37 ed 1b af 37 b7 6d 05 36 86 e5 af 38
       2.6736398e-05 2.087463e-05 1.9882407e-06 8.387402e-05
000040 2a c5 87 38 9e 2d 17 35 60 d7 97 38 73 e6 7b 38
       6.474026e-05 5.6318265e-07 7.240358e-05 6.0057686e-05
000050 9d 58 50 34 56 81 7d 38 a8 0a b7 38 2b 3f fe 34
       1.9403747e-07 6.0440354e-05 8.728105e-05 4.7357148e-07
000060 d3 6c fc 38 a1 78 05 39 70 8f 0a 37 3d ba b4 37
       0.000120365665 0.00012728806 8.258838e-06 2.1544396e-05
000070 d9 31 40 37 0c cd be 33 db c3 82 37 a5 e4 8b 37
       1.1455698e-05 8.884862e-08 1.558841e-05 1.6676562e-05
000080 70 46 0e 36 98 7f 14 38 54 ae 1c 38 b4 92 e3 35
       2.120065e-06 3.540478e-05 3.7355654e-05 1.6955514e-06
000090 0f 0b 53 38 7c 23 ee 37 bb e5 3a 35 47 9f 92 37
       5.031662e-05 2.8388335e-05 6.96247e-07 1.7478726e-05
0000a0 6c 49 86 37 91 2c b7 34 86 8b ee 38 c8 92 33 39
       1.6008235e-05 3.4118833e-07 0.000113747126 0.0001712545
0000b0 2e 42 4e 37 10 d3 6d 37 54 87 8f 37 25 a0 30 35
       1.22939655e-05 1.4175443e-05 1.7109945e-05 6.579815e-07
0000c0 04 e1 5a 39 17 be 8c 38 fc a8 b1 34 0e d9 cf 37
       0.00020873925 6.711127e-05 3.3091771e-07 2.4777397e-05
0000d0 86 22 04 38 3c 4b df 33 0f a7 d7 37 90 17 ff 37
       3.1503405e-05 1.0397932e-07 2.570779e-05 3.0409341e-05
0000e0 78 d1 f2 34 26 40 a0 37 65 99 dc 37 28 d0 33 36
       4.522842e-07 1.9103358e-05 2.6297474e-05 2.6794241e-06
0000f0 60 7c d0 38 24 43 a1 38 80 d4 38 36 95 ab 63 38
       9.9413795e-05 7.689584e-05 2.7541828e-06 5.4280816e-05
000100 05 b3 89 38 75 a1 93 35 89 0e 86 38 f5 c6 bd 38
       6.566014e-05 1.0999344e-06 6.392325e-05 9.049281e-05
000110 51 20 b2 34 9b cf 43 38 cf 1f 15 38 3b b7 7c 35
       3.3178597e-07 4.668497e-05 3.5553992e-05 9.414395e-07
000120 d0 3d df 37 0b a5 d9 37 2a ee 04 36 8e ca 47 38
       2.6612455e-05 2.594527e-05 1.9808163e-06 4.763394e-05
000130 a4 3a 83 38 22 d1 ec 34 3c eb 18 38 cf 5d 50 38
       6.2574894e-05 4.411059e-07 3.6458703e-05 4.967843e-05
000140 4e 2f fc 35 f2 f1 e7 37 f1 49 59 37 f0 c5 19 34
       1.8789231e-06 2.765001e-05 1.2951424e-05 1.4321245e-07
000150 25 2b bb 38 cb f2 3a 39 15 06 ad 35 79 f1 a6 37
       8.924891e-05 0.0001782879 1.2891275e-06 1.9901187e-05
000160 39 fd a3 37 8f d6 63 34 73 14 5c 37 a9 12 0f 37
       1.954903e-05 2.1219078e-07 1.3117783e-05 8.527809e-06
000170 ef c6 0b 34 24 d3 dd 37 8a 8b 63 38 ce e6 be 34
       1.3017755e-07 2.6443573e-05 5.4250973e-05 3.555819e-07
000180 d2 6c 32 38 b1 c1 90 37 2c f6 d2 35 60 d8 64 37
       4.2539854e-05 1.7256332e-05 1.5717865e-06 1.3640238e-05
000190 41 a6 5e 37 df e4 f3 33 79 eb 2e 38 12 36 9a 37
       1.327094e-05 1.1357201e-07 4.1704134e-05 1.8383409e-05
0001a0 10 25 12 35 f4 7f d3 37 d1 bd a8 37 28 5f 6c 34
       5.444317e-07 2.5212743e-05 2.011555e-05 2.201383e-07
0001b0 13 0f dd 37 35 99 9f 37 05 99 43 34 0d ec 96 38
       2.6352272e-05 1.902562e-05 1.8216458e-07 7.196525e-05
0001c0 c1 34 b7 37 2c 24 f4 34 6a 5e 0c 38 3b cd de 37
       2.1839865e-05 4.547486e-07 3.346653e-05 2.656003e-05
0001d0 be d4 2f 35 fb 44 d5 38 01 b9 c9 38 4e 1d de 34
       6.550216e-07 0.0001016948 9.6188865e-05 4.1372044e-07
0001e0 4c 56 ac 37 a7 ee 12 38 ea 4b a2 35 53 1b 39 37
       2.0544183e-05 3.5031375e-05 1.2092034e-06 1.1033221e-05
0001f0 e6 ba 3a 37 8c 97 b5 34 0e 2d 3f 37 55 2b 30 37
       1.112998e-05 3.3824142e-07 1.1394977e-05 1.05005065e-05
000200 f9 50 79 34 56 f2 d5 37 20 3d a7 37 5d 4d 2c 35
       2.321939e-07 2.5504425e-05 1.9936415e-05 6.418757e-07
000210 bb 35 ad 38 e1 73 ae 38 bd de 65 36 47 ec 22 38
       8.259291e-05 8.318551e-05 3.425331e-06 3.884386e-05
000220 e7 9a 95 38 4c de 20 35 f4 af f9 37 9b 01 df 37
       7.1337265e-05 5.992813e-07 2.9765048e-05 2.658442e-05
000230 0d d6 31 34 80 63 79 3a 38 49 3a 3a b2 cf 02 39
       1.6562281e-07 0.0009513423 0.00071062474 0.00012475139
000240 51 42 e0 36 7b f7 39 37 fd 49 38 34 9b 9d 4a 38
       6.6834405e-06 1.108448e-05 1.7163252e-07 4.8307335e-05
000250 d5 6c 56 38 be cc 3b 36 e8 be 4f 37 64 c5 4a 38
       5.1122934e-05 2.7984347e-06 1.238261e-05 4.8344387e-05
000260 fd 14 3e 33 e9 aa 48 38 8c 53 d6 37 6a dc 4f 35
       4.425691e-08 4.784289e-05 2.5549693e-05 7.7434254e-07
000270 1f 27 91 37 5e e6 ce 37 9e 74 72 34 a4 ca b6 38
       1.7303564e-05 2.4664387e-05 2.2580431e-07 8.716181e-05
000280 47 d4 32 38 12 bc 91 35 52 85 a3 38 20 62 aa 37
       4.2636206e-05 1.0858078e-06 7.7972785e-05 2.0311272e-05
000290 04 1d 5f 35 04 cc f2 37 b7 8c 4e 38 7d e0 6e 35
       8.3116197e-07 2.894365e-05 4.924528e-05 8.898858e-07
0002a0 87 d3 dd 37 f5 8f 30 38 86 3a 1c 35 9c 9a c0 37
       2.6443753e-05 4.209574e-05 5.819969e-07 2.296018e-05
0002b0 96 ca e2 37 10 f5 ff 34 89 5a 9a 37 34 a6 ae 37
       2.7035636e-05 4.7675758e-07 1.840039e-05 2.081981e-05
0002c0 bd 07 d2 35 21 bb e5 37 95 f8 e1 37 14 79 ef 33
       1.5648471e-06 2.7386066e-05 2.6937845e-05 1.1151329e-07
0002d0 70 1d 9f 38 f7 8f d5 38 1d 0d 12 35 d4 b4 8f 37
       7.587194e-05 0.00010183447 5.440832e-07 1.7131133e-05
0002e0 48 38 02 38 05 9d 15 35 f0 9f 02 37 82 0c 32 37
       3.104683e-05 5.573532e-07 7.785842e-06 1.0612539e-05
0002f0 bf 01 07 34 74 a0 dd 37 b5 56 c5 37 fe 3a ac 33
       1.257349e-07 2.641997e-05 2.3524606e-05 8.020105e-08
000300 c6 60 65 37 d0 6e 16 37 41 55 9b 34 87 d5 f9 37
       1.36719955e-05 8.966497e-06 2.893303e-07 2.9782545e-05
000310 93 34 80 37 3e 66 a9 35 cb 7d 96 37 b4 3c b9 37
       1.528327e-05 1.2621238e-06 1.793997e-05 2.2081986e-05
000320 d0 f8 87 34 c2 fd 01 39 ef 56 06 39 b1 8b 47 37
       2.5326744e-07 0.00012396931 0.00012811621 1.1893849e-05
000330 98 5c 99 37 e4 a0 17 38 b8 c7 16 34 cd 4d 99 38
       1.8282139e-05 3.6151047e-05 1.4042496e-07 7.3101e-05
000340 4d 7c 66 38 38 c5 0c 36 d5 44 46 37 ef fb 05 37
       5.4952037e-05 2.0976422e-06 1.1817746e-05 7.986076e-06
000350 86 72 06 34 a8 3c cf 37 f1 bc c7 37 d0 ca 12 35
       1.2521386e-07 2.4704568e-05 2.3810631e-05 5.468437e-07
000360 ce 69 22 38 a4 64 bb 37 e9 7e 22 34 50 95 3e 37
       3.8722348e-05 2.2339002e-05 1.5133595e-07 1.1359647e-05
000370 74 86 a5 37 c7 7d 92 34 fb 11 a9 37 bb 54 c7 37
       1.9732142e-05 2.7286134e-07 2.0154743e-05 2.3762104e-05
000380 d7 0e dd 35 d7 25 93 38 ee 7b 3d 38 29 bc f1 33
       1.6470102e-06 7.0165544e-05 4.517653e-05 1.1256663e-07
000390 03 5b 42 38 6a 1e b1 38 8d d5 3a 36 6c 82 5c 38
       4.6337966e-05 8.445683e-05 2.7840463e-06 5.2573552e-05
0003a0 d5 47 a1 38 66 17 36 34 90 49 8f 37 9f 8f ff 37
       7.690458e-05 1.6958583e-07 1.7081184e-05 3.0465248e-05
0003b0 1f ba 10 34 77 00 24 38 62 e3 0b 38 0f ca 54 35
       1.3478756e-07 3.910108e-05 3.335195e-05 7.927019e-07
0003c0 a1 8e c0 39 e8 2b ba 39 6f 3a 54 32 f7 74 28 37
       0.0003672736 0.00035509397 1.235331e-08 1.0040813e-05
0003d0 e0 67 05 38 fb 71 06 35 0e 94 23 37 de 5c 5a 37
       3.1806412e-05 5.0084753e-07 9.750029e-06 1.3015435e-05
0003e0 a0 13 17 34 4a eb 25 38 f6 a2 d4 38 ab ef 19 34
       1.407011e-07 3.9558196e-05 0.000101393016 1.4336426e-07
0003f0 94 bb 81 37 29 a1 f6 37 6c ed 11 35 ca bb 42 37
       1.5465346e-05 2.9400531e-05 5.4362204e-07 1.1607024e-05

exp_avg f4 [164]
000000 5f 19 b5 39 b3 8d 30 38 dc 47 e3 b8 14 5f 11 39
       0.00034541913 4.2093638e-05 -0.00010837588 0.00013863697
000010 c6 9c e7 39 e9 d1 a3 b8 9e e3 41 38 15 55 7d 38
       0.0004417656 -7.8115445e-05 4.622677e-05 6.039914e-05
000020 96 e0 7e 39 4e 7e 54 38 a5 19 ac 39 2e 06 fc 38
       0.00024306992 5.066237e-05 0.00032825503 0.000120174474
000030 f2 6e 07 38 15 a0 d0 38 f6 11 af b9 7c 9b 9a 37
       3.2289834e-05 9.9480305e-05 -0.00033391983 1.8430634e-05
000040 da 72 d5 37 2b 5e b8 37 88 6e 82 b8 73 49 1a 3a
       2.544506e-05 2.197836e-05 -6.219471e-05 0.00058855786
000050 1b 58 a3 39 aa 62 1a 39 10 19 05 b9 22 9f 43 38
       0.00031155426 0.0001472334 -0.00012693205 4.6639827e-05
000060 51 ce aa 39 96 36 81 39 3f c2 7f 39 91 1d 37 38
       0.00032578644 0.00024645467 0.00024391057 4.3658136e-05
000070 da a0 89 39 92 77 e1 38 3b 20 0b b8 7a 10 0b 38
       0.0002625052 0.00010751108 -3.31702e-05 3.3155527e-05
000080 a0 d7 e5 39 70 ae b4 b7 52 04 8f b8 dc fe 49 37
       0.00043838937 -2.1538901e-05 -6.819576e-05 1.2039873e-05
000090 c0 cf a9 b8 46 4f e5 b8 8c e7 70 b8 68 c3 89 b6
       -8.0972444e-05 -0.00010934337 -5.7436104e-05 -4.1056664e-06
0000a0 72 23 43 b9 8e 59 f8 38 16 df 85 b8 66 33 3b b9
       -0.00018609854 0.000118422424 -6.383487e-05 -0.00017852857
0000b0 20 d1 1a 3a 89 63 98 38 d1 7d 35 38 22 bb d8 ba
       0.0005905796 7.266465e-05 4.327094e-05 -0.0016535262
0000c0 e7 39 b3 b7 9a c5 01 39 a0 15 9f 36 d0 40 66 39
       -2.1365426e-05 0.00012376011 4.7410867e-06 0.00021958654
0000d0 69 cf b1 b7 92 b7 5b 39 46 8c 62 b8 fc 3d 74 b7
       -2.1196627e-05 0.00020953853 -5.401324e-05 -1.4557965e-05
0000e0 3c d1 ca 38 db e6 9a b7 2c 20 a6 37 c1 a4 b0 b8
       9.6710835e-05 -1.8465731e-05 1.9803723e-05 -8.423022e-05
0000f0 e0 14 b3 38 ac 6c 17 b9 b0 26 e2 38 2b 77 da b7
       8.5392734e-05 -0.00014440966 0.00010783726 -2.6043117e-05
000100 00 13 97 33 a4 4f 77 38 6d 44 81 b8 4c ee 6a ba
       7.0349415e-08 5.896356e-05 -6.1639446e-05 -0.00089619006
000110 6d a7 55 b8 ea 5f ae 39 92 91 92 b8 e6 65 19 b9
       -5.0939085e-05 0.00033259328 -6.988937e-05 -0.00014629177
000120 20 e1 ca b8 de 27 c6 b8 dd 81 00 ba 5a 02 2e b9
       -9.6740434e-05 -9.4488016e-05 -0.00049021636 -0.00016594809
000130 af 51 d2 38 82 0e 8b b8 3c 78 5e b8 1a 51 2b 38
       0.00010028795 -6.630739e-05 -5.30409e-05 4.084511e-05
000140 0a e9 3b 38 08 a7 50 39 18 3d 24 37 b2 4f 3c b8
       4.480131e-05 0.0001989865 9.789386e-06 -4.4896915e-05
000150 b1 1c 5e b9 7c eb 00 b9 10 51 7e 36 f4 90 4a b8
       -0.00021182258 -0.00012294756 3.7896134e-06 -4.829555e-05
000160 e9 d7 c7 b9 5c ce 36 b7 98 cb d4 36 49 e0 8c 39
       -0.00038117103 -1.0896092e-05 6.341794e-06 0.00026869986
000170 17 66 a1 b8 ae 8e c5 37 40 6f d1 36 10 b6 7a b9
       -7.696094e-05 2.355067e-05 6.2416366e-06 -0.00023909681
000180 d1 fa ef b8 d8 fd e9 b6 5c 40 76 b7 c2 a3 2c 39
       -0.00011443126 -6.9734924e-06 -1.4677727e-05 0.00016464203
000190 7e c0 cb b8 50 81 d6 b8 7c ca b7 39 9a 8f 4e b9
       -9.715649e-05 -0.000102284015 0.00035055343 -0.00019699187
0001a0 87 a2 79 38 ce 97 0d 38 13 78 68 b8 2c e9 4f b9
       5.951759e-05 3.37584e-05 -5.542494e-05 -0.00019827922
0001b0 00 9c c3 b8 a0 c3 71 36 1e 09 96 b7 0e 24 a9 38
       -9.327382e-05 3.6025667e-06 -1.7885639e-05 8.065264e-05
0001c0 38 9f 0f 39 1f b7 0c b8 20 da b9 b8 ba a0 83 b7
       0.00013696856 -3.3549146e-05 -8.8621164e-05 -1.5691261e-05
0001d0 dc 33 05 b9 f9 49 95 b8 3c d6 60 38 74 e5 be b7
       -0.00012703188 -7.118652e-05 5.3605283e-05 -2.2756612e-05
0001e0 f0 f4 01 38 1a 3a 79 b7 3a 8e fb b8 ad ec 2e b9
       3.0984113e-05 -1.4855084e-05 -0.000119951044 -0.00016682102
0001f0 5a a1 93 38 9b 3f af b9 e5 1b 82 b9 a4 33 2b 38
       7.03956e-05 -0.0003342599 -0.00024816315 4.081767e-05
000200 a4 68 ad 39 50 3f fa 38 c8 20 53 b8 a0 af 81 38
       0.00033075095 0.00011932722 -5.033685e-05 6.183912e-05
000210 89 0d 42 b8 c6 75 03 38 4f 2c a2 39 8f cb ec b8
       -4.626581e-05 3.134252e-05 0.0003093206 -0.00011291273
000220 43 ec 83 38 55 3d 99 39 11 c7 28 39 cf 74 9c b8
       6.290574e-05 0.0002922813 0.00016095887 -7.460417e-05
000230 33 06 8b 38 5d b7 9a 38 fb 43 7a b9 ba 26 84 38
       6.629191e-05 7.377446e-05 -0.00023867183 6.301464e-05
000240 76 eb f4 38 f1 f1 9f 38 a0 c6 60 37 5a e3 4a b7
       0.00011678685 7.626776e-05 1.3397686e-05 -1.2093073e-05
000250 f4 32 ae 39 60 49 41 b8 e0 2e 86 38 47 8e 66 b8
       0.0003322583 -4.608312e-05 6.398349e-05 -5.496878e-05
000260 f0 64 88 37 da 4b 16 b9 12 98 39 38 e6 d5 6a 38
       1.6259466e-05 -0.00014333372 4.4249064e-05 5.5989156e-05
000270 52 9b be 38 04 ce 5b 38 0e 2b 89 b8 7f 46 1e 39
       9.088837e-05 5.2405536e-05 -6.5406886e-05 0.00015094316
000280 c4 ef 37 b7 92 fc 83 b9 4e 98 70 39 f2 90 b9 38
       -1.0963475e-05 -0.00025174447 0.00022944922 8.8484856e-05
