docs/smld/lightning_logs/version_117/checkpoints/epoch=49-step=4900.ckpt (torch, 407771 bytes, 30 tensors)

model.embedding.0.weight f4 [128, 1]
000000 5d c1 3b 3f 33 8e d1 be d0 0b 8a 3e 84 57 17 3e
       0.73341924 -0.40928802 0.26962137 0.14779478
000010 48 cd 39 3e e9 7b 3d be 7e ee 0a bf 78 1c 0e 3e
       0.18144715 -0.18504299 -0.5427016 0.13878047
000020 e9 7f 3d 3c 48 8f 6f bf 7a 02 b5 3e 7e 52 16 3e
       0.011566141 -0.93578005 0.35353452 0.14679906
000030 9e 8b 3d bf d6 f5 99 bd 4a 01 3f bf 8c ab 7b bf
       -0.74041164 -0.075175926 -0.7461134 -0.98308635
000040 a6 a3 1b 3f f7 58 db 3e ac 12 74 bf 38 b2 11 be
       0.6079658 0.42841312 -0.9534099 -0.14228141
000050 7a 2b 63 bf a1 16 d0 3e 0d 8e 8a 3e c0 d2 f3 3c
       -0.88738215 0.40642264 0.270615 0.02976358
000060 2c 48 5b 3f c8 f6 a9 be 78 6b b4 bd 40 fc be bc
       0.85657 -0.33196092 -0.088095605 -0.023313642
000070 58 5e d6 bd 50 a5 71 be 52 b3 2a be 3c 13 60 bf
       -0.104672134 -0.23598218 -0.16669968 -0.8752935
000080 f8 eb 46 bf 7a 7b 04 bf 7e 00 36 3e f0 2c f7 3d
       -0.7770381 -0.5175091 0.17773625 0.12069118
000090 b4 d8 0f 3f d2 2d 49 bf d8 9e 71 bf d6 7a 8e be
       0.5619004 -0.7858554 -0.94383 -0.2782809
0000a0 8c cf 67 bf 15 b6 15 3f da 96 e0 3e 4a d2 18 bf
       -0.90551066 0.5848096 0.4386509 -0.59695876
0000b0 b8 99 44 3f fd ae b1 3e 53 30 c9 3e e6 9d 58 bf
       0.76797056 0.34703818 0.3929468 -0.84615934
0000c0 62 af 38 bf f0 fd 66 3e 38 33 c1 be ee 11 7b bf
       -0.7214261 0.22557807 -0.3773439 -0.98074234
0000d0 c5 fa ad 3e 8f c0 35 bf 97 f4 0a 3e 90 45 86 3e
       0.33980384 -0.70996946 0.13569866 0.26224947
0000e0 f9 cc ba be 04 bc ca be ba b8 28 bf 4f fa 92 3e
       -0.36484507 -0.3959657 -0.6590687 0.28706595
0000f0 f3 94 e9 3e 96 17 25 bf d9 a1 0d 3f 1c be 3e bf
       0.45621452 -0.64489114 0.55325085 -0.74508834
000100 dc 1e 5e bf 7e 68 38 bf 16 c3 3a bf 3e fa c0 3e
       -0.8676584 -0.7203444 -0.7295393 0.3769092
000110 5f fb b8 3e 13 fb b0 be 8b dd 40 bf 13 e0 79 3d
       0.3612928 -0.34566554 -0.7533805 0.06100471
000120 6f 64 df 3e 94 8d e8 3b ea f5 34 bf 73 32 f8 3d
       0.43631312 0.0070969556 -0.70687735 0.121189974
000130 5c 85 0d bf 52 32 51 3f 6d 3f 24 3f b8 bc 04 bf
       -0.55281615 0.8171741 0.6415928 -0.5185046
000140 78 ea 59 bf f6 23 40 be 90 04 c6 3e c8 8c 15 3f
       -0.85123396 -0.18763718 0.38675356 0.5841794
000150 8f c8 56 be 50 64 44 3f e8 0e 22 bf ba d1 2f bf
       -0.20974945 0.76715565 -0.63303995 -0.6867939
000160 86 ee 51 3c 60 06 77 bd 90 10 33 be 32 1f 4d 3f
       0.012813216 -0.060308814 -0.17486787 0.80125725
000170 f9 94 e6 3d f2 88 38 bf 77 00 48 3f f1 1b 16 3f
       0.11258883 -0.7208396 0.7812571 0.58636385
000180 4e 67 36 3d 9e 4f 1c bf 77 27 78 3e fc 85 a5 be
       0.044532113 -0.61058986 0.24233805 -0.32328784
000190 3b 40 68 3e 40 cf 6f bd ba 09 39 3e 16 da 0c 3f
       0.22680752 -0.05854726 0.18070117 0.5502027
0001a0 cf 9d 2e bc c6 4e db 3d e6 44 40 bf 46 3d 09 bf
       -0.010657742 0.10708384 -0.7510513 -0.5360912
0001b0 a3 0d 1f 3f 98 ed 8d be cc be 12 3e fd a0 6a 3f
       0.62130183 -0.27720332 0.14330596 0.916519
0001c0 b8 2a 2e be b9 6c 2d bf 94 17 ca be 2a 10 64 3f
       -0.17008483 -0.6774402 -0.39471114 0.89087164
0001d0 40 a8 48 be 00 1c 41 3f 5e e8 4e bf ac 88 42 bf
       -0.19595432 0.7543335 -0.80823314 -0.75989795
0001e0 70 28 fe be b3 64 97 3e d2 76 1e 3e 2e 11 57 bf
       -0.49640226 0.29569015 0.15475014 -0.8401059
0001f0 d9 37 11 3f 3a 36 b4 bd da af 03 bf a1 a1 1d 3e
       0.5672584 -0.087994054 -0.51440203 0.15393688

model.embedding.0.bias f4 [128]
000000 5e 2e 3e 3d 38 7b e6 3e 7e 79 14 bf d3 c5 7f 3f
       0.046430938 0.45015883 -0.5799788 0.9991123
000010 6f 3e 1e 3f ef 0e 6a 3f e8 2f 6c bf a2 d0 0a bd
       0.61814016 0.91429037 -0.922606 -0.033890374
000020 fa 93 fd 3e 21 86 84 bb 4d 81 53 be 95 f3 58 3f
       0.4952696 -0.0040443097 -0.20654793 0.84746677
000030 d4 7b 6b bf a2 33 67 3f 14 bf 28 bf 60 e2 8a bd
       -0.9198582 0.9031316 -0.6591656 -0.06781459
000040 99 0a 3c 3e ff 92 fb be ba f6 4b bf 2e e0 44 bf
       0.18363418 -0.49135587 -0.7967335 -0.7690457
000050 58 c4 cb be 2a 38 08 bf fb 52 ff be 0e 1b 04 bf
       -0.39798236 -0.532107 -0.49867997 -0.5160378
000060 74 69 da 3e 21 ca a0 3f 96 47 8d 3f f0 0c fd bd
       0.4265858 1.2561685 1.1037471 -0.12355983
000070 1f 91 85 3f 50 92 ea bd d2 f9 7e 3f 30 34 da ba
       1.0434912 -0.11453688 0.99599946 -0.0016647633
000080 a4 cb b1 be c4 b3 f6 be 82 77 9a bf b7 d6 2c bf
       -0.34725678 -0.48184025 -1.2067721 -0.6751513
000090 9f 8d f7 3e 5e a3 20 bf 1e 96 13 3e 54 c3 2d 3f
       0.48350236 -0.6274928 0.14412734 0.6787617
0000a0 ee 41 1f bf a7 e1 1d be d3 ce 3a bf 0a 21 d8 3c
       -0.62209976 -0.15418111 -0.7297184 0.026382942
0000b0 c4 4c 1c be da 7b 67 bf 5f 50 65 3f 30 8a 7a be
       -0.15263659 -0.9042336 0.8957576 -0.24466777
0000c0 d2 9b 09 bf b4 2e 62 bf 5c 3a 0a bb dd f3 22 3e
       -0.5375339 -0.88352513 -0.0021091914 0.15913339
0000d0 85 31 2d bd b6 20 3d 3f 1c 81 26 be d0 62 44 bf
       -0.042283554 0.7387804 -0.16260189 -0.76713276
0000e0 f4 1b a2 3f ae 42 5c bf 34 0e 35 bf 5e 96 75 3f
       1.2664781 -0.86039245 -0.707248 0.9593257
0000f0 1b c3 8f bd 00 f0 5c ba 16 87 f5 3e 20 d8 a8 be
       -0.07019635 -0.0008428097 0.47954625 -0.3297739
000100 fc 0a 26 bf b9 03 8d 3e 42 c6 2a bb 73 90 3e 3f
       -0.6486051 0.27541903 -0.0026058112 0.7443916
000110 6f ba 0e bf 26 60 6f 3f 50 ba fa 3e 19 ac b4 be
       -0.55753225 0.93506086 0.4897027 -0.3528755
000120 79 8f 44 3d 68 15 8a 3e 05 5f a2 3e 81 10 a3 bd
       0.04798839 0.26969457 0.3171312 -0.07962132
000130 f1 8b 9a 3e 82 76 2d 3d f1 2b 39 3f 0c e2 f4 be
       0.30184892 0.042349346 0.72332674 -0.4782871
000140 a1 01 7b bb c1 d3 74 3f b8 a6 9c 3c c4 48 86 bd
       -0.0038300531 0.9563561 0.019122466 -0.06556848
000150 fc 11 8c 3f d6 eb 90 bf ff 6b 70 3e a9 2f 32 3f
       1.0942988 -1.1321971 0.23478697 0.69603974
000160 20 fc 0a 3f 38 2f 7d be b8 a7 b1 be 26 43 9a be
       0.5429096 -0.24725044 -0.34698272 -0.30129355
000170 45 27 72 be 0c 6f b4 be 19 70 75 bf 7a e2 4b bf
       -0.23647793 -0.35240972 -0.9587417 -0.7964245
000180 fd b8 ce 3e 4c 89 77 bf 36 81 39 bf e6 16 2b bf
       0.4037551 -0.96693873 -0.72462785 -0.66831815
000190 db ab 85 3f 9e a6 39 bf 52 ad 04 bf 50 f7 4e bf
       1.0443071 -0.7251986 -0.51826966 -0.8084612
0001a0 58 22 8b 3f 84 8d bc be 5c 93 56 bf 30 17 90 bd
       1.0869856 -0.36826718 -0.838186 -0.07035673
0001b0 57 fe 70 bf c6 a0 39 bf 0a 9b 00 3e be 75 4a bf
       -0.9413809 -0.72510946 0.12559143 -0.7908591
0001c0 cc 59 79 bf e7 3c fe 3e 98 67 bc be 17 03 53 bf
       -0.97402644 0.4965584 -0.36797786 -0.8242659
0001d0 78 0d 34 bf 71 c5 00 bf 7a 1a 08 bf e6 4d 14 bf
       -0.7033305 -0.5030127 -0.531654 -0.57931364
0001e0 fc 29 80 be 47 92 26 bf b6 04 d8 3e a0 86 40 bd
       -0.25032032 -0.6506695 0.42191094 -0.04700339
0001f0 47 78 45 bf c3 e0 57 3f e0 c0 af be b6 f2 87 3f
       -0.77136654 0.84327334 -0.3432684 1.0620944

model.embedding.2.weight f4 [16, 128]
000000 27 b7 98 3d df 5b ad bd 3c 9c ce 3d 4b 3d 8c bd
       0.074568085 -0.08464789 0.10088393 -0.06847628
000010 95 16 b0 bd 33 4c af 3d a5 8c 55 3d aa be 76 3d
       -0.08598057 0.08559456 0.052136082 0.060240425
000020 a9 9c ad bb ff 76 94 bd 38 2d 18 bd 37 cd ed bc
       -0.0052982164 -0.07249259 -0.0371525 -0.029028518
000030 4e 04 85 3d 22 da aa be c1 74 9a bd e2 6d e4 bc
       0.06494962 -0.33369547 -0.075418 -0.027884427
000040 3e 02 fe bb 2d 2b 80 3d 78 66 5a 3d ff fa 5e bd
       -0.007751732 0.06258235 0.053320378 -0.054438587
000050 8e b5 a1 bd de e9 c5 3d 32 43 b7 3d 8c b7 c8 bc
       -0.07895957 0.09663747 0.08948363 -0.024501584
000060 19 3a 74 bb 34 2f ed bb 0c 65 aa be ff 50 c4 bb
       -0.0037266074 -0.007238293 -0.33280218 -0.005991101
000070 09 45 70 bf 04 25 2c 3a df 14 06 3c 75 3a e1 bd
       -0.9385534 0.0006566795 0.008183687 -0.10997478
000080 87 01 6d bd 7f ab bd 3c 7a 2a d7 3e 35 ec 84 3e
       -0.057862785 0.023153065 0.42024595 0.25961462
000090 ff 56 dc bd c9 19 7d 3d 60 54 96 bd 5d 64 47 3e
       -0.10758781 0.06179217 -0.07340312 0.1947188
0000a0 74 ff 3b 3c 05 4d 4f 3d fd 62 42 3d e8 f3 13 be
       0.011474479 0.05061056 0.047457684 -0.14448512
0000b0 b2 b2 78 bc 8d 90 c7 3d 2b e7 16 bd 67 90 fd 38
       -0.015179323 0.09744368 -0.036841553 0.00012090877
0000c0 87 97 53 3d 7b ad 46 3d 0a 74 6b 3d 53 21 f2 bd
       0.05165818 0.048505288 0.05748371 -0.11822762
0000d0 ac 99 68 3d 40 18 a5 bd 8f b5 d1 3b b7 44 ea bb
       0.056787178 -0.08061266 0.0063998173 -0.0071493047
0000e0 10 16 45 3e 63 fa 12 bc 85 05 27 bd 65 0c 89 bd
       0.19246697 -0.00897083 -0.04077675 -0.06691817
0000f0 32 55 9c bc 29 54 36 bd 8b 4d 2f 3d eb 52 55 bc
       -0.019083593 -0.044513855 0.04279856 -0.013020257
000100 cb 74 11 3d 5f c8 9e bd dd da 54 bd 01 dc d6 bd
       0.035511773 -0.077530615 -0.051966537 -0.10491181
000110 17 72 9a 3d ec c4 9b b9 f0 e5 d8 bd 06 96 1b 3d
       0.07541292 -0.00029710622 -0.10590732 0.03798487
000120 a8 89 77 bd 77 ad f7 bd 4b bf ed bd ea fe a6 3c
       -0.060434014 -0.12093633 -0.11608752 0.020385224
000130 3a ed 36 bb 0f f1 af bd 65 41 88 bd de d9 5d 3d
       -0.0027912394 -0.085909 -0.06653098 0.054162852
000140 aa 08 2c be ea b0 d0 3b d2 b0 ae 3c 7e aa 74 bd
       -0.1680018 0.006368746 0.021324549 -0.059732907
000150 00 71 86 3d 74 a1 35 3d d0 e6 28 be 76 2e 89 bd
       0.06564522 0.044343427 -0.16494298 -0.06698315
000160 f7 f8 f6 bd f8 62 b6 3b 30 17 c4 bc 9d ad a5 bd
       -0.12059205 0.005565997 -0.023936838 -0.08089755
000170 d4 e6 b4 3d 2a 82 90 bd c4 7a 96 3d cf e7 01 3d
       0.088330895 -0.07056077 0.073476344 0.03171521
000180 4c 41 59 bd 04 2a 97 3d ab 17 ac 3d 02 f1 90 3d
       -0.053040788 0.07381061 0.08402952 0.070772186
000190 23 a5 09 be 2f 85 ad bd 99 50 67 bd ec 1d ac 3d
       -0.13441901 -0.084726684 -0.05647335 0.08404145
0001a0 27 0d ef bd b1 65 ea 3d 08 2b 55 3d a9 5a a9 3d
       -0.116724305 0.11445177 0.05204299 0.08269245
0001b0 fd ba 17 3d 67 41 36 3d 6c 43 81 3b bd 32 b5 3d
       0.03704356 0.044495966 0.003944805 0.08847568
0001c0 2b 2d 94 bd 5c dc 99 bd c9 5a 57 bd a9 3b 78 3d
       -0.072351776 -0.07512733 -0.052576814 0.06060377
0001d0 51 0e 83 bc 48 ac 03 bd f3 41 20 3d e7 a2 80 3d
       -0.015998038 -0.032146722 0.039125394 0.06281071
0001e0 d9 d0 44 bd 36 ac eb 3d 01 e0 f2 bd 56 a6 cc 3b
       -0.048050735 0.11507456 -0.118591316 0.0062454147
0001f0 e0 d1 00 3c b6 6c 03 bf 9f d3 2f bd 74 12 21 bc
       0.007862538 -0.51337755 -0.042926427 -0.00983106
000200 a5 14 3b bd 97 b8 06 3d 8d 9e 5c bd 6b 1e 37 bc
       -0.045673985 0.032890882 -0.053862143 -0.011176686
000210 ec 81 8b bc a7 c1 13 bd f9 0b a8 3d f9 f7 95 bd
       -0.017029725 -0.036073353 0.082054086 -0.07322688
000220 19 08 11 3d 87 75 27 3d 8c ec 98 bd e4 68 de bc
       0.035408113 0.040883567 -0.07466993 -0.027149625
000230 17 cd 55 bd ca 5c c1 3d eb 7b 31 bd b1 11 6d 3d
       -0.052197542 0.09441526 -0.043331068 0.0578782
000240 fa 26 2c bc 58 5d 30 bd b4 d5 97 3c fe 7b 30 bd
       -0.01050734 -0.04305777 0.018534519 -0.043087
000250 95 13 54 3d 51 3e 68 bc 32 62 0f bd 64 42 c8 3c
       0.051776487 -0.014175014 -0.035005756 0.02444572
000260 e8 fe 52 3d a6 f8 49 bd 78 21 18 3d 66 d5 e2 3c
       0.05151263 -0.049309395 0.037141293 0.027689647
000270 8a d6 85 3e aa 4d ad bd 0a 75 8b 3e b5 79 07 bd
       0.26140243 -0.08462079 0.2723773 -0.033075053
000280 bf 1f 02 3d cc 98 3e bd 76 73 54 be c6 7a ae bd
       0.031768557 -0.046532437 -0.2074717 -0.08519511
000290 f2 06 5f 3d 33 2e b6 3b d0 e1 25 3c 5a 1e 7f bd
       0.054449983 0.0055597066 0.010124639 -0.062284805
0002a0 30 dc 84 3a af ea 7e 3c 9c a2 aa bc 0a 28 e1 3d
       0.0010136422 0.015558883 -0.020829491 0.10993965
0002b0 da e3 93 bd 5a 9e 44 bd 28 3d 6a 3b 4a b6 1a 3b
       -0.072211936 -0.04800258 0.0035742018 0.0023607188
0002c0 c2 8e 65 3b 11 1b 3a 3d 93 60 29 bc 84 4e 33 bc
       0.0035027717 0.04543597 -0.0103379665 -0.010944013
0002d0 1c ef 4f bc c1 4c aa 3d 0e 66 c1 bd 76 c7 04 bd
       -0.012691285 0.08315421 -0.094432935 -0.032416783
0002e0 75 01 90 3d 18 2c 09 3d 05 04 4a 3b a5 82 a8 3d
       0.07031528 0.033489317 0.003082515 0.082280435
0002f0 bc 8d 9c 3d 05 1d 6f 3d 28 ec 09 3d 44 36 cf bc
       0.07644221 0.058377285 0.03367248 -0.02529443
000300 92 df 78 3d cc a9 6a 3d d8 ec 30 3d 18 3e 9f 3d
       0.06076009 0.057290837 0.04319462 0.07775515
000310 9e 33 97 3d 66 7e aa bc 9b e7 77 3d d1 0f 57 3d
       0.07382892 -0.020812225 0.06052361 0.052505318
000320 82 fd c3 bc 70 85 86 3d 5b 35 66 bd e2 ec 44 bd
       -0.023924593 0.0656842 -0.056203227 -0.04807747
000330 07 a6 75 bc 24 2f 29 bc 6d 16 a6 3d ab b3 a5 3d
       -0.014993197 -0.010326181 0.08109746 0.080909096
000340 9d 97 02 3e 0f 4b f1 b9 9e 86 59 3d 1d a4 f5 3c
       0.12753148 -0.00046023025 0.053106897 0.029985482
000350 be 61 da 3d 21 d8 37 bd 78 0b 38 bb d9 db 04 3d
       0.10663174 -0.04488385 -0.0028083008 0.032436226
000360 b6 55 2f 3c 61 1c ab bb 83 b0 3d bc 38 b8 0d bc
       0.010701587 -0.005221889 -0.011577728 -0.008649878
000370 45 24 93 bc 49 8c 65 bd b6 f2 82 3c f0 5f dd bc
       -0.01796163 -0.05604199 0.015984874 -0.027023286
000380 86 97 4b 3d 5d 85 a3 bd b4 38 6c bd 21 5f aa 3d
       0.04970505 -0.079844214 -0.057671264 0.08318926
000390 34 58 ab 3d 55 b5 b0 3d c4 fc 6e bd 38 30 5f bd
       0.08366433 0.08628336 -0.058346525 -0.054489344
0003a0 ae a9 34 b9 ea 41 42 bd 17 bc b3 3d 2c 86 18 3d
       -0.00017229348 -0.04742614 0.0877611 0.03723733
0003b0 98 9f 70 bc b8 64 f4 bc c7 4e 07 3d 88 a1 8a 3d
       -0.014686488 -0.029833183 0.033034112 0.06769091
0003c0 8e e0 9a bd 3e 7b 4d 3d 4b c4 56 bd 15 ab 2d bd
       -0.07562362 0.05016636 -0.052433293 -0.042399485
0003d0 b6 c9 7b 3d 5a cd 7e 3d 6a 86 5b bc 46 f3 4f bd
       0.061471663 0.062207557 -0.013398746 -0.050769113
0003e0 92 17 8e bd ed 26 62 bd 1f 7c 28 3d ed 22 76 3d
       -0.069380894 -0.055212904 0.041133996 0.0600919
0003f0 6a 8b 34 3d e6 7c c0 3d f8 6d 9a bd f3 13 78 3c
       0.044078268 0.093988225 -0.07540506 0.015141475

model.embedding.2.bias f4 [16]
000000 c4 22 32 be 38 ff 3e bd 70 f2 94 bd f5 54 b8 3d
       -0.17396075 -0.046630114 -0.07272804 0.09000579
000010 a2 fa 13 be 71 15 d4 3d 06 22 e3 3d 57 24 0a bd
       -0.14451078 0.10355652 0.11090474 -0.033726063
000020 f5 f7 6a bd 25 8a 6b 3d 05 87 4a be f0 74 fe bd
       -0.057365377 0.05750479 -0.19778068 -0.12424648
000030 52 33 3d ba bd f1 2e be 8b fe e5 bc f9 a2 d2 3d
       -0.0007217425 -0.17084403 -0.028075477 0.10284991

model.net.layers.0.weight f4 [164, 18]
000000 44 8c 48 3e f3 50 8c bd 07 85 46 be 10 d3 a6 3d
       0.19584757 -0.06851377 -0.19386683 0.08145726
000010 ab 78 19 bd 85 37 4a be ce 64 a2 bd 4d 94 f3 3d
       -0.037468594 -0.19747742 -0.07929383 0.118935205
000020 4e b1 d4 bc cb 24 6f bd a7 ff 60 3e 58 40 e4 3d
       -0.025963452 -0.058384698 0.21972524 0.11145085
000030 82 b8 22 be 37 cd ec 3b c5 0d 09 bd bd 69 12 3e
       -0.15890697 0.007226612 -0.033460397 0.14298148
000040 ed a0 22 be 74 78 5f be 58 c0 b5 bd cb 51 91 3d
       -0.15881701 -0.21823293 -0.08874577 0.07095679
000050 74 3f 08 3d d8 de ad 3d f6 92 9f bd 8e 90 9f 3d
       0.03326364 0.0848977 -0.077917024 0.077912435
000060 03 52 01 be ae e5 e9 bd 8f 11 d3 3d 1c 6a b1 3d
       -0.12628941 -0.11420761 0.103060834 0.08662817
000070 0e 3e 22 be 6f 2f 48 be 97 46 ed 3d 52 a7 20 3e
       -0.15843984 -0.19549344 0.115857296 0.15688828
000080 98 aa 69 bd 3d 90 d4 3d 8d a6 8a bd b7 d3 2e be
       -0.057047457 0.10379074 -0.06770048 -0.1707295
000090 d3 44 53 3c 12 b7 3c 3e 7b de 32 3e cd fd 81 be
       0.012894827 0.18429211 0.17467682 -0.25388947
0000a0 7e 9b 00 3d 82 f2 8e bd 3d 61 59 3e 16 10 0c 3e
       0.03139829 -0.069798484 0.212285 0.13678011
0000b0 04 99 17 3e 56 28 fa 3c ad 9f 4d 3e bf 01 2e be
       0.14804465 0.030536812 0.20080443 -0.16992854
0000c0 00 69 4b 3d e3 e1 71 be ae 3b 88 be 5d 06 a7 3d
       0.049660683 -0.23621325 -0.26608032 0.081555106
0000d0 47 5a 2d 3d 25 a1 ac 3c 2c 04 58 3e ca fa 24 3e
       0.042322423 0.021072933 0.21095341 0.16111293
0000e0 a9 f0 de bd 18 5a 4f bc b2 87 17 be 6b 05 e1 3d
       -0.10885746 -0.012655757 -0.14797857 0.109873615
0000f0 b4 84 86 bd 59 48 a8 3b b4 3d b4 3d 27 36 78 ba
       -0.0656828 0.0051355776 0.088008314 -0.00094685185
000100 fc c5 52 3d 7b 5a 78 be 17 5b af bd 93 8d 00 bc
       0.051458344 -0.24253266 -0.08562296 -0.007846254
000110 9c 7c 20 3d da dc 9f bd 8c b5 82 be 5e 24 0b 3e
       0.039181337 -0.07805796 -0.25529134 0.13588092
000120 ec 0d 40 be b3 7c 9b bd 44 f4 ff bd ce a7 2b 3e
       -0.18755311 -0.07592144 -0.12497762 0.16763231
000130 f3 7d 68 3e 23 3a 29 3b 40 99 c8 bc 78 56 7e be
       0.22704296 0.0025822006 -0.024487138 -0.24837673
000140 33 e6 a7 bd 01 7d c2 bc a0 47 83 3d e1 53 4b bd
       -0.08198204 -0.023741247 0.06410146 -0.04964054
000150 51 6b 87 3e 97 a9 24 3e d3 a5 7c be 4c 3b f5 bd
       0.26449063 0.16080318 -0.24672632 -0.119742006
000160 16 cd 72 bd 29 a6 19 3c 19 40 7c 3e a9 20 1c 3e
       -0.059277616 0.009377995 0.24633826 0.15246834
000170 f4 81 04 bd d2 f6 24 3e bf fc 6c 3e bf 14 98 be
       -0.032350495 0.1610978 0.2314329 -0.29703328
000180 44 cd 80 3e 06 87 45 bc 27 bc 5d 3d e4 ae 70 3d
       0.25156605 -0.012056118 0.054134514 0.05876054
000190 e8 b6 e2 bd d0 cf 1e be 5e 7b 08 be 5d 7e ab be
       -0.11070043 -0.15508962 -0.13328311 -0.33494845
0001a0 c0 1c e6 3d cb 8e d9 3d 4e cb 13 be b8 03 18 3e
       0.112359524 0.10622939 -0.14433023 0.14845169
0001b0 bb 0d 69 bc ff 3a ac be 87 80 6d be e9 9e 2e 3e
       -0.014224465 -0.3363876 -0.2319356 0.17052807
0001c0 de 1c bb 3d cc d9 4c 3e 40 ea 01 3e e3 89 20 bd
       0.09136365 0.20004958 0.12687016 -0.039194
0001d0 b4 0b 35 be 71 b2 ee 3d 9c a0 af 3d 97 2a 9b 3c
       -0.17680246 0.11655129 0.08575556 0.018941207
0001e0 fd 95 26 3b 35 db 84 3d 80 9b 08 3e 99 7a 24 3e
       0.002541899 0.06487123 0.13340569 0.16062392
0001f0 6a 92 3e bd 64 56 d6 3d e9 42 8b 3e 6b d3 ce 3d
       -0.04652635 0.104656965 0.27199486 0.100989185
000200 7d a9 e9 3e 37 b1 00 be 1c 7b f4 bd f9 cb 72 bc
       0.45637122 -0.12567602 -0.11937544 -0.014819139
000210 67 bf 9f 3d 96 b5 d4 3d 22 a9 57 be 16 3b 06 bd
       0.07800179 0.10386197 -0.21060613 -0.032771192
000220 67 54 bd bc c7 35 1a bd 6c 0e 5f 3e c6 ae ef 3e
       -0.023111535 -0.037648942 0.21782845 0.4681303
000230 fc 4d f2 bd 60 c6 c1 3e 94 92 9c 3d d8 b0 0b 3e
       -0.118312806 0.3784666 0.07645145 0.1364168
000240 92 7f e1 3d 08 11 3d 3e 3e 61 15 3e 33 a4 58 bd
       0.1101066 0.18463528 0.14587876 -0.052890968
000250 1d a2 4d 3d 09 1e 90 3d a0 06 32 be 0f 17 0a be
       0.05020343 0.07036979 -0.1738534 -0.13485359
000260 aa 86 79 3d ea 00 52 be 79 40 86 3d e4 e6 a5 3d
       0.06091944 -0.20508161 0.06555266 0.081006795
000270 0f c8 7b bd 43 e9 07 bc 2f fd 0e 3e af 2b 88 3e
       -0.061470088 -0.00829536 0.1396377 0.26595828
000280 3b d8 71 bd 42 6b 91 bc f7 3f a9 bc 54 b0 4f be
       -0.059044104 -0.01775134 -0.020660384 -0.20282108
000290 3a 8f 36 3e 43 fc 56 be cc 45 61 3e 8d 1c 04 be
       0.17828074 -0.20994668 0.21999282 -0.12901516
0002a0 ed 05 34 be 19 15 d6 3c 07 0b 9f bd 3d 0b 5a 3e
       -0.17580386 0.026133107 -0.07765775 0.2129335
0002b0 35 ff 3d be 7c 9c 03 3e 5e f9 bc 3e 50 f9 00 3d
       -0.18554385 0.12852663 0.36909002 0.031487763
0002c0 7e ab 45 3e b8 27 42 3e 1a 61 e0 3d 88 65 3c 3c
       0.193037 0.18960464 0.10956021 0.011498816
0002d0 b9 9f 92 be 97 5e 1f be c0 7e ab 3d 72 8c 62 bd
       -0.28637484 -0.15563427 0.08373785 -0.05530972
0002e0 5b 9c cf bd 49 1f b3 3c fc 2e f2 3d 13 9b e9 3d
       -0.10137244 0.021865504 0.11825368 0.11406531
0002f0 3c 5a 53 3e 89 0d c5 bd 2a 4f a5 3c 6f 55 cb bd
       0.2063989 -0.09621722 0.02017935 -0.099284045
000300 ea bf 46 be 60 06 4c 3d 81 f3 49 3b 05 52 4f 3e
       -0.19409147 0.049810767 0.0030815306 0.20246132
000310 48 f8 50 bc 96 ab 97 b8 d6 c4 05 be 3c c6 fa 3d
       -0.012754507 -7.2322015e-05 -0.13063368 0.122448415
000320 d8 e4 83 3f 8b cb fe bd 3c 21 20 3e 28 4b 8d bd
       1.0304213 -0.124411665 0.15637678 -0.068991005
000330 0b a8 fc bd 16 33 8b 3d 55 a8 3f be db 51 36 3e
       -0.12336739 0.06796853 -0.18716557 0.17804663
000340 41 e8 3a 3e ca 21 c4 bd f3 05 26 3f 30 f0 12 3e
       0.1825266 -0.09576757 0.6485283 0.14349437
000350 ac dc 1c 3e 93 75 7c 3e 67 a8 24 be 84 24 af bd
       0.15318555 0.24654226 -0.16079865 -0.08551887
000360 c3 6e 06 3e e5 f2 b4 3d 5c 95 60 3e 02 e4 61 bd
       0.1312819 0.08835391 0.21931976 -0.055149086
000370 fd 8b f9 3c 76 ec d9 bd d7 56 97 3e b7 b4 ff bd
       0.03046226 -0.106408045 0.2955844 -0.124856405
000380 ff 54 35 3d e0 88 b2 3e e8 91 06 be 65 c1 9c bd
       0.04427051 0.34870052 -0.13141596 -0.076540746
000390 5a 63 9a 3e 82 8c b7 bc 00 08 84 be fa 8a 86 bd
       0.30153924 -0.022405867 -0.25787354 -0.065694764
0003a0 f0 fe f5 3d 98 97 e2 3c 0d 60 49 3e ba e4 b9 be
       0.12011516 0.027660176 0.19665547 -0.36307317
0003b0 49 a3 6d 3e f2 7d c9 3b 91 5e 85 3e b0 47 6d bd
       0.2320682 0.006149047 0.2604871 -0.057929695
0003c0 b3 05 57 3e 75 5d 74 be e9 46 41 be 74 a4 03 be
       0.20998268 -0.23863776 -0.18874706 -0.12855703
0003d0 e2 1b 25 bb 8e 1f 6d bc 33 1c da 3d bf 1b 0d bb
       -0.0025193621 -0.014472855 0.1064991 -0.002153143
0003e0 b0 18 68 be ed 5b 51 3e ff 93 b9 bd 3c 77 e9 3d
       -0.22665668 0.20445223 -0.09061431 0.11399695
0003f0 45 eb 49 be d1 cd 68 bd ef bf f5 bd 23 6a 0a 3b
       -0.19718654 -0.056836907 -0.11999499 0.0021120391

model.net.layers.0.bias f4 [164]
000000 be b7 a9 bd f0 53 02 be 98 b2 c2 bd 8b 13 9d 3d
       -0.08286999 -0.12727332 -0.0950672 0.07669743
000010 fb cc 92 be 64 8b 89 be f9 6e 00 3e 01 21 15 be
       -0.28672013 -0.2686416 0.12542333 -0.14563371
000020 a0 a9 86 bd 10 19 03 3e 72 a4 27 be 42 6d c6 be
       -0.06575322 0.1280253 -0.16371325 -0.38755232
000030 b4 4a 78 be 46 57 b2 bd b0 a5 93 ba 6e b2 43 bd
       -0.24247247 -0.08708052 -0.0011264589 -0.047777586
000040 f0 80 0b 3e 1d 21 43 3e 60 33 08 3e 8f d3 b1 bd
       0.13623405 0.190556 0.13300848 -0.0868293
000050 4f e6 1d 3e 07 2d 50 be d8 29 19 bd e0 da 03 3e
       0.15419887 -0.20329677 -0.03739342 0.12876463
000060 b4 97 4a bd 73 14 a8 be c3 f1 ae 3d 50 9f 92 bd
       -0.04946108 -0.32828102 0.08542206 -0.07159293
000070 eb a3 58 be eb 22 87 3d 7f db 27 3e e6 32 b6 3d
       -0.2115628 0.06598457 0.16392325 0.08896427
000080 e1 a5 f3 bb a7 76 8b be 06 83 86 bd 99 66 96 be
       -0.007435546 -0.27238962 -0.065679595 -0.2937515
000090 86 f1 5f be 1e 6c c0 bd 89 c0 2e 3e 97 c9 ba bd
       -0.21869478 -0.09395622 0.17065634 -0.091204815
0000a0 fc 35 f7 3d 2f 76 7c 3d 74 c8 30 be a9 3b 8b bd
       0.120708436 0.061636146 -0.17263967 -0.06798489
0000b0 4c bb 51 3e 96 18 63 be b3 b4 90 3d fa 05 10 3e
       0.20481604 -0.22177348 0.07065716 0.1406478
0000c0 ec b3 37 be f5 67 3f 3e 03 aa 93 3c 4d 67 3b 3e
       -0.17939728 0.18692 0.018025404 0.18301125
0000d0 0d d4 39 3e 43 4d cc be f7 23 bc bd a9 5d 76 bc
       0.18147297 -0.39902696 -0.09186547 -0.015036979
0000e0 c0 72 45 3d c5 b1 78 bc eb d0 f7 3d c4 16 98 be
       0.048205137 -0.015179102 0.12100395 -0.2970487
0000f0 b4 ee f3 bd b8 b6 c0 3d 79 a3 db 3e ce 52 ac bc
       -0.119107634 0.09409851 0.42898157 -0.021035578
000100 73 eb 15 be 59 34 be 3c 2a 7d ca be ac e5 e3 3d
       -0.14640598 0.02321832 -0.39548618 0.11127791
000110 80 32 c1 3d 90 8b 6b 3d 0d 43 0a 3e df 14 dc 3d
       0.0943346 0.057506144 0.1350214 0.10746168
000120 b5 aa 7b bc 2d 46 0c be b2 be 74 3e 4d 9c 2f 3c
       -0.015360524 -0.13698645 0.2390087 0.010718417
000130 17 8d 8e bd d9 26 1a 3e 65 62 14 be 36 5f 17 be
       -0.069605045 0.15053882 -0.1449066 -0.14782414
000140 9d 63 23 3e 1f 58 0d 3e 97 34 26 3e 52 33 d4 3d
       0.15955968 0.13803147 0.16230999 0.10361351
000150 61 ae 6c be f9 d7 e2 bc 3e cd 11 bc 88 8b 13 be
       -0.23113395 -0.027690874 -0.008899031 -0.14408696
000160 b0 ed 82 be 32 5a 34 3e 92 13 81 3e d6 6a 11 3d
       -0.25571966 0.17612532 0.25210243 0.035502277
000170 c8 ca d0 3d af 0c e9 bd 20 ab a5 be b8 8e 18 3e
       0.101949275 -0.11379372 -0.3235712 0.14898193
000180 8e 1c 2c be 74 59 f2 bc e9 2d 28 3d 05 8f 33 be
       -0.16807768 -0.02958367 0.04105941 -0.17535026
000190 3f 33 33 3e 73 8c 46 be 94 4d 94 bc d4 5f 02 3e
       0.17500018 -0.19389515 -0.018103398 0.12731868
0001a0 1e f1 67 be a1 67 56 be bb 0c 9b be 6c ce 77 3e
       -0.22650573 -0.20937969 -0.3028315 0.24199837
0001b0 9c 13 6a be bb 3c 71 be c4 a0 76 be cf 1a 85 be
       -0.22859043 -0.23558323 -0.24084765 -0.25997016
0001c0 6d 39 f1 be 1e 97 b9 bd d7 38 13 be cf 84 73 bb
       -0.47114125 -0.090620264 -0.14377151 -0.0037158018
0001d0 3f 5e ac 3c 12 bd 72 3e a5 18 53 bd ce 67 e2 be
       0.021041034 0.23704937 -0.051537175 -0.44219822
0001e0 a5 85 22 be 16 e5 d3 bd 9c 9b 90 3c 6a 67 9b be
       -0.15871294 -0.10346429 0.017652325 -0.30352336
0001f0 e8 ac 35 be b7 39 17 3e e6 23 22 be c7 8b b4 bd
       -0.1774174 0.1476811 -0.15834007 -0.08815723
000200 0f 72 64 be 59 f6 e0 be fe 82 7f 3e f5 7f 42 be
       -0.22309135 -0.43937948 0.24952313 -0.18994124
000210 95 d7 4f bd 94 81 9b be 19 50 aa 3d d7 1d 04 be
       -0.050742704 -0.30372298 0.08316059 -0.12902008
000220 4a db 23 3d c9 5a 02 3d d3 a0 9a 3d db b2 85 be
       0.040004052 0.03182486 0.07550206 -0.26113018
000230 d4 70 dd bb 75 1d f1 bd 74 85 55 bd 36 6d 40 be
       -0.006757835 -0.117731966 -0.052129224 -0.1879166
000240 23 45 33 be 51 97 0a 3e fd 6e 02 bd 67 1d 2a be
       -0.17506842 0.13534285 -0.031844128 -0.16612779
000250 39 45 6a be 79 f3 d9 bd 16 73 46 bd c8 6a 07 3e
       -0.22877969 -0.10642142 -0.0484496 0.13224328
000260 fe 37 97 bd 69 ba 29 3e 66 e3 48 3e 4e 3d bb 3d
       -0.073837265 0.16575016 0.19617996 0.09142552
000270 3e ca 34 3e 8d cb 6f be 1b 82 d8 bc 9f 12 2b 3e
       0.17655274 -0.23417492 -0.026429227 0.16706322
000280 31 69 2c 3e d8 c0 df 3d d9 e5 16 3e 26 8c 43 be
       0.16837002 0.10925454 0.14736117 -0.19096431

model.net.layers.2.weight f4 [164, 164]
000000 72 4e af 3d e3 2f f9 bd 9d 85 9c 3e cd 74 c2 bc
       0.08559884 -0.12167337 0.3057069 -0.023737336
000010 30 5f 34 be 55 15 39 bc 53 28 32 3d 26 f8 2a be
       -0.17614436 -0.01129659 0.043495487 -0.16696224
000020 65 e1 73 3d 66 1b ae bd 33 35 2d 3d 9f f0 d0 3c
       0.059541125 -0.085013196 0.042287063 0.025505362
000030 7e ca 35 bd 36 74 0e be a9 9f ab bd fe 90 17 3e
       -0.044382565 -0.13911518 -0.08380062 0.14801404
000040 ea e8 c1 3d 37 5e 46 bb e0 e4 2a 3e c7 d2 c8 bc
       0.09468253 -0.0030268559 0.16688871 -0.024514569
000050 a7 c4 b9 3c bd f2 c2 bc aa 47 fb 3d d1 0d a0 3d
       0.022676779 -0.023797387 0.12269528 0.07815135
000060 8c 4d 2b 3d 56 97 06 bc de a1 24 3e 07 21 ab 3c
       0.041822 -0.008214792 0.16077372 0.020889772
000070 6b 31 90 3d da 5f ee bc d0 ee 8d be 8b af 36 3e
       0.07040676 -0.02909844 -0.27721262 0.17840402
000080 8f 78 1c 3d d0 c8 a4 3d a0 13 40 3c 47 c2 ce 3d
       0.03820091 0.080461144 0.011723429 0.10095649
000090 2e d9 fd 3b d4 9a 92 3d 95 cf 76 bd 71 f7 1e be
       0.007746837 0.07158437 -0.06025656 -0.15524079
0000a0 6a b2 89 bb d9 26 44 3e 42 f9 2f bc 72 28 0d 3e
       -0.004202177 0.19155444 -0.01074058 0.1378496
0000b0 dc 0d 96 be 3c 5b aa 3c 2f cc 49 bd f9 bb b9 3c
       -0.2930745 0.020795457 -0.04926699 0.02267264
0000c0 79 82 16 bd 14 62 b7 3d f4 67 32 bd 8b 51 e7 3b
       -0.036745522 0.08954254 -0.04355617 0.007059281
0000d0 47 55 81 3d 3a 0a 1a be d6 d2 8d ba 72 e9 ab be
       0.063150935 -0.15042964 -0.001082028 -0.33576542
0000e0 77 8b 9a 3d 3e 67 8e 3d b4 a5 f7 3c 35 fa cf 3c
       0.07546132 0.06953286 0.03023038 0.025387863
0000f0 c6 7c 25 3d a1 24 1d be f9 ef ed be 03 df b6 3b
       0.040402196 -0.15346004 -0.46472147 0.0055807843
000100 ff fc a9 bd 3d ec 56 bd 80 9b 7c be 2f b2 c4 3d
       -0.08300208 -0.052471388 -0.24668694 0.09604298
000110 77 be 00 bc a9 d1 c6 3d f3 54 5f bc c1 7f 8c bb
       -0.00785791 0.09707958 -0.013631093 -0.0042876904
000120 6e 22 cd 3d 0a c2 31 bc 15 a3 0b 3e 9a a3 b8 bd
       0.100163326 -0.010849485 0.1363643 -0.090155795
000130 75 bc f9 3c 39 f9 3a 3d 30 91 26 bd 9c 75 0c 3d
       0.030485371 0.045647833 -0.040665805 0.03429185
000140 99 12 24 3e b1 54 81 be 1f b9 70 3e 1e c0 a4 3c
       0.1602272 -0.25259927 0.23508118 0.02011114
000150 0e 48 b0 be a7 c2 3e be 55 f8 9d 3d 71 4f 37 bd
       -0.34429973 -0.18628941 0.07713381 -0.044753496
000160 3b 1c ad bd 9c 36 4e 3d ce c2 30 bd 09 83 88 3c
       -0.0845265 0.05034505 -0.04315453 0.016664045
000170 e4 72 b1 3d 44 83 1e 3d de b4 e3 bd 48 ed 1c 3c
       0.08664492 0.038699403 -0.11118482 0.009578057
000180 39 a7 80 bd 4d 64 17 3e 4f 26 03 bd ef 7a 17 be
       -0.06281895 0.14784355 -0.032018956 -0.14792989
000190 53 ff c9 3c 19 30 94 3c c5 65 4d 3d 63 53 fe bd
       0.02465788 0.018089341 0.050145883 -0.124182485
0001a0 8d 3f c6 bc 6f 8b 09 3e 17 ce 62 bd 61 d7 95 be
       -0.024200225 0.13432096 -0.055372324 -0.29265884
0001b0 57 4a 4a 3c 4c 25 0b 3d 52 89 a3 bc e8 b7 0d 3d
       0.012346826 0.033971116 -0.01996294 0.034599215
0001c0 d1 cd c6 be c3 42 8f be 8e e5 9b 3b ef c1 c4 3d
       -0.388289 -0.27980623 0.0047575897 0.096073024
0001d0 9f 7d a0 bc 22 88 0e 3e c0 e8 8b bd 38 57 be be
       -0.01959115 0.13919118 -0.06831503 -0.37175918
0001e0 68 f3 1a be 7f 38 3b be 50 3a f2 3a dd 16 9f bd
       -0.15131915 -0.1828327 0.0018480513 -0.07768033
0001f0 cd 1a 65 bc cd bc 18 bd 46 59 ee bd 9b 37 46 3d
       -0.013983441 -0.03728943 -0.11638121 0.048392873
000200 67 f1 d6 bc 8e 30 8f bd e2 e5 32 bd 21 10 3a be
       -0.026238156 -0.06991683 -0.043676265 -0.18170215
000210 8a 9a b4 3c f3 e8 00 bd 31 c9 b4 bc 59 75 80 3e
       0.022046346 -0.031472158 -0.022068592 0.2508953
000220 53 63 bc 3d da ae 4e 3e 1e 71 cf bd 8e b7 c7 3c
       0.09198632 0.20183888 -0.10128997 0.024379518
000230 20 c5 d5 3c 4f d7 ed 3d c3 80 00 3e 2c f2 d4 bc
       0.026094973 0.116133325 0.12549119 -0.025994383
000240 86 ad 2d bd 33 64 1b bc 6a f9 b2 3c 50 76 58 3c
       -0.042401813 -0.009484339 0.021847446 0.013211802
000250 01 17 a7 bd 3e 93 8c 3c b8 07 61 3d 1b 59 98 bd
       -0.081586845 0.017160054 0.054939 -0.074388705
000260 1b 58 d3 bb 66 fd af bb 14 cc b9 3d 87 80 3f 3d
       -0.006449712 -0.0053707836 0.09072128 0.046753433
000270 ed c0 36 3d f9 99 be 3d e5 15 d0 3d cb e8 6d 3d
       0.044617582 0.09306712 0.10160426 0.058083337
000280 fb f0 a7 3d ba dc 5f 3d 16 cb b6 bd 81 a0 1d bd
       0.0820026 0.05465386 -0.08925454 -0.038483147
000290 b6 f6 e7 3d 67 f6 8e bb e0 5f 3a 3d 61 a1 50 3d
       0.11326353 -0.0043628695 0.04550159 0.050935153
0002a0 34 9a 70 3c ff 46 bb 3c 7c 41 5f 3d a4 81 61 3d
       0.014685202 0.022861002 0.05450581 0.055055276
0002b0 d8 bd 74 3c 08 78 3b bb 1f 0f b2 3c 56 88 88 3c
       0.01493784 -0.002860548 0.021735726 0.016666573
0002c0 f0 bf 9d 3c 3f 3c 55 bd 14 68 9b 3d 80 c7 49 3d
       0.019256562 -0.05205941 0.07588211 0.049262524
0002d0 ec d9 73 3d e0 40 08 bd 49 20 53 bd a0 35 24 bd
       0.059534 -0.033264995 -0.05154446 -0.040090203
0002e0 57 f6 95 bd d4 df cf bc 89 10 a1 bd 4c 06 c0 3d
       -0.07322376 -0.025375284 -0.07864482 0.09376201
0002f0 a8 b0 bb 3b f2 0f 0b bc ac 26 23 3d fd cc 1c bc
       0.005727846 -0.008487688 0.039831802 -0.009570357
000300 3e 41 fd 3b ae 58 99 bb cf 1d 89 bd 53 36 c4 bd
       0.0077287247 -0.004679761 -0.06695139 -0.09580674
000310 37 d7 3f 3c 1f 61 53 3c 00 ee c3 bc cb c3 80 bd
       0.011709026 0.012901573 -0.023917198 -0.062873445
000320 87 58 7c 3d c9 68 f6 bc 31 68 cf bd a6 66 6d bd
       0.061607864 -0.030079262 -0.10127295 -0.05795922
000330 d1 02 13 3d c3 1f f9 3c f7 16 66 bc e8 d1 3a 3d
       0.035891358 0.030410653 -0.014043561 0.04561034
000340 9c f5 c1 bd 48 ff a1 bc 8a 7c 1f bd 21 85 b1 3b
       -0.094706744 -0.019775048 -0.03893713 0.0054174815
000350 7b 8f b4 ba 41 6b 8c bd 60 56 81 bd 56 f6 ac 3a
       -0.0013775671 -0.068563946 -0.06315303 0.0013195972
000360 fd db d3 bd ee 7c d9 3c c0 be 43 3d 48 80 ce bd
       -0.10344694 0.026548829 0.047789335 -0.100830615
000370 2e e6 de bd 70 35 32 bc 47 97 a0 bc 18 64 a8 b9
       -0.10883747 -0.010876998 -0.019603385 -0.00032118033
000380 be 0b 9a bc 5c 8d c8 3b 00 e7 15 be 73 3a 96 bc
       -0.018804427 0.006120367 -0.14638901 -0.018338418
000390 b2 d8 71 3c d7 02 f0 3b 80 31 23 be 7a 9b 69 ba
       0.014761137 0.0073245573 -0.15936852 -0.00089114124
0003a0 ae 3c 91 3c 50 49 3e 3b bc 95 b6 3c 22 f9 06 bd
       0.01772913 0.0029035397 0.022288196 -0.032952435
0003b0 fb 8b 37 3d fa 1a 60 bd 87 13 f5 bc 8b 5e 83 bd
       0.04481123 -0.054713227 -0.029916538 -0.06414517
0003c0 84 cc 5b 3d 98 98 96 bc 31 d8 8f 3c 6b da a1 bb
       0.05366184 -0.01838331 0.017559143 -0.0049393675
0003d0 1a 5a 3e 3c bc d2 94 3c 15 1a 4d 3d 95 d0 a5 3c
       0.011618162 0.018166892 0.050073702 0.020241061
0003e0 07 6b 9c bd 2f 8c 7c bd ef 7c 6c 3d 1d 19 80 bd
       -0.07637601 -0.061657127 0.057736333 -0.0625479
0003f0 06 25 e0 3c d7 e7 b8 3d 54 0e f3 3d f0 6c 74 3d
       0.027361404 0.09028595 0.11867967 0.059674203

model.net.layers.2.bias f4 [164]
000000 99 da bc bc 8e 53 08 3c 2b 1c 82 3d b2 c4 6c bc
       -0.023053454 0.008320702 0.06353029 -0.014451193
000010 a2 af 11 3d ca 74 ac bc 2d 98 34 3e 97 b8 43 bd
       0.035567887 -0.021051783 0.17636175 -0.04778346
000020 87 b8 b5 bd 96 94 9d 3c 7a 4d b5 bd bf 87 9d bc
       -0.088730864 0.01923589 -0.08852668 -0.019229768
000030 90 71 a1 bd e5 47 77 bc a3 72 9c bc c0 7d fc 3b
       -0.078829885 -0.015092825 -0.019097632 0.0077054203
000040 95 d1 9b b8 40 65 14 bb 87 ae 37 3d 9e 88 fb bc
       -7.430014e-05 -0.0022643358 0.044844177 -0.030704793
000050 6a 98 23 bc c9 1a ab bd aa 29 56 bb c8 85 a4 bd
       -0.009985069 -0.08354718 -0.0032678642 -0.08033329
000060 aa c6 03 3e b1 b8 83 3d a5 29 6c bd 8a 5b 09 bd
       0.12868753 0.064317115 -0.057656903 -0.033534564
000070 a6 89 b9 bd 91 28 e9 bc e6 ef 54 bd f4 fd 9a bd
       -0.090594575 -0.028461726 -0.051986597 -0.07567969
000080 fe 71 05 be 87 ef 7a bd 91 e5 b4 bc 53 3f 01 bc
       -0.13031766 -0.061263587 -0.022082122 -0.007888633
000090 26 ed 0d 3d 47 b9 9c bd a4 f3 9d bd 4d f2 c1 bc
       0.03464999 -0.07652526 -0.077124864 -0.023675108
0000a0 81 1e 93 3d 23 21 c7 3c 83 33 09 3d d4 f9 20 bc
       0.071835525 0.024307793 0.03349639 -0.009825189
0000b0 e9 2a f8 3c 16 5c e0 3d 38 96 a1 3b 9e 1f 1c bd
       0.030293899 0.10955064 0.0049312375 -0.03811609
0000c0 a8 26 39 bd 12 54 e9 3d 61 c7 a3 bc a7 28 86 3c
       -0.04520288 0.11392988 -0.019992532 0.016376806
0000d0 ee 45 77 3b 57 24 1f be f1 f6 06 3c 58 4a 3b bd
       0.003773089 -0.15541206 0.008237586 -0.045725197
0000e0 66 a6 04 be a0 b5 25 3d 60 86 4c bc 70 79 ad 3d
       -0.12954101 0.040456414 -0.012483209 0.08470428
0000f0 20 ba 7a bd c3 5f 62 3c 9b 30 c8 bd bc 0a 1f bd
       -0.06121266 0.013816777 -0.09774896 -0.038828596
000100 ba 20 6b 3d c3 df a6 bd d3 cb a3 3c bd 1f 04 be
       0.057404257 -0.08148148 0.019994652 -0.12902732
000110 4e ea 54 3d 45 62 a7 bd e5 48 5b bd f2 ae b7 3d
       0.051981263 -0.0817304 -0.053536315 0.08968915
000120 47 5c 3b bd 65 ae 4c 3d 7a 5a 09 3b ef c0 8b bc
       -0.0457423 0.049971003 0.002095847 -0.017059771
000130 66 4a 20 be 5d ec 79 3d 36 3f 25 bd 04 b0 cf bd
       -0.15653381 0.06101643 -0.040343486 -0.10140994
000140 01 2b c2 3c 4f ed 1a bd 24 0b 8b bb 7c 20 bf 3c
       0.023702146 -0.03782397 -0.0042432714 0.02333092
000150 64 f1 b0 bd 50 d9 04 bd 1d 44 ec 3c d6 fe 04 3d
       -0.086397916 -0.032433808 0.028841073 0.032469593
000160 6a a9 9e 3d e5 22 d3 3d 1f 96 44 3d b6 00 a6 bd
       0.07747157 0.1030939 0.04799473 -0.08105604
000170 c8 99 a3 bd a7 2b 7d 3d a3 41 75 bc 9a d1 32 bc
       -0.07988316 0.06180921 -0.014969262 -0.010914231
000180 5b bd 14 be b1 c4 f9 3b 2d 00 de bd d4 ce bb 3c
       -0.14525358 0.0076223244 -0.10839877 0.022925772
000190 bc 03 29 bd 05 87 02 3c 87 32 a0 bc 8c 74 85 bd
       -0.041263327 0.0079667615 -0.019555343 -0.0651637
0001a0 de db d8 3d f8 57 f9 bc 69 4f 0d 3d 16 d2 88 bd
       0.10588811 -0.030437455 0.03449956 -0.06680696
0001b0 d0 a0 c6 3c 28 3a c7 3c 6a 3d a1 bc e1 d2 9e bc
       0.024246603 0.024319723 -0.019682605 -0.019387664
0001c0 85 06 93 bc 72 d4 30 3e 01 eb 6b bc 21 d8 10 3c
       -0.017947445 0.17268541 -0.014399291 0.008840592
0001d0 77 90 c0 3c 78 4c 97 bd 0d d9 07 be 3b 71 a0 3d
       0.023506386 -0.07387632 -0.13266392 0.07834097
0001e0 ec 65 b1 bc 41 a8 e2 bb 3d 39 19 be c5 c1 c0 bd
       -0.021655045 -0.00691703 -0.14963241 -0.094119586
0001f0 fb 81 4d 3d 39 c9 01 bd 60 cb 3d bd e9 a1 8a bc
       0.050172787 -0.03168604 -0.04633653 -0.016922908
000200 af c2 26 bd 7a a7 c0 3c b9 1d 9c 3c bd 2d 16 3b
       -0.04071301 0.023517359 0.019057142 0.0022915446
000210 b7 5c 23 3d aa 9c 9f bd 6c 2a 32 bc 78 28 c4 3d
       0.03988334 -0.07793553 -0.010874372 0.09578031
000220 3f 1d b3 bd b9 72 c3 bd 6c 7a 18 bd f8 6a 33 bd
       -0.087458126 -0.09543366 -0.037226126 -0.043803185
000230 4a c3 c5 bd f3 a8 88 bd 63 a1 a7 3d fc db ad 3d
       -0.09656389 -0.066728495 0.08185079 0.08489224
000240 1f 10 0c 3d ed 84 a9 3d f5 bf 9b bc 69 f4 e6 bd
       0.03419506 0.08277307 -0.01901243 -0.11277086
000250 d4 b1 46 3d 62 74 4e bc 0a 21 f9 3c 52 87 c7 bd
       0.048509434 -0.01260099 0.030411262 -0.09742607
000260 ed 79 98 bd 07 b5 be 3b 0b 24 ae 3c 94 fd c9 3c
       -0.074451305 0.00581992 0.021257421 0.024657048
000270 d9 b5 88 bd 89 0e 82 3d 98 a4 d3 3d 11 98 2f be
       -0.0667531 0.063504286 0.10334128 -0.17147852
000280 1f 91 f9 bd 77 43 b9 bd 3c 92 8c bd 09 2e a2 bd
       -0.12185883 -0.09046071 -0.068638295 -0.07918937

model.net.layers.4.weight f4 [2, 164]
000000 bf f7 75 be f4 33 c8 bc ee fe b2 bc 40 fe bb bb
       -0.24020289 -0.024438836 -0.021850076 -0.005737096
000010 8d ee 6b bc 53 bb 5f bd a6 54 1e 3d 7b 71 24 bc
       -0.014400137 -0.054622006 0.038654946 -0.0100368215
000020 53 5c 52 3c b7 3b 00 be 35 ce a4 bc bc d0 de 3d
       0.012839395 -0.1252278 -0.020117858 0.10879657
000030 43 bc 0b bf d9 75 17 3e db ea 7e 3d 8d 93 73 bc
       -0.5458414 0.14791049 0.062235694 -0.014866722
000040 8e d0 c9 3d 7f c6 b1 3e 13 47 a7 bc 4a ef 8d bd
       0.09854232 0.34721753 -0.020419633 -0.069304064
000050 06 c0 6a 3c cd f2 50 3d 28 68 a1 3d 63 c7 e2 39
       0.0143280085 0.051012803 0.07881194 0.00043254634
000060 fe 2d 22 be 7d 97 0b 3e fa 9b 5e 3b 12 54 83 bd
       -0.15837857 0.13632007 0.003396748 -0.064125195
000070 1a a7 a9 3c 10 d5 49 3d 30 c0 88 3d b1 b1 e4 3c
       0.020709563 0.049275458 0.06677282 0.027916761
000080 3c db 9f 3c 4c ab 3a bb 30 7d 19 be 80 33 9b bd
       0.019513719 -0.0028483449 -0.14989161 -0.07578182
000090 42 9c d1 3c da 57 cd b9 6e e9 13 3d 6f 4e 82 bb
       0.025587205 -0.00039166101 0.036111288 -0.003976635
0000a0 da 72 4b be cd 0f a1 3b 8f dd a8 bb 59 f0 33 3b
       -0.19868031 0.0049152137 -0.005153365 0.002745649
0000b0 b3 0c 0b 3e e7 f3 d1 3c 89 dc 5e 3d 85 f8 8f ba
       0.13579063 0.025628997 0.054409537 -0.0010984099
0000c0 79 90 71 3c 67 0a 0d 3e af 07 a3 3e 2d a6 89 3d
       0.014743918 0.137735 0.318418 0.06721149
0000d0 93 cd e2 bb 71 0f c1 3c b6 dd 33 bc 2d f0 62 3b
       -0.006921479 0.023566933 -0.010978153 0.003462802
0000e0 57 68 c9 ba f6 af b6 3c a4 67 89 3e 11 6b 36 3d
       -0.0015366179 0.022300702 0.26836884 0.0445357
0000f0 f5 54 61 3d bf 6f 7b 3a 5c 25 a7 3d 88 0a 77 bd
       0.055012662 0.00095915416 0.081614226 -0.060312778
000100 bb cf b1 bb ea 9a 37 3e 46 97 67 3b 23 e4 58 be
       -0.0054263747 0.17930189 0.0035337969 -0.21180777
000110 2f 91 90 bd 25 24 31 bd e4 44 5e bc cf e8 89 3e
       -0.070589416 -0.04324736 -0.0135662295 0.2693543
000120 79 8b 83 bd 61 f2 4a bd d2 b8 09 3d 36 0d 89 3c
       -0.06423087 -0.049547557 0.033623524 0.016729932
000130 25 a1 02 bd 7d c5 d5 3e 2f bc 82 3c 38 31 9f bc
       -0.03189196 0.41752234 0.015958874 -0.019432649
000140 73 05 19 3c f6 0c c0 3a 84 78 2d be 6b 4a 75 3c
       0.009339678 0.00146523 -0.16940504 0.014971356
000150 0b f8 0b bd 1c 2a 67 be 8a ce f1 bd 33 89 46 bc
       -0.0341721 -0.22574657 -0.11806972 -0.012117672
000160 2e aa 1e bd 19 ce 1d bf 2e 70 dd 3c 87 e1 86 bc
       -0.038736515 -0.61642605 0.02703103 -0.016464962
000170 f1 61 30 3b 55 af 9c bd 2b 2a 1c 3d 4f c4 8e 3c
       0.0026913846 -0.076506294 0.038126152 0.017427592
000180 fa 93 78 3c 23 0f 02 bd 00 6f 1f 3d 28 53 fc 3d
       0.015171999 -0.031752717 0.038924217 0.12320548
000190 29 17 45 bd 96 ae 8d 3e e7 c7 93 bb 87 24 16 bc
       -0.04811779 0.2767226 -0.004509914 -0.009163982
0001a0 e7 08 29 3f 27 2b ea 3c fb d5 8f be 74 c2 b4 3b
       0.6602921 0.02858503 -0.28092942 0.0055163447
0001b0 c9 16 90 3c ac 53 e7 bd cd ca 70 3c 50 51 8b 3d
       0.01758899 -0.11295256 0.014696789 0.068026185
0001c0 01 6f ab bd 20 11 66 3e fc 1c 29 bc b7 39 91 3d
       -0.08370782 0.2246747 -0.010321852 0.07091086
0001d0 4f a8 09 be 2a 68 50 3b e6 df 11 bd d4 36 4a 3e
       -0.13443111 0.0031800368 -0.035613917 0.19747478
0001e0 af 59 b9 bd b0 97 7d 3c d2 6c 9d be ed 2b 28 bf
       -0.09050309 0.01547806 -0.30747086 -0.65692025
0001f0 6a 17 b0 bd a7 de f1 bb 84 63 ba 3b 29 73 f4 bd
       -0.08598216 -0.0073812786 0.0056881327 -0.119360276
000200 4e ad 1a 3c 49 0d 98 3d ec a7 03 3b 40 09 2d bb
       0.009440733 0.07424409 0.0020089103 -0.0026403219
000210 2a e1 48 3c 35 c3 b8 3c f9 fb 3a 3e 66 31 ef be
       0.012260715 0.02255402 0.18260182 -0.46717376
000220 2b 1a 78 3b 4e 5a 8b bc 0b f0 1e bc 2c 47 1d bd
       0.0037857394 -0.017010834 -0.009700785 -0.038397953
000230 f3 72 8a bb 5a f1 d7 bc c4 7c 1e bf ec 99 65 3c
       -0.004225129 -0.026360203 -0.6190913 0.014013749
000240 bb 5e b2 3c 23 93 7c bc 34 57 98 bb be 25 63 be
       0.021773687 -0.0154159395 -0.0046490673 -0.22182366
000250 89 d6 ee 3b 22 88 11 bd e3 d9 c0 37 0c 85 12 3d
       0.007288758 -0.035530217 2.2989645e-05 0.035771415
000260 39 3d b3 39 2c 92 2a 3d 8e e8 52 3d 20 d9 05 3e
       0.00034187155 0.041643307 0.051491313 0.13071108
000270 a6 1c 7e 3d ef ec 4e be ca ab a7 3c a0 c7 26 bd
       0.06203904 -0.2020757 0.020467658 -0.04071772
000280 3b 4d 25 3e 70 40 7d 3d 26 4e 85 bd ee a7 a1 3c
       0.16142742 0.06182903 -0.06509046 0.019733395
000290 1a ea 1d 3e 38 50 b2 3c aa 34 e3 3c 2c 8e 7f bb
       0.15421334 0.021766767 0.027735073 -0.0038994653
0002a0 d3 8b 86 bd e9 e9 68 3c 0c 12 90 3c 5d 57 10 3d
       -0.06569638 0.014215925 0.01758673 0.035239566
0002b0 78 65 8e bc d1 fd c6 bb f6 35 26 bd d3 73 07 3e
       -0.017382368 -0.0060727377 -0.040578805 0.13227777
0002c0 0c 4a 50 bf 39 22 97 3e 57 35 25 be 2b a7 25 bd
       -0.81362987 0.29518297 -0.16133629 -0.040442627
0002d0 07 55 0a be 50 bf b9 3d 70 39 dc bb 71 f8 0b 3b
       -0.13508998 0.09069693 -0.0067207143 0.00213578
0002e0 70 91 46 bc 7d e6 81 bd a0 5c df 3d ee 63 ad 3a
       -0.012119636 -0.0634279 0.10906339 0.0013228634
0002f0 db 72 40 3e 13 e3 b3 be 83 ea 15 3d e0 de eb bd
       0.18793814 -0.3513418 0.0366006 -0.115171194
000300 dd 70 96 bb be 8d b2 bc 4a 31 3f bd d0 1c a0 3c
       -0.004591091 -0.021796104 -0.046677865 0.019544989
000310 26 b0 00 be 33 08 da bd 3d 57 0f bd 03 a8 ff bd
       -0.12567195 -0.10646095 -0.034995306 -0.124832176
000320 eb 7c 20 bc 25 0e 2b bb 4f 1e 0f 3d df 3f 99 bc
       -0.009795408 -0.002610096 0.034941014 -0.018707214
000330 18 7d f2 3d 03 b4 9f bb fc 1f ca 3c d0 ef 8d bb
       0.11840266 -0.004873754 0.024673454 -0.0043315664
000340 fe 24 e5 3c 9e 03 c4 bb 5e b8 68 be d2 88 c9 bc
       0.02797174 -0.0059818765 -0.2272658 -0.024601374
000350 e7 89 0e 3d 7f 58 98 3e 6b ff 87 3e 80 9c 8b 3d
       0.034799483 0.29755017 0.26562056 0.068169594
000360 16 07 59 bb a6 5b cf 3a c8 47 fc bb d9 22 89 bb
       -0.0033115796 0.001582016 -0.0076989867 -0.0041850624
000370 3e 15 18 3e ff 18 eb 3b a4 db 92 bd 03 65 78 bd
       0.14851853 0.0071746106 -0.071707994 -0.060643207
000380 6c af 65 bd b2 50 2d 3b 05 6e a1 3c 90 8b 7f be
       -0.0560755 0.0026445803 0.019705782 -0.24955583
000390 15 b2 40 3c 4a 0d 30 3e 09 24 6e 3d 1c 30 ac 3d
       0.011761208 0.1719257 0.058139835 0.08407614
0003a0 83 8a 8d bd cb f8 97 3c 0f 66 fd bc 9a ed bb be
       -0.06911185 0.01855125 -0.030932454 -0.36704713
0003b0 ce 00 7a ba 42 e8 c1 bc d7 54 a4 bc 7a 6b ec bc
       -0.0009536863 -0.02367032 -0.020059986 -0.028859843
0003c0 76 e6 e0 ba cd 2a 83 3e 19 73 12 3d 76 ab 1a bd
       -0.0017158526 0.25618592 0.035754297 -0.037761174
0003d0 d5 bd 8b 3c 49 44 32 3c f3 3d d7 3d 7b 61 9c 3b
       0.017058292 0.010880538 0.10509863 0.0047723628
0003e0 24 02 99 39 56 bd fe be d0 1e c4 3d a8 2f 5d bc
       0.0002918403 -0.49753827 0.095761895 -0.013500132
0003f0 d3 19 fa 3c b6 26 16 3f 0b f5 1f bd f4 65 a8 3c
       0.030529892 0.5865282 -0.03905205 0.020556428

model.net.layers.4.bias f4 [2]
000000 f1 9e 5d bc 92 65 37 bc
       -0.013526664 -0.01119365

exp_avg f4 [128, 1]
000000 80 49 f4 38 73 a3 a2 b7 94 79 47 39 ca c3 fb b9
       0.00011648517 -1.9388017e-05 0.0001902341 -0.00048020325
000010 62 8a dc b9 78 df 57 bb 00 00 00 00 97 0f 18 b9
       -0.00042064773 -0.0032939594 0.0 -0.00014501657
000020 88 b7 11 b9 00 00 00 00 58 d0 e5 b9 18 7c 59 b9
       -0.00013896648 0.0 -0.00043833512 -0.00020740961
000030 00 00 00 00 e0 34 e4 ba 00 00 00 00 00 00 00 00
       0.0 -0.0017410778 0.0 0.0
000040 7c 3c 0b b9 88 19 0b 39 00 00 00 00 00 00 00 00
       -0.00013278605 0.00013265584 0.0 0.0
000050 00 00 00 00 00 f7 9a b6 73 38 03 ba 00 00 00 00
       0.0 -4.6183122e-06 -0.0005005665 0.0
000060 ef 2e 78 b9 d6 60 f1 ba 66 e8 c0 ba 00 00 00 00
       -0.00023668607 -0.00184157 -0.0014717698 0.0
000070 fe 77 b6 bb 00 00 00 00 3d bd 1d bc 00 00 00 00
       -0.0055685034 0.0 -0.009627637 0.0
000080 00 00 00 00 00 00 00 00 22 1f 08 bb f0 e3 68 3a
       0.0 0.0 -0.002077051 0.0008884063
000090 28 9a 5a b8 00 00 00 00 00 00 00 00 68 8c 2c ba
       -5.211882e-05 0.0 0.0 -0.00065822015
0000a0 00 00 00 00 0f fb 32 ba 22 aa 3d 39 00 00 00 00
       0.0 -0.0006827572 0.00018087824 0.0
0000b0 dc ff 59 b8 3c 19 b4 39 fb 89 00 ba 00 00 00 00
       -5.197512e-05 0.00034351076 -0.0004903373 0.0
0000c0 00 00 00 00 74 05 e4 39 00 00 00 00 00 00 00 00
       0.0 0.00043491612 0.0 0.0
0000d0 60 e4 c6 b7 84 25 49 36 f2 0a cf b9 3c 5c ae 39
       -2.3709785e-05 2.997317e-06 -0.00039490272 0.00033256586
0000e0 76 d7 35 bb 00 00 00 00 00 00 00 00 8f 76 e8 b9
       -0.0027746833 0.0 0.0 -0.0004433882
0000f0 64 5e c5 39 00 00 00 00 f7 69 30 ba 00 00 00 00
       0.00037645095 0.0 -0.0006729657 0.0
000100 00 00 00 00 00 00 00 00 00 00 00 00 07 d0 83 ba
       0.0 0.0 0.0 -0.0010056504
000110 62 0c fa 39 cb 48 40 b9 00 00 00 00 0c 21 90 39
       0.00047692942 -0.00018337664 0.0 0.00027490442
000120 85 bc d3 b9 53 d4 2d ba 00 00 00 00 34 4d 8a 38
       -0.00040385514 -0.0006631065 0.0 6.594733e-05
000130 00 00 00 00 95 64 37 b9 0f c8 79 ba 00 00 00 00
       0.0 -0.0001748971 -0.0009528407 0.0
000140 00 00 00 00 b2 fb 93 bb be 40 a4 b9 76 2c 08 b9
       0.0 -0.0045160884 -0.00031328754 -0.00012986534
000150 58 6f 04 bc e4 43 c0 39 00 00 00 00 21 08 cc b6
       -0.008083187 0.00036671676 0.0 -6.08062e-06
000160 33 1d 98 ba 00 00 00 00 00 00 00 00 3a 1d 80 b9
       -0.0011605382 0.0 0.0 -0.00024435838
000170 40 ea d2 b7 00 00 00 00 48 cc d5 b8 6e fe b6 b9
       -2.5143032e-05 0.0 -0.00010194682 -0.0003490331
000180 c6 9f df b9 00 00 00 00 a0 f7 db 39 00 00 00 00
       -0.00042652915 0.0 0.0004195543 0.0
000190 60 cc 48 ba 00 00 00 00 c8 10 6e 38 40 0d 89 39
       -0.0007659849 0.0 5.675925e-05 0.00026140548
0001a0 a8 7a 78 b9 10 fb 0b 39 00 00 00 00 00 00 00 00
       -0.00023696816 0.00013349601 0.0 0.0
0001b0 2a ff 10 39 00 00 00 00 a2 ab ef b8 60 a3 22 39
       0.00013827966 0.0 -0.00011428377 0.00015510386
0001c0 00 00 00 00 00 00 00 00 00 00 00 00 ce e1 bc b9
       0.0 0.0 0.0 -0.00036026392
0001d0 00 00 00 00 f2 31 dc b8 00 00 00 00 00 00 00 00
       0.0 -0.000104997205 0.0 0.0
0001e0 00 00 00 00 cc ab 36 3a fe 10 1d b8 00 00 00 00
       0.0 0.0006968349 -3.7447542e-05 0.0
0001f0 00 bb 6b 39 e8 cc 27 bb 00 00 00 00 30 38 35 b9
       0.0002248101 -0.0025604311 0.0 -0.00017282437
