docs/smld/lightning_logs/version_122/checkpoints/epoch=49-step=4900.ckpt (torch, 344011 bytes, 18 tensors)

net.layers.0.weight f4 [164, 2]
-0.013770672 0.117558576 0.595579 0.33120582 -0.37697107 -0.67512864 -0.672206 -0.17232876
-0.4859055 -0.5372274 -0.66453105 -0.19970675 0.023528125 -0.51104665 -0.07765986 -0.4674944
-0.36822462 0.07890662 -0.27309918 0.093037896 -0.20156902 0.05947143 -0.09335662 -0.5507551
-0.34152874 0.36164746 -0.21986854 -0.28093198 0.39902547 0.5742892 0.043170325 -0.5003389
0.015236 0.12931058 0.4324153 0.6490692 0.1457571 0.43475544 -0.19537641 -0.63129413
-0.05250001 0.10785696 -0.38426465 -0.60812795 0.14034122 0.12722039 0.44102177 -0.35616642
-0.39348617 -0.26346466 -0.077486224 -0.03716686 -0.14305565 -0.06867586 -0.06883818 0.15866539
0.05199092 0.26547408 -0.6225733 0.11957542 -0.16336124 -0.5320504 -0.2039171 0.4431098
0.10482166 -0.25861615 0.14129667 0.13976845 0.4080545 0.006878625 0.28165367 -0.101741016
-0.24698605 0.54735875 -0.5365971 0.3321823 -0.32718727 0.42076036 -0.051606294 0.66169715
0.091533765 -0.6776749 0.5932755 0.4534945 0.6094919 0.07047913 0.45217407 0.036256175
-0.13935682 0.15667176 0.32417497 -0.20533894 0.6802556 -0.19060539 -0.6164471 -0.478423
-0.09844371 -0.11135642 -0.11230276 0.35143438 -0.6942136 -0.57391715 -0.6248668 0.23990095
-0.22099417 -0.45300123 0.33720118 -0.34632033 -0.22418809 0.12996504 -0.14802447 0.12636177
-0.06446022 -0.66607606 -0.43818054 -0.21671252 -0.5331053 0.049680524 -0.27287096 0.45230687
-0.5613434 0.5668001 -0.1637998 -0.18663903 -0.58654296 0.57352376 -0.35373452 0.6033283
0.64288926 0.06158386 0.30336395 0.63080746 -0.32610467 0.44588286 -0.051039856 0.11480786
-0.4553425 0.353086 -0.014209678 0.5976241 0.32532585 0.45018023 -0.35788468 0.62551683
-0.44506755 -0.10109049 0.47433284 0.6131967 0.025031447 0.33578753 0.5378081 0.22867063
0.0076948055 -0.29334962 -0.3296424 -0.605429 0.0021881114 0.49310037 -0.34381264 0.118810095
0.18596683 0.609109 -0.50646496 0.17238562 0.68009365 0.36726484 -0.39116544 0.15164162
0.07307461 -0.61977863 -0.51295537 -0.20415422 -0.036365386 -0.31326115 0.34978548 -0.4611118
-0.66342616 0.018617693 -0.109683976 -0.122516416 -0.42573318 -0.04939512 0.64709663 -0.077900834
-0.32364485 0.31910744 -0.056123856 0.6494199 0.5904861 0.07446769 -0.06052837 -0.17404515
0.21492495 -0.15854305 0.06550494 -0.0958773 0.56801295 -0.1225395 -0.55473524 0.21237221
0.54978013 0.4776221 -0.015173799 0.14017563 0.46869302 0.12011586 -0.01844972 0.15617341
-0.246953 0.23991655 0.39633837 -0.4637072 0.3234365 0.41361576 -0.053653788 -0.1961369
-0.61350393 0.023487516 0.6153576 -0.43491033 -0.14671876 0.47578266 0.59345824 0.29649636
0.5226172 -0.093962945 -0.35640755 0.557058 -0.2696674 0.2544723 0.25113353 0.33390018
-0.49811196 -0.023098962 0.5972272 0.43424153 -0.18651304 -0.09867161 -0.64591944 0.3740331
-0.0296461 -0.015540151 0.09651743 -0.5678247 0.40816134 -0.26079735 0.6041257 0.34988767
0.02229322 -0.18518116 -0.09995197 -0.11200338 -0.28779387 0.02089534 0.40996775 -0.31714407
00000000: 629e 61bc 8dc2 f03d de77 183f cf93 a93e
00000010: 5a02 c1be 3bd5 2cbf b115 2cbf f376 30be
00000020: 9bc8 f8be bc87 09bf b51e 2abf ed7f 4cbe
00000030: 0ebe c03c f4d3 02bf 220c 9fbd 6d5b efbe
00000040: f087 bcbe cb99 a13d a8d3 8bbe a78a be3d
00000050: 1c68 4ebe 5098 733d c131 bfbd 49fe 0cbf
00000060: dbdc aebe db29 b93e 3825 61be 51d6 8fbe
00000070: 114d cc3e 9e04 133f 5ed3 303d 3616 00bf
00000080: 6aa0 793c fe69 043e 8a65 dd3e 6629 263f
00000090: 5941 153e 4498 de3e c110 48be 7e9c 21bf
000000a0: 400a 57bd 1ce4 dc3d 56be c4be 46ae 1bbf
000000b0: 9cb5 0f3e 1046 023e 9bcd e13e 725b b6be
000000c0: 0577 c9be d7e4 86be 19b1 9ebd 473c 18bd
000000d0: 2e7d 12be eea5 8cbd 08fb 8cbd 2e79 223e
000000e0: 6ef4 543d 38ec 873e f760 1fbf f5e3 f43d
000000f0: 2b48 27be 7434 08bf a5cf 50be 4adf e23e
00000100: bdac d63d 5669 84be 13b0 103e 761f 0f3e
00000110: 85ec d03e 1766 e13b e934 903e 985d d0bd
00000120: e9e9 7cbe b41f 0c3f 6d5e 09bf cc13 aa3e
00000130: 1785 a7be e76d d73e 1f61 53bd fc64 293f
00000140: 0e76 bb3d 1a7c 2dbf e7e0 173f 6e30 e83e
00000150: a907 1c3f 5d57 903d 5c83 e73e 5b81 143d
00000160: 8eb3 0ebe 906e 203e 43fa a53e 5f44 52be
00000170: 3b25 2e3f 0f2e 43be 7acf 1dbf dcf3 f4be
00000180: db9c c9bd d60e e4bd fdfe e5bd 35ef b33e
00000190: fcb7 31bf 3cec 12bf 45f7 1fbf 98a8 753e
000001a0: 4c4c 62be c7ef e7be a2a5 ac3e e650 b1be
000001b0: 9091 65be 8e15 053e ba93 17be fb64 013e
000001c0: b803 84bd f683 2abf 3359 e0be e3e9 5dbe
000001d0: 9779 08bf ce7d 4b3d beb5 8bbe c494 e73e
000001e0: 33b4 0fbf d019 113f 23bb 27be 4d1e 3fbe
000001f0: ae27 16bf 74d2 123f b11c b5be b973 1a3f
00000200: 6494 243f 5c3f 7c3d 8552 9b3e 997c 213f
00000210: 31f7 a6be c24a e43e 2b0f 51bd 6220 eb3d
00000220: a722 e9be b0c7 b43e b6cf 68bc e5fd 183f
00000230: 1c91 a63e 067e e63e a93c b7be df21 203f
00000240: e5df e3be 8808 cfbd c1db f23e 75fa 1c3f
00000250: c00e cd3c 58ec ab3e cbad 093f a228 6a3e
00000260: b524 fc3b ec31 96be e3c6 a8be 65fd 1abf
00000270: 6b66 0f3b a777 fc3e 3608 b0be b552 f33d
00000280: 176e 3e3e 91ee 1b3f b0a7 01bf db85 303e
00000290: 9e1a 2e3f 230a bc3e d646 c8be f147 1b3e
000002a0: 24a8 953d d0a9 1ebf 0b51 03bf ce0d 51be
000002b0: dff3 14bd c463 a0be 1517 b33e d916 ecbe
000002c0: 4cd6 29bf 2284 983c fea1 e0bd e3e9 fabd
000002d0: b3f9 d9be 8a52 4abd 20a8 253f 798a 9fbd
000002e0: c7b4 a5be 0d62 a33e 21e2 65bd 6240 263f
000002f0: 192a 173f 8482 983d 99ec 77bd e438 32be
00000300: 4915 5c3e 1c59 22be 7427 863d 515b c4bd
00000310: 4c69 113f fdf5 fabd 2103 0ebf 1a78 593e
00000320: 64be 0c3f e28a f43e 879b 78bc 338a 0f3e
00000330: 88f8 ef3e 4eff f53d de23 97bc eceb 1f3e
00000340: 3fe1 7cbe afac 753e ddec ca3e 086b edbe
00000350: 7899 a53e 72c5 d33e 13c4 5bbd 1dd8 48be
00000360: 980e 1dbf e468 c03c 1388 1d3f 91ac debe
00000370: 713d 16be c999 f33e e1ec 173f 5fce 973e
00000380: 3eca 053f a56f c0bd 0d7b b6be 5a9b 0e3f
00000390: d811 8abe 314a 823e 9394 803e f7f4 aa3e
000003a0: 8808 ffbe 093a bdbc e2e3 183f e854 de3e
000003b0: 46fd 3ebe 5714 cabd fa5a 25bf 4481 bf3e
000003c0: 61dc f2bc 1e9c 7ebc eeaa c53d f65c 11bf
000003d0: 86fa d03e 3b87 85be fba7 1a3f 7a24 b33e
000003e0: 45a0 b63c 21a0 3dbe 9eb3 ccbd 0762 e5bd
000003f0: b859 93be b42c ab3c 4be7 d13e b560 a2be

net.layers.0.bias f4 [164]
-0.16965882 -0.31249118 -0.3013125 -0.46115625 -0.28136078 0.29746988 0.2455346 -0.40980858
-0.39084157 -0.34004477 0.44824976 0.054857586 0.65049833 0.14453635 -0.23971279 -0.119246796
0.19632323 -0.27861878 0.13420406 0.004727901 0.3227368 0.06365738 0.011062133 0.3139213
0.22171703 0.28392535 0.32509023 0.035076823 0.4674241 -0.23434797 0.08553389 0.22555831
0.31873104 0.36700037 0.54412305 -0.32704067 -0.34229708 -0.36216798 -0.023748966 -0.24643667
0.6609083 -0.6227514 -0.33922368 -0.3563708 -0.28486142 -0.44792792 0.009683619 0.40207455
-0.06776713 -0.1702866 0.43300053 -0.2182687 0.40580484 0.28547564 -0.6083364 -0.17898276
-0.3074833 -0.2750809 -0.52910477 -0.04881458 -0.36970612 -0.68341625 -0.6714936 -0.64275527
0.37553132 -0.64733285 -0.17931738 -0.3352189 -0.3436107 -0.14559953 0.48084682 0.23236032
0.30615306 0.36021248 -0.18141516 -0.6390116 -0.59561193 0.1832479 -0.4520013 0.3497322
-0.27418622 0.4471119 -0.23228917 0.4314194 0.40240267 0.5334401 -0.26900038 -0.0898762
0.09796976 -0.56393576 -0.38587984 -0.12974556 0.3725462 0.15234326 -0.20143954 0.67946094
0.5858518 -0.46112818 0.6161668 0.5186723 0.42030537 -0.2834305 0.09899035 0.43672556
-0.20286535 -0.38224104 0.06808312 0.47461075 -0.0049242144 0.4912886 0.3875711 -0.0255868
0.33254918 -0.3474969 0.36575264 0.33666402 -0.63779896 -0.4402884 0.37263983 0.14017399
0.40633002 -0.36076975 -0.34956044 0.16467904 -0.5882983 -0.44968408 -0.3443639 0.63359594
0.6128088 -0.41397864 -0.6030092 0.0039057788 0.52549016 -0.16702956 0.23062637 -0.08573722
-0.12755775 -0.5533631 -0.3133313 0.49749607 0.60372204 -0.10565401 -0.60904443 0.11947201
0.073263034 0.13225102 0.056118365 0.1891252 -0.47772178 0.59513545 -0.20065343 0.096182
-0.30725196 0.52359897 -0.3395226 0.07866504 -0.32063133 0.07548373 -0.6632341 -0.64130116
0.49307263 -0.31943408 -0.64236134 0.31760642
00000000: 0bbb 2dbe d8fe 9fbe a245 9abe ac1c ecbe
00000010: 850e 90be f94d 983e 6c6d 7b3e 6ed2 d1be
00000020: 631c c8be 591a aebe fe80 e53e 59b2 603d
00000030: 0f87 263f 5601 143e 4577 75be aa37 f4bd
00000040: f508 493e 1fa7 8ebe ca6c 093e 82ec 9a3b
00000050: c23d a53e cd5e 823d f33d 353c 4bba a03e
00000060: ca09 633e aa5e 913e 3a72 a63e b7ac 0f3d
00000070: 3652 ef3e eaf8 6fbe 642c af3d c2f8 663e
00000080: b730 a33e 79e7 bb3e a64b 0b3f e071 a7be
00000090: 9041 afbe 156e b9be 318d c2bc e559 7cbe
000000a0: 4931 293f a36c 1fbf baae adbe 3c76 b6be
000000b0: 5bd9 91be cf56 e5be 0ba8 1e3c b7dc cd3e
000000c0: 7ec9 8abd 9c5f 2ebe 3fb2 dd3e d581 5fbe
000000d0: a7c5 cf3e dd29 923e efbb 1bbf 4247 37be
000000e0: 736e 9dbe 67d7 8cbe 6973 07bf ccf1 47bd
000000f0: 1f4a bdbe 5ef4 2ebf 01e7 2bbf 9c8b 24bf
00000100: a445 c03e 9bb7 25bf fa9e 37be d0a1 abbe
00000110: beed afbe 0b18 15be 8e31 f63e ddef 6d3e
00000120: 18c0 9c3e c56d b83e e5c4 39be 4496 23bf
00000130: 067a 18bf 56a5 3b3e b76c e7be 1910 b33e
00000140: 2362 8cbe daeb e43e 36dd 6dbe 01e3 dc3e
00000150: b907 ce3e 888f 083f 6bba 89be 0311 b8bd
00000160: 5fa4 c83d 185e 10bf 0b92 c5be 05dc 04be
00000170: 60be be3e dfff 1b3e 2b46 4ebe 27f1 2d3f
00000180: 62fa 153f fe18 ecbe 1bbd 1d3f b5c7 043f
00000190: 4432 d73e cd1d 91be 74bb ca3d 7e9a df3e
000001a0: efbb 4fbe 19b5 c3be 2a6f 8b3d 2e00 f33e
000001b0: 4e5b a1bb 2e8a fb3e b86f c63e 699b d1bc
000001c0: e343 aa3e 1deb b1be ee43 bb3e 3a5f ac3e
000001d0: cb46 23bf 7b6d e1be a6ca be3e c589 0f3e
000001e0: 7d0a d03e d0b6 b8be 96f9 b2be 9fa1 283e
000001f0: b89a 16bf fe3c e6be 7750 b0be 5833 223f
00000200: 0ae1 1c3f 02f5 d3be d05e 1abf 18f8 7f3b
00000210: 8686 063f cc09 2bbe 5229 6c3e ff96 afbd
00000220: 809e 02be 34a9 0dbf f66c a0be ceb7 fe3e
00000230: 878d 1a3f 2161 d8bd 56ea 1bbf bead f43d
00000240: ee0a 963d d06c 073e 5fdc 653d 09aa 413e
00000250: f397 f4be cc5a 183f 1878 4dbe 12fb c43d
00000260: 2150 9dbe 950a 063f e8d5 adbe 231b a13d
00000270: ca29 a4be 3797 9a3d b6c9 29bf 502c 24bf
00000280: 0474 fc3e dd8c a3be cb71 24bf 4f9d a23e

net.layers.2.weight f4 [164, 164]
-0.06854453 -0.05590936 -0.033654466 -0.045235243 -0.032838304 -0.03134763 0.038005516 -0.05842856
0.014090823 0.043923035 -0.035974268 -0.014259215 -0.03337843 -1.00476755e-05 -0.0058027096 -0.019328829
0.047771726 0.06237196 -0.05092214 -0.039080933 -0.07241181 -0.01794744 0.040660627 0.005959319
0.040702656 0.013395619 -0.046161734 0.06860537 -0.010096181 0.031298734 0.01884153 0.040746655
0.061106957 -0.030921489 -0.017807905 0.011534588 0.062356558 0.014710497 0.050155956 0.06557274
-0.073352285 0.056272622 -0.0736394 0.027905883 -0.004387503 0.07908028 0.0513498 -0.06628974
-0.07301905 0.0033455947 -0.10498576 0.011442827 -0.0006552945 -0.015937906 0.036994394 0.011719808
0.0048620193 -0.0010865967 -0.00660312 -0.007863741 0.053570595 0.0058070095 -0.022813946 -0.0776864
-0.05388301 0.031705055 0.04299893 -0.0013687155 -0.040206004 0.071291834 -0.07479535 0.05082812
-0.017624317 -0.04531607 0.000999477 -0.03967218 0.056033697 -0.050513864 -0.07288776 0.042929165
-0.0809437 0.06436178 0.045868386 0.06498901 -0.07754746 -0.03276814 -0.037403423 0.075433016
0.029765481 0.08520385 -0.07868506 0.05931203 -0.01425711 0.049678344 -0.06411632 -0.10604516
-0.056417145 0.017681895 0.06596003 -0.0179155 0.0024778815 0.07340665 -0.06935846 -0.032326218
0.05552197 0.033795856 0.05588035 -0.07326283 -0.03424228 0.015624328 -0.011895134 -0.03713538
-0.05483265 -0.045515116 0.06678836 0.0035181302 -0.013108704 0.03060952 0.021777617 -0.08311519
-0.0759754 -0.06266064 -0.028792458 -0.061001044 -0.002785312 0.016802786 -0.0754204 0.011201019
0.062967815 -0.009017845 -0.038686994 -0.018332679 0.06789752 0.0049679196 0.011881007 -0.046125904
-0.047778755 0.033643737 0.0030712194 -0.012128485 -0.023833912 -0.030399134 -0.045295242 -0.009476772
-0.043466844 -0.042937566 0.045747977 -0.006609233 0.06392035 0.013105526 0.039214365 0.08240123
0.025716765 0.018190777 -0.028948365 -0.06273615 0.028853409 0.017998477 -0.04707034 0.026498547
-0.054782916 -0.01356759 -0.061531328 -0.042142916 0.02042518 0.006013298 0.041904908 0.026817093
0.029402127 0.019872267 0.049144674 0.03380887 0.026019445 -0.06676386 -0.06102585 0.023286277
0.007815249 -6.222999e-06 0.04362328 0.037094697 0.018864408 -0.06572144 0.059305876 -0.05695332
0.064659745 0.04139154 0.045314338 0.040884834 -0.075715736 -0.0784025 -0.043568034 -0.05605032
0.06465758 0.07287985 -0.03923093 -0.011612268 0.06118957 -0.031122861 -0.073423155 -0.055984657
-0.014299023 0.05028724 -0.007092031 -0.009679936 0.06542188 0.050574902 -0.027479442 -0.026419733
0.016012033 -0.014774432 0.049897514 0.04974712 0.008794955 -0.01519357 0.010624595 0.06405116
-0.011322146 0.05399603 0.057216354 0.0023714995 -0.0541353 -0.05583981 0.06680443 0.021865472
0.0049912254 0.000101031765 0.067329414 0.0548759 -0.0676848 -0.026400868 -0.037028484 0.0032679702
-0.043807365 -0.024689874 -0.0013355138 0.0017265057 -0.046197996 0.024738954 -0.0364673 -0.04175252
0.0149758505 0.023830341 -0.0047451467 -0.01504792 -0.04242981 0.065394975 -0.005986529 -0.04048826
0.016557077 -0.008818806 0.059294205 0.014669889 0.027165523 -0.009221381 -0.06255958 -0.05786761
00000000: 1361 8cbd 3701 65bd 44d9 09bd 9748 39bd
00000010: 7581 06bd 5f66 00bd acab 1b3d c952 6fbd
00000020: 32dd 663c a4e8 333d c159 13bd 7c9f 69bc
00000030: d2b7 08bd 7092 28b7 a824 bebb 7e57 9ebc
00000040: 49ac 433d be79 7f3d bc93 50bd 5413 20bd
00000050: a54c 94bd 8206 93bc c28b 263d 6446 c33b
00000060: d4b7 263d 4c79 5b3c 1614 3dbd f980 8c3d
00000070: 746a 25bc 1a33 003d 8d59 9a3c f7e5 263d
00000080: 4a4b 7a3d 104f fdbc e2e1 91bc 92fb 3c3c
00000090: 9769 7f3d 4c04 713c 5570 4d3d 004b 863d
000000a0: b939 96bd 1f7e 663d 41d0 96bd e19a e43c
000000b0: 0bc5 8fbb d8f4 a13d 2b54 523d eac2 87bd
000000c0: 038b 95bd c441 5b3b c602 d7bd b27a 3b3c
000000d0: 12c8 2bba 3690 82bc 6f87 173d 7004 403c
000000e0: 9351 9f3b 236c 8eba fc5e d8bb ecd6 00bc
000000f0: d76c 5b3d ba48 be3b 50e4 babc 0c1a 9fbd
00000100: 6eb4 5cbd 29dd 013d a51f 303d 7966 b3ba
00000110: 0daf 24bd 7401 923d 4e2e 99bd 2631 503d
00000120: df60 90bc 589d 39bd e200 833a 4c7f 22bd
00000130: 9783 653d a0e7 4ebd 2e46 95bd 7ed6 2f3d
00000140: d0c5 a5bd 1cd0 833d 7de0 3b3d f518 853d
00000150: 34d1 9ebd e337 06bd 5534 19bd a07c 9a3d
00000160: bdd6 f33c 5b7f ae3d a225 a1bd 2cf1 723d
00000170: a796 69bc 857b 4b3d 6b4f 83bd 342e d9bd
00000180: aa15 67bd 9fd9 903c 0d16 873d 87c3 92bc
00000190: f463 223b 3a56 963d cf0b 8ebd 7f68 04bd
000001a0: 016b 633d 866d 0a3d cbe2 643d d30a 96bd
000001b0: a241 0cbd 2efd 7f3c cfe3 42bc 451b 18bd
000001c0: 3398 60bd 0f6e 3abd 56c8 883d 6e90 663b
000001d0: e4c5 56bc d1c0 fa3c f966 b23c 4c38 aabd
000001e0: fe98 9bbd 3954 80bd 29de ebbc 3bdc 79bd
000001f0: c889 36bb ffa5 893c 0376 9abd 7b84 373c
00000200: 45f5 803d 95bf 13bc 4176 1ebd 6a2e 96bc
00000210: db0d 8b3d eec9 a23b 8ea8 423c 84ee 3cbd
00000220: a8b3 43bd 04ce 093d 8346 493b 8eb6 46bc
00000230: 563f c3bc 9b07 f9bc 8187 39bd 7644 1bbc
00000240: 4a0a 32bd 4ddf 2fbd 3b62 3b3d 4492 d8bb
00000250: ace8 823d 8fb8 563c 3e9f 203d fac1 a83d
00000260: f7ab d23c d304 953c 1f25 edbc d07b 80bd
00000270: fc5d ec3c 8b71 933c d4cc 40bd 7b13 d93c
00000280: 0d64 60bd 994a 5ebc 4608 7cbd 0d9e 2cbd
00000290: b552 a73c 330b c53b 7ba4 2b3d 85af db3c
000002a0: bbdc f03c 2acb a23c ed4b 493d 2b7b 0a3d
000002b0: bb26 d53c 7ebb 88bd 3ef6 79bd ddc2 be3c
000002c0: 880b 003c 28cf d0b6 53ae 323d 9cf0 173d
000002d0: 8889 9a3c f698 86bd b8ea 723d e247 69bd
000002e0: 546c 843d 2d8a 293d 879b 393d db76 273d
000002f0: da10 9bbd 7d91 a0bd 6574 32bd 0595 65bd
00000300: 316b 843d 0842 953d 9db0 20bd 6241 3ebc
00000310: eaa1 7a3d 5ff5 febc e15e 96bd 2b50 65bd
00000320: 7346 6abc fef9 4d3d 4564 e8bb 9898 1ebc
00000330: e8fb 853d a127 4f3d 911c e1bc 326e d8bc
00000340: ab2b 833c 7610 72bc 5661 4c3d a3c3 4b3d
00000350: b718 103c 74ee 78bc c812 2e3c 412d 833d
00000360: 8680 39bc f12a 5d3d b25b 6a3d 296b 1b3b
00000370: fabc 5dbd 49b8 64bd c3d0 883d 381f b33c
00000380: 6f8d a33b 04e1 d338 01e4 893d 8dc5 603d
00000390: 549e 8abd a246 d8bc 2eab 17bd 712b 563b
000003a0: 5a6f 33bd 6b42 cabc 680c afba eb4b e23a
000003b0: 1c3a 3dbd 59a9 ca3c bc5e 15bd b104 2bbd
000003c0: 455d 753c d937 c33c 2d7d 9bbb 8d8b 76bc
000003d0: e1ca 2dbd cded 853d a52a c4bb 05d7 25bd
000003e0: b5a2 873c c17c 10bc 7bde 723d f959 703c
000003f0: 3b8a de3c 4615 17bc 3d1f 80bd 9606 6dbd

net.layers.2.bias f4 [164]
-0.010633671 0.04335893 -0.08213413 -0.023158384 -0.045730356 0.020729588 0.044918355 -0.048413035
-0.029489497 0.04217549 -0.082570545 -0.026451932 -0.0421749 -0.028677048 -0.018711941 0.052486107
-0.071041234 0.04980017 -0.048040148 0.07717789 -0.091551274 0.032370504 0.042850964 -0.058771394
0.04262895 -0.06744683 -0.07556758 0.021298002 -0.046572458 -0.0025695043 -0.053270675 0.014007972
-0.029999295 -0.012054034 -0.020466462 -0.081056505 -0.04468269 0.05376694 -0.040344656 0.034309067
-0.058693785 0.033278316 0.022180174 -0.055387318 0.02452038 -0.07803709 0.07010976 -0.045339063
-0.065313175 -0.0139890965 0.013931976 -0.038812105 -0.026308713 0.038934223 -0.022167437 -0.086425744
-0.00073667394 -0.06130548 0.03401534 -0.031279434 -0.03805365 -0.044980988 0.027061984 -0.06482601
-0.016273776 -0.03967484 0.049292486 -0.01714885 -0.02664458 -0.03189637 0.05247075 -0.07147264
0.06075937 -0.06895916 -0.0049685547 -0.022599908 0.043057013 0.017811703 -0.055969 -0.0020410125
-0.019789852 -0.0045795115 -0.06190478 -0.00049044203 0.085866466 0.03496225 0.0067077368 -0.03587907
-0.027431492 -0.0018038715 -0.040211227 -0.0068522054 0.07195565 0.010774128 0.042452425 -0.011334114
-0.06266448 -0.04053413 -0.030899247 -0.06807704 0.044160467 0.06542183 -0.073676646 -0.055785537
0.046627853 0.16128023 0.034308273 0.058916684 -0.049996294 0.05234791 0.030245636 -0.051358566
-0.05155984 0.00054848334 0.009476958 -0.0486733 -0.011593898 -0.011040767 0.07681204 0.022067135
-0.009309113 -0.015884308 0.055940423 0.033908408 0.044534255 -0.043210775 0.02320308 -0.06038592
0.04571645 -9.4665054e-05 -0.028765764 -0.017373359 0.05749062 -0.081489965 0.020144809 0.056677155
-0.08202391 0.0128564825 0.0054021776 0.0110452585 0.04149604 -0.045939025 -0.0040658824 0.05568688
-0.011160951 0.0064887838 0.033588503 -0.058409203 -0.0038744237 0.073860854 0.030056376 -0.055990007
-0.057333592 -0.05864613 -0.0520901 0.09014324 -0.05519397 0.0521673 0.049668986 -0.0077439514
-0.030071804 0.053192712 0.041745238 -0.039807465
00000000: d938 2ebc 2299 313d f035 a8bd a7b6 bdbc
00000010: c14f 3bbd 19d1 a93c 4ffc 373d bf4c 46bd
00000020: f593 f1bc 35c0 2c3d bf1a a9bd b9b1 d8bc
00000030: 97bf 2cbd 21ec eabc c949 99bc acfb 563d
00000040: 117e 91bd 43fb 4b3d bfc5 44bd 710f 9e3d
00000050: 3c7f bbbd ef96 043d 7e84 2f3d 46ba 70bd
00000060: b29b 2e3d 9021 8abd 2dc3 9abd 2679 ae3c
00000070: c3c2 3ebd 2165 28bb 5a32 5abd b181 653c
00000080: 15c1 f5bc 487e 45bc 48a9 a7bc f400 a6bd
00000090: 3205 37bd b93a 5c3d 7040 25bd aa87 0c3d
000000a0: e568 70bd d84e 083d 32b3 b53c d0dd 62bd
000000b0: f7de c83c e9d1 9fbd b595 8f3d 74b5 39bd
000000c0: eac2 85bd 8632 65bc f142 643c 71f9 1ebd
000000d0: 5f85 d7bc 7e79 1f3d 7c98 b5bc fbff b0bd
000000e0: 5a1d 41ba 741b 7bbd ab53 0b3d dd1e 00bd
000000f0: 25de 1bbd fc3d 38bd 18b1 dd3c 80c3 84bd
00000100: 9550 85bc 1682 22bd ebe6 493d bf7b 8cbc
00000110: bc45 dabc c5a5 02bd 92eb 563d 3f60 92bd
00000120: d1de 783d 763a 8dbd 42cf a2bb 7123 b9bc
00000130: 8d5c 303d d9e9 913c c03f 65bd 82c2 05bb
00000140: 541e a2bc ba0f 96bb de8f 7dbd 0291 00ba
00000150: c2da af3d 9434 0f3d 93cc db3b eff5 12bd
00000160: 02b8 e0bc e26f ecba 87b4 24bd 7788 e0bb
00000170: 7c5d 933d f885 303c 98e2 2d3d b8b2 39bc
00000180: 3c56 80bd 1e07 26bd 6b20 fdbc fa6b 8bbd
00000190: 9be1 343d e1fb 853d c8e3 96bd 607f 64bd
000001a0: d9fc 3e3d a526 253e d586 0c3d 9f52 713d
000001b0: eac8 4cbd c36a 563d b2c5 f73c 5c5d 52bd
000001c0: 6930 53bd 18c8 0f3a 3e45 1b3c a75d 47bd
000001d0: 55f4 3dbc 55e4 34bc a14f 9d3d 23c6 b43c
000001e0: 4085 18bc cf1f 82bc c921 653d 8be3 0a3d
000001f0: 8d69 363d c8fd 30bd 6314 be3c 3a57 77bd
00000200: 2c41 3b3d ea86 c6b8 2ea6 ebbc 9352 8ebc
00000210: 497b 6b3d 36e4 a6bd ba06 a53c 4e26 683d
00000220: 27fc a7bd ffa3 523c c004 b13b 2cf7 343c
00000230: c0f7 293d 8f2a 3cbd 183b 85bb ed17 643d
00000240: 6cdc 36bc dd9f d43b 1994 093d 7d3e 6fbd
00000250: 0bea 7dbb 5c44 973d ca38 f63c c755 65bd
00000260: a1d6 6abd ed36 70bd 6e5c 55bd 059d b83d
00000270: 1313 62bd 61ad 553d b571 4b3d f9c0 fdbb
00000280: 2559 f6bc 9ae0 593d 0efd 2a3d 270d 23bd

net.layers.4.weight f4 [2, 164]
0.00094931916 0.041242037 0.039947227 0.0072738035 0.041617133 -0.0035353878 -0.023213187 -0.008630834
-0.053721532 0.023695217 -0.036645886 0.07709285 0.003850203 -0.008396212 0.027557638 0.021235019
-0.0065456014 -0.026300358 0.049503658 0.014980118 -0.030324986 0.04371572 -0.012084521 0.034890767
0.0029679765 -0.0050049 0.009532111 -0.022988066 0.046199 0.029662782 -0.048952643 -0.044807546
-0.034543663 0.03749522 -0.007344261 0.006763995 0.06746375 0.036166254 -0.010463797 0.0014950058
0.045261838 0.03561446 0.006050589 0.018499805 -0.04891908 0.024217082 0.011412758 0.008411148
0.0183741 0.011483956 0.02998177 0.018221607 -0.011731079 -0.007904914 -0.020300327 0.029026823
-0.027292266 -0.030489927 -0.0019933651 -0.05676036 -0.07483591 0.013084343 -0.03408874 0.014853162
-0.0048726946 -0.0117591275 -0.018157938 0.02455651 0.0049219807 0.030072456 -0.0005216725 -0.056377705
0.052995853 0.029050697 -0.0019858968 0.040684015 -0.03700978 -0.018410053 0.022530325 -0.06726565
-0.024218658 0.022158066 -0.027061932 -0.00022856172 -0.004343649 0.056377515 -0.010221447 0.00015433667
-0.045613065 0.025669027 -0.038711723 0.035882104 -0.033705227 0.01190155 0.061149064 -0.029759258
0.011862674 0.061361752 -0.055024654 -0.008723054 0.017830865 0.0033598386 0.0050269053 -0.03999488
0.04076138 -0.0054697595 0.020648384 -0.036671497 0.017493825 -0.037168983 -0.010890735 -0.013127527
0.035879433 0.04545185 -0.033475913 -0.007358538 -0.018706001 0.022407742 -0.01807267 -0.005724281
0.0020822692 0.011264464 -0.049651615 -0.031655744 0.011754 0.04506923 0.057349235 0.05489939
-0.029285097 0.0030134837 -0.0036636952 -0.017240068 0.01972366 0.0035568045 0.026619125 0.05497999
-0.006482245 -0.03134997 -0.002547344 -0.06754508 -0.016695308 -0.039641816 -0.02106911 0.003101581
-0.037733678 -0.0019173236 -0.058163397 -0.040653326 -0.016915496 0.012601287 0.027046094 -0.0013608689
-0.027331185 0.022197261 -0.0254535 -0.025755024 -0.031627547 0.022201784 -0.066468626 -0.0044093025
0.039634835 0.03379569 0.006052003 -0.036440037 -0.0056687724 -0.03847468 -0.03590943 -0.020561611
0.020009669 -0.008430069 -0.035381675 -0.0012521311 0.011472453 -0.036104325 0.0069223717 -0.044202246
-0.018281806 0.014955746 -0.0048610494 -0.030214239 -0.008211691 0.03244556 -0.08216958 0.017289614
-0.025340872 0.024554662 -0.017448604 -0.013196793 0.05966054 -0.0137789855 0.068656236 -0.03293964
0.0369723 0.04302978 0.013745509 -0.04423382 -0.04621639 0.0605403 0.006292592 -0.025597481
0.06399432 0.01329546 -0.017170431 0.0014454965 -0.005997998 -0.048032816 0.009515913 0.07798191
0.0231065 0.035617415 -0.022973632 -0.010247293 -0.056092933 -0.0051289103 0.042683475 -0.017505817
0.02577125 0.053961262 0.00021187139 0.0068911538 0.040407404 0.03816716 0.0009099435 -0.03909484
0.059731185 -0.012480494 -0.035494246 -0.005662969 -0.015763076 0.05485836 -0.029189063 0.042822354
-0.0012127577 -0.023528283 -0.00024776123 0.07730577 -0.020483125 -0.017091805 0.009988705 -0.01024329
0.04593784 -0.018895926 0.004297386 0.06442389 -0.011082645 -0.032671865 0.035235293 -0.008529823
-0.007614396 0.04731711 -0.009864439 0.0026022154 -0.023877027 -0.050964713 0.00449034 0.01425717
00000000: bbdb 783a 69ed 283d b49f 233d 1659 ee3b
00000010: ba76 2a3d f7b1 67bb 9529 bebc 5768 0dbc
00000020: 1c0b 5cbd 791c c23c ff19 16bd dbe2 9d3d
00000030: b053 7c3b 4490 09bc 8ec0 e13c 10f5 ad3c
00000040: 7c7c d6bb d973 d7bc 59c4 4a3d 2b6f 753c
00000050: 1b6c f8bc 410f 333d 28fe 45bc 9fe9 0e3d
00000060: 6282 423b 2500 a4bb 922c 1c3c 7851 bcbc
00000070: 2a3b 3d3d 5dff f23c 9182 48bd 1e88 37bd
00000080: a87d 0dbd 9694 193d 20a8 f0bb 81a4 dd3b
00000090: 6f2a 8a3d 1123 143d 5870 2bbc 12f4 c33a
000000a0: 7a64 393d 78e0 113d 0544 c63b e78c 973c
000000b0: 605f 48bd e762 c63c 94fc 3a3c e9ce 093c
000000c0: 4885 963c 3427 3c3c 549c f53c 7b45 953c
000000d0: b633 40bc 9d83 01bc df4c a6bc a9c9 ed3c
000000e0: 0894 dfbc 03c6 f9bc 1ea3 02bb 8d7d 68bd
000000f0: 9243 99bd b65f 563c a2a0 0bbd ad5a 733c
00000100: 20ab 9fbb 5ba9 40bc f5bf 94bc bc2a c93c
00000110: 9148 a13b 835a f63c d9c0 08ba 4fec 66bd
00000120: 2e12 593d bafb ed3c d225 02bb 48a4 263d
00000130: 9197 17bd aed0 96bc 8491 b83c 93c2 89bd
00000140: 3566 c6bc d584 b53c fcb0 ddbc 12aa 6fb9
00000150: 2b55 8ebb 1cec 663d db77 27bc 6fd5 2139
00000160: c4d4 3abd da47 d23c 2f90 1ebd 1df9 123d
00000170: 7e0e 0abd b8fe 423c 7177 7a3d b0c9 f3bc
00000180: a95b 423c 7656 7b3d 8861 61bd 24eb 0ebc
00000190: 0912 923c bd30 5c3b bdb8 a43b acd1 23bd
000001a0: 68f5 263d ab3b b3bb cd26 a93c da34 16bd
000001b0: 364f 8f3c 813e 18bd 0e6f 32bc d714 57bc
000001c0: 50f6 123d b82b 3a3d 0a1e 09bd e41f f1bb
000001d0: 543d 99bc 7190 b73c 230d 94bc c092 bbbb
000001e0: ae76 083b 968e 383c 7e5f 4bbd 74a9 01bd
000001f0: d993 403c 839a 383d 08e7 6a3d 2fde 603d
00000200: 4de7 efbc de7d 453b 9b1a 70bb 0b3b 8dbc
00000210: 8393 a13c 4719 693b 5a10 da3c b332 613d
00000220: 0369 d4bb d368 00bd 57f1 26bb 1355 8abd
00000230: 99c4 88bc 755f 22bd 2099 acbc e543 4b3b
00000240: a18e 1abd b44e fbba be3c 6ebd 1a84 26bd
00000250: 5e92 8abc a175 4e3c c58f dd3c 2f5f b2ba
00000260: a6e5 dfbc 08d7 b53c dc83 d0bc 33fc d2bc
00000270: e38b 01bd 84e0 b53c b420 88bd e97b 90bb
00000280: 2358 223d 596d 0a3d e14f c63b 2642 15bd
00000290: 1cc1 b9bb a097 1dbd c415 13bd d370 a8bc
000002a0: 51eb a33c 461e 0abc 60ec 10bd 8c1e a4ba
000002b0: f5f6 3b3c 21e2 13bd 10d5 e23b 6a0d 35bd
000002c0: bac3 95bc f208 753c 7049 9fbb da83 f7bc
000002d0: 548a 06bc a3e5 043d 8648 a8bd f3a2 8d3c
000002e0: a997 cfbc dc26 c93c 60f0 8ebc 5d37 58bc
000002f0: 9c5e 743d 41c1 61bc a49b 8c3d b7eb 06bd
00000300: 4470 173d ff3f 303d d834 613c 862e 35bd
00000310: 664d 3dbd 1bf9 773d 1632 ce3b cfb1 d1bc
00000320: 740f 833d 33d5 593c 01a9 8cbc d076 bd3a
00000330: db8a c4bb 0fbe 44bd a2e8 1b3c fbb4 9f3d
00000340: d849 bd3c 91e3 113d 3333 bcbc 43e4 27bc
00000350: b4c1 65bd 6b10 a8bb ded4 2e3d 5c68 8fbc
00000360: 3a1e d33c 7c06 5d3d cb29 5e39 30cf e13b
00000370: 3c82 253d 2b55 1c3d 4689 6e3a e921 20bd
00000380: b0a8 743d fc7a 4cbc 6a62 11bd 6d90 b9bb
00000390: 9121 81bc 29b3 603d e71d efbc 7e66 2f3d
000003a0: 65f5 9eba 63be c0bc f3e5 81b9 7d52 9e3d
000003b0: 3acc a7bc 1d04 8cbc aaa7 233c 79d3 27bc
000003c0: 5129 3c3d a1cb 9abc 16d1 8c3b acf0 833d
000003d0: fb93 35bc efd2 05bd e252 103d acc0 0bbc
000003e0: 2f82 f9bb 96cf 413d 759e 21bc ee89 2a3b
000003f0: c199 c3bc 60c0 50bd b423 933b e896 693c

net.layers.4.bias f4 [2]
0.018365413 0.0073514045
00000000: 1073 963c 0de4 f03b

exp_avg f4 [164, 2]
-0.0013997401 -0.00092984387 -0.000973386 -0.0003263859 0.0008080427 -0.0001861627 -0.00019460148 0.0012555213
-0.0013677039 0.0011326761 -0.0006421781 -0.002643991 0.0005932208 -0.0015781645 -0.00065921736 0.00016618098
-0.0005951963 -0.00070243416 0.00023414328 -0.00044011645 0.0003419788 0.0013041181 0.0047747237 -0.0015380406
0.00072453025 0.0008656402 -0.0012509478 -0.00076527573 0.0067882524 0.0044963257 -0.00086665177 -0.00097482424
0.0021663227 0.002040192 -0.00095487153 -0.0010230539 -0.00075858424 0.0037504062 -0.001097159 0.0003739391
-0.0007957694 -0.0032102873 0.00040167457 -0.0005014792 -0.0029784434 -0.0011683279 -0.004682266 -0.0029050931
-0.0004998705 0.0013268123 6.909092e-05 -0.0008987609 -0.0011029709 0.00072808703 -0.00095868757 -0.0010751558
0.0013304353 0.0031169155 0.0003499877 0.0012051731 -0.00032011955 0.0007644713 0.0013967061 -0.0005393242
0.0006466091 -0.0017141015 -0.00017761366 0.0004721965 0.005218992 0.0022121384 -0.0014332277 0.0014938
0.00089625776 0.0009962767 7.3128904e-06 0.00057201384 0.0013733597 -0.00070206285 0.0007460398 0.0015406774
0.0015475533 0.0009823565 0.00090155797 0.00056937005 -0.004070714 -0.0023143871 0.0053276615 0.0021794306
-0.00132492 -0.0010472601 0.0011210731 5.2661228e-05 0.00060284685 -0.0038380749 -0.0005618289 -0.0011574248
1.9571977e-05 -0.0016615961 0.0016502611 0.0007523267 0.00023550206 0.00043858544 -0.0009802682 -0.00073956244
-0.00013258775 0.0012599046 0.0013526408 0.00023723341 -0.00068487716 4.7425274e-06 -0.00067426614 0.0008756132
0.0046127676 -0.00096608617 -0.0008284154 0.0005441129 0.0007678927 0.00018341362 -0.000695111 -4.060357e-05
0.0011972457 0.0012322131 -4.6631903e-06 -0.00020389838 0.0006827614 0.0008636646 0.0019382017 0.0019278359
0.0004978214 -6.553088e-05 -0.0011380675 -0.00011706678 -0.00046439003 -0.0006089824 -0.0013793837 0.00012125334
-0.0006681851 0.001278531 0.000476657 -0.0010364208 0.001577401 -7.0862996e-05 0.00056366215 0.0008141141
0.0007701642 0.0001662625 0.0055471403 0.0026664976 -0.0017065185 -0.0018837462 -0.00010919012 0.0021268977
0.0022176662 -0.00053427287 0.0018163628 -0.000731993 -0.0017022009 -0.0016308668 -0.0013272302 -0.0022214756
-4.600291e-05 0.0006478876 0.0014789852 0.0016660034 0.00081487314 -0.0018146122 -0.0012247948 -0.00074388436
-0.00010747975 -0.0012828885 0.00051761343 0.00028593256 0.0018459861 -0.00092454185 0.002269187 0.0010061524
-0.00063108467 -0.00059146236 -0.00024729047 0.00038626246 -0.00052903255 -0.0012843541 0.0025390827 0.0014087821
0.0005125849 0.00084729004 0.00020459178 -0.00027479697 0.0017927192 -0.0037715514 -0.0010256127 0.0006275147
0.0025006244 -0.0020141592 -0.005843083 -0.00013497972 0.002312764 0.0021893955 0.0011152755 0.0013245445
0.0024062751 -0.0016143196 0.0012935093 0.00088595715 -0.009005869 -0.00026520528 0.00039498165 0.0005059718
-0.00036213442 0.0007605772 -0.0029955925 -0.00063054776 -0.0046339566 -0.0005106989 0.0010610323 -0.00012616954
0.0011285748 0.0019842682 0.0015958017 0.0024867556 -0.00019819953 0.0004182154 0.0011916321 0.0009466208
-0.0017913993 0.001772911 0.00128158 0.0009630297 -0.00015994371 -0.0001830048 0.001569046 0.002077688
0.00023758807 -0.0015007545 0.0011169112 -0.0012504291 -4.143128e-05 0.0010404881 0.00021733693 -0.00020605675
0.0017186971 0.00015679467 0.0012783895 0.0003293965 0.0007629255 0.0015582034 0.005179193 0.00078684324
-0.0011917118 -0.0012042214 0.0005354152 -0.0011104614 -0.0002878693 -0.00058897445 -6.242539e-05 -0.0019837432
00000000: 7c77 b7ba c4c0 73ba d42a 7fba c61e abb9
00000010: d4d2 533a ab34 43b9 f00d 4cb9 4e90 a43a
00000020: 8744 b3ba 4e76 943a d857 28ba cf46 2dbb
00000030: 6082 1b3a 6ada ceba 54cf 2cba de40 2e39
00000040: f306 1cba 8f23 38ba 5c84 7539 6ebf e6b9
00000050: 9e4b b339 f1ee aa3a 4975 9c3b 1498 c9ba
00000060: 67ee 3d3a 21ec 623a d8f6 a3ba c99c 48ba
00000070: fd6f de3b ea55 933b 0430 63ba 598b 7fba
00000080: ddf8 0d3b beb4 053b 5850 7aba fe17 86ba
00000090: badb 46ba 60c9 753b 8cce 8fba 420d c439
000000a0: 2e9b 50ba af63 52bb d997 d239 b375 03ba
000000b0: fd31 43bb 9422 99ba b26d 99bb 6063 3ebb
000000c0: be09 03ba 6fe8 ad3a e8e4 9038 d39a 6bba
000000d0: 9091 90ba 18dd 3e3a 6f50 7bba 3eec 8cba
000000e0: 0062 ae3a 2a45 4c3b 8e7e b739 e6f6 9d3a
000000f0: b8d5 a7b9 cd66 483a ae11 b73a 6f61 0dba
00000100: 3481 293a b4ab e0ba ce3d 3ab9 2491 f739
00000110: 1404 ab3b 86f9 103b 24db bbba 9ccb c33a
00000120: d7f2 6a3a 8095 823a 4061 f536 33f3 153a
00000130: 4e02 b43a a40a 38ba e291 433a 8ef0 c93a
00000140: 46d7 ca3a 6ac2 803a 8856 6c3a c741 153a
00000150: a063 85bb f9ac 17bb aa93 ae3b c7d4 0e3b
00000160: f0a8 adba 3844 89ba f9f0 923a 90e0 5c38
00000170: 5e08 1e3a 3688 7bbb b347 13ba bbb4 97ba
00000180: 802e a437 eac9 d9ba 934d d83a ca37 453a
00000190: 1af1 7639 f1f1 e539 587c 80ba 32df 41ba
000001a0: 4107 0bb9 6223 a53a 184b b13a dcc1 7839
000001b0: 5489 33ba 0022 9f36 3cc1 30ba 6889 653a
000001c0: b326 973b f240 7dba 042a 59ba cca2 0e3a
000001d0: 684c 493a b852 4039 1c38 36ba c04d 2ab8
000001e0: e6ec 9c3a 3682 a13a 8078 9cb6 8ecd 55b9
000001f0: 58fb 323a 8d67 623a 420b fe3a 70af fc3a
00000200: 3b80 023a a06d 89b8 352b 95ba c081 f5b8
00000210: 6079 f3b9 1ea4 1fba 70cc b4ba 6449 fe38
00000220: 2529 2fba 6294 a73a d2e7 f939 83d8 87ba
00000230: cbc0 ce3a 489c 94b8 bac2 133a 466a 553a
00000240: d8e4 493a c056 2e39 c9c4 b53b 68c0 2e3b
00000250: 42ad dfba 09e8 f6ba 00fd e4b8 6c63 0b3b
00000260: 4456 113b 720e 0cba 0613 ee3a 38e3 3fba
00000270: 621c dfba cfc2 d5ba 75f6 adba 2d96 11bb
00000280: 40f3 40b8 00d7 293a 82da c13a cc5d da3a
00000290: 369d 553a 48d8 edba 4b89 a0ba 3c01 43ba
000002a0: c066 e1b8 9826 a8ba 73b0 073a 38e9 9539
000002b0: 04f5 f13a f45c 72ba a4b6 143b dfe0 833a
000002c0: 606f 25ba 5e0c 1bba c4a6 81b9 4583 ca39
000002d0: c6ae 0aba c657 a8ba bd66 263b e2a6 b83a
000002e0: fe5e 063a ac1c 5e3a b087 5639 a012 90b9
000002f0: adf9 ea3a 222c 77bb da6d 86ba cc7f 243a
00000300: 84e1 233b fcff 03bb 5577 bfbb 5889 0db9
00000310: be91 173b f67b 0f3b 702e 923a 579c ad3a
00000320: 99b2 1d3b 9497 d3ba f88a a93a 943f 683a
00000330: 5a8d 13bc 400b 8bb9 8a15 cf39 31a3 043a
00000340: dcdc bdb9 7961 473a b451 44bb 584b 25ba
00000350: 72d8 97bb 6ce0 05ba 5612 8b3a 614c 04b9
00000360: b0ec 933a 7f0a 023b 382a d13a d6f8 223b
00000370: c8d3 4fb9 ec43 db39 8a30 9c3a a626 783a
00000380: 63cd eaba 0661 e83a b0fa a73a d473 7c3a
00000390: 90b6 27b9 fae4 3fb9 73a8 cd3a d229 083b
000003a0: 1021 7939 f7b4 c4ba 5265 923a 70e5 a3ba
000003b0: 80c6 2db8 fd60 883a f0e4 6339 f010 58b9
000003c0: e845 e13a 4069 2439 a28f a73a dab2 ac39
000003d0: 10ff 473a a13c cc3a 38b6 a93b 2844 4e3a
000003e0: 3633 9cba f7d6 9dba 1b5b 0c3a e78c 91ba
000003f0: 2aed 96b9 6865 1aba 60ea 82b8 b001 02bb

exp_avg_sq f4 [164, 2]
0.0012378853 0.0058356943 0.0027786677 0.000458751 0.00097434595 0.00140438 0.002592064 0.0036877857
0.0015612721 0.0039510136 0.0042024544 0.0034134402 0.00026050402 0.0009991113 0.00038276968 0.00039599193
0.0016082051 0.0013397431 0.0019199002 0.0034385363 0.00088065007 0.0010370594 0.0013376361 0.002177287
0.0001859103 0.0016323206 0.0047139637 0.0019780062 0.007967921 0.012482986 0.00072145776 0.0015252279
0.0025545664 0.0054151854 0.004842303 0.005140652 0.002828351 0.001274856 0.0002922435 0.001544268
0.00059840514 0.0022880358 0.00092022016 0.0011745583 0.0033451647 0.0016075934 0.0077555752 0.0066773016
0.0019751505 0.0008271189 0.00087251863 0.00062695297 0.0014687087 0.0011135017 0.0006281575 0.0018752634
0.0027830515 0.016824031 0.00093244575 0.0011227933 0.0006579146 0.0025104824 0.0023371018 0.005870944
0.00041723144 0.0011172316 0.0009869762 0.0012576204 0.0036066081 0.006521955 0.0010979463 0.0014199973
0.0013346164 0.0043015685 0.0003515786 0.0017139892 0.00092771865 0.0048566023 0.00060162664 0.0009937045
0.0006838486 0.00297615 0.0024171239 0.0008269633 0.004855401 0.0064051365 0.0069659436 0.008726384
0.00018095956 0.00073744275 0.0023626648 0.00091094145 0.0038999866 0.006244632 0.0030210344 0.0009137794
0.0025088321 0.0037686334 0.00093862327 0.004912693 0.0012793331 0.0026418373 0.002291815 0.0037232873
0.0011300204 0.005824008 0.0019277036 0.0025023944 0.004485687 0.005776205 0.002621722 0.0023417133
0.00116621 0.0019631584 0.00063701044 0.0004974402 0.0035338702 0.0018128317 0.00041134752 0.001955404
0.00018424015 0.0005501877 0.0006454001 0.00375966 0.00025307992 0.00028442987 0.0010443528 0.0032887538
0.00065203855 0.0011520799 0.0010966277 0.006281028 0.00021984758 0.00089190825 0.0017145883 0.0070144134
0.002254888 0.0013681524 0.0012190475 0.0010303181 0.0021620574 0.0010456966 0.0010190747 0.0030926003
0.00028943314 0.0006308476 0.0034274308 0.00571387 0.0026354382 0.0045846365 0.002792972 0.00210825
0.0006649995 0.0032527556 0.001556614 0.007021565 0.0024894867 0.011407529 0.0022952626 0.0035876834
0.0023600035 0.0057689305 0.005865441 0.0046637994 0.0015258391 0.0020157425 0.0006970175 0.0055272607
0.001953373 0.004158362 0.0053022653 0.0057755397 0.0010494124 0.0027347174 0.0013808149 0.004410291
0.0008016367 0.0005048185 0.0033266158 0.0018075028 0.0015424307 0.0011057403 0.0024415758 0.001485153
0.00061518967 0.0010721593 0.0001641322 0.000890723 0.0028613529 0.0035768445 0.0008089491 0.001014003
0.0016265722 0.0033497224 0.0022748576 0.0055632186 0.0033976794 0.0019649114 0.00047740896 0.00045922634
0.0004114521 0.00067638804 0.00072577316 0.0032777016 0.012277443 0.016539432 0.00094943034 0.0029377015
0.004048657 0.004919629 0.0027372465 0.0021682992 0.0037124327 0.020090085 0.0011436765 0.0019273554
0.0029937932 0.0015709276 0.004617389 0.0036112887 0.0021588092 0.0024241752 0.0027270974 0.0018136255
0.007026739 0.0025129842 0.0013076686 0.00051302346 0.0017735184 0.0029349292 0.002522885 0.00045512224
0.00077621796 0.00020384665 0.00032740523 0.0005386585 0.006637456 0.0038813467 0.0005470745 0.00489387
0.00061956496 0.0028242124 0.0003325094 0.00044843554 0.004096746 0.0052612433 0.007379756 0.0012086396
0.0005563237 0.0024170883 7.5046715e-05 0.0008934996 0.00206691 0.0019085435 0.0012628094 0.0038014937
00000000: 8a40 a23a 5a39 bf3b 4f1a 363b 8484 f039
00000010: 406b 7f3a 2c13 b83a 9edf 293b c7ae 713b
00000020: 99a3 cc3a 8177 813b beb4 893b 06b4 5f3b
00000030: 4294 8839 9df4 823a 7aae c839 239d cf39
00000040: 69ca d23a 529a af3a 29a5 fb3a 1159 613b
00000050: 6ddb 663a f0ed 873a 9f53 af3a d0b0 0e3b
00000060: ebf0 4239 97f3 d53a 9877 9a3b 70a1 013b
00000070: e28b 023c 7085 4c3c 3620 3d3a 28ea c73a
00000080: 836a 273b de71 b13b 2fac 9e3b ea72 a83b
00000090: db5b 393b 1219 a73a 4238 9939 0969 ca3a
000000a0: 4ade 1c3a dff2 153b ee3a 713a a3f3 993a
000000b0: 8d3a 5b3b e2b5 d23a 7b22 fe3b 44cd da3b
000000c0: 8771 013b 03d3 583a bcb9 643a 1a5a 243a
000000d0: b081 c03a ebf2 913a f0aa 243a 66cb f53a
000000e0: db63 363b 8dd2 893c 606f 743a b12a 933a
000000f0: e777 2c3a e886 243b 102a 193b 0c61 c03b
00000100: dbbf da39 1270 923a 6d5d 813a bdd6 a43a
00000110: d85c 6c3b 20b6 d53b f7e8 8f3a 341f ba3a
00000120: 4cee ae3a 2cf4 8c3b 1554 b839 efa7 e03a
00000130: 2532 733a 2224 9f3b 7bb6 1d3a 313f 823a
00000140: 4d44 333a 830b 433b 9c68 1e3b 91c8 583a
00000150: 0e1a 9f3b 2ee2 d13b 9242 e43b 1bf9 0e3c
00000160: f6bf 3d39 f250 413a f0d6 1a3b 3fcc 6e3a
00000170: eb96 7f3b c59f cc3b 8cfc 453b b38a 6f3a
00000180: 386b 243b 2dfb 763b f10d 763a a8fa a03b
00000190: 4caf a73a ad22 2d3b 4632 163b 6502 743b
000001a0: 311d 943a 52d7 be3b 00ab fc3a 36ff 233b
000001b0: abfc 923b 5246 bd3b 32d1 2b3b 6e77 193b
000001c0: 84db 983a 55a8 003b 0cfd 263a a666 023a
000001d0: 8198 673b 8a9c ed3a 21aa d739 3c26 003b
000001e0: 9730 4139 793a 103a 1130 293a a164 763b
000001f0: d0af 8439 881f 9539 aae2 883a 2288 573b
00000200: 91ed 2a3a 6301 973a b8bc 8f3a 15d1 cd3b
00000210: e386 6639 f3ce 693a 09bc e03a 2ad9 e53b
00000220: bec6 133b 9453 b33a 72c8 9f3a bd0b 873a
00000230: 4eb1 0d3b c10f 893a 7992 853a 39ad 4a3b
00000240: 0fbf 9739 775f 253a bf9e 603b 6a3b bb3b
00000250: 51b7 2c3b b83a 963b 4b0a 373b 912a 0a3b
00000260: 5c53 2e3a 2f2c 553b 4c07 cc3a 2815 e63b
00000270: a826 233b a5e6 3a3c 1e6c 163b 571f 6b3b
00000280: 4aaa 1a3b 4c09 bd3b e332 c03b c9d2 983b
00000290: aafe c73a 8c1a 043b 0db8 363a 061e b53b
000002a0: 2904 003b de42 883b a0be ad3b bd40 bd3b
000002b0: 708c 893a f238 333b 76fc b43a 3484 903b
000002c0: ee24 523a cc55 043a 5a03 5a3b bbe9 ec3a
000002d0: 632b ca3a 7dee 903a d802 203b 77a9 c23a
000002e0: ae44 213a b287 8c3a e71a 2c39 697f 693a
000002f0: 8985 3b3b 7e69 6a3b a80f 543a 4be8 843a
00000300: b532 d53a 0487 5b3b c715 153b a94b b63b
00000310: 9aab 5e3b bec5 003b bf4c fa39 51c4 f039
00000320: 2bb8 d739 a24f 313a d041 3e3a b5ce 563b
00000330: 5427 493c b47d 873c 31e3 783a 7486 403b
00000340: 99aa 843b d734 a13b 6063 333b 061a 0e3b
00000350: 494c 733b f693 a43c 6ae7 953a 519f fc3a
00000360: 8433 443b 95e7 cd3a 774d 973b 5fab 6c3b
00000370: cf7a 0d3b e9de 1e3b 1ab9 323b 2cb7 ed3a
00000380: 8f40 e63b e1b0 243b 1466 ab3a 6c7c 063a
00000390: 6775 e83a f157 403b fd56 253b 799d ee39
000003a0: 1b7b 4b3a abbf 5539 96a7 ab39 c334 0d3a
000003b0: 047f d93b 315e 7e3b 8c69 0f3a c25c a03b
000003c0: 4d6a 223a 6c16 393b a854 ae39 001c eb39
000003d0: ff3d 863b 8266 ac3b e1d1 f13b 376b 9e3a
000003e0: 40d6 113a 0368 1e3b 6662 9d38 be39 6a3a
000003f0: ff74 073b 1828 fa3a da84 a53a 7b22 793b

exp_avg f4 [164]
-5.3452386e-05 -0.00019443348 -8.2298735e-05 4.8973154e-05 5.4965985e-05 8.8720066e-05 0.00021884401 7.5375996e-05
0.00011197776 -0.000102140344 -0.00014953427 0.00031473624 -3.8545822e-06 0.0001374689 0.0006633821 0.00014329646
8.763549e-05 2.781846e-05 2.1352935e-05 -3.237286e-05 -0.00010054695 6.432949e-05 -0.00023885324 -0.00010372039
-1.6351405e-05 -0.00015049145 5.921466e-05 -1.32009445e-05 0.00017364166 2.0518852e-05 -6.7054345e-05 0.00010042127
0.0003621738 0.00015958882 0.00020486876 -9.584206e-05 -4.7535585e-05 -6.636582e-05 -1.470727e-05 1.9294675e-05
-0.00020504935 0.0001260857 -0.00031411793 0.00034609053 -5.3583244e-06 0.00012963018 0.0002711677 0.0001113007
7.09561e-05 4.6705878e-05 -9.018142e-05 0.0002026418 -0.00023206536 -4.090938e-06 -2.6347516e-05 0.0001829142
0.00024042686 2.0225556e-05 3.865677e-05 7.985361e-05 -2.7728136e-05 -1.0146545e-05 6.957765e-05 1.3557408e-05
1.5736343e-05 3.844313e-05 -4.665911e-05 -4.400673e-05 0.00015379039 -8.6307235e-05 0.00020420775 4.186199e-05
-0.00011945263 0.00046212156 -7.28524e-05 -3.5944773e-05 8.502208e-05 0.00010112166 -0.00013307552 0.00020233452
6.6142326e-05 -0.00022970463 0.00013535704 0.0003093329 0.00022058075 0.00021356945 0.00018714054 -0.00013319305
2.8636576e-05 -3.548499e-06 -8.591744e-05 0.00025448902 8.590127e-05 8.9456325e-06 0.000229518 -3.6427104e-05
0.00051077676 -7.707087e-05 0.00024872506 -0.00025038735 0.00010042352 5.7264828e-05 -0.00049940095 7.699363e-05
-3.7036345e-05 -5.3105396e-05 -0.0003129677 -8.254486e-05 -0.00024170626 -0.00020393763 0.00017394486 -4.8498914e-06
-0.0003595343 8.004546e-05 4.134181e-05 3.6849873e-05 8.840209e-06 -6.8917514e-05 9.107808e-05 3.1048578e-05
-0.00025361756 -6.6900946e-05 -1.2400094e-05 0.000506099 0.00018848597 6.71306e-05 3.6000656e-05 0.00025716308
-6.318865e-05 -1.7674296e-05 -0.00015764101 0.00019027403 -1.0931901e-05 7.234047e-05 -0.00026368749 -0.00022810602
-8.0723585e-06 -0.00013829538 -0.00018356598 -0.00017185627 -1.1458236e-05 -3.517256e-05 3.2232292e-05 -5.126829e-06
2.7410366e-05 -0.00018697431 -0.00047948293 -9.7023556e-05 0.00012168582 0.000113971364 -5.312355e-05 -2.5836096e-05
-0.00012467359 0.00010831355 3.0436662e-05 0.00020177646 -0.00025535037 7.7349825e-05 0.00016187111 4.7720305e-06
-0.0001265441 -0.00039097853 8.503089e-06 -0.00023336851
00000000: 1032 60b8 d7e0 4bb9 cc97 acb8 8668 4d38
00000010: 478b 6638 390f ba38 7e79 6539 2e13 9e38
00000020: 9ad5 ea38 2e34 d6b8 4dcc 1cb9 2f03 a539
00000030: 9c56 81b6 8725 1039 d2e6 2d3a da41 1639
00000040: f2c8 b738 b05b e937 141f b337 18c8 07b8
00000050: bcdc d2b8 a2e8 8638 ae74 7ab9 7684 d9b8
00000060: 602a 89b7 3ecd 1db9 425d 7838 a079 5db7
00000070: 9413 3639 e61f ac37 879f 8cb8 4299 d238
00000080: 25e2 bd39 4c57 2739 0ad2 5639 d0fe c8b8
00000090: f260 47b8 e12d 8bb8 3ebf 76b7 00db a137
000000a0: 8402 57b9 df35 0439 32b0 a4b9 7c73 b539
000000b0: a8cb b3b6 56ed 0739 832b 8e39 1c6a e938
000000c0: 44ce 9438 0ee6 4338 c81f bdb8 3e7c 5439
000000d0: 9256 73b9 e444 89b6 dc04 ddb7 a8cc 3f39
000000e0: 181b 7c39 0daa a937 6423 2238 1577 a738
000000f0: b899 e8b7 143b 2ab7 37ea 9138 a074 6337
00000100: 8a01 8437 ff3d 2138 d6b3 43b8 de93 38b8
00000110: cb42 2139 d8ff b4b8 9a20 5639 f894 2f38
00000120: a482 fab8 e848 f239 56c8 98b8 68c3 16b8
00000130: e24d b238 4711 d438 308a 0bb9 c229 5439
00000140: e4b5 8a38 dedc 70b9 a1ee 0d39 f62d a239
00000150: b24b 6739 9df1 5f39 283b 4439 bda9 0bb9
00000160: 9438 f037 c022 6eb6 932e b4b8 f06c 8539
00000170: e525 b438 3315 1637 c5aa 7039 4ec9 18b8
00000180: a6e5 053a 1ca1 a1b8 5067 8239 6c46 83b9
00000190: 779a d238 a42f 7038 3bea 02ba a477 a138
000001a0: 7957 1bb8 7cbd 5eb8 d015 a4b9 ef1b adb8
000001b0: 8872 7db9 17d8 55b9 f864 3639 40bc a2b6
000001c0: e07f bcb9 14de a738 6e66 2d38 408f 1a38
000001d0: 6950 1437 cf87 90b8 2c01 bf38 283a 0238
000001e0: f9f7 84b9 2c4d 8cb8 000a 50b7 bbab 043a
000001f0: 51a4 4539 77c8 8c38 69ff 1638 d8d3 8639
00000200: 2684 84b8 4343 94b7 704c 25b9 4c84 4739
00000210: 2868 37b7 7eb5 9738 893f 8ab9 be2f 6fb9
00000220: 846e 07b7 6203 11b9 9e7b 40b9 5134 34b9
00000230: c03c 40b7 4086 13b8 2931 0738 2007 acb6
00000240: 50ef e537 890e 44b9 1c63 fbb9 2079 cbb8
00000250: 9431 ff38 e903 ef38 fad0 5eb8 98ba d8b7
00000260: d0ba 02b9 6526 e338 3c52 ff37 f593 5339
00000270: 8ce0 85b9 df36 a238 f2bb 2939 6e1f a036
00000280: ecb0 04b9 40fc ccb9 7da8 0e37 62b4 74b9

exp_avg_sq f4 [164]
2.1683849e-05 9.426025e-06 7.421006e-06 2.0522228e-05 2.4137671e-05 3.0291809e-05 4.24148e-06 2.7947183e-06
1.0835711e-05 1.6596865e-05 9.380447e-06 1.3475845e-05 5.9957965e-06 2.8652375e-05 7.4398675e-05 8.889817e-06
2.8571445e-05 3.875602e-05 9.357153e-06 7.235192e-06 1.1612085e-05 7.707078e-06 1.4441246e-05 3.7693873e-05
1.0841069e-05 5.0476187e-06 1.1609765e-05 8.879511e-06 7.2263894e-05 7.0386977e-06 1.1326596e-05 3.121137e-05
6.213912e-06 9.327035e-06 2.7625045e-05 8.572015e-06 1.9628202e-05 4.004958e-06 1.7522045e-05 5.37062e-06
1.5781641e-05 1.0706183e-05 3.0886236e-05 4.1719926e-05 2.8447314e-06 9.23494e-06 3.2832242e-05 1.4547229e-05
2.5817775e-05 2.262187e-05 1.5088448e-05 2.0129813e-05 3.0654093e-05 1.8016017e-05 3.2068932e-05 2.0218089e-05
1.1106497e-05 4.696906e-06 2.2124237e-05 9.103236e-06 2.0783698e-06 1.6128994e-05 1.4299223e-06 1.5434818e-05
4.056888e-06 2.6934518e-05 3.3671502e-06 3.2298198e-05 1.1234984e-05 6.310384e-06 1.3769632e-05 1.49174475e-05
2.1231665e-06 2.9506067e-05 2.648946e-05 1.483314e-05 1.5007347e-05 3.1916305e-05 5.3421183e-05 2.2905468e-05
3.0411793e-05 4.0441337e-05 1.0481837e-05 2.1685604e-05 2.2566663e-05 4.2285963e-05 1.5445365e-05 2.090369e-05
4.6159453e-06 1.8069184e-05 1.0918509e-05 1.1772261e-05 6.953053e-06 3.4911718e-06 1.7839098e-05 6.3462785e-06
1.698822e-05 2.850234e-05 1.5852625e-05 3.6856998e-06 3.337579e-06 1.378368e-05 8.732391e-05 1.3332089e-05
3.1992317e-05 1.691565e-05 9.3192386e-05 1.23658865e-05 1.970593e-05 3.1518754e-05 1.677447e-05 1.330446e-05
3.2420925e-05 7.062182e-06 1.9402529e-05 8.667842e-06 3.8818143e-06 2.227731e-06 4.1875956e-05 1.9609713e-05
3.059964e-05 2.4868025e-06 3.0087043e-05 2.952077e-05 1.0560746e-05 2.889094e-06 1.3601209e-05 1.642119e-05
1.6061125e-05 1.3109162e-05 5.5411715e-06 1.2348095e-05 1.2021532e-05 2.6985146e-05 4.476166e-06 4.9354425e-05
1.304688e-05 4.453678e-05 7.79151e-06 4.6641303e-06 1.8892888e-05 2.5161973e-05 1.0816746e-05 4.6393993e-06
5.9557847e-06 8.740291e-06 1.52349685e-05 3.9095692e-05 6.600964e-06 1.0514938e-05 1.749836e-05 1.4718661e-05
2.5303983e-05 7.6030934e-05 3.8240723e-06 6.096692e-06 3.7175457e-06 6.615113e-06 5.146195e-06 4.7660837e-06
4.163486e-06 2.3453105e-05 6.194032e-06 1.3391515e-05
00000000: b6e5 b537 7824 1e37 f501 f936 2627 ac37
00000010: 417b ca37 2a1b fe37 0952 8e36 e58c 3b36
00000020: 06cb 3537 7f39 8b37 b760 1d37 5016 6237
00000030: 802f c936 825a f037 7c06 9c38 7925 1537
00000040: b6ac ef37 f68d 2238 abfc 1c37 d3c5 f236
00000050: 86d1 4237 a64d 0137 ae48 7237 7d19 1e38
00000060: 09e2 3537 b75e a936 90c7 4237 36f9 1437
00000070: 628c 9738 f42d ec36 5c07 3e37 f4e8 0238
00000080: 1981 d036 4f7b 1c37 55bc e737 86d0 0f37
00000090: 3ea7 a437 5462 8636 4efc 9237 4635 b436
000000a0: d162 8437 b59e 3337 d88b 0138 6efc 2e38
000000b0: 1de8 3e36 c4ef 1a37 5ab5 0938 df0f 7437
000000c0: 4093 d837 19c4 bd37 6424 7d37 72dc a837
000000d0: 9592 0038 1a21 9737 c181 0638 049a a937
000000e0: 0b56 3a37 1e9a 9d36 7097 b937 1aba 1837
000000f0: 1f7a 0b36 c04c 8737 c2eb bf35 057a 8137
00000100: 6720 8836 70f1 e137 33f7 6136 ed77 0738
00000110: e47d 3c37 c9bd d336 1e04 6737 f345 7a37
00000120: b97b 0e36 cc83 f737 af35 de37 dadb 7837
00000130: 11c8 7b37 dfdd 0538 8f10 6038 1e25 c037
00000140: d41c ff37 8e9f 2938 26db 2f37 7be9 b537
00000150: 8a4d bd37 355c 3138 ab90 8137 555a af37
00000160: abe2 9a36 4793 9737 a42e 3737 7a81 4537
00000170: 454e e936 e049 6a36 2ca5 9537 1ef2 d436
00000180: ed81 8e37 4f18 ef37 41fb 8437 d757 7736
00000190: 2cfb 5f36 7440 6737 ab21 b738 e3ac 5f37
000001a0: 7d2f 0638 15e6 8d37 4870 c338 1477 4f37
000001b0: 2a4e a537 0133 0438 e6b6 8c37 3836 5f37
000001c0: b4fb 0738 aef7 ec36 9dc2 a237 196c 1137
000001d0: 8840 8236 2180 1536 f7a3 2f38 8a7f a437
000001e0: 1d58 0038 f1e2 2636 6f63 fc37 5fa3 f737
000001f0: 0f2e 3137 42e2 4136 bf30 6437 3dc0 8937
00000200: 01bb 8637 6cef 5b37 4dee b936 aa2a 4f37
00000210: 16b0 4937 295e e237 f931 9636 e901 4f38
00000220: ece3 5a37 01cd 3a38 48b8 0237 9380 9c36
00000230: 2b7c 9e37 ed12 d337 9279 3537 23ac 9b36
00000240: cdd7 c736 44a3 1237 b199 7f37 aefa 2338
00000250: d97d dd36 5169 3037 71c9 9237 2bf0 7637
00000260: e443 d437 cc72 9f38 8850 8036 2f92 cc36
00000270: f37a 7936 63f7 dd36 7aad ac36 59ec 9f36
00000280: 13b4 8b36 29bd c437 54d6 cf36 1eac 6037
