docs/smld/lightning_logs/version_114/checkpoints/epoch=49-step=4900.ckpt (torch, 407771 bytes, 30 tensors)

model.embedding.0.weight f4 [128, 1]
00000000: e861 4e3f bd5d 60be 9ba4 db3e 6e48 27bf
00000010: ccd2 23bf 1099 b3bd 75ff 00be f199 82be
00000020: 38c3 453f da05 06bf 9982 21be 7dce 133f
00000030: 07ef 09be 5ea7 373e e0c5 1fbf ccdb 99be
00000040: ee9e 4ebf 0bc5 f73e 923f 8d3e 35b9 febe
00000050: d7fb ebbe 6e52 643f b9f5 cdbd 74e7 a6be
00000060: 9190 60bd 4444 053f c30b bbbe 1794 f73e
00000070: acab 5c3e 68f7 24be bc65 f3be 0ce5 b8be
00000080: 5698 33bf cb8b 1d3f 8edc 7fbf c2ee 21be
00000090: dbb2 0d3f c007 33bf 68cf 5abf bf94 c6be
000000a0: 5a10 57bf 6259 1bbf 9fe6 503f d04b 0ebf
000000b0: 12f8 053f 0dea 583f 02b2 80be e6b2 2ebd
000000c0: d422 b0bd 73b4 41bd d972 bebc af45 273f
000000d0: fddd a23d 1cc3 123f 2c47 82be 941f 053f
000000e0: fd50 953e 684c 2dbd c6a9 483e d08b 88be
000000f0: df91 d8be c083 463d e098 46bd 444a 393f
00000100: f40b 023f 8522 b5bd 8b71 c93e ba50 6fbf
00000110: b2d9 22bf dfec da3e 072f 213e 4872 3d3f
00000120: e9e7 1d3f 4907 0ebf 543e a23d efe5 b13e
00000130: 97c2 073f aa9d 4cbe 7e34 f6be 26ff 22bf
00000140: 8ce9 193e b72d 993e a83b 53bf 4b18 173f
00000150: 400f 2ebe 473c a7be 6136 723f c9de fe3e
00000160: fc0c bfbe 29f5 5bbe 75f0 353f 1e34 063f
00000170: a8a1 4cbe baf4 5a3c 26df 393f d82b 3bbe
00000180: dcfe 15bf a800 6c3f 05bd f03e 68d9 84bd
00000190: 97da 673f 3213 55bf dee7 e73e 03f9 253f
000001a0: d17e 4c3f 8147 353d 49eb d3ba 4025 bd3c
000001b0: 066d 093e c872 3bbf 00d3 a7be 1c82 2ebf
000001c0: 10b3 1f3f 069a 5ebf c7a0 debd 0e98 6cbf
000001d0: 80da 673f 0d5d 963e 51d0 78bf eefc d13e
000001e0: 41c2 573f 7440 a8be 216d 553f c0a2 dc3c
000001f0: fd30 033e 00f1 b4be 5158 5c3d 7944 583f
0.80618143 -0.21910758 0.42899022 -0.65344894 -0.63993526 -0.08769429 -0.12597449 -0.25508073
0.77251005 -0.5235268 -0.15772475 0.5773695 -0.13470088 0.1793494 -0.6241131 -0.30050504
-0.8071126 0.4839252 0.27587563 -0.49750677 -0.46090576 0.8918828 -0.100566335 -0.3259846
-0.05482537 0.5205729 -0.3653241 0.4835517 0.21549863 -0.16110003 -0.47538555 -0.3611225
-0.7015432 0.6154143 -0.99945915 -0.15813735 0.55351037 -0.699337 -0.85472727 -0.3878536
-0.84009326 -0.6068326 0.816019 -0.5558443 0.5233165 0.84732133 -0.2513581 -0.04265108
-0.08600393 -0.04729123 -0.023248123 0.65340704 0.07952497 0.57328963 -0.25444925 0.5200131
0.29163352 -0.042309195 0.19596013 -0.26669168 -0.4229879 0.04846549 -0.048485637 0.72378945
0.5079949 -0.08844475 0.3934444 -0.93482554 -0.63613427 0.42758843 0.15740596 0.74002504
0.6168199 -0.55479866 0.079220444 0.34745738 0.53031296 -0.19982019 -0.48086923 -0.63670576
0.15030497 0.2991769 -0.82512903 0.59021443 -0.16998005 -0.32663175 0.94614226 0.49779347
-0.37314594 -0.2148024 0.71070033 0.52423275 -0.19983542 0.013364011 0.7260612 -0.18278444
-0.5859201 0.921885 0.4701921 -0.064867795 0.90567917 -0.83232415 0.45294088 0.64833087
0.79881006 0.044257645 -0.0016168143 0.023089051 0.13420495 -0.7322202 -0.32778168 -0.6816728
0.623826 -0.8695377 -0.108705096 -0.9241952 0.9056778 0.29367867 -0.97192866 0.41013283
0.8428078 -0.32861674 0.8336964 0.026933074 0.12811656 -0.35340118 0.053795163 0.8447948

model.embedding.0.bias f4 [128]
00000000: 0a5d 203f 40bd 8b3f d794 24bd af93 c93d
00000010: 44a0 0d3f d5da cebb b109 943f 20fa 683f
00000020: 6327 fd3e c146 233e 9538 473f 195f 74bf
00000030: 3e56 a73f 7638 4dbf 1926 1cbb e8c6 f1be
00000040: 8029 10bd 796e d5be 6c9d 50bf 4a6b bb3e
00000050: 1c13 823f 1363 2fbe d546 903f ec28 21bf
00000060: 3692 163f ab67 b3be acc7 763f 4d7a 563f
00000070: 6277 c83e 1eba 7cbf cf7b c83d 58ca b9be
00000080: 20a8 00bf 3285 ccbe 9856 e53e 63a3 543f
00000090: 8a35 e3be 506f 34be 90e4 9ebe a495 4b3f
000000a0: 7c9b 0bbf 5480 a8be 344f 91bf 589b 57bf
000000b0: 73bd 4e3f a74c 6cbf b9af 873f addd ce3e
000000c0: 8e85 4c3f 009a 1b3e 29fd 30bb 702c 5c3f
000000d0: 22b2 41bf 2cf4 59bf e810 09bf 20a9 653f
000000e0: e894 66bf 7c35 c93e 8668 1d3f 2c5a 7abf
000000f0: 0e73 973e 4816 fcbe 0837 eebe 1b7b 4e3f
00000100: d316 80be 1d52 723f cb26 4bbf 0536 0d3d
00000110: 689e 61be 7d3f 933e 2dee 76bf f61d 5bbe
00000120: 3e56 873e 6441 e53e c62b 813e b25b b33e
00000130: ac70 73b9 ffab 5c3f cc66 533f 24bf f3be
00000140: 8877 6ebf 16fd eb3e f4b4 29bb b7e0 80bf
00000150: d5f6 593f 56fb 7c3f 7694 56bf 3450 2c3a
00000160: 0c69 8abe f914 8b3f c297 92be 5b85 4f3f
00000170: 7fa8 3a3f 2e43 5a3e d8ea 4b3f 18a4 afbe
00000180: 4cce cdbe f347 313f 4263 75bf c989 1b3f
00000190: 75fb ab3e 1c63 30bc 77d7 38be e78d 5bbf
000001a0: 44f8 8ebf d929 0b3e 51b2 813f 88e0 59be
000001b0: caa3 1b3e 4623 cb3e 363d 18bf fc54 b8bb
000001c0: 775a 3c3f 141b 0e3d a672 143f a809 89be
000001d0: 0f1d 483f e923 15bf e3c8 5a3f fe72 ff3e
000001e0: 911f 34bf ee81 5bbf 12f2 773f 7097 e8be
000001f0: 916d ac3e 0041 80bc 389f 9fbe 4806 03be
0.62641966 1.091713 -0.040181007 0.098426215 0.5532267 -0.006312708 1.1565458 0.9100666
0.49444112 0.15944959 0.7782071 -0.9545761 1.3073194 -0.8016428 -0.002382642 -0.47222066
-0.035195827 -0.41685846 -0.81490207 0.36605293 1.0162082 -0.17127638 1.1271616 -0.62953067
0.5881685 -0.3504003 0.96398425 0.83780366 0.39153582 -0.9872149 0.097892396 -0.3628719
-0.5025654 -0.3994537 0.44792628 0.8306181 -0.44376785 -0.17620587 -0.31033754 0.7952521
-0.54534125 -0.32910407 -1.1352296 -0.8422141 0.80757827 -0.9230446 1.0600501 0.404035
0.7989129 0.15195465 -0.0027006364 0.86005306 -0.75662434 -0.851382 -0.5354142 0.8971119
-0.9007096 0.39298618 0.61487615 -0.9779384 0.29579967 -0.4923575 -0.4652636 0.80656594
-0.25017413 0.94656545 -0.7935607 0.034475345 -0.22033083 0.28759375 -0.9645718 -0.21398148
0.26432985 0.44776452 0.2522871 0.35030895 -0.0002321626 0.86199945 0.8257873 -0.47606766
-0.9315114 0.46091527 -0.002589521 -1.0068578 0.8514226 0.9882101 -0.83820283 0.00065732305
-0.2703327 1.0865775 -0.28631407 0.8106286 0.72913355 0.2131469 0.7965522 -0.3430488
-0.40196455 0.6925041 -0.9585458 0.6075712 0.33590284 -0.010765817 -0.18050943 -0.857634
-1.1169515 0.13590182 1.0132543 -0.21277058 0.151992 0.3967535 -0.594684 -0.0056253653
0.7357554 0.034693792 0.5798744 -0.2676518 0.7816934 -0.5825792 0.8546278 0.4989242
-0.70360667 -0.8574513 0.96853745 -0.45428038 0.33677343 -0.015655994 -0.31176162 -0.12795365

model.embedding.2.weight f4 [16, 128]
00000000: 02c4 28bd e163 313e eb77 44bd 9db8 81bd
00000010: 6d7e e6bd 6e3c 4abd 8f28 723e a522 edbb
00000020: 1769 9a3d 19f9 5cbc c31b 6b3e 12d7 10bc
00000030: e18d b53e e18d e0bd f871 283d eb37 d4bc
00000040: 9dae 67bd 8187 3a3d 1274 833c 6bc4 34be
00000050: 5e7a 22be ea77 f53b 35b2 023e 2e7d 1c3c
00000060: 9127 583e 04ce 29bd 988c 67be cd14 853d
00000070: 8c6a 0dbd beb0 adbd 314c 12be 7412 17bc
00000080: 3600 b53d 08ed 6fbd 444a e1bd d1a6 b83d
00000090: 0521 af3d 71a9 93bd 4630 32bd df4b 8fbd
000000a0: 5dd0 07bd 3420 d1bb 744f 423d 8ed5 d13c
000000b0: 3471 85bd cce4 80bd 29fa 233d d1cb 843d
000000c0: 6b0a 4a3e f1a1 c0bd 5b3c 073d b0cc 00bd
000000d0: b3cf 943d 8008 9b3d 7c6f 56bd 98fb 7f3d
000000e0: c2cd 62bd fe2a 6b3e 2640 b63a b375 92bd
000000f0: 415f c5bd b644 8e3d 3791 0e3d 87da 4fbd
00000100: a8a8 b5bd 6c3b a73d 4512 8dbd c74d e8bc
00000110: 9deb 2cbd b129 d73c db07 dfbd 4a99 a4bd
00000120: f22a 483d 5c03 dfbc 584d 613d 6065 6a3d
00000130: 56b9 55bd c8d8 f73d 56a5 e8bd d277 873d
00000140: b255 a6bd c0ea 07bd 6dc1 75bd b99c fe3b
00000150: 1c73 473e bb6c 3abe b0f4 683d 7241 873d
00000160: 2452 4bbd dd4c b43e 7309 72bd e898 9f3d
00000170: e5c3 8b3c 77fd b53d 6c8f 4cbd 4b0f d23b
00000180: 847b 8fbd 8e15 913d c7a9 af3c 57a7 e93d
00000190: 44cb 363c 3d48 623d d4c1 9fbc 87c0 e93c
000001a0: 6f44 30bd d841 4ebc ee27 8e3d 4faa 903d
000001b0: 08c1 64bd 9863 34be a2dd 24bd 8f00 b83b
000001c0: 2c24 48bd 9cc8 05be 6d07 553e 41de e33c
000001d0: 5338 d8bb e62f 313d 8976 9bbd 490f e5bc
000001e0: f081 6d3d f0f6 ebbc 9cbc ee3c cd7c 12bd
000001f0: 9b62 8e3d d10f e43c 8409 323d cf7e a1bd
00000200: f4c4 9ebc 5f02 5c3e b119 983d 8346 f0bc
00000210: adb1 ddbd 229f 9c3c 1064 16be f1c1 043e
00000220: 15cc 15bc 94ac 86bc 87da 623e 5888 af3d
00000230: 32ff 863d be9d e0bc 6244 473d 107a 053d
00000240: 49b8 77bd 8884 8c3b 02fc 63bc d610 cbbd
00000250: 226c e93c 5042 6b3d a8ae 8a3d aa92 103d
00000260: 7831 3ebc 916b edbc f16e b13d c801 883d
00000270: 81dc fabc 5d64 a03d 0c3e 383d abc5 833d
00000280: 8161 113c 3b99 1dbc f3f0 cf3b 5794 813e
00000290: 621d 12bd 462d 31bc e240 7b3d 0cc5 bc3c
000002a0: 16b9 8abd f7a0 223d 90c5 033d f1ae 973d
000002b0: 24a2 72bc 7c6f c33d f292 643e 29d6 4dbd
000002c0: 5d3d 0bbe 17e4 063e 86e1 9c3d 32ab ac3d
000002d0: 9153 323d 955c 133d 176a a6bd 9ba6 ac3d
000002e0: bdd9 36bd fa16 e13c f693 e3ba b1cc 0c3d
000002f0: ff83 3eba 1977 49bd 7bbe 5ebd 3866 eebc
00000300: aaeb a23d ac99 58bd 13b4 013d 48de 3d3c
00000310: 94c1 d1bc c6e7 82bd da89 343c 71dd 813d
00000320: 9348 213d a6ce 51bd 8788 d63c 6880 353d
00000330: 35e9 faba cac7 933e c6c1 2bbc 2fcc 343d
00000340: 4b13 233e 6ef7 70bd ceab c83b aa1e 003d
00000350: cb03 883e 1df8 5d3e 911e 193d 9d99 8e3d
00000360: 05b0 c3bc 68cc ad3e 173f 103d 8893 a83c
00000370: e4d0 ce3d 1f9a 443d 9261 ecbc 5ca9 973d
00000380: 5c99 38bb eefa 713d ee20 8bb9 0aa5 223c
00000390: f590 8cbd e76d 58bd a904 563d 6385 4c3c
000003a0: 9a16 813d 75af 15bd c224 cb3c e110 c23b
000003b0: f0a6 09bc 3daa 90bd 642e 05bd 58e1 413d
000003c0: ddbd 323d b135 1f3d ca4e 283e 851e 84bd
000003d0: 3522 b23d a0ac 673c 16c8 9f3c 0207 1cbc
000003e0: ecd6 a73d f5ad bc3c 3c51 8c3d 756b 8c3d
000003f0: 1992 973d de61 a1bd 8247 8d3d 89dc 68bd
-0.041202553 0.17323257 -0.047965925 -0.0633404 -0.112545826 -0.049374036 0.23648284 -0.007236796
0.075395755 -0.013487124 0.22959809 -0.008840339 0.35459808 -0.10964561 0.041124314 -0.02590557
-0.05656301 0.045539383 0.016046558 -0.17653053 -0.15866992 0.0074911015 0.12763293 0.00955133
0.21108843 -0.041456237 -0.22612226 0.06498108 -0.03452544 -0.084809765 -0.14286877 -0.009220708
0.08837931 -0.05857566 -0.11000493 0.09016193 0.0855122 -0.07210053 -0.04350307 -0.06996893
-0.033157695 -0.0063820127 0.047439054 0.025614526 -0.065157324 -0.062936395 0.040033493 0.064841874
0.19730537 -0.09405888 0.033016544 -0.031445205 0.07266178 0.075699806 -0.052352414 0.062495798
-0.055372007 0.22965619 0.0013904616 -0.071513556 -0.09637309 0.06946699 0.034806456 -0.050745513
-0.08870059 0.08165631 -0.0688825 -0.0283574 -0.042216886 0.026264997 -0.1089017 -0.0803705
0.04886908 -0.027223282 0.0550054 0.057225585 -0.052178703 0.121018946 -0.1135966 0.06614651
-0.08121814 -0.03318286 -0.05999892 0.0077701476 0.19477504 -0.1820554 0.056873977 0.066042796
-0.049638882 0.35214892 -0.059091043 0.077928364 0.017061183 0.08886235 -0.049941465 0.0064105145
-0.070059806 0.07084189 0.02144326 0.11408871 0.011156861 0.055244673 -0.019501604 0.028534187
-0.043034013 -0.012588941 0.0694121 0.07063734 -0.05584815 -0.17616117 -0.040250428 0.005615301
-0.04886262 -0.13064808 0.20803614 0.02781594 -0.0065985112 0.04325857 -0.07590968 -0.02796139
0.057985246 -0.028804272 0.02914267 -0.03576355 0.06952401 0.027839573 0.043466106 -0.07885515
-0.019381024 0.2148528 0.07426775 -0.029330498 -0.108249046 0.01911885 -0.14686608 0.12964608
-0.009142895 -0.016439714 0.22153674 0.085709274 0.065916434 -0.027418967 0.0486492 0.03258711
-0.060478482 0.00428826 -0.013915064 -0.099153206 0.028493945 0.057436287 0.06771594 0.03529612
-0.011608474 -0.028981956 0.086637385 0.06640965 -0.030622723 0.07831643 0.044981048 0.064341865
0.008873344 -0.0096190525 0.006345862 0.25308487 -0.035672553 -0.010814017 0.061341174 0.023043178
-0.067735836 0.03970429 0.032170832 0.07406414 -0.014809165 0.09542748 0.2232168 -0.050253067
-0.13597627 0.13172947 0.07660203 0.084310904 0.043536726 0.035976965 -0.08125704 0.08430215
-0.044641245 0.027476776 -0.0017362821 0.034374896 -0.0007267594 -0.049185846 -0.054380875 -0.029101476
0.079551056 -0.052880928 0.031665873 0.0115886405 -0.025605 -0.063918635 0.0110191945 0.06341065
0.039375853 -0.051222466 0.026188148 0.04431191 -0.0019142987 0.28863364 -0.010483211 0.044140037
0.15925328 -0.058829717 0.0061239963 0.031279244 0.26565394 0.21676679 0.037382666 0.06962893
-0.023887644 0.33945012 0.035216417 0.02057816 0.100984365 0.047998544 -0.028855119 0.074053496
-0.0028167581 0.059077196 -0.0002653668 0.009927044 -0.06863586 -0.052839186 0.052250538 0.012482974
0.06303139 -0.036544282 0.0247978 0.0059224223 -0.008401617 -0.070637204 -0.032514945 0.047334045
0.0436381 0.038869563 0.16436306 -0.06451134 0.08697931 0.014140278 0.019504588 -0.009523155
0.0819529 0.023032168 0.06851432 0.06856433 0.07400913 -0.07879995 0.06898405 -0.056850944

model.embedding.2.bias f4 [16]
00000000: 35bb 163d fa1c 96b8 57c4 f33d daf6 ee3d
00000010: fe5e 1d3d 3d4d fbbd c9e5 c73d f265 193e
00000020: a20a e23d 1073 9bbd 7990 a13d dd57 febd
00000030: 9314 803d eab7 58bd fbf1 c93c f53d b23d
0.03679963 -7.157955e-05 0.11902683 0.11668177 0.03842067 -0.122705914 0.09760625 0.14980295
0.11037184 -0.07590306 0.07888884 -0.12419102 0.06253924 -0.05290977 0.024651518 0.087032236

model.net.layers.0.weight f4 [164, 18]
00000000: 5012 a8bd b084 223e e7d5 a93d 9d7f 56bd
00000010: 9872 b43c e315 3a3d 6bfa 53bd 9fca ff3d
00000020: 1b05 223e beeb 443e c867 1ebe 8216 8dbd
00000030: 04ef 463d 1b83 873d 978f 4a3e b3a5 d9bd
00000040: 32be 443a 02e7 43bc 6bbf 85be f2cb 663e
00000050: 9b93 d33d e4d4 debd abbd 0dbe f316 e03b
00000060: ee1e 793e 399d 3dbd ab73 c63d abd9 463c
00000070: 8132 23be b74e 65be ced6 0bbe b601 56be
00000080: 7ebe e9bd 5c23 a33d 363f 44be 5c8b a8bd
00000090: 5e75 c6bd ec16 a7bd a3f0 af3d 0a1b 6b3d
000000a0: 0b52 ef3d 140e 893e 843e 683d ba26 95be
000000b0: 6cf2 063e 04c4 a23e 7b63 dc3d 12ba f93d
000000c0: 11d8 4cbd b31f b8bd b1c8 7a3e b98c c7bd
000000d0: 9e25 1d3c 090a 083e a820 433e 70ec 18be
000000e0: 461b 8e3c 2456 d73d 906f 6b3e 1d8d 5cbd
000000f0: 26c1 fd3d 1617 d1bd 6c36 7a3e cc39 573e
00000100: 637d 70be d487 31be fa70 5ebd b3bf 86be
00000110: 0bdd 5d3e c6c5 db3d a711 42be 9c53 4bbe
00000120: 27c7 ffbc c35d 9bbd a8a4 dbbd 1c19 b6bd
00000130: a108 293e 0351 c03c d70c 52be c936 1e3d
00000140: f3e6 ebbd 17e9 a1bd 4786 1ebd 618c 18be
00000150: 4e2f ac3d 36f8 b23d 010b fdbd e11b 34be
00000160: 38a1 f6bb 92fa 3e3e c0da d1bd 72df e13d
00000170: ff3e ee3d 8c67 083e 9308 60bc e85b 96be
00000180: 5915 54be 9ba2 713d 30be dbbd e821 40bc
00000190: 0608 073e c481 393e 1cc3 bd3d 0f1c cc3d
000001a0: b586 75be 89f1 1e3d 4e4c 49be 1b07 b53d
000001b0: 4d1b 643e b727 95be 4a7a cd3d 79d6 febd
000001c0: dc0d 6c3d d343 f1bd 59cd 143d 6793 203e
000001d0: 6282 9e3d fc94 4a3e 5139 e53d a94a 2fbe
000001e0: 0b8e 9cbd dc73 52be 9fdb 9bbc 004e 893d
000001f0: 9413 1cbe cb1f 71be bba3 183d f7f5 b33c
00000200: a183 87bd f8be 43be 059c 263e a7d3 323e
00000210: e8eb 6b3e 3ca7 3a3e 0694 2dbe 5b96 d53c
00000220: 3f62 e9bd 0a73 16bc 97f7 3e3e ea01 25bd
00000230: c4ca b8bd 5271 99bc 87b3 0dbe 657c 7abd
00000240: 1b38 8b3e dd7e 743e fad4 d8bd 1ce8 483e
00000250: b9fb 90bd 6a12 583d 3e2b 32bd c047 cdbe
00000260: b2b0 1f3e 43fd 723e 10bf a8bd 336b afbd
00000270: 2ea5 32be fd09 6bbe 70f1 8a3e 6412 d63d
00000280: a92c 3a3e ca5d 0b3e e294 133e 9427 063e
00000290: b0ab 3c3c 0696 343e 2ba0 5a3d 25f1 fabd
000002a0: 325c 8d3e dc9c 87be c2eb 98bd 5710 953e
000002b0: 5ad1 c53d 968d 10be 8a6a b6bd a711 47be
000002c0: 3128 913d d1a3 b43d 112c 0c3e 0fe3 9b3d
000002d0: ddaf 1a3e ff83 02be 0fe0 69bd ca7e 5f3e
000002e0: 724d 8f3d eed7 063b 6c4e 07be 3aaf 213e
000002f0: 5725 573d 113a ffbc 7f16 3d3e 9f21 31be
00000300: b467 583e ccdc 18be ad49 4c3e f8a3 38be
00000310: 9b41 34bd 5275 403e 3a17 953d 9889 aabd
00000320: 1ec6 80be 4b80 333e 6cab 84bb 19f1 d83d
00000330: 1d41 843c b8b9 d8bd c383 f13d 2ca0 14bc
00000340: 04b1 a43d 8476 babd 0742 2dbe c276 0bbe
00000350: 7719 afbd f93c e1bc 813f 3abe 144b f63d
00000360: f1d2 4bbc e5a4 23be af80 42be 9334 a9bd
00000370: 9880 8c3e a1ed f93c 87e1 103e 2b90 c93d
00000380: c6c2 7fbb 065e 4b3d bb1b 673d 4861 f83d
00000390: 7306 973d 5a47 43be 7fbe ec3d 96ed b53d
000003a0: b27f 80be 53b4 bb3c 8aac 963e 5643 473d
000003b0: c9ec 173e 80c8 7a3c 8328 06be 8dc9 14be
000003c0: 73ba 343d c6f7 ea3d ca5e 3abe 2443 1a3d
000003d0: 576f 14be 29cd 5ebe b1ba a63e 5f20 6ebd
000003e0: d529 abbe 9907 2a3e d1a4 3dbe 4678 ef3d
000003f0: 389e a8bd bee1 2f3e 1723 903d b6cd ee3d
-0.08206618 0.15870929 0.08292752 -0.052367795 0.022027299 0.04543103 -0.05175249 0.12489819
0.1582226 0.19230554 -0.15469277 -0.06889059 0.048567787 0.06616803 0.19781338 -0.10627308
0.0007505148 -0.011956932 -0.26122603 0.22538736 0.10330888 -0.108804494 -0.13841884 0.0068386733
0.24328205 -0.046292517 0.09690031 0.012136857 -0.15937234 -0.22393309 -0.1365616 -0.2089909
-0.114132866 0.07965729 -0.19164738 -0.08229706 -0.09690355 -0.08158669 0.0859082 0.057398833
0.1168557 0.26768553 0.056700245 -0.2913111 0.13178414 0.31790173 0.10761162 0.12193693
-0.050010744 -0.08990421 0.2449062 -0.097436376 0.009591488 0.13285078 0.19055426 -0.14933944
0.01734699 0.10514477 0.22991776 -0.053845514 0.12390356 -0.102094814 0.24434823 0.21018142
-0.23485331 -0.1733697 -0.05430696 -0.2631813 0.21666352 0.10731082 -0.18952046 -0.19856113
-0.031222893 -0.07586243 -0.10724765 -0.08891508 0.16507198 0.02347613 -0.2051271 0.038626466
-0.115186594 -0.079057865 -0.038702276 -0.148973 0.0840746 0.08738749 -0.123556145 -0.1758876
-0.007526543 0.18650272 -0.102468014 0.11028947 0.11633109 0.1332075 -0.013673919 -0.29366994
-0.20711268 0.058992963 -0.10729635 -0.011726834 0.13186654 0.18115908 0.0926573 0.09966289
-0.23977168 0.038804565 -0.19658014 0.08839246 0.2227604 -0.29131863 0.100330904 -0.12443251
0.057630405 -0.117805146 0.036328647 0.1568123 0.07739712 0.19783396 0.11192573 -0.17118324
-0.0764428 -0.2055201 -0.019025622 0.067043304 -0.15241843 -0.23547284 0.03726552 0.021967871
-0.06616903 -0.19115818 0.16270454 0.17463551 0.2303921 0.18227857 -0.16950998 0.026072672
-0.11395692 -0.009182701 0.18649136 -0.04028503 -0.090230495 -0.018730793 -0.13838015 -0.061153788
0.27191243 0.2387652 -0.10587497 0.19619793 -0.07079262 0.052751936 -0.04349827 -0.40093803
0.15594748 0.23729424 -0.08239567 -0.085653685 -0.17445824 -0.22953029 0.27137327 0.104527265
0.18181099 0.13609996 0.14412263 0.13101035 0.011515543 0.17635354 0.053375404 -0.12253026
0.27609402 -0.26486862 -0.07466842 0.2911403 0.09659071 -0.14116511 -0.089070395 -0.19440328
0.07087744 0.08820308 0.13688685 0.07611667 0.15106149 -0.12745665 -0.057098445 0.2182571
0.069971934 0.0020575481 -0.1321351 0.157895 0.052525844 -0.031155618 0.18465613 -0.17297982
0.2113331 -0.14927977 0.1994998 -0.18031299 -0.04400788 0.18794754 0.07279821 -0.08327025
-0.2515115 0.17529409 -0.0040487554 0.10592861 0.01614433 -0.10582298 0.1179271 -0.009071391
0.080415756 -0.09104636 -0.16919719 -0.13619521 -0.08549779 -0.027494894 -0.18188287 0.12026039
-0.012440429 -0.15980871 -0.18994401 -0.08261981 0.2744186 0.030508818 0.14148532 0.09841951
-0.0039026006 0.049650215 0.05642293 0.1212793 0.07374277 -0.19070187 0.11559772 0.088832065
-0.25097424 0.022913134 0.29428512 0.0486482 0.1483642 0.015306592 -0.13101391 -0.1453001
0.044123124 0.1147304 -0.18200222 0.037661687 -0.14495598 -0.2175795 0.3256431 -0.05813634
-0.33430353 0.16604461 -0.18519904 0.11692862 -0.08233303 0.17175958 0.07037943 0.1166033

model.net.layers.0.bias f4 [164]
00000000: 6788 40be d437 b0bd c0b5 3f39 4855 c6bd
00000010: c339 e9bb 2016 1ebe d49b 913d 92b5 86bb
00000020: de88 873e eaea 953d 5a18 7d3e 9ac9 c63d
00000030: de46 143e a76d a2be b702 603e eb55 963c
00000040: ce69 93be d947 65be e93f 93bc 64d1 b73d
00000050: 4238 93bd 79dd 9c3d b9ad d4bd 7577 f8bd
00000060: a7ca e8bd d1cb 90be f1c4 1e3e 676a 26be
00000070: 3cf4 c03c 1812 82be 44ca 303d fae6 aabd
00000080: 0ae4 8cbe 9711 3a3e fe72 d83b a50e 113e
00000090: 51d8 3fbe bd7b 3dbe d72a ecbd eca8 193d
000000a0: 7e96 62be d1a2 273d 3e5e 4f3e bbc4 8d3e
000000b0: 8eab 9fbd 9826 38be fe45 5f3e 1678 0d3e
000000c0: c3f5 09be f537 c6bd 869b 543e 416a 713e
000000d0: 1b9d 12be e73c 343e 3ff7 3f3e d7e1 dabd
000000e0: 1219 87bd c04c 333e 4935 413e 6f90 afbd
000000f0: 6840 093e 76ad 63be 52a5 88be 5c15 6bbd
00000100: 4519 4c3d a383 33bd 72cd 013d 3ab9 ac3c
00000110: 2c12 d1bd 4ae0 90bd 7e00 223e ea48 3cbe
00000120: f8e3 a43c a5fd 26bd b565 733c ca19 2cbe
00000130: ccd0 c93d c6e9 093e d554 9dbd 1fd0 d1bb
00000140: f882 8ebe 2c9e a03d 1f8a 903e bd7d 253e
00000150: 3f12 9abe 8010 de3d cc9e 053e c94c 67be
00000160: 292d e4bd 4b9e 453e 2dfb bfbd fcb5 24bd
00000170: 9c22 413e cad9 1dbe e919 383e e643 43bd
00000180: 7b6a 743d b1ac 2cbe 74dc cfbd 5329 05be
00000190: 2d5c 273d d9fc aebd 50aa 5cbe 8227 5b3e
000001a0: a4c2 29bd 21ad 42bc e94c 2c3d 779a 7fbe
000001b0: 393d 403e bbdc f43d f7cc 55be f13b d9bd
000001c0: 6ba1 c7bd 4748 c53d 8324 013d 773d 11bc
000001d0: e0e0 f1bd 8e2e dcbd 8ef8 10be d9d0 c23d
000001e0: 1aeb 46be 3fbb 7bbe d110 0d3d a3aa 34bb
000001f0: 443b 403e 1126 cb3d 2242 76be 09c8 56be
00000200: 3a93 f7bd 17fd 83be ec27 70be 9314 bdbc
00000210: 296d 61be 4e6e 7cbd 8243 b13d e380 b43d
00000220: 824d 85be cb3c 6f3e f0e4 553e a715 133d
00000230: 9a5a 99bd 8287 94be 6267 663d 4067 273e
00000240: 680d 6a3d e6de 87be f539 e43d 3e09 4cbe
00000250: 280c 483e ba51 59bd fd33 2f3e c7db 6ebe
00000260: 08b9 70be c04f d3bd 7c94 763d 99fa 723d
00000270: e8f9 113e 6cd0 22be 47c1 803d e754 58be
00000280: 0aa1 1d3e 90d6 47be b75b 223e c256 063d
-0.18802033 -0.08604398 0.00018282887 -0.09684235 -0.0071174814 -0.15438128 0.071098 -0.0041110003
0.2647161 0.07320197 0.2471632 0.09706421 0.14480159 -0.31724283 0.21876036 0.018351516
-0.2879166 -0.22390689 -0.01797481 0.08975485 -0.07188465 0.0765943 -0.103846975 -0.121321596
-0.11366778 -0.282805 0.15504815 -0.16251527 0.02355396 -0.2540443 0.043161646 -0.083448365
-0.2751773 0.18170772 0.006605505 0.14165743 -0.18734862 -0.18504234 -0.115316086 0.037514612
-0.2212772 0.04092676 0.20250794 0.27689156 -0.07796393 -0.17983472 0.21804044 0.1381534
-0.13472657 -0.09678642 0.20762452 0.23575689 -0.14317743 0.17601357 0.1874666 -0.10687607
-0.06596579 0.17509747 0.18867983 -0.085724704 0.13403475 -0.22234139 -0.2668863 -0.057393417
0.049828786 -0.04382671 0.03169007 0.021084417 -0.10208544 -0.0707403 0.158205 -0.1838719
0.020128235 -0.040769238 0.014855792 -0.16806713 0.09854278 0.13468084 -0.07682196 -0.006402984
-0.27834296 0.07842669 0.28230378 0.16161247 -0.30092046 0.10842991 0.13048857 -0.22587885
-0.11141426 0.19298665 -0.0937408 -0.040212616 0.18860859 -0.15415111 0.17978634 -0.047672175
0.05967186 -0.16862752 -0.1014947 -0.13004045 0.04085939 -0.085443206 -0.21549344 0.2140179
-0.04144539 -0.011882097 0.042065535 -0.24961267 0.18773355 0.119561635 -0.20878969 -0.10607136
-0.09747585 0.096329264 0.03152896 -0.008864752 -0.118104696 -0.10751067 -0.14157316 0.09512491
-0.19425622 -0.24583147 0.034439865 -0.0027567528 0.18772608 0.0991937 -0.24048665 -0.20974745
-0.12088628 -0.2577903 -0.23452729 -0.0230811 -0.22014298 -0.061628632 0.08655454 0.08813646
-0.26035696 0.23363034 0.20888114 0.03590932 -0.07487984 -0.29009634 0.056250937 0.1634798
0.05714169 -0.26537246 0.11143867 -0.199254 0.19535887 -0.053056456 0.17109676 -0.23326026
-0.23508084 -0.103179455 0.0602002 0.05932102 0.14255488 -0.15899819 0.06286865 -0.21126138
0.15393463 -0.19515443 0.15855299 0.032797582

model.net.layers.2.weight f4 [164, 164]
00000000: e7b6 d43c 1a2c bc3b 7f2a 333d 20e5 1a3c
00000010: ed5c abbd a295 2a3c 3263 8a39 ab82 933d
00000020: 0900 8b3d 1536 813d 243c 43bd 11f6 fdbc
00000030: 11eb e4bc e3d3 2dbe 288d 4a3d 0fef b7bd
00000040: 12d3 c53b aaee 81bd 62ea b93c 664f 9fbc
00000050: 28e5 1ebe deaf 0f3d c7b6 06bd 5574 e9bd
00000060: d29e a73b 9086 01be 7a1b 8abc 0cbb 8abd
00000070: 9447 abbd 57f6 303b 937e b5bd 600c 80be
00000080: 3b74 b5bd 7be0 c83c 15d0 4a3b b2e0 8d3b
00000090: d67f 5abd 15dd 403d a7cc c9bd 2580 413b
000000a0: 3030 d3bd 34ab 983d a833 193d fa79 713e
000000b0: 09ef 64bd 25bf eebd ee8d abbb 77f8 ad3c
000000c0: 1fe0 90bc 384d b8bd 8440 64bd 4363 d13d
000000d0: 29c9 de3a c155 8c3c 2069 3e3d 0842 cabd
000000e0: 5541 3b3c 56d5 ddbd 0ed8 64bd bf71 c6bd
000000f0: e8e9 4d3d b056 84bd d529 273c 6dee 2d3d
00000100: 3b81 2fbd 7ca3 14bb 044b 8c3d 4e5b 0d3e
00000110: 1c22 f23a b680 0b3d ba41 163d f737 8dbc
00000120: c641 11bd 81c5 07be 6c04 963d 8907 04bc
00000130: 30fd 14bc 16f1 84bd 944d 9cbd 055b d93c
00000140: d6eb 443d 1a99 fcbc a34a d4bb 6958 e5bd
00000150: 56ed 78bd 738d 273d 6b4a e6bd e7c6 b93d
00000160: 13c5 fbbc 82e0 4c3d 21bd 48bd d946 b3be
00000170: 0766 60bd d2f0 9f3c d9d8 833d 01da 103d
00000180: 919a 56bd cb7a 633d 0aa9 593b 151a bbbd
00000190: ca41 58bd f639 893d 1ebc 543d 36d2 283d
000001a0: 8a50 7a3a f7dd 05be f71c fab9 f158 243d
000001b0: 35f1 77bd dd90 9f3d e8e8 163c 68d3 9c3b
000001c0: 0f24 003e 86e8 afbb f500 74bb ac5e 12bd
000001d0: bfe1 a1bd 71b2 ad3d 3574 a3bd 2aa0 0b3d
000001e0: a9e4 00be eb66 1fbd 3fe6 9fbd a646 1dbd
000001f0: 32d7 083c 1199 98bd 1fb4 aebd 8944 9bbd
00000200: 66c5 193d 0943 103d a751 513d ad53 593d
00000210: 4f6f 5ebd 3af7 803d 408b fc3c 9763 02bc
00000220: 36a4 fa3c bcd0 75bd 6c81 efbc 2f04 17bd
00000230: 21eb f3bb 2478 7d3d b6f9 133d 5d0a 1ebd
00000240: a10e 1abd bdd1 a13b 2b1a 423d 8c9e 87bc
00000250: a7f4 b33c 2d1c 59bd 3b55 51bd 2ae5 8ebd
00000260: 6b64 213c d277 79bd 1357 d4bd ecc3 b8bc
00000270: 4c81 b1bd 3f2f 1dbd 169c 36bd bd2f 363c
00000280: 0007 933c 9214 103c 7d99 74bd 81e8 bc3b
00000290: 7977 4c3d 535c 103e f19b ea3d 57a7 fabd
000002a0: 7e43 bb3c 15c9 8ebd aee1 6ebe 842f 6ebc
000002b0: 158e d33d cf0b 1b3d bc8b 813b c129 653d
000002c0: b6ed 1abe 5984 203d 93f8 003e 0aa7 25bd
000002d0: 38ab 5dbe 310e 183d 6491 a03d c378 9bbc
000002e0: d97f 613c 7a71 01be c439 3bbe 4ef6 c53c
000002f0: c551 00be 770a bdbe e8bf d6be 10d1 f8be
00000300: eeb5 1ebd 99cf 16bd f6d4 21be ccea bebe
00000310: 29c3 16bf dd00 16bb a7f6 84bd dc1b b1bd
00000320: db1b 66be 7f8f 8ebe 7ad8 1cbe 88cb a7be
00000330: f5a8 36be a9e1 56be 75c1 71be 2467 813d
00000340: 8fb9 d1bd da0a 54be 2794 9c3d 735c 73be
00000350: 2f95 043d ac7d dfbd cc1a 7fbc 3bb4 9e3d
00000360: 5272 cdbd b64e 60bc efbd c6be e1bd 90bf
00000370: 4bd1 47be 2941 9ebd bbb6 6ebe 78cb 17be
00000380: f0fa fdbd 9f2a 04bc cf68 37bd 6489 743c
00000390: 6599 aabe 2f89 213d c1dd d73d 1aa7 9d3d
000003a0: 22a1 c83c 1a80 d6be f28e 3ebc 2a60 93bd
000003b0: a574 f23d 4c77 a5be 7947 f93c fcab 093c
000003c0: b86b 723d d27a 273d 6d7d b3be b028 4abd
000003d0: 48b5 94bd 668b c4bd 4f10 0c3c a8ad b0be
000003e0: 2c28 c6bd ab1f 67bd 8277 35be c265 483c
000003f0: 38cf 053e 4423 273d be1d d03d 148f f63c
0.02596612 0.005742562 0.0437417 0.009454042 -0.083673336 0.010411652 0.00026395317 0.07202657
0.06787116 0.063091435 -0.047664776 -0.031001123 -0.02794412 -0.1697536 0.049451023 -0.08981144
0.0060371244 -0.0634435 0.02269477 -0.01944704 -0.15517104 0.03507983 -0.032889154 -0.11399142
0.0051153684 -0.12648988 -0.016858805 -0.067739576 -0.08363262 0.0027002299 -0.08862033 -0.2500944
-0.0886006 0.024521103 0.003094678 0.0043297643 -0.05334457 0.04708584 -0.098534875 0.0029525843
-0.103119254 0.074545294 0.03740278 0.23581687 -0.055892024 -0.11657552 -0.005235425 0.021236641
-0.017684994 -0.08999103 -0.05572559 0.10224011 0.0016997206 0.017130734 0.046486974 -0.09875876
0.011429151 -0.10831706 -0.05587011 -0.09689664 0.0502719 -0.06461847 0.010202845 0.04246371
-0.042847853 -0.0022680452 0.068502456 0.13804361 0.00184733 0.034058295 0.036683775 -0.0172386
-0.035463117 -0.13258936 0.07325062 -0.008058437 -0.009093568 -0.06491296 -0.07631984 0.02653266
0.048076473 -0.030834723 -0.006478624 -0.111985035 -0.060773216 0.04090638 -0.11244663 0.09071141
-0.03073362 0.050018795 -0.049008492 -0.3501499 -0.0547848 0.019524012 0.06437845 0.035364155
-0.0523935 0.055537026 0.0033212327 -0.09135834 -0.052797116 0.06700508 0.051937215 0.041216098
0.00095487444 -0.13072954 -0.00047705296 0.040123884 -0.060532767 0.07791302 0.009210803 0.004785944
0.12513755 -0.005368295 -0.0037232016 -0.035734817 -0.07904386 0.084813006 -0.07981149 0.03408829
-0.12587227 -0.03891651 -0.07807588 -0.038397454 0.008352088 -0.0745107 -0.08530449 -0.075814314
0.03754177 0.03522018 0.05110326 0.053058315 -0.05430537 0.06297155 0.030828118 -0.007958314
0.03059588 -0.060013518 -0.029236518 -0.036869224 -0.007443801 0.061882153 0.036126815 -0.038584102
-0.037611607 0.004938333 0.047388237 -0.016555093 0.021967245 -0.053005386 -0.051106673 -0.06977303
0.009850602 -0.060905285 -0.103681706 -0.02255436 -0.086672395 -0.038375136 -0.04458245 0.01111978
0.017947674 0.008793967 -0.05971669 0.0057650213 0.049918626 0.14097719 0.11455525 -0.12238949
0.022859331 -0.06971947 -0.23328277 -0.014537696 0.10329834 0.03785306 0.003953425 0.055948023
-0.15129742 0.039188717 0.12594824 -0.040442504 -0.21647346 0.03712291 0.07840231 -0.018978482
0.013763391 -0.12640944 -0.18283755 0.024165299 -0.12531193 -0.36922047 -0.41943288 -0.48597002
-0.03874772 -0.036819074 -0.15803894 -0.3728851 -0.5889154 -0.0022888698 -0.06492358 -0.08647892
-0.22471564 -0.27843854 -0.15316954 -0.3277247 -0.1783789 -0.2098452 -0.23608954 0.06318501
-0.102404706 -0.20707265 0.07645445 -0.23765735 0.032368835 -0.10912642 -0.015570354 0.0774922
-0.100315705 -0.013690641 -0.38816783 -1.1307946 -0.19513433 -0.07727272 -0.23311894 -0.14823711
-0.12401378 -0.008066802 -0.044777688 0.014925335 -0.33320156 0.03943747 0.10540343 0.07697888
0.024490897 -0.4189461 -0.0116307605 -0.07196076 0.118386544 -0.3231758 0.030429589 0.008402821
0.05918476 0.040888615 -0.3505663 -0.04935521 -0.07261139 -0.09596901 0.00854881 -0.3450749
-0.09675631 -0.056426685 -0.1772137 0.012231292 0.13067329 0.040805116 0.10161923 0.030097522

model.net.layers.2.bias f4 [164]
00000000: 02e9 07bd 5eac 303d 0560 b8bd a81b 7bbd
00000010: c076 1dbe 5d09 bb3d a12a b73b 4f38 ee3c
00000020: 489d 803d 6458 e13b 3950 0d3d 0548 c73d
00000030: f0ba d5bd 3dea 073d d188 0abd c2ed 36bd
00000040: a36a 13be bcda db3d 87cf 943d e205 9abd
00000050: 1ad5 df3d 9c24 263d cdec 96bd d876 d8bb
00000060: 5bc9 343c 34a7 58bb be9d 633d 40b2 adbd
00000070: 9b08 70ba 4f77 0f3d 3d25 65bd facb c6bd
00000080: 11f4 80bd 091c c2bd d5b0 f5ba 48d9 96bd
00000090: f16d 58bd 73e3 a23c cc4f 05bd 4318 1bbe
000000a0: b332 933d eced 44bd e268 c3bb d0d1 7a3c
000000b0: aaa4 dfbd 0ece 1a3d 299f 05bd 6fc0 05bd
000000c0: 093d 8dbd 7176 02bd f68c b4bd 28b3 0d3d
000000d0: 9031 b33d 9a36 87bc 5d32 4dbd 4a1a 28bb
000000e0: a39c b9bd 132f 803b 6e94 c83a be4d 993d
000000f0: ec14 33be 4c7c 66bc 2a1d 7cbd 99d7 18bd
00000100: 21d5 d9bb aadd f4bb 6bd2 183e 5d60 97bd
00000110: 3fbe 46bc c71c 94bd 1ba9 aeba ffab 533d
00000120: 6134 563d 0e19 acbd ae24 b6bd e677 38bd
00000130: dbd9 a7bd cf99 433d acab 983c 8644 5b3c
00000140: 101a 56bd 03cb d6bd ea57 80bd 1677 243c
00000150: abc2 bdbc 7b1d 113c 6bdb 89bc 8dbc 2e3d
00000160: 3502 443d f397 80bd 23b1 fa3c 2b89 243d
00000170: 58be 2bbd dd30 86bd 0ea0 933c 8895 b03d
00000180: b46b 9bbc 4506 d33c 9f9e ed3d b458 b4bc
00000190: a47c 693d 572f d4bc e21d b8bc 9e45 2dbc
000001a0: b310 e4bc a604 4fbd da70 2fbd bf72 9bbd
000001b0: 8a8a 223d c5d8 193d 10f7 813c ec96 783d
000001c0: c9fd 52bd 9704 163d 0322 e53c 932c cebd
000001d0: b6d7 8a3d 3d63 54bd 1cbb b4bd f79c 43bc
000001e0: adc7 d0bc 0dea a8bd b6dd b83d 5039 f33c
000001f0: a8b8 75bc 42c9 87bc 5a0d 09be 02b6 1b3d
00000200: 6eb9 3bbd 7538 b43c 185a cd3d 05ec 0e3d
00000210: cdce 15bd 91fa d3bc f00a 6abd 29fe 213d
00000220: 3465 3fbd 0a5c 813d 8c3e 7abd a9be a2bd
00000230: 0f39 a63c 02f3 74bd 07d9 6e3c 9644 4d3d
00000240: 6692 a73d ca24 073d 5378 19bd c6f9 23be
00000250: 4b50 95bd 126d b4bc 9cf2 9f39 754f 7cbd
00000260: 4706 3dbe 4ed3 313d 60ee 253d fe31 e33c
00000270: 1543 093c 89cb 48bd c938 3e3c 4c00 aabd
00000280: 45d8 afbc 459f bf3c bb19 5a3d ea79 d7bb
-0.033181198 0.043133132 -0.09002689 -0.061305672 -0.15377331 0.09132645 0.0055897986 0.029079584
0.06279999 0.006876992 0.034500334 0.097305335 -0.10436046 0.03318237 -0.033821885 -0.044660337
-0.14396147 0.1073508 0.07266145 -0.07520653 0.10929318 0.040562257 -0.07369385 -0.006605964
0.011034335 -0.0033058645 0.055570357 -0.08481264 -0.0009156556 0.03502589 -0.055943716 -0.09706874
-0.06296552 -0.094780035 -0.0018744717 -0.07365662 -0.052839223 0.019883847 -0.032546803 -0.15145974
0.071874045 -0.048078462 -0.0059634307 0.015308812 -0.10920079 0.037794165 -0.03262249 -0.032654222
-0.06896407 -0.031851236 -0.08815949 0.034594685 0.08749688 -0.016505528 -0.05009686 -0.0025650435
-0.09063079 0.0039118617 0.0015303025 0.07485531 -0.1748845 -0.014067721 -0.06155125 -0.037314985
-0.0066477214 -0.0074727135 0.14924018 -0.07391427 -0.012130319 -0.07232051 -0.0013325544 0.0516777
0.052296046 -0.08403216 -0.08893715 -0.04503622 -0.081958495 0.047754105 0.018636547 0.0133830365
-0.05227095 -0.1048794 -0.06266768 0.010038158 -0.023164114 0.008857126 -0.01682826 0.042660285
0.047853667 -0.06278982 0.030602043 0.040169876 -0.041929573 -0.06552289 0.018020656 0.08622271
-0.018972255 0.025759825 0.1160252 -0.022014953 0.057003632 -0.02590148 -0.022475187 -0.01057568
-0.027839994 -0.050541542 -0.042832233 -0.075902455 0.039682902 0.037560243 0.015864879 0.060690805
-0.05151156 0.03662547 0.02797032 -0.100670956 0.06779425 -0.051852454 -0.08824751 -0.011939279
-0.025485838 -0.08247767 0.09026663 0.029690415 -0.014997639 -0.01657546 -0.13384 0.038015373
-0.045831136 0.021999577 0.1002695 0.034893055 -0.036574174 -0.025876315 -0.057139337 0.039549027
-0.046727374 0.06316383 -0.061094806 -0.07946522 0.02029088 -0.059802063 0.014578111 0.050114237
0.0818222 0.03299407 -0.037468266 -0.1601325 -0.07290705 -0.022024665 0.000305076 -0.061599214
-0.18459426 0.043414406 0.040510535 0.0277338 0.00837781 -0.04902223 0.011610218 -0.08300838
-0.02146543 0.023391375 0.053247195 -0.0065758126

model.net.layers.4.weight f4 [2, 164]
00000000: b43c 483d 472b 343e f263 c93d 97f2 1a3c
00000010: db05 eebc a604 c83c aeea f4bc 7e7c 33bd
00000020: 34ae 78bc 44a0 633b 719d 61bd 359a 823d
00000030: 4fa4 0f3d 0174 8fbb 2df3 26be 6fa1 b03d
00000040: e93b c13d 7ba5 2d3e e668 75bc 89b1 d43c
00000050: 3db6 223d 6a5f 113c 61f9 dabd 0325 8ebd
00000060: 0a94 913c 25bb a6be fe5c 75bd b362 5a3d
00000070: 2cd6 f53c 0b16 e13e f5ba 723c bb6c 12bd
00000080: b9dc 143d c6ad 92be 7ca5 e23b 6ea8 14bd
00000090: e707 4dbd 549b 0f3d 406e 523c f7ec 5fba
000000a0: 7d59 e23c 6894 93bc a387 54be e97c 283b
000000b0: 91e5 c03c 3965 523e fc93 e0bb 1821 bcbc
000000c0: 8f0e 18bd 4060 bfbb 732d d33d 1211 a7bd
000000d0: ca45 2bbe 1e8a 8abd d65e f33c b720 363c
000000e0: e273 c43c 7051 f03d 251a 133d 94f7 183d
000000f0: 4334 f33c 9189 70bd b9bb b2bd ddc5 be3c
00000100: 3b6e 3ebb b74d 903d aa6b 4b3f b92e 663b
00000110: 3ec3 233c c961 0b3d c834 c43d e273 27bd
00000120: a8fe a03c fae7 cebc 82e1 8d3b 7e5b 7cbe
00000130: b279 d1bc bd91 4dbc db50 2d3e 640e 663d
00000140: 902d 213d f8cd 183e 7712 a0ba 6e9e 4f3d
00000150: abe4 3dbd 35f3 4f3d 29fd a13e 28bf 9cbe
00000160: 081b 0bbb f839 5b3a fb17 5ebd 60f2 4cbe
00000170: a5ae 733d 789e 37bd 98d4 c1bd 9d1b 193d
00000180: 9d50 46bd e566 3fbd c4bd 54bb ec84 193e
00000190: bb81 15bf 52bf 443e 9235 34bb 781e 0f3d
000001a0: 5f03 65be 996d ae3e ec70 00be 2e39 a4bd
000001b0: 1a15 a23c 5fd8 fb3d 1a02 8b3d 3c8f 38bc
000001c0: 604f 6abd bf67 133e e334 e13d e1b6 303d
000001d0: 1231 693e 22ed 73bc cd7b 12bc 600c 20be
000001e0: 5e42 a83b 5fcb 95be 0d82 cc3a 44c6 cfbd
000001f0: 168a 1ebd 7b74 3abc 8cd1 633c 65f3 093d
00000200: 0384 e03a c726 043d cf3f d03b f4df 603d
00000210: 3593 b7bd 1eb1 1d3d 9a81 41bc 80c3 97bb
00000220: d72c 033c 9ccc 80bd d0dc 5dbe 86b2 d53b
00000230: ba6c 66bd 3fa7 083d adba 07bd 4aaa 6f3a
00000240: 3f36 66bb bd74 633d 7e74 103d 9f4d 61be
00000250: 1c6b 5dbb 8a98 48bd 8390 b73b 82af 2abd
00000260: 7d5a c3be d0ae a4bc 9d50 35bc e91f d7bd
00000270: 378a 303d b8d1 34be 68ad 93ba cd75 893a
00000280: a371 3dbb ff10 f039 a45c 413d b73c 0fbe
00000290: fd09 0bbc 79d1 96be 7ff0 a03e b6d1 d9bc
000002a0: 1e16 8e3c e847 3f3c 055f 1f3c d2b1 fa3c
000002b0: 7c43 7d3c 0812 043b e5cf 34bd e698 743d
000002c0: 1c0d bfbc b830 58bc 4ae3 de3d f259 ffbd
000002d0: d94a 9c3b a40f b3bd 58d7 303d 3192 7ebb
000002e0: 2035 2a3d d7d1 8dbc 5c4f 2ebe 8ddb d7bd
000002f0: 4b50 93bd bf07 34be 2806 503b 67df de3d
00000300: 752f 603c 8484 5cbe a8fb 933c 08cf aebc
00000310: 78f9 953c 5d1c 6d3e 72b7 6ebe 317f 383e
00000320: 4750 813d 00a3 abbc a434 233d 5672 1fbd
00000330: 6e3a d0bc 92b5 ba3c 2d8f 423e e7a7 963d
00000340: 4354 723d 8fa0 c93e 8b91 28bd e2f6 16bd
00000350: c314 4abc 12b9 123d 4915 48bd 5385 8dbc
00000360: 7bb8 0a3d fb92 f5bd 8585 1f3d aa64 3a3d
00000370: fc1c 34bd a4f4 223e 9648 69bc ff44 d23d
00000380: b76b c6bc 1db6 8cbd 904d 843e 25a5 e63a
00000390: 8d80 3a3c 0f79 d8bc 326d 18bf 1e1b 40bd
000003a0: 0977 93ba 1446 123e e5a1 4b3e 3ba6 463d
000003b0: 6c39 c5bd da7a 80bc 86c3 ddbc 313d d2be
000003c0: 98a4 8a3d cd85 76bd aa9a 7fbe 58db 30bd
000003d0: ea87 0e3d dd42 f13d 3ba4 3d3d f018 5fbd
000003e0: 752f ccbe 822d 85bc 4d20 3d3e 9172 213c
000003f0: d857 8dbd 0f6f 64bc 693f 6b3d 3ec2 8bbc
0.048886016 0.17594634 0.09833516 0.009457252 -0.029055526 0.024416279 -0.02989706 -0.043819897
-0.015178252 0.0034732977 -0.05508179 0.06377069 0.035068806 -0.0043778424 -0.16303702 0.08624541
0.09435255 0.16957657 -0.014978623 0.025963562 0.039724577 0.008872846 -0.106920965 -0.06940653
0.017770786 -0.32564655 -0.059903137 0.053316783 0.030009352 0.4396213 0.014815082 -0.035748225
0.03634331 -0.28648204 0.0069167 -0.03629344 -0.050056364 0.03506024 0.012843668 -0.00085420854
0.027630562 -0.018015102 -0.20754866 0.0025709218 0.023546966 0.20546426 -0.0068535786 -0.022965
-0.03712326 -0.0058403313 0.10311403 -0.08157553 -0.16725841 -0.06764625 0.029708307 0.011116198
0.023981038 0.11734283 0.035913605 0.037345484 0.029688006 -0.058724944 -0.087272115 0.023287708
-0.0029057402 0.07046073 0.7946116 0.0035123064 0.00999528 0.034028802 0.0958038 -0.040882
0.01965268 -0.0252571 0.004329861 -0.24644276 -0.025570724 -0.012546954 0.16925375 0.056166068
0.039350092 0.14922321 -0.0012212534 0.0506882 -0.046360653 0.05076905 0.31638458 -0.3061459
-0.0021225829 0.0008362825 -0.05422209 -0.20014334 0.059492726 -0.044828862 -0.09464377 0.03737985
-0.048416723 -0.046728987 -0.0032461742 0.14992112 -0.5840108 0.19213608 -0.002749775 0.034941167
-0.22364567 0.3406799 -0.12543076 -0.08018719 0.019785453 0.12297129 0.0678751 -0.0112646185
-0.057204604 0.14395045 0.109964155 0.043143157 0.22772625 -0.01488808 -0.008940649 -0.1562972
0.0051348647 -0.29256722 0.0015602723 -0.10145238 -0.038705908 -0.01138031 0.01390494 0.033679385
0.0017129186 0.032263543 0.006355263 0.05490108 -0.089636244 0.03849899 -0.011810685 -0.0046314597
0.008006296 -0.06289026 -0.21666265 0.006521526 -0.056256033 0.033362623 -0.033137012 0.00091425015
-0.0035127548 0.055531252 0.035267346 -0.22002266 -0.0033785766 -0.048973598 0.005601944 -0.041671284
-0.38154975 -0.020102888 -0.011066583 -0.10504133 0.043100562 -0.17658126 -0.0011266889 0.0010487378
-0.0028906844 0.0004578903 0.04720749 -0.13988005 -0.008486268 -0.2945669 0.31433484 -0.026589256
0.01734453 0.011674859 0.009727244 0.03060237 0.015457984 0.002015235 -0.044143576 0.059716128
-0.02332168 -0.013195209 0.10883196 -0.124683276 0.0047696647 -0.087432176 0.043174118 -0.003884446
0.04155457 -0.017311973 -0.1702246 -0.10539923 -0.07193049 -0.1758108 0.003174195 0.10882454
0.01368319 -0.21534926 0.018064335 -0.021338955 0.018307433 0.23155351 -0.23312166 0.1801727
0.0631414 -0.020951748 0.039845124 -0.0389274 -0.025418486 0.022791658 0.1899993 0.073562436
0.05916239 0.3938031 -0.041154426 -0.03685654 -0.012334052 0.035821028 -0.048848424 -0.017275488
0.03386734 -0.11990925 0.038945694 0.045506157 -0.043972954 0.15913635 -0.014238497 0.10267066
-0.024221284 -0.06870673 0.25840425 0.0017596824 0.011383188 -0.026424913 -0.5954162 -0.04690086
-0.0011250685 0.14284545 0.19885977 0.048498373 -0.09630093 -0.01568358 -0.027070772 -0.4106231
0.06769675 -0.060186196 -0.24961343 -0.043177933 0.034797587 0.11780331 0.0462992 -0.05446714
-0.39879957 -0.016257051 0.18469353 0.009853975 -0.069015205 -0.013942494 0.05743352 -0.017060395

model.net.layers.4.bias f4 [2]
00000000: bd91 0dbd f73a 2bbc
-0.034562815 -0.01045107

exp_avg f4 [128, 1]
00000000: b11a 6eb9 8c9d deb9 48ac 5eb9 0000 0000
00000010: 4d11 1202 0000 0000 0c26 a1ba 203e 00ba
00000020: 685c 58b8 0000 0000 5c0d a6b9 58c9 e8b9
00000030: 18da efba e845 9039 0000 0000 0000 0000
00000040: 0000 0000 5637 bdb9 bc90 4939 d253 1002
00000050: 0a4f e637 c0dc b4b9 f26c f4ba 0000 0000
00000060: 6028 b6b9 04ad 63b9 9ef8 89b7 ccf3 03b9
00000070: d069 bd38 0000 0000 0000 0000 0000 0000
00000080: 0000 0000 d9c9 e8b9 0000 0000 04e9 cdba
00000090: b82b 5cb8 0000 0000 0000 0000 70e8 b638
000000a0: 0000 0000 0000 0000 a84a 5eb8 0000 0000
000000b0: 48a0 4fb8 c4ea 8ab8 5c51 f2b9 a0ee 22b8
000000c0: e8c5 e7b9 5e07 0db9 1d8a 1b02 9605 a339
000000d0: 037b 1802 9cd8 2d39 0000 0000 70dc 13b9
000000e0: e875 1538 e0e4 48ba f838 cbb9 0000 0000
000000f0: f8a2 1802 0000 0000 0000 0000 a296 e4b9
00000100: 10dc 06b9 6f57 b6ba a0a2 de38 0000 0000
00000110: 0000 0000 0450 4138 8b59 f0b9 971a 0539
00000120: 5561 12b9 0611 1102 f87f 6839 8039 6b38
00000130: 72fa ab38 ea16 1fba 31a7 9737 0000 0000
00000140: 0a62 24ba 2867 24b8 0000 0000 6a28 9fb9
00000150: 96ae 0cbb 7414 9a39 c5c2 afb9 7fdc c238
00000160: 0000 0000 facc 1dbb 0c30 0f39 dc4e f839
00000170: 481d fbb9 5e7c c7b9 9c5f 9bb8 0000 0000
00000180: 0000 0000 8e41 c8b9 2f8e 38b9 3852 d6ba
00000190: 1077 103a 0000 0000 20b1 b0b7 08fc f7b7
000001a0: 7823 22b8 c24f 3eba de8c d2b9 0000 0000
000001b0: 12b1 e0b9 0000 0000 0000 0000 0000 0000
000001c0: 102a cbb6 0000 0000 d179 d5ba 0000 0000
000001d0: d433 9db8 d53b 8bb9 3ba8 1f02 1db1 3fba
000001e0: d130 a9b9 0000 0000 b6d9 f1b9 0000 0000
000001f0: 654b 7839 0000 0000 44cd e139 0ea0 b339
-0.00022707392 -0.0004246052 -0.0002123575 0.0 1.0731351e-37 0.0 -0.0012294664 -0.000489207
-5.1584473e-05 0.0 -0.0003167194 -0.000444005 -0.001829925 0.00027517905 0.0 0.0
0.0 -0.00036090118 0.00019222772 1.0603504e-37 2.7454942e-05 -0.00034496747 -0.0018648191 0.0
-0.00034743827 -0.0002171286 -1.6447444e-05 -0.00012583955 9.0319314e-05 0.0 0.0 0.0
0.0 -0.00044400877 0.0 -0.0015709703 -5.2492804e-05 0.0 0.0 8.721731e-05
0.0 0.0 -5.2998454e-05 0.0 -4.950192e-05 -6.624081e-05 -0.00046218454 -3.8846047e-05
-0.00044207205 -0.00013449552 1.1427238e-37 0.00031093945 1.1202499e-37 0.00016579259 0.0 -0.00014101132
3.5634177e-05 -0.00076634996 -0.00038761622 0.0 1.1213966e-37 0.0 0.0 -0.0004359978
-0.00012861216 -0.0013911555 0.00010616076 0.0 0.0 4.6089306e-05 -0.00045843082 0.00012693774
-0.00013959904 1.0657803e-37 0.00022172916 5.6081917e-05 8.2005645e-05 -0.0006068783 1.8078457e-05 0.0
-0.00062707125 -3.919672e-05 0.0 -0.00030356954 -0.0021466366 0.00029388408 -0.00033523716 9.2917115e-05
0.0 -0.0024078474 0.00013655442 0.00047361 -0.00047896267 -0.000380489 -7.4087846e-05 0.0
0.0 -0.00038195815 -0.00017600575 -0.0016351407 0.0005510906 0.0 -2.1063315e-05 -2.9562056e-05
-3.8656843e-05 -0.00072598096 -0.00040159276 0.0 -0.00042856537 0.0 0.0 0.0
-6.054768e-06 0.0 -0.0016286914 0.0 -7.495997e-05 -0.00026556724 1.1729755e-37 -0.0007312464
-0.00032270563 0.0 -0.0004612931 0.0 0.0002367921 0.0 0.0004306828 0.0003426079

exp_avg_sq f4 [128, 1]
00000000: 52e6 0e38 e08a 9639 1b7c 5e38 0000 0000
00000010: d385 f12a 0000 0000 932f 053c cf18 e937
00000020: 01f4 5537 0000 0000 76ea 1d3a 6a8e ce36
00000030: ec4b a33b a509 e639 0000 0000 0000 0000
00000040: 0000 0000 d187 e937 33be 9f38 1e3f de27
00000050: a4eb 3033 715a d638 c618 583b 0000 0000
00000060: c987 823b 67dd aa37 32fd b433 4e49 9538
00000070: 5e11 0238 0000 0000 0000 0000 0000 0000
00000080: 0000 0000 075f 0138 0000 0000 9468 bb39
00000090: 23e0 0537 0000 0000 0000 0000 c6d3 0f34
000000a0: 0000 0000 0000 0000 e7ba c838 0000 0000
000000b0: a961 ce37 4965 2a38 8909 5c39 c29f 8a3a
000000c0: 368d 2c3c 1820 6a37 d598 0f28 c59e 7036
000000d0: 9d02 b131 1a19 f837 0000 0000 d9e5 3e38
000000e0: a29a 2d38 6fa0 c93b c528 b938 0000 0000
000000f0: 26f7 e92c 0000 0000 0000 0000 23b1 f438
00000100: a1b9 2737 0bf2 963b 8d0f 8138 0000 0000
00000110: 0000 0000 d0e9 3436 614e f239 7174 ab37
00000120: 6ebd da36 57aa 9e2d 7be3 8f36 b2a6 0637
00000130: 665d d436 0d63 ad39 54ee f031 0000 0000
00000140: cff5 af3a 0c4c bf38 0000 0000 b43f 1238
00000150: 6f09 333a d8a7 6c36 269c 4738 ae88 cb37
00000160: 0000 0000 8251 423a c1c7 2038 5cfe 8c37
00000170: f45c 1b38 3bea 0238 d00f df36 0000 0000
00000180: 0000 0000 d12a 5538 bb62 e437 12c5 783b
00000190: fe67 dd36 0000 0000 c98b ac37 e1f9 9e37
000001a0: 2b02 7638 407f 7138 d74d 8939 0000 0000
000001b0: 9374 0837 0000 0000 0000 0000 0000 0000
000001c0: af8f 8537 0000 0000 e36f 013a 0000 0000
000001d0: fa1c 1c38 9668 b236 2c57 672f f011 1237
000001e0: a6c2 4038 0000 0000 14bb 0a38 0000 0000
000001f0: 37d1 a537 0000 0000 4cdb c738 996a e338
3.406994e-05 0.000287137 5.3044507e-05 0.0 4.290306e-13 0.0 0.008129018 2.7787317e-05
1.2752601e-05 0.0 0.0006024012 6.1558576e-06 0.004983416 0.00043876204 0.0 0.0
0.0 2.7839009e-05 7.617138e-05 6.168581e-15 4.1192507e-08 0.00010221161 0.003297375 0.0
0.003983472 2.0368678e-05 8.427959e-08 7.118528e-05 3.101059e-05 0.0 0.0 0.0
0.0 3.0844498e-05 0.0 0.00035745336 7.979604e-06 0.0 0.0 1.3394956e-07
0.0 0.0 9.5715564e-05 0.0 2.460259e-05 4.0625488e-05 0.00020984387 0.0010576176
0.010531714 1.3954959e-05 7.971235e-15 3.5855203e-06 5.151675e-09 2.9575593e-05 0.0 4.5513592e-05
4.1390427e-05 0.0061531584 8.829081e-05 0.0 6.6496973e-12 0.0 0.0 0.00011667821
9.997196e-06 0.0046064905 6.154096e-05 0.0 0.0 2.6958187e-06 0.00046216234 2.043901e-05
6.518959e-06 1.8038166e-11 4.2882143e-06 8.025834e-06 6.3289654e-06 0.0003307093 7.012014e-09 0.0
0.0013424697 9.1217546e-05 0.0 3.486844e-05 0.0006829714 3.5264438e-06 4.759072e-05 2.4263132e-05
0.0 0.00074126583 3.8333008e-05 1.6807746e-05 3.704145e-05 3.121256e-05 6.6477587e-06 0.0
0.0 5.0823033e-05 2.7225693e-05 0.003795926 6.5984195e-06 0.0 2.056909e-05 1.8951427e-05
5.865299e-05 5.757739e-05 0.00026188671 0.0 8.133374e-06 0.0 0.0 0.0
1.5921743e-05 0.0 0.0004937632 0.0 3.7220285e-05 5.316989e-06 2.1040297e-10 8.7064545e-06
4.5957648e-05 0.0 3.3075994e-05 0.0 1.9766956e-05 0.0 9.529907e-05 0.00010844059

exp_avg f4 [128]
00000000: 5064 ceb8 a4f2 0cba 7ab4 61b8 b516 4137
00000010: d683 e337 f39a 1302 0c28 aeb9 739a ccb9
00000020: b363 4eb8 8471 0837 b8aa 26ba 3ebd 12b9
00000030: 9048 24ba 5eb5 a038 a3a3 1502 0000 0000
00000040: 0000 0000 7c20 ccb8 16ef 6838 7441 e237
00000050: 7c1e 3f37 16c4 33b9 8a6f 1dba 0000 0000
00000060: 7823 95b9 61aa 2bb8 1c52 f6b7 7259 17b9
00000070: e0e4 4ab7 0000 0000 57dd d236 0000 0000
00000080: 0000 0000 1076 1cb9 14ac f937 06a9 3fba
00000090: 5b79 abb7 0000 0000 0000 0000 8dd4 ba38
000000a0: 0000 0000 0000 0000 9009 e236 0000 0000
000000b0: 529e 17b8 5036 29b8 5008 04ba 0002 0eb7
000000c0: 3639 83b9 e625 51b9 605d 1002 1c5b e737
000000d0: c9d6 1a02 3cef 1338 0000 0000 6b0c acb8
000000e0: 502c ac36 110b c2b9 381d cbb8 0000 0000
000000f0: 38eb 6a37 0000 0000 0000 0000 f2df 6cb9
00000100: df98 96b8 c9d8 f5b9 38f8 0338 0083 8fb6
00000110: 0000 0000 6be8 d237 b0f3 fb36 736c 1638
00000120: 7942 8eb8 de70 d137 978f 5d38 068e 08b8
00000130: dd0d f037 982e 2aba 8f3f 0a38 0000 0000
00000140: b8f6 ee37 25ec 38b8 3491 1102 4c87 62b8
00000150: 894a 89ba a046 60b6 7472 e9b8 42da 58b8
00000160: 0000 0000 05cb 90ba 25f8 1eb8 4024 1839
00000170: 6547 dcb9 6bbc 11b9 eef5 b1b8 0000 0000
00000180: 0000 0000 7439 43b9 5e01 4bb8 da29 dfb9
00000190: 42e9 d738 72b5 1702 5244 39b8 50d6 abb6
000001a0: b04d e536 7f04 69b9 8dfa 3bb9 0000 0000
000001b0: 1388 06b9 407e 1238 0000 0000 1657 1102
000001c0: 4959 84b7 0c91 3db6 121a 54ba 0000 0000
000001d0: c3d9 b9b8 ba55 91b8 fe0f 5736 279c 2cb9
000001e0: 3f74 fdb8 0000 0000 e4e5 1ab9 0000 0000
000001f0: 8cc0 1038 0000 0000 7b13 d938 2d28 f138
-9.84153e-05 -0.00053767324 -5.3812262e-05 1.1508983e-05 2.71219e-05 1.0844323e-37 -0.00033217703 -0.00039024986
-4.920708e-05 8.132662e-06 -0.00063578365 -0.00013994143 -0.0006266916 7.663177e-05 1.0993753e-37 0.0
0.0 -9.733529e-05 5.5535776e-05 2.6971778e-05 1.1391585e-05 -0.00017143818 -0.00060056953 0.0
-0.0002844592 -4.0928255e-05 -2.936372e-05 -0.00014433803 -1.2093427e-05 0.0 6.284255e-06 0.0
0.0 -0.00014921301 2.9763243e-05 -0.0007311258 -2.0441299e-05 0.0 0.0 8.908762e-05
0.0 0.0 6.736438e-06 0.0 -3.6148653e-05 -4.0343322e-05 -0.0005036639 -8.464325e-06
-0.00025028893 -0.00019945911 1.0606246e-37 2.7579772e-05 1.1375773e-37 3.5270336e-05 0.0 -8.203912e-05
5.131158e-06 -0.0003701081 -9.685237e-05 0.0 1.4002253e-05 0.0 0.0 -0.0002259014
-7.181032e-05 -0.0004689156 3.1464006e-05 -4.2769825e-06 0.0 2.5142179e-05 7.508752e-06 3.5863788e-05
-6.783469e-05 2.49673e-05 5.2824234e-05 -3.2557196e-05 2.8616685e-05 -0.00064919284 3.2960957e-05 0.0
2.8486698e-05 -4.4088945e-05 1.0694589e-37 -5.4008604e-05 -0.0010474484 -3.341971e-06 -0.00011131624 -5.170168e-05
0.0 -0.0011046833 -3.7901238e-05 0.00014509354 -0.00042014863 -0.00013898469 -8.485826e-05 0.0
0.0 -0.00018618052 -4.8400245e-05 -0.00042565056 0.000102954466 1.11458e-37 -4.4171065e-05 -5.1211464e-06
6.833776e-06 -0.00022222286 -0.00017927047 0.0 -0.00012829927 3.4926692e-05 0.0 1.067791e-37
-1.5777203e-05 -2.8247623e-06 -0.0008091043 0.0 -8.862049e-05 -6.9301066e-05 3.2046805e-06 -0.0001646137
-0.000120856326 0.0 -0.00014772225 0.0 3.45116e-05 0.0 0.00010350995 0.00011499259
