docs/smld/lightning_logs/version_108/checkpoints/epoch=49-step=4900.ckpt (torch, 345995 bytes, 18 tensors)

model.layers.0.weight f4 [164, 3]
0.19110462 0.30216184 -0.42087314 0.20724154 -0.24870889 -0.042527776 -0.15249577 0.47378248
0.40259913 0.008686298 -0.23962271 0.33914167 0.46463376 0.035160426 0.46107104 0.17970684
0.23143108 0.15403497 -0.36392066 0.018503591 0.0006240822 -0.05571259 -0.24871139 0.43731698
-0.1345836 -0.18887712 0.040372726 0.38031575 -0.06877698 0.44677266 0.47187728 -0.13823366
0.28387925 -0.11964358 -0.060477905 0.17901187 0.27303645 0.18042749 -0.58170164 0.28006864
-0.08267713 -0.04241295 -0.51482165 -0.24946713 0.15379177 -0.15533566 0.38583702 0.4261085
0.28935468 0.31169775 0.49785903 -0.327536 0.1360657 0.16591378 0.28844348 -0.09945071
-0.40622535 -0.35461283 0.4238331 -0.61591053 0.05829977 0.010585724 -0.3179715 0.20819137
0.4648414 0.44433287 0.11050555 0.30109933 -0.51132756 0.44409814 0.42184216 -0.6185139
-0.27159664 -0.21358615 0.052264396 0.42985308 0.41078398 0.0840074 0.2567242 -0.13221523
-0.24266337 0.1561907 -0.1488443 -0.38699654 -0.18557234 0.22672497 -0.43342376 0.07707422
0.15710254 0.35971743 -0.12865873 -0.2853792 0.34628296 0.094167404 0.2023104 -0.50582105
0.086738646 0.07129679 -0.12069834 0.2166765 -0.53390944 -0.1529983 0.17266454 0.10206873
-0.09312396 -0.40939733 0.26455948 0.2540086 -0.40609372 -0.3072127 -0.06908423 -0.18657382
-0.4857193 0.35312966 0.04182991 -0.27857032 -0.5174667 -0.16281956 0.20853008 -0.2879951
-0.45642078 -0.115385026 -0.07277654 -0.18154831 -0.031839017 0.31698042 -0.07768044 -0.28447074
-0.34468147 0.1723252 0.19620931 -0.35324317 0.15395209 -0.19143721 -0.41425085 0.0007173493
0.2495961 -0.27840558 -0.1989294 -0.45365795 0.49308202 0.0031972579 -0.24451439 0.42223027
0.3865256 -0.3835015 -0.33430716 0.22734925 -0.11493369 0.24059172 -0.41730416 -0.3165695
-0.49721113 -0.18027832 -0.26045597 -0.47083732 -0.045930136 -0.4267975 -0.38736498 0.16845416
-0.47732875 -0.21943904 -0.24228773 -0.4155329 -0.18498282 -0.04600087 0.45086044 0.49237758
0.08871898 0.36498365 0.14462174 0.13246378 -0.1548267 -0.34682423 -0.071421646 -0.19315046
-0.3888988 -0.13424782 -0.4117344 0.078864925 -0.17899284 -0.09846369 -0.42355707 0.36045465
0.06256951 0.42501238 -0.4574079 -0.1948136 -0.13481914 0.26464856 0.36739978 -0.06428635
0.21995446 -0.18436839 0.04711834 -0.17997973 -0.32235986 -0.40768057 -0.47411457 0.10865233
0.3518505 0.36334613 -0.107542634 -0.13367905 -0.16933918 -0.13658173 0.15887196 -0.25507104
0.13689588 -0.4227654 -0.12252548 -0.36167714 0.102346025 -0.407014 -0.038430896 -0.25632608
-0.1939923 -0.49386144 -0.25765163 -0.013501148 0.15369304 0.074891165 -0.5116165 -0.15101047
0.15159638 0.43506655 -0.39404127 0.12791735 -0.21732274 0.48601314 -0.301878 0.45145026
-0.42456782 0.008783512 -0.08676531 -0.18216817 0.26377892 -0.20496464 0.37532428 0.25726858
-0.07673098 0.11721866 -0.25864083 0.3669479 0.4603102 0.48700398 0.2239497 0.47286958
0.2656961 -0.037416473 0.0009184565 0.21805908 0.5286032 0.013858284 -0.2083333 0.14218056
00000000: eeb0 433e f5b4 9a3e af7c d7be 2037 543e
00000010: 8bad 7ebe 9b31 2ebd da27 1cbe 9e93 f23e
00000020: 7921 ce3e f950 0e3c a85f 75be faa3 ad3e
00000030: 7ae4 ed3e 6104 103d 8111 ec3e 1205 383e
00000040: 45fc 6c3e 58bb 1d3e cf53 babe d894 973c
00000050: 7399 233a e332 64bd 33ae 7ebe 03e8 df3e
00000060: 49d0 09be 0169 41be df5d 253d bfb8 c23e
00000070: f2da 8cbd 63bf e43e e699 f13e 208d 0dbe
00000080: 9f58 913e b107 f5bd aeb7 77bd e34e 373e
00000090: 6fcb 8b3e fcc1 383e 66ea 14bf 2865 8f3e
000000a0: a152 a9bd 34b9 2dbd 5acb 03bf 5074 7fbe
000000b0: 977b 1d3e 5010 1fbe 6e8c c53e e52a da3e
000000c0: 4c26 943e d996 9f3e 61e7 fe3e ccb2 a7be
000000d0: cf54 0b3e 4de5 293e ddae 933e d0ac cbbd
000000e0: c5fc cfbe d08f b5be a700 d93e 50ac 1dbf
000000f0: bdcb 6e3d bf6f 2d3c 29cd a2be 1e30 553e
00000100: b1ff ed3e 997f e33e bc50 e23d b129 9a3e
00000110: 5de6 02bf d560 e33e b2fb d73e ed56 1ebf
00000120: b70e 8bbe 54b6 5abe 3113 563d b415 dc3e
00000130: 4752 d23e 120c ac3d 5b71 833e 6e63 07be
00000140: bf7c 78be 74f0 1f3e a46a 18be 6924 c6be
00000150: ad06 3ebe 972a 683e b8e9 ddbe 17d9 9d3d
00000160: 7ddf 203e e22c b83e 1dbf 03be 391d 92be
00000170: 004c b13e d7da c03d 752a 4f3e 7d7d 01bf
00000180: 08a4 b13d 0d04 923d b130 f7bd 72e0 5d3e
00000190: 4aae 08bf 96ab 1cbe f9ce 303e 6909 d13d
000001a0: c6b7 bebd 879c d1be 5774 873e 6a0d 823e
000001b0: 84eb cfbe fc4a 9dbe 087c 8dbd 350d 3fbe
000001c0: 33b0 f8be 69cd b43e d755 2b3d c5a0 8ebe
000001d0: b378 04bf 2cba 26be e988 553e 1874 93be
000001e0: fcaf e9be fc4e ecbd de0b 95bd cde7 39be
000001f0: a169 02bd 424b a23e ec16 9fbd 26a6 91be
00000200: 177a b0be 0476 303e 18eb 483e 4adc b4be
00000210: 9ea5 1d3e 1e08 44be b018 d4be 7f0c 3c3a
00000220: 1f96 7f3e 2d8b 8ebe 26b4 4bbe db45 e8be
00000230: 3f75 fc3e 1689 513b fb61 7abe 912e d83e
00000240: afe6 c53e 4f5a c4be 4f2a abbe 3ece 683e
00000250: 5b62 ebbd ad5d 763e e4a8 d5be 6615 a2be
00000260: 7592 febe e19a 38be 7c5a 85be 9711 f1be
00000270: 3d21 3cbd 3485 dabe b454 c6be 3f7f 2c3e
00000280: 6f64 f4be a1b4 60be 461a 78be bac0 d4be
00000290: 236c 3dbe 696b 3cbd 2ed7 e63e ea18 fc3e
000002a0: 4cb2 b53d 23df ba3e b917 143e 96a4 073e
000002b0: e48a 1ebe f292 b1be 8345 92bd 3cc9 45be
000002c0: be1d c7be 4378 09be dace d2be ef83 a13d
000002d0: e649 37be 55a7 c9bd 79dc d8be 838d b83e
000002e0: 7124 803d 399b d93e 5e31 eabe 377d 47be
000002f0: 070e 0abe 0480 873e d31b bc3e 90a8 83bd
00000300: be3b 613e 11cb 3cbe 29ff 403d 9b4c 38be
00000310: 5a0c a5be 82bb d0be 25bf f2be 1d85 de3d
00000320: c025 b43e 8108 ba3e 503f dcbd 29e3 08be
00000330: 4067 2dbe 15dc 0bbe 55af 223e ac98 82be
00000340: 6f2e 0c3e b574 d8be a4ee fabd bf2d b9be
00000350: cb9a d13d 2464 d0be b769 1dbd 2c3d 83be
00000360: eba5 46be 68db fcbe eaea 83be eb33 5dbc
00000370: b561 1d3e 8a60 993d 4df9 02bf 7da2 1abe
00000380: 153c 1b3e 0bc1 de3e c7bf c9be c4fc 023e
00000390: da89 5ebe b7d6 f83e c18f 9abe 7d24 e73e
000003a0: f460 d9be b8e8 0f3c 03b2 b1bd 4b8a 3abe
000003b0: 080e 873e 40e2 51be 812a c03e b5b8 833e
000003c0: 2225 9dbd 5610 f03d 926c 84be 98e0 bb3e
000003d0: c7ad eb3e 9658 f93e 1253 653e f61b f23e
000003e0: 5209 883e 0442 19bd 93c4 703a e14a 5f3e
000003f0: 8a52 073f db0d 633c 5355 55be c897 113e

model.layers.0.bias f4 [164]
-0.17734009 0.32664898 -0.51002973 0.003407217 0.45310462 0.16475916 -0.7156832 -0.12003943
-0.09914499 -0.7610552 -0.24108614 -0.8652278 -0.31728867 -0.71634173 0.15000753 0.26467922
-0.43087748 -0.22166406 -0.114044555 0.4246501 -0.3106547 -0.29821572 0.50717646 -0.10752988
0.1111683 -0.22103477 -0.5508597 -0.08259137 -0.59397817 -0.5344478 -0.64293134 0.60152316
-0.98069715 -0.6086886 -0.68184257 -0.36918047 -0.19434477 -0.1590302 0.5668745 -0.82570344
-0.25813338 0.12167079 0.44821623 0.14674847 -0.6099356 -0.8514106 -0.33147818 -0.5256681
0.48265415 -0.16309993 -0.85006225 0.12873599 -0.68778074 -0.5131695 -0.008484052 0.20091006
-0.060055524 1.2769004 0.8033425 0.2701285 0.97868913 0.011364972 -0.09319489 0.7361906
0.4956138 -0.44439268 0.06669436 0.5187376 0.805921 0.8759183 0.53164613 0.24419929
0.4541153 0.48618796 -0.045169692 -0.7947779 -0.095522195 -0.3160632 -0.6512068 -0.66497386
0.5705795 0.4239619 0.30329692 -0.6724658 -0.19829734 0.7818313 -0.68989295 0.22599143
-0.9253998 -1.0864491 0.4859513 -0.78371155 -0.42651963 0.15411964 -0.4071349 0.45283896
-0.75489825 -0.08950991 -0.47313756 -0.5568584 -0.039941423 -0.7869013 -0.7924668 -0.2579988
0.18671651 -0.55509984 -0.038295455 -0.20087947 0.5393377 0.5439952 0.7969568 0.079289064
-0.8574826 0.7081851 -0.55085063 -0.05764055 0.5772124 -0.06666942 -0.68794584 -0.2924454
0.07533993 -0.69269794 -0.0039171535 0.40364736 0.108671166 0.71393657 -0.45129967 0.893547
-0.86855704 -0.5736958 -0.14895947 0.11454369 0.28338906 0.45642734 -0.37127957 0.23359232
-0.89452 0.042257868 0.39347422 0.44345096 0.17068271 0.16016413 -0.4854675 -0.61439145
-0.68018675 0.36293605 0.1663021 -0.55493516 0.46950394 0.18842532 -0.18693256 -0.84883267
0.07292991 0.76335853 -1.2464273 -0.23663895 -0.79187214 -0.36462757 0.6828535 -0.59442157
-0.93749857 -0.80215585 -0.74418706 -0.36122698
00000000: a498 35be 893e a73e 4f91 02bf 9e4b 5f3b
00000010: 54fd e73e a0b6 283e 0437 37bf 3cd7 f5bd
00000020: 870c cbbd 83d4 42bf 49df 76be 927f 5dbf
00000030: a973 a2be 2c62 37bf 939b 193e 0984 873e
00000040: f99b dcbe e7fb 62be 3190 e9bd bd6b d93e
00000050: 220e 9fbe bbaf 98be 51d6 013f a038 dcbd
00000060: 35ac e33d f056 62be 2405 0dbf aa25 a9bd
00000070: f40e 18bf 92d1 08bf 2697 24bf 6cfd 193f
00000080: f80e 7bbf 04d3 1bbf 3c8d 2ebf 3905 bdbe
00000090: 5102 47be d0d8 22be b01e 113f 4d61 53bf
000000a0: 0f2a 84be 892e f93d 997c e53e 3b45 163e
000000b0: bd24 1cbf 0cf6 59bf 82b7 a9be 2f92 06bf
000000c0: 721e f73e ab03 27be ae9d 59bf 5ed3 033e
000000d0: 6612 30bf 145f 03bf b100 0bbc 5ebb 4d3e
000000e0: c8fc 75bd 7971 a33f dba7 4d3f 484e 8a3e
000000f0: 5f8b 7a3f 2634 3a3c f6dc bebd fd76 3c3f
00000100: 18c1 fd3e 7087 e3be 0d97 883d fdcb 043f
00000110: d750 4e3f 2f3c 603f f619 083f 610f 7a3e
00000120: cd81 e83e a1ed f83e db03 39bd 9176 4bbf
00000130: 24a1 c3bd 09d3 a1be 7db5 26bf ba3b 2abf
00000140: 8011 123f 8911 d93e bc49 9b3e b826 2cbf
00000150: 750e 4bbe 1926 483f d39c 30bf 4c6a 673e
00000160: 00e7 6cbf c410 8bbf 9cce f83e 52a1 48bf
00000170: c860 dabe 8ad1 1d3e fc73 d0be 82da e73e
00000180: 0341 41bf f950 b7bd 163f f2be 468e 0ebf
00000190: 9e99 23bd 5d72 49bf 1bdf 4abf 6b18 84be
000001a0: 9d32 3f3e 061b 0ebf b2db 1cbd 59b3 4dbe
000001b0: 0912 0a3f 4543 0b3f 5c05 4c3f 4e62 a23d
000001c0: fb83 5bbf 9e4b 353f 8c04 0dbf 7f18 6cbd
000001d0: 31c4 133f fa89 88bd 381d 30bf 67bb 95be
000001e0: d24b 9a3d a754 31bf 775b 80bb deaa ce3e
000001f0: fd8e de3d 8cc4 363f c010 e7be 7fbf 643f
00000200: c159 5ebf badd 12bf d588 18be e295 ea3d
00000210: 5f18 913e d8b0 e93e 5b18 bebe d332 6f3e
00000220: 43ff 64bf 9616 2d3d 7475 c93e 010c e33e
00000230: 73c7 2e3e 1102 243e 328f f8be c248 1dbf
00000240: b820 2ebf c1d2 b93e 194b 2a3e 3b10 0ebf
00000250: d262 f03e 91f2 403e 406b 3fbe 194d 59bf
00000260: 475c 953d 776b 433f ee8a 9fbf 7b51 72be
00000270: 22b8 4abf 77b0 babe 7dcf 2e3f 032c 18bf
00000280: e8ff 6fbf 165a 4dbf 0b83 3ebf bef2 b8be

model.layers.2.weight f4 [164, 164]
-0.056578398 0.06472417 -0.029697195 0.041648734 0.0004009278 0.020428877 -0.006705782 0.050149914
-0.07851466 0.028622083 0.0155061055 -0.040848408 0.05067313 0.032550864 -0.02597182 -0.009737161
-0.009742502 -0.0741014 0.05166196 0.0017828192 0.037176475 -0.022827238 0.051966846 -0.014215037
-0.011696578 0.04403189 0.0457909 -0.021577584 -0.13015506 -0.06100012 -0.03730961 0.05312989
-0.09709885 -0.036583215 -0.0041993177 -0.026588785 0.01034877 0.018468414 -0.012471289 -0.04754751
-0.07468884 -0.015617529 0.09392273 0.055641968 0.0038086737 -0.031597637 -0.009459045 -0.015153761
0.015326806 0.018639503 -0.07923968 -0.025331711 0.042748984 -0.025524193 0.043184277 -0.006649239
0.049208015 0.1404474 0.13896565 0.027841862 0.09112126 0.074214876 -0.07323247 -0.06254714
0.021402968 -0.06652128 0.052067947 -0.022859266 0.030453576 0.0038495883 0.01572072 -0.036870677
-0.03476842 -0.045959733 0.022919271 -0.035624016 -0.049570493 -0.072278015 -0.06976653 -0.059150904
0.053914525 -0.028547341 -0.06798902 -0.036518607 -0.021640293 0.061150696 -0.017474847 -0.049064357
-0.016544923 0.048053082 0.052382965 -0.029721314 -0.038013455 0.06921805 0.052391864 0.014801458
0.03368284 -0.07099062 -0.05574342 -0.019990101 -0.011894442 0.026959507 0.005264913 -0.022990637
-0.013465648 0.0564096 0.062350813 0.031775575 -0.031550333 0.012193532 0.05478535 -0.038721476
-0.06567557 0.0586456 0.045434736 -0.012521039 0.08909669 0.038837366 -0.027189022 0.014449699
0.025126452 0.0034189578 0.034618974 -0.007829246 0.06544534 0.021714827 -0.0123391105 -0.013626256
-0.025241006 -0.0052354513 -0.010684607 -0.07317328 -0.04194731 -0.008137911 0.047035616 0.074578546
-0.0040721023 0.0069934656 0.0036496853 0.041055556 -0.07218573 0.040958535 -0.013318392 -0.018899037
0.052648187 0.031669702 0.012641085 -0.0899554 -0.06924772 -0.009680611 0.050965156 0.007779944
-0.010160947 -0.0152084315 -0.022206374 -0.05909136 0.011538924 -0.032087427 -0.08125226 -0.13343056
-0.026558943 -0.0065762596 -0.053196926 0.025455054 0.056891225 -0.07061873 -0.06910327 0.061007038
-0.02153076 -0.049738877 0.032288842 -0.045637675 0.05159218 0.020154342 0.062381774 -0.05811
-0.01261702 0.016822962 0.03680511 -0.0006138127 0.054918908 0.040789522 0.038276035 -0.034460485
-0.1031761 -0.007070462 0.06851142 0.040112317 0.07696431 0.036389887 -0.05840216 -0.012566213
-0.06261222 -0.054748062 -0.025326472 0.045242563 -0.060205195 0.038471688 -0.073945515 0.026867433
-0.057479993 -0.078598626 0.052749995 -0.051267624 -0.013883563 -0.006740885 0.041549157 0.06897406
0.00084918016 -0.07622547 -0.08695822 -0.0859394 0.06646746 0.050325792 0.050856106 0.03692725
-0.04556814 -0.04828676 -0.07343316 -0.00045959963 0.007915145 -0.73240244 0.15495455 0.019626532
0.05764279 -0.03517999 -0.021170992 -0.021866 -0.0146379005 0.0052425843 0.05571309 -0.0729365
0.04554319 0.08614277 0.039494295 0.07979727 0.075313136 -0.02867036 0.05981519 0.06782112
0.03852551 0.055659123 0.017050518 0.0017997187 0.0026839199 -0.06518096 -0.04951958 0.006296092
0.018601686 -0.037635718 -0.068663165 0.0067651495 0.0087603275 0.053676832 0.062257886 -0.04694566
00000000: c0be 67bd 1b8e 843d 8847 f3bc dd97 2a3d
00000010: 9e33 d239 765a a73c 2dbc dbbb ff69 4d3d
00000020: 4bcc a0bd dc78 ea3c 520d 7e3c a950 27bd
00000030: a18e 4f3d 0e54 053d dbc2 d4bc 9d88 1fbc
00000040: 049f 1fbc 7ac2 97bd 7e9b 533d 7cad e93a
00000050: 5c46 183d 3000 bbbc 30db 543d 30e6 68bc
00000060: 01a3 3fbc c85a 343d 3d8f 3b3d 79c3 b0bc
00000070: 5e47 05be 43db 79bd f6d1 18bd ba9e 593d
00000080: c3db c6bd 48d8 15bd 6e9a 89bb b9d0 d9bc
00000090: e38d 293c 124b 973c 6154 4cbc 2ec1 42bd
000000a0: 76f6 98bd aae0 7fbc 8f5a c03d d5e8 633d
000000b0: f19a 793b 866c 01bd 1cfa 1abc 7b47 78bc
000000c0: 491d 7b3c dfb1 983c 6a48 a2bd 7384 cfbc
000000d0: 8f19 2f3d 1d18 d1bc ffe1 303d dce1 d9bb
000000e0: 588e 493d 71d1 0f3e 034d 0e3e 9e14 e43c
000000f0: c89d ba3d f8fd 973d e8fa 95bd b718 80bd
00000100: 4755 af3c 4f3c 88bd 3345 553d 5b43 bbbc
00000110: c779 f93c 6049 7c3b bdc8 803c b505 17bd
00000120: 5569 0ebd 4640 3cbd 32c1 bb3c 7dea 11bd
00000130: 6e0a 4bbd 7f06 94bd c1e1 8ebd 3848 72bd
00000140: 7ad5 5c3d 1ddc e9bc d43d 8bbd 8994 15bd
00000150: fc46 b1bc 2779 7a3d 6927 8fbc b5f7 48bd
00000160: 3889 87bc 4fd3 443d 858f 563d 1d7a f3bc
00000170: ffb3 1bbd 31c2 8d3d da98 563d d181 723c
00000180: 05f7 093d 8863 91bd 3653 64bd 48c2 a3bc
00000190: e8e0 42bc 2fda dc3c 4b85 ac3b dc56 bcbc
000001a0: 059f 5cbc c10d 673d 9163 7f3d 1b27 023d
000001b0: ec3a 01bd 61c7 473c 9a66 603d 699a 1ebd
000001c0: ea80 86bd 5e36 703d c619 3a3d 0b25 4dbc
000001d0: 5378 b63d ee13 1f3d 83bb debc 6ebe 6c3c
000001e0: fdd5 cd3c 9810 603b a0cc 0d3d 3d46 00bc
000001f0: 3508 863d 4be3 b13c fb29 4abc a940 5fbc
00000200: 3ac6 cebc 268e abbb 7d0e 2fbc dfdb 95bd
00000210: f1d0 2bbd df54 05bc 6ba8 403d a3bc 983d
00000220: 456f 85bb 7129 e53b 8f2f 6f3b df29 283d
00000230: 1dd6 93bd 23c4 273d 6335 5abc 27d2 9abc
00000240: a0a5 573d 17b8 013d 8e1c 4f3c 893a b8bd
00000250: c0d1 8dbd 6d9b 1ebc d7c0 503d e7ee fe3b
00000260: 1a7a 26bc c92c 79bc 24ea b5bc c809 72bd
00000270: c10d 3d3c 1b6e 03bd 9667 a6bd 05a2 08be
00000280: 2492 d9bc aa7d d7bb 05e5 59bd 1e87 d03c
00000290: c606 693d 8da0 90bd 0486 8dbd 84e2 793d
000002a0: 4761 b0bc feba 4bbd 4e41 043d 92ee 3abd
000002b0: 5252 533d b81a a53c 0884 7f3d c004 6ebd
000002c0: 9eb7 4ebc 4fd0 893c f4c0 163d 46e8 20ba
000002d0: a6f2 603d ea12 273d 55c7 1c3d 7026 0dbd
000002e0: fe4d d3bd 56af e7bb b74f 8c3d d04c 243d
000002f0: 779f 9d3d 900d 153d 1a37 6fbd 84e2 4dbc
00000300: d63a 80bd 813f 60bd 7679 cfbc 4450 393d
00000310: b999 76bd 7d94 1d3d bf70 97bd 1719 dc3c
00000320: 2470 6bbd 51f8 a0bd 6110 583d 00fe 51bd
00000330: e277 63bc a4e2 dcbb 732f 2a3d 4642 8d3d
00000340: 849b 5e3a 191c 9cbd 2717 b2bd ff00 b0bd
00000350: 1720 883d 6b22 4e3d 7e4e 503d 0741 173d
00000360: a8a5 3abd 56c8 45bd 2064 96bd 6bf6 f0b9
00000370: 86ae 013c ba7e 3bbf 68ac 1e3e d2c7 a03c
00000380: d91a 6c3d e518 10bd ca6e adbc 5320 b3bc
00000390: ced3 6fbc fcc9 ab3b 6933 643d bb5f 95bd
000003a0: 7f8b 3a3d 9f6b b03d c5c4 213d c06c a33d
000003b0: c63d 9a3d 1ade eabc c600 753d cde5 8a3d
000003c0: edcc 1d3d d2fa 633d 87ad 8b3c 8ae4 eb3a
000003d0: b4e4 2f3b 987d 85bd 0bd5 4abd 734f ce3b
000003e0: 9062 983c e927 1abd 469f 8cbd 30ae dd3b
000003f0: 7a87 0f3c 3ddc 5b3d 2002 7f3d 184a 40bd

model.layers.2.bias f4 [164]
0.12503259 -0.007548636 0.12056203 -0.10127383 -0.07190443 -0.020263374 0.15619391 -0.006435844
0.17878571 -0.019347327 -0.13662545 -0.0069705253 0.018588359 -0.012550049 0.023696337 0.0029335092
-0.071718946 -0.011217443 -0.025275756 -0.050661575 0.19221535 -0.047972515 -0.047441654 -0.03037879
0.060450688 -0.053069994 -0.16484043 0.13089699 0.122016795 -0.02636816 0.04170425 -0.074695505
-0.036760315 0.009750951 0.012868443 -0.045062773 -0.07060927 -0.06179259 -0.010145684 0.019577628
-0.01476918 -0.009905384 0.036772598 -0.029947706 -0.07572035 -0.24124278 0.0048682904 -0.029438995
-0.05416136 -0.051594052 -0.094125696 0.0403331 -0.043995593 0.050951 -0.066185206 0.014721822
0.0037697332 0.0035995168 0.026771056 -0.069980174 -0.44144776 0.042038355 0.10408439 -0.03634746
0.05094115 0.109569594 0.061491568 0.067622684 -0.077167444 -0.06418668 -0.12440805 -0.06559753
-0.26172027 -0.05628027 0.028446896 -0.022665946 -0.07990688 -0.07158263 0.0728643 0.025308432
0.021927847 0.055773515 -0.009980509 -0.0086521385 0.23013556 0.041937444 0.048256446 -0.0019096121
-0.061772622 -0.0004361801 -0.017181233 -0.021476205 0.063960105 -0.011357764 0.019744968 -0.09984359
-0.09573618 -0.062923476 -0.36591634 0.19597486 -0.064412974 -0.04429524 -0.007715808 -0.13928005
0.03349351 0.04127761 0.092146106 -0.10562996 0.09295848 0.14697528 -0.14231545 -0.012401253
0.35412034 0.031879853 -0.006735192 0.05615524 -0.0036455197 0.15640275 -0.03942152 0.06441342
-0.16039294 -0.050424986 -0.109537326 0.18260802 0.09026421 0.0013427135 -0.046576105 0.10593527
0.01900812 0.07981656 -0.080709904 0.01822366 0.056998473 -0.06637091 -0.17785794 -0.15554424
-0.06524279 0.09594095 0.027598467 0.11643852 0.104221895 0.05516336 -0.02367368 -0.1545845
0.05146381 0.010188369 0.040934853 0.00092613016 -0.19359043 0.25879395 0.07210099 0.03991484
0.027245797 -0.17865707 0.06110165 -0.076357715 -0.081709474 -0.09773632 0.030236693 0.099877805
-0.074262485 -0.055344272 0.015346339 0.03695971
00000000: 8b08 003e 8c5a f7bb 3ae9 f63d a768 cfbd
00000010: a142 93bd 60ff a5bc 4cf1 1f3e c6e3 d2bb
00000020: 9a13 373e 497e 9ebc 8be7 0bbe 0169 e4bb
00000030: 9d46 983c b99e 4dbc d21e c23c 1e40 403b
00000040: 62e1 92bd 5ec9 37bc 1a0f cfbc 8382 4fbd
00000050: 1ad4 443e d47e 44bd 2e52 42bd f1dc f8bc
00000060: 249b 773d ec5f 59bd eecb 28be dc09 063e
00000070: f1e3 f93d 0a02 d8bc 13d2 2a3d f5f9 98bd
00000080: fc91 16bd 74c2 1f3c 29d6 523c be93 38bd
00000090: 989b 90bd 3a1a 7dbd 153a 26bc 4361 a03c
000000a0: 6efa 71bc 314a 22bc dd9e 163d e454 f5bc
000000b0: 4513 9bbd 5908 77be 2e86 9f3b 0c2a f1bc
000000c0: 4dd8 5dbd 4954 53bd f9c4 c0bd 5234 253d
000000d0: b934 34bd ffb1 503d 1c8c 87bd cc33 713c
000000e0: a10d 773b dfe5 6b3b f94e db3c c451 8fbd
000000f0: 7105 e2be 6930 2c3d 322a d53d 13e1 14bd
00000100: aba7 503d 0666 e03d 95de 7b3d c37d 8a3d
00000110: f709 9ebd 4e74 83bd a6c9 febd ff57 86bd
00000120: 3300 86be 2486 66bd 7709 e93c efad b9bc
00000130: 38a6 a3bd ea99 92bd e139 953d a153 cf3c
00000140: 07a2 b33c c572 643d 4a85 23bc b3c1 0dbc
00000150: a8a8 6b3e 99c6 2b3d 8da8 453d f34b faba
00000160: 4a05 7dbd 1aaf e4b9 a8bf 8cbc deee afbc
00000170: 84fd 823d ea15 3abc 33c0 a13c cc7a ccbd
00000180: 5511 c4bd 06de 80bd 6359 bbbe a2ad 483e
00000190: f3ea 83bd ed6e 35bd e4d4 fcbb 6e9f 0ebe
000001a0: 7e30 093d b612 293d 19b7 bc3d 8554 d8bd
000001b0: 0461 be3d b080 163e 24bb 11be a02e 4bbc
000001c0: 434f b53e 7394 023d e3b2 dcbb 0903 663d
000001d0: ace9 6ebb 0b28 203e 7678 21bd 2feb 833d
000001e0: 0c3e 24be 6e8a 4ebd 1b55 e0bd 99fd 3a3e
000001f0: 71dc b83d fdfd af3a 96c6 3ebd 97f4 d83d
00000200: ebb6 9b3c dd76 a33d 3c4b a5bd c949 953c
00000210: 3b77 693d 79ed 87bd 6420 36be fd46 1fbe
00000220: 039e 85bd b07c c43d 2e16 e23c 5277 ee3d
00000230: 4a72 d53d faf2 613d 4eef c1bc 664b 1ebe
00000240: b7cb 523d 1eed 263c 4eab 273d 8bc7 723a
00000250: 923c 46be a480 843e afa9 933d be7d 233d
00000260: 9432 df3c e1f1 36be b945 7a3d 6f61 9cbd
00000270: 4c57 a7bd fb29 c8bd f1b2 f73c bc8c cc3d
00000280: ee16 98bd adb0 62bd 366f 7b3c 1163 173d

model.layers.4.weight f4 [2, 164]
-0.0010885515 0.045989785 -0.006658113 0.027185634 -0.0046483004 0.037245695 0.008841745 0.062406827
-0.073814295 0.0070551625 -0.018979583 -0.029160049 -0.04442799 0.03741291 -0.03471408 -0.05418772
-0.052445453 -0.0105457585 0.016717741 0.05987778 -0.03980962 -0.0014861933 0.0058035273 -0.005638707
-0.03442142 -0.037123293 0.043126296 0.049797166 -0.023806388 0.06477819 0.04466015 -0.009756295
0.008559549 0.01934241 0.0047169696 -0.010844852 0.03341899 0.026877504 -0.036526795 -0.06953466
0.04345669 0.027945912 -0.05183954 0.0303932 -0.050898485 -0.0029488099 0.008938693 0.060194917
-0.001110861 -0.02045877 -0.062208153 0.012270873 0.039907016 0.04541459 0.036411937 -0.048692644
-0.007087677 0.0009376733 -0.00330309 0.004572076 -0.14629745 -0.028836042 -0.0039146277 0.009473903
0.008401954 0.028032186 -0.058613617 0.018927243 0.026519084 0.021317145 0.01239944 0.0030662518
0.02031614 0.0050613782 -0.046667498 -0.022351729 0.012502937 0.028279833 -0.005306628 0.0606773
-0.045396987 0.027816817 0.04138865 0.0022679898 -0.11542314 0.047916897 -0.0012133671 0.0061577368
-0.055925958 0.046986036 0.018577792 0.03157049 0.02646056 0.04213655 0.039680455 0.0013264199
-0.05859989 -0.06665783 -0.086204655 -0.06600156 0.009682146 0.011638569 0.058230467 -0.00416524
0.04010538 -0.008832839 0.038527235 0.0393796 -0.013796819 -0.034291368 0.024665857 -0.050787143
0.24501842 0.036643237 0.044996224 0.024346381 -0.05022607 -0.15916306 -0.013321863 0.0100355195
-0.04131939 -0.028580923 -0.029285826 0.07304901 -0.034974575 -0.014519576 0.06239209 -0.017264506
-0.024631368 -0.026236683 0.032305863 0.03808965 -0.034506157 0.06666043 -0.047561824 0.012933975
-0.011612989 -0.0011922423 0.027399356 -0.0070449524 0.07233288 0.002164754 -0.006951681 -0.0069148
-0.016644487 0.042986527 0.041196596 -0.045440275 0.065001644 -0.032394595 0.0066687553 0.0137524
-0.0076214 -0.069249675 -0.007703897 -0.069353804 -0.037514213 -0.016581587 0.053565867 -0.039552595
-0.00096748344 -0.018149544 -0.035487514 -0.03022641 0.019620294 0.015908664 0.020974243 -0.017056996
-0.03440612 -0.015475331 -0.010066064 -0.035988502 -0.02871368 0.010304816 -0.011562759 0.01191774
-0.06129185 -0.026117116 0.003954186 -0.025614899 -0.06449165 0.0012167563 0.0020160677 -0.00196927
-0.030124772 -0.00029270566 0.0053508314 -0.0022068068 0.04231984 0.034595598 0.02417721 -0.08546459
0.032691803 -0.019131701 -0.0583135 0.014111206 -0.049191467 -0.021296239 0.04283958 -0.029369732
0.0020221581 0.017877739 0.03876991 -0.043157306 0.066540755 0.03615273 -0.05542677 0.0006399253
-0.030317755 0.036376975 0.010878041 0.008071107 0.018475639 0.014248243 0.016931146 0.031529315
0.041011956 -0.0379218 -0.031161094 -0.009610024 0.030918203 -0.012690752 -0.026465015 -0.029506026
0.08594197 -0.049535565 0.018456016 -0.0002734311 0.039039686 -0.027214749 0.054796513 -0.05610864
-0.048199546 0.011176845 -0.028344568 -0.019538917 0.04802894 -0.045206062 -0.023121484 -0.0016973171
-0.039346762 -0.018060025 0.0011575357 -0.051637456 -0.018635323 0.05444993 -0.027358664 0.04844525
0.1909062 -0.014671679 -0.048906375 -0.043566287 0.013227057 -0.04311346 0.030194562 0.010690777
00000000: baad 8eba c95f 3c3d 4d2c dabb 68b4 de3c
00000010: c550 98bb f18e 183d f7dc 103c 4d9e 7f3d
00000020: f32b 97bd fe2e e73b 127b 9bbc 0ee1 eebc
00000030: 20fa 35bd 483e 193d 5a30 0ebd f1f3 5dbd
00000040: 0bd1 56bd 1ec8 2cbc a5f3 883c 6742 753d
00000050: 690f 23bd 5fcc c2ba 842b be3b e7c4 b8bb
00000060: 7afd 0cbd 980e 18bd 33a5 303d 1df8 4b3d
00000070: 9d05 c3bc 6daa 843d 90ed 363d ded8 1fbc
00000080: 5a3d 0c3c f973 9e3c cf90 9a3b 9bae 31bc
00000090: 5ae2 083d 362e dc3c 1f9d 15bd 3068 8ebd
000000a0: a4ff 313d d3ee e43c b355 54bd 29fb f83c
000000b0: ee7a 50bd d240 41bb 9973 123c f28e 763d
000000c0: 4f9a 91ba 2799 a7bc facd 7ebd c60b 493c
000000d0: 8a75 233d a604 3a3d af24 153d f071 47bd
000000e0: be3f e8bb 31ce 753a a878 58bb 5ad1 953b
000000f0: 00cf 15be 9039 ecbc 4746 80bb 6e38 1b3c
00000100: 59a8 093c c1a3 e53c d514 70bd 4e0d 9b3c
00000110: 8d3e d93c 4ba1 ae3c 0527 4b3c 2bf3 483b
00000120: 096e a63c ebd9 a53b 6b26 3fbd f91a b7bc
00000130: 1ed9 4c3c 1cab e73c 39e3 adbb c388 783d
00000140: 31f2 39bd 18e0 e33c 2587 293d 8ea2 143b
00000150: f862 ecbd 8244 443d d809 9fba d7c6 c93b
00000160: 9e12 65bd 6e74 403d 7430 983c 0f50 013d
00000170: d1c3 d83c 6097 2c3d f987 223d 44db ad3a
00000180: 7006 70bd e683 88bd 118c b0bd d32b 87bd
00000190: dda1 1e3c b2af 3e3c 1283 6e3d 917c 88bb
000001a0: 8a45 243d 9db7 10bc bcce 1d3d 814c 213d
000001b0: 0e0c 62bc 1b75 0cbd 0d10 ca3c 2e06 50bd
000001c0: 1ce6 7a3e 3817 163d f64d 383d 1072 c73c
000001d0: dab9 4dbd a4fb 22be f143 5abc 056c 243c
000001e0: 853e 29bd 8a22 eabc d4e8 efbc b89a 953d
000001f0: 8041 0fbd 84e3 6dbc d98e 7f3d 4b6e 8dbc
00000200: b9c7 c9bc 50ee d6bc 2753 043d e503 1c3d
00000210: 5456 0dbd 4385 883d 30d0 42bd 06e9 533c
00000220: 6844 3ebc 0345 9cba 9d74 e03c 58d9 e6bb
00000230: 4323 943d 8cde 0d3b edca e3bb 8c95 e2bb
00000240: 055a 88bc a412 303d c3bd 283d 951f 3abd
00000250: 951f 853d 32b0 04bd 9385 da3b bf51 613c
00000260: f0bc f9bb c6d2 8dbd f970 fcbb 5e09 8ebd
00000270: 81a8 19bd 1cd6 87bc e267 5b3d e701 22bd
00000280: b79e 7dba 5aae 94bc 5b5b 11bd 609d f7bc
00000290: bdba a03c e352 823c 2dd2 ab3c 1dbb 8bbc
000002a0: 6fed 0cbd 3e8c 7dbc 22ec 24bc ae68 13bd
000002b0: f438 ebbc 88d5 283c ba71 3dbc a042 433c
000002c0: 2a0d 7bbd 90f3 d5bc 1e92 813b 56d6 d1bc
000002d0: 3314 84bd 917b 9f3a 0120 043b de0e 01bb
000002e0: 3ac8 f6bc 4a76 99b9 0756 af3b 13a0 10bb
000002f0: 9257 2d3d 1db4 0d3d 490f c63c 0f08 afbd
00000300: d7e7 053d 16ba 9cbc 23da 6ebd b032 673c
00000310: fe7c 49bd 7375 aebc 8e78 2f3d cb98 f0bc
00000320: 2f86 043b 5674 923c 32cd 1e3d b7c5 30bd
00000330: 8546 883d e314 143d 2e07 63bd a9c0 273a
00000340: f15c f8bc 0600 153d d039 323c ad3c 043c
00000350: 395a 973c 7671 693c 30b3 8a3c e224 013d
00000360: 27fc 273d e453 1bbd 8d45 ffbc 5d73 1dbc
00000370: 2c48 fd3c dfec 4fbc 29cd d8bc 9fb6 f1bc
00000380: 5802 b03d cee5 4abd 1231 973c 4d5b 8fb9
00000390: 14e8 1f3d 77f1 debc 4f72 603d 2cd2 65bd
000003a0: e36c 45bd 161f 373c de32 e8bc 1410 a0bc
000003b0: feb9 443d fe29 39bd 4469 bdbc 8378 deba
000003c0: 122a 21bd 9ef2 93bc 74b8 973a cc81 53bd
000003d0: 1ba9 98bc e406 5f3d 471f e0bc 876e 463d
000003e0: ea7c 433e 7b61 70bc 0d52 48bd 9072 32bd
000003f0: 4cb6 583c bd97 30bd 965a f73c 5e28 2f3c

model.layers.4.bias f4 [2]
0.02568983 -0.039952673
00000000: 7a73 d23c 6aa5 23bd

exp_avg f4 [164, 3]
-7.9946825e-05 -0.00050635147 -0.00010426028 0.000120794284 -0.0012159934 0.0008277985 -0.00023704272 0.0002131688
0.000534269 0.0013541704 0.00089328544 4.4191256e-05 -0.00026112376 0.00044107693 0.00045155842 -0.0014154917
0.00047152932 -0.0009889104 -0.00016030704 -2.5462155e-05 -0.00051535247 -0.00070177513 -0.0009893577 0.00010318587
0.00014827326 -0.0006844008 0.00036412315 0.000823031 0.0008275097 -0.000109044835 0.0019044869 0.001421319
0.000509576 0.00033858718 0.0013904746 -0.0012497613 8.246387e-05 0.00014734911 4.245872e-05 0.0013570911
-0.0006426404 0.0002858775 0.000102631864 -0.0012086006 -0.00055696996 -0.0012417432 -0.0014211163 0.00021367367
-0.0011672337 0.0007643667 -3.8095168e-06 -0.00079028204 -0.0007366464 0.000625091 -0.00032268435 0.00020776752
6.9350353e-06 -0.00022192771 -0.00026430277 8.897681e-06 -4.0930212e-05 -3.85934e-05 -1.2487508e-06 0.00045342025
-0.0003756884 0.0008401227 -7.377914e-05 2.1706044e-05 -0.00046724413 -0.00017364672 -0.0001613936 -0.00040094863
-0.0005793785 -0.0017722959 0.00043672783 -0.00028967194 0.0006529816 2.5166257e-05 0.00047620013 0.0013398669
-0.000800697 -0.0010094347 0.0002769504 -0.0003299914 0.00068692275 -0.00061474467 -0.00065162353 0.0015815332
-0.0019004284 0.0007469262 0.0016997643 0.00013808467 0.0011567088 -0.0004203508 0.002662429 0.00077485945
0.007950376 -0.0020520994 0.0007345835 0.00035540998 -0.00027622483 0.00062890584 0.00068176934 -0.0007823258
-8.852058e-05 0.00048986165 0.00012891483 0.00064597966 -0.0005969043 -0.0019007985 0.0010483915 0.0005068575
-0.0010396536 0.00048308706 -0.0017394866 -0.0028239856 0.0011025715 0.00044547627 0.0007085806 6.904791e-05
-0.0006196562 -0.001065717 0.00066213624 0.001915297 0.00089669623 -0.000881284 -0.0013482535 -0.003580255
0.0020061966 0.00045136712 0.00047940543 0.00035866196 0.0017759848 0.003370577 -0.0012272052 -0.00088697637
0.00065305433 0.000406228 -0.00019388215 0.0016272203 -0.0010559745 0.002310578 0.0023424241 -0.0017472762
-0.0021571012 -0.0018297298 -0.00023412541 9.207928e-05 0.00091039366 -0.00073983043 0.0014673974 0.0010585922
-0.00073782774 -0.0017221919 -0.0010909188 0.00073329126 0.0017631635 0.0028424633 -0.0013223016 0.0014572688
0.00072539656 -0.00014747995 -0.00042552294 -0.00016613625 2.5157206e-05 0.00029160464 -0.0004413094 -0.0005775193
-0.00017204683 -0.00030025656 0.00019942006 -0.012037599 -0.023080394 0.008727316 -0.0048675044 -0.010038387
0.0050625736 0.0008674859 0.0017034645 -0.0011303346 -0.009508445 -0.010092699 0.0053624595 0.00039054314
-0.0009775385 -6.539401e-05 9.024371e-05 -0.0003086638 0.00016612283 -0.0004360237 0.0003052857 -0.0007930064
0.00014138257 -0.00012158288 0.0005359072 -0.00033764335 0.0004784598 6.5509754e-05 0.0009428891 0.0015172265
0.00023398135 -0.0010735266 -3.559806e-05 8.150257e-05 -0.0014132312 -0.003856952 0.002996747 0.0009820808
0.0019391284 0.0006413831 -0.0012677019 -0.0023896315 0.0018035747 -0.0012530057 -0.0011856782 0.0005405619
-5.927904e-05 -0.0014647639 0.00044872542 -0.0014308244 0.0002716773 -0.0011888351 -0.00040970283 0.001232493
-0.0003523391 0.00045682886 -0.00088915083 0.0011609677 -0.00016148794 0.00065168913 0.00092286867 0.00021638919
-0.0013935748 0.0009938657 0.0027959868 0.003763109 -0.00048017525 0.0007470198 0.00046875852 -2.4255773e-05
-0.00012315856 -0.0017561351 -0.0006559774 -0.00015569804 0.0003538223 -0.00049146265 -0.00060527277 0.0005811282
9.914548e-05 0.004259075 0.002829309 -0.00030311596 0.0002910319 -0.00057914044 0.00015642954 -0.0007855012
00000000: 20a9 a7b8 acbc 04ba 50a6 dab8 f052 fd38
00000010: f861 9fba 9e00 593a ac8e 78b9 1086 5f39
00000020: 300e 0c3a 6b7e b13a 5f2b 6a3a 005a 3938
00000030: 70e7 88b9 5840 e739 25bf ec39 0588 b9ba
00000040: 9837 f739 549e 81ba 1818 28b9 9097 d5b7
00000050: b818 07ba 55f7 37ba 56ad 81ba 7e65 d838
00000060: cd79 1b39 5c69 33ba c8e7 be39 adc0 573a
00000070: 3ced 583a 00af e4b8 fa9f f93a 8d4b ba3a
00000080: 1195 053a 6784 b139 9640 b63a 08cf a3ba
00000090: 74f0 ac38 ba81 1a39 b415 3238 6ce0 b13a
000000a0: de76 28ba d4e1 9539 103c d738 e869 9eba
000000b0: 9f01 12ba fdc1 a2ba c044 baba 970d 6039
000000c0: ddfd 98ba c85f 483a 00a7 7fb6 ee2a 4fba
000000d0: 811b 41ba 26dd 233a f62d a9b9 2bdc 5939
000000e0: 80b3 e836 44b5 68b9 1e92 8ab9 4047 1537
000000f0: 7bac 2bb8 59df 21b8 c09a a7b5 09b9 ed39
00000100: 0bf8 c4b9 ae3b 5c3a e0b9 9ab8 6015 b637
00000110: 72f8 f4b9 f014 36b9 c43b 29b9 6a36 d2b9
00000120: 6fe1 17ba 624c e8ba 9ef8 e439 1cdf 97b9
00000130: da2c 2b3a 201c d337 80aa f939 799e af3a
00000140: dee5 51ba 024f 84ba a733 9139 b202 adb9
00000150: 9b12 343a d126 21ba b7d1 2aba 734b cf3a
00000160: cc17 f9ba 5ecd 433a a0ca de3a d2ca 1039
00000170: b59c 973a 8862 dcb9 257c 2e3b f01f 4b3a
00000180: 4b42 023c 847c 06bb 1091 403a 5256 ba39
00000190: 45d2 90b9 28dd 243a c4b8 323a ff14 4dba
000001a0: 20a4 b9b8 0f6a 003a 502d 0739 f656 293a
000001b0: 9279 1cba 3724 f9ba 2e6a 893a a2de 043a
000001c0: fc44 88ba d946 fd39 7cff e3ba 9e12 39bb
000001d0: 2984 903a d08e e939 0ac0 393a d0cd 9038
000001e0: 6c70 22ba 87af 8bba 3693 2d3a b40a fb3a
000001f0: 4410 6b3a f805 67ba e1b7 b0ba b6a2 6abb
00000200: 657a 033b 78a5 ec39 b558 fb39 cb0a bc39
00000210: 29c8 e83a e6e4 5c3b 2cda a0ba fa83 68ba
00000220: bc31 2b3a 00fb d439 d84c 4bb9 7448 d53a
00000230: a068 8aba 116d 173b 5b83 193b dc04 e5ba
00000240: 275e 0dbb 8bd3 efba 907f 75b9 b01a c138
00000250: 7ca7 6e3a 2ef1 41ba b055 c03a 76c0 8a3a
00000260: c86a 41ba 2cbb e1ba 29fd 8eba 583a 403a
00000270: f319 e73a 9f48 3a3b 1451 adba d401 bf3a
00000280: 8a28 3e3a d9a4 1ab9 b918 dfb9 dc34 2eb9
00000290: b008 d337 83e2 9839 8c5f e7b9 aa64 17ba
000002a0: 7867 34b9 c16b 9db9 6a1b 5139 5a39 45bc
000002b0: 1813 bdbc 04fd 0e3c 967f 9fbb 0c78 24bc
000002c0: f2e3 a53b fe67 633a c946 df3a bc27 94ba
000002d0: 4fc9 1bbc d95b 25bc 92b7 af3b d0c1 cc39
000002e0: c020 80ba 2424 89b8 3941 bd38 27d4 a1b9
000002f0: 4231 2e39 1c9a e4b9 c10e a039 c2e1 4fba
00000300: 1840 1439 50fa feb8 207c 0c3a b905 b1b9
00000310: cad9 fa39 4862 8938 372c 773a acdd c63a
00000320: e458 7539 93b5 8cba 204f 15b8 5cec aa38
00000330: 2c3c b9ba ebc4 7cbb 1265 443b 2ab9 803a
00000340: 5a2a fe3a 7e22 283a 0429 a6ba 5d9b 1cbb
00000350: ed65 ec3a e53b a4ba c268 9bba 7fb4 0d3a
00000360: 62a2 78b8 52fd bfba e842 eb39 808a bbba
00000370: e96f 8e39 b0d2 9bba 62cd d6b9 9a8b a13a
00000380: 27ba b8b9 8882 ef39 e715 69ba 9d2b 983a
00000390: 1755 29b9 1ed6 2a3a abec 713a 88e6 6239
000003a0: 9ca8 b6ba 9944 823a e03c 373b 7e9e 763b
000003b0: 08c0 fbb9 a6d3 433a b4c3 f539 e078 cbb7
000003c0: 2024 01b9 1e2e e6ba e6f5 2bba e042 23b9
000003d0: 3a81 b939 80d5 00ba 2bab 1eba da56 183a
000003e0: 53ec cf38 b68f 8b3b ee6b 393b 89eb 9eb9
000003f0: a495 9839 75d1 17ba 3c07 2439 18ea 4dba

exp_avg_sq f4 [164, 3]
3.2147735e-05 6.582853e-05 1.878855e-05 4.4833814e-05 3.237443e-05 1.5551912e-05 5.7048688e-05 0.00010039143
5.6354744e-05 5.805981e-05 6.558815e-05 4.1290376e-05 9.240432e-05 0.00010817235 3.989082e-05 0.00013673744
9.624398e-05 9.55471e-05 0.0001604902 0.00013615306 8.344227e-05 0.000113272676 4.6073597e-05 5.506114e-05
2.9355693e-05 1.3285546e-05 1.1123482e-05 0.0001290103 0.00016868064 0.000105951774 0.00026414377 0.00013114282
0.00013722843 0.00012596884 0.000115772746 9.070495e-05 1.327094e-05 4.9219516e-06 2.5207273e-06 0.00010066595
5.402007e-05 2.9765728e-05 7.876563e-05 4.629368e-05 3.8055387e-05 0.00012458225 0.00013606204 6.0871367e-05
3.783936e-05 0.00010754869 3.903494e-05 4.6779456e-05 5.1128885e-05 2.1866032e-05 5.7317397e-05 1.1827183e-05
1.3003072e-05 0.00016915813 0.00045466842 0.0001239423 4.733427e-07 1.1145308e-07 2.5862205e-08 6.491261e-05
6.143044e-05 6.545485e-05 8.911752e-05 0.00022730626 5.0501825e-05 1.8918665e-05 6.201247e-05 1.6253915e-05
0.00014742468 8.902029e-05 6.2206156e-05 6.8873225e-05 7.200131e-05 3.0330391e-05 0.00017709467 0.000103338105
5.322509e-05 1.960478e-05 1.4209089e-05 5.179007e-06 0.00016115086 0.0003963747 8.527807e-05 0.00043173064
0.00047974955 0.000328755 0.00026181305 0.0001286355 0.00015548244 0.00039805836 0.0007395986 0.00013892315
0.0028249405 0.0023455934 0.0005991766 2.0394327e-05 3.1209827e-05 1.4648847e-05 0.00036497475 0.000265129
0.00015309796 2.9443572e-05 0.00013592152 6.4924934e-05 0.0001327726 9.343434e-05 6.55775e-05 7.4287105e-05
6.349351e-05 4.0740382e-05 5.8063313e-05 0.00017933968 3.76909e-05 0.00030684454 0.0007492797 0.00018430724
1.6789181e-05 2.491798e-05 1.3626324e-05 0.00019799084 0.00022538498 0.00019923062 5.789389e-05 0.00018065535
4.8386948e-05 0.00013325128 0.00010883647 4.732807e-05 0.00017013967 0.0002881891 5.6030305e-05 8.605717e-05
0.00058426487 0.00011122691 0.0001132625 4.676039e-05 7.0048285e-05 0.0001893646 0.0002051533 0.00014446983
0.00017011903 5.7371624e-05 4.9892737e-05 0.00010665343 9.8940356e-05 6.0986546e-05 5.0153332e-05 1.7759996e-05
1.171417e-05 3.9148137e-05 3.235017e-05 1.2452888e-05 5.6418558e-05 0.0003065713 7.014223e-05 5.0811817e-05
6.2802064e-05 2.0744546e-05 1.467588e-05 1.0138784e-05 5.9056115e-06 3.7120135e-05 7.087331e-05 5.1478433e-05
0.0001320214 0.00013321119 8.262807e-05 0.017250702 0.015812468 0.006442572 0.00039229426 0.0013274238
0.0002839748 4.9083155e-05 0.00017458302 8.5186606e-05 0.0022035528 0.0012173222 0.00056928024 0.0001587274
0.00017421754 9.24602e-05 4.540982e-05 1.8445893e-05 1.9984542e-05 3.8081624e-05 5.196084e-05 1.7430846e-05
8.9287765e-05 6.831412e-05 3.9896364e-05 2.0979345e-05 3.9536273e-05 1.0538025e-05 7.344839e-05 0.000113522576
6.988077e-05 0.0001637253 0.00011414754 6.787246e-05 0.00030224962 0.00036115147 0.00025875194 0.0009869633
0.000974739 0.0003799788 0.00012552488 0.00013364435 6.006662e-05 4.887787e-05 2.9139237e-05 1.7062981e-05
4.1300413e-05 0.00012661956 3.1179625e-05 0.0001467269 0.00014387148 9.391312e-05 7.686364e-05 6.599962e-05
5.7828795e-05 5.182476e-05 2.5126968e-05 1.8524797e-05 1.5044535e-05 4.9258557e-05 1.9760617e-05 0.00020356831
0.000121556965 0.00011416192 0.00024690037 0.00034971585 0.00017863564 0.0001102231 0.0004242605 0.00012930327
0.0006003529 0.0016918508 0.00041753586 4.8564434e-05 7.552495e-05 4.3441567e-05 4.514265e-05 7.659108e-05
3.471103e-05 0.00038487714 0.00065878406 0.0002161501 7.696682e-05 2.5465473e-05 2.1682306e-05 0.00015802207
00000000: 5ed6 0638 6c0d 8a38 1b9c 9d37 f10b 3c38
00000010: c8c9 0738 7a75 8237 9047 6f38 3d89 d238
00000020: 725e 6c38 3f85 7338 5f8c 8938 342f 2d38
00000030: 31c9 c138 97da e238 7150 2738 2d61 0f39
00000040: 98d6 c938 7560 c838 4349 2839 4fc4 0e39
00000050: bafd ae38 ce8c ed38 263f 4138 73f1 6638
00000060: df40 f637 fce4 5e37 fe9e 3a37 f046 0739
00000070: dddf 3039 6d32 de38 c77c 8a39 6283 0939
00000080: fae4 0f39 8116 0439 05cb f238 d938 be38
00000090: 41a6 5e37 3e27 a536 c429 2936 9f1c d338
000000a0: 9c93 6238 6ab1 f937 fa2e a538 762b 4238
000000b0: a99d 1f38 4ba2 0239 e0ab 0e39 2250 7f38
000000c0: b4b5 1e38 c38b e138 73b9 2338 0f35 4438
000000d0: 3973 5638 f26c b737 1668 7038 5d6d 4637
000000e0: c527 5a37 0a60 3139 9060 ee39 82f6 0139
000000f0: ba1f fe34 fb57 ef33 9727 de32 b121 8838
00000100: 37d4 8038 ce44 8938 9be4 ba38 0f59 6e39
00000110: ecd1 5338 86b3 9e37 b10c 8238 0459 8837
00000120: 0396 1a39 67b0 ba38 ad74 8238 0870 9038
00000130: 69ff 9638 056e fe37 7db2 3939 39b7 d838
00000140: 013e 5f38 f274 a437 9363 6e37 55c7 ad36
00000150: 9bfa 2839 83d0 cf39 51d7 b238 e859 e239
00000160: e586 fb39 c05c ac39 f443 8939 54e2 0639
00000170: 0009 2339 7db2 d039 9fe1 413a e6ab 1139
00000180: a322 393b 87b8 193b 1012 1d3a 7c14 ab37
00000190: 4ce7 0238 52c4 7537 155a bf39 0301 8b39
000001a0: ec88 2039 97fd f637 2886 0e39 4f28 8838
000001b0: e038 0b39 2ef2 c338 a786 8938 96ca 9b38
000001c0: d227 8538 a7e0 2a38 0289 7338 210d 3c39
000001d0: 4c16 1e38 fadf a039 4f6b 443a 9942 4139
000001e0: 7ed6 8c37 f406 d137 9e9c 6437 c39b 4f39
000001f0: 5255 6c39 90e8 5039 17d3 7238 4d6e 3d39
00000200: 17f3 4a38 5eb9 0b39 233f e438 2182 4638
00000210: 8567 3239 1618 9739 1502 6b38 9779 b438
00000220: 5a29 193a 7e42 e938 5787 ed38 9620 4438
00000230: e3e6 9238 2c90 4639 6b1e 5739 d37c 1739
00000240: fb61 3239 50a2 7038 eb43 5138 20ab df38
00000250: 337e cf38 cecb 7f38 bb5b 5238 4dfb 9437
00000260: fa87 4437 fe32 2438 bbaf 0738 bfec 5037
00000270: f7a2 6c38 4ebb a039 5319 9338 c61e 5538
00000280: 9ab4 8338 9304 ae37 6d38 7637 bf19 2a37
00000290: d128 c636 71b1 1b38 d2a1 9438 8cea 5738
000002a0: 3a6f 0a39 9bae 0b39 9b48 ad38 5851 8d3c
000002b0: 2689 813c 361c d33b d8ac cd39 f4fc ad3a
000002c0: 74e2 9439 a3de 4d38 4610 3739 36a6 b238
000002d0: 7b69 103b 8e8e 9f3a c03b 153a 1070 2639
000002e0: 2aae 3639 31e7 c138 6c76 3e38 41bc 9a37
000002f0: 7aa4 a737 d5b9 1f38 87f0 5938 7538 9237
00000300: 0140 bb38 dd43 8f38 6556 2738 cdfc af37
00000310: c0d3 2538 79cc 3037 4e08 9a38 f812 ee38
00000320: f48c 9238 adad 2b39 7e62 ef38 c056 8e38
00000330: 4277 9e39 ee58 bd39 19a9 8739 fe5c 813a
00000340: a185 7f3a e437 c739 549f 0339 e222 0c39
00000350: 0bf0 7b38 3702 4d38 0970 f437 7922 8f37
00000360: fb39 2d38 2ec5 0439 dec6 0238 b4da 1939
00000370: 35dc 1639 39f3 c438 da31 a138 4769 8a38
00000380: 328d 7238 6a5e 5938 c1c7 d237 b365 9b37
00000390: c967 7c37 f99a 4e38 9ac3 a537 f474 5539
000003a0: 66ec fe38 376a ef38 6872 8139 115a b739
000003b0: 2450 3b39 9427 e738 486f de39 9595 0739
000003c0: 0061 1d3a 18c1 dd3a b7e8 da39 aab1 4b38
000003d0: 2663 9e38 0735 3638 8d57 3d38 869f a038
000003e0: af96 1138 56c9 c939 40b2 2c3a 5aa6 6239
000003f0: 3f69 a138 b09e d537 66e2 b537 bab2 2539

exp_avg f4 [164]
-9.478881e-06 9.635547e-05 0.00012375039 2.243146e-05 2.1255935e-05 -0.00015146883 5.9199112e-05 -1.6061831e-06
2.7030666e-05 0.00010127603 0.00014882174 0.00020609147 4.0603936e-06 7.849021e-05 -0.000116196126 4.390419e-05
8.53563e-06 8.639926e-05 -9.13779e-06 -4.4484776e-05 -4.730306e-06 0.00021286619 -9.798909e-05 -5.1354866e-05
4.1204396e-05 5.2350515e-06 -3.8242455e-05 -4.207568e-05 7.2167823e-06 0.00026443327 0.0003074986 8.9460154e-05
0.000406593 0.00012207999 3.7312493e-05 8.78404e-05 0.00018499105 6.199861e-05 0.000113608265 0.00014170853
0.00014808567 -0.00011201394 0.00022692431 3.3980326e-05 -4.143965e-05 9.998119e-05 -0.000110453584 -0.0001004239
-9.627924e-05 -0.00011092223 -2.8972907e-05 7.455107e-05 -9.5155396e-05 2.8326449e-05 -5.7050675e-06 -5.2932483e-05
2.3213146e-05 0.00031500368 0.00052132405 -0.00020557744 0.00043746235 -3.595648e-05 1.1137656e-05 -0.00016488694
-9.090256e-06 4.129126e-05 -3.0659183e-05 -3.1700853e-05 9.326725e-05 -0.0001280154 0.00020676159 5.20402e-05
-1.5398873e-05 -0.0004313546 -9.019955e-05 0.00021868691 0.000133322 0.00013284164 9.1396985e-05 0.00013071657
-0.0002481739 -0.00015649514 -0.00013514308 0.00031645293 2.7650298e-05 -0.0002690148 6.6393564e-05 -3.158481e-05
-3.9897557e-05 0.00017478885 -7.358882e-05 0.00020716025 -1.9671597e-05 0.00011327885 -7.175742e-06 -5.5414188e-05
0.00016926925 0.00016725503 -1.8885712e-05 8.9964684e-05 -4.380177e-05 -2.9086601e-05 1.2311852e-05 0.00010021594
-2.9449191e-05 0.0002886222 -0.00016775301 0.00010218653 -0.00013415868 0.00013389261 -2.2445893e-05 6.0716575e-05
0.00015242389 0.0002080953 5.8418664e-06 -2.9814519e-05 4.1107713e-05 0.00017578705 2.8528739e-06 -2.1017819e-05
-3.551395e-07 -1.3179451e-06 7.2432813e-06 5.31891e-05 9.927846e-05 -7.6409415e-05 3.5919187e-05 -0.0003449119
7.8490855e-05 6.689431e-05 -0.00010928877 -0.00011152587 -5.026308e-05 5.734084e-06 8.1710095e-06 -1.4620786e-05
0.000109293804 6.60287e-05 5.8685495e-05 -0.00014878067 7.043881e-05 3.742922e-05 6.45339e-05 2.5701956e-05
3.1318217e-05 -6.745255e-05 1.2838376e-05 7.360687e-05 -5.1411025e-06 1.0985059e-05 -4.03769e-05 5.080596e-05
-0.00017467771 -0.00043359422 -0.000211622 5.1647872e-05 7.561138e-05 6.366504e-05 -0.00022174993 -0.0004899654
8.956257e-05 4.775951e-05 6.319316e-05 -1.3542725e-05
00000000: 7c07 1fb7 7312 ca38 fec2 0139 322b bc37
00000010: c64e b237 9bd3 1eb9 904c 7838 0894 d7b5
00000020: eabf e237 2864 d438 080d 1c39 421a 5839
00000030: 843e 8836 1c9b a438 52ae f3b8 c425 3838
00000040: 4034 0f37 4031 b538 824e 19b7 2a95 3ab8
00000050: 05b9 9eb6 d534 5f39 7e7f cdb8 de65 57b8
00000060: e2d2 2c38 c0a8 af36 8666 20b8 6b7a 30b8
00000070: b027 f236 a2a3 8a39 c337 a139 8e9c bb38
00000080: fd2b d539 9902 0039 fc7f 1c38 f536 b838
00000090: 28fa 4139 4005 8238 f940 ee38 9897 1439
000000a0: 7247 1b39 07e9 eab8 88f2 6d39 1986 0e38
000000b0: 7ccf 2db8 feac d138 51a3 e7b8 ac9a d2b8
000000c0: 86e9 c9b8 eb9e e8b8 d80a f3b7 4d58 9c38
000000d0: 2a8e c7b8 969e ed37 286e bfb6 d203 5eb8
000000e0: dab9 c237 1427 a539 77a9 083a 4690 57b9
000000f0: 345b e539 facf 16b8 dedb 3a37 80e5 2cb9
00000100: 5a82 18b7 2730 2d38 0c98 00b8 88f6 04b8
00000110: 7998 c338 df3b 06b9 24ce 5839 bd45 5a38
00000120: d42c 81b7 6f27 e2b9 8429 bdb8 524f 6539
00000130: 5acc 0b39 684b 0b39 62ac bf38 f610 0939
00000140: 561d 82b9 d818 24b9 32b5 0db9 98e9 a539
00000150: 90f2 e737 8e0a 8db9 c63c 8b38 ee79 04b8
00000160: ad57 27b8 8647 3739 b253 9ab8 2839 5939
00000170: 6f04 a5b7 1f90 ed38 28c7 f0b6 886c 68b8
00000180: de7d 3139 2e61 2f39 c26c 9eb7 6cab bc38
00000190: cbb7 37b8 00ff f3b7 008f 4e37 062b d238
000001a0: a809 f7b7 3752 9739 dbe6 2fb9 fa4c d638
000001b0: f2ac 0cb9 8665 0c39 304a bcb7 eda9 7e38
000001c0: fad3 1f39 2834 5a39 4005 c436 311a fab7
000001d0: 126b 2c38 7a53 3839 0074 3f36 6c4f b0b7
000001e0: 00aa beb4 40e4 b0b5 500b f336 5c17 5f38
000001f0: b833 d038 fe3d a0b8 efa7 1638 4bd5 b4b9
00000200: 759b a438 9c49 8c38 f631 e5b8 ffe2 e9b8
00000210: 92d1 52b8 6867 c036 3816 0937 cc4b 75b7
00000220: aa34 e538 e378 8a38 1225 7638 0202 1cb9
00000230: 8cb8 9338 52fd 1c38 6056 8738 889a d737
00000240: ae5b 0338 5075 8db8 6864 5737 635d 9a38
00000250: bc81 acb6 784c 3837 5e5a 29b8 7c18 5538
00000260: b129 37b9 0854 e3b9 d9e6 5db9 7ba0 5838
00000270: 8d91 9e38 e883 8538 8b85 68b9 0571 00ba
00000280: 8ad3 bb38 6251 4838 9286 8438 9035 63b7

exp_avg_sq f4 [164]
2.6303132e-07 2.1955961e-07 7.8558696e-07 5.6357777e-07 5.510199e-07 1.3177947e-06 1.142158e-06 7.527227e-07
1.5554474e-07 1.4584774e-06 1.8764389e-06 1.3347947e-06 3.4206046e-08 4.0972256e-07 5.180731e-07 8.284365e-07
5.4804264e-07 3.1242763e-07 1.8119214e-07 1.6725293e-06 5.081126e-10 9.3583594e-07 7.0546054e-07 2.2846724e-07
8.4419304e-07 4.199322e-07 7.657653e-07 7.546676e-08 1.1246761e-06 4.537136e-06 2.220821e-06 1.9511672e-06
7.994414e-06 2.1405073e-07 2.1178557e-06 9.1411243e-07 8.9298703e-07 5.6571963e-07 5.2243934e-07 2.4490018e-06
1.9637908e-07 2.7377191e-06 6.595647e-07 6.47524e-07 7.5019517e-07 1.4945342e-06 1.0039236e-06 1.9968043e-06
6.8959383e-07 8.6569827e-07 1.5839204e-07 1.6978744e-07 9.4015587e-07 2.823269e-07 8.2779835e-08 7.174714e-07
1.1310161e-06 8.684329e-05 3.8408007e-06 1.2065743e-06 7.6058054e-06 1.2786776e-06 2.746799e-07 2.497585e-07
5.5297306e-07 1.4440921e-07 9.740332e-07 9.284739e-07 3.6133054e-06 5.075837e-06 8.180884e-07 2.3313957e-07
4.2700376e-07 1.3963653e-06 8.010708e-07 2.7439512e-07 2.790448e-07 1.5712085e-06 2.4444455e-06 1.7889648e-06
5.6015256e-06 6.095886e-07 4.9751173e-07 3.020023e-06 3.064107e-07 6.989911e-07 5.074499e-07 1.1377123e-06
5.647779e-07 7.6131386e-07 1.272175e-06 5.212692e-07 1.7318533e-07 1.1246924e-06 4.566654e-07 3.571043e-06
3.0783356e-06 4.6916787e-07 3.795245e-07 1.4249244e-06 1.9147278e-07 4.031969e-07 4.980662e-07 4.84887e-07
4.1886136e-07 4.759478e-06 1.6009516e-06 5.415507e-07 6.7366096e-07 4.200086e-07 3.428712e-06 8.218457e-08
2.763525e-07 1.5234467e-06 7.4031703e-07 6.5483493e-07 1.373228e-06 2.3349307e-06 1.0242051e-06 2.5431152e-07
2.333971e-06 1.962472e-07 3.9106186e-07 4.7081753e-07 2.886609e-06 8.40206e-07 1.4832739e-07 7.265658e-07
3.482449e-06 1.9152528e-06 2.6456562e-06 5.0105507e-07 8.0193803e-07 1.5474133e-07 2.3470476e-07 5.598313e-07
4.0463095e-07 4.5157188e-07 5.5295504e-07 3.6723915e-07 1.3526105e-07 1.3310418e-07 6.9807686e-07 1.8788757e-06
9.583323e-07 1.0414726e-06 3.6805906e-07 2.9306816e-06 1.0090519e-06 2.3792508e-07 6.8943116e-08 2.3743883e-06
1.484451e-06 7.1963154e-06 1.7629934e-06 3.170413e-08 2.1456838e-06 1.602952e-07 5.8901514e-07 2.1089209e-05
1.7170235e-07 2.1373799e-07 6.75974e-08 6.1288995e-07
00000000: c036 8d34 16c0 6b34 20e1 5235 c548 1735
00000010: cde9 1335 15df b035 404c 9935 b60e 4a35
00000020: d003 2734 e7c0 c335 f3d9 fb35 3227 b335
00000030: f2e9 1233 d7f7 db34 b611 0b35 b961 5e35
00000040: 341d 1335 babb a734 b78d 4234 ab7b e035
00000050: 3fab 0b30 2836 7b35 e15e 3d35 9950 7534
00000060: 819c 6235 0b73 e134 fe8e 4d35 4a10 a233
00000070: 94f3 9635 b43d 9836 6a09 1536 ccf0 0236
00000080: bf1f 0637 d1d5 6534 7c20 0e36 5461 7535
00000090: 9ab5 6f35 f5db 1735 c23d 0c35 8859 2436
000000a0: 45dc 5234 a8b9 3736 f10c 3135 83d1 2d35
000000b0: 0561 4935 ce97 c835 8dbe 8635 d600 0636
000000c0: 871c 3935 5562 6835 7912 2a34 d14e 3634
000000d0: 055f 7c35 b792 9734 b2c4 b133 4298 4035
000000e0: 6bcd 9735 a31f b638 3ae0 8036 94f1 a135
000000f0: 5f35 ff36 079f ab35 b877 9334 8c16 8634
00000100: 0570 1435 e70e 1b34 87bb 8235 3e3c 7935
00000110: 1d7c 7236 1c51 aa36 9b9a 5b35 eb54 7a34
00000120: f33e e534 bf6a bb35 2b09 5735 9450 9334
00000130: a0cf 9534 50e2 d235 410b 2436 5d1c f035
00000140: bdf4 bb36 9ca2 2335 bf8c 0535 9aab 4a36
00000150: c480 a434 4da2 3b35 b137 0835 7fb3 9835
00000160: 3e9b 1735 175d 4c35 9abf aa35 59ed 0b35
00000170: d2f4 3934 23f4 9635 9d2b f534 0da6 6f36
00000180: 6795 4e36 f1e1 fb34 73c1 cb34 0840 bf35
00000190: a397 4d34 f676 d834 d9b2 0535 2e29 0235
000001a0: dedf e034 9bb3 9f36 47e0 d635 155f 1135
000001b0: a1d5 3435 8b7d e134 d318 6636 727d b033
000001c0: 995d 9434 3b79 cc35 33ba 4635 eac7 2f35
000001d0: c14f b835 ceb1 1c36 6b77 8935 4f88 8834
000001e0: 51a1 1c36 05b8 5234 22f3 d134 abc4 fc34
000001f0: 91b7 4136 848a 6135 ec43 1f34 3909 4335
00000200: 05b4 6936 cb87 0036 078c 3136 3e80 0635
00000210: c344 5735 f926 2634 2703 7c34 5047 1635
00000220: 0e3c d934 916f f234 c86e 1435 f728 c534
00000230: 463c 1134 66eb 0e34 7a63 3b35 ad2d fc35
00000240: 0ca0 8035 bac8 8b35 a799 c534 baac 4436
00000250: c26e 8735 5978 7f34 e10d 9433 ae57 1f36
00000260: 593d c735 e177 f136 fe9f ec35 0f2b 0833
00000270: 91fe 0f36 9c1d 2c34 d01c 1e35 bbe8 b037
00000280: 2f5d 3834 da7f 6534 102a 9133 7a85 2435
