docs/smld/lightning_logs/version_75/checkpoints/epoch=49-step=4900.ckpt (torch, 344011 bytes, 18 tensors)

ms.layers.0.weight f4 [164, 2]
000000 0c cf 0e bf b3 5f 02 bf 62 14 a9 be 3d c0 c9 bc
       -0.5578468 -0.50927275 -0.33023363 -0.0246278
000010 46 28 05 bf 53 d5 71 3e 28 91 cf be 39 9c 3d be
       -0.5201458 0.23616533 -0.40540433 -0.18516625
000020 78 f6 6c be 3d 50 23 3e 11 1f eb 3e 30 ff 4e 3e
       -0.23140895 0.15948577 0.4592214 0.20214534
000030 48 6d bf be ad 82 9d 3e 19 43 c8 3e 8a 19 d2 3e
       -0.37388062 0.3076376 0.3911369 0.4103511
000040 0e 79 05 3e 91 70 ad be 76 58 9f 3e fd c5 d4 be
       0.1303446 -0.33874944 0.31122178 -0.41557303
000050 4d 7a 0d be 00 bd d1 3e 24 42 11 3e 39 88 09 bf
       -0.13816185 0.40964508 0.14185387 -0.53723484
000060 c4 86 8a be f0 47 62 be e4 b4 93 3e 67 16 66 bd
       -0.27055943 -0.22097754 0.28848946 -0.05617371
000070 f2 c4 67 be ee 67 d6 3e 01 92 21 bf 7a 1e 32 bd
       -0.22633722 0.41876167 -0.6311341 -0.043486096
000080 aa 41 ab be 6d 95 b9 3e bb 1c 57 3e d8 41 bb 3e
       -0.33448535 0.36246815 0.21007054 0.36573672
000090 65 63 fd be e2 3f db 3c c4 62 23 bd f9 19 72 3e
       -0.49489895 0.02676386 -0.039889112 0.2364272
0000a0 b7 bb ed 3e e1 fc 93 3e d6 9b f9 bd a7 cf 02 bf
       0.46432278 0.2890387 -0.121879265 -0.510981
0000b0 35 76 c6 be 3d d0 1e 3f 70 b8 93 3c c1 44 08 3f
       -0.3876206 0.62036496 0.018032283 0.5322991
0000c0 15 f5 c2 be 67 0b 23 bf d2 57 dd 3e 36 c7 df 3d
       -0.38077608 -0.63689274 0.43231064 0.10926668
0000d0 67 d9 af 3e c6 22 09 3f dd b5 35 bc 12 bb 0a 3f
       0.34345552 0.53568685 -0.011090723 0.54191697
0000e0 2a 2e 5c 3e 89 12 0c be e6 51 ee bd bd 93 41 3e
       0.21501985 -0.13678946 -0.11636715 0.18904014
0000f0 e1 ce 0a 3f 34 40 20 be 95 b8 b2 3e ff fd 20 3e
       0.5422192 -0.15649492 0.3490645 0.15721892
000100 81 29 89 3e 16 90 10 bf 3a 37 f5 3c 0d 80 ed 3e
       0.26789477 -0.5646986 0.02993356 0.46386757
000110 01 1f 36 be 02 d2 e5 bd bf da 89 3e 32 78 1a bf
       -0.17785265 -0.112216964 0.26924703 -0.60339653
000120 84 61 11 3e ee cb 69 3e ee 91 1d 3e 77 1f db be
       0.14197356 0.22831699 0.15387699 -0.42797443
000130 4d d9 71 be e8 38 a7 3c de af 11 be 17 77 f9 3e
       -0.2361805 0.020412877 -0.14227244 0.4872367
000140 c5 d0 c8 be bb 4a e4 3b b0 43 00 bf e2 62 86 3d
       -0.3922178 0.0069669164 -0.5010328 0.06561829
000150 59 a3 fd be 44 f3 d3 be b4 05 bf be 2a 97 8b 3e
       -0.49538687 -0.41396534 -0.3730904 0.27263767
000160 e4 ee e4 3d b6 97 3a be d6 a2 d6 be 67 0c 8a 3e
       0.11178377 -0.18221936 -0.4192111 0.26962587
000170 1d 54 0a 3e 34 08 0f bd d7 b0 01 3e e8 c7 d0 3e
       0.13508649 -0.034919932 0.12665115 0.40777516
000180 e2 1e a5 be 49 98 92 3d b7 23 11 bd 6c 28 0a bf
       -0.32250124 0.07157952 -0.03543445 -0.5396793
000190 2f 16 20 bf 78 27 2a bd f5 38 37 3d 59 7b 84 be
       -0.6253385 -0.041541547 0.044732053 -0.25875357
0001a0 31 ed 26 3f 45 99 a8 be f7 3f f0 3c a4 ce 76 3e
       0.65205675 -0.32929435 0.029327376 0.24102265
0001b0 0d 8b 2d bf d4 47 43 3e 57 e9 85 3e f6 9d 8a be
       -0.677903 0.19070369 0.26154587 -0.2707364
0001c0 41 57 64 be 7c ae ae be 9e b6 98 3e aa 73 5a bd
       -0.2229891 -0.34117496 0.29826826 -0.053332962
0001d0 22 39 be 3e 9c 59 5a 3d 92 19 8a 3e a3 eb a5 3a
       0.37152964 0.053308114 0.26972634 0.0012658726
0001e0 4a af 9b 3d 76 47 8c be b1 30 0c 3f c6 10 0a 3e
       0.07601793 -0.2739827 0.547618 0.13482961
0001f0 88 b3 9c 3e f1 71 52 3d 5a cc 20 3d 1d fd 68 3e
       0.3060572 0.051378194 0.039257385 0.22752805
000200 d1 4a 9c 3d e5 b7 21 3e 74 57 e4 3e 95 09 79 be
       0.076314576 0.15792806 0.4459797 -0.24320062
000210 24 c8 24 be 52 84 bb 3e 60 93 04 3f 78 45 4b 3d
       -0.16091973 0.3662439 0.51787376 0.049626797
000220 84 89 e8 be 48 04 09 3f 28 50 a6 3d 4b 6b 15 bf
       -0.45417416 0.5352216 0.08120757 -0.5836684
000230 13 0c 1d bf b0 7a 9a be 50 3f 15 bf dc c5 03 bf
       -0.6134655 -0.30171728 -0.5829973 -0.51473784
000240 9d c2 d9 3d c0 5f 4f 3e 65 96 9e be 05 12 30 bd
       0.10632823 0.2025137 -0.30974117 -0.042985935
000250 77 a2 10 bf b9 93 27 bf 25 7f cc 3e 36 be 01 bc
       -0.564979 -0.6545978 0.39940754 -0.007918885
000260 a1 ea 16 bf 16 9c 2a be ef d4 bb be 84 46 5b bd
       -0.58951765 -0.16661105 -0.36685893 -0.053534046
000270 94 23 ca 3e c5 2f a4 3e b8 37 7d be 2c 6d 40 3e
       0.3948027 0.32067695 -0.24728286 0.18791646
000280 39 17 c3 be dc de c4 bd 5b b0 84 3e 37 4d 8f 3e
       -0.38103655 -0.096128196 0.259158 0.27988598
000290 ee 19 9e 3e ab 10 08 bd 25 76 ad be aa 8f 9c 3d
       0.30879158 -0.03321902 -0.338792 0.07644589
0002a0 f7 29 5b bd b8 b5 db bd 86 c3 0d bf 9b 1d 5a 3e
       -0.053506818 -0.107280195 -0.5537647 0.21300356
0002b0 b4 cc 26 bf 49 5a 8c be e3 20 af 3e b0 51 93 3e
       -0.651561 -0.27412632 0.34204778 0.2877326
0002c0 1b 90 d6 be ea 4c 8d 3e 93 02 2b be 28 f4 2f be
       -0.4190682 0.27597743 -0.167002 -0.17182982
0002d0 38 c2 b9 bc 6f f9 1c bf 7e c8 a5 bd b7 a6 94 bd
       -0.022675619 -0.61318105 -0.080948815 -0.07258361
0002e0 d3 88 22 bf 59 da 00 3f 81 86 92 3e d2 88 cd be
       -0.6349003 0.5033317 0.28618243 -0.40143448
0002f0 44 40 36 3e f1 59 4f 3e 50 8f 13 3f d9 d8 af be
       0.17797953 0.20249154 0.5764055 -0.3434513
000300 28 d3 e5 3e 75 1d e5 be ed ca e8 3e 2c 4f cf be
       0.44887662 -0.44749036 0.4546732 -0.4049009
000310 7e 59 67 be b0 20 af bd a4 84 b2 be 38 f4 1f be
       -0.22592732 -0.085511565 -0.34866822 -0.15620506
000320 86 b5 19 3f 0c 53 11 bf 11 f5 a9 3e d5 88 a6 3e
       0.6004261 -0.56767344 0.33194783 0.3252627
000330 75 01 0c 3f b9 0a d6 be f9 b1 06 3f 50 95 14 bf
       0.54689723 -0.41805056 0.52615315 -0.5804033
000340 13 51 2f 3e 66 fe 6a 3e 24 46 af be ab e1 e1 3e
       0.17120771 0.22948608 -0.342332 0.44117483
000350 cb 3f e5 3e 63 74 21 be 00 c9 d4 bc 88 74 cb 3d
       0.44775233 -0.15767054 -0.02597475 0.09934336
000360 40 ff 5a 3d 46 1b e5 be 5a 4f 1a 3f e3 dc a1 be
       0.05346608 -0.4474737 0.6027733 -0.31613836
000370 b4 64 48 3d 5e 8a 6c 3e d1 32 25 be 5d 39 29 be
       0.048924163 0.23099658 -0.16132666 -0.16525789
000380 d6 3a bf 3e 9c 12 af bd 7d e8 5b 3e 3e 44 cb be
       0.37349576 -0.08548471 0.21475406 -0.39700502
000390 7d e6 f6 3e e2 77 ee 3e 66 df 70 be f0 0b 78 be
       0.48222724 0.46575838 -0.2352272 -0.24223304
0003a0 0a 93 bf be eb b1 a0 be f7 1e a6 3e cd b5 9b 3d
       -0.3741687 -0.3138574 0.324455 0.07603035
0003b0 a8 95 7a bd c5 c3 0f bf b8 c7 c5 3d e8 e8 ad be
       -0.06117788 -0.56158096 0.09657234 -0.33966756
0003c0 dd 90 ed 3e 04 79 9b be 65 44 e9 be ed cb 93 bd
       0.46399584 -0.30365765 -0.45559993 -0.0721663
0003d0 1d 39 82 bd 9d aa 10 3f 19 7a 26 3f 50 c3 9e bd
       -0.0635855 0.56510335 0.65030056 -0.07752097
0003e0 2d b5 a6 3e 67 73 ae 3e 4e 8a 05 bf cb 30 d4 3e
       0.325601 0.3407242 -0.5216416 0.41443476
0003f0 c7 50 84 3e fc 95 79 3c e8 0d 02 be 18 b6 92 be
       0.25842878 0.015233513 -0.12700617 -0.28654552

ms.layers.0.bias f4 [164]
000000 9f 9c 20 3f 99 c5 1a be 68 d0 2d 3e b2 d2 e0 3e
       0.62738985 -0.1511444 0.16974032 0.43910748
000010 34 b2 6f bf 0c fa 7e bf 7a 26 35 3f 9a 0e 82 3e
       -0.9363129 -0.9960029 0.70761836 0.25401765
000020 82 63 9e be 22 f1 62 3f 16 45 90 3f fe 1e 1f 3f
       -0.30935293 0.8864919 1.1271083 0.62156665
000030 5d 12 43 bf 35 af 9e 3f ef b5 51 3f ea 8f 5c bf
       -0.76199895 1.2397219 0.81918234 -0.86157095
000040 a0 74 82 bf 4c 2b 07 bf f4 a5 f2 be 72 03 83 3f
       -1.0191841 -0.5280044 -0.47392237 1.0235426
000050 01 3a 9f bf 46 db 6a bf be 3d 49 bf 62 4f 80 bf
       -1.2439576 -0.91740835 -0.78609836 -1.0024226
000060 70 3b 51 bf ec 10 6b 3f cc 42 8f bf 8b 56 8c 3f
       -0.8173132 0.91822696 -1.119226 1.0963911
000070 0b 37 a8 3f e8 22 38 bf 5c 87 69 3f f3 cb 08 3e
       1.3141798 -0.7192826 0.91222167 0.1335905
000080 61 a0 93 bf 53 8a 45 bf 0b f8 a1 3f 0d 49 17 bf
       -1.1533319 -0.7716419 1.2653822 -0.5909584
000090 aa af 83 bf 6f fd 7f bf 37 53 92 3e e2 a4 b2 3c
       -1.0287983 -0.99996084 0.28579113 0.021807138
0000a0 99 fd e1 be e6 81 71 bf bf 0d ee be a0 f9 30 3f
       -0.44138792 -0.94338834 -0.46494862 0.691309
0000b0 65 cb 52 3f ac db a2 3e be d3 90 3f cb fb 5f bf
       0.82341605 0.3180822 1.1314619 -0.8749358
0000c0 15 b1 04 3f b9 9e a1 bd a9 51 82 3f 82 57 14 3f
       0.51832706 -0.07891602 1.0181171 0.57946026
0000d0 5a 7f 4c bf a5 62 96 bc 0c 26 35 bf e7 c8 89 bf
       -0.79881823 -0.018357584 -0.7076118 -1.0764436
0000e0 68 6f 36 3f 47 21 b0 3f a5 cc 5f bf 6f d0 a2 3f
       0.7126374 1.3760155 -0.8742164 1.2719859
0000f0 2e 00 15 bf 42 64 1e 3e c1 2a 54 be 6e 47 7f 3f
       -0.582034 0.15467933 -0.20719434 0.9971837
000100 41 9a da bd 28 a2 bb bf 87 c9 0a 3f 77 46 bd 3f
       -0.10673953 -1.4658861 0.54213756 1.4787129
000110 96 b9 4a bf 3e 40 87 3e b9 9b 74 3f 9e a2 ca 3e
       -0.7918943 0.264162 0.95550114 0.39577192
000120 eb 1d 4d bf 4b 0b d6 3c b4 3d 05 bf 32 6a a9 3f
       -0.80123776 0.026128432 -0.52047276 1.3235533
000130 21 2e da be d1 18 7f bf bc 00 9a bf ad 6f 08 bf
       -0.4261332 -0.9964724 -1.2031474 -0.53295404
000140 8d 62 0b bf 4a 4d 33 bf 70 78 86 bf 94 43 b0 3e
       -0.5444725 -0.7003981 -1.0505505 0.34426558
000150 ae 82 b1 3f 29 66 34 3f 36 f3 1c bf a7 a1 6d be
       1.3868005 0.70468384 -0.6130861 -0.23206197
000160 83 df ca be 18 08 8d 3f db 86 45 bf fa 72 e9 3f
       -0.3962365 1.1018095 -0.771589 1.8238213
000170 3a 33 a8 bc 1e de f4 3e f5 4c 7f bf 4f dd 8f bf
       -0.02053224 0.47825712 -0.997268 -1.1239413
000180 b7 fa 03 bf ef 93 6f 3f 42 2b 94 3e b3 83 15 3e
       -0.51554435 0.93585104 0.28939253 0.1460102
000190 f9 b4 a4 bf 2c 20 4a 3f 41 8c d1 3e f4 6b 8d bf
       -1.2867728 0.7895534 0.40927318 -1.104857
0001a0 d6 04 27 bf cc a7 63 3e b2 e5 44 bf 0a 5b 38 3f
       -0.65241754 0.22231978 -0.7691299 0.72013915
0001b0 48 dc 96 bf 3a 9b 58 bf e4 70 5e bd 97 be df be
       -1.1785975 -0.84611857 -0.05430688 -0.43700096
0001c0 cb fc 7d 3f 98 45 6e 3f cf d4 09 3f 78 44 b6 be
       0.99213856 0.9307494 0.53840345 -0.35599113
0001d0 07 b0 85 3f 26 ff 7f bf e7 2e 4c bf 1e bf 61 bf
       1.0444344 -0.999987 -0.7975907 -0.88182247
0001e0 1b 16 9b 3f 12 5b 0a bf b0 15 d1 3c ae b6 a3 bf
       1.2116121 -0.5404521 0.025523037 -1.2790124
0001f0 dd 1e 86 3f 2c 14 08 be 33 20 5e bf 2a 1b 77 bf
       1.0478169 -0.13288945 -0.8676788 -0.96525824
000200 e2 ca 84 bf 0a 4d 89 bf 56 f4 84 bf 0d 32 86 3f
       -1.0374415 -1.0726635 -1.0387065 1.0484024
000210 e6 80 30 3f 5a 1f de be f9 fa 8a bf e9 bf 94 bf
       0.68946683 -0.43383294 -1.0857841 -1.1621066
000220 14 d3 24 3f 3f 26 2c bf ca 8c 40 bf 91 08 81 bf
       0.6438458 -0.6724586 -0.7521483 -1.0080739
000230 51 b4 2d 3f 19 2f 79 3f 38 58 2a bf ff 50 90 be
       0.67853266 0.9733749 -0.6654086 -0.28186795
000240 37 67 3d 3f 41 83 76 3f b1 84 3a 3f d1 14 68 bf
       0.7398562 0.9629403 0.7285872 -0.90656763
000250 15 5b 3f 3f 28 a5 3b 3f 03 ee da 3e 5d cf 8c bf
       0.74748355 0.73298883 0.42759714 -1.1000782
000260 c0 3d 94 bf 2f c9 f6 be fc a4 84 3f f3 dd 77 3e
       -1.1581345 -0.48200366 1.0362849 0.2420576
000270 da e9 21 3f e5 2b 6e bf f9 b1 63 3f a4 d7 12 3f
       0.63247454 -0.9303573 0.8894344 0.5736029
000280 ca 22 22 bf 02 04 2a 3e 19 5d 08 bf 47 09 80 bc
       -0.63334334 0.16603091 -0.53267056 -0.015629424

ms.layers.2.weight f4 [164, 164]
000000 aa 80 6b 3d f2 d9 94 bc 85 bc 97 3d 52 ff 8e 3d
       0.05749575 -0.01817033 0.07409004 0.06982292
000010 9a 56 60 be 15 90 68 bd 39 bb 5a bc 20 42 36 bd
       -0.21908036 -0.056778032 -0.013350301 -0.044496655
000020 d5 53 90 bc 2b 92 42 3d 1d 3e c6 3d 7e ca 2f bd
       -0.0176181 0.047502678 0.09679816 -0.04291772
000030 cf 8d e7 3c ed 05 33 bd 18 ef 6a 3d 9c f7 76 bd
       0.028265862 -0.043706823 0.057356924 -0.060294732
000040 95 1f d4 bd e8 67 c7 bd 1d 8b bd bc 7b 16 1b 3d
       -0.10357586 -0.097366154 -0.023137623 0.037863236
000050 3c 6f 19 bd 4b cd 68 3d b6 3d 01 bc 8c 3b 11 bd
       -0.037459597 0.056836408 -0.007888248 -0.03545718
000060 33 56 78 3d 6e 20 c7 3c c7 db 9e bd c4 54 8b 3b
       0.06062908 0.024307456 -0.07756763 0.004252048
000070 63 e1 6a 3d 61 9e 80 bd a7 f5 8b bc 8e d1 88 3d
       0.05734385 -0.062802084 -0.01708491 0.066805944
000080 eb 38 52 3d 27 ed 20 bc 21 95 f9 3c f5 2b 8c 3d
       0.051323812 -0.0098221665 0.030466618 0.06844322
000090 9a 1c 8b bc bb 51 3c bd 22 30 2b 3d 64 86 1c 3d
       -0.016981412 -0.04597638 0.04179395 0.038214102
0000a0 a7 ac 5d bd 9b 53 9c bd 10 26 2c 3d 3c 8f 66 bd
       -0.054119732 -0.07633134 0.042028487 -0.056288943
0000b0 44 ee 23 bd 7e b2 8c 3d d2 42 15 3d a0 33 d4 bd
       -0.04002215 0.06869982 0.036440678 -0.10361409
0000c0 66 3f 8f 3c 9d 8d b6 3c f3 48 f8 3c 85 da 69 3d
       0.017486285 0.022284323 0.030308222 0.057093162
0000d0 40 95 4f bd eb 08 08 bc 5b 1c bd bd ed d3 3b bd
       -0.050679445 -0.008302907 -0.09233924 -0.045856405
0000e0 03 94 dc bc 0a b5 51 3c 4e c1 83 bb 30 f8 00 3d
       -0.026926046 0.012799511 -0.0040208464 0.03148669
0000f0 b9 0b 07 bd 91 d3 68 bd b8 7e 4c bb 1e dd 11 3c
       -0.032970164 -0.05684239 -0.003120346 0.008902816
000100 19 69 87 bc d0 c8 3f bd 80 68 2d 3d d6 8a bf 3c
       -0.016529607 -0.04682237 0.042335987 0.023381632
000110 1f aa a0 b9 94 05 99 3b e0 a7 01 3d c3 bd ae bc
       -0.00030644328 0.0046698544 0.03165424 -0.02133072
000120 71 76 a4 bd 63 b5 0a bc 21 3b 9a bd ba 3f 6c 3c
       -0.080304034 -0.0084660975 -0.07530809 0.0144194905
000130 6b d2 9d bd 5d c1 85 bd a7 d9 dc bc 3e f2 d8 bd
       -0.0770615 -0.06531022 -0.026959253 -0.10593079
000140 c1 5c 67 3d 28 f0 62 3d 5a 8a 6d bd 8f 13 9d 3c
       0.05648494 0.055404812 -0.05799327 0.019174365
000150 0c 7b 0a 3e 26 fa 9f bc 99 7a d8 3c 63 58 ce bb
       0.13523501 -0.01952846 0.026425647 -0.0062971576
000160 eb 4e 8d bc b6 cd 85 3d c2 a0 52 bd 16 49 b7 3d
       -0.017249545 0.06533377 -0.05142284 0.08949487
000170 50 9e 83 bd d2 d0 66 bd 99 87 8b bc 4c 4a 53 bd
       -0.0642668 -0.05635149 -0.017032431 -0.051584527
000180 2c f5 6e bd 09 7d 2c bd e6 ff 79 3d 3d 74 15 3d
       -0.058339283 -0.04211143 0.06103506 0.036487807
000190 b4 7e 22 bd a9 e3 04 bd d1 2d 0a bd 4e de 25 3d
       -0.039671615 -0.032443676 -0.0337351 0.04049521
0001a0 cc 60 2c 3d 74 25 36 bd ad 1f c1 3b b6 95 cd 3d
       0.0420845 -0.04446931 0.0058936686 0.10038321
0001b0 07 24 a2 bc 35 5d 44 bd 0f f4 be bd 8c f9 10 3d
       -0.01979257 -0.04794045 -0.09323894 0.035394236
0001c0 6b a1 57 3c e7 ef 74 3d a5 c5 86 3c bd 85 7f bd
       0.013161044 0.0597991 0.016451666 -0.062383402
0001d0 73 5d 93 3d 92 ad a1 3c 6c e4 73 bc 8b b8 a1 bd
       0.071955584 0.019736085 -0.014886003 -0.07896527
0001e0 c8 62 06 bd 88 a9 04 3d 74 c1 5b 3d 77 4b 6c bd
       -0.03280905 0.03238824 0.05365129 -0.057689156
0001f0 de 1c f0 3c b5 9f 78 bd f2 2e fa 3c 34 1a 91 bd
       0.02931064 -0.060699183 0.030539963 -0.07085076
000200 62 68 61 bd 1d 9d 2e bd 5b fa 25 3d 20 c1 bf 3d
       -0.055031188 -0.042630304 0.04052196 0.093630075
000210 84 89 30 3b d9 3c 5d bc 61 6d a3 bb 1f c8 37 bd
       0.0026937434 -0.013503277 -0.004987404 -0.044868585
000220 ed 52 74 3d 6f 53 09 be 5b 76 03 bd 14 80 03 39
       0.059649397 -0.13410734 -0.032095294 0.00012540846
000230 57 4c 77 bd 37 9c 66 bc 55 c2 3d ba ba f6 86 3b
       -0.060375538 -0.01407533 -0.00072387356 0.0041187676
000240 7c 1d a2 bb f2 99 79 bd 64 c3 ba 3d 32 7d 3e be
       -0.0049473625 -0.06093783 0.09119299 -0.18602446
000250 fa 96 03 bd f0 08 2b bd 87 98 85 bd cf 51 8c bc
       -0.032126404 -0.04175657 -0.06523233 -0.017128853
000260 23 2b d7 3c 45 76 3c bd 38 5a aa 3d eb a4 90 3d
       0.026265686 -0.046011228 0.08317989 0.070627056
000270 29 6d 92 3d f1 09 1c 3d aa 74 8f 3c ee 8e 36 3d
       0.07149727 0.03809542 0.017511684 0.044569902
000280 75 26 86 3b 05 94 54 bd 45 8f 73 3c 79 9d e4 bb
       0.00409394 -0.051898975 0.014865701 -0.00697678
000290 f7 c8 91 bc f5 fb 7f 3c f5 47 7a 3c 66 21 24 3d
       -0.017796023 0.015624036 0.015275945 0.040070914
0002a0 38 b6 03 be 92 82 11 be 6c 94 e5 bc 8b a0 c5 3b
       -0.1286248 -0.14209965 -0.028024875 0.006031101
0002b0 36 78 d0 3c 95 cb be 3d 75 50 ac 3d 43 3d e0 bc
       0.025447946 0.09316174 0.084137835 -0.027372962
0002c0 e6 3a cb be ad c4 22 3e d2 3e e7 3d 96 22 ef bd
       -0.39693373 0.15895338 0.11291279 -0.116765186
0002d0 68 91 4a 3b 2f 4f 1b 3c 52 6a f3 bd e1 61 17 3e
       0.0030909423 0.009479328 -0.11885513 0.14783432
0002e0 90 f6 bb bd 57 4b 2d be 2e 91 21 bd a6 05 82 bd
       -0.091778874 -0.16923271 -0.039445095 -0.063487336
0002f0 e7 f1 13 be 8f 67 20 3d c8 3f b5 bd 58 7e 24 bc
       -0.14447747 0.03916126 -0.08850056 -0.010039888
000300 f8 bb 1c 3e f1 4c 11 be 2b b6 38 3c 1a e3 ae 3c
       0.1530608 -0.14189507 0.011273901 0.021348525
000310 f7 2e f4 bc 30 05 0a be bb ef 76 3e 94 ae c3 3c
       -0.02980755 -0.13478541 0.24114887 0.023886956
000320 f0 d6 97 be c5 1c 8e bd 0e 1e 6e 3c 1e 68 24 bb
       -0.29656172 -0.06939081 0.014533533 -0.0025086473
000330 df 7c e8 bd fb 3a 6b bd 7a 18 da bd d1 66 85 3c
       -0.11351942 -0.057429295 -0.106492 0.016284378
000340 05 b5 0b 3e eb ac 57 bd 0b d2 21 3e db 7c 70 bd
       0.13643272 -0.05265514 0.15802781 -0.05871282
000350 66 0f d7 3d ed 24 0d 3d b7 1a b3 3d 30 1e 1e 3c
       0.10500984 0.034459043 0.0874533 0.009650752
000360 d0 f2 87 bd 9d de 69 bd 4e ee e5 bd 55 7d 4e be
       -0.0663811 -0.057097066 -0.11227094 -0.20164998
000370 c0 2d cc 3c 90 17 d7 3d 86 f4 bc bd 85 ee de 3d
       0.024924159 0.10502541 -0.09226327 0.10885338
000380 6a 15 93 bc fe 74 59 bd c9 82 a1 3c 28 39 76 3d
       -0.017954547 -0.053090088 0.019715684 0.060113102
000390 f7 28 9a bd d5 80 24 be 50 af 65 3d c0 00 88 3d
       -0.07527345 -0.1606477 0.056075394 0.06640768
0003a0 91 67 3a bc 03 45 99 bd be 7d c1 3c 2f 1d 32 bb
       -0.011377231 -0.07483866 0.023619529 -0.002717804
0003b0 cd ba f4 bd 58 0b 40 bd e0 39 c0 3b 64 ed 5a bc
       -0.11949692 -0.04688582 0.0058662742 -0.013362262
0003c0 02 f6 b3 bd 6e a0 e8 bd 94 51 dd bd 9c 08 f8 bb
       -0.08787157 -0.113587245 -0.108065754 -0.0075693857
0003d0 28 44 5a be ae 53 c1 bd 8d a2 e3 bd e9 29 bd 3d
       -0.21315062 -0.09439789 -0.111149885 0.09236509
0003e0 63 fc db 3e ac 39 2b bd 69 29 b8 bd 08 29 9b bd
       0.42965993 -0.041803047 -0.08992273 -0.075761855
0003f0 1b 0c 08 3d 49 d8 50 3e 58 c8 59 bc 9c 0e 22 3f
       0.03321467 0.20395006 -0.013292395 0.6330354

ms.layers.2.bias f4 [164]
000000 2d 73 b2 3d c2 28 bb 3e 6b 71 87 3e 0e c7 db 3c
       0.08713374 0.36554533 0.2645372 0.026828315
000010 ef f5 07 3d e7 e0 a1 3e 60 d8 20 3d 12 00 37 bd
       0.033193525 0.316169 0.03926885 -0.0446778
000020 70 09 73 bd 34 25 43 3d e4 ad 68 bd 66 1a 9e 3c
       -0.059335172 0.0476429 -0.05680646 0.019299697
000030 30 58 86 3d 9c 72 47 bc cd 74 eb 3e cd bb 2f 3b
       0.06559789 -0.012173321 0.4598755 0.002681482
000040 62 49 cd bd 77 8a 0f 3c 57 9b b7 bd a1 56 7e 3e
       -0.10023762 0.00876104 -0.089651756 0.24837734
000050 31 47 14 bb b6 56 f1 3d 34 af 80 be fa 9c 21 bd
       -0.0022625441 0.11784117 -0.2513367 -0.039456345
000060 2e a1 9c 3a 0e e1 0e 3d 43 db 93 3d 99 cb a4 bd
       0.0011949891 0.034882598 0.07219555 -0.08046646
000070 ef fa 8b bd 29 98 96 3e 2e 48 66 3e 84 a0 21 3d
       -0.06834971 0.29412964 0.22488472 0.03945972
000080 6c ce ad 3d 19 06 9d 3e 94 20 a3 3d 4f dd 23 3e
       0.084866375 0.30668715 0.07965198 0.16002391
000090 8a 72 6c bc 33 7f c4 3e 7c 99 f5 bd 2e 8b 21 bd
       -0.014431605 0.38378295 -0.119921654 -0.039439373
0000a0 a6 c9 bc bd c4 aa 1a be cb 0f 2a 3c 04 40 df 3c
       -0.09218149 -0.15104204 0.010379742 0.027252205
0000b0 94 06 dd bc b6 fa 96 bd 93 4e 17 bb 76 92 18 3d
       -0.026980676 -0.07372038 -0.0023087605 0.03724905
0000c0 4c 8b 6d be d2 71 86 be 1e c6 fd bc b0 0c 8d be
       -0.23197669 -0.26258713 -0.030978259 -0.27548742
0000d0 63 23 a3 be 69 6a fb 3d 48 68 d6 3d de 31 cd be
       -0.31862935 0.122761555 0.10469109 -0.40077108
0000e0 c1 6d 42 bd 91 de 59 3e eb b2 68 be b4 d5 98 3e
       -0.04746795 0.21276309 -0.22724502 0.29850543
0000f0 25 c4 bb 3e a8 43 05 3e 06 6b 26 be 8f 35 6f bc
       0.36673084 0.1301409 -0.16251764 -0.014600172
000100 32 9a 9a bc 2e 35 60 3d 2f c8 e2 3d 66 8d 57 3c
       -0.018872354 0.054738216 0.11073338 0.013156271
000110 13 32 d5 3d 7e 24 d0 bd 87 8c 8c 3d 59 b2 09 bd
       0.104099415 -0.1016321 0.06862741 -0.03361735
000120 60 51 7d 3d e5 26 09 bd 31 3b 01 be 06 c0 4d bb
       0.061845183 -0.03348436 -0.12620236 -0.0031394972
000130 4e 57 89 3e 2a 46 fa be 86 4a f2 3c 53 46 5e 3e
       0.2682442 -0.48881656 0.029576551 0.21706514
000140 d3 c7 4c 3d f7 04 de bc 9c 36 82 3d 48 27 29 be
       0.049995255 -0.027101977 0.06358072 -0.16518891
000150 66 bc ae 3d a6 76 8c be 5a cd 0f 3e d5 07 4f bd
       0.08532028 -0.27434272 0.14043179 -0.05054458
000160 f5 9e 5a 3e 82 7c 59 3d 1e 31 7c be 91 b4 ff 3c
       0.213497 0.053097256 -0.24628112 0.03121403
000170 06 fa 4e bd f0 eb a5 3c a3 be 0f bc 0a 3a 41 bd
       -0.05053141 0.020254105 -0.008773479 -0.04717449
000180 90 cf 31 3e fa fa 35 be e3 8c 3a bb 79 b7 d2 bd
       0.17364335 -0.17771521 -0.0028465323 -0.10288901
000190 c1 a3 04 bb 06 ab 3a be d4 09 a9 3d 80 1c 89 3e
       -0.0020239206 -0.18229303 0.08253828 0.26779556
0001a0 a6 94 e1 bc 5e 6d 72 be 82 8e 06 bd a3 2d 26 be
       -0.027536701 -0.23674533 -0.03285075 -0.16228347
0001b0 7c 53 3a be 25 31 8e bd 5c b0 8d 3d 47 5c 00 bd
       -0.1819591 -0.06942967 0.069184035 -0.031338003
0001c0 a3 3a 49 bc eb c8 94 bd fc af 80 bc b8 58 f3 bc
       -0.0122820465 -0.072648846 -0.015708916 -0.02970539
0001d0 00 3b 4e be 8b de 1a 3d ef 9f 37 3e a5 3d bf bd
       -0.20139694 0.03780989 0.17932104 -0.0933793
0001e0 3c 47 9f bd ae 37 98 3e f2 74 49 bc a2 fd af ba
       -0.07777259 0.2972998 -0.012295948 -0.0013427029
0001f0 86 16 60 bd cd d2 c0 bc bd e8 bf 3e 86 e1 d2 3c
       -0.05470898 -0.023538018 0.37482253 0.025742304
000200 67 32 e8 3c 02 c2 9e be 2a 45 02 bd 61 5c a7 3c
       0.028344346 -0.3100739 -0.03180424 0.020429792
000210 7f c9 b5 bd 4f dc 8e 3c 00 c6 61 3c 9b bd 33 3e
       -0.08876323 0.017439036 0.013780117 0.17552797
000220 34 98 22 bd 07 37 2d 3b 4d 95 96 bd 56 af f1 3d
       -0.039695933 0.0026430504 -0.073526956 0.11801021
000230 59 b0 f4 bd c1 1b 64 bc 73 b5 89 be 6d 10 ee bd
       -0.11947698 -0.013922633 -0.26896247 -0.11624227
000240 c2 c5 65 3e 88 d3 8f be 86 01 d6 3b 32 fb cd 3e
       0.2243872 -0.28091073 0.0065309433 0.4023071
000250 5e bd 47 bc 36 d6 f4 be 79 d8 bc bc d8 6d 09 3d
       -0.012191145 -0.4781968 -0.023052441 0.03355202
000260 ea b7 7b 3d 5f ea 46 3e a4 b4 2a be 6f 8f 90 bc
       0.06145469 0.19425343 -0.16670471 -0.01764652
000270 16 fc 87 3e 45 4c b4 bc 06 82 53 3d 47 82 4b 3e
       0.26559514 -0.022009024 0.051637672 0.19873916
000280 38 d5 c7 3d 72 33 67 bd d6 57 6c be 12 3d d7 bd
       0.09757465 -0.056445546 -0.23080382 -0.10509695

ms.layers.4.weight f4 [2, 164]
000000 af 7c 15 3d f5 b3 cf bc 06 0f 15 be 00 6d 43 bd
       0.03649586 -0.025354365 -0.14556512 -0.047711372
000010 a2 d1 ac bb c7 a6 93 3d a1 ee 58 bc 47 e9 47 bd
       -0.0052740136 0.07209545 -0.013240487 -0.048806455
000020 9d 1d da bc 0a 81 6b 3c 53 6d 21 bd eb db 96 3c
       -0.026625449 0.014374027 -0.0394109 0.018415412
000030 65 35 f3 3c 9d 23 d9 3b 4b 70 32 3f 9c ad 5e 3c
       0.029688546 0.00662656 0.69702595 0.013591196
000040 ff f7 16 3b ae 22 59 3a 6b 92 09 be 38 c9 3c bd
       0.0023036 0.0008283061 -0.1343476 -0.046090335
000050 c8 eb 82 3c 99 cc 1c 3d 56 13 e7 3b 52 05 03 3d
       0.01598157 0.038281057 0.0070518656 0.031987496
000060 35 b0 81 3d 94 ed 99 3c 92 b6 dd bc c0 1c bb bc
       0.06332437 0.018790044 -0.027064595 -0.022840858
000070 a7 bd 16 bd cb 29 92 3d 65 c7 e4 3e b7 1f 2f bc
       -0.03680196 0.071368776 0.44683376 -0.010688714
000080 df 62 b4 3c 68 9d c6 be 81 14 3c 3b a2 52 d2 bb
       0.022019802 -0.38791966 0.0028698745 -0.006418542
000090 9d 5b 13 3b ba 0b 49 3e 06 a8 f6 3b 57 32 d2 bb
       0.0022485026 0.1963338 0.007527354 -0.0064146924
0000a0 38 3d 29 bd a1 26 78 bd 32 d8 a8 3b 76 d0 25 bd
       -0.04131815 -0.060583714 0.0051527256 -0.040482007
0000b0 88 98 9b bc 10 0c 9a 3c 78 b1 a2 3a bb 0c 05 bc
       -0.018993631 0.01880458 0.0012412509 -0.008120711
0000c0 76 26 70 be 3b 99 de bd dc 04 8e bd 93 5a 83 be
       -0.23452172 -0.1086907 -0.069345206 -0.2565504
0000d0 e6 89 34 3d 58 a9 20 3d 8d 9e ac ba d8 04 3f 3d
       0.044076823 0.039224 -0.001316981 0.04663548
0000e0 77 93 b8 3b db 32 c0 bd 99 9c 4d bc 09 38 0d 3e
       0.0056328136 -0.093847 -0.012549543 0.13790907
0000f0 b3 b6 36 be b7 17 c8 bc 60 95 9d bc 84 52 ca bc
       -0.17843132 -0.02442537 -0.019236267 -0.02469755
000100 d4 56 34 ba dd dc 01 bd a9 e2 f0 3c 36 87 80 3a
       -0.00068793935 -0.031704772 0.029404955 0.0009805921
000110 ef 63 b6 bd c2 aa 83 bc 9f c3 bf bb 5f 21 b8 ba
       -0.089057796 -0.016072635 -0.0058521773 -0.0014048031
000120 f3 50 a0 3b 6a 69 5f 3c 4f 34 34 ba 65 7b 15 3d
       0.0048924624 0.0136359725 -0.00068742497 0.03649463
000130 f8 cd a7 be 28 5e 1b 3f 62 be 88 bd 1b b6 82 3d
       -0.3277433 0.60690546 -0.06676938 0.0638239
000140 28 a3 6f 3d 56 4b 39 3d 25 bc f9 ba e9 1e a1 bc
       0.058505207 0.04523786 -0.0019053264 -0.01966806
000150 91 63 23 bc 72 9f 90 3d bf c3 b0 3c 9a 50 66 bd
       -0.009972469 0.07061662 0.021577714 -0.05622921
000160 29 fa 6c 3d 8b 82 d0 3b 15 d2 74 3e d7 30 90 3d
       0.05785576 0.006363218 0.23908265 0.070405655
000170 02 dc 8b bd 80 f6 5d bd f7 2b ac bb 32 c9 ca 3c
       -0.068290725 -0.05419016 -0.0052542645 0.02475414
000180 13 81 a9 3d 54 85 58 bc 24 fe 82 bc 7b 30 3a bc
       0.08276572 -0.013215382 -0.015990324 -0.011364098
000190 47 03 66 bd cf c5 5e bd e4 b5 bf 3c 4a 86 6a be
       -0.05615547 -0.054387864 0.023402162 -0.2290279
0001a0 7d 43 ac 3b fc 88 99 bd 04 93 3b bb 56 bb eb bb
       0.0052570687 -0.07496831 -0.0028621564 -0.007193963
0001b0 df 1a 36 bc 9a c0 a7 bb ce e0 9f bc e6 7f 38 bd
       -0.011114805 -0.0051193954 -0.019516375 -0.04504385
0001c0 f6 e8 eb bb 2e e0 dd bc 4e f9 bb 3b 3d 7a aa 3a
       -0.007199402 -0.027084436 0.0057365065 0.00130064
0001d0 22 14 5a bd 92 60 25 3d 95 8e 18 3e 9b 4d 4c 3a
       -0.053241856 0.0403753 0.1489814 0.00077935465
0001e0 c8 34 ff 3b f4 3b 44 be b3 2b 08 bd ef 34 5f bd
       0.0077882744 -0.19163495 -0.0332448 -0.05449384
0001f0 61 53 af 3c 96 82 10 bc 3b ca 25 bf f8 0d 4a bd
       0.021402063 -0.008820197 -0.64761704 -0.049329728
000200 51 8c 89 bc ed 5f 12 be 4d b1 43 3d 55 3d 69 bd
       -0.01679054 -0.14294405 0.04777651 -0.056943256
000210 7a bb 0b bb c4 72 93 bc 14 bc 62 bc 9f e3 f1 3d
       -0.0021321462 -0.01799906 -0.013838787 0.118109934
000220 76 d8 84 3c 45 ca b2 bc ea 87 05 bd 02 0a 24 3e
       0.016216498 -0.021824965 -0.03260032 0.16019443
000230 76 0a da bc bd 9a 1f bd 1b f6 45 be 21 33 62 bd
       -0.026616316 -0.03896593 -0.19332163 -0.05522454
000240 c2 05 05 3e 33 19 13 bd e1 2c e2 3c a6 ad 87 be
       0.12990478 -0.035912704 0.02760929 -0.2649967
000250 0c 50 e1 bc 13 fe 09 3f c7 db a5 3b 11 e4 68 bd
       -0.02750399 0.5390331 0.0050616 -0.056858126
000260 d4 23 45 3d f4 cc 12 be 09 8d 12 bd 4c a4 8b bd
       0.04812987 -0.14335996 -0.035779033 -0.068184465
000270 27 c6 2e 3e 9c 40 f5 3c 4c 48 78 3d c4 76 30 be
       0.17067777 0.029938035 0.060615823 -0.17232805
000280 f3 60 95 3c 6f 5c 12 bd b8 14 e3 bd 9d cd 8b bb
       0.018234706 -0.035732683 -0.11087936 -0.0042664544
000290 d1 d1 91 3c 9b 35 ea be 2b 96 57 3e 6e 00 8e bc
       0.017800244 -0.45744023 0.21053378 -0.01733419
0002a0 54 64 84 3b 0b 24 43 be 2f 92 b5 3d a4 e5 05 bd
       0.0040402804 -0.19056718 0.08865773 -0.032689705
0002b0 dd 88 a4 3c 76 4d 43 3d b5 80 7e bd b5 df d8 3c
       0.020084793 0.047681294 -0.062134463 0.02647386
0002c0 5e 81 2f 3c 74 39 77 bc 1d e2 98 3d c1 c2 ff 3c
       0.010711996 -0.0150893815 0.07465003 0.031220796
0002d0 4f cf a1 3b 84 43 cf bb fb 3f 6c be 95 6e 27 be
       0.004938043 -0.006325187 -0.23071282 -0.16350777
0002e0 ae af 18 ba 24 a5 9e bc d3 b1 7d 3e ba 3d 70 3d
       -0.0005824518 -0.019365855 0.24774866 0.058652617
0002f0 dd ab 9c bb bf b9 77 3d d0 aa 33 bc d8 52 c9 3c
       -0.00478123 0.060479876 -0.010966018 0.024575636
000300 63 fe 70 3d 20 27 b7 bd 23 c8 bc bc b0 02 92 bc
       0.058836352 -0.089430094 -0.023044651 -0.017823547
000310 0f a8 35 bc 71 cd 3c 3e 2d a7 17 3d 46 f3 f4 3c
       -0.011087432 0.18437745 0.037024666 0.029901158
000320 f3 14 ed bb e9 ad 66 bf 8d 9b 20 3d e8 41 0c be
       -0.0072351634 -0.90109116 0.039210845 -0.13697016
000330 e8 6a 7e bd 81 d9 6c 3d ab 7c 1b bd ba b8 f4 3c
       -0.062113672 0.057824615 -0.03796069 0.02987324
000340 81 f6 3e 3d f6 96 a3 3c 47 b4 b9 3c c3 14 89 3a
       0.046621803 0.019969445 0.02266897 0.0010458458
000350 23 71 93 be 60 69 e5 3c d6 bc 2f 3d 92 5c 3e be
       -0.28797254 0.028004348 0.042904697 -0.1859
000360 e3 3c d8 3e 29 b5 0b bd d1 5c 90 3c d1 9e 0a bf
       0.42233953 -0.034108315 0.017622383 -0.54148585
000370 36 95 1c 3d 40 11 2f 3f f2 a8 d4 bc a3 c3 90 bd
       0.038228236 0.68385696 -0.025959466 -0.07068565
000380 e2 09 bc be 49 5d 8c bd 83 8f ee bc ed dc 87 3c
       -0.3672629 -0.0685373 -0.029121166 0.016584838
000390 8f 95 1e 3b e9 a9 d7 bc b3 c5 fb 3c cd c6 9f 3b
       0.002419803 -0.026326137 0.030733919 0.004875994
0003a0 9c ef c1 bd be 36 ff bc 95 e7 af bd 78 36 c7 bb
       -0.0946953 -0.031154033 -0.08589093 -0.006079491
0003b0 47 68 66 bc 11 d6 19 bc d5 27 59 3c c5 3d e4 bc
       -0.014062948 -0.009389416 0.013254126 -0.027861485
0003c0 6b c6 8b be f3 c8 c0 3e c4 59 74 3d ae c8 1c bd
       -0.27299818 0.37653312 0.05965592 -0.03827732
0003d0 72 43 14 3c 0a e2 91 3b e2 ba 36 3b ca be d6 bd
       0.009049283 0.004451995 0.0027882387 -0.10485609
0003e0 7c 9e 4e bd f6 03 9a 3e c0 3c 31 bd 98 b0 58 bc
       -0.05044411 0.30081147 -0.043270826 -0.013225697
0003f0 25 80 61 3e fe c2 2f 3b 7b 1b 00 3e 40 f6 94 bd
       0.2202154 0.0026819105 0.12510483 -0.07273531

ms.layers.4.bias f4 [2]
000000 a5 ac 77 bd 6b e7 17 bc
       -0.06046738 -0.009271483

exp_avg f4 [164, 2]
000000 e9 b1 0c ba 55 fd 4e ba bb 5a 47 b9 9e c3 45 b9
       -0.0005367087 -0.0007896026 -0.00019011919 -0.00018860257
000010 4c f0 ac 3a 14 98 66 3a df a1 90 b9 00 ac 71 b8
       0.0013194173 0.0008796465 -0.00027586424 -5.7619065e-05
000020 42 23 3c ba 07 e3 22 bb 5a 0e 48 3a dd a1 6f ba
       -0.00071768847 -0.0024854557 0.0007631533 -0.0009141246
000030 d7 ef 1c 3a 60 17 39 b8 0d 22 bf 39 c0 13 c6 b9
       0.00059866667 -4.4129207e-05 0.0003645573 -0.00037780218
000040 7b f3 73 ba a8 ff 4c 3a 72 0a 06 bb f2 21 08 bb
       -0.0009305996 0.0007820078 -0.0020453003 -0.0020772186
000050 54 46 15 ba fc 82 1a 39 25 58 f7 ba 5c 6f 8d ba
       -0.00056943786 0.0001473538 -0.0018870874 -0.0010790634
000060 53 8b be 3a 08 f8 ac 3b f4 58 57 ba b3 8a 19 bb
       0.0014537371 0.005278591 -0.0008214854 -0.0023428618
000070 e6 8a 44 3a 76 43 87 3a 16 4a ad 39 6a ed e6 3a
       0.0007497504 0.0010319788 0.0003305233 0.0017618362
000080 80 85 9d ba 42 d3 7b 3a 32 94 69 3b 1b 0d 80 ba
       -0.0012017936 0.000960637 0.003564131 -0.0009769531
000090 cf 06 2e 39 49 49 9d 3a f7 4d d1 3a 38 0b 47 3a
       0.0001659647 0.001199999 0.001596867 0.0007592919
0000a0 9e 07 45 3b eb 41 bc ba ca 22 5e 3a 34 21 59 3b
       0.0030064355 -0.0014362907 0.0008473812 0.0033131363
0000b0 02 85 b1 ba 18 4d 8f ba ee bb 07 ba f5 29 99 ba
       -0.0013543668 -0.001093301 -0.0005177845 -0.0011685478
0000c0 92 47 95 b9 82 99 01 3b e1 65 9e ba d8 b2 2b ba
       -0.0002847282 0.0019775336 -0.0012084806 -0.0006549782
0000d0 ee 2b a8 3a 49 cf bf ba 24 6c 4b ba 16 59 6c 39
       0.0012830475 -0.0014633919 -0.00077599497 0.00022539901
0000e0 c1 2a 58 bb cd 0a 5d bb 18 2b 85 bb 22 e1 c6 ba
       -0.0032984468 -0.0033728362 -0.004063975 -0.0015173296
0000f0 be d7 4d bb 86 e5 95 ba ce 53 20 3a f4 69 aa b8
       -0.003140911 -0.0011436201 0.00061160035 -8.125967e-05
000100 15 3b 9c 3a 66 ad 3f 3b ec 0f d1 b9 04 6f 4c ba
       0.0011919463 0.002924764 -0.0003987545 -0.0007798525
000110 d0 98 99 b9 c8 5a 5e bb 3c a9 61 3a 7c 4d dc 3a
       -0.00029296288 -0.0033928622 0.0008608287 0.001680776
000120 b7 3d 42 3b fa 2b 19 bb 10 69 37 3a 47 52 61 3b
       0.0029638836 -0.002337216 0.00069965515 0.0034381317
000130 a3 65 96 39 5d 2c 30 39 48 ac db 39 d0 bf 5d 39
       0.00028685955 0.00016801195 0.00041899295 0.00021147658
000140 80 4f 06 3a d0 62 91 3a d4 e5 de 3a dd b3 9f 3a
       0.0005123541 0.001109207 0.001700575 0.0012184341
000150 67 5a 9f 38 c6 39 cb 3a e8 ca 61 3a 84 27 40 b9
       7.5985496e-05 0.0015504889 0.0008613304 -0.00018325268
000160 16 62 31 bb e0 66 4c bb f1 b8 a0 38 c0 fd ee 37
       -0.002706652 -0.0031189248 7.6638426e-05 2.8489972e-05
000170 2a cc 05 bb 9e ae 80 bb 09 99 a6 3a cf a2 85 ba
       -0.002041588 -0.003927066 0.0012710403 -0.0010195615
000180 2d ef 02 ba 9e 69 c8 b9 f8 7e 9d b8 e0 7c 72 b8
       -0.00049947464 -0.00038225664 -7.509993e-05 -5.7813595e-05
000190 d1 13 a6 ba 1f 7e 76 b9 83 7f f9 ba cc 06 4d bb
       -0.0012670701 -0.00023507372 -0.0019035194 -0.0031284569
0001a0 00 08 35 39 40 0c b9 3a 48 da 36 ba 4a 79 36 ba
       0.00017264485 0.0014118031 -0.00069752755 -0.00069608225
0001b0 bb f7 d8 39 cc 5f b8 ba 20 a0 25 39 dc 09 3b 3b
       0.00041383304 -0.0014066636 0.00015795277 0.0028539812
0001c0 86 f6 a3 39 08 ca 21 bb 05 57 da ba f7 59 df ba
       0.00031273457 -0.002468707 -0.0016658014 -0.0017040361
0001d0 14 d1 77 3a 8c b3 49 3a b8 5f e8 b9 5e 91 96 ba
       0.00094534573 0.0007694296 -0.00044321804 -0.0011487415
0001e0 05 b9 45 3a 66 06 0f 3b b4 35 ad 3a a1 28 df b9
       0.00075425237 0.0021823882 0.0013214857 -0.00042564145
0001f0 0a 13 83 ba cc d7 7f 3a 53 b7 e3 ba 21 92 53 3a
       -0.0010000181 0.0009759634 -0.001737336 0.0008070786
000200 48 b8 d4 3a b9 8a 99 b9 5f 3b 09 3a ee 2a 28 3b
       0.0016229236 -0.0002928579 0.0005234982 0.0025660354
000210 d9 e7 96 3a c2 83 e7 39 1e 73 bf ba 66 cb 45 ba
       0.0011513188 0.0004415792 -0.0014606451 -0.00075452623
000220 bd cf a4 ba ba 07 b0 b9 33 e1 e5 ba f8 c2 67 ba
       -0.0012574118 -0.00033575093 -0.0017538428 -0.00088410033
000230 f4 a0 83 ba 54 41 8a ba cb af 6d 39 bc 24 7e ba
       -0.0010042475 -0.0010548034 0.0002266757 -0.0009694805
000240 80 d3 28 3b d8 b4 a7 b9 2b c6 6b 3a c4 29 9a 39
       0.002576083 -0.0003198746 0.0008994068 0.00029404287
000250 4e 4d 56 3a 4c 8b d6 3a 80 97 df 38 3a 18 ba ba
       0.00081749714 0.0016368418 0.00010661688 -0.0014197894
000260 3e 1a 31 3a 37 ea 90 3a 8e 9d 2c 3b fe 3a 7d 3b
       0.00067559246 0.001105613 0.0026339027 0.0038639898
000270 58 a0 3d 3b 70 f4 a0 ba 0d 2f 31 3a a4 12 53 3a
       0.0028934684 -0.0012279879 0.0006759025 0.0008051789
000280 bc f1 4e 3a 9b 9c 9d 3a a9 df 09 3b a0 a8 65 ba
       0.00078942976 0.0012024821 0.0021037853 -0.0008760784
000290 5c 69 72 3b a9 d5 0b 3b 7d 37 cd b9 08 6e 09 39
       0.0036989069 0.0021337068 -0.0003914199 0.00013106328
0002a0 84 e3 35 bb 1c a9 95 bb 8f 94 e6 39 ec ba df b8
       -0.0027754018 -0.0045672785 0.00043979703 -0.000106682855
0002b0 32 b7 2c 3a 02 d9 1f 3b b4 89 5c ba ac 39 4c ba
       0.00065885775 0.0024390821 -0.00084128533 -0.0007790576
0002c0 5c 35 c7 b8 25 03 10 3a a1 13 0e bb 7f da 8c bb
       -9.4989984e-05 0.00054936326 -0.002167918 -0.0042985077
0002d0 d9 84 93 3a 43 40 21 3b 9d bc 6d ba 8a fc cb bb
       0.0011254802 0.0024604953 -0.0009068938 -0.0062251734
0002e0 80 82 7c b9 61 a1 87 b9 e9 6e 00 3a 1f 3d e0 ba
       -0.00024081208 -0.00025869443 0.00048993394 -0.0017108059
0002f0 79 cb 91 3b ae ab 59 ba 32 5f 00 3a 64 59 11 3b
       0.0044493047 -0.00083034753 0.00048969977 0.0022178525
000300 82 3b 1a 39 90 ff 3b 3a 09 42 02 3a e2 a4 d2 ba
       0.00014708753 0.00071715657 0.00049689465 -0.0016070867
000310 34 d2 41 b9 76 d4 65 39 64 b8 15 39 6e 06 02 b9
       -0.00018484221 0.0002191829 0.00014278438 -0.00012400161
000320 69 de e5 3a 7d 26 3e 3b 4b c3 94 ba 85 fb a4 b9
       0.0017537597 0.002901464 -0.0011349706 -0.00031467914
000330 d4 d9 a5 ba ba c4 6a b8 74 3d 78 3a ea 8e cc 3a
       -0.0012653419 -5.5973163e-05 0.00094696064 0.0015606557
000340 d6 cd 15 3a 21 ff ce b9 8c 7c 23 ba 3c bb a2 ba
       0.0005714571 -0.00039481468 -0.00062365155 -0.0012415419
000350 d2 e1 07 b9 47 e1 d3 39 db 21 dd bb bf f8 44 bb
       -0.00012958728 0.000404129 -0.0067484207 -0.003005549
000360 2b 79 54 3b eb e2 ce 3b b0 9e 2e 38 04 33 b5 3a
       0.0032420855 0.006313672 4.1632622e-05 0.0013824408
000370 84 f3 8a 3a 8e 5f 9b b9 f2 c6 bf 39 2d b2 44 3b
       0.0010601138 -0.00029635098 0.00036578585 0.0030013428
000380 4b 18 ed ba d0 1e 45 ba 81 29 0c bb a5 d0 4c bb
       -0.0018088905 -0.0007519545 -0.0021387043 -0.0031252292
000390 ee 9f 84 ba 44 dd c0 39 73 8d 57 b9 16 1c 95 39
       -0.0010118464 0.0003678595 -0.00020556692 0.0002844042
0003a0 ef 38 b3 ba 53 75 b7 ba 38 b8 8c 3a 6f db 5d ba
       -0.0013673584 -0.0013996757 0.0010736054 -0.0008463179
0003b0 2a 07 b1 3a 4f de e4 3a 33 48 d6 3a 8c 2f 8f 3b
       0.0013506163 0.0017461273 0.0016348421 0.0043696817
0003c0 58 c2 17 38 f8 13 98 ba 7a 40 a0 3a 1e 1a 0a 3b
       3.6182202e-05 -0.0011602631 0.0012226247 0.0021072696
0003d0 b8 6a af 39 97 77 de b9 c2 a4 5c 3b d8 da 97 3a
       0.00033458113 -0.0004243224 0.003366754 0.0011585606
0003e0 93 52 75 3a 10 a3 13 39 0b 9c 2b 39 a0 eb 12 3a
       0.0009358313 0.00014079758 0.00016365961 0.0005604569
0003f0 7c 47 e2 3a 41 0f 55 3a ed 39 cf 3a 08 47 1a 3c
       0.0017263736 0.0008127578 0.001581011 0.009416349

exp_avg_sq f4 [164, 2]
000000 b5 80 ae 36 f2 2c 23 37 c8 4e 45 36 79 5e d3 36
       5.2005876e-06 9.726022e-06 2.9401144e-06 6.299288e-06
000010 9d 54 d7 37 82 f5 17 38 4f 8a a9 36 39 c0 d4 37
       2.5669398e-05 3.6229852e-05 5.0526937e-06 2.536188e-05
000020 b1 15 70 3a 0d 9e 14 3a 7e c9 5b 39 ab 45 42 39
       0.00091585057 0.00056693034 0.00020960529 0.00018527235
000030 54 77 68 38 3f a1 11 39 09 ef f3 37 3b 24 9c 37
       5.5424243e-05 0.00013888346 2.9079167e-05 1.861352e-05
000040 26 3b 2a 37 b6 78 44 37 72 7d 57 38 5e 00 50 38
       1.0146561e-05 1.1710616e-05 5.1376825e-05 4.9591406e-05
000050 0f 32 28 39 a0 43 f6 38 db 0a 75 38 24 df 94 38
       0.00016040377 0.0001174279 5.8422662e-05 7.098753e-05
000060 f6 23 29 39 a5 cb 2f 39 a3 82 e0 39 c2 21 d5 39
       0.00016130492 0.00016765164 0.0004282194 0.00040651677
000070 87 1e d7 38 b8 56 7e 39 bf cb a7 38 47 77 58 38
       0.00010257685 0.00024255633 8.001131e-05 5.16095e-05
000080 c9 7b c4 38 00 ea ef 38 87 e0 1f 39 32 cb a1 38
       9.369065e-05 0.00011439994 0.00015247065 7.714926e-05
000090 96 8d 0c 38 fc e8 b1 37 31 a9 1a 3a 1f 30 3f 3a
       3.3510463e-05 2.1208536e-05 0.0005899845 0.00072932424
0000a0 67 e1 0b 3a 24 96 0a 3a ba fb 87 38 e2 1e 1a 39
       0.0005336017 0.0005286655 6.484189e-05 0.00014698089
0000b0 7e e4 8e 38 bd 7a 0f 39 c2 ee c7 38 8c bb 7f 39
       6.8136476e-05 0.00013683266 9.5335316e-05 0.00024388562
0000c0 1b b5 8c 37 9d db a5 37 6c d3 1c 39 fd da b1 38
       1.6773634e-05 1.9771798e-05 0.0001495608 8.4808074e-05
0000d0 23 72 e2 38 f0 4a 48 39 80 d2 cf 38 09 21 e2 38
       0.000107977794 0.00019101403 9.909738e-05 0.00010782673
0000e0 ec 05 47 3a 56 03 13 3a 1c 7f 97 39 80 06 26 3a
       0.000759213 0.0005608102 0.00028895668 0.0006333366
0000f0 11 0a 65 39 9c d8 24 39 91 34 89 37 05 a4 5d 37
       0.00021842892 0.00015720952 1.635615e-05 1.3210815e-05
000100 52 28 40 39 d7 90 41 39 6d 46 d1 38 26 19 35 39
       0.00018325567 0.00018459871 9.9790144e-05 0.00017270874
000110 dd 56 86 39 20 36 f2 39 ef 37 9d 38 89 93 ac 38
       0.0002562319 0.00046198163 7.496762e-05 8.22908e-05
000120 fa 26 26 3a 2e f6 7e 3a ae 33 90 38 5f 9c 96 38
       0.00063382054 0.00097260147 6.876081e-05 7.181684e-05
000130 9b 72 08 37 19 19 fb 37 dc 22 75 37 de 5a 0e 38
       8.132915e-06 2.9933219e-05 1.4611254e-05 3.3940065e-05
000140 ac 11 e9 37 b7 80 87 37 6d a2 21 39 7a 5b e1 38
       2.7783994e-05 1.6153192e-05 0.00015414665 0.00010745875
000150 49 02 b7 37 e2 98 b0 37 c0 a2 3b 38 85 8e 28 39
       2.1816364e-05 2.1052027e-05 4.4735847e-05 0.00016074821
000160 b4 d9 65 39 f5 04 2b 39 25 a2 93 36 74 e1 3c 38
       0.00021920243 0.00016309677 4.3998175e-06 4.5032662e-05
000170 c0 20 49 3a eb b2 82 3a cc 5c 3f 39 82 0b 95 39
       0.00076724216 0.0009971535 0.00018249749 0.0002842807
000180 fb 92 03 38 8c 6a ff 38 b4 8d eb 37 e5 2c e6 37
       3.136972e-05 0.000121791934 2.8080169e-05 2.7439042e-05
000190 43 19 74 38 68 86 a4 38 8c 8c b6 38 c0 2f f6 37
       5.819766e-05 7.8451645e-05 8.704615e-05 2.934772e-05
0001a0 46 cd ea 38 a3 af 60 38 3d de d2 37 9a a4 a9 37
       0.00011196225 5.3569336e-05 2.5137439e-05 2.0223019e-05
0001b0 1b d9 aa 38 60 83 ae 38 32 7d b3 39 21 89 8a 39
       8.146671e-05 8.321437e-05 0.00034234818 0.0002642358
0001c0 a6 28 ba 38 dd 62 5f 38 8e 5b ea 39 a9 0b f8 39
       8.8767425e-05 5.3259417e-05 0.00044700172 0.00047310934
0001d0 93 4e 87 39 4f a3 47 39 d7 5c f0 39 b2 bc 00 3a
       0.0002580775 0.00019038956 0.00045845538 0.00049109303
0001e0 e0 f2 5d 38 23 59 46 38 4e 7c 37 38 50 f5 be 37
       5.29167e-05 4.7289894e-05 4.3746368e-05 2.2763998e-05
0001f0 fa 5a ad 38 5c dc 5d 38 98 32 20 3a 4b d3 a6 39
       8.2662285e-05 5.289573e-05 0.00061110547 0.00031819413
000200 0f d4 b9 38 52 04 51 38 72 96 21 39 31 53 d8 38
       8.8609864e-05 4.9833507e-05 0.00015410202 0.00010315178
000210 a4 43 bc 37 87 6a 9a 37 21 03 28 39 c2 81 2a 39
       2.2442844e-05 1.8407836e-05 0.00016022894 0.00016260802
000220 6e 08 a8 38 f2 9f 6f 39 fe 32 87 38 fa 5f dc 37
       8.0124344e-05 0.000228524 6.4468e-05 2.6270736e-05
000230 d9 42 1c 38 51 d9 ad 38 c5 dc c5 36 29 11 f6 37
       3.7255555e-05 8.289761e-05 5.8967585e-06 2.9333476e-05
000240 37 d1 82 38 c3 44 97 38 c2 cb 18 37 4e 5d 8a 37
       6.237852e-05 7.213049e-05 9.107347e-06 1.649433e-05
000250 13 0e b9 37 2d cf 6a 38 06 cd 55 39 25 b8 b9 39
       2.2060272e-05 5.5982895e-05 0.0002038964 0.00035423148
000260 9e b5 32 37 3f 97 50 37 55 21 b9 39 30 cc 9d 39
       1.0651913e-05 1.2432981e-05 0.00035310784 0.00030097505
000270 d5 fc 84 39 de 49 9f 39 43 cd 1a 38 0c 50 97 38
       0.00025365376 0.0003038188 3.6907626e-05 7.215151e-05
000280 da 29 57 38 89 7d 88 38 6b 09 7a 38 2d 0b 3b 38
       5.129897e-05 6.508368e-05 5.9613416e-05 4.4594683e-05
000290 b8 fe 56 3a 23 6c aa 39 61 77 8b 37 9f a0 c8 38
       0.0008201408 0.00032505495 1.6625681e-05 9.566661e-05
0002a0 68 2c 29 3b d3 dc 0d 3b b9 3a 35 37 f4 fd 33 38
       0.0025813822 0.0021646514 1.0802113e-05 4.2913438e-05
0002b0 23 e5 30 38 f4 86 4e 38 fe 07 56 38 ad 40 c3 37
       4.217507e-05 4.9239912e-05 5.102902e-05 2.3275928e-05
0002c0 0a c5 0d 38 ac 94 04 38 41 f6 74 39 ef 33 bd 39
       3.3800527e-05 3.1609714e-05 0.0002336139 0.00036087583
0002d0 ee 19 88 38 90 c2 db 38 f7 90 60 3b 67 b5 a7 3b
       6.489815e-05 0.00010478974 0.0034266093 0.0051180604
0002e0 96 a9 40 37 c5 85 b1 37 61 db e9 37 f2 f2 15 38
       1.1483577e-05 2.1162336e-05 2.787792e-05 3.575063e-05
0002f0 1a 53 90 39 0a 1c a9 39 b0 53 a6 39 a6 14 15 39
       0.00027527736 0.00032255083 0.0003172434 0.0001421744
000300 b7 8a af 37 4a 95 98 37 ea 92 e2 38 d1 2d 7a 38
       2.092622e-05 1.818933e-05 0.00010803885 5.9647315e-05
000310 5d f3 e7 36 27 2b 30 37 9b 45 eb 36 09 33 1f 37
       6.9126677e-06 1.0500465e-05 7.011649e-06 9.489021e-06
000320 37 d2 f2 38 f0 ab 8b 38 11 66 1e 39 fd c1 d7 38
       0.00011578615 6.660062e-05 0.00015106077 0.00010288132
000330 06 3e 96 38 a1 b5 d6 37 93 37 89 38 35 34 67 38
       7.16411e-05 2.5595366e-05 6.5430206e-05 5.5123313e-05
000340 0b 4c f6 37 e1 03 ee 37 1c a6 77 37 3b b4 02 38
       2.9360895e-05 2.8373617e-05 1.4761023e-05 3.1162268e-05
000350 da 53 26 39 ca f6 66 38 fe 7c de 3a aa e9 a4 3a
       0.00015862231 5.5066113e-05 0.0016974506 0.0012581844
000360 ea 4f 77 39 dc c1 b9 39 eb ef cd 38 43 75 5c 38
       0.00023585526 0.00035430386 9.81985e-05 5.2561296e-05
000370 88 9d 52 38 e8 15 d3 37 23 35 60 38 05 d7 5b 38
       5.0214614e-05 2.5163361e-05 5.345525e-05 5.241392e-05
000380 35 2a e1 39 3d 26 93 39 74 d4 13 39 20 3f fc 38
       0.0004294679 0.00028066515 0.00014098157 0.00012028054
000390 4d b4 a2 38 55 79 76 38 ba 5c 0f 36 47 68 af 36
       7.7583456e-05 5.876397e-05 2.1362634e-06 5.227546e-06
0003a0 bf 6d 90 38 78 d9 8f 38 c6 27 08 3a 4d 13 d7 39
       6.886897e-05 6.859278e-05 0.0005193915 0.00041022376
0003b0 f5 92 16 38 40 51 8f 38 84 0c 5f 39 18 a1 bc 39
       3.589965e-05 6.833905e-05 0.000212716 0.00035978178
0003c0 09 86 a3 39 18 82 1b 39 19 74 7e 38 92 32 71 38
       0.00031189647 0.00014830416 6.0666443e-05 5.7505975e-05
0003d0 5b a2 81 38 ef 8c 8c 38 04 da ad 39 33 7d 3a 39
       6.1814404e-05 6.701971e-05 0.00033159566 0.00017784983
0003e0 84 8d ee 38 2f 7d 2c 39 69 65 83 37 8c 66 68 37
       0.00011375084 0.00016449833 1.566364e-05 1.3852154e-05
0003f0 d0 eb cb 39 88 26 61 39 36 42 a9 39 46 53 39 3a
       0.0003889487 0.00021472026 0.00032283523 0.00070695987

exp_avg f4 [164]
000000 15 07 1e 39 2a a2 e4 b6 e2 de 0a b9 7d 54 f3 38
       0.00015070692 -6.813808e-06 -0.00013243736 0.0001160288
000010 59 52 a4 b9 9c 2c b7 b8 f7 56 1c 39 08 c9 f7 37
       -0.0003134187 -8.734429e-05 0.00014909716 2.9538307e-05
000020 db a4 c9 b8 10 73 20 39 3c 3b 81 b8 e6 4e 77 38
       -9.6151336e-05 0.00015301653 -6.1622326e-05 5.896287e-05
000030 22 18 e9 b9 0c c8 8a 38 f5 37 44 39 90 7a a3 b6
       -0.00044459203 6.6176144e-05 0.00018712862 -4.8720467e-06
000040 3e 5e 98 39 f0 a3 81 39 d8 64 6a 37 e5 b9 50 39
       0.00029061915 0.0002472694 1.3970966e-05 0.00019905677
000050 46 1a fc 38 04 ed b7 b9 f2 9f 0e b8 f8 50 6d 38
       0.0001202119 -0.0003508107 -3.40044e-05 5.658061e-05
000060 ef 87 f9 b8 48 71 5f 38 40 85 79 37 b4 d4 46 b9
       -0.00011898565 5.3272845e-05 1.4872581e-05 -0.0001896199
000070 18 e3 c8 39 27 34 ba 39 59 e6 b0 b9 6e 13 8f 38
       0.0003831617 0.0003551554 -0.00033740958 6.8223904e-05
000080 dc b4 54 b9 b2 0f 4b 38 ca f0 63 3a b4 94 4a b9
       -0.00020285271 4.841359e-05 0.0008695243 -0.00019319617
000090 0e 5a 23 b8 3a ef d9 b9 b0 61 55 b8 af 6d 76 38
       -3.89461e-05 -0.00041567703 -5.0874136e-05 5.875312e-05
0000a0 f0 65 5e b8 a5 12 48 b9 24 eb c1 b8 b2 c6 f7 38
       -5.302386e-05 -0.00019080432 -9.2467555e-05 0.00011814888
0000b0 a1 10 af 39 d5 40 fe b5 45 41 8c 39 94 da 04 39
       0.0003339099 -1.8943343e-06 0.0002675151 0.00012669928
0000c0 d4 eb 1e b8 9d e1 19 b8 84 04 e0 38 1a 85 a2 38
       -3.7889768e-05 -3.668816e-05 0.000106819934 7.749554e-05
0000d0 df 53 23 b9 a2 e2 a1 b8 e0 a2 6b b9 d7 f9 6e b9
       -0.00015576136 -7.719292e-05 -0.00022472022 -0.00022790521
0000e0 16 a6 d0 39 24 ab a2 b8 16 12 10 38 37 79 79 39
       0.00039796595 -7.7566394e-05 3.434912e-05 0.00023791647
0000f0 b4 1e c4 b9 f2 a7 33 39 4a 39 7c b9 c9 b3 84 b9
       -0.0003740691 0.00017133335 -0.00024053935 -0.00025310952
000100 05 af 0c 39 0c 5a 04 b9 a4 a6 b0 38 54 a8 6b 38
       0.0001341664 -0.00012622046 8.423373e-05 5.6185134e-05
000110 00 d1 58 38 90 9c 4d b6 56 82 79 39 cc 73 e5 38
       5.169306e-05 -3.0638512e-06 0.00023795044 0.0001094114
000120 c8 71 34 39 51 85 0d b9 f5 b7 77 b9 ff 4b 98 39
       0.00017208525 -0.00013496472 -0.00023624285 0.0002904832
000130 5f 8e 87 b9 b9 5d 88 b9 07 1b 62 39 b0 12 b9 b6
       -0.0002585528 -0.0002600977 0.00021563108 -5.515605e-06
000140 ec 0e 07 b9 92 79 37 39 d1 d3 a2 39 a4 49 19 b8
       -0.00012880162 0.00017497528 0.00031056863 -3.6546626e-05
000150 7a 6e 98 3a cf 6c ba b8 f6 b4 5d b9 00 f2 13 b9
       0.0011629604 -8.889438e-05 -0.00021143616 -0.00014109164
000160 de d4 93 38 87 b4 03 3a 5b 96 ba b9 2e 10 d2 3a
       7.049156e-05 0.0005024154 -0.00035588708 0.001602655
000170 a4 2f 60 b7 f8 e3 95 39 7c fd c7 39 a6 e5 80 b9
       -1.3362533e-05 0.00028589345 0.00038145098 -0.00024585164
000180 5b 26 d8 b7 15 de 5e 39 a8 5b 1d 37 d1 a3 2d 37
       -2.5767067e-05 0.00021254302 9.37927e-06 1.0349745e-05
000190 0c 8e ac b6 32 2c 5c b8 ec 9a f3 b8 64 3a a6 b7
       -5.142536e-06 -5.2493247e-05 -0.000116159994 -1.9815932e-05
0001a0 8a a6 08 38 1b b1 c0 b8 9c 34 48 b9 0e 34 c3 b9
       3.258003e-05 -9.188262e-05 -0.00019093085 -0.00037232082
0001b0 b3 da 32 ba 0b dd e5 b8 b8 50 16 39 0c f9 9a b9
       -0.000682275 -0.000109607434 0.00014335185 -0.00029558723
0001c0 0f 44 49 38 62 bb 62 39 16 1b a8 b8 44 99 6f b7
       4.798552e-05 0.00021622845 -8.0159094e-05 -1.4281195e-05
0001d0 cd 39 c8 39 44 ff bb 38 fe 50 2a b9 53 df f3 b9
       0.00038190038 8.964402e-05 -0.00016242635 -0.0004651496
0001e0 32 da 6a 39 58 e0 32 b9 96 3b ed 37 84 b0 da 39
       0.00022397263 -0.00017058977 2.8280348e-05 0.00041711715
0001f0 ea 03 3e 39 b8 21 22 b7 ee 2a 38 39 81 e1 92 ba
       0.0001812127 -9.663803e-06 0.000175636 -0.0011206121
000200 61 cf 9a 38 5a 45 5e ba 64 35 61 39 d1 e9 88 3a
       7.3819196e-05 -0.0008478962 0.00021477562 0.0010445659
000210 5c c6 c1 38 54 04 73 b8 7a d2 8e b9 ab b6 92 ba
       9.2399045e-05 -5.7939746e-05 -0.00027241168 -0.0011193355
000220 72 b8 20 39 9d 88 b6 39 fe 41 01 3a d0 ad 73 b8
       0.000153275 0.0003481553 0.0004930793 -5.809759e-05
000230 a0 29 f8 38 4c 01 5a 39 4f 50 88 38 9c a5 e0 37
       0.00011833315 0.00020790583 6.499944e-05 2.6779999e-05
000240 f3 6b 53 b8 6d 5c 09 39 50 f0 bf 37 34 41 a1 b9
       -5.0406856e-05 0.0001309977 2.2880879e-05 -0.00030756893
000250 78 c1 aa 38 48 0f 67 b8 c0 df 38 39 8e 24 a6 b9
       8.142268e-05 -5.5088924e-05 0.00017630961 -0.00031689223
000260 15 94 d0 b9 10 51 b0 b9 4d 85 05 3a 89 f1 49 39
       -0.0003978318 -0.00033629732 0.0005093411 0.00019258833
000270 c6 9e ac 39 0d 7e c4 b7 a0 ec c1 38 b6 a5 1c 38
       0.00032924692 -2.3423718e-05 9.247032e-05 3.734763e-05
000280 ba b8 b2 b9 2e 2d 1e b9 c4 1b bb b8 40 7a f9 b8
       -0.00034088438 -0.00015084885 -8.9220266e-05 -0.00011896016
