docs/smld/lightning_logs/version_78/checkpoints/epoch=49-step=4900.ckpt (torch, 344011 bytes, 18 tensors)

ms.layers.0.weight f4 [164, 2]
00000000: 2cce d93e 6082 63be ebde a83e 8e34 3b3e
00000010: ed12 643e 06c3 68be 0e6c f8bd 5928 d63d
00000020: bdd7 cb3e 089e e93d a273 a4bc f940 d63e
00000030: fd3f 8cbe 3725 8a3e 0ba6 a9be dc67 da3e
00000040: 1fc4 4abd 5b0e 15bf 818e 91be 08c3 00be
00000050: f7d4 0dbf 6019 043f 3f73 913e 630c 85be
00000060: 1ccc 113e fc89 f2be 479c fcbe 302c 71bd
00000070: d1c7 97be 4097 b7be 17cf e83e 2ca5 223e
00000080: cf77 9ebe bf7c 223e 9033 1cbf f75a 723e
00000090: 686d 05bf 2087 18bf e7a8 b9be a827 1c3f
000000a0: 4369 943e 9270 013f d44e fe3e 5e96 82be
000000b0: 021c dbbd ecbb f53d 88dc 813e 73ee db3e
000000c0: 3dfa 31bc 770a 29bf 13c1 9a3d 4e08 dfbe
000000d0: d431 bf3e bb0a a1be 8313 293d d41f 00bf
000000e0: e466 7b3e b7af 463e fb63 0dbe ee23 a6bd
000000f0: b74a 0bbf a8fb 353e cfab 133f 7e2e 043f
00000100: 986b 79be c508 cabe d09d 09bf f7d9 8cbe
00000110: 8247 81be 9407 23be 5bc8 053e 37b0 efbe
00000120: bc7e 093f b5fd d1be f11e 543d c441 06be
00000130: 0ee4 a9be 9526 5d3e 915e ec3e 42d3 eb3e
00000140: 42a7 9fbd 82a8 0abf 38a3 02bf 5d1d 1abf
00000150: 06b6 303e 6022 0f3f 79f9 d93d 722d 16be
00000160: 1906 ccbe 28bc 3fbd ecd2 473d 6a89 cabb
00000170: 31dc 99bd 5acf 01bf 46df 00bd 05d5 f13e
00000180: 3fb9 f6be 44cf 08bf 1858 953d 9824 a6bd
00000190: f099 253e e9bb 35be 1ee8 abbe d106 153e
000001a0: b22c b8be 0697 5ebb b0e6 2e3e 9e01 87be
000001b0: 810e 7abe 38ba 883e 602f b3bc f877 c7bd
000001c0: 0783 24be b25b 003e def7 ee3c e19f f63e
000001d0: 490d e7bd 5aa8 dabe d84f b4be 171d 06be
000001e0: 2624 c13d f081 cabe 03ef 003f ec87 4c3e
000001f0: 791c 04bf 7703 b63c 77a0 053f fdd2 f33e
00000200: 0e11 e03e be83 97be 2e4e d13e 7476 5b3e
00000210: a237 803e a7f1 8abe 84b5 be3e 16d2 4dbe
00000220: e124 ae3d e630 1bbf 25de 793e bbfd ccbe
00000230: 9eb9 d2be a192 0f3f f222 98be c6fa 5a3e
00000240: a60d ccbd 1364 0ebe 0028 013f e0dc 873e
00000250: 28f5 7cbe 5f09 5c3e 754a 71be b768 12bf
00000260: d8a6 82be d66f be3e 66fe 55be 1431 0abd
00000270: c456 1e3d 60ad 7f3e b8ec b4be 95b6 39be
00000280: f616 14bf 25ac e23e f04b b8be 6853 873e
00000290: 5a90 9b3e 5c14 e5be 793d 59be 439e 913e
000002a0: 7cd2 523e a4a7 89be b7d8 14bf c7f5 1f3e
000002b0: 4315 ff3d 155d c7be e992 e63e 6dfe 00bf
000002c0: 39f8 f2bd 8289 06be 60a4 153f 60c4 09bf
000002d0: 9677 e23d e32a 3cbe 8358 1dbf a252 95bd
000002e0: 4d6d 2fbe ba90 d6be c20e 31be 205e 1d3e
000002f0: af73 b13e d270 ad3e 54df 00bf e8c0 e23e
00000300: 65a3 163e 3220 b8be 8802 7cbe 05e9 fbbe
00000310: 5637 1a3f 6292 1c3e b436 f6be f58e 52bd
00000320: ef62 fdbd 20a1 ba3e de32 db3d f5e1 93be
00000330: 8199 133f a212 213e 37ee 833e 4639 c73d
00000340: 1a90 c3be 01da f1be 7e8c be3e 6eaa abbe
00000350: eb5a e33e 05b0 88be 7196 23bf 62fd 903e
00000360: ffa4 a6be 64f9 babe 06da f63e 7b3c ecbe
00000370: 22a6 d2be 4521 51be e795 dbbe fd12 0dbf
00000380: 5741 833d 96c7 c73a 8d45 f13e ae47 09bf
00000390: 8267 9bbe 10f7 1ebf be7c f2bd 4ed1 0cbf
000003a0: 1ece ac3b ae2c 553e 290e 8f3d b4d9 f93e
000003b0: a61e 06bf 539e be3e 613e a0bd dae6 813c
000003c0: c700 223f 6bf2 fc3d 603e f73e a349 87be
000003d0: 5e7f b9be 8c3f 99be b27f 72bd 909d d9be
000003e0: fb33 47be a231 b33e 631b 06bf f818 ef3e
000003f0: d6f5 bb3e 7995 84be e46d 5b3e c9ca a13c
0.4254011 -0.22217703 0.32982573 0.18281767 0.22272845 -0.22730646 -0.12129985 0.104569145
0.39813033 0.11407095 -0.02007467 0.41846445 -0.2739257 0.26981518 -0.33134493 0.42657363
-0.049503442 -0.5822503 -0.28429034 -0.12574399 -0.55403084 0.5160122 0.28408238 -0.25986013
0.14238018 -0.473709 -0.4933798 -0.05888003 -0.29644635 -0.35857582 0.45470497 0.1588332
-0.30950782 0.158679 -0.6101618 0.23667513 -0.52120066 -0.59581184 -0.36261675 0.6099801
0.28986558 0.50562394 0.49669516 -0.25505346 -0.106987014 0.11998734 0.25363564 0.4295536
-0.010862884 -0.66031593 0.07556357 -0.43561023 0.37342703 -0.314535 0.041278373 -0.50048566
0.24550968 0.19402967 -0.13807671 -0.08112322 -0.5441088 0.1777178 0.57684034 0.5163344
-0.2435745 -0.39459816 -0.5375643 -0.27510044 -0.2524987 -0.1592086 0.13064711 -0.4681413
0.53709006 -0.41013876 0.05178732 -0.13111025 -0.33181804 0.21596749 0.46165898 0.46059614
-0.07795574 -0.5416337 -0.510303 -0.60201055 0.17256936 0.5591183 0.10643286 -0.14665774
-0.39848402 -0.0468103 0.048785135 -0.006180932 -0.07512701 -0.5070702 -0.03146293 0.47232834
-0.48188207 -0.5344126 0.07292193 -0.081124485 0.16172004 -0.17747463 -0.3357553 0.14553382
-0.359716 -0.0033964529 0.17080188 -0.2636842 -0.24419595 0.26704574 -0.021873176 -0.09739679
-0.16065608 0.12534979 0.029170927 0.48168853 -0.11281831 -0.42706567 -0.35217166 -0.13097034
0.09430723 -0.3955226 0.503647 0.19973725 -0.51605946 0.022218449 0.52197975 0.4762191
0.43763012 -0.295927 0.4087996 0.21431905 0.25042444 -0.2713749 0.3724786 -0.20099673
0.08503128 -0.6062149 0.24401148 -0.4003733 -0.4115724 0.5608311 -0.2971416 0.21384725
-0.09963541 -0.13905363 0.5045166 0.26535702 -0.24702895 0.2148795 -0.2356356 -0.5719103
-0.25517917 0.371947 -0.20897827 -0.03373821 0.038656965 0.24968481 -0.35336852 -0.18136056
-0.57847536 0.4427196 -0.35995436 0.2643082 0.3038357 -0.44742095 -0.21214856 0.28441057
0.20588106 -0.26885712 -0.5814318 0.156211 0.12455227 -0.38938203 0.4503396 -0.5038822
-0.11863751 -0.13138393 0.5845394 -0.5381527 0.110579655 -0.18375735 -0.61463183 -0.072911516
-0.17131539 -0.41907293 -0.17290786 0.15367937 0.34658572 0.33875138 -0.5034077 0.442878
0.14710768 -0.35962063 -0.2461034 -0.49201217 0.60240686 0.15290216 -0.4808861 -0.051405866
-0.12372386 0.36451054 0.107030615 -0.2888333 0.57656103 0.15729764 0.2576768 0.09727721
-0.38195878 -0.47236636 0.37216562 -0.33528465 0.44405302 -0.26696792 -0.6390143 0.28318316
-0.32547757 -0.36518395 0.48213214 -0.46139893 -0.41142374 -0.20422848 -0.42887804 -0.551071
0.06408947 0.0015241976 0.47123376 -0.53625 -0.30352408 -0.6209574 -0.11840199 -0.55006874
0.0052735945 0.20817825 0.06985123 0.48798907 -0.52390516 0.37230167 -0.07824398 0.015857149
0.63282436 0.12350925 0.48289776 -0.26423368 -0.36229986 -0.29931295 -0.05920381 -0.42503023
-0.19453423 0.34998804 -0.5238554 0.46698737 0.36710995 -0.2589529 0.21428639 0.019750016

ms.layers.0.bias f4 [164]
00000000: b688 efbe 3246 23bf 3bf8 f83e f89c 8d3f
00000010: 17bd 583e f914 a6bd a952 883e d1c6 8d3e
00000020: b749 4fbf 165e b33e 91ea 273f 20e7 77bf
00000030: 4d79 e2be db61 96bf 6cbc 933f ee56 1d3f
00000040: 20a0 9fbf 369f 18bf 554d 29be eeaa a3bf
00000050: 70fd 3dbf f8c8 88bf db4d d03e 56b4 12bf
00000060: 8c35 1ebf 9c81 65bf 1e1a cbbe b38f 683f
00000070: f82c 143e 88d2 0c3f 6829 7d3f 0fef c2be
00000080: 8165 dfbd 7642 f7be ebb8 7d3e ea3c 96be
00000090: 4da8 0d3f d065 1c3f 4760 61bf d6e2 c8be
000000a0: 972a ecbe e1e0 3abf 0cf3 f8be 5470 3b3f
000000b0: 4171 87bf 3667 923f 61ab 69be 3b80 47bf
000000c0: 491c 5fbf dc4b 893f 0496 27bf 4b96 abbf
000000d0: 9994 5dbf eeaf 08bf 286a 353f b889 5c3f
000000e0: b532 debe fa96 f1be bd72 7d3f a137 643f
000000f0: 15f5 2f3f 3c2a 84bf fd50 163f 71db 2ebe
00000100: c7e0 6e3f ba0e b3bc 40c5 84bf 61d6 5cbf
00000110: 90c7 85be 5774 28bf e494 67bf c9b2 933d
00000120: 7b3b b13f 7555 733d 2cc4 34bf 2350 49bf
00000130: f3f3 343e 9ad1 a7ba 946f 58be d95f 883e
00000140: 8472 87bf a82b 58bf f2a0 073f e138 afbf
00000150: 6a49 aa3e cdba a1bf b806 ce3e f072 1bbf
00000160: 2cfb b63f d3ee 70bf 61bb ee3e dc96 9ebf
00000170: 123b 1abc 4ad1 b53f a32d a63b 2bf8 143f
00000180: e457 54bf b75b fbbe d597 d73d 0a01 78bf
00000190: e85e 233f f57f 02bf 63c7 4c3f bc5c 0fbf
000001a0: eb93 1bbf a0f1 4e3f b3c9 83bf 2c9f b4bf
000001b0: c2cb 31bf 19f4 3fbf 63fb 4abf e56e 0cbf
000001c0: 9db9 6f3f d2b4 98bc 6d8f 42bf 38a5 e1be
000001d0: a033 4a3f 0327 92bf 8ee8 94bf e2d3 6c3f
000001e0: 59df 9bbd 1785 dc3e 0396 023e 014d 1dbf
000001f0: 2059 9c3f a4f2 013d f60f 88bf 6ced 643e
00000200: 482a 1fbf afe2 c53e e4af 273f 7191 7a3f
00000210: 6e15 883f 40fa 7f3f d71e 92be 8f7c 0dbe
00000220: 1efd aa3e bad6 94be 4dd5 f3be 8476 993f
00000230: e01a f03e 545f a23f b3c5 973e 4216 66bc
00000240: aeae 4dbf 7a1d 04be 82a7 643f ff2d 503f
00000250: 34ee 443d 159d 943e 796a 77bf 004b 4ebf
00000260: 4cb8 e3be 5e9c 52bf 3df5 66bf b7dc 90be
00000270: b1cc 8b3e 9e72 6f3f 74fb 52bf 70f3 85bf
00000280: bb1a 363f 1885 95bf c008 4dbf 4916 77be
-0.4678399 -0.63778985 0.48626885 1.1063528 0.21165882 -0.08109469 0.26625565 0.27690747
-0.80971855 0.3503272 0.65592295 -0.96837044 -0.4423317 -1.1748613 1.1541877 0.6146077
-1.2470741 -0.59617937 -0.16533406 -1.2786539 -0.7421484 -1.0686331 0.406844 -0.5730642
-0.61800456 -0.89650893 -0.39668363 0.9084427 0.14470279 0.55008745 0.98891306 -0.38073012
-0.10908032 -0.48292893 0.24777572 -0.2934335 0.5533493 0.61092854 -0.8803753 -0.39235562
-0.46126243 -0.7299939 -0.4862293 0.73218274 -1.0581437 1.1437747 -0.22819282 -0.7793004
-0.87152535 1.0726275 -0.6546328 -1.3405241 -0.8655487 -0.5339345 0.70865107 0.8614764
-0.4339806 -0.47185498 0.990032 0.8914738 0.6873334 -1.0325389 0.5871733 -0.17075898
0.93311733 -0.021857608 -1.0372696 -0.86264616 -0.26128817 -0.6580252 -0.90461564 0.07211835
1.3846277 0.05940767 -0.70611835 -0.78637904 0.17671184 -0.0012803555 -0.21136314 0.26635626
-1.0581822 -0.84441614 0.5297996 -1.3689233 0.33259135 -1.2635132 0.402395 -0.60722256
1.4295402 -0.94114417 0.46627334 -1.2389789 -0.0094134975 1.4204495 0.0050713583 0.58191174
-0.8294661 -0.4909341 0.105270065 -0.96876585 0.6381669 -0.50976497 0.7999174 -0.56000876
-0.6077258 0.8083744 -1.0295929 -1.4111075 -0.69451535 -0.7498184 -0.79289836 -0.5485671
0.936426 -0.01864091 -0.760001 -0.44071364 0.78985023 -1.1418155 -1.163347 0.9251081
-0.076109596 0.4307029 0.12752537 -0.61445624 1.2214699 0.03172554 -1.0629871 0.22356194
-0.6217389 0.38649508 0.6550276 0.97878176 1.063154 0.99991226 -0.28539154 -0.13817047
0.33396238 -0.29070073 -0.47623673 1.1989293 0.46895504 1.2685342 0.2964302 -0.014043393
-0.80344665 -0.1290187 0.89318097 0.81320184 0.04807873 0.29026094 -0.9664684 -0.8058319
-0.44476545 -0.8226985 -0.90217954 -0.28293392 0.27304605 0.93534267 -0.82414937 -1.0464916
0.7113454 -1.1681242 -0.80091476 -0.24129595

ms.layers.2.weight f4 [164, 164]
00000000: d314 fb3c 663d 9dbd 8f3d 553d 96b8 783d
00000010: 7c75 8fbd 01f8 193d ded8 b9bc b207 163d
00000020: 0be7 e73c 1243 b0ba 9547 2d3d bac7 083d
00000030: a941 34bd ed5c 16bd aca0 3dbd b050 01bd
00000040: f0cb 473d dde4 2dbd 476f 913c 6c92 8f3c
00000050: c248 ae3c 2895 003d d748 72bd c232 a53c
00000060: b45a 90bd 1b47 a13c 0417 0d3d 0460 ad3b
00000070: 1145 5c3d b76c 63bc 6b10 30bc 8ef8 76bd
00000080: 5f2f 9d3c 4b09 f73c d0a4 4d3d c0cd 32b8
00000090: 2dcf dd3c 2278 103d 7050 d4bc 7eb7 52bd
000000a0: 3384 6d3d b765 fd3c d188 5f3d d55b 9e3d
000000b0: 5149 46bd b7f8 963d b012 60bd 12a7 7ebd
000000c0: f0a6 32bc 2c79 3abd 6a81 3d3d 02bd 5d3d
000000d0: 16bb d33c 401b f9bc 0547 32bd 7377 3e3d
000000e0: 7a6b 4fbd 70a5 d93c e266 7f3d 623e 1d3c
000000f0: 8f47 debc 467d 3ebd 222a 4f3d 6771 3dbd
00000100: 7207 aabc ba6f 17bd c236 ab3c 4042 903a
00000110: 5304 3d3d cdf9 c9bc cfe3 59bb 8984 90bd
00000120: 0cf8 ff3c c7ab 943d f31a fabc 34db 983c
00000130: 3d07 7ebd 4929 a4bc abe0 88bd 7931 debc
00000140: c62f be3c f474 8a3b 9fa4 eabc c156 9abc
00000150: a2eb 113d a8ec a83c bcfd 8dbd 327e 573d
00000160: e351 513d d268 1ebd f930 98bc 7ce1 1cba
00000170: 90df 093d 291d 433d 40cc 993d 3ecb aebc
00000180: 23d9 ae3c 82e4 d53c d002 7dbd cc45 203d
00000190: 4941 8a3d cc6b 683d 9b3b 82bd 1cbe 8e3d
000001a0: eec0 99bd fd17 9e3c 9cae 13bd 7bcc 733d
000001b0: 7650 8fbd 08a3 8bbd 2c0e 853c 7cdd 50bc
000001c0: 4f55 4dbd d4a9 cfbc 3e2f c1bd 2042 9fbb
000001d0: 2dd4 89bd 146c 943c 8b59 bf3c 8bfe 4abd
000001e0: 401a 2e3d f279 d3bc 31c5 973c cfd5 c73a
000001f0: 4c9f 2fbb c2fd 0cbd ed5d ae3c cabc bc3c
00000200: 6854 833c e5d5 6ebb 108e 14bd 9001 493d
00000210: d42f 84bc 9fa8 d1bb 42cd 54bd cd07 b1ba
00000220: 2d11 e7bc 6068 a3bd fc9e 46bc 2344 8ebb
00000230: 8364 33bd 2541 2e3d 49fc 78bd 8528 5e3d
00000240: 91cb 003d bc23 b13c 8981 e6bc 1098 febc
00000250: eb25 75bd 02ff 8e3c b8ec 23bd 4b42 e23c
00000260: 1057 023d 6c57 4b3d 63db 04bd 8d68 463d
00000270: e566 93bd f91d a7bc 8565 133c a184 f6bc
00000280: 4106 48bd 0e5b 8f3d 68f0 733d 79bf 3c3d
00000290: 9404 b0bc 201f 98bd 96b7 5fba 541a 143d
000002a0: 037a 183d 6df9 39bc 326f 5a3d d503 643d
000002b0: 3a15 d13b 5653 823c 0e90 093d 1ce8 95bc
000002c0: 9ba9 603d 57bc 2d3d faef 53bc fb45 983c
000002d0: cac1 8c3d 6c87 533d 7981 723d f6f5 af3c
000002e0: c3cc 303d ec4c 1abc 140a 75bb cf9a 93bd
000002f0: 58b6 683d 567f 4a3d 5b8a 1ebd d907 f2bc
00000300: acc7 aabd 9505 3abd 532e 363d 120e a23a
00000310: a55b e93c 7c4c 9dbd 2501 24bd a84c 063d
00000320: aab4 90bd e7b2 faba 7fac 7f3c 5cc3 53bd
00000330: 4cf8 09bd 1427 62bd 8920 28bd bbd7 74bd
00000340: 2e71 8b3d 4c69 633d 01d8 783d 0893 923c
00000350: aada 613d ddb9 3e3d e432 11bd 090d 8ebd
00000360: c70e 20bd 032a a5bd 5b49 52bd ef7d b3bc
00000370: 8434 3a3c 13b4 293c f8e0 f6bb c775 303d
00000380: d65c 98bd d870 6dbd cca5 71bd d7cc f3bb
00000390: d9bc aabd 09ca 5e3d 1b5b 60bd d523 b7bd
000003a0: ad11 31bd a75e 67bd eea1 523d 48e9 6b3d
000003b0: 8a3e 53bd f58b 0cbd c4ed 663c d186 283c
000003c0: 30f8 c13c 18e3 12bc 7ebb e43c 5fe2 153d
000003d0: dd70 9cbc 4f43 82bd ebfa a7bc a689 71bc
000003e0: 0a7d a6bd 80a3 193c c82c c0bc 284a 3e3d
000003f0: 8abe b33c e465 893d 79d9 9bbd ecdf 473c
0.030649578 -0.076777264 0.05206066 0.06072291 -0.0700483 0.03759003 -0.022686418 0.036628433
0.028308412 -0.0013447723 0.042304594 0.0333936 -0.04400793 -0.036709715 -0.046295807 -0.03157109
0.048778474 -0.04245459 0.017753256 0.017525874 0.021274928 0.031392246 -0.059151497 0.020165805
-0.0704855 0.019687226 0.034445778 0.005290987 0.053776804 -0.0138809 -0.010746102 -0.060295634
0.019187627 0.030155798 0.050206006 -4.2630127e-05 0.027076328 0.035270818 -0.025917262 -0.051444523
0.057987403 0.03093229 0.054573838 0.07732359 -0.048409764 0.07371657 -0.05470532 -0.06217105
-0.010904059 -0.045525715 0.046265997 0.05413533 0.025846045 -0.030408502 -0.04352476 0.046500634
-0.050639607 0.026568145 0.062353976 0.009597393 -0.027133731 -0.04650619 0.05057729 -0.046250727
-0.020755503 -0.036971785 0.020900134 0.0011006072 0.046146702 -0.024655247 -0.0033247357 -0.07056529
0.031246208 0.072593264 -0.030530429 0.018659212 -0.06201862 -0.020039218 -0.06683477 -0.0271232
0.02321614 0.0042253677 -0.02864295 -0.018840196 0.035625108 0.020620659 -0.069331616 0.052610584
0.051103484 -0.038674183 -0.01857804 -0.00059845275 0.03366047 0.04763523 0.07509661 -0.021337148
0.021343773 0.026109938 -0.06177026 0.039129063 0.067507334 0.056743428 -0.06359025 0.06969854
-0.075075015 0.019298548 -0.036055192 0.05952118 -0.069977686 -0.06818205 0.01624211 -0.0127481185
-0.050130185 -0.025349535 -0.09432839 -0.0048601776 -0.067299224 0.018117942 0.023358127 -0.049559157
0.042505503 -0.025814984 0.018526645 0.0015246215 -0.002679783 -0.03442169 0.021285022 0.02303924
0.016031459 -0.003644341 -0.036268294 0.049073756 -0.016136087 -0.006398275 -0.05195356 -0.0013506353
-0.028206432 -0.07978892 -0.012122866 -0.0043416186 -0.043797027 0.042542595 -0.060787473 0.05423786
0.031444136 0.021623485 -0.028137939 -0.031078368 -0.059850615 0.017455582 -0.040020674 0.027619502
0.03182131 0.04964392 -0.032435786 0.04843955 -0.0719736 -0.020400034 0.008996372 -0.03009254
-0.04883409 0.06999789 0.05955544 0.04608104 -0.021486558 -0.074278116 -0.00085341313 0.03615792
0.037225734 -0.011350972 0.0533287 0.055667717 0.006380704 0.015908878 0.033584647 -0.018299155
0.05484925 0.042415943 -0.012935633 0.018588057 0.068729 0.05164282 0.059205506 0.021479588
0.043164026 -0.009417754 -0.003739004 -0.07207262 0.05681452 0.049437843 -0.038706165 -0.029544758
-0.08338866 -0.04541548 0.044477772 0.0012363812 0.028486082 -0.07680604 -0.040040154 0.03278795
-0.07065709 -0.0019126803 0.015605091 -0.05169998 -0.03368406 -0.05521305 -0.041046653 -0.05977605
0.06808697 0.05552034 0.060752872 0.017892376 0.055140175 0.04656397 -0.035448924 -0.0693608
-0.039076593 -0.08064654 -0.05133949 -0.021910636 0.01136506 0.010357874 -0.0075341426 0.04308107
-0.07439582 -0.057968944 -0.058996007 -0.0074401903 -0.08336801 0.054391894 -0.054774385 -0.08942381
-0.043229748 -0.056486752 0.05142396 0.05759552 -0.051573314 -0.03431316 0.014094774 0.010286049
0.023677915 -0.008965276 0.027921434 0.036592837 -0.019096786 -0.06360494 -0.02050539 -0.014742291
-0.08129318 0.00937736 -0.023458853 0.04645744 0.021941442 0.06708887 -0.07609839 0.012199383

ms.layers.2.bias f4 [164]
00000000: 2eab c7bb 2e89 debd 8f1e bb3c 4cdc 85bd
00000010: 9bf3 f0bc c428 abbc 08b9 013c 98b6 f83e
00000020: bd01 1e3d 3bb7 0b3c afea b93c e4d8 9dbe
00000030: 0390 24bd 3bda a2bc 90c0 8dbc f02e 5fbd
00000040: 40e0 123d c627 603d e7e9 43be dbc0 973c
00000050: 47d9 d0bd 9590 563d 10cc 4c3d 3294 babc
00000060: 72e6 d939 c514 64bd 4f92 17bc 7af9 4c3d
00000070: aa13 143f 0579 313d 4752 6b3d 6c5e 9fbd
00000080: 51fe 913c 09bb 04bd ce45 3a3d dbe6 82bc
00000090: bffb 6bbe 1665 5abd 296c 4e3d b0c2 37bc
000000a0: 1790 50bd 4281 9fbd e05d 7e3d 0e97 b8bd
000000b0: cd65 79bc 33fa 833d 3406 4c3d 8c6a 5a3b
000000c0: 5bb2 58bd 28a8 f93c 2b66 c1bb 5429 00bb
000000d0: 6c4d 363d 8041 883c e003 a03b 1e56 a4bd
000000e0: b12b aabd 0634 ebbc 5f8a f8bc 8991 5cbe
000000f0: ef8c 7cbd 2c4d 05bc de4e abbc 4a06 fd3c
00000100: fc44 83bd 3af9 acbd a4bf 243d e6c1 2bbd
00000110: c4bb 323c 9217 63bd 60e2 91bd 678c aebd
00000120: 4aeb 29bc 8ddc 533c 859d 0fbd b857 9dbd
00000130: b6ef 13bd ad46 28bd 484f a8bd 42a5 57bd
00000140: dad2 82bc d6d5 823d cf5d bf3c 3e31 e23c
00000150: 5fb0 5a3d 3fd1 09bd 6930 00bf 1930 893d
00000160: 6c8d 3bbd 1667 8a3b c1aa af3a 3728 ca3b
00000170: a3f9 b4bd ac9a 33be 34cb b4bd 6144 fabe
00000180: bc6e 92bd 8b05 8bbd b778 ee3c 49b2 2d3c
00000190: ae65 043d 46ed d2bc fd81 623d 0492 1dbd
000001a0: 9383 263d 7be6 1e3d b86c 48bd ba2c af3d
000001b0: 50f8 7abd a33c 8abe ac92 f4bc ad33 48bd
000001c0: d517 19bd e39b 9a3d 691b a63c 1a5e 29bd
000001d0: 5670 233c a502 983d 904a 76bd 4045 99bd
000001e0: 7fd2 033b fc5a 0c3c 6887 1f3c ec42 22bd
000001f0: fdb6 fc3c 8435 b63c d6fa 8dbd d378 9a3d
00000200: ac20 fa3e 2f7b 87bd af46 0b3e 6342 2bbd
00000210: 39a9 443c e687 3ebd 3313 9b3e f7ae c9bc
00000220: 71d2 e7bb 9b12 9cbd defa 0ebc ce41 4abd
00000230: 8993 2e3e 8165 bd3c 1be6 a1bd 8df0 91bd
00000240: cd9d e2bc 4293 7abd ab94 563c 55b9 723c
00000250: 45ea afbc e27c d43b 34a8 d2bc f140 743c
00000260: c86f 5bbe 0dc1 7d3d a014 903d 90d4 c0bb
00000270: 4d16 4abd e3f6 03bd 3e1d d03c 111c 4bbd
00000280: dfb5 81bd be99 8cbd 30eb 8abd 1054 013b
-0.0060934043 -0.10866009 0.02284172 -0.06536159 -0.029413035 -0.020893462 0.00791765 0.48576808
0.038575877 0.008527572 0.022694914 -0.30829537 -0.040176403 -0.019879451 -0.017303735 -0.054488122
0.035858393 0.05472543 -0.19132195 0.018524578 -0.10197692 0.052383978 0.049999297 -0.022775743
0.0004156116 -0.05568387 -0.009251191 0.050042607 0.57842505 0.043328304 0.057451513 -0.077816814
0.017821463 -0.032404933 0.045476727 -0.015979221 -0.23045252 -0.05331906 0.05039612 -0.011215851
-0.050918665 -0.07788326 0.062101245 -0.090131864 -0.015222025 0.06444206 0.049810603 0.0033327667
-0.052904468 0.030475691 -0.005902072 -0.0019555883 0.04450743 0.016632795 0.0048832744 -0.08024238
-0.08309115 -0.02871133 -0.030339418 -0.21539892 -0.061657842 -0.008136075 -0.02091163 0.030886788
-0.06409642 -0.08445974 0.040221825 -0.041932963 0.010909025 -0.0554424 -0.07123256 -0.08522873
-0.010371039 0.012931001 -0.03506233 -0.07682747 -0.036117278 -0.041083027 -0.08218247 -0.052647837
-0.015969682 0.06388442 0.023360161 0.027611371 0.053390857 -0.03364682 -0.5007387 0.06698627
-0.045789167 0.0042237146 0.0013402329 0.0061693448 -0.08836677 -0.17539471 -0.088278204 -0.48880294
-0.07150027 -0.067881666 0.029110296 0.0106015885 0.03232353 -0.025747906 0.055299748 -0.03846933
0.040652823 0.038794022 -0.048931807 0.08553453 -0.061271966 -0.26999387 -0.029855095 -0.048877407
-0.037376244 0.07549264 0.020276742 -0.041349508 0.009975513 0.074223794 -0.060129702 -0.074839115
0.002011448 0.008566614 0.009736873 -0.039614603 0.030848974 0.022242315 -0.06932609 0.07542577
0.48853052 -0.06615292 0.13601182 -0.04181136 0.012003236 -0.04651632 0.30288085 -0.024619563
-0.007074647 -0.07620736 -0.008726804 -0.049379162 0.17048468 0.02311969 -0.07905217 -0.071259595
-0.027663136 -0.061175592 0.013096969 0.014814694 -0.021474013 0.0064846138 -0.025714971 0.014908061
-0.2142936 0.061951686 0.07035184 -0.0058847144 -0.049337674 -0.03221787 0.025404569 -0.049587313
-0.06333517 -0.068652615 -0.0678314 0.0019733943

ms.layers.4.weight f4 [2, 164]
00000000: a2ed 31bb 0f30 afbc 933c 03bc 9cd9 1dbd
00000010: d4b6 fd3c d211 89bd 3900 c63b 33f7 1dbf
00000020: 6c92 c73b 6c05 2e3d b0c1 bdbc 1274 123c
00000030: a777 8cbd bb37 67bd 5ec9 26bd 1ffd 31bd
00000040: 143d 9f3c 60f8 963b 05af b9bd 1f65 5abd
00000050: 0c37 32bc 8c51 debb efc2 7abd 4c2c 85bc
00000060: dbed 8bbb 91e1 d5bc a51a 1e3d 7364 ed3c
00000070: 5429 3bbf 3a4d 613c 295b dd3b 1a20 923d
00000080: 02db c7bc 0b8e 11bd 46bb b13b 028b c53b
00000090: a10f 03bc cf51 063d c4e9 f5ba 4619 273d
000000a0: 2679 203d 34c1 5cbc 5d10 993c 79ee 21bb
000000b0: 67e9 40bd ae4d 59bd 38ff 0a3a af0e b13c
000000c0: 7e9e 443d 77ed 72bd bd2d 4a3d a019 2e3d
000000d0: bbd1 013c 335b fdbc 2be0 82bc 8296 4abc
000000e0: 79a8 30bd ff56 0abd 14a4 433d bf4f 51bd
000000f0: a4a9 65bd 37b5 9cbc b97e 2e3c 0612 c73b
00000100: 3b48 28bc 458e 973c b82a a4bb 7031 99bc
00000110: 8036 27bd e437 cd3c 3e23 5e3a fb97 8bbb
00000120: b81b f2bc 8055 093c 8b00 893d fc22 e03b
00000130: a0b7 02bd 4e3a fcbc 240d d0bb 4587 783d
00000140: 9662 26bd c85c 68bd 985b f8bc 94c9 3dbd
00000150: 53c0 6b3c a4db 1abd 93d7 9bbe a930 303b
00000160: 8e4b 713d c72d 643b 1fd6 163d 3f9f bb3c
00000170: 739a fd3b 35d6 33bd 1f9e fabc 83b9 ebbe
00000180: f545 0cbc 39d6 1eb9 8c5b 213d f7cf a83b
00000190: ee1b c0bc b0b7 d83c a84e 0d3d f712 50bd
000001a0: c382 1e3d 63bd 473d 36a4 303d 646d 863b
000001b0: 76d2 1ebd 81de 17bd 827d 86bc 30d2 ea3c
000001c0: 49d8 523d ad7b 88bd c767 073d f484 133c
000001d0: 4c59 e0bc d3bf 793c afb5 7abd 89b3 43bd
000001e0: bb42 953d 8200 8ebb add3 46bd 648e 6c3d
000001f0: 2e65 953b e8e4 ef3c 535a 893c 6a3b 8b3c
00000200: e771 ab3e 3e69 893d 67fe 373d 92d7 08bd
00000210: 3652 1f3d 60a4 12bd f8a6 223e fdde e03c
00000220: 8369 063d 865c 4dbd bf57 b73b cfbd d2bc
00000230: 0a04 053d fab6 9fbc be3c 0abe 82f9 6c3d
00000240: 42bc de3c 5217 89bc 233b 1b3d e195 b53c
00000250: 50f9 9aba 5fee 9e3c 29c1 4dbc c3e2 9dbc
00000260: b660 7ebd 2717 82bb 68d1 103d 0edf cc3c
00000270: b89a 7bbd ad73 00bc 2e1d babb 7a63 2d3c
00000280: c0fa dcbc e809 583b 4834 9f3a 1a7d 483d
00000290: daf1 c2b9 f370 49bb 895a 263b eed9 8abb
000002a0: 4c1a 083c 610e 80bd d112 063d 8da4 8cbd
000002b0: 43a5 9bbc 5bab 723d d157 433d 036b 963d
000002c0: 4f97 63bd aa24 453d cb39 58bc c8f1 143d
000002d0: 2ce4 003b 730d 3ebc 4182 b63d 1863 8abd
000002e0: 9f89 88bc 3f61 593d 1906 823d b185 dbbc
000002f0: 9aeb c73c dbe2 c33b 12f6 aebc c92f 5d3d
00000300: 0e53 413f c423 d8bc 213d a03c 06d2 0e3d
00000310: e730 00bd 380a 423c 2da8 f6bb ebc4 5e3d
00000320: da28 ac3a 9b17 6abd 1c07 2f3b c9d8 3cbc
00000330: 9270 02bc edc2 f8bc 2258 5f3d 44d8 203d
00000340: 4b56 213d 84d1 343d 2448 193c ed70 c0bc
00000350: adfb 983c 7f2a db3b b2e6 d8bc a5bb 38bc
00000360: 8f57 c6ba 4d47 3e3c a8ea e4bc f1db 683d
00000370: 1247 083b f20d f5bb 8906 b03c f1c4 bebc
00000380: d20e 0b3d 4c5d 553b 5547 1b3c 42ac b93b
00000390: eb49 f7ba db80 10bc ea19 46bb 324b 063a
000003a0: 5ef4 5cbc c41a d93b f67d 803d cfde ae3c
000003b0: 922e 11bd a18d d53c 2715 1d3d 3d7a d7b9
000003c0: 99db 25bd d69a 2cbd 8e8c 203b a134 8e3c
000003d0: 2e0d 8dbc 5f0a abbc 9bb8 1dbb b763 18ba
000003e0: 0be3 98bb 24ba f33c 2578 683e 023f 63bd
000003f0: 0a99 eb3c 63e9 3238 fc6c 2dbc 3578 2f3d
-0.0027149697 -0.02138522 -0.0080100475 -0.038537607 0.030970968 -0.06692852 0.006042507 -0.6170532
0.006090453 0.04248564 -0.023163646 0.008938806 -0.068587594 -0.056449633 -0.040719382 -0.043454286
0.019438304 0.0046072453 -0.090665855 -0.053319093 -0.010877382 -0.0067846235 -0.06122106 -0.016256474
-0.004270298 -0.026108535 0.03859963 0.028978562 -0.73109937 0.013751322 0.006755252 0.07135029
-0.024396423 -0.035535853 0.005423936 0.006028534 -0.007999332 0.032792863 -0.0018761684 0.040795587
0.039178036 -0.013473798 0.01868456 -0.0024708791 -0.04709759 -0.053052597 0.0005302313 0.021613447
0.048002712 -0.059308495 0.049360026 0.042504907 0.007923539 -0.030927276 -0.015976032 -0.012364985
-0.043129418 -0.033774372 0.0477639 -0.051101442 -0.056069985 -0.019129379 0.01065033 0.0060751466
-0.010271127 0.018500457 -0.0050099753 -0.018700331 -0.04082346 0.025051065 0.00084738794 -0.004260061
-0.029554233 0.008382201 0.06689557 0.006840108 -0.0319134 -0.03078952 -0.0063492227 0.060675878
-0.040621363 -0.056729108 -0.030317113 -0.046334818 0.014389115 -0.037807122 -0.30437908 0.0026884472
0.058909945 0.0034817324 0.036825296 0.022903083 0.007739359 -0.043905456 -0.030592976 -0.46039972
-0.008561601 -0.00015147858 0.039393947 0.0051517445 -0.023450818 0.026454777 0.03449884 -0.050799336
0.038698923 0.048764598 0.043125354 0.004102396 -0.03877493 -0.03707743 -0.016417269 0.028664678
0.051475797 -0.06664214 0.033057954 0.009003866 -0.02738633 0.015243488 -0.061208423 -0.04777864
0.072881185 -0.0043335566 -0.048541714 0.05775298 0.0045591807 0.029283956 0.016766703 0.016996104
0.33485338 0.067095265 0.04492035 -0.03340871 0.03889676 -0.03580129 0.15884006 0.02745008
0.032815468 -0.050137065 0.005595177 -0.025725273 0.032474555 -0.01949643 -0.13499734 0.057855137
0.027189378 -0.016734753 0.037898194 0.022166194 -0.0011823568 0.019400774 -0.01255826 -0.019273167
-0.06210395 -0.003970045 0.035355955 0.025008705 -0.06142685 -0.007840079 -0.005679748 0.010582799
-0.026975036 0.003296489 0.0012146318 0.04894743 -0.00037182757 -0.003073749 0.0025383553 -0.004237405
0.008307051 -0.062527426 0.03273279 -0.06867323 -0.018999701 0.05924545 0.04769117 0.073446296
-0.05556422 0.04813067 -0.013197373 0.036363393 0.001966725 -0.011599886 0.08911563 -0.06757182
-0.016667185 0.053071257 0.06348819 -0.026797147 0.024404336 0.005977971 -0.02135757 0.05400065
0.75517356 -0.026384242 0.019560399 0.034868263 -0.031296637 0.011843257 -0.0075273723 0.054387014
0.0013134733 -0.05715142 0.0026707118 -0.011526295 -0.007961409 -0.030366385 0.05452741 0.039268747
0.039388936 0.044145122 0.009355579 -0.023491347 0.018674696 0.0066884155 -0.026477192 -0.011275207
-0.0015132296 0.011613679 -0.027943924 0.056850377 0.0020794314 -0.007478469 0.021487491 -0.023287268
0.03394968 0.003255683 0.009477456 0.0056662867 -0.0018866634 -0.008819784 -0.0030227848 0.00051228993
-0.013485996 0.006625505 0.06274025 0.021346478 -0.035444804 0.02606851 0.03835025 -0.0004109907
-0.040492628 -0.04213985 0.002449784 0.01735908 -0.017218199 -0.020878969 -0.0024066332 -0.00058131985
-0.0046657375 0.029751845 0.22702082 -0.05548001 0.028759498 4.2655865e-05 -0.010585066 0.042839248

ms.layers.4.bias f4 [2]
00000000: 2f08 3b3e f91a 10be
0.1826484 -0.14072789

exp_avg f4 [164, 2]
00000000: 5939 0238 8100 9137 c4ad d038 ea9e 0437
00000010: a0f9 3db8 20dd e5b7 1c02 d6ba 64a1 29b9
00000020: b8d9 3bb7 191d a1b8 ab61 3b39 63d0 ef37
00000030: e64d c2b8 911f c038 d5c1 9bb7 f025 2d38
00000040: 7719 6338 1cee 8bb7 b8ff 43b9 3604 d838
00000050: 0b6b 4cb8 d2c3 6e38 34d6 bf38 622f 0538
00000060: 702c 1438 101b 3c38 87f9 023a 619c 91b9
00000070: 2eaa d1b9 70b2 7339 3c62 19b8 3835 88b8
00000080: 25a3 aa3a fc12 acb9 ba39 9139 1ad4 07b9
00000090: 5bf9 2638 a8f4 bcb6 c4ba 113a b8ad 56b8
000000a0: 16e8 1839 70fd 9238 1ee7 a538 aed9 1538
000000b0: 8c0d 87b9 aa95 6438 e3ab 3339 8273 2739
000000c0: dc6e 0238 e427 61b7 c4df 91b7 b064 65b7
000000d0: 2de5 e037 eb77 2737 bccb e6b8 5781 72b8
000000e0: 6e7e 2d37 1619 e6b7 f8ef a7b9 0f57 3f39
000000f0: c9b8 82b9 92c9 b338 0d6c 0938 622c a738
00000100: 7854 7536 3a47 dab7 0c3d 1939 ae6c acb8
00000110: b30c 12b9 8bc4 8538 657c 0fb8 286d a4b7
00000120: 59e4 a7b7 e471 1d37 7d80 cfb8 c00f 8ab8
00000130: fc5b 103a 3d33 23b9 2f0b 3838 758d c938
00000140: 0acd 8f37 245e 0fb7 23c5 8439 3048 c0b8
00000150: 1a07 2a39 6e85 9a38 b4cf 07b9 b13b d4b8
00000160: e05e 093a 0561 8db9 e24e 2fbb 6f08 343a
00000170: b475 3d37 2f81 b0b7 b5e4 d039 9880 21b8
00000180: bdb1 8f39 91ca d9b8 400d 26ba 24b0 0039
00000190: ea6e 3238 2c19 4938 f397 bb3a aecf 93b9
000001a0: 7cf5 9e39 641e 27b9 da6c e537 d909 8b37
000001b0: 3a4e 46b9 dec0 b237 52d7 33ba be42 6539
000001c0: 5e28 3039 7ab6 b3b8 7904 2739 389e 9a37
000001d0: 5bb9 edb8 9820 1f37 bdcf 07ba fcb2 9e39
000001e0: dc09 42b7 42f6 b0b7 bca5 0439 6a60 dd37
000001f0: 55d5 efb8 9438 7f38 dade 2138 55ff ce37
00000200: 797e a3b8 1cb4 82b8 a6c7 eb37 1867 6db7
00000210: 7867 4136 ec27 4a38 2028 9e38 5296 6738
00000220: 1e75 1ab8 b4fe 3cb8 67fa e837 50ab 1237
00000230: 5a5f a639 0252 02b8 4eb3 2638 c420 85b7
00000240: 8adc 9eba 3efc ad39 8ab1 b336 7e83 dfb7
00000250: 3cb9 ea39 8e6e 21b9 371b 0e39 c74f 9fb8
00000260: 6cfb e536 3140 9338 d5e2 86b7 9651 6e38
00000270: e2a9 a838 e06d 3c37 e202 f1b8 489f b138
00000280: 7cad 053a f9e9 09b9 82cc c539 e2b9 b6b8
00000290: 0cf5 0d37 0d6c 0f38 42d7 fa3a 8fa1 dcb9
000002a0: 7aad 4836 ac90 1938 7b19 4a3a 3824 80b9
000002b0: d660 34b8 60ed f9b7 6436 3536 02fb 3a37
000002c0: 92f7 60ba 1c43 6239 a5a7 c937 e8d5 de37
000002d0: f632 a1b8 f96b 43b8 feb8 e539 9b5e 6cb9
000002e0: 5a0f 0838 7ed1 c7b7 c3ed eaba f9b9 99b9
000002f0: 6afa 0838 3b24 5338 cefa 67b9 8b7c 8a38
00000300: 3e72 b6b8 c0c6 d337 c833 6438 9c20 c5b8
00000310: a260 1fb7 42b3 29b8 a94e c539 68f4 55b9
00000320: f2ae 4ab9 d9f5 df38 143c 81b8 47a9 b8b7
00000330: 8ebb 90b8 14c3 c7b8 0aa0 e038 98c0 f135
00000340: 2850 5939 d446 84b8 b6c1 2eb8 eaaa cfb7
00000350: e2e3 1f38 a4b3 6e37 9c54 213a 342b 05b9
00000360: 3aca 5839 9682 0cb8 a0b5 3a35 a063 8c35
00000370: 0b09 7139 6bad eeb8 ae28 1439 052e 6eb8
00000380: 3352 01bb 243d 143a 18f7 0937 2845 1e37
00000390: 4135 0f39 62f1 9fb8 68c0 1138 dcf3 15b8
000003a0: b705 8fb9 4cbd 4737 5caa e339 a892 20b8
000003b0: 3ba9 093a db0e 22b9 f568 48ba f800 d637
000003c0: 1ab8 3fb7 f033 bbb8 6027 2cb8 a022 5fb5
000003d0: 830a 16b9 a782 e337 5411 f037 7d2b e5b7
000003e0: d1f2 17ba 0f1e 4c39 732b 19b8 cc93 5638
000003f0: f731 e638 d561 5538 6e62 20b7 784c adb8
3.1047824e-05 1.7285582e-05 9.950579e-05 7.904813e-06 -4.5293593e-05 -2.7401897e-05 -0.0016327533 -0.00016177219
-1.119676e-05 -7.682498e-05 0.00017870094 2.8588058e-05 -9.2651506e-05 9.161153e-05 -1.85677e-05 4.1281746e-05
5.4144733e-05 -1.668097e-05 -0.00018691912 0.00010300467 -4.873708e-05 5.6925994e-05 9.147488e-05 3.17538e-05
3.5327335e-05 4.4847897e-05 0.0004996289 -0.00027773067 -0.0003999038 0.00023240759 -3.656953e-05 -6.494898e-05
0.0013018592 -0.0003282054 0.00027699565 -0.00012953617 3.9809715e-05 -5.6313183e-06 0.0005559141 -5.1183364e-05
0.00014582308 7.009029e-05 7.910862e-05 3.57271e-05 -0.000257593 5.449882e-05 0.00017134803 0.00015969391
3.109766e-05 -1.3420333e-05 -1.7389546e-05 -1.3672907e-05 2.68096e-05 9.981896e-06 -0.00011005203 -5.7817753e-05
1.034104e-05 -2.7429818e-05 -0.00032031513 0.00018247611 -0.00024933208 8.5729305e-05 3.2763975e-05 7.9714475e-05
3.6557012e-06 -2.6020793e-05 0.00014613959 -8.221842e-05 -0.00013928376 6.378543e-05 -3.420971e-05 -1.9601153e-05
-2.0014284e-05 9.3844465e-06 -9.894462e-05 -6.5832864e-05 0.0005506871 -0.00015563979 4.3879434e-05 9.610775e-05
1.7142407e-05 -8.545383e-06 0.0002532388 -9.1687194e-05 0.00016215109 7.3681455e-05 -0.00012951979 -0.00010120066
0.0005240273 -0.000269659 -0.0026749899 0.0006867712 1.1292683e-05 -2.104099e-05 0.00039843252 -3.8505153e-05
0.0002740751 -0.00010385097 -0.0006334372 0.00012272649 4.2541804e-05 4.7945578e-05 0.0014312252 -0.00028192758
0.00030319009 -0.00015937682 2.7349615e-05 1.6574677e-05 -0.00018911893 2.1309064e-05 -0.00068603933 0.00021864005
0.00016799706 -8.569374e-05 0.00015928027 1.8431907e-05 -0.00011335566 9.484727e-06 -0.0005180797 0.00030269462
-1.1565597e-05 -2.1095508e-05 0.00012650242 2.639015e-05 -0.00011436144 6.084943e-05 3.8592938e-05 2.4676012e-05
-7.796003e-05 -6.232431e-05 2.8107152e-05 -1.4150304e-05 2.8819468e-06 4.8197733e-05 7.541501e-05 5.521469e-05
-3.6825535e-05 -4.5059904e-05 2.7773158e-05 8.742165e-06 0.0003173303 -3.107079e-05 3.9744475e-05 -1.5870093e-05
-0.0012120169 0.00033185066 5.355284e-06 -2.6644902e-05 0.00044769968 -0.00015395341 0.00013552314 -7.5965705e-05
6.854001e-06 7.021463e-05 -1.6079672e-05 5.6819605e-05 8.0425074e-05 1.12312555e-05 -0.000114923125 8.469686e-05
0.00050993985 -0.000131525 0.00037727138 -8.71306e-05 8.461309e-06 3.4194487e-05 0.0019137638 -0.0004208204
2.99033e-06 3.661278e-05 0.00077094854 -0.00024441048 -4.300553e-05 -2.979365e-05 2.7002761e-06 1.1144906e-05
-0.0008581813 0.0002157804 2.4039133e-05 2.656407e-05 -7.6865705e-05 -4.659218e-05 0.00043816114 -0.00022541957
3.2439224e-05 -2.3820201e-05 -0.0017923642 -0.00029320995 3.2658143e-05 5.0340062e-05 -0.00022123309 6.603551e-05
-8.6997155e-05 2.524571e-05 5.440766e-05 -9.399766e-05 -9.499638e-06 -4.0459687e-05 0.00037633374 -0.00020404311
-0.00019329393 0.00010679261 -6.16239e-05 -2.2013335e-05 -6.90139e-05 -9.5253956e-05 0.00010710962 1.8011951e-06
0.00020724593 -6.307443e-05 -4.166524e-05 -2.4755911e-05 3.8120786e-05 1.4227731e-05 0.00061542704 -0.00012699963
0.000206747 -3.350022e-05 6.95547e-07 1.0459808e-06 0.0002298692 -0.00011381026 0.00014129534 -5.678648e-05
-0.0019732832 0.00056548626 8.223367e-06 9.433636e-06 0.00013657381 -7.626672e-05 3.4749886e-05 -3.575148e-05
-0.00027279343 1.1905398e-05 0.00043423742 -3.8283557e-05 0.00052513526 -0.00015455058 -0.00076450343 2.5511239e-05
-1.1427352e-05 -8.926529e-05 -4.1044666e-05 -8.312436e-07 -0.0001430903 2.7121348e-05 2.8618299e-05 -2.7319178e-05
-0.00057963753 0.00019466154 -3.6518508e-05 5.1159222e-05 0.00010976561 5.087427e-05 -9.559661e-06 -8.263526e-05

exp_avg_sq f4 [164, 2]
00000000: ad9c 3c32 13cf ec31 1c37 bd33 f868 1e33
00000010: 9fd6 2432 c4e6 9e31 ec06 6237 34cc ca36
00000020: eeb9 4c33 8cd1 c732 58e9 fc33 58ee 3533
00000030: 90f9 9e32 5a40 f731 5309 8232 825a 0a32
00000040: 6f05 0634 2e49 fa33 7a80 0734 3dfb 6533
00000050: 810b 4a32 6bf4 6a32 9951 8735 329c f234
00000060: 4a62 c932 1c72 8832 5e9e 1c35 2ac9 3334
00000070: ad0d c034 0e49 d933 8346 5733 4046 e032
00000080: 605d 6a36 4de6 b535 9d95 5134 5268 a433
00000090: a59e 3f32 54c1 0633 d1c6 d434 acb2 4534
000000a0: 0e26 3134 d728 b933 31c8 c334 01eb 2634
000000b0: 7eb0 fa33 e10e 4833 2054 aa34 3e6d e133
000000c0: c03c 1134 66c4 c733 e8e7 8134 80f9 8334
000000d0: 7ee3 7f31 9390 4a31 ef17 5834 9e7d cc33
000000e0: 363e f030 eaab e931 fd6f 7034 44fb b133
000000f0: a077 3d34 572e ac33 23c6 8733 6452 9832
00000100: 4a4f 6532 b870 c732 f6c6 2133 3568 5732
00000110: ed05 ba32 2f6d 0e32 cb95 9832 d7d3 fe31
00000120: 3db9 c632 596d 5632 288d 6c34 a4ea e533
00000130: dad1 3135 fe31 7c34 ce32 e533 422a 2433
00000140: 1314 9b33 389e 0733 5159 aa34 a76a 8e33
00000150: 1163 1b34 e6c6 6133 adab 8734 9359 0534
00000160: 22d6 0235 3af0 1b34 9f63 8837 f3d0 d336
00000170: 6194 6232 a8ff 2532 0f7f 8634 429c 6434
00000180: 5601 c434 1153 e533 6c7b 6435 eac2 b834
00000190: 756a d834 9433 5134 855d 8736 f8de c635
000001a0: e455 6834 e638 9033 c9e5 0634 b64d 6833
000001b0: ab54 4533 8dfb b232 1709 8835 1fda c434
000001c0: b469 6e33 4826 b432 a9ff 3433 0d27 8432
000001d0: a097 e833 ee03 1733 384b 4a35 87e8 9434
000001e0: 57d4 0d33 167d 7332 7093 0234 6f6a 2e33
000001f0: 1224 8833 14a6 5233 6885 0532 2a20 2b32
00000200: 105e 0134 b2fb 8833 11dd fe31 69d9 4132
00000210: 2d16 b135 b29c 2b35 bb11 9834 ff1a e433
00000220: 47f3 8433 4b2f f332 71b8 2132 c7cc 1f32
00000230: f6f2 5634 5189 d733 8443 9a31 3f77 4e32
00000240: a655 8136 f826 cf35 6b9a 9d31 bfc9 3b32
00000250: ecb2 0635 0d07 6034 4fed 7034 607e 3834
00000260: f7ff 5632 9167 3e32 d63b 8131 4ab7 b431
00000270: 8761 1033 1837 7f32 1f9e 9632 eccf 4532
00000280: 31cd 2935 07d5 8034 34c1 c634 0e20 3b34
00000290: 5c5e c733 bf38 3333 9dab a036 947b 2836
000002a0: 6935 fc31 aff2 9d31 b264 bf35 58f3 1435
000002b0: 19c8 ae32 c7d2 1f32 a4d6 3c32 802a d131
000002c0: d453 d735 1df3 3135 64ce 8933 5cf7 0933
000002d0: d2fd 6633 a85b e632 131f d234 ba26 0334
000002e0: fb97 b432 9cee 8332 ccad ad37 49b9 1d37
000002f0: 01fa b432 2822 7932 09fe fc33 74bb 3e33
00000300: 038c fd34 f286 a934 f456 a133 059f a433
00000310: 59f7 b732 97ee 3d32 a5cb a634 8d40 d033
00000320: d600 c333 61aa 1333 373e ee33 1bd0 9033
00000330: 4502 1133 dc34 0c33 d488 a234 489b d533
00000340: 306b 8534 1bb2 9a33 80c0 0933 07e7 a732
00000350: 803d 1335 eb20 6c34 ee36 5e35 fe1f ae34
00000360: d79c 9e34 5e2c 0a34 f08e 1e33 145e 8c32
00000370: 7963 1f34 6d07 1633 9985 2134 5834 0833
00000380: 4787 0037 1a01 4136 a45f 7332 ec14 2b32
00000390: 5f53 7734 bb81 a233 ed30 3434 85e8 d733
000003a0: 070e b733 b467 3d33 a02c ea34 aa71 0a35
000003b0: 3978 3035 cfd0 8a34 8af8 9a35 b329 0935
000003c0: 2c5b e031 90f0 6333 9322 8f32 b059 5232
000003d0: c1cf 3533 3bde 3333 3258 fc33 1b1c 6333
000003e0: 3172 5435 1d15 9d34 f5a4 e031 21ae dd31
000003f0: 7fb2 4635 4c94 a634 6983 db31 a646 a832
1.0978664e-08 6.8920456e-09 8.811023e-08 3.688271e-08 9.594856e-09 4.6246402e-09 1.3472261e-05 6.0438415e-06
4.7666553e-08 2.326194e-08 1.17771094e-07 4.235912e-08 1.8507109e-08 7.195962e-09 1.5138232e-08 8.053236e-09
1.2481699e-07 1.16548435e-07 1.2619594e-07 5.3546717e-08 1.1760563e-08 1.3676167e-08 1.0082032e-06 4.518966e-07
2.3444176e-08 1.5884375e-08 5.8344983e-07 1.6743857e-07 3.5772737e-07 1.01181385e-07 5.012272e-08 2.6108978e-08
3.4923069e-06 1.3552577e-06 1.9519071e-07 7.655821e-08 1.1153735e-08 3.1375137e-08 3.9632735e-07 1.8412055e-07
1.6498254e-07 8.6221625e-08 3.646724e-07 1.5545449e-07 1.1673636e-07 4.657966e-08 3.1726177e-07 1.049725e-07
1.3526278e-07 9.302384e-08 2.4196856e-07 2.4582187e-07 3.7236698e-09 2.947705e-09 2.0125275e-07 9.52234e-08
1.747998e-09 6.800737e-09 2.2392483e-07 8.28791e-08 1.7645516e-07 8.017803e-08 6.322468e-08 1.7732596e-08
1.3347583e-08 2.3217908e-08 3.7666688e-08 1.2538341e-08 2.1655945e-08 8.290313e-09 1.7763247e-08 7.4164563e-09
2.313447e-08 1.2481302e-08 2.2030565e-07 1.07063244e-07 6.624301e-07 2.3487516e-07 1.0672885e-07 3.822266e-08
7.2214014e-08 3.1576036e-08 3.1729954e-07 6.63179e-08 1.447154e-07 5.2567792e-08 2.527062e-07 1.2419177e-07
4.874038e-07 1.4522894e-07 1.6258853e-05 6.312615e-06 1.3188669e-08 9.6623936e-09 2.5051892e-07 2.1291001e-07
3.6508817e-07 1.0678753e-07 8.511622e-07 3.441449e-07 4.0310593e-07 1.9483406e-07 4.0342006e-06 1.4817042e-06
2.163793e-07 6.715872e-08 1.2563318e-07 5.4087387e-08 4.5944642e-08 2.083632e-08 1.0135435e-06 3.666655e-07
5.550983e-08 2.0972166e-08 4.2142037e-08 1.538458e-08 1.0830922e-07 3.5161e-08 7.536032e-07 2.7736334e-07
3.3022243e-08 1.4172903e-08 1.2160831e-07 4.0609333e-08 6.339555e-08 4.9045482e-08 7.771952e-09 9.960823e-09
1.2048281e-07 6.3787766e-08 7.4175053e-09 1.1283512e-08 1.3193982e-06 6.3930486e-07 2.8325107e-07 1.0621988e-07
6.190981e-08 2.831043e-08 9.4133705e-09 9.301579e-09 2.0018692e-07 1.00366954e-07 4.4896655e-09 1.2017892e-08
3.8544704e-06 1.5434043e-06 4.5868567e-09 1.0930704e-08 5.0179256e-07 2.0864191e-07 2.2438074e-07 1.718231e-07
1.2514639e-08 1.1083004e-08 3.7611967e-09 5.259527e-09 3.3616313e-08 1.485548e-08 1.7534203e-08 1.1514185e-08
6.3256e-07 2.3996856e-07 3.7020948e-07 1.7427394e-07 9.2838235e-08 4.1728295e-08 4.78835e-06 2.5105883e-06
7.3402373e-09 4.5968913e-09 1.4259915e-06 5.548841e-07 2.034726e-08 9.302943e-09 1.0991844e-08 6.0875323e-09
1.6043145e-06 6.6291415e-07 6.417102e-08 3.212277e-08 5.3781896e-08 2.6817204e-08 3.9138158e-07 1.2214414e-07
2.102387e-08 1.5358914e-08 2.0704138e-05 9.401069e-06 2.1068447e-08 1.4501474e-08 1.1780873e-07 4.440831e-08
4.7226794e-07 3.157689e-07 7.5129634e-08 7.6657706e-08 2.1416485e-08 1.1055497e-08 3.106808e-07 9.6974965e-08
9.080547e-08 3.4381063e-08 1.10940555e-07 6.743377e-08 3.3762507e-08 3.2644365e-08 3.0274407e-07 9.946831e-08
2.485117e-07 7.203581e-08 3.2072876e-08 1.9546418e-08 5.485126e-07 2.1991188e-07 8.278138e-07 3.2433303e-07
2.954391e-07 1.2868392e-07 3.6917243e-08 1.6340927e-08 1.4844217e-07 3.493135e-08 1.5042896e-07 3.1712574e-08
7.660891e-06 2.8759882e-06 1.4166208e-08 9.958267e-09 2.3033998e-07 7.567311e-08 1.6781605e-07 1.0054013e-07
8.524153e-08 4.409931e-08 4.3618365e-07 5.157441e-07 6.5740056e-07 2.585643e-07 1.1546229e-06 5.109716e-07
6.529623e-09 5.3071346e-08 1.6663114e-08 1.2244001e-08 4.2331298e-08 4.1878803e-08 1.1750707e-07 5.2878118e-08
7.9142325e-07 2.925889e-07 6.5380115e-09 6.4517427e-09 7.4020494e-07 3.102781e-07 6.3886785e-09 1.9589901e-08

exp_avg f4 [164]
00000000: 842e ca36 2ef2 9837 644c 10b7 bcda b8b8
00000010: 78c4 42b6 04ef a837 9cf3 c837 9c15 2d37
00000020: a0eb c135 4cba 1b37 0d7f 4b37 56cf a537
00000030: 3425 8cb5 d851 55b8 df85 2e38 ea72 40b7
00000040: 8ef3 00b9 8a8c 02b8 ca69 b6b6 909a 19b8
00000050: 09f2 c937 c94f 6937 ac81 f937 35df 3b38
00000060: 0c0e 41b6 b079 f635 b644 5c35 fc00 2cb7
00000070: 46d0 04b6 1b8d 0038 28a7 8137 ece3 5b37
00000080: 8a35 bf35 14f2 87b7 1bbe 3a37 2ab8 1236
00000090: 6643 4bb7 8e69 99b7 b924 58b8 8664 7537
000000a0: d02e 7cb5 3a8a 04b8 a25c d237 c9a8 d8b7
000000b0: 8283 73b8 b4ca 2539 f436 c835 4967 c8b7
000000c0: 34ec 00b8 a54f 7b37 3278 0d36 f7d9 10b9
000000d0: 0dd7 edb7 0828 a836 544c 9e37 8e20 c437
000000e0: a3fb b8b7 b6ba b336 8b5f 6737 2d9a 5238
000000f0: d68f 5db6 51d1 d737 8051 a735 3880 2037
00000100: e709 94b7 c03c 2d36 50f0 86b6 0fb4 4b37
00000110: d7df 7836 d844 a636 e337 acb7 4dd8 d3b6
00000120: a622 0138 a091 7cb5 2602 41b8 2406 4eb6
00000130: 931f 2d37 1294 e6b6 5d3d 2437 c010 a336
00000140: e784 47b8 4939 1bb8 0a0f 21b7 f9cd 3fb9
00000150: 6f90 fdb6 b46f 93b8 177a a8b6 68a4 c3b4
00000160: 2ccd b737 9ea8 27b6 e0c9 14b7 3100 42b8
00000170: 4cbf 32b6 2c3c f3b8 4e17 1437 7a8f a237
00000180: 8c16 9bb7 14a7 e036 d498 9eb6 b824 22b8
00000190: f35b e037 75bd b5b6 f79b aeb7 0c3d b137
000001a0: a034 d7b7 35c1 67b7 8f78 0e37 b9f0 68b8
000001b0: fb84 19b8 0009 4db5 0f92 eab7 1e90 89b7
000001c0: ba30 0239 0084 4332 4d0e 87b6 c091 f434
000001d0: aefd 3237 daca 29b7 6879 61b8 2fdb beb7
000001e0: 3c03 12b7 5910 8bb7 08f2 8d37 b4aa 7036
000001f0: b8c4 8238 9437 5a37 7281 b637 244c eab6
00000200: f944 bd37 44ed 7a36 ba1c 1538 4ac4 be37
00000210: 6b95 9938 70bc 1138 fbca 2737 3e97 9637
00000220: 24d8 71b6 1a0d 9eb7 978d 2137 902b 0338
00000230: 5455 61b7 d179 c137 ceae 7f37 8105 c736
00000240: a871 fcb7 a66f 1436 9464 a1b7 c11a 1538
00000250: de0c 0ab7 db9d 1037 df3d a837 54d6 7f37
00000260: f43d 0338 b4d0 1238 10f8 feb7 088b 7a36
00000270: 3e57 f5b5 961e ea37 3861 fd35 8107 a837
00000280: 74a2 80b7 fb19 5b37 94fd 5ab6 ba2e 1cb6
6.0254843e-06 1.8232586e-05 -8.600855e-06 -8.814546e-05 -2.9022613e-06 2.0138461e-05 2.3955297e-05 1.0316635e-05
1.4448196e-06 9.282096e-06 1.2129324e-05 1.9766081e-05 -1.044164e-06 -5.085938e-05 4.160951e-05 -1.1470847e-05
-0.00012297762 -3.1125302e-05 -5.436338e-06 -3.662199e-05 2.4073774e-05 1.3906459e-05 2.9743496e-05 4.4792152e-05
-2.8767417e-06 1.8363844e-06 8.2056374e-07 -1.0252228e-05 -1.9790764e-06 3.0648993e-05 1.5455837e-05 1.3106484e-05
1.4246191e-06 -1.620598e-05 1.1130726e-05 2.1862893e-06 -1.2115435e-05 -1.8288174e-05 -5.1532614e-05 1.4626543e-05
-9.3945437e-07 -3.1599986e-05 2.5077086e-05 -2.5827803e-05 -5.805819e-05 0.00015811139 1.4917155e-06 -2.3889954e-05
-3.073756e-05 1.49793095e-05 2.10806e-06 -0.00013814108 -2.8352742e-05 5.0114504e-06 1.887061e-05 2.338018e-05
-2.2051687e-05 5.3563517e-06 1.3790918e-05 5.021149e-05 -3.301529e-06 2.5727468e-05 1.2466189e-06 9.566596e-06
-1.7647586e-05 2.581437e-06 -4.0214873e-06 1.2141666e-05 3.7085172e-06 4.9552e-06 -2.0530022e-05 -6.3134707e-06
3.0788266e-05 -9.408923e-07 -4.6016787e-05 -3.0699966e-06 1.0318955e-05 -6.871772e-06 9.789449e-06 4.8597285e-06
-4.7569072e-05 -3.700823e-05 -9.599849e-06 -0.0001829191 -7.556802e-06 -7.0303126e-05 -5.0210033e-06 -3.6441202e-07
2.191084e-05 -2.4983087e-06 -8.86849e-06 -4.6253383e-05 -2.6635416e-06 -0.00011598351 8.8269135e-06 1.9378716e-05
-1.8487939e-05 6.6951707e-06 -4.7265585e-06 -3.8658007e-05 2.6745698e-05 -5.416276e-06 -2.0815043e-05 2.1128471e-05
-2.5654503e-05 -1.38136575e-05 8.491929e-06 -5.55373e-05 -3.660189e-05 -7.638155e-07 -2.7962988e-05 -1.6398782e-05
0.00012415918 1.1380507e-08 -4.0249784e-06 4.555459e-07 1.0668691e-05 -1.0120415e-05 -5.375725e-05 -2.275183e-05
-8.703031e-06 -1.6577704e-05 1.6921214e-05 3.586215e-06 6.235525e-05 1.3006753e-05 2.1756368e-05 -6.9826074e-06
2.2562674e-05 3.739101e-06 3.5551122e-05 2.274117e-05 7.32344e-05 3.474619e-05 1.0001236e-05 1.7951821e-05
-3.603761e-06 -1.8841169e-05 9.629314e-06 3.1273405e-05 -1.3430912e-05 2.3064118e-05 1.5239884e-05 5.931303e-06
-3.0093666e-05 2.2118707e-06 -1.9239531e-05 3.5549285e-05 -8.228437e-06 8.619822e-06 2.0055972e-05 1.5249087e-05
3.1290532e-05 3.5003482e-05 -3.0394673e-05 3.733383e-06 -1.8279313e-06 2.7909216e-05 1.8878263e-06 2.0030655e-05
-1.5334437e-05 1.3059466e-05 -3.2632133e-06 -2.327301e-06

exp_avg_sq f4 [164]
00000000: 788c f22f 3991 5031 c547 8b2f 7bd8 0b35
00000010: 4756 0c31 47e9 7c31 33e4 c52f 6fa5 d92f
00000020: 1f25 f931 d73e 4731 3a66 de2f 7f8c 4a33
00000030: 1783 f42f 37b8 1e32 a6b1 d531 ef9d 1b31
00000040: 3cd5 8133 5a21 6c31 0ac2 e130 c008 0032
00000050: b9e2 ae31 8637 8932 e6e0 1531 4a43 2432
00000060: 317c df31 3136 9732 9061 c42e acf7 1632
00000070: 50f1 b22e cef6 8531 ba2c 5e31 58b8 0f31
00000080: f38c b630 f1e7 2830 65dd f12f ad48 0730
00000090: ddd3 8630 576d 1832 580d 4132 12a9 7631
000000a0: 46bc f930 068e aa31 e152 9731 6c1d 4132
000000b0: 6402 0532 2bfb a434 eaf3 2d30 1fb4 f031
000000c0: e53d ec31 7077 f032 746d ad32 1303 9433
000000d0: 9539 7031 e8a9 ce31 59a6 6e30 942f d532
000000e0: 80e9 8730 400c a530 f65e 3731 157c 5f32
000000f0: 5374 9c30 4206 8b31 119e 0131 07fb 822f
00000100: 2e93 bf31 23cb 8f2f 0a2f 8f33 b35c 4a32
00000110: 0679 0b31 7c21 b32f d95c 7b31 cfc9 8e2f
00000120: 59ff db33 b7f8 8a2f 6cc1 1932 c5ee 2532
00000130: 478a 0030 57fd 4c2f 7a04 9430 cef5 2430
00000140: 68df 3a32 51cb ea31 54ef 8b31 78e2 c633
00000150: 9202 5b2f ee9c d132 16a4 5330 1f26 fb2f
00000160: bc6a 3033 03ab 4a31 8039 2131 b2ba d731
00000170: b88d 7e30 b52a 5935 3118 4c30 523c 0a31
00000180: 2dbc ef32 9ae0 9631 aa02 6c30 7096 ab31
00000190: f939 e630 8940 d531 6e79 b030 2fc0 3232
000001a0: 18d1 a731 0496 9430 a5b5 cf32 cd2f 7632
000001b0: 54a5 0132 4a37 e030 86b6 1731 3758 2631
000001c0: 5bff 1a34 9bdc 2d30 df5a a731 0b8b d631
000001d0: 0b25 fc30 ae69 6832 02c6 4532 1003 0833
000001e0: a2fd 0b30 c49d 1930 e8e7 2431 eb4f 3631
000001f0: 682f 6e32 dea7 232f 3b16 0d33 b56a b02f
00000200: 7d07 0332 cfdf 662f f867 c831 0f93 c131
00000210: 3e26 b033 102a dc31 61af 102f 3f62 0031
00000220: 1341 3231 aead 4431 80d9 6130 e7ec bf31
00000230: 60e7 7930 6cdc 1e33 c1ce 6130 6197 8130
00000240: bdc5 9831 32a4 5c2f adb7 8831 4666 5031
00000250: 2ee6 d42f 313d bc30 13fc 5233 05d2 ea32
00000260: 6f9f 8331 95c1 0932 f5cf 6a31 81ac 5f30
00000270: a426 652f f675 db31 5047 3c31 3764 0e32
00000280: 785e 7931 6822 0032 6d99 8c33 bbf6 742f
4.4119353e-10 3.0350533e-09 2.5334948e-10 5.2096556e-07 2.0421724e-09 3.680343e-09 3.5996237e-10 3.9589618e-10
7.251074e-09 2.8994032e-09 4.04542e-10 4.715957e-08 4.4476486e-10 9.238696e-09 6.219312e-09 2.2645243e-09
6.045818e-08 3.4361478e-09 1.6426054e-09 7.45257e-09 5.089842e-09 1.5974148e-08 2.1810194e-09 9.561356e-09
6.504273e-09 1.7603357e-08 8.930379e-11 8.787463e-09 8.1373686e-11 3.898868e-09 3.2330676e-09 2.0914026e-09
1.3282303e-09 6.144765e-10 4.3994955e-10 4.921599e-10 9.809998e-10 8.8724255e-09 1.1237113e-08 3.5893817e-09
1.8170645e-09 4.9637974e-09 4.4041006e-09 1.1240768e-08 7.7421625e-09 3.073013e-07 6.3283656e-10 7.0053967e-09
6.8755406e-09 2.7993991e-08 2.0189624e-08 6.892346e-08 3.4957328e-09 6.014705e-09 8.682029e-10 2.48181e-08
9.888907e-10 1.2008812e-09 2.6683984e-09 1.3008521e-08 1.1383555e-09 4.046144e-09 1.886182e-09 2.3825228e-10
5.575564e-09 2.6155886e-10 6.667513e-08 1.1779025e-08 2.0295956e-09 3.2583702e-10 3.6578085e-09 2.5973043e-10
1.024443e-07 2.5278776e-10 8.949751e-09 9.658554e-09 4.676263e-10 1.8643696e-10 1.076969e-09 6.001216e-10
1.0877422e-08 6.8334107e-09 4.072641e-09 9.261288e-08 1.9918847e-10 2.4402166e-08 7.6994533e-10 4.568372e-10
4.1075268e-08 2.9492078e-09 2.3461268e-09 6.2785483e-09 9.2606056e-10 8.0900946e-07 7.4249146e-10 2.0115931e-09
2.7908834e-08 4.391109e-09 8.5860086e-10 4.9938578e-09 1.6751179e-09 6.2064527e-09 1.2840198e-09 1.0404661e-08
4.884111e-09 1.0811054e-09 2.4180574e-08 1.4329953e-08 7.5463795e-09 1.6313859e-09 2.2077145e-09 2.4206324e-09
1.4435265e-07 6.325053e-10 4.8706705e-09 6.244027e-09 1.8345941e-09 1.3528206e-08 1.1511931e-08 3.1667753e-08
5.092834e-10 5.5885274e-10 2.3996964e-09 2.6529914e-09 1.3864202e-08 1.4884402e-10 3.284934e-08 3.2090033e-10
7.626906e-09 2.0997891e-10 5.832586e-09 5.633758e-09 8.202595e-08 6.4076247e-09 1.3159031e-10 1.8682298e-09
2.59394e-09 2.862048e-09 8.216361e-10 5.5857643e-09 9.0914476e-10 3.6987714e-08 8.214834e-10 9.42901e-10
4.4462625e-09 2.0067217e-10 3.9790025e-09 3.032612e-09 3.8726128e-10 1.3696192e-09 4.9123695e-08 2.7336691e-08
3.8307273e-09 8.018465e-09 3.4169692e-09 8.137207e-10 2.0841157e-10 6.3871495e-09 2.7398137e-09 8.288274e-09
3.6287968e-09 7.458404e-09 6.547166e-08 2.2279327e-10
